final.pt (torch, 114376 bytes, 13 tensors)

Actor.fc1.weight f4 [32, 378]
0	0xbb8ec9c9	-0.0043575508
1	0xbc3dc515	-0.011582633
2	0x3d9f4c80	0.07778263
3	0x3dd893e3	0.10575082
4	0xbceb47c4	-0.028720744
5	0x3d9d148a	0.07669933
6	0x3ce8db4d	0.028424883
7	0x3c1d4a70	0.009600267
8	0xbcf52045	-0.029922614
9	0x3c52ca1a	0.012865568
10	0xbcd2becf	-0.02572575
11	0x3d3528d5	0.044228394
12	0xbd8b85d2	-0.068126336
13	0xbd7048d0	-0.05866319
14	0xbb861f71	-0.0040931036
15	0x3d02b74b	0.031913083
16	0xbdacc6fb	-0.0843639
17	0xbde14038	-0.10998577
18	0x3dcae05a	0.09906073
19	0xbd84e9a7	-0.06489878
20	0xbdcd7479	-0.10031981
21	0xbdd388b7	-0.10328811
22	0x3e075cc9	0.13218988
23	0xbd610d20	-0.054944158
24	0xbd34b720	-0.044119954
25	0xbbe3fc2c	-0.0069575515
26	0xbd8f9f8a	-0.070128515
27	0x3cc7326b	0.024316033
28	0x3dabddc5	0.083919086
29	0xbc2cd047	-0.010547704
30	0x3ce860b2	0.02836642
31	0xbdd45f04	-0.10369685
32	0x3c47d3fb	0.012196536
33	0x3d0ad945	0.03389861
34	0x3c7e9038	0.015537314
35	0x3cb5b6d1	0.0221819
36	0xbd10af2e	-0.035323314
37	0xbcf559d4	-0.02995006
38	0x3d329267	0.04359665
39	0xbb7192f0	-0.0036861263
40	0x3a243c70	0.00062651094
41	0x3d9eb824	0.07749966
42	0xbdcff94d	-0.10154972
43	0xbdf3e535	-0.11908952
44	0xbdf4f4df	-0.11960768
45	0x3db55112	0.088533536
46	0xbd02ff61	-0.03198183
47	0x000024bf	1.3182e-41
48	0x003c5689	5.541173e-39
49	0x80002a82	-1.5249e-41
50	0x00000871	3.028e-42
51	0x0001c263	1.61568e-40
52	0x8000ae9b	-6.2637e-41
53	0x80019b91	-1.47642e-40
54	0x000048e4	2.6148e-41
55	0x8000200d	-1.1498e-41
56	0x800063a0	-3.5739e-41
57	0x3d9d032e	0.07666622
58	0x3dc5758e	0.096415624
59	0x3dd81ea0	0.10552716
60	0x3ace644c	0.0015746444
61	0x3ceb429b	0.028718283
62	0x3bac9e0e	0.005267865
63	0xbd81d708	-0.06339842
64	0xbb6eb9ad	-0.003642659
65	0x3d2d4d07	0.042309787
66	0x3dc871ae	0.09787308
67	0x3dc991a7	0.09842234
68	0x3d61b7ab	0.0551068
69	0x3d88c476	0.06678097
70	0xbadee5ad	-0.0017005705
71	0x3da3716f	0.0798062
72	0xbb5c83c1	-0.0033647867
73	0xbd84c874	-0.06483546
74	0xbcd3e312	-0.025865112
75	0x3dc6f107	0.09713941
76	0x3ccba2b1	0.02485785
77	0x3ca626f7	0.020282252
78	0x3d4e5ef6	0.05038353
79	0x3daf479f	0.085585825
80	0x3c8234b7	0.015894277
81	0x3d866fa4	0.065642625
82	0xbb80fa61	-0.0039360975
83	0xbda43162	-0.080172315
84	0xbce2196c	-0.027600013
85	0x3dd157d2	0.102218285
86	0x3dbcb155	0.09213511
87	0x3daecea1	0.08535505
88	0x3daf6dff	0.08565902
89	0x3d34d108	0.04414466
90	0x3c7b3afd	0.015333888
91	0x3d827732	0.06370391
92	0xbdafb42c	-0.08579287
93	0x3aeb0eb7	0.0017933463
94	0xbcb5ba72	-0.02218363
95	0xbcaec536	-0.021334272
96	0x3ccf8393	0.025331294
97	0x3cf6a1c8	0.03010644
98	0x3cd8b3eb	0.02645298
99	0x3d94ec55	0.07271639
100	0x3d25a18b	0.040437263
101	0x3d097f4e	0.033568673
102	0xbdb908a5	-0.09034852
103	0x3d8b9871	0.06816185
104	0xbcf76849	-0.030201094
105	0xbdc6678f	-0.09687721
106	0x3dc8f77f	0.09812831
107	0x3d6bfd23	0.057614457
108	0x3cfe336e	0.031030383
109	0x3db2dcc3	0.08733513
110	0xbd4e7f6e	-0.050414495
111	0xbd906e13	-0.07052245
112	0xbc6a1c4e	-0.014288975
113	0xbc9b6da7	-0.018973185
114	0xbd027acc	-0.03185539
115	0xbcb6b3aa	-0.022302467
116	0x3d485358	0.048907608
117	0x3dd5adbf	0.1043353
118	0x3d824fac	0.063628525
119	0x3d6a9729	0.057273064
120	0xbd851ec3	-0.06500008
121	0x3d8d1a56	0.06889789
122	0x3db8d7fa	0.09025569
123	0x3da52e27	0.080654435
124	0x3d830ef8	0.063993394
125	0xbcd51b57	-0.026014013
126	0x3d52e016	0.051483236
127	0x3d8a8a19	0.06764621
128	0x3c8f69c0	0.01750648
129	0x3d2769a6	0.04087224
130	0xbd383c72	-0.04497952
131	0x3cf7fd41	0.030272128
132	0x3dddf03e	0.10836838
133	0x3cd76c0c	0.026296638
134	0x3d908aa3	0.07057693
135	0xbdaba18e	-0.083804235
136	0x3d06df38	0.03292772
137	0x3d550bac	0.052013084
138	0x3daced3f	0.084436886
139	0x3d8d9a61	0.06914211
140	0x3d7ea40c	0.062168166
141	0xbd9f1fcf	-0.07769739
142	0x3d0b5cff	0.034024235
143	0xbd6da1bf	-0.05801558
144	0x3d8d2d3b	0.06893393
145	0xbd36121b	-0.04445086
146	0x3db15873	0.086594485
147	0x3d5804e8	0.052739054
148	0x3de2f9ca	0.110828
149	0x3d8395e9	0.064250775
150	0x3bfaa43d	0.0076489733
151	0xbcf53301	-0.029931547
152	0x3d23eb78	0.040019482
153	0x3d27e6e9	0.040991697
154	0xbd9cce91	-0.07656587
155	0x3cf46a2b	0.029835781
156	0x3d10f70b	0.03539185
157	0x3b7852c7	0.0037891136
158	0x3d9d925f	0.07693934
159	0x3da6db7d	0.08147333
160	0x3d525e14	0.05135925
161	0xbd67e361	-0.05661333
162	0x3d18b329	0.037280235
163	0x3d08c7ef	0.033393797
164	0xbde3657d	-0.11103342
165	0x3dbef4bd	0.09324024
166	0x3d8ac9be	0.067767605
167	0x3d83a042	0.06427051
168	0x3d844c22	0.06459834
169	0x3dbafe61	0.0913055
170	0xbbbf77ac	-0.0058431234
171	0xbccc2dd9	-0.024924206
172	0xbd0611e9	-0.032731924
173	0x3d09a579	0.033605073
174	0x3d2cb5a1	0.042165402
175	0x3d402dae	0.046918564
176	0x3ddefd27	0.10888129
177	0x3c868f1b	0.01642566
178	0x3d5f1eba	0.054472663
179	0x3d9a9695	0.075482525
180	0xbc16b091	-0.00919737
181	0xbd8b50c0	-0.06802511
182	0xbdb49784	-0.08817962
183	0x3d558e64	0.052137747
184	0x3d995934	0.07487717
185	0x3d3c35db	0.045949798
186	0x3dd6f3d9	0.10495729
187	0x800013ef	-7.151e-42
188	0x0000bd93	6.8006e-41
189	0x00022950	1.98491e-40
190	0x8001f2a6	-1.78881e-40
191	0x80014781	-1.17486e-40
192	0x00005b13	3.2671e-41
193	0x3c9ce33d	0.019151324
194	0x3cd62d34	0.026144601
195	0xbb6d614e	-0.0036221328
196	0xbd1c165e	-0.03810727
197	0xbc58765d	-0.013211814
198	0xbd8aa242	-0.067692295
199	0xbd128f55	-0.035781223
200	0xbdbd8db7	-0.092555456
201	0xbcc7aabd	-0.024373407
202	0x3cd73704	0.02627135
203	0xbc975411	-0.018472703
204	0xbd607dbb	-0.054807406
205	0x3d3c98be	0.046044104
206	0xbcc36d9c	-0.023855977
207	0x3cc2e789	0.023792045
208	0x3ba03b94	0.0048899148
209	0xbc5b89bd	-0.013399539
210	0xbc87c2cf	-0.016572384
211	0x3bef00aa	0.0072937803
212	0xbca1fda9	-0.019774275
213	0xbc9e58e5	-0.019329498
214	0x3d46b1d7	0.048509445
215	0xbc9e0adf	-0.019292293
216	0xbd8f744b	-0.07004603
217	0x3d2e6e04	0.042585388
218	0x3dd1f63a	0.10252042
219	0x3d6d762d	0.05797403
220	0x3d386d2d	0.045025993
221	0x3c6cb2fa	0.014446968
222	0x3ccc4014	0.024932899
223	0x3b3570a1	0.002768554
224	0x3de7a665	0.11311034
225	0xbc619b1c	-0.013769891
226	0x3da36810	0.07978833
227	0x37b5720b	2.1629987e-05
228	0x3c41ec72	0.011836158
229	0xbc42d363	-0.011891219
230	0xbbf27247	-0.007398877
231	0xbcfc3463	-0.030786699
232	0x3d774842	0.060371645
233	0x3d0d25ee	0.03446
234	0xbc5bcdbd	-0.013415751
235	0xbd28462b	-0.041082542
236	0x3d91ac43	0.071129344
237	0x3cd70967	0.0262496
238	0x3d903e65	0.07043151
239	0xbcdd5aac	-0.027020775
240	0xbd182da6	-0.03715291
241	0x3cc3e71f	0.023913918
242	0x3dcc927d	0.09988878
243	0x3c8d8eaf	0.01727995
244	0x3d2598e8	0.040429026
245	0x3c7f927d	0.01559889
246	0xba6b7e11	-0.0008983324
247	0x3d5e2813	0.054237437
248	0x3e09e418	0.13465917
249	0x3d6c6f85	0.05772354
250	0xbdc69e71	-0.09698189
251	0x3e23c3cb	0.15992658
252	0xbcbffd67	-0.023436261
253	0x3d9a29cf	0.075275056
254	0x3e063531	0.13106228
255	0xbe4181ff	-0.18897246

Actor.fc1.bias f4 [32]
0	0x3de18c24	0.11013058
1	0x3d9c0b83	0.07619383
2	0xbd687e1d	-0.056760896
3	0x3def5dd2	0.11687817
4	0x3e13c070	0.14428878
5	0xbd88f37c	-0.06687066
6	0x3e20c4fd	0.15700145
7	0xbd085d47	-0.03329208
8	0x3d1256ae	0.035727195
9	0x3ccd9bb5	0.025098661
10	0x3cd603eb	0.026124915
11	0x3c973772	0.018459056
12	0x3e1482f8	0.14503086
13	0x3dd29a7f	0.10283374
14	0x3ca90ec3	0.020636922
15	0x3d4c5abc	0.04989122
16	0xb632f900	-2.6669004e-06
17	0x3d83daa1	0.064381845
18	0x3dafe137	0.08587878
19	0x3e06b705	0.13155754
20	0x3b9f29cc	0.0048572775
21	0xbd874799	-0.06605453
22	0xbb5d041b	-0.003372437
23	0x3caed3f1	0.021341296
24	0xbc956d74	-0.018240668
25	0x3c5b1f05	0.013374095
26	0x3d8d3e79	0.06896681
27	0x3e10f8b0	0.14157367
28	0x3d236203	0.039888393
29	0x3d9e33eb	0.07724746
30	0xbd027b52	-0.03185589
31	0x3e0c2ff3	0.13690166

Actor.fc2.weight f4 [32, 32]
0	0xbd005ba1	-0.031337384
1	0x3e0ad974	0.13559514
2	0x3c43726e	0.011929138
3	0x3e5783bf	0.21046351
4	0xbd035851	-0.032066647
5	0xbdbe6675	-0.09296886
6	0x3df64816	0.12025468
7	0x3e0f2d84	0.13982207
8	0xbd50605f	-0.050873157
9	0x3dcc9e31	0.0999111
10	0xbe2b446a	-0.16725317
11	0x3e39f99d	0.18161626
12	0x3b83b7b9	0.004019704
13	0xbd959356	-0.07303493
14	0x3e27d3f5	0.16389449
15	0x3d4d425c	0.050112113
16	0x3d010bda	0.031505443
17	0xbd1d5ec9	-0.038420472
18	0xbe15593d	-0.14584823
19	0x3e2f3b41	0.17112447
20	0xbd9bb531	-0.07602919
21	0x3e213a50	0.157449
22	0xbdcd3735	-0.100202955
23	0xbe07d5b7	-0.1326512
24	0xbd62a067	-0.055328753
25	0xbd04f7a0	-0.032462716
26	0x3e1acd97	0.15117489
27	0x3dc3b79f	0.09556507
28	0x3d2efb5b	0.04272018
29	0x3decab6c	0.11556134
30	0xbe0e50b1	-0.13897969
31	0x3e5b3dc1	0.21410276
32	0x3de4e963	0.111773275
33	0xbe004a94	-0.1252845
34	0x3c60569f	0.013692527
35	0x3e1865ca	0.1488258
36	0x3e6fe5d1	0.23427512
37	0x3dcb6b92	0.09932627
38	0x3dd93786	0.106062934
39	0x3df75b95	0.12078015
40	0x3e2bcf6d	0.16778345
41	0x3e1c7bbb	0.15281574
42	0x3dce8ab1	0.10085047
43	0xbd01a212	-0.031648703
44	0xbcc6d1b1	-0.02426991
45	0xbe29c822	-0.16580251
46	0x3dde47cc	0.10853538
47	0x3d483821	0.048881654
48	0xbb8a0837	-0.004212405
49	0x3e16b9e9	0.14719357
50	0x3c96421e	0.018342074
51	0x3d4178c2	0.047234304
52	0xbddb078f	-0.10694801
53	0x3dbeeace	0.09322129
54	0xbde3c47f	-0.11121463
55	0xbd8650d8	-0.065583885
56	0xbd5cbdf4	-0.05389209
57	0x3e05a5f6	0.1305159
58	0x3dee8429	0.11646301
59	0x3e34bace	0.17649385
60	0x3d2b3341	0.041796926
61	0xbcf5b487	-0.029993309
62	0x3d0429e5	0.032266516
63	0x3df9645f	0.121773474
64	0x3e1dbf17	0.15404926
65	0xbdb09b12	-0.08623327
66	0xbd03c45d	-0.03216969
67	0x3e2afb1d	0.16697355
68	0x3d6460ca	0.055756368
69	0xbd37920b	-0.04481701
70	0x3e69460e	0.2278063
71	0x3d02b2ed	0.03190892
72	0x3db6c3cc	0.08924064
73	0xbdcf87ad	-0.101333
74	0xbc1cdf27	-0.009574688
75	0x3e0e2072	0.13879564
76	0xbd870443	-0.0659261
77	0xbd7dbf0c	-0.061949775
78	0xbd500b05	-0.05079176
79	0x3d48c8a7	0.049019482
80	0xb8b82459	-8.780574e-05
81	0xbe11a0df	-0.14221524
82	0xbd7ad012	-0.061233588
83	0x3e644bd2	0.22294548
84	0x3d68c919	0.056832407
85	0xbd0725e6	-0.032995127
86	0x3e0c5746	0.13705167
87	0x3e20c6e0	0.15700865
88	0xbd5dccef	-0.054150518
89	0x3d7d0003	0.06176759
90	0x3dca4fcb	0.098785006
91	0x3dace5ae	0.084422454
92	0x3d300026	0.04296889
93	0x3d8d6d60	0.06905627
94	0x3dc927db	0.09822055
95	0x3d99d3da	0.075111106
96	0xbe0d1721	-0.13778354
97	0xbc360e69	-0.011111834
98	0x3de5b6de	0.1121652
99	0x3d7b816f	0.061402734
100	0x3c128aa5	0.008944188
101	0x3d5312a4	0.05153145
102	0x3c4ae4b1	0.012383626
103	0xbe1440e5	-0.1447788
104	0x3dfe422a	0.124149635
105	0x3d8635d2	0.06553234
106	0x3dd09337	0.10184329
107	0x3b9fa915	0.004872451
108	0x3db048f6	0.08607666
109	0x3d16771e	0.036734693
110	0xbd15354d	-0.036427785
111	0x3d4a07a9	0.04932371
112	0x3d492ba5	0.04911389
113	0xbd7f71b5	-0.0623643
114	0x3d47d03e	0.04878258
115	0x3dc1ee77	0.09469312
116	0xbddae59e	-0.10688327
117	0xbdb08144	-0.086184055
118	0x3cb2acc5	0.021810899
119	0xbdf58e7d	-0.11990068
120	0xbd6869d4	-0.05674155
121	0xbe1f0940	-0.15530872
122	0xbdc33e84	-0.09533408
123	0x3e35e844	0.17764384
124	0x3d31bef4	0.043394998
125	0x3da796ad	0.08183036
126	0xbe096191	-0.13416125
127	0x3e71d8c9	0.23617853
128	0x3db75a51	0.08952773
129	0x3d08abc1	0.033366922
130	0xbe119d15	-0.14220078
131	0x3e3b5fef	0.18298315
132	0x3e07d29f	0.1326394
133	0xbda78303	-0.081792854
134	0x3de9517f	0.11392497
135	0xbb9ad3f8	-0.0047249757
136	0x3e21b0ea	0.15790144
137	0x3e27d6b0	0.1639049
138	0x3de51a4d	0.11186657
139	0xbd637c63	-0.055538546
140	0x3e651474	0.22371083
141	0x3dda68c9	0.106645174
142	0xbd4b4c7f	-0.0496335
143	0x3d522f4d	0.05131464
144	0xbba7ddbb	-0.005122868
145	0xbdb52d1d	-0.08846495
146	0x3cc6c457	0.024263544
147	0x3e323dcf	0.1740639
148	0x3d45c9ba	0.048288085
149	0xbd5d9320	-0.054095387
150	0x3da44e09	0.080226965
151	0xbb068e3f	-0.0020531563
152	0xbd5a62ea	-0.053316988
153	0x3d4b28c2	0.049599417
154	0xbd8dfd11	-0.06933034
155	0xbd717702	-0.058951385
156	0x3d424c06	0.047435783
157	0xbe1526fb	-0.14565651
158	0x3e1619a8	0.14658225
159	0x3e7ac13c	0.24487776
160	0xbd9cbc7e	-0.076531395
161	0xbc4a085d	-0.0123310955
162	0x3d5dbf03	0.05413724
163	0xbbdc581e	-0.0067243716
164	0xbdb4dd85	-0.08831314
165	0xbdffbac3	-0.12486794
166	0x3e54b7a8	0.20773184
167	0x3dddc3cc	0.10828361
168	0x3e0e5ee7	0.1390339
169	0xbdf3fedd	-0.11913846
170	0x3db8b86e	0.09019552
171	0x3e047cb7	0.129382
172	0x3e27dc1b	0.16392557
173	0x3e36d29a	0.17853776
174	0x3de78912	0.11305441
175	0x3d56b5f6	0.052419625
176	0xbbd073cb	-0.00636146
177	0x3d868ad0	0.06569445
178	0x3ce846a3	0.028353995
179	0x3e5113c9	0.20417704
180	0xbd90b332	-0.07065429
181	0x3dd04f74	0.101714045
182	0x3d9a451c	0.07532713
183	0xbd9a6f6e	-0.07540785
184	0xbd058540	-0.03259778
185	0xbdd7c9d5	-0.10536543
186	0x3e41dca5	0.18931825
187	0x3e2426fd	0.16030498
188	0x3d2dd8f5	0.042443234
189	0x3e10d2df	0.14142941
190	0xbddf5da9	-0.10906536
191	0x3e4ee9f1	0.20206429
192	0x3d390ce6	0.045178317
193	0x3dedd566	0.11612968
194	0xbdebc87a	-0.11512847
195	0x3dde4a49	0.108540125
196	0x3e505a6e	0.20346996
197	0x3e11ba88	0.14231312
198	0x3d8914a8	0.06693393
199	0x3daa80df	0.083253615
200	0x3deabec6	0.114621684
201	0xbd1559ca	-0.036462583
202	0xbb63a8bd	-0.0034738027
203	0xbcdc77ed	-0.026912654
204	0xbdbd4801	-0.09242249
205	0x3e026d16	0.12736925
206	0x3e122399	0.14271392
207	0x3d461656	0.048361145
208	0xbd1b2217	-0.037874307
209	0x3e1ab725	0.15108927
210	0x3e042bb2	0.12907293
211	0x3e55b91e	0.20871398
212	0xbcfdb8fd	-0.030971998
213	0xbdd47646	-0.10374121
214	0xbdb23818	-0.08702105
215	0xbd6a732e	-0.05723875
216	0xbd67911d	-0.056534875
217	0xbe20b34d	-0.15693398
218	0xbd8a3ecd	-0.067502595
219	0xbce6e446	-0.028185021
220	0x3d2d021f	0.04223835
221	0x3d99c53a	0.07508321
222	0xbd0c347b	-0.034229737
223	0x3e37e0e6	0.17956886
224	0xbd3f616c	-0.046723768
225	0x3dbfd1cd	0.09366188
226	0xbd96862c	-0.0734981
227	0x3d1aa612	0.037756033
228	0x3d9b06bb	0.07569643
229	0x3d24aacc	0.040201947
230	0xbdafe1f5	-0.0858802
231	0xbe0d0078	-0.1376971
232	0x3dba491d	0.090959765
233	0x3ce0182f	0.027355282
234	0xbde134e1	-0.10996414
235	0x3e17c833	0.14822464
236	0x3e377066	0.1791397
237	0x3d02b9e9	0.03191558
238	0x3e185119	0.14874686
239	0x3d4d39ec	0.050104067
240	0x3bd1f6d5	0.0064075985
241	0x3e1d1a87	0.1534215
242	0x3e118e93	0.14214544
243	0x3e018b22	0.12650731
244	0xbc470318	-0.012146734
245	0x3d8c8de7	0.06863003
246	0xbd7e759b	-0.062123876
247	0xbdcafd34	-0.09911576
248	0xbd62d8a8	-0.0553824
249	0xbe133859	-0.14376964
250	0xbb18fec3	-0.002334521
251	0x3df553f3	0.11978903
252	0x3d2d371b	0.04228888
253	0xbdee06bb	-0.116223775
254	0x3e25aedf	0.1617999
255	0x3db560ba	0.0885634

Actor.fc2.bias f4 [32]
0	0xbd03b82b	-0.032158058
1	0x3e053b88	0.1301099
2	0xbd4fb6d3	-0.050711464
3	0x3d8e6fea	0.0695494
4	0x3dc10789	0.09425265
5	0x3e61bbfe	0.2204437
6	0x3e0116a2	0.1260629
7	0xbdb22857	-0.086991005
8	0xbda17e9d	-0.07885478
9	0x3e1de2aa	0.15418497
10	0x3e095fde	0.13415477
11	0x3e520485	0.20509537
12	0x3e1fbfe2	0.15600541
13	0x3e12b4c0	0.14326763
14	0x3e071ed0	0.13195348
15	0x3d84c8a4	0.06483582
16	0xbbeefc29	-0.0072932434
17	0x3dea71ab	0.11447462
18	0x3cd3000c	0.025756858
19	0xbd1dfff9	-0.038574193
20	0x3b637e12	0.0034712595
21	0xbcd322f7	-0.025773508
22	0xbdbddac1	-0.092702396
23	0x3c60d4c8	0.013722606
24	0x3e59eab7	0.21280943
25	0x3bd2016e	0.006408862
26	0x3e2dbd5f	0.1696677
27	0x3e56cde7	0.20976983
28	0x3e3eef1f	0.18645905
29	0xbdbfa996	-0.09358518
30	0xbcbb11ad	-0.022835577
31	0x3d799aed	0.060938764

Actor.mean_fc3.weight f4 [17, 32]
0	0x00001681	8.073e-42
1	0x801f7268	-2.887942e-39
2	0x0004ea83	4.51469e-40
3	0x000003cf	1.366e-42
4	0x80000013	-2.7e-44
5	0x007c381f	1.1407734e-38
6	0x00003263	1.8075e-41
7	0x001b966f	2.533524e-39
8	0x006fbf73	1.0262419e-38
9	0x0014e9bb	1.920557e-39
10	0x000018b5	8.863e-42
11	0x0017dfb4	2.192466e-39
12	0x80ae0970	-1.5982762e-38
13	0x8000375e	-1.9862e-41
14	0x800001de	-6.7e-43
15	0x80000eca	-5.305e-42
16	0x814b02ca	-3.7287212e-38
17	0x006a9ffa	9.791951e-39
18	0x0122a2c8	2.987149e-38
19	0x8000346d	-1.8807e-41
20	0x000ec72c	1.357146e-39
21	0x011294ff	2.6922864e-38
22	0x00003a92	2.1011e-41
23	0x80004902	-2.619e-41
24	0x80000f20	-5.426e-42
25	0x00a95edd	1.555423e-38
26	0x000042b7	2.3933e-41
27	0x00003a75	2.097e-41
28	0x80416977	-6.007141e-39
29	0x801f5157	-2.87608e-39
30	0x00004cda	2.7569e-41
31	0x00005393	2.9981e-41
32	0x80dc7d7c	-2.0248824e-38
33	0x000048c3	2.6102e-41
34	0x00000ccc	4.59e-42
35	0x00209055	2.990512e-39
36	0x00001b92	9.89e-42
37	0x0014f3fc	1.924235e-39
38	0x80005652	-3.0966e-41
39	0x01419900	3.5558274e-38
40	0x00006820	3.7353e-41
41	0x000011d3	6.394e-42
42	0x000008ae	3.114e-42
43	0x000006c6	2.43e-42
44	0x80005abf	-3.2554e-41
45	0x002d4a07	4.159153e-39
46	0x001b059f	2.481575e-39
47	0x00000a85	3.774e-42
48	0x002f5ca8	4.349507e-39
49	0x800068fb	-3.766e-41
50	0x000031d1	1.7871e-41
51	0x00006efd	3.9815e-41
52	0x80403930	-5.897987e-39
53	0x80005a38	-3.2364e-41
54	0x8062f44a	-9.087513e-39
55	0x800817a0	-7.43159e-40
56	0x011d683d	2.8911133e-38
57	0x00002f21	1.6907e-41
58	0x0010cafc	1.542185e-39
59	0x80002b54	-1.5543e-41
60	0x00005615	3.088e-41
61	0x80005aaa	-3.2524e-41
62	0x800043ac	-2.4276e-41
63	0x00004a8c	2.6742e-41
64	0x000046e7	2.5435e-41
65	0x000a6d43	9.5755e-40
66	0x80000a2e	-3.652e-42
67	0x00003772	1.989e-41
68	0x00003a4f	2.0917e-41
69	0x000009a6	3.461e-42
70	0x80002ab1	-1.5315e-41
71	0x01403afb	3.5307147e-38
72	0x80002b2b	-1.5486e-41
73	0x80a3d550	-1.5045708e-38
74	0x00003ff8	2.2948e-41
75	0x80006be7	-3.8708e-41
76	0x80003ce1	-2.1839e-41
77	0x802c711c	-4.081338e-39
78	0x800045fc	-2.5106e-41
79	0x00001ecb	1.1046e-41
80	0x8000084d	-2.978e-42
81	0x00002f24	1.6911e-41
82	0x00005df3	3.3703e-41
83	0x804f2b9e	-7.270651e-39
84	0x802ece01	-4.298333e-39
85	0x00000a2d	3.65e-42
86	0x00000dd3	4.959e-42
87	0x80bc7e0d	-1.7310292e-38
88	0x80138aa6	-1.794612e-39
89	0x8183b9cb	-4.83884e-38
90	0x0000344c	1.876e-41
91	0x80005926	-3.198e-41
92	0x00005847	3.1668e-41
93	0x00003f6f	2.2756e-41
94	0x80004c48	-2.7365e-41
95	0x00003d14	2.1911e-41
96	0x0042cb47	6.134065e-39
97	0x00832ffe	1.2047666e-38
98	0x8000387d	-2.0264e-41
99	0x00004995	2.6396e-41
100	0x8018619a	-2.239065e-39
101	0x0046e4dd	6.510585e-39
102	0x8000489d	-2.6049e-41
103	0x00000554	1.911e-42
104	0x801daa61	-2.72435e-39
105	0x80000a65	-3.729e-42
106	0x8000678d	-3.7147e-41
107	0x80004503	-2.4757e-41
108	0x0163db32	4.185058e-38
109	0x8005fb3f	-5.49308e-40
110	0x00006161	3.4933e-41
111	0x00004637	2.5188e-41
112	0x000025f7	1.3619e-41
113	0x00001b7e	9.862e-42
114	0x80144fe8	-1.865375e-39
115	0x818569b8	-4.9008183e-38
116	0x80005659	-3.0976e-41
117	0x0000106d	5.892e-42
118	0x800022c2	-1.2469e-41
119	0x8000067b	-2.325e-42
120	0x805ceaf8	-8.533157e-39
121	0x80002f9c	-1.7079e-41
122	0x0000085b	2.997e-42
123	0x00003807	2.0099e-41
124	0x800062ab	-3.5395e-41
125	0x8000660e	-3.661e-41
126	0x00002214	1.2225e-41
127	0x00001db5	1.0657e-41
128	0x000008d7	3.171e-42
129	0x80002903	-1.4712e-41
130	0x000041ca	2.36e-41
131	0x000023c3	1.2829e-41
132	0x00005a2f	3.2352e-41
133	0x80002aed	-1.5399e-41
134	0x008d45c8	1.2973838e-38
135	0x0047324c	6.538363e-39
136	0x00003af3	2.1147e-41
137	0x00005e41	3.3812e-41
138	0x8000189b	-8.827e-42
139	0x00005174	2.922e-41
140	0x00002bb5	1.5679e-41
141	0x80005a15	-3.2315e-41
142	0x805389ca	-7.671776e-39
143	0x00005015	2.8728e-41
144	0x8012470e	-1.678529e-39
145	0x80058858	-5.08088e-40
146	0x00eecace	2.19296e-38
147	0x002f24dd	4.329492e-39
148	0x80445d12	-6.278201e-39
149	0x807e77b5	-1.1614215e-38
150	0x800043a9	-2.4272e-41
151	0x80002f65	-1.7002e-41
152	0x00f24106	2.2247516e-38
153	0x800008f5	-3.213e-42
154	0x80270f63	-3.587104e-39
155	0x00001a98	9.54e-42
156	0x8045f7f9	-6.425605e-39
157	0x00001d35	1.0478e-41
158	0x00112417	1.57415e-39
159	0x00005203	2.942e-41
160	0x00000a57	3.709e-42
161	0x00001fae	1.1365e-41
162	0x00005174	2.922e-41
163	0x804af3f7	-6.883345e-39
164	0x00006bdd	3.8694e-41
165	0x8133a205	-3.299335e-38
166	0x0000645a	3.6e-41
167	0x80001d5b	-1.0531e-41
168	0x00a86cda	1.5467412e-38
169	0x00003651	1.9485e-41
170	0x00001fd2	1.1415e-41
171	0x000024e8	1.324e-41
172	0x00004dee	2.7956e-41
173	0x000044be	2.466e-41
174	0x8023081c	-3.217151e-39
175	0x801492ab	-1.889324e-39
176	0x80bb5034	-1.7202009e-38
177	0x01400abe	3.5272538e-38
178	0x00002280	1.2376e-41
179	0x80132b34	-1.760373e-39
180	0x80001f94	-1.1328e-41
181	0x8031f0c8	-4.586315e-39
182	0x80000fca	-5.664e-42
183	0x00004ef7	2.8327e-41
184	0x800021c6	-1.2116e-41
185	0x00005b15	3.2674e-41
186	0x00001516	7.564e-42
187	0x80002524	-1.3324e-41
188	0x800013d1	-7.109e-42
189	0x80003249	-1.8039e-41
190	0x800e6cb0	-1.324687e-39
191	0x000055f6	3.0837e-41
192	0x800002fd	-1.072e-42
193	0x800025a2	-1.35e-41
194	0x00003cd5	2.1822e-41
195	0x80005f4d	-3.4187e-41
196	0x80001770	-8.408e-42
197	0x800034bb	-1.8916e-41
198	0x80000ff2	-5.72e-42
199	0x8000423b	-2.3759e-41
200	0x80003f0c	-2.2617e-41
201	0x00003e38	2.232e-41
202	0x80000cb4	-4.557e-42
203	0x80002f0f	-1.6881e-41
204	0x800da1aa	-1.251856e-39
205	0x8010af6a	-1.532295e-39
206	0x00002f2a	1.6919e-41
207	0x00005a8e	3.2485e-41
208	0x80788aaa	-1.1070003e-38
209	0x800017a2	-8.478e-42
210	0x80004f03	-2.8344e-41
211	0x00003880	2.0268e-41
212	0x800039f0	-2.0784e-41
213	0x8000545d	-3.0264e-41
214	0x00003455	1.8773e-41
215	0x80001f23	-1.117e-41
216	0x800000e2	-3.17e-43
217	0x000031d5	1.7876e-41
218	0x007e43a0	1.1595532e-38
219	0x00006a63	3.8164e-41
220	0x00531e0e	7.633128e-39
221	0x00005522	3.054e-41
222	0x0000343d	1.874e-41
223	0x809d6134	-1.4453043e-38
224	0x80005e34	-3.3794e-41
225	0x80002ddd	-1.6453e-41
226	0x00005cd5	3.3302e-41
227	0x0000658d	3.643e-41
228	0x800023b8	-1.2813e-41
229	0x80000560	-1.928e-42
230	0x800009b9	-3.488e-42
231	0x800b649d	-1.046284e-39
232	0x00005162	2.9195e-41
233	0x00002e18	1.6535e-41
234	0x00006331	3.5583e-41
235	0x00003610	1.9394e-41
236	0x80002643	-1.3726e-41
237	0x00002157	1.196e-41
238	0x001efe62	2.84632e-39
239	0x00006ca2	3.897e-41
240	0x8007ca60	-7.15447e-40
241	0x005b01a3	8.357617e-39
242	0x00000ef1	5.36e-42
243	0x800030cd	-1.7506e-41
244	0x80006e31	-3.9529e-41
245	0x80003324	-1.8346e-41
246	0x800054ef	-3.0468e-41
247	0x80000bff	-4.303e-42
248	0x81d2fcaf	-7.75044e-38
249	0x00240ab1	3.309913e-39
250	0x000006ee	2.486e-42
251	0x0000228c	1.2393e-41
252	0x80452fa0	-6.353734e-39
253	0x000036f3	1.9712e-41
254	0x00004327	2.409e-41
255	0x00000e8c	5.218e-42

Actor.mean_fc3.bias f4 [17]
0	0x80006894	-3.7516e-41
1	0x00006a0f	3.8047e-41
2	0x00004115	2.3347e-41
3	0x000982e1	8.7347e-40
4	0x80000a86	-3.775e-42
5	0x00003430	1.8721e-41
6	0x006a837b	9.781729e-39
7	0x004c3cb4	7.001274e-39
8	0x804f22fc	-7.267554e-39
9	0x802d5d79	-4.166129e-39
10	0x80077ca0	-6.87555e-40
11	0x80006a12	-3.8051e-41
12	0x8000300b	-1.7235e-41
13	0x800004e7	-1.759e-42
14	0x00001a0b	9.342e-42
15	0x00001b9d	9.906e-42
16	0x800012cd	-6.744e-42

Actor.log_std_fc3.weight f4 [17, 32]
0	0xbcbfa61e	-0.02339464
1	0xbc43498c	-0.01191939
2	0xbdc15d5b	-0.09441634
3	0xbc65e1d8	-0.014030896
4	0xbca9eea5	-0.020743677
5	0xbc5afc70	-0.01336585
6	0xbc5db4f4	-0.013531912
7	0xbd90099e	-0.07033084
8	0xbc41524e	-0.011799408
9	0xbdf5f0a1	-0.12008787
10	0xbc4ed168	-0.0126231685
11	0xbddd2ba4	-0.107993394
12	0xbd0ad79c	-0.033897027
13	0xbc8ba532	-0.017046545
14	0xbd866887	-0.06562906
15	0xbc3bdf4e	-0.011466814
16	0xbc9cd1aa	-0.019142944
17	0xbc71c935	-0.014757444
18	0xbdbf370e	-0.09336673
19	0xbc1fd10a	-0.009754429
20	0xbc3b716b	-0.011440615
21	0xbc888f4b	-0.01666989
22	0xbc4e21be	-0.012581287
23	0xbc2726cd	-0.010202122
24	0xbc332d33	-0.010936069
25	0xbc0cf9db	-0.008604492
26	0xbc0e4fc8	-0.0086860135
27	0xbd17efc8	-0.037093908
28	0xbc1515ec	-0.009099465
29	0xbc856561	-0.016283693
30	0xbc88e575	-0.016710976
31	0xbc99bbd7	-0.018766327
32	0xbcc89078	-0.02448295
33	0xbc3029dc	-0.010752168
34	0xbdb39ad8	-0.087697685
35	0xbcd0dcdb	-0.025495937
36	0xbd42ad52	-0.047528572
37	0xbc1cc227	-0.009567774
38	0xbcac7963	-0.021053975
39	0xbd868fe6	-0.06570415
40	0xbc91d81f	-0.01780325
41	0xbdba5ca1	-0.09099699
42	0xbc20eb23	-0.009821686
43	0xbdab0705	-0.08350948
44	0xbd6c7a04	-0.05773355
45	0xbc9246dd	-0.017856056
46	0xbd6efaee	-0.058344774
47	0xbc10fb26	-0.008848941
48	0xbcca939b	-0.024728587
49	0xbc75a307	-0.014992482
50	0xbda1d714	-0.07902351
51	0xbb92f11d	-0.0044843093
52	0xbc17b8eb	-0.0092603965
53	0xbcba8d8d	-0.022772575
54	0xbc99d1f8	-0.018776879
55	0xbc17a30a	-0.00925518
56	0xbbf18f47	-0.0073718163
57	0xbc4279cf	-0.011869862
58	0xbbfb70c8	-0.0076733567
59	0xbd2fd9fd	-0.0429325
60	0xbc5dc286	-0.0135351475
61	0xbca81ff4	-0.020523049
62	0xbc896f26	-0.016776633
63	0xbcdff702	-0.027339462
64	0xbcaa341d	-0.020776803
65	0xbc396fbc	-0.011318143
66	0xbdb71c17	-0.089409046
67	0xbcf198e4	-0.02949185
68	0xbd1a076c	-0.037604734
69	0xbc79b036	-0.015239766
70	0xbc820fde	-0.015876707
71	0xbd8509da	-0.0649602
72	0xbcc2da07	-0.023785604
73	0xbdc5892f	-0.09645306
74	0xbc127e54	-0.008941252
75	0xbdaeb94f	-0.085314386
76	0xbd47e599	-0.048802946
77	0xbc85373f	-0.016261695
78	0xbd800377	-0.06250661
79	0xbb8f9b99	-0.0043825624
80	0xbcc66226	-0.024216723
81	0xbc9431c9	-0.018090146
82	0xbd9e26d5	-0.0772225
83	0xbbda1872	-0.006655746
84	0xbc264926	-0.010149276
85	0xbcc95677	-0.024577362
86	0xbc921a6e	-0.017834868
87	0xbbe5d334	-0.0070137028
88	0xbc041498	-0.008061551
89	0xbc29cf31	-0.01036434
90	0xbbb2dadb	-0.0054582185
91	0xbd2712d9	-0.04078946
92	0xbc8a8cc4	-0.016912825
93	0xbcaf9f1c	-0.021438174
94	0xbc5ca229	-0.013466396
95	0xbcf4ec82	-0.029897932
96	0xbce4faa1	-0.02795154
97	0xbc39a507	-0.0113308495
98	0xbda96a9c	-0.08272287
99	0xbce38d7d	-0.027777428
100	0xbd601541	-0.05470777
101	0xbc40790f	-0.011747613
102	0xbc94ae30	-0.018149465
103	0xbd876d39	-0.066126294
104	0xbca2f459	-0.019891905
105	0xbdaeb566	-0.08530693
106	0xbc05392b	-0.008131306
107	0xbda64ad4	-0.08119741
108	0xbd71a3a3	-0.058993947
109	0xbc736099	-0.014854574
110	0xbd774969	-0.060372744
111	0xbbb8b5c6	-0.0056369035
112	0xbcb982df	-0.022645412
113	0xbc61ba07	-0.0137772625
114	0xbda3dd02	-0.08001138
115	0xbc07a3c0	-0.008278787
116	0xbc29264c	-0.010324072
117	0xbcb63a21	-0.022244515
118	0xbc872c7f	-0.01650071
119	0xbbd53a8b	-0.006507223
120	0xbc182e4f	-0.009288385
121	0xbc48456c	-0.012223583
122	0xbbd8e535	-0.0066191205
123	0xbd29fded	-0.041501928
124	0xbc831fdb	-0.0160064
125	0xbca553ed	-0.02018162
126	0xbc8252ba	-0.015908588
127	0xbcf32036	-0.029678445
128	0xbccdd6e0	-0.025126874
129	0xbc6c7a82	-0.014433505
130	0xbdaf8366	-0.08569984
131	0xbcef5e74	-0.029219843
132	0xbd274001	-0.040832523
133	0xbc7d2ebe	-0.015453039
134	0xbc97c46d	-0.01852628
135	0xbd883d24	-0.06652287
136	0xbcbf4722	-0.023349348
137	0xbdbb5406	-0.091468856
138	0xbb896359	-0.0041927514
139	0xbda48591	-0.08033288
140	0xbd4631b0	-0.04838723
141	0xbc8da74d	-0.01729169
142	0xbd79a4cf	-0.06094819
143	0xbb9893be	-0.004656284
144	0xbcce695f	-0.02519673
145	0xbc8cd07a	-0.017189253
146	0xbd9d40f5	-0.07678405
147	0xbb1d2ec5	-0.0023984176
148	0xbc25e530	-0.010125443
149	0xbcb7a626	-0.022418093
150	0xbc9dd6a8	-0.019267395
151	0xbc1b6501	-0.00948453
152	0xbc074cab	-0.008258025
153	0xbc30183e	-0.010747967
154	0xbc026df7	-0.007960788
155	0xbd1ee986	-0.038796924
156	0xbc77be0f	-0.015120997
157	0xbcd1f426	-0.025629114
158	0xbc9b624d	-0.018967772
159	0xbce0e354	-0.027452148
160	0xbcdee32c	-0.027207933
161	0xbc1641a4	-0.009170923
162	0xbdab05d0	-0.08350718
163	0xbccf5d42	-0.025313023
164	0xbd4f6942	-0.05063749
165	0xbc667da0	-0.014068037
166	0xbca542ae	-0.020173397
167	0xbd86e358	-0.06586331
168	0xbc816c80	-0.015798807
169	0xbdabc76a	-0.083876446
170	0xbbaf10b0	-0.0053425655
171	0xbda72bfa	-0.08162685
172	0xbd815d68	-0.06316644
173	0xbc91ce0f	-0.017798452
174	0xbd6004d0	-0.05469209
175	0xbc0f2ec1	-0.008739174
176	0xbcc263b7	-0.023729188
177	0xbc855e37	-0.016280277
178	0xbdab7253	-0.08371415
179	0xbc15775e	-0.009122698
180	0xbc0b2094	-0.008491654
181	0xbcaf6b1a	-0.021413375
182	0xbc8a674f	-0.016894965
183	0xbbc8855c	-0.0061194133
184	0xbbb64310	-0.0055621937
185	0xbc482616	-0.012216112
186	0xbc0b0983	-0.0084861545
187	0xbd3383cb	-0.04382686
188	0xbc808eaf	-0.015693037
189	0xbcb95d6a	-0.022627551
190	0xbc6138c9	-0.013746449
191	0xbcd86084	-0.02641321
192	0xbd10168d	-0.035177756
193	0xbc4d4877	-0.012529484
194	0xbdb5bf5e	-0.08874391
195	0xbcd6a88e	-0.02620342
196	0xbd92d8f5	-0.071702875
197	0xbc498729	-0.012300291
198	0xbc9840c7	-0.018585576
199	0xbd26a404	-0.04068376
200	0xbcd0aee0	-0.025474012
201	0xbdb95c9c	-0.09050867
202	0xbbb3dfca	-0.005489324
203	0xbda481c6	-0.08032565
204	0xbd5de97e	-0.054177754
205	0xbcab2eae	-0.020896282
206	0xbd272e19	-0.040815447
207	0xbbcd5772	-0.006266528
208	0xbcc09b17	-0.023511453
209	0xbc819ac2	-0.015820865
210	0xbd9f78ff	-0.0778675
211	0xbb965f2e	-0.004588983
212	0xbc3d1312	-0.011540191
213	0xbcb938cd	-0.022610093
214	0xbc84dac9	-0.016217606
215	0xbbde8b94	-0.0067915414
216	0xbbd455e6	-0.0064799665
217	0xbc442301	-0.011971236
218	0xbbc57725	-0.006026166
219	0xbd114292	-0.035463877
220	0xbc8d337d	-0.017236466
221	0xbc99371e	-0.01870304
222	0xbc9f0469	-0.019411283
223	0xbceff25b	-0.029290369
224	0xbca2ea8d	-0.019887233
225	0xbc75f801	-0.015012742
226	0xbdb3a226	-0.08771162
227	0xbce9f493	-0.028559005
228	0xbd28511b	-0.041092973
229	0xbc4f19c5	-0.012640421
230	0xbc810186	-0.015747797
231	0xbd894056	-0.06701724
232	0xbcb5ce18	-0.022193
233	0xbdc356d7	-0.09538048
234	0xbbd88fe2	-0.006608949
235	0xbda55360	-0.08072543
236	0xbd52f3e7	-0.051502135
237	0xbca4c6c7	-0.020114316
238	0xbd7df110	-0.061997473
239	0xbbbd0753	-0.0057686954
240	0xbcb8f5b9	-0.022578107
241	0xbc96e583	-0.018419987
242	0xbd9e685d	-0.077347495
243	0xbb6cf08d	-0.0036154122
244	0xbbf98520	-0.0076147467
245	0xbcb61d54	-0.022230782
246	0xbca3c9e8	-0.019993737
247	0xbc32eff4	-0.010921467
248	0xbbcfe6b0	-0.0063446388
249	0xbc14ab0e	-0.009073986
250	0xbc151fd5	-0.009101828
251	0xbd2ad3a8	-0.041705757
252	0xbc89b4f7	-0.016809924
253	0xbcbffd52	-0.023436222
254	0xbc8ea83f	-0.01741421
255	0xbcf0969e	-0.029368695

Actor.log_std_fc3.bias f4 [17]
0	0xbcadc3e0	-0.021211565
1	0xbd80e524	-0.06293705
2	0xbd9a83b4	-0.07544652
3	0xbd8de3b0	-0.069281936
4	0xbda32353	-0.07965722
5	0xbd761b07	-0.06008437
6	0xbd9e9330	-0.077429175
7	0xbd977f71	-0.073973544
8	0xbce6cd5a	-0.028174091
9	0xbda30425	-0.07959775
10	0xbda0bd02	-0.078485504
11	0xbd7e7caf	-0.062130626
12	0xbd1ae8c0	-0.037819624
13	0xbd92c688	-0.07166773
14	0xbdb1f0c4	-0.086885005
15	0xbd5a475d	-0.053290714
16	0xbd7b8a1d	-0.061411012

Critic.fc1.weight f4 [32, 378]
0	0x3e940296	0.28908223
1	0x3d4ef4d8	0.05052647
2	0x3dac432a	0.08411248
3	0x3d2b3fb8	0.041808814
4	0xbc467d6b	-0.012114863
5	0xbbb323f0	-0.0054669306
6	0xbc9b77ca	-0.018978018
7	0x3d8f8e23	0.07009532
8	0xbc994c6a	-0.018713195
9	0x3cad5359	0.021157907
10	0x3d128777	0.03577372
11	0x3d108a4c	0.03528814
12	0xbc899237	-0.016793353
13	0xbcea3552	-0.028589878
14	0x3d6973ad	0.056995083
15	0x3d8b7955	0.068102516
16	0xbcfe988d	-0.031078601
17	0xbc963bb4	-0.018339016
18	0x3d2300de	0.03979575
19	0xbdd03424	-0.10166195
20	0xbd932c1c	-0.071861476
21	0xbd0dff7f	-0.03466749
22	0x3d819d1a	0.06328793
23	0xbdc4a9c1	-0.096026905
24	0x3ea760ae	0.32690948
25	0x3ca8a6d1	0.020587357
26	0x3cf0107d	0.029304737
27	0x3c6d395e	0.014479009
28	0x3cce14b4	0.025156356
29	0xbd2c0119	-0.041993234
30	0xbc82a2dd	-0.0159468
31	0xbcb04a91	-0.021519931
32	0x3d735e4c	0.0594161
33	0x3d28f475	0.041248757
34	0x3b468952	0.0030294252
35	0x3d7f2476	0.06229063
36	0xbd5b68ea	-0.05356685
37	0xbcee1716	-0.029063743
38	0xbcf7c9e5	-0.030247638
39	0x3d7505bc	0.05981992
40	0xbda6a8ff	-0.08137702
41	0xbc1d2ef8	-0.009593718
42	0x3cc58afd	0.024114126
43	0xbc4f910e	-0.012668861
44	0x3c30b9f6	0.010786524
45	0x3d9e7f58	0.07739133
46	0x3d330969	0.043710146
47	0x3cc97a53	0.024594462
48	0xbc2d9e63	-0.010596844
49	0x3d0bbb68	0.03411427
50	0x3b03c685	0.002010734
51	0x3c83ac6a	0.016073424
52	0x3cda842f	0.026674358
53	0x3c9c3d34	0.019072153
54	0x3d4213af	0.047382053
55	0x3d06377c	0.032767758
56	0xbce3ec8d	-0.027822757
57	0x3d3dfd3d	0.046384085
58	0x3d50df00	0.05099392
59	0xbbffa3a9	-0.007801492
60	0x3d7c7b83	0.061641227
61	0xbe2018e2	-0.15634492
62	0xbd8d3086	-0.06894021
63	0x3da7b82a	0.081894234
64	0x3ba06cb1	0.0048957695
65	0x3d4edf03	0.05050565
66	0x3d68507f	0.056717392
67	0x3dc101f8	0.09424204
68	0x3c60fc54	0.013732035
69	0xbc8a8efd	-0.016913885
70	0x3cbc58ec	0.02299162
71	0x3d534b7f	0.05158567
72	0xbc130a0b	-0.008974562
73	0x3c98f104	0.018669613
74	0xbd01e7ea	-0.03171531
75	0x3c9431e7	0.018090202
76	0x3d31d553	0.043416332
77	0x3d8bde39	0.06829495
78	0x3d9b7bfd	0.07592008
79	0x3d8eb178	0.06967443
80	0xbb7b3d2a	-0.0038336017
81	0x3d4d5b19	0.050135706
82	0xbc2a9289	-0.010410913
83	0xbc7fd372	-0.015614377
84	0xbd920f71	-0.071318515
85	0x3d5d6167	0.05404797
86	0x3d87332f	0.06601559
87	0x3d4ceb0d	0.05002885
88	0x3d4d00e2	0.05004967
89	0x3d1f8f88	0.03895524
90	0x3cfe15f3	0.031016326
91	0x3caf95d0	0.02143374
92	0xbdb988b5	-0.09059278
93	0xbba8122b	-0.005129119
94	0xbd8f8d72	-0.070094004
95	0xbd6df817	-0.058097925
96	0x3cc0fcff	0.023558138
97	0x3db1e4b2	0.08686198
98	0x3dc72f50	0.09725821
99	0x3d26f98c	0.04076533
100	0xbd51c93d	-0.051217306
101	0xbdc88eca	-0.0979286
102	0xbb19dcbf	-0.0023477522
103	0xbd1c5308	-0.038165122
104	0xbc804710	-0.015658885
105	0xbd44a2dd	-0.04800688
106	0x3c6cb92f	0.014448448
107	0x3cf449eb	0.029820403
108	0x3d0397ef	0.032127317
109	0x3e04d163	0.129705
110	0xbe7754d9	-0.2415346
111	0xbe85eea1	-0.26158622
112	0xbd9cf9ad	-0.076648094
113	0xbe9f1d55	-0.31077066
114	0xbd8bd4c8	-0.06827694
115	0xbd96dab9	-0.07365937
116	0x3db2b43d	0.08725784
117	0x3c97a7e6	0.018512677
118	0x3d4c41da	0.04986749
119	0x3d57d427	0.05269256
120	0x3c23d1c5	0.009998743
121	0x3d831167	0.063998036
122	0x3d8ee038	0.0697636
123	0x3daa7530	0.08323133
124	0x3d87cbf0	0.06630695
125	0xbd290a78	-0.04126975
126	0x3d93c738	0.07215732
127	0x3c117889	0.0088788355
128	0x3d586112	0.05282695
129	0xb96efdf7	-0.00022792058
130	0x3d9d3da4	0.07677773
131	0xbe1372ce	-0.14399263
132	0x3dcdd8fe	0.100511536
133	0xbdb0ef58	-0.08639401
134	0x3d7aa714	0.061194494
135	0xbc977573	-0.018488621
136	0x3d66f091	0.056381766
137	0x3d7a9f0b	0.06118683
138	0x3d998db5	0.074977316
139	0x3d7bc31c	0.061465368
140	0x3e6c065b	0.230493
141	0xbe6fa1b5	-0.2340153
142	0x3d48846c	0.048954412
143	0xbe87aee2	-0.26500612
144	0x3dbd6ca8	0.0924924
145	0xbd21b2be	-0.039477102
146	0x3d62e9dd	0.05539881
147	0x3dbb8586	0.09156327
148	0x3d62bc81	0.055355553
149	0x3c638d61	0.013888688
150	0x3dca628f	0.0988208
151	0xbd561c3c	-0.05227302
152	0x3dcb31f3	0.099216364
153	0x3debcdf7	0.11513894
154	0xbdcadf67	-0.09905892
155	0x3da2dd00	0.07952309
156	0x3d5b2e34	0.05351086
157	0xbcc17f7e	-0.023620363
158	0x3d273ee3	0.040831458
159	0x3d2bd9f3	0.0419559
160	0xbabc123b	-0.0014348695
161	0x3c9897a1	0.01862699
162	0xbc87fa46	-0.016598832
163	0x3c3fcfbf	0.011707245
164	0xbd960a3e	-0.07326172
165	0x3d60d657	0.05489191
166	0x3d1596d2	0.036520787
167	0x3db0cf4b	0.08633288
168	0x3dc6a78a	0.09699924
169	0x3c61887f	0.013765453
170	0xbdc663d8	-0.096870124
171	0xbdec4e80	-0.1153841
172	0xbcd0a5a0	-0.025469601
173	0x3e0b8582	0.13625148
174	0x3dbeed06	0.093225524
175	0x3ce2fe49	0.027709143
176	0x3c863d04	0.016386516
177	0xbca3f1fe	-0.020012852
178	0xbcc6cb7d	-0.024266953
179	0x3d80ce93	0.06289401
180	0xbd81f6a6	-0.063458726
181	0xbd39553e	-0.04524731
182	0xba0b4a62	-0.0005313513
183	0x3d8078cd	0.06273041
184	0x3b17d619	0.0023168384
185	0x3d8d9bdc	0.069144934
186	0x3d3b79fa	0.045770623
187	0xbc34bee5	-0.011031841
188	0x3a0fd4e5	0.0005486741
189	0x3d0a79a8	0.033807427
190	0xbc223a8a	-0.009901652
191	0xbcec6c65	-0.02886028
192	0x3cb6f936	0.02233563
193	0x3c7c1a37	0.0153871095
194	0xbca9f413	-0.020746266
195	0xbd69b651	-0.057058636
196	0x3e375c76	0.17906365
197	0xbbee44a5	-0.0072713667
198	0x3c3104a0	0.010804325
199	0xbd0dbb46	-0.034602426
200	0xbd86f8f2	-0.06590451
201	0x3c98e6a8	0.018664673
202	0x3e0e83d0	0.1391747
203	0x3b51f12b	0.0032034616
204	0xbd9ce2ce	-0.07660447
205	0xbd06dbb6	-0.032924376
206	0xbda2e395	-0.07953564
207	0x3ba98718	0.005173575
208	0x3e3707a7	0.17874013
209	0xbc20e2c1	-0.009819687
210	0x3b536b7b	0.0032260108
211	0xbaf1070c	-0.0018388941
212	0x3cb9950a	0.022654075
213	0x3d495b37	0.049159255
214	0x3e3177b1	0.17330815
215	0xbd52d51c	-0.05147277
216	0xbd1a830e	-0.03772264
217	0x3d48a872	0.048988767
218	0x3dda9c23	0.10674312
219	0x3c031890	0.008001462
220	0x3d81e874	0.06343165
221	0x3d363bc0	0.044490576
222	0xbcae8432	-0.02130327
223	0x3c784d07	0.0151550835
224	0x3dca7c6f	0.09887015
225	0x3d713d62	0.05889643
226	0x3ddda030	0.10821569
227	0xbd0bbf66	-0.03411808
228	0xbcb19eba	-0.021682132
229	0xbbef35ae	-0.0073001003
230	0xbd1e6cd4	-0.038678005
231	0x3cc28c51	0.023748549
232	0x3e0163f5	0.12635787
233	0x3bb72edb	0.0055903024
234	0x3c9eaacf	0.019368557
235	0x3d0bcc39	0.03413031
236	0x3d33d77c	0.043906674
237	0xbd4080d4	-0.04699786
238	0x3d8b1abf	0.06792211
239	0x3c43142e	0.011906667
240	0xbd59eb36	-0.05320283
241	0x3c22296b	0.00989757
242	0x3cd0d96a	0.025494296
243	0xbc977046	-0.018486153
244	0x3df1d581	0.11808301
245	0xbd1e0f47	-0.03858879
246	0x3a1c1dfb	0.0005955395
247	0x3c2ffa4c	0.010740828
248	0x3a9d4a80	0.0012000352
249	0xbd6bbf3c	-0.057555422
250	0x3bec695b	0.007214708
251	0xbc585b89	-0.013205417
252	0xbceaead8	-0.028676435
253	0xbc5295b4	-0.012853075
254	0x3c04651b	0.008080746
255	0xbda1040b	-0.07862099

Critic.fc1.bias f4 [32]
0	0x3d800eba	0.06252809
1	0x3c2ced53	0.010554629
2	0x3d47fd95	0.04882582
3	0x3d86228f	0.0654956
4	0x3d9c9e9f	0.07647442
5	0xbc45493c	-0.012041386
6	0x3c0429ef	0.008066638
7	0xbd2a1abb	-0.0415294
8	0x3d5a68cd	0.053322602
9	0x3dbd5893	0.0924541
10	0xbd43122a	-0.047624744
11	0x3babebf9	0.005246636
12	0xbd1209f6	-0.03565403
13	0x3c4b39b5	0.012403895
14	0x3d68ccd4	0.056835964
15	0x3ca48f18	0.020087764
16	0xbd077d73	-0.033078622
17	0x3d6f91b5	0.058488566
18	0x3d70c270	0.05877918
19	0x3c85cdae	0.016333427
20	0x3d290d4b	0.041272443
21	0x3cdf53a0	0.027261555
22	0x3daa463b	0.08314177
23	0xbc62ac39	-0.013835006
24	0xbc03b221	-0.008038075
25	0x3d11d852	0.03560669
26	0xbcdba048	-0.026809826
27	0x3d003db6	0.031308852
28	0x3dccfbd4	0.1000897
29	0x3d583e4d	0.05279379
30	0x3ca7b897	0.020473761
31	0x3dc066ed	0.093946315

Critic.fc2.weight f4 [32, 32]
0	0x3e15394f	0.14572643
1	0xbe09c8f7	-0.13455568
2	0x3e022c6b	0.12712257
3	0x3dff7023	0.1247256
4	0x3dd7e9d6	0.105426475
5	0xbda9e834	-0.08296242
6	0xbc2298fe	-0.0099241715
7	0x3c92520d	0.01786139
8	0x3c54bcff	0.012984513
9	0x3db64a04	0.08900836
10	0xbd1eda97	-0.038782682
11	0x3cc2d25b	0.023781946
12	0xbe5c3cf8	-0.21507633
13	0x3ca78b55	0.02045218
14	0x3e0a9e83	0.1353703
15	0x3dc5f167	0.096651845
16	0x3a0a535e	0.0005276705
17	0x3e3bd5b9	0.18343247
18	0xbcacfac2	-0.021115664
19	0x3db9f13a	0.090792134
20	0x3d8dd571	0.06925476
21	0x3c8b88ba	0.01703297
22	0xbda3afa5	-0.07992486
23	0xbd883d35	-0.06652299
24	0x3e205010	0.15655541
25	0xbc586c15	-0.0132093625
26	0xbd496e1e	-0.04917728
27	0xbdd60c49	-0.10451562
28	0x3dffb852	0.12486328
29	0xbdb466be	-0.08808659
30	0x3e156047	0.14587508
31	0xbd8ef527	-0.06980353
32	0x3d96a798	0.07356185
33	0xbdd575fc	-0.10422894
34	0x3d3cf490	0.04613167
35	0x3e55ae29	0.20867218
36	0x3e424c00	0.18974304
37	0xbdd73cb2	-0.105096236
38	0x3dd6006a	0.10449298
39	0xbe04ecd6	-0.1298097
40	0x3e0728f0	0.1319921
41	0xbcdad1cf	-0.026711373
42	0xbd2766ca	-0.04086951
43	0xbd829cde	-0.06377576
44	0xbe4dec88	-0.20109761
45	0x3de8b8e6	0.113633916
46	0x3dd7299a	0.10505982
47	0xbdc122cf	-0.09430467
48	0xbd76576e	-0.060141973
49	0x3e004f98	0.12530363
50	0x3e52c40b	0.20582597
51	0x3de9d171	0.11416901
52	0x3d7f155a	0.06227622
53	0xbcb7233e	-0.022355672
54	0xbc90abdf	-0.01766008
55	0xbd5cdd84	-0.05392219
56	0x3dd5ddf9	0.104427285
57	0xbd90e820	-0.07075524
58	0x3db52db4	0.08846608
59	0xbe249099	-0.16070785
60	0xbc5eea6f	-0.013605698
61	0x3d9f4f91	0.07778848
62	0x3dfe1f0f	0.12408268
63	0x3e4b3801	0.19845583
64	0x3dec339e	0.11533283
65	0xbe127f1d	-0.14306302
66	0x3b9739fa	0.0046150656
67	0x3da2c5a5	0.07947854
68	0xbd56d447	-0.052448537
69	0x3d713201	0.058885578
70	0x3d8ccdb6	0.06875174
71	0xbd8e43d2	-0.069465294
72	0x3df14f49	0.117827006
73	0xbd031da7	-0.0320107
74	0xbcf8ae22	-0.03035647
75	0xbdc8f12a	-0.098116234
76	0xbe4676b8	-0.19381225
77	0x3d986bb3	0.07442417
78	0x3e243ab2	0.16038015
79	0xbb958581	-0.004563034
80	0xbda3dad0	-0.080007195
81	0x3d876217	0.06610506
82	0x3e05e190	0.13074327
83	0x3da4eb75	0.08052722
84	0x3ce10427	0.0274678
85	0x3e0759ae	0.13217804
86	0x3e5e2cce	0.21696779
87	0xbe206c04	-0.15666205
88	0xbe09d34d	-0.13459511
89	0x3d555eda	0.05209241
90	0x3def1d2d	0.11675487
91	0x3e0e15d9	0.13875522
92	0xba8136c8	-0.0009858245
93	0xbdb78d98	-0.08962554
94	0xbd94f7a7	-0.072737984
95	0x3e337b1b	0.1752743
96	0xbe0d3ce3	-0.13792758
97	0x3ca6cdb3	0.020361757
98	0xbde6089c	-0.11232111
99	0x3d6f90eb	0.058487814
100	0xbd85f95d	-0.06541703
101	0x3b832130	0.004001759
102	0x3d2816bc	0.041037306
103	0xbd95df68	-0.07318002
104	0x3d88d2e0	0.06680846
105	0x3e01eb5b	0.12687437
106	0x3de5711d	0.11203215
107	0x3d858cee	0.06521021
108	0x3dce7564	0.10080984
109	0x3e24f3bd	0.16108604
110	0x3d197d24	0.03747286
111	0x3e328cde	0.17436549
112	0x3dba04a4	0.090829164
113	0x3cacd4a3	0.021097487
114	0xbd71710d	-0.058945704
115	0xbdb337c0	-0.08750868
116	0xbd3602bf	-0.044436213
117	0xbdf3ef56	-0.11910884
118	0xbdfc7afb	-0.12328144
119	0xbe0e3eca	-0.1389114
120	0x3e1fd18c	0.1560728
121	0xbdb83635	-0.08994714
122	0x3de5e381	0.112250336
123	0x3dea7c22	0.11449458
124	0x3dca756b	0.09885677
125	0x3e292290	0.16517091
126	0xbd54468b	-0.051825088
127	0xbe1a1df2	-0.15050486
128	0x3dcfe668	0.101513684
129	0xbe48a658	-0.19594705
130	0x3e3bf671	0.18355729
131	0xbe00a8e9	-0.12564434
132	0xbdef439b	-0.116828166
133	0x3e5a7809	0.21334852
134	0x3e176992	0.14786366
135	0xbdd73512	-0.10508169
136	0x3e33afb5	0.17547496
137	0x3da63bbf	0.081168644
138	0x3cb87c8a	0.022520322
139	0x3d26f7ac	0.040763542
140	0x3e061b92	0.13096455
141	0x3de2c606	0.11072926
142	0x3d1ff79b	0.039054494
143	0xbe0590a8	-0.13043463
144	0xbdf18661	-0.11793209
145	0xba7c974c	-0.0009635582
146	0xbe0f9184	-0.14020354
147	0xbde84d8c	-0.11342916
148	0x3d9a5d74	0.07537356
149	0xbdc9343b	-0.09824415
150	0xbd14f8e5	-0.036370177
151	0xbe35522a	-0.17707124
152	0x3dbb542b	0.09146913
153	0x3dd4521e	0.10367225
154	0x3e345c6e	0.17613384
155	0xbe6a4f48	-0.22881806
156	0x3c9e3885	0.01931406
157	0xbb808c1d	-0.003922953
158	0xbbe872b6	-0.0070937527
159	0x3d56a9fe	0.05240821
160	0xbe1066dc	-0.14101738
161	0x3ddbdb9b	0.10735246
162	0x3d8c27dd	0.06843541
163	0xbd96218c	-0.07330617
164	0xbc71b2cb	-0.0147521
165	0x3da2c33b	0.079473935
166	0x3d1cecfe	0.03831195
167	0x3c9a28d5	0.018818298
168	0x3dd96225	0.10614423
169	0xbd007191	-0.031358305
170	0xbe099376	-0.13435158
171	0xbe18e570	-0.14931273
172	0x3e08ae79	0.13347806
173	0xbd866b51	-0.06563438
174	0x3de26e5f	0.11056208
175	0x3d35924e	0.04432898
176	0x3e0a8bbb	0.13529865
177	0xbe087a27	-0.13327847
178	0xbde85e63	-0.11346128
179	0x3dcbf732	0.09959258
180	0x3c39a882	0.011331679
181	0x3dcd1473	0.10013666
182	0x3e2df80b	0.16989152
183	0xbdbc5796	-0.09196393
184	0x3dcee3c8	0.101020396
185	0x3d24e6cd	0.04025917
186	0x3d7997e5	0.060935874
187	0x3dedb076	0.11605923
188	0xbb7ad900	-0.0038276315
189	0xbe126906	-0.14297876
190	0xbda3109e	-0.07962154
191	0x3e0b7410	0.13618493
192	0xbca6d96e	-0.02036735
193	0xbd6e0dba	-0.05811856
194	0xbdcd957a	-0.10038276
195	0x3d2644e1	0.04059303
196	0x3e49da09	0.1971208
197	0xbe04aed8	-0.12957323
198	0xbe0da4cc	-0.13832396
199	0xbdace3b4	-0.084418684
200	0x3dd77723	0.105207704
201	0xbdf7c569	-0.120982
202	0xbda658a4	-0.081223756
203	0x3e5f8db6	0.21831402
204	0xbe4ffad3	-0.20310526
205	0x3d160e47	0.03663471
206	0xbda9d23a	-0.08292051
207	0x3e458a6d	0.19291086
208	0xbda6f335	-0.08151857
209	0x3e4c15d6	0.19930205
210	0xbd21b022	-0.039474614
211	0x3d15dea7	0.03658929
212	0xbdf4a5cd	-0.119456865
213	0x3d255f59	0.040374134
214	0x3e072926	0.1319929
215	0xbc802ca6	-0.01564629
216	0x3df049ba	0.11732812
217	0xbd867969	-0.06566126
218	0x3df54d42	0.119776264
219	0x3cb72fa5	0.022361586
220	0x3e4a30a6	0.1974512
221	0xbd928bd7	-0.071555786
222	0xbd54696e	-0.051858358
223	0xbc9576ba	-0.01824509
224	0x3cd82024	0.026382513
225	0xbdf015d0	-0.117229104
226	0x3bb377eb	0.005476942
227	0x3e1ae933	0.15128021
228	0x3e074839	0.13211145
229	0x3dced021	0.10098291
230	0xbd87bc3b	-0.06627699
231	0xbe17edfe	-0.1483688
232	0x3e2f4c10	0.1711886
233	0x3c827d03	0.01592875
234	0x3c895ea8	0.016768768
235	0x3e4b2114	0.19836837
236	0xbe0fa9f9	-0.14029683
237	0xbdb1cf8b	-0.08682164
238	0x3e470ebb	0.19439213
239	0x3d302035	0.042999465
240	0xbe14be58	-0.14525735
241	0xbdc82445	-0.09772543
242	0xbd29ed1a	-0.041485883
243	0xbd999663	-0.07499387
244	0x3e0002ef	0.12501119
245	0x3e4680f5	0.1938513
246	0x3dd84f1e	0.105619654
247	0xbe19bb97	-0.15012966
248	0xbcec9b15	-0.028882543
249	0x3db46a7a	0.08809371
250	0xbe192d0b	-0.14958589
251	0x3c9c8870	0.019108027
252	0x3df949cd	0.121722795
253	0x3e27156d	0.16316767
254	0xbcf6ca74	-0.030125834
255	0x3d9dcf81	0.07705594

Critic.fc2.bias f4 [32]
0	0x3b035ab3	0.0020043075
1	0x3e63bf3d	0.2224092
2	0x3cc09dfb	0.023512831
3	0xbe198c9f	-0.14995049
4	0x3caf9006	0.02143098
5	0xbde30297	-0.11084478
6	0x3e087ce9	0.133289
7	0x3d85d2dc	0.06534359
8	0xbdcee006	-0.10101323
9	0x3dde3978	0.10850805
10	0x3e1076a7	0.14107762
11	0x3e1559d9	0.14585055
12	0x3decf211	0.11569608
13	0x3d04c1f8	0.032411546
14	0x3db4c390	0.08826363
15	0x3dadba1b	0.084827624
16	0x3de06ae2	0.10957886
17	0x3e4bc511	0.19899394
18	0x3de522d1	0.11188281
19	0xbe0453c4	-0.12922579
20	0x3e3cbc97	0.18431316
21	0x3da3e24b	0.08002146
22	0xbda43df0	-0.08019626
23	0xbd41d7d9	-0.04732499
24	0x3d26b1cc	0.040696904
25	0xbdf1f006	-0.11813359
26	0xbd6e9d46	-0.058255456
27	0x3e58cb8c	0.21171397
28	0x3c3c5a41	0.011496128
29	0xbdfe9cbf	-0.12432241
30	0x3d81152c	0.06302866
31	0xbcd59c8a	-0.02607562

Critic.fc3.weight f4 [1, 32]
0	0x3d4757c3	0.04866768
1	0x3d4643bc	0.04840444
2	0x3d3ff1e9	0.046861563
3	0xbbff5d6a	-0.0077931182
4	0x3da51395	0.080603756
5	0xbca27f2c	-0.01983603
6	0x3d2631d4	0.040574864
7	0x3d5cb4c3	0.053883325
8	0x3b92e538	0.0044828914
9	0x3d704113	0.05865581
10	0x3d38ae1e	0.045087926
11	0x3d170dae	0.03687828
12	0x3c3a8a48	0.011385508
13	0x3d6e05d4	0.058111027
14	0x3cbdd82c	0.023174368
15	0x3c8b81b9	0.01702963
16	0x3cb128d8	0.021625921
17	0x3c0ffabb	0.008787806
18	0x3c3aefe0	0.01140973
19	0x3c4d56e3	0.012532922
20	0x3d3a43a1	0.045474652
21	0x3cc2e6a4	0.023791619
22	0x3d232d59	0.03983817
23	0x3d50963a	0.050924517
24	0x3cef12ab	0.029183706
25	0x3c82c226	0.015961718
26	0x3d2bf107	0.04197791
27	0x3cd6a822	0.026203219
28	0x3d0b4bd3	0.03400786
29	0xb9fc67d9	-0.00048142558
30	0xbbb77a97	-0.0055993306
31	0x3caa2151	0.02076784
