final_bipedal.pt (torch, 44120 bytes, 13 tensors)

actor.fc1.weight f4 [48, 24]
00000000: a647 09bd 07fb 40be db08 5ebd 0fb2 e6bd
00000010: 0a9a ac3c c54b 483d 8ede a83e d6fd ea3d
00000020: 160e 86bc 6d5e 67bd c709 d9bc 6384 b03e
00000030: 7d8d 2fbe 28f5 8b3e d65b 11bd dd57 3c3c
00000040: 28e8 f63d f234 3e3e 6608 233e 158b 333d
00000050: a891 913e 47da 483e 12fa 9a3e 5224 7e3e
00000060: 0a0b 213e 3c5a 9cbd 789a 45be 8c41 b3bd
00000070: e718 2dbd 0473 e33d 50eb 8fbd 66e1 323e
00000080: 5d7c 4dbe 3cc5 fbbd 315a 703d 84cf 05be
00000090: 4b32 3f3e b712 e5bd 794e 72bc e122 89bd
000000a0: aa36 613d 5c56 0fbe ca10 39be ce6e 3a3d
000000b0: 0d65 dc3d 8b96 12be 85b7 f63d b5bb e8bd
000000c0: f961 273d 154b f33c 9a6b 9bbd 1ced 91be
000000d0: ac8b a73e c065 1fbe be01 b03e 2e08 113e
000000e0: ea79 603e 30ee d23d 3836 d93d 3729 973e
000000f0: 888d 59be 9361 b13e db51 763e d2ad 4c3d
00000100: 3004 8e3e b2e9 763d 0574 283e 5492 b53e
00000110: 5c9d c5bb 89da fd3d 1331 a73e bd84 b73e
00000120: ebb3 b33e 62ac 10be 3fcf b0bd f27e 90be
00000130: 6684 ae3e b751 493d 0989 843e 8fbc 693e
00000140: edef 1c3e d57c 853e 86ae 273c c962 5a3e
00000150: 4d63 953b 89de 003e 7e20 073e 2908 803e
00000160: 616f 5b3e 5480 903e 916c ab3d 164f 493e
00000170: 81b4 ed3d d65f 133e 706c b13e 1896 523e
00000180: c0eb 9e3d b077 fabd 79ba 9ebd 7bc0 9abe
00000190: 8ae6 9fbc 19ef fc3c 7664 afbc 2dce 413e
000001a0: 6c76 873e d7c7 953c 4f80 61bd 270a 3a3d
000001b0: c736 f6bd f862 9a3e 26cc 863e 52de 243e
000001c0: 5e0c ffbb 7217 443e 0696 863d 103d 7a3e
000001d0: 22a4 3b3e fcd8 8a3e 28fd a73e f2e4 9c3e
000001e0: 12f5 b23d 0134 373d a6c6 32be eb5a 2ebe
000001f0: 2c73 113e 0585 44be a513 583d cfb2 31bd
00000200: 8089 6e3a 3963 91bd cac6 093d 3407 88bd
00000210: 8de8 433e 3631 b2bc 1cc4 20be a1fa 313e
00000220: 5dcd 92bd e2da 243e 06f3 063e 7bc3 303e
00000230: 6e05 18bd 857c 9f3c fe0e 06bd 4116 c9bb
00000240: e68e ce3d 9e0f 88bd 0774 f4bd ca96 15be
00000250: 10ad 2abe f95a aa3c f803 3bbe d782 253e
00000260: 6356 1cbe 2103 2abe b98f 8fbd d479 bebd
00000270: a74b 2e3e 2758 14be 9b05 153d e29b 16be
00000280: 1087 94bd 8361 ccbb 2dcd d9bd 949b 073e
00000290: 873f 1fbe 656d c53c 224d 5b3d d26b ac3d
000002a0: 3269 aa3d 0044 ba3d 8048 0abe fe44 1cbd
000002b0: 4d95 b7bd 317d 16be 7051 9e3d db20 4c3e
000002c0: 8708 233d dacb 333c f48e 31be d752 9a3d
000002d0: a21d aa3c b831 c43c c742 be3d 8119 0dbe
000002e0: c4e8 4fbe 8b1a 203e 5542 673d 568b d4bc
000002f0: 34ef 66bd acc1 a53d b060 0cbe 22e7 30be
00000300: 7023 903e bb43 09bc 8456 55be 7539 12be
00000310: 22df 9f3e a77c f13d 3ab9 563e d079 83bd
00000320: 5a36 a73e 24b7 d8ba 8179 393e afd7 453e
00000330: 2a94 32bd a8f1 af3e d6dd f43d 512a 533e
00000340: 551f bbbb aa7d b0bc 0c9e b53d 1c5b f23d
00000350: 4428 4f3e e3a5 8dbc f992 943e b929 883e
00000360: 5b6e 02be 99d7 30be 1815 033d 4e48 4b3d
00000370: e352 d6bd 6cc4 ec3b a2ee 3e3e 9ad6 15bc
00000380: d582 91bd 8e6a f1bd 25a1 d13d c279 003e
00000390: 1c35 b2bd 1ef1 3f3e 2fad c5bd ea27 2bbe
000003a0: a22f 4c3e 6878 5c3d 1f3f 31be 06e5 6e3c
000003b0: 27bb 34be f40f 4dbe e407 34be b1f0 35bd
000003c0: 0aca 1d3e d596 05be b491 b8bc d5a8 24be
000003d0: 133c 043d 09a7 b93d 77dd ab3e a1ca 07be
000003e0: 562f d73d 90eb 283e 6eb5 b23d 9a27 363d
000003f0: 87e5 61be abc1 873e a551 503e bd0e 813e
-0.033515595 -0.1884576 -0.054207664 -0.11264431 0.021069545 0.048900384 0.32982296 0.114741966
-0.016364139 -0.056486536 -0.02649392 0.34476003 -0.17143817 0.27335477 -0.035487972 0.011495558
0.12055999 0.18574885 0.15921172 0.04383381 0.2843144 0.19614516 0.30268914 0.24818543
0.15726867 -0.07634398 -0.19297206 -0.087527364 -0.042260077 0.11105922 -0.07027304 0.17468795
-0.20066972 -0.12293479 0.058679763 -0.13067442 0.18671529 -0.1118521 -0.014789217 -0.06696106
0.054983772 -0.13997787 -0.18072811 0.045515828 0.107614614 -0.1431524 0.12046722 -0.11363927
0.04086492 0.029698888 -0.07588883 -0.28501213 0.3272375 -0.15566158 0.3437633 0.14163277
0.21921507 0.10299337 0.106060445 0.29523632 -0.21245396 0.34644756 0.24054663 0.049970455
0.2773757 0.060281463 0.16450508 0.35463202 -0.0060307216 0.12395198 0.32654628 0.3584346
0.35098204 -0.14128259 -0.08633279 -0.28221852 0.34085387 0.049150195 0.258858 0.22825836
0.153259 0.26071802 0.010234481 0.21326746 0.0045589567 0.1258489 0.13195989 0.25006226
0.21429206 0.28222907 0.08370317 0.19659075 0.11606694 0.14392027 0.34653044 0.20565069
0.077598095 -0.1222986 -0.077504106 -0.30224976 -0.01951911 0.03087573 -0.021410208 0.18926306
0.26457536 0.018283768 -0.055054005 0.04541984 -0.12022167 0.30153632 0.26327628 0.16100433
-0.0077834567 0.19149569 0.065715834 0.24437356 0.1832433 0.2711867 0.3281033 0.3064342
0.0873815 0.04472733 -0.17458591 -0.1702687 0.14204091 -0.19191368 0.05275311 -0.043383416
0.00090994686 -0.07099003 0.033636846 -0.06641999 0.1913168 -0.021751981 -0.1569981 0.17380764
-0.07168076 0.16099122 0.13178644 0.1726207 -0.037114553 0.019468555 -0.03272914 -0.006136686
0.100858495 -0.06643604 -0.11936193 -0.14608303 -0.1666758 0.020795332 -0.18263233 0.16163193
-0.15267329 -0.16602756 -0.07009835 -0.093005806 0.17021047 -0.14486752 0.0363823 -0.14707902
-0.07252324 -0.0062372102 -0.10634837 0.13242942 -0.15551578 0.024100015 0.053540356 0.084190026
0.08320846 0.09095001 -0.13504219 -0.038151734 -0.08964024 -0.14696194 0.07730377 0.19934408
0.039803054 0.010973895 -0.17339689 0.07535332 0.020766083 0.023949489 0.092900805 -0.1377926
-0.20303637 0.15635125 0.056459744 -0.025945347 -0.056380466 0.080935806 -0.13708758 -0.1727567
0.28152037 -0.008377965 -0.20833784 -0.1427973 0.31224924 0.11791354 0.20969096 -0.06419718
0.32658654 -0.0016534072 0.18112756 0.19320558 -0.04359833 0.34364057 0.11956374 0.20621611
-0.005710522 -0.021544296 0.08868036 0.11833784 0.20230204 -0.017291015 0.2901838 0.26594332
-0.1273741 -0.17269744 0.03200254 0.049629502 -0.10465028 0.0072255637 0.18645719 -0.009145403
-0.07105032 -0.11787902 0.10235814 0.12546447 -0.08701536 0.18744323 -0.09652173 -0.16714445
0.19940045 0.053825766 -0.17309235 0.014580971 -0.17649518 -0.20025617 -0.17581135 -0.044418994
0.15409103 -0.13045819 -0.022530414 -0.1608003 0.032283854 0.090650626 0.33567402 -0.1326089
0.105070755 0.1649611 0.08726011 0.04447136 -0.22060214 0.26514944 0.20343645 0.25206557

actor.fc1.bias f4 [48]
00000000: dbc9 253e ec2e d2bd fa1b 3a3c d56f 933e
00000010: 2b3f 853e 8287 26be a32d acbd 1f10 6f3d
00000020: 760f 8c3e f581 a6bd 4faa 513e 8b2a aa3e
00000030: d561 b5bd 783a 173e 369b c03b 860f f7bd
00000040: 4751 223e 0673 ff3d 866e 8e3e 1f94 103e
00000050: f671 2abe 96af 703c 00ea 683e 7ff2 353e
00000060: 1074 233e 9002 ab3e a2e3 e63d 3660 ef3d
00000070: ec39 f93b b1b3 f33c 891f 773e 2753 153e
00000080: ede4 673d 7292 043e 425d 5f3d 7195 cebd
00000090: 15ae 2a3e afbf 493e 1e49 4cbe 770b 233e
000000a0: 21e2 2cbe 453a fdbd 42fa 5f3e 1569 623e
000000b0: f690 38be f126 43be 71ab c0bc 84ce 583e
0.16190283 -0.10262856 0.011359209 0.2879626 0.26024756 -0.1626263 -0.08407142 0.058364984
0.27355546 -0.08130256 0.20475124 0.33235583 -0.088565506 0.14768398 0.0058778776 -0.12063508
0.15851317 0.12473111 0.27818698 0.14119004 -0.16645035 0.0146903 0.22745514 0.17768286
0.15962243 0.33400393 0.11273886 0.11688273 0.007605782 0.02974877 0.24133123 0.14582501
0.056614805 0.1294649 0.054532297 -0.100870974 0.1666797 0.19702028 -0.19949767 0.15922342
-0.16883136 -0.1236463 0.2187281 0.22110398 -0.18024048 -0.19057824 -0.02351925 0.2117253

actor.fc2.weight f4 [48, 48]
00000000: 7dad cc3d 616f d13c 60f8 d93d 296d 6e3e
00000010: 5dd4 c73d a219 40bd 9633 b53d 57b6 05bd
00000020: a23d 9c3e 3cbe 963c 3d96 423d 3607 0a3e
00000030: ad80 10be 7f38 f83d fa3f 0f3e 1e5a 75bd
00000040: 2c0f 643d f7d6 8dbc a5de 923e 550f 993e
00000050: def3 b3bd b026 4b3e 6290 6b3e c03c bf3d
00000060: 2618 273e 42ac 8b3e 8329 01be fe74 5dbd
00000070: 7704 093e f4a1 6f3d 8aef 7d3d cab1 f1bc
00000080: 2699 983b d3db 793e be69 fcbd d122 2cbd
00000090: e33a 13be 5def d4bd 92c8 5b3d a80d c9bd
000000a0: ab47 e8bd 2469 a33c b787 9a3e fd86 883e
000000b0: bc3a 55bd 24ca 293d 9110 913d bc93 833e
000000c0: ea31 7b3e c451 a03d 877c 9a3e dcd9 533e
000000d0: 4a10 0f3e 0ec9 c43c acaa cfbd 804b a6bb
000000e0: 217a c23d f4d9 cd3d 5876 923e 19e6 5d3e
000000f0: 3644 743d b300 44bd 3bb0 cd3d 1047 c93d
00000100: bd9a 2c3e 41d0 5b3d 43d9 d73d 36e5 903e
00000110: fcfc c83c 26f9 d03d b154 d13d d90d f237
00000120: 64ac 153d 85ad 013d edf5 a8bc 7133 b9bd
00000130: 6f21 97bc 0030 0c3e 1643 8f3e efc7 a73d
00000140: 1b96 29bd 89ee 953e b5da 013e 2d73 02be
00000150: 63f2 f1bd 30ee f4bc ddbc ac3d 27b2 ce3b
00000160: 1134 aebd 1321 f3bd 080d 233d 7ebe 373e
00000170: 8422 013d 4e6d d2bd dc2a 533e 76f2 8f3e
00000180: 5f72 703e f9d8 7bbd b07e 873e 06df 853e
00000190: bab9 7d3e 5794 f6bd f6bc 063d 6dd1 f23b
000001a0: 935d 103e 7cc3 ee3d 489c a23d 53b7 ed3d
000001b0: 0e2e 9c3d 4ec9 093e 0ed8 61bd 3dd7 82bb
000001c0: 0862 cf3d 5f8a 0cbe da46 843e e423 c23c
000001d0: 1e09 ad3d 8d70 dc3d 9a3c 9e3d 6faf b03d
000001e0: 1aac 703e dc79 5c3e 9f2a ebbc 6b67 52bd
000001f0: 9a88 8abc 8afe 323d a96b 263d 9e2b bdbd
00000200: 1183 00be a34a 643e 3c8b 0cbe 63e8 35bd
00000210: aaa2 003e 78d4 82bd 643a d43b 6150 efbd
00000220: 2a94 a5bd 5864 c0bd 9dbb 483e 5ba2 633e
00000230: 3920 d83d a63c a3bd d0d1 273e d8e8 713e
00000240: 8183 5abd 4dfb 0d3e 0c1b b6bc 97a8 1e3c
00000250: cfaa cd3c 1666 67bd 91a4 03be 92bc 72bd
00000260: 2f38 cabd 5c5e 96bc ef76 483d a78f 2f3d
00000270: 5ba8 0f3e 5a99 283d 1f53 bd3d ab9f cfbd
00000280: aa2e 96bd f9aa 503d 2d4b f3bd 3600 9f3d
00000290: 5114 19bd ae97 a5bd d4ea 0abd 6611 08be
000002a0: 397e 63bd ae91 6b3c c930 4abd 5a16 ecbd
000002b0: dffa 10bd 1c8d a6bd bffd 8abd 4c02 c5bd
000002c0: d098 29bd 7a41 dabd 0878 863d 95a7 853d
000002d0: 6701 e7bd 6dc8 28bd 4fde dcbd eb30 6ebc
000002e0: 8be4 cfbc 8934 ab3b 8626 eb3d 74ac d13d
000002f0: 1626 b1bd 5773 cfbd 37f1 cb3d 2bf7 8a3d
00000300: cd16 d03d 37b4 803d 20af 3abd c5d7 cc3d
00000310: cae6 f2bd 1a8a efbd 493b 0ebe 4b3c 45bd
00000320: 8c07 c43d 7d5a 01be 7cbb b0bd 19f2 563c
00000330: 49eb de3c bba3 77bd d099 cdbd 4440 17bd
00000340: b23d fcbd 16ba 7bbd 00dc 5bbd 1c46 09be
00000350: 3b2b 1c3d 1e9d 133e 4b32 f3bd 932e babd
00000360: cf98 a5bb 66c3 7dbd b61e e7bd 38e3 b9bd
00000370: 24b6 38ba cf89 a6bd bf69 ccbd 17e5 b03d
00000380: b849 93bd 93a5 cdbc c932 edbd b5b5 e8bd
00000390: de6f 6a3d 97d7 833d 0df9 fabd 0b68 9bbd
000003a0: dd11 80bd fe85 a83d 6072 043d 5fbc 983d
000003b0: 7e19 463d d64a eabd db05 133e 5a00 8b3d
000003c0: 4ec5 653e 07b2 abbd a862 623e f7d6 883e
000003d0: c711 6e3e 0814 6bbd 2fd4 3cbd 7063 f03c
000003e0: d664 8b3d 0135 9ebd 0fc5 813e 6356 173e
000003f0: b388 cebd 16d9 fe3c ccb5 373b b922 83bd
0.09994028 0.025565805 0.10643077 0.23283829 0.09757302 -0.046899445 0.0884773 -0.032644596
0.30515772 0.018401258 0.04750656 0.13479313 -0.14111586 0.12120151 0.13989249 -0.059900396
0.05567853 -0.017314417 0.2868549 0.2989451 -0.08786748 0.19838977 0.23004296 0.09337759
0.16317806 0.2727986 -0.12613492 -0.05406665 0.1338061 0.05850406 0.06199602 -0.029503722
0.0046569286 0.24400263 -0.12324856 -0.04202539 -0.14377932 -0.103972174 0.053658076 -0.09817058
-0.113417946 0.019947596 0.30181667 0.26665488 -0.052057967 0.041452542 0.07083238 0.2569865
0.2453076 0.078280956 0.30173132 0.20688576 0.13971058 0.024021652 -0.10139975 -0.0050749183
0.094959505 0.10051337 0.28605914 0.21669807 0.059635364 -0.04785223 0.10043379 0.09828007
0.16855903 0.053665403 0.10539486 0.28299874 0.024534695 0.10203771 0.10221232 2.8855096e-05
0.036541358 0.03165962 -0.020625079 -0.09043015 -0.01844856 0.13690186 0.2798087 0.08192431
-0.041402917 0.2928355 0.12681086 -0.12739249 -0.1181381 -0.029898733 0.0843446 0.0063078585
-0.08506025 -0.11871543 0.03980735 0.17943761 0.031527057 -0.102747545 0.20621818 0.2811467
0.23481129 -0.061486218 0.26463842 0.26146716 0.2477788 -0.12040012 0.03289505 0.0074102194
0.14098196 0.116583794 0.079399645 0.11607232 0.07625972 0.13455698 -0.055137686 -0.0039929436
0.1012612 -0.1372466 0.25835305 0.023698755 0.084490046 0.10763655 0.077264026 0.08627211
0.23503152 0.2153086 -0.028706847 -0.05136816 -0.01691084 0.04369978 0.040630016 -0.09236835
-0.12549998 0.22294097 -0.13724989 -0.044411074 0.12562051 -0.063881814 0.0064766873 -0.11685253
-0.08084901 -0.09394139 0.19602819 0.22229902 0.10553021 -0.07970552 0.16388631 0.23623979
-0.05334807 0.13865395 -0.022229694 0.00968375 0.025105862 -0.05649384 -0.12855746 -0.059261866
-0.098739974 -0.01835554 0.04894155 0.042861607 0.14029066 0.041161872 0.0924437 -0.10137876
-0.07333119 0.050944302 -0.11879573 0.07763712 -0.03737289 -0.08085571 -0.033915356 -0.13287887
-0.055540297 0.014377994 -0.04936293 -0.11527701 -0.0353955 -0.08132383 -0.067866795 -0.09619579
-0.0414055 -0.1065702 0.06565863 0.06526104 -0.11279564 -0.041206766 -0.107845895 -0.01453803
-0.025377532 0.0052247685 0.11481957 0.10237971 -0.086498424 -0.10129421 0.099581175 0.06785425
0.10160599 0.06284373 -0.04557717 0.10002092 -0.11860426 -0.11696263 -0.13889803 -0.048153203
0.09571752 -0.12632175 -0.0862951 0.013119244 0.027211802 -0.06045888 -0.10039103 -0.036926523
-0.12316455 -0.061456762 -0.053676605 -0.13405651 0.038127165 0.14415404 -0.11874827 -0.090909146
-0.0050536166 -0.061953925 -0.112851545 -0.09076542 -0.0007046184 -0.08131754 -0.09981107 0.086374454
-0.07191795 -0.025103366 -0.11581952 -0.11362783 0.05723559 0.06437605 -0.12254534 -0.07588204
-0.06253407 0.08228682 0.03233564 0.07457804 0.048364155 -0.11440055 0.14357702 0.067871764
0.22438547 -0.083835654 0.22107947 0.26726505 0.23248969 -0.05739215 -0.04610079 0.02934429
0.06806342 -0.077249534 0.25345656 0.14779048 -0.10084667 0.031109374 0.0028031943 -0.06403107

actor.fc2.bias f4 [48]
00000000: a6d4 1c3e 83aa 203d 6a51 6a3e 9c72 bb3b
00000010: 8b66 d93c 76fd 7d3e c67b 633c bf86 bd3c
00000020: ae31 8a3e e77a 2fbd 504a afbd cc58 e93d
00000030: 6525 463e 25c0 10bd b61b 273d 7c1e 9abd
00000040: d8d3 13be 10ed 923e 2026 2a3e 5982 7e3e
00000050: 5440 f1bd 21c0 1b3d 8388 a8bb a554 033e
00000060: b87a 2cbd 9ff7 98bd cada 5a3d c819 bdbd
00000070: 1522 7e3d b4eb e63c 7905 9f3c ffa1 04be
00000080: 0267 b9bd 1aa9 57bd ce24 653d b67c 373e
00000090: 6a3f 1bbe 8741 0c3c 8f24 4f3e ebe5 0c3e
000000a0: ed52 983e 9f17 81bd 9399 f6bd ab0f bb3a
000000b0: ad7b 7d3d 2f5d d73d 6fb1 debd 52f0 0d3e
0.15315494 0.039225113 0.2288262 0.0057204496 0.026538154 0.24803719 0.01388449 0.023135541
0.26991028 -0.04284182 -0.08559096 0.1139389 0.19350202 -0.035339493 0.04079791 -0.07525346
-0.1443628 0.2869649 0.16616106 0.24854411 -0.11779848 0.038025025 -0.0051432266 0.12825258
-0.04210922 -0.07469105 0.05343131 -0.09233433 0.062044222 0.028188564 0.01941179 -0.12952422
-0.0905285 -0.052651502 0.055943303 0.17918667 -0.1516091 0.008560545 0.2022879 0.13759582
0.29750767 -0.063033335 -0.12041011 0.0014271637 0.061885525 0.1051582 -0.108736865 0.13861206

actor.mean_fc3.weight f4 [4, 48]
00000000: d91a f0bd aa8d e1bb 3326 ebbd 9922 d73b
00000010: af93 3a3d 4c1a 813d d944 483c 0f2e 883d
00000020: fafa 01be adb5 a3bc af95 dfbd 3698 20bd
00000030: d71b 9b3a 0de3 b13d 021a 713d 86c9 ca3d
00000040: cabf cd3d 6315 9fbd 6a35 893c 455a 0c3e
00000050: 62c3 ac3d dff3 41bd 1c06 cb3d 3025 01bd
00000060: 322f 913d 157b 633c 795a 10be f273 07bb
00000070: ed68 80bd 3e93 64bd 774e 7bbd d5bb d1bd
00000080: c167 2abd ec11 053e 0915 07be 9fbc bfbc
00000090: 4cd1 24bd d6b0 05be 2554 f7bd a8ec d13d
000000a0: d927 dabd c12e d13c be08 cebd f367 b13d
000000b0: 95ef 66bc 6f5e 4e3b 5430 0ebd c55c 443d
000000c0: 8680 a2bd d7c7 90bd 3563 f33d cc1e fbbb
000000d0: 3bc9 93bd 8671 db3d f090 ecbd 7bf2 07be
000000e0: f957 47bd 8e86 edbd 4c98 04be d18c 5fbd
000000f0: 396a 06be 2bb7 0e3e ea22 0ebe 18f7 92bd
00000100: 48f2 8bbd 56ff 4dbd 50e5 f93d 688f bbbc
00000110: a4dd ccbd c019 b93d abb5 d7bd bae7 103d
00000120: b160 6b3d 081e ef3c f541 c13d d083 84bd
00000130: 6582 dabd 7ba9 e4bd c5f9 b43d 25ed c53d
00000140: 6bdd f8bd 36d0 693d a356 013e 6cf1 05be
00000150: b487 d3bc e99b 873d 5c5c b5bd 256a e63a
00000160: 84a9 ef3d 256d bcbc bb6c 0b3e 8156 8b3d
00000170: 8d5d 033d af2e 22bd dd96 81bd aa3d 793d
00000180: c6c6 673d 2a30 a6bd f992 663d 4459 e7bd
00000190: 0209 103e b87f 173d 09a0 a6bd 11b8 e53c
000001a0: 5e51 763d 1df7 3cbd 6bfc d6bd a6c4 553d
000001b0: f847 b13d e702 c73d 70bd 123d e59d 083d
000001c0: 0271 0b3e 22db 5a3d 579f 40bd 10af 493d
000001d0: c000 c2bd 2f43 f43d 7cbe 82bd b1b0 f53d
000001e0: 0d11 8f3d 0edf 8abd 8829 94bd c22a 7cbd
000001f0: bcb2 963d 27c3 3b3d 94a2 d6bd cf8b 003a
00000200: a099 dd3d 7a0e e1bd c858 eb3d fe66 d2bd
00000210: e118 103e eec2 bebd c7eb 33bc 2808 173d
00000220: c925 e03d 8c51 923d 81b4 8bbd ef94 913d
00000230: 8df3 afbd 35a3 d4bd 6ee9 b1bc 4c3d eebc
00000240: 796b f9bc cbbc a33d 83d2 0c3e 3ad4 e03c
00000250: f80c 92bd 6b57 1bbd d620 e3bc b695 123e
00000260: 8bf7 e93d 2712 4c3d b06c 133e a8fc febd
00000270: d228 fe3d 9059 d8bd 2fd9 723d 2963 13be
00000280: eabf 993c ec39 563c 769d a3bb 9412 85bd
00000290: a4f6 11be 3796 a0bd aae5 ec3d fb77 e1bd
000002a0: 63ad 1a3d dcef 0cbe 7735 e0bd 4cc6 dc3c
000002b0: 562f 59bc a89f 8b3d eef3 943c 3ce7 6d3b
000002c0: 994a c1bc f187 11be d5fa 98bd 5de2 c83d
000002d0: 7386 d53d 3a66 7c3d 0fc1 53bd d4d4 65bc
000002e0: 7197 443d 892e 05bd 217a 7d3b c34f 0f3e
000002f0: 3992 d63d 9e5a cd3d 0554 11bc a33e b43d
-0.11723871 -0.0068833428 -0.11481895 0.0065654037 0.045551 0.06303844 0.012223446 0.0664941
-0.12693396 -0.01998409 -0.10917222 -0.03920766 0.0011833858 0.086858846 0.058862694 0.09901719
0.100463465 -0.07767751 0.016749103 0.1370631 0.08435704 -0.047351714 0.09913275 -0.031529605
0.0708908 0.0138843255 -0.14097013 -0.0020668474 -0.06270013 -0.055804484 -0.061354127 -0.10240904
-0.041602854 0.12995118 -0.13191618 -0.023405371 -0.040238664 -0.13055739 -0.12076596 0.10250217
-0.106521316 0.02553499 -0.10060261 0.08662405 -0.014095207 0.0031489392 -0.034714058 0.047940034
-0.0793467 -0.070693664 0.118841566 -0.0076635834 -0.07216116 0.10715012 -0.11551082 -0.13276093
-0.04866788 -0.1159793 -0.12948722 -0.054577652 -0.13126458 0.1393706 -0.13880506 -0.07176036
-0.06833321 -0.050292335 0.12201941 -0.02289553 -0.10003212 0.090381145 -0.10532697 0.03537724
0.05746526 0.029189125 0.094364084 -0.06470454 -0.10669402 -0.11165138 0.08836702 0.09664372
-0.12151607 0.05708333 0.12630706 -0.13080376 -0.025821544 0.066215344 -0.08855507 0.0017579241
0.117022544 -0.023001263 0.13615696 0.06803609 0.03207164 -0.039595302 -0.06327603 0.060849823
0.05658605 -0.08114655 0.056292508 -0.11296323 0.14065936 0.036987036 -0.08135993 0.028041871
0.06013619 -0.046134103 -0.10497364 0.05218949 0.08656305 0.097173505 0.035825193 0.033353705
0.13617328 0.053431638 -0.04702696 0.04923922 -0.09472799 0.11926877 -0.06383988 0.11996592
0.06985674 -0.067808256 -0.07234484 -0.061564215 0.073583096 0.04584041 -0.10480228 0.00049036456
0.10820317 -0.10989089 0.11491543 -0.102735505 0.1407199 -0.09314524 -0.010981507 0.036873013
0.10944707 0.0714446 -0.06821538 0.07108485 -0.085913755 -0.10382692 -0.021717753 -0.029081963
-0.030446755 0.07994994 0.13752179 0.027444948 -0.0713138 -0.037925165 -0.027725618 0.14314923
0.11424168 0.049822 0.1439693 -0.12450534 0.124101296 -0.10563958 0.059289154 -0.14393295
0.01876827 0.013075333 -0.004993136 -0.06497684 -0.14254242 -0.07841151 0.115672424 -0.110092126
0.03776301 -0.13763374 -0.109476976 0.026950024 -0.013255915 0.068175614 0.018182721 0.0036301157
-0.023595141 -0.14212014 -0.074697174 0.098088 0.10426035 0.06162093 -0.051697787 -0.014027793
0.04799599 -0.032515083 0.003867753 0.1399527 0.104771085 0.100270495 -0.0088701295 0.088010095

actor.mean_fc3.bias f4 [4]
00000000: f3cd f83d 8980 653d 1be8 0bbe 680c 743d
0.12148657 0.056030784 -0.1366276 0.059582144

actor.log_std_fc3.weight f4 [4, 48]
00000000: ce3b a1bc f72e 84be 6539 62bd c607 893d
00000010: a698 83bd 7d1c 2bbe 614b 193d 0961 f5bd
00000020: 226c 42be 866c 0c3e 2f8b 373d 3e16 adbd
00000030: a7ed 15be 4618 8abd 804a 983b ef42 a3bd
00000040: 682a 4fbd 1850 7cbe 56bc 2cbd 5d95 29be
00000050: e5da 92bd e70d f53d 718a df3d 2797 88be
00000060: d243 89bd 2e9e 8f3d 663f fc3d 2492 7ebc
00000070: de6b d4bd 4861 053e 254f f33b acf9 523b
00000080: 507e 023e df23 503d fb03 75be d6ef 95be
00000090: 633f d23d 4571 b03d 9862 5fbe 9e1a 8cbe
000000a0: cc9d 87be 4947 4f3d bc5e 043d ecbf db3d
000000b0: 9bf8 7cbc 8eb7 1e3d d316 f2bc dec8 9ebd
000000c0: ad92 4abe 337f 80be 221f 93be d284 dc3d
000000d0: f21a 563d 451a e3bd 0a43 bd3d 9204 01be
000000e0: ea86 75be 2426 963c d4c7 0fbd 9d95 89bd
000000f0: d514 34be e24c 08be 96f0 8bbd 90b0 8c3d
00000100: 7312 0dbe 2073 12be adab 99be f188 86be
00000110: a99b 00be 0f20 cb3d bebe c1bd 9f9e 15be
00000120: 647d ab3c 82dd b7bd af4b dfbd 562e 523d
00000130: 53b0 673d 3604 813d 24c5 b6bd 5281 0e3b
00000140: 43cc 6ebd 2def be3d 00a2 bdbc a77e 0abe
00000150: cf96 dbbc 10f9 fd3d 2b6a 02be e8cc 4dbd
00000160: dcd0 35be d721 afbd a67b 14bc d5dd be3d
00000170: bdbc d33d d1bc b43d 0768 de3d 304a ae3d
00000180: 17f8 5fbe 8c04 87be 366b 41be 55db 00be
00000190: 52c4 e83c bd85 5bbd 9a3a 66bc 7120 99bd
000001a0: 645c babd 6a11 0bbe 2c9d 87bd 303b 8bbd
000001b0: 043a 17be e2d4 a7bd a28a 6e3d fb22 5d3d
000001c0: f7cd 003e 2ae5 73be ad2b 2bbe 15c9 f5bd
000001d0: 4cc1 f43c a6d4 c1bc 11df 9e3d 0255 7bbe
000001e0: c185 89bd c099 45bd 126e b8bd f0f8 fc3d
000001f0: 1cb0 0b3e 2ec1 e7bd 26cf a13d e5f7 e93d
00000200: 8c83 323d 263f a83d 6929 93be a510 37bd
00000210: 1e6d e8bc caad 40bd 68ef 46be fea0 65be
00000220: b27e 78be 38b3 d43d a278 43bd 0e95 ebbc
00000230: 08d1 99bd b8d2 e63d bb5f 63bc 951b c33c
00000240: c9f7 91be 20d0 09bd 5989 61be 334b f03d
00000250: 9031 8cbd 4b14 99be 1d7a 513c 5dfc 93bd
00000260: 394d 98be b030 bf3c 728d c1bd a655 e83d
00000270: d644 8fbe 6849 e4bd e81a 0d3e b52c 793d
00000280: c3bf 0d3e 535c 9bbe 9c0b ddbd 0f24 15bd
00000290: 4312 cc3c 050b c83d b88f 5d3d 8ecb 2bbe
000002a0: d700 823d 995f f3bd d3c9 693d 8182 043e
000002b0: 4229 33bd 4434 093e 6aeb c9bd 3140 d53d
000002c0: 1b9b fa3d c341 933d 2531 0abe 7280 0ebe
000002d0: aa20 6c3c f148 9d3d 7299 a0bd 321b 82be
000002e0: e787 eabc 4f93 913d 361b 893d 733a c7bd
000002f0: b83f de3b 1d65 e23d 2529 993c 905e eabd
-0.019681837 -0.2581708 -0.055230517 0.06690936 -0.064256 -0.16710086 0.037425403 -0.119813986
-0.18986562 0.13713273 0.04481047 -0.08451508 -0.14641438 -0.06742911 0.004647553 -0.07971751
-0.05057755 -0.24639928 -0.0421718 -0.16560884 -0.07170657 0.11965542 0.109150775 -0.2667782
-0.06702389 0.07012592 0.1231678 -0.015537772 -0.103721365 0.13025391 0.0074252062 0.0032192273
0.12743497 0.05081546 -0.239273 -0.29284543 0.10265996 0.086153544 -0.21814954 -0.27364057
-0.26487577 0.050605092 0.03231691 0.107299656 -0.015440132 0.03874927 -0.029551899 -0.07753156
-0.19782515 -0.25097045 -0.2873469 0.10767521 0.05227179 -0.11088995 0.09241302 -0.125994
-0.23977247 0.018328734 -0.03510268 -0.067179896 -0.17586072 -0.13310578 -0.068329975 0.06869614
-0.13776569 -0.14301729 -0.3001379 -0.26276353 -0.1255938 0.09918224 -0.09460209 -0.1461129
0.020933814 -0.08977796 -0.109031074 0.05131372 0.05656464 0.06299631 -0.0892432 0.0021744561
-0.058300268 0.09322963 -0.023148537 -0.13524877 -0.02680531 0.124010205 -0.12735812 -0.050244242
-0.17755455 -0.08551376 -0.009062683 0.09319655 0.10338733 0.08825076 0.108596854 0.08510244
-0.21871983 -0.26370656 -0.18888554 -0.12583669 0.028413925 -0.05359434 -0.014052058 -0.07476891
-0.09099653 -0.13580862 -0.06621775 -0.067983985 -0.14768225 -0.08194901 0.05823768 0.053988438
0.1257857 -0.23817888 -0.1671588 -0.12001244 0.029877327 -0.023660969 0.0775739 -0.24544147
-0.06714965 -0.04824233 -0.09005369 0.123521686 0.13641399 -0.11316143 0.079008386 0.11424235
0.043582484 0.082151696 -0.2874253 -0.044693608 -0.028372344 -0.04704074 -0.19427264 -0.22424695
-0.2426708 0.10385746 -0.047722466 -0.028757598 -0.07510573 0.1127066 -0.013877804 0.023816863
-0.28509358 -0.03364575 -0.2202505 0.11733093 -0.06845391 -0.29898295 0.012785462 -0.07225869
-0.29746416 0.023338646 -0.09450807 0.11344461 -0.27982205 -0.11146814 0.13779795 0.06083365
0.13842683 -0.30343875 -0.1079323 -0.03641134 0.024911052 0.09767727 0.05409214 -0.16776869
0.063478164 -0.11883468 0.05707724 0.12940408 -0.04374052 0.13398844 -0.09859355 0.10412634
0.12236615 0.071902774 -0.1349531 -0.13916185 0.014412085 0.07679928 -0.07841767 -0.25411373
-0.028629256 0.07108175 0.06694643 -0.09727945 0.006782498 0.11054442 0.018696377 -0.114438176

actor.log_std_fc3.bias f4 [4]
00000000: 21f5 42be 353b 42be 99db f7bc 77ba 2fbe
-0.19038822 -0.18967898 -0.03025608 -0.17160974

critic.fc1.weight f4 [64, 24]
00000000: e06e 6f3f 89b7 90c0 96ed aac0 40f0 51c1
00000010: 3718 b741 69a0 1b41 d3a5 14c1 48e1 e9c0
00000020: 6d7b b8c1 7980 1c3d 77da 42c0 c2a3 5fc1
00000030: e006 89c0 7adf b1c1 b750 57c1 1de0 53c1
00000040: 3b67 57c1 4de6 52c1 55c1 56c1 23a8 54c1
00000050: 08d2 56c1 032d 55c1 271e 3fc1 9fb0 22c1
00000060: 38f4 0740 c17e 9341 7cfa 43c1 888e 1642
00000070: b690 16c1 1b8e aac0 6841 acc0 ec28 c03f
00000080: 2b81 a0c1 6483 bac0 cd11 69c0 902f 04c0
00000090: 985a 0e3f 4fb4 a1c1 6077 32c1 606a 32c1
000000a0: cabb 36c1 fc75 33c1 5b4f 32c1 d71b 37c1
000000b0: 019f 34c1 77e3 35c1 b4be 34c1 66c9 3ec1
000000c0: a007 d8bf 36be a5c0 8034 54c0 003f 43be
000000d0: 2eb2 3a40 f1a4 6741 7ae6 f7c0 d14c 11c1
000000e0: c95c b2c1 c0be c8bf 6f58 0b41 dcbf 96c1
000000f0: b435 33c0 fea4 aec1 a86a 6ec1 a0ed 70c1
00000100: 4505 6fc1 8a68 6dc1 8d6b 72c1 f640 70c1
00000110: aeaa 72c1 e9a9 6cc1 ec54 63c1 6831 38c1
00000120: 0026 01be 00cc 65be 0088 f1bb 6412 9b41
00000130: b8eb a0c1 40af 20be bcba 9e41 40de 4c3e
00000140: a7c6 dbbd 00c2 0dbd 0874 9d41 402b 28be
00000150: 003c 71be 52ec 1cc1 cd2f a1c1 72a9 9ec1
00000160: 629b 9fc1 5585 9ec1 ce3b a0c1 b4dc 9fc1
00000170: eec2 a0c1 e8ec 9fc1 9c7f a0c1 780d a1c1
00000180: 960b 8a41 7023 1fbf a41f efc1 e6e9 e941
00000190: 00a8 98c1 d8cf 7140 70fe 0242 f792 e5c0
000001a0: 04bc 29c1 78ae ae3f 495b e1c0 5cb5 8441
000001b0: fdb5 42c1 1649 04c1 4ca4 f9c1 de9a f9c1
000001c0: b58d f9c1 e10e fac1 eba3 f8c1 b043 fac1
000001d0: a2cf f9c1 54f7 f8c1 dcd8 edc1 72e3 d8c1
000001e0: 00f9 303e 00f7 773d 0042 153e 0091 a041
000001f0: 803e 393e 80e2 2e3e 8021 a63d d4a0 9fc1
00000200: 94f4 9ec1 4071 2dbe 4066 423e 2082 9ec1
00000210: 0042 f1bc 119c 1ec1 d4a2 9ec1 75a6 a0c1
00000220: f408 a1c1 12c5 9fc1 05bc 9fc1 361c a0c1
00000230: 3e95 a1c1 1195 a1c1 a0b2 9fc1 9c68 a1c1
00000240: c011 10be d44f 7ac1 4e45 9641 bcdb 1e40
00000250: 5899 1240 0156 2a41 1428 a141 60db f6bf
00000260: 0f88 1ec1 8665 96c1 5dba b840 304b 8dc1
00000270: 5ff9 f940 6c36 1ec1 25c6 bac1 d6ac bac1
00000280: 9e95 bdc1 4bfe bac1 1d94 bbc1 bceb bcc1
00000290: 475d bbc1 fb97 bdc1 5a61 b9c1 ca15 9cc1
000002a0: c4c0 6f40 aeb6 5641 98d5 e5bf 8c25 3ac1
000002b0: d297 0ec1 f67e 29c1 39f4 12bd 9b25 e0c0
000002c0: e909 f3c1 e291 41c1 a325 bbc0 5b7e bc3f
000002d0: 818e 8ebf 3fb1 03c2 77c6 33c1 7d35 36c1
000002e0: 131d 33c1 1135 36c1 e4c5 36c1 e4ca 36c1
000002f0: b96a 31c1 bc50 31c1 3812 22c1 e259 16c1
00000300: a684 8841 ca3c 8bc0 a3ed 4142 7a1c b6c1
00000310: 69cb 7c40 06bb 13c1 4ac3 1ac1 040e bb40
00000320: eefe bcc1 8118 75c1 9dda 40c1 cfa8 d3c1
00000330: 0e54 9641 de8f 99c1 e413 5cc1 19dd 56c1
00000340: 806f 59c1 fd9a 5cc1 1423 5bc1 0f95 5bc1
00000350: f55e 5dc1 78b8 58c1 0297 45c1 0438 f9c0
00000360: f068 5dc1 f104 de41 7ae4 1bc2 72f5 0642
00000370: 3b6e d7c1 8580 3641 3cf3 5fc1 e4c4 bf41
00000380: b7a4 9ec1 b2d4 cf40 8ae6 4a40 f967 fac1
00000390: 08a7 be3f 56ad b4c1 8c8f ccc1 7629 cdc1
000003a0: 0636 cdc1 723f cec1 b4a7 cec1 aee0 ccc1
000003b0: 69bc cdc1 662a cdc1 3eaa cfc1 3bdc d1c1
000003c0: 98ea ba41 087b adc1 2d5e 8340 d36e e541
000003d0: 669c 8140 3c6f e0bf 3b02 2c41 74b2 08c1
000003e0: abb1 adc1 3afd 2a40 48ea 6ac1 7b81 b841
000003f0: 1239 d8c0 859d c9c0 fa52 abc1 928b acc1
0.93528557 -4.522404 -5.341502 -13.121155 22.886824 9.726663 -9.290484 -7.30875
-23.060266 0.03820846 -3.044584 -13.97748 -4.282089 -22.23412 -13.457206 -13.242215
-13.462703 -13.181226 -13.4222 -13.291049 -13.426277 -13.323489 -11.944861 -10.16812
2.124281 18.436892 -12.248653 37.63919 -9.41033 -5.329847 -5.382984 1.5012488
-20.06307 -5.828539 -3.6417115 -2.065403 0.55606985 -20.213041 -11.154144 -11.15097
-11.420847 -11.216305 -11.144374 -11.444297 -11.288819 -11.368033 -11.296558 -11.92417
-1.6877327 -5.179469 -3.3157043 -0.19067001 2.9171252 14.477769 -7.7468843 -9.081254
-22.295305 -1.5683212 8.70909 -18.843681 -2.8001528 -21.830563 -14.901039 -15.058014
-14.9387865 -14.838022 -15.1512575 -15.01586 -15.16667 -14.791482 -14.208233 -11.512062
-0.12612152 -0.22441101 -0.007370949 19.38398 -20.115097 -0.15691853 19.841179 0.20006657
-0.10731249 -0.03460884 19.681656 -0.16422749 -0.23558044 -9.807695 -20.14834 -19.832737
-19.95087 -19.815104 -20.029202 -19.982765 -20.09518 -19.990677 -20.06231 -20.131577
17.255657 -0.6216345 -29.89045 29.239208 -19.082031 3.7783108 32.748474 -7.17419
-10.608402 1.3646994 -7.042393 16.588554 -12.169431 -8.267843 -31.205223 -31.200619
-31.194193 -31.257265 -31.080038 -31.28305 -31.226383 -31.120766 -29.730888 -27.111057
0.17282486 0.060538292 0.14575958 20.0708 0.18090248 0.1707859 0.08111858 -19.95353
-19.869423 -0.16937733 0.18984318 -19.813538 -0.029450417 -9.913102 -19.829506 -20.081278
-20.129372 -19.971226 -19.966806 -20.013775 -20.197872 -20.197786 -19.96222 -20.176079
-0.14069271 -15.644489 18.78384 2.4821615 2.2906094 10.645997 20.14457 -1.9285698
-9.908217 -18.799572 5.7727494 -17.661713 7.811691 -9.888287 -23.34675 -23.334393
-23.698055 -23.374166 -23.44732 -23.615105 -23.420546 -23.69921 -23.172535 -19.51064
3.7461405 13.4196 -1.7955809 -11.634167 -8.9120655 -10.593496 -0.03587744 -7.0045905
-30.379839 -12.098116 -5.8483443 1.4726061 -1.1137239 -32.92309 -11.235953 -11.388059
-11.194598 -11.387956 -11.423313 -11.424534 -11.088555 -11.082211 -10.129448 -9.396944
17.06477 -4.3511705 48.482067 -22.763905 3.9499152 -9.23316 -9.672678 5.845461
-23.624477 -15.318482 -12.053372 -26.457426 18.791042 -19.195248 -13.754856 -13.428979
-13.589722 -13.787839 -13.696064 -13.723891 -13.835683 -13.545036 -12.349367 -7.788088
-13.8381195 27.752413 -38.97312 33.739693 -26.928823 11.406377 -13.996883 23.971138
-19.830427 6.494714 3.170321 -31.300768 1.4894724 -22.584637 -25.570091 -25.645245
-25.651379 -25.78098 -25.831886 -25.609707 -25.716997 -25.645702 -25.958126 -26.232534
23.364548 -21.685074 4.105246 28.679113 4.0503416 -1.7533946 10.750545 -8.543568
-21.711752 2.6717057 -14.682198 23.063223 -6.7569666 -6.3004785 -21.415516 -21.56815

critic.fc1.bias f4 [64]
00000000: a413 36c1 7de4 58c1 c320 3ec1 cad5 a0c1
00000010: a2b1 cdc1 cfcc 9fc1 28c9 99c1 edf1 19c1
00000020: 6c11 11c1 3f11 ecc1 3cd2 6cc1 e23c 1cc1
00000030: a2c3 b1c1 e5fb 5cc1 b328 9fc1 e9bb b5c1
00000040: 58a5 01c1 61cf 61c1 1dc4 71c1 2c97 a0c1
00000050: 023c a0c1 f857 a1c1 df29 6fc1 b4f1 a4c1
00000060: 53a1 85c1 1c28 9dc1 2db5 a0c1 29ec 66c1
00000070: 6272 2ec1 a6ab c6c1 9f40 a1c1 2905 57c1
00000080: 4cc9 eac0 9d9a 9ec1 fd95 b8c1 b6c8 32c1
00000090: e6ac a3c0 dcc6 efc1 015c 53c1 e766 78c1
000000a0: 3e1a 66c1 3a7a b8c1 ea4e 5bc1 4838 1cc1
000000b0: d62c 9fc1 e338 4bc1 8c14 433f be7d 78c1
000000c0: 0469 a0c1 7eee 88c0 cb96 94c1 c189 c4c1
000000d0: 4b1c 5bc1 011c 7542 eae2 ecc1 a00c 6bc1
000000e0: a8f6 9ec1 82dd 99c1 f847 a0c1 591c 99c1
000000f0: 76d1 2fc1 6e10 21c2 76a5 9ac1 c6f4 84c1
-11.379795 -13.555783 -11.882998 -20.10439 -25.711735 -19.975004 -19.22322 -9.621564
-9.066753 -29.50842 -14.801327 -9.764864 -22.220524 -13.811498 -19.894873 -22.716753
-8.102867 -14.11313 -15.110379 -20.073814 -20.0293 -20.167953 -14.947722 -20.61802
-16.703772 -19.644585 -20.088465 -14.432656 -10.9029255 -24.833813 -20.156553 -13.43876
-7.3370724 -19.825495 -23.073236 -11.174002 -5.114856 -29.9721 -13.209962 -15.525123
-14.381407 -23.05968 -13.706766 -9.763741 -19.896893 -12.701388 0.7620323 -15.530699
-20.051277 -4.279113 -18.57363 -24.567263 -13.694407 61.277348 -29.610798 -14.690582
-19.870438 -19.233158 -20.035141 -19.138842 -10.988638 -40.266045 -19.330791 -16.619518

critic.fc2.weight f4 [64, 64]
00000000: 5aeb 273e aeaa be41 ea31 be3d 003b 73bd
00000010: d6ff b340 989a a0c1 4a9d 9341 41d7 9b41
00000020: 55a4 dbc1 d852 65c1 6d26 84c0 16ce a73f
00000030: e8f9 ba40 a5da c041 bc8b 9f41 7a4f f041
00000040: 69c1 1541 4d34 15c1 892d 5e41 8e30 a041
00000050: e419 a041 c252 9fc1 3ca8 7e41 179b f140
00000060: 4e7d 03c2 d612 ffc0 8688 9fc1 6e1f 7140
00000070: b94d d0be 931b 9241 8088 a33d 3fdd c841
00000080: d5d1 eb3c 9ed1 9e41 f43f 06c1 9854 1441
00000090: dbf7 6441 80c8 97bd 2044 ca41 51cb 1d41
000000a0: e2b0 6841 03f3 05c1 474d 20c1 ffce 14c0
000000b0: 4621 9fc1 bdbf 5341 1212 9841 a538 01c1
000000c0: 0041 08bd 687d 3f41 0705 5d41 7043 fdc0
000000d0: 7720 bebe ccdb 51c1 0ee4 9cc0 509a c2c0
000000e0: 9a23 9fc1 93db 0341 16dd 9f41 c68b b540
000000f0: edf0 ebbf c590 d041 9a91 88c0 b50e 02c2
00000100: a6e9 1fc1 18a3 69bd b6c0 20c1 3469 f7bd
00000110: bbe0 20c1 2c71 20c1 6401 1fc1 834f 21c1
00000120: cb31 1ec1 068e 8ebd 7c55 683d f2a3 1ec1
00000130: ec85 21c1 d43a c9bd a832 a2bc 9cdc 753d
00000140: a339 20c1 24bf 793d a09b 19bc 614a 21c1
00000150: 8b27 1fc1 9420 20c1 6283 e8bd b895 073d
00000160: f4aa 1ec1 8ee5 21c1 ead1 20c1 754e 20c1
00000170: 40f3 03be 3e3c fb3d 1e18 21c1 e813 1ec1
00000180: bdfa 1ec1 0e10 1e41 e739 1ec1 3b2e 21c1
00000190: 90c5 20c1 c038 1ec1 14da 21c1 cb24 1cc1
000001a0: adc3 1ec1 7448 21c1 fc5c 1c41 76f8 1ec1
000001b0: 1cea 20c1 0a21 d6bd 9d1d 20c1 e507 1ec1
000001c0: f49b 1e41 e07e 1ec1 4db6 21c1 aad7 1ec1
000001d0: ec31 1ec1 f6f5 21c1 2a3c 923d 3314 1fc1
000001e0: 48c5 1ec1 38c1 7bbd 2c59 e13d 2814 233d
000001f0: 85ef 21c1 34fb e6bd 36f4 d03d 1286 21c1
00000200: a176 1fc1 908d 1dc1 2682 20c1 5eb6 82bd
00000210: ccd7 1fc1 38f8 ee3c e131 1dc1 c76a 20c1
00000220: 6c37 38bd e58d 20c1 38c0 87bd efe5 1fc1
00000230: 1e87 d33d e81e cebc 0887 21c1 0e5d 8dbd
00000240: 975f 1fc1 1012 863c 04a4 9a3d 5603 20c1
00000250: 3236 21c1 497f 20c1 9243 ccbd fccf 033d
00000260: eead 20c1 82b3 20c1 02ac 20c1 1482 21c1
00000270: 12d9 1cc1 ecfb 3cbd d9e9 1fc1 5852 12bd
00000280: 8e9e 21c1 8cfe 51bd 56b8 1fc1 9a4e d8bd
00000290: b893 373d 2368 21c1 04e1 1fc1 0eb1 1ec1
000002a0: ab78 1bc1 6eb8 21c1 02a1 853d 7739 20c1
000002b0: 33a5 1ec1 8c4f 893d 8335 1fc1 4aeb 21c1
000002c0: db5b 1ec1 81d6 1ec1 30a2 1fc1 8980 21c1
000002d0: f468 21c1 741d d2bd 20aa b43c 34d0 21c1
000002e0: 8e2e 1ec1 5047 47bd 66ee 8e3d 707d bd3d
000002f0: a660 1ec1 5127 1fc1 a6db a1bd 93d9 1ec1
00000300: 417a 20c1 c42a 1ec1 b1fb 1fc1 5894 433d
00000310: 68d6 dd3c 58b7 fc3c 713b 20c1 69a2 21c1
00000320: af03 20c1 8b1d 1fc1 3025 cc3c 4cfb 9bbd
00000330: 30fb c9bd 4c53 1ec1 f074 6f3d 9009 a33c
00000340: fa19 20c1 d8ee 9abd 5538 1ec1 5e9b eebd
00000350: c82f 1fc1 7847 21c1 c884 02bd c851 fc3d
00000360: 4669 1fc1 9a33 21c1 1006 93bc 289c 1fc1
00000370: c0de 2bbb c47b 43bd 9cc0 20c1 a27a 1fc1
00000380: e017 7dbd 343a ac3d 113c 1ec1 1486 debd
00000390: 2ebb aa3d 68bb f43c a082 20c1 2039 ffbd
000003a0: 751e 1ec1 5c5c 21c1 c07b 663b d508 1fc1
000003b0: c740 1fc1 0022 1bbd 0045 21c1 9e49 1fc1
000003c0: 4f1a 20c1 4dda 20c1 4a1b 21c1 9ad8 20c1
000003d0: 8115 21c1 c774 1fc1 ca48 cc3d 9e13 20c1
000003e0: 22c6 1fc1 e03b c63d 008b 9c3b 50c6 0abc
000003f0: 0df4 1ec1 368c 1fc1 d0d2 06bd fc74 1fc1
0.16398373 23.83334 0.09286864 -0.05938244 5.62498 -20.075485 18.451801 19.480104
-27.45524 -14.332726 -4.1296906 1.3109767 5.843006 24.10676 19.94323 30.038807
9.359719 -9.325269 13.886117 20.023708 20.012642 -19.91541 15.916073 7.550182
-32.872368 -7.9710493 -19.941662 3.7675433 -0.40684298 18.263464 0.0798502 25.10803
0.02878658 19.852352 -8.390614 9.270653 14.310512 -0.07411289 25.283264 9.862138
14.543184 -8.371829 -10.018867 -2.325134 -19.891247 13.234311 19.008823 -8.076329
-0.033265114 11.968117 13.813727 -7.914482 -0.37134144 -13.116161 -4.9028387 -6.081337
-19.892384 8.241107 19.982952 5.673312 -1.84329 26.070688 -4.2677736 -32.514362
-9.994543 -0.057040304 -10.047049 -0.12080613 -10.054866 -10.02763 -9.9378395 -10.081912
-9.8871565 -0.069606826 0.05672215 -9.915026 -10.095196 -0.09825674 -0.019799545 0.060024843
-10.014071 0.0609733 -0.009375483 -10.080659 -9.947154 -10.007954 -0.11353184 0.033101767
-9.916737 -10.118544 -10.051249 -10.019155 -0.12885761 0.1226735 -10.068388 -9.87986
-9.936215 9.87892 -9.889136 -10.073787 -10.048233 -9.888855 -10.115742 -9.758983
-9.922772 -10.080189 9.772701 -9.935659 -10.057156 -0.104555205 -10.00723 -9.876927
9.9130745 -9.905975 -10.107007 -9.927652 -9.887188 -10.122549 0.07140382 -9.942431
-9.923164 -0.061463565 0.11003336 0.039814144 -10.120976 -0.11278382 0.102028295 -10.095232
-9.966462 -9.847061 -10.0317745 -0.0638244 -9.990185 0.029171094 -9.824677 -10.026069
-0.04497473 -10.034642 -0.0662846 -9.993636 0.10328506 -0.025161222 -10.095467 -0.069025144
-9.960837 0.016366035 0.07550815 -10.000814 -10.075731 -10.0310755 -0.099738255 0.03218077
-10.042463 -10.043825 -10.041994 -10.094257 -9.802996 -0.04613869 -9.994592 -0.03572306
-10.10121 -0.051268145 -9.982504 -0.10561867 0.04481861 -10.087924 -9.992435 -9.918226
-9.71696 -10.107527 0.065248504 -10.0140295 -9.915332 0.067046255 -9.950564 -10.119944
-9.897426 -9.927369 -9.977097 -10.093881 -10.088123 -0.10259524 0.022053778 -10.113331
-9.886366 -0.048651993 0.06979065 0.09252441 -9.898596 -9.947099 -0.07903223 -9.928119
-10.029847 -9.885441 -9.998948 0.047748893 0.027079776 0.030849144 -10.014512 -10.102151
-10.000899 -9.944713 0.024920076 -0.076162905 -0.09862363 -9.895336 0.05846113 0.01990202
-10.006342 -0.07565087 -9.888753 -0.11650728 -9.949165 -10.079948 -0.03186491 0.12320286
-9.9632015 -10.075098 -0.017947227 -9.975624 -0.0026225299 -0.047725454 -10.047024 -9.96744
-0.061790347 0.08409539 -9.889665 -0.10865417 0.08336483 0.029874519 -10.031891 -0.124620676
-9.882436 -10.085049 0.0035168976 -9.939656 -9.953315 -0.03787422 -10.079346 -9.955473
-10.006423 -10.053296 -10.069162 -10.052881 -10.06775 -9.96601 0.09974821 -10.004789
-9.985872 0.09679389 0.0047773123 -0.008470133 -9.934583 -9.971731 -0.03291589 -9.966061

critic.fc2.bias f4 [64]
00000000: d47d a1c0 0b0b a0c1 79e4 1ec1 471c a0c1
00000010: 076d 2641 ed72 d8c1 a1a3 eec1 070e 0bc2
00000020: 12d8 4cc1 643e 10c2 4817 1bc2 210e 02c2
00000030: f725 dcc1 66a7 bcc1 784f 52c0 717c 1ac1
00000040: ab0c e0be 97a8 03c2 f247 b6c1 f128 a7c1
00000050: 415d e4c1 76d0 90c0 1651 20c1 06a2 3ec0
00000060: 7492 aac1 0054 913e e8b0 20c1 d8b2 21c1
00000070: b6ac 26c0 6eb7 cec1 6095 a23e 850e 6dc1
00000080: d336 35c1 faf4 afc1 d6df b4c1 41be a1c1
00000090: 82d0 02c2 0d17 21c1 3432 13c2 d95a 14c1
000000a0: 459c 41c1 eec4 19be 2ca3 0941 3ee8 09c2
000000b0: 526e d6c0 4960 c7c1 58da 2ec2 d810 8fc0
000000c0: b576 00c2 2812 1741 24d1 10c2 41e7 21c1
000000d0: 6061 4fc0 96ac 21c1 d5e6 2fc2 8bba d13f
000000e0: 9ffc cf3f a4d5 1fc1 eae9 1fc1 6893 fb3f
000000f0: ac5b c0c1 1c4e a0c1 a6d3 44c1 2d89 35c2
-5.04661 -20.005392 -9.930779 -20.013807 10.401618 -27.056116 -29.829897 -34.7637
-12.802752 -36.06093 -38.772736 -32.513798 -27.518538 -23.581738 -3.2861004 -9.655381
-0.43759665 -32.91464 -22.78513 -20.89499 -28.545534 -4.525447 -10.019796 -2.9786391
-21.32151 0.283844 -10.04319 -10.106163 -2.6042914 -25.839565 0.3175459 -14.816045
-11.325885 -21.994617 -22.609295 -20.217897 -32.70362 -10.068128 -36.799026 -9.27218
-12.100652 -0.15016529 8.602337 -34.4768 -6.700967 -24.922014 -43.713226 -4.470806
-32.115925 9.441933 -36.20424 -10.118958 -3.2403183 -10.104635 -43.97542 1.6385053
1.6248969 -9.989658 -9.994608 1.965436 -24.044762 -20.03814 -12.301672 -45.38396

critic.fc3.weight f4 [1, 64]
00000000: 2400 4e41 007c 73bd 7b8d 1e41 004c 97bd
00000010: ec1a f0c0 9f12 d140 8d2f 3940 8f02 7e3f
00000020: 4a34 48c1 0ca1 1c41 31e8 9140 4cde 9fbe
00000030: 9f38 9c40 a47e fb40 e52a 2441 9625 1b41
00000040: eb4a a0bf fed3 8340 61e7 be40 0ac8 0f40
00000050: a631 bc40 dce1 0941 04ca 1fc1 8ee3 bcc0
00000060: 38a6 66c0 fc02 d440 2033 c0c0 aedc 1f41
00000070: b6d0 6840 3cfb ba3f 6ed9 d340 90e1 6cbf
00000080: db10 ed40 85a1 d140 60c2 f040 619e 84bf
00000090: 91f8 7440 ecda 1ec1 0baf 1c41 d436 1b41
000000a0: e417 483e b8f4 99bc 52a5 1f41 9db2 1f41
000000b0: b96c afbf 9e8b cd40 5321 63c0 8737 6dbf
000000c0: df3c 1ac0 5ce9 1d41 8efc 1a41 c2a0 1e41
000000d0: 1ad9 3040 0a0c 1e41 ee34 68c0 de35 1341
000000e0: bd20 1441 b31a 1fc1 b0bc 12c1 8bf8 1941
000000f0: bc2e 1d41 4091 82bf 9833 873f c01d 12c1
12.875034 -0.059444427 9.909541 -0.07387543 -7.5032864 6.533523 2.8935273 0.99222654
-12.512766 9.789318 4.5595937 -0.31224287 4.8819118 7.859209 10.260472 9.696676
-1.2522863 4.119628 5.9657445 2.2465844 5.8810606 8.617641 -9.98682 -5.9027777
-3.6038952 6.6253643 -6.006241 9.991377 3.6377387 1.4607921 6.6202917 -0.9253168
7.4083076 6.5509667 7.5237274 -1.0360833 3.8276713 -9.928448 9.792735 9.700886
0.19540364 -0.018793449 9.977861 9.981107 -1.3705055 6.423293 -3.548909 -0.92662853
-2.4099653 9.8694725 9.686659 9.9142475 2.7632508 9.877939 -3.6282306 9.200651
9.257993 -9.944018 -9.171066 9.623179 9.82391 -1.0200577 1.056262 -9.132263
