final_mountain.pt (torch, 33194 bytes, 11 tensors)

actor.fc1.weight f4 [64, 2]
000000 29 81 ae 3e 8b 2e 8e be 99 27 91 3e 38 af 21 bf
       0.34082916 -0.27769884 0.28350523 -0.6315799
000010 9a 61 24 bd 1c e3 64 3c f5 d4 05 3f 45 72 31 bf
       -0.040132143 0.013970163 0.5227807 -0.69314986
000020 4d 2a 76 be 85 4a d7 be 6e 4e 1a be ae 9c e7 be
       -0.24039574 -0.4204904 -0.15068981 -0.45236725
000030 2c 56 c5 be a8 5d 33 be c5 8c 9f bd 4c 24 93 3e
       -0.38542306 -0.17516196 -0.077905215 0.2873863
000040 73 c2 4f 3d 71 45 eb 3e 20 38 0f be 03 82 eb 3e
       0.05072255 0.45951417 -0.13986254 0.4599763
000050 1a 35 29 3f f2 de ec be f3 94 14 bf f2 e5 0c bf
       0.6609665 -0.46263844 -0.5803978 -0.5503837
000060 0a f9 67 be 81 5e 21 3d c9 20 c7 3e e6 5b c6 bd
       -0.22653595 0.039396767 0.388922 -0.09685497
000070 0b 8a f2 be 3c 72 15 bf d0 b0 80 3d ba f0 26 bf
       -0.47370943 -0.5837743 0.06283724 -0.6521107
000080 b2 8d e8 be c6 f3 08 3f de b1 16 3f 31 f5 86 bd
       -0.45420605 0.5349697 0.58865154 -0.06589735
000090 b0 2b 02 bf d5 da cd be 8f 7d 6f 3d 05 1f cf bd
       -0.5084791 -0.40206018 0.05846935 -0.101133384
0000a0 7b b5 c6 bd 68 0c 89 be 21 49 8d be 8c b9 1c bf
       -0.097025834 -0.26767278 -0.27594855 -0.6122062
0000b0 0b 65 4e 3f c0 0f d3 bd ea 59 32 3d a5 6c 2e 3d
       0.8062293 -0.103057384 0.04354278 0.04258408
0000c0 47 d7 e8 3d ed 91 87 be ec 5e 97 3e 18 55 db bd
       0.11369186 -0.2647852 0.29564607 -0.1070959
0000d0 1d ab f7 3e ec b0 99 3e 34 ee c2 3e 0f 2c 32 3f
       0.48372737 0.30017793 0.3807236 0.6959848
0000e0 77 ab 8a 3e 40 fe 12 3f 4e 59 37 bf be 5a 3b be
       0.27083942 0.57419205 -0.71620643 -0.18296334
0000f0 37 c7 85 bd 67 50 bb 3d a1 01 cf 3e 18 c8 c9 3d
       -0.06532138 0.09146195 0.4043093 0.09852618
000100 e1 9c d0 be 2f 5d f0 3e 17 20 9f 3e d5 04 e9 3e
       -0.4074469 0.46946093 0.3107917 0.455115
000110 47 74 25 3f 21 ec d7 bd 4e 65 81 be 6a dc e0 3d
       0.6463055 -0.10543085 -0.25272602 0.10979541
000120 bf 00 32 be af 68 6e be 9b 0a 1c 3f 91 7f 78 bb
       -0.17383097 -0.23282121 0.6095368 -0.0037917832
000130 e2 d0 42 bf 99 30 1f bf 32 66 cb 3e 10 f9 16 3e
       -0.7609998 -0.6218353 0.39726406 0.14743447
000140 3b 98 11 3f 3e 0b 0a 3f a0 f0 32 bf 5b 4d 2e 3e
       0.5687291 0.53923404 -0.69898415 0.17021696
000150 cd 7b f5 3e 2d 1b c2 bd 90 87 be be 5a 91 01 3f
       0.47946015 -0.094778396 -0.372128 0.50612414
000160 39 9c cd 3e 46 f9 94 be e0 95 fd bd 3e 2d 04 bf
       0.4015825 -0.2909643 -0.12382102 -0.51631534
000170 c1 3c be 3e 08 8c ce bb 94 32 76 3e 82 67 c5 3a
       0.37155727 -0.006303314 0.24042732 0.0015060755
000180 3e 27 35 3d e4 8b e0 3e c7 c8 6f be 94 d3 1a 3f
       0.044226877 0.43856728 -0.23416434 0.6047909
000190 fc f0 fb be 97 20 e8 3d 81 4f 2f 3f 88 58 24 bf
       -0.49207294 0.11334341 0.6848069 -0.6419759
0001a0 da 0f ff be 32 a9 1c 3f 12 c5 d1 3e 8b 85 10 3f
       -0.4981678 0.6119567 0.40970665 0.5645377
0001b0 a2 48 87 bd e8 f6 fe bc 99 d9 27 be 6d 7d bd be
       -0.066056505 -0.031123593 -0.163916 -0.37009755
0001c0 07 38 a2 3e df 82 7a 3e 83 ae a9 be 25 48 d3 bd
       0.3168337 0.24463986 -0.33140954 -0.10316495
0001d0 c8 34 f0 bc 13 21 cf 3e 40 e7 60 3d f9 01 de bd
       -0.029322043 0.4045492 0.054908037 -0.1084022
0001e0 1f 52 b0 be 0e de 13 be af b9 90 be 63 2e 26 3f
       -0.34437653 -0.14440176 -0.28266665 0.6491453
0001f0 14 93 17 3f 1b ea 9e 3d be bf 27 3e af 5c 81 3d
       0.592088 0.07759496 0.16381738 0.06316506

actor.fc1.bias f4 [64]
000000 d3 4d 74 be 39 b6 dd 3c a4 d2 34 bf f3 58 29 bf
       -0.23857813 0.02706443 -0.7063391 -0.6615135
000010 48 f1 fe bc c2 f1 a1 3e 0a 4b 32 3d dd df 2f 3f
       -0.031120911 0.3162976 0.043528594 0.68700963
000020 5c 9c 3d be ca 90 d9 be b8 81 33 bd 4a 22 45 3d
       -0.18516678 -0.42493278 -0.04382488 0.048128404
000030 f1 a5 36 bd a9 e5 27 bf c9 db 2e 3f ac 68 14 be
       -0.044591848 -0.6558481 0.68304116 -0.14493054
000040 d9 0c b2 3d fb 83 36 be 8c e0 92 be ce c0 03 3f
       0.08693857 -0.17823784 -0.2868694 0.5146607
000050 65 f7 25 be 1f d3 31 bf 1b f6 c7 3e 3e f6 ed 3e
       -0.16207655 -0.6946277 0.3905495 0.4647693
000060 2a 6e 51 3e ee 0d 98 be 88 5a 87 bc aa f8 de bd
       0.2045218 -0.29698128 -0.01652266 -0.10887273
000070 da c7 3c be 3d 6e 17 3f a4 77 0d bf cf 1b ca be
       -0.18435612 0.59152585 -0.5526068 -0.3947434
000080 e6 f2 2e 3f 5b 79 98 bc 97 84 0e be 7b 2c 00 3f
       0.68339384 -0.018612554 -0.13917767 0.5006787
000090 f4 2d 95 bd ac 88 eb be 54 5b 8f 3e a0 c9 91 bd
       -0.072841555 -0.4600271 0.27999365 -0.07118535
0000a0 ee 4b 48 3e 1c cc 9d 3d 9f 41 0d 3f a2 57 23 bf
       0.19560215 0.077049464 0.55178255 -0.6380559
0000b0 76 4e a5 be a8 85 05 3f 59 42 91 bd 32 f4 20 3d
       -0.32286423 0.5215707 -0.07092733 0.039295383
0000c0 2f bd c4 bd 34 07 31 be db 91 c9 3e c7 72 38 3e
       -0.096063964 -0.17287904 0.3936909 0.18012534
0000d0 70 69 e2 3e ef fc ec be c6 ef 21 bf 07 b9 16 be
       0.44221067 -0.46286723 -0.6325649 -0.1471902
0000e0 ee 6a 4e be 70 01 1a 3f 72 1f 01 3f 0c 58 0b 3f
       -0.20157978 0.60158443 0.50438607 0.54431224
0000f0 a5 cc e6 3e 47 d4 33 3f b2 c0 2f 3e 22 09 14 bf
       0.45078006 0.70245785 0.17163351 -0.57826436

actor.fc2.weight f4 [64, 64]
000000 54 b8 d7 bd 60 b3 28 3d ac 13 a0 bd 80 d0 1b 3d
       -0.10533205 0.04118669 -0.07816252 0.038040638
000010 e0 0e 14 3c c4 ce b2 3d 5e 96 9f 3d 8a be d8 bd
       0.00903675 0.08730844 0.07792352 -0.105832174
000020 9a 95 b8 bd fe ff c5 3d 84 25 de 3d 00 2d e0 3b
       -0.09012909 0.09667967 0.10846999 0.006841302
000030 b4 e6 e3 3d 38 06 6f 3d ae b9 b4 bd 66 4f a6 bd
       0.111279875 0.05835554 -0.08824478 -0.08120613
000040 64 08 13 3d 24 e2 c5 3d 54 6b 30 bd d8 e7 d2 bc
       0.035896674 0.096622735 -0.043071106 -0.025745317
000050 44 d3 bd 3d 2a 67 cb 3d 40 52 bc 3b e0 e0 61 bd
       0.09268811 0.09931786 0.0057471097 -0.055146098
000060 c0 a0 e8 3b 78 ee 9c 3d f8 70 81 3d 28 6e a9 bc
       0.007099241 0.07662672 0.06320375 -0.02068241
000070 a0 15 45 bc 76 b6 f2 bd 48 f0 ea 3c 3c 6d 1a 3d
       -0.012029082 -0.11851208 0.028679028 0.03770183
000080 82 14 cb 3d 68 34 72 3d 08 4f f1 3d 8a 26 d8 3d
       0.09916021 0.05913201 0.11782652 0.10554226
000090 70 9c a4 3d 9c 8b a2 3d 80 d6 e7 3c c0 b0 b0 3c
       0.080376506 0.079367846 0.028300524 0.021568656
0000a0 4c 9b 9e 3d 8e 48 8d 3d 78 27 be bd 38 eb 61 bd
       0.07744464 0.06898604 -0.09284872 -0.055155963
0000b0 70 0f 87 3c e4 c3 97 bd b6 76 c7 bd 1c 46 a8 bd
       0.016486853 -0.0741041 -0.09739439 -0.08216497
0000c0 fe cb ee 3d 5c 73 a7 3d 5a 71 9c bd ac b0 69 3d
       0.11660002 0.081763 -0.076388076 0.057053253
0000d0 86 44 da 3d 10 41 4c bc 74 8c 14 bd 68 79 1d bd
       0.10657601 -0.012466684 -0.03626676 -0.03844586
0000e0 e8 bc ff 3c 0c d9 91 bd 34 75 de 3d 70 9e e1 3c
       0.031218007 -0.071214765 0.108621985 0.02754137
0000f0 40 87 66 3c 3c 0a b9 bd 36 f4 d8 3d 70 bd b1 3c
       0.014070332 -0.09035155 0.105934545 0.021696776
000100 30 a9 43 3c 2c 6b 8d bd 6e e9 b9 3d ae 14 92 3d
       0.011942193 -0.06905207 0.09077726 0.071328506
000110 ac 66 1b bd 9c a9 5e bd f4 c4 a0 3d d6 db f5 3d
       -0.037939712 -0.05436097 0.07850066 0.12004821
000120 ae f7 b9 3d e4 cf 38 3d c0 be 6b bd 24 36 46 bd
       0.09080444 0.045120135 -0.05755496 -0.048391476
000130 80 bc ab 3b 52 b7 b9 3d 34 f2 9b bd 94 07 f1 3d
       0.005240977 0.09068169 -0.07614556 0.117690235
000140 66 54 a1 bd 92 91 e6 bd f8 b3 a6 3c b8 fd a7 bd
       -0.07877426 -0.11258234 0.020349488 -0.0820269
000150 b4 24 c5 3d de ec 8d 3d 8c ac f3 3d e4 fc 29 bd
       0.09626141 0.069299445 0.11898145 -0.04150094
000160 d4 dc 67 3d f8 50 ec bc 8c 31 eb bd fe 29 f5 3d
       0.056607082 -0.028847203 -0.1148406 0.119709
000170 d4 2b 78 bd 10 58 b4 bd 20 77 e1 3c a8 88 b0 3d
       -0.060588673 -0.08805859 0.027522624 0.08619815
000180 c0 b5 1e 3b 1c 60 d3 3d 98 ad ee bc 76 47 f2 3d
       0.0024217218 0.10321066 -0.02913551 0.11830036
000190 f8 22 e5 3d a4 f9 bb 3d a0 14 1f bc 60 12 f6 3d
       0.111883104 0.091784745 -0.009709507 0.120152235
0001a0 88 62 3a 3d 60 d2 97 bd 44 fb cf bd 30 29 ef bd
       0.045504123 -0.07413173 -0.10155347 -0.11677778
0001b0 00 62 98 bd 30 18 e0 bd 06 29 aa 3d ae 37 bc 3d
       -0.07440567 -0.109421134 0.08308606 0.091903076
0001c0 d6 65 d2 3d 44 bf 4b bd 54 55 95 3d b8 1e f9 3c
       0.1027333 -0.049742952 0.07291666 0.030410156
0001d0 74 43 b4 bd 50 b5 ed bd 3e 2f de 3d d6 dd d8 3d
       -0.08801928 -0.11606848 0.108488545 0.10589187
0001e0 40 d0 3f bb ba 7a a4 bd 8c 21 b3 bd f4 d9 ac bd
       -0.0029268414 -0.08031221 -0.08746633 -0.08440009
0001f0 58 01 ab 3c 62 eb be bd 6a 23 d5 3d f8 a8 30 bd
       0.020874664 -0.093222395 0.10407145 -0.04312989
000200 68 06 f6 3c c0 7b 8f bd 12 36 b3 bd b0 8c a1 3c
       0.030032352 -0.07006025 -0.087505475 0.019720405
000210 58 8f 7b 3d fa f4 cb bd a0 8d 30 bc da 6e 87 bd
       0.061416 -0.09958835 -0.0107759535 -0.0661294
000220 60 d4 b7 3d 0a f9 af bd c0 4d 24 bd ac c7 af 3d
       0.08976054 -0.08592422 -0.04011321 0.08583006
000230 68 f1 65 3d e0 12 99 bd 9a a4 f7 bd 68 7a 36 3d
       0.056138426 -0.07474303 -0.12091942 0.04455033
000240 1c df 11 3d 28 90 af bc 00 aa 3c bd a0 a3 d4 3d
       0.035613164 -0.021431044 -0.046060562 0.103827715
000250 f8 41 d0 bc 40 f1 e6 3b be 80 94 3d 68 5c e4 3d
       -0.025422081 0.007047802 0.07251118 0.111504376
000260 fa 24 ad bd be af ce 3d b0 0a 4e 3d 70 a8 84 bc
       -0.08454318 0.10092114 0.05030316 -0.016193599
000270 08 1f a1 3d 14 f5 eb bd 24 d2 d6 3d 10 8a b5 3c
       0.07867247 -0.11521354 0.104893 0.02216056
000280 38 b7 87 3d 84 ff 73 bd 68 4e fb bc bc bd b8 bd
       0.06626743 -0.05956985 -0.030677035 -0.09020564
000290 a6 8a de 3d f0 47 cf 3c 70 e1 aa 3d 2c ea bb 3d
       0.10866289 0.025302857 0.0834378 0.09175524
0002a0 f0 9a de bd 94 03 59 3d bc f4 3f bd 42 9b a3 bd
       -0.10869396 0.052981928 -0.046864256 -0.079885975
0002b0 84 88 95 bd 98 b6 26 3d e0 a5 09 bc 00 ea 0b 3d
       -0.07301429 0.04070148 -0.008401364 0.034158707
0002c0 b2 a5 b9 3d 94 f6 3b 3d 20 51 cf 3b 7e 64 92 bd
       0.09064807 0.045889452 0.0063268095 -0.071480736
0002d0 30 ff 7f bc e0 bc 5a 3d 18 4f 3b bd 00 d3 19 ba
       -0.015624806 0.05340278 -0.045729727 -0.0005867928
0002e0 8c 0f 5a bd 44 18 5f bd cc d2 13 3d 80 9a 45 bd
       -0.053237483 -0.0544665 0.036089703 -0.048243046
0002f0 d8 ba 9b bd 00 99 df 3b f0 4c 4a bd 0e 00 a9 bd
       -0.07603997 0.006823659 -0.04938978 -0.082519636
000300 74 97 36 bd de 8e ca bd c4 9e fc 3d e4 ea 43 3d
       -0.04457803 -0.09890531 0.1233497 0.04783143
000310 14 69 a8 3d 00 b4 03 bc d0 39 42 3c f4 95 d4 bd
       0.08223167 -0.008038521 0.011854604 -0.10380164
000320 00 7e cd b9 16 48 ba 3d fe 2e fb bd a6 f5 c5 3d
       -0.00039194524 0.090957806 -0.122648224 0.09665994
000330 66 d2 a5 3d 00 a0 1f bc e8 14 b0 3c d0 12 cc 3d
       0.08096771 -0.009742737 0.021494344 0.09964526
000340 98 03 dc 3d 14 18 5d 3d b0 54 45 3c ac 6e e0 bd
       0.10742873 0.05397804 0.012044117 -0.10958609
000350 a8 e4 99 bc e0 7e a0 3c 32 e5 c8 3d 24 84 d9 3d
       -0.01878579 0.019591749 0.098093405 0.10620907
000360 e0 aa a0 3c a8 b7 a7 3d 78 4a 53 bd 9e 5e ab 3d
       0.01961273 0.081893265 -0.05158469 0.08367656
000370 d0 22 21 3c 24 ba 6c 3d 00 ed 8b bd 4a 92 f4 3d
       0.00983496 0.057794705 -0.068323135 0.11941965
000380 bc 81 44 3d dc 1c ad bd 9c 30 95 3d 12 7b 8d 3d
       0.047975287 -0.0845277 0.07284662 0.069082394
000390 20 73 9f bc f0 63 b2 3d 44 08 12 bd 1c d6 fb 3d
       -0.019464076 0.08710468 -0.035652414 0.122966975
0003a0 00 9f 3f 3d 30 35 27 3d b8 83 10 bd f8 e6 f9 bc
       0.046782494 0.040822208 -0.035281867 -0.030505642
0003b0 44 a8 15 bd b0 7f e2 bd 08 98 b2 bc a4 bc b4 3d
       -0.036537424 -0.11059511 -0.02180101 0.08825043
0003c0 82 c9 85 bd a4 e7 26 3d ae 3e 81 bd d8 c0 fa 3d
       -0.06532575 0.040748253 -0.06310783 0.12243813
0003d0 86 37 a5 3d ec ae a4 bd ba 47 c8 3d 5c e3 d5 bd
       0.08067231 -0.08041176 0.09779306 -0.10443756
0003e0 40 07 56 bd 30 ef 62 bc d0 92 04 bc 3e 04 d9 bd
       -0.052253008 -0.013850972 -0.008091643 -0.10596512
0003f0 42 5e 84 bd 5c ad fa 3d 80 d4 e8 3d 5a 4a e4 bd
       -0.06463291 0.12240097 0.11368656 -0.11146994

actor.fc2.bias f4 [64]
000000 28 15 82 bc 80 39 d3 3d 5c c4 06 3d 0c 0a be bd
       -0.015879229 0.10313702 0.032902107 -0.0927926
000010 c8 e8 94 3c c8 c1 5e bc d8 f6 65 3c 66 84 a9 bd
       0.018177405 -0.013596006 0.014035903 -0.08277206
000020 de 08 87 bd 0c 6b c9 bd ec 26 62 3d 08 2c 9a bd
       -0.06593488 -0.09834871 0.0552129 -0.075279295
000030 70 c4 4e bc 05 5b 40 3e 07 29 2c 3e f4 d4 cc bc
       -0.012620077 0.18784721 0.16812526 -0.025003888
000040 48 89 80 3c 78 3f bd bd 6c 57 d7 bd 78 6b 01 be
       0.01569046 -0.09240621 -0.10514721 -0.12638652
000050 dc 8b 55 be e0 28 13 bd e8 14 10 3e 1c 2e 3d be
       -0.20854133 -0.035927653 0.14070475 -0.1847462
000060 34 b9 3a 3d 04 65 7d bd 2a b4 49 3e 80 40 70 bc
       0.04558678 -0.061863914 0.19697633 -0.0146638155
000070 04 2f 9d bd 60 dc ff bc c4 b4 4e 3e 14 85 20 bd
       -0.07674983 -0.031233013 0.20186144 -0.039189413
000080 d0 67 ee bb 20 e2 a8 bc 06 2a b2 bd ca 67 3d bd
       -0.007275559 -0.020615637 -0.086994216 -0.04624156
000090 8c 47 c4 3c 50 3a 23 bd 2e b0 09 be 18 e5 63 3e
       0.023959897 -0.039850533 -0.13446113 0.22255361
0000a0 c4 d5 e1 3d 00 48 71 3d 7c a2 63 bd 0a 39 83 bd
       0.11027101 0.058906555 -0.05557488 -0.06407364
0000b0 cb a8 db 3d 62 9b 30 3e 7f 97 c5 bd f0 73 12 bc
       0.10725554 0.17246774 -0.09648036 -0.0089387745
0000c0 2c 92 81 bc 7c 2e c9 bd ca 09 88 bd a5 1e c4 3d
       -0.01581677 -0.09823319 -0.06642492 0.095761575
0000d0 62 98 cc bd fe 37 8b bd b6 42 73 3d 4e aa bd bd
       -0.09990002 -0.06797789 0.059389792 -0.09260999
0000e0 00 64 c3 3b 12 a8 d8 3d 87 c3 d8 3d 6c a4 f3 bd
       0.0059628487 0.10578932 0.10584169 -0.11896595
0000f0 24 00 4b be 4c fe 95 3c 00 a4 43 b9 48 ba 39 3d
       -0.19824272 0.018309735 -0.00018657744 0.045343667

actor.mean_fc3.weight f4 [1, 64]
000000 32 8a 8b 3d 70 14 20 bd a0 1c a4 bb 80 fc c8 ba
       0.06813468 -0.03908199 -0.005008295 -0.001533404
000010 84 ce 64 3d 70 c0 8d bd a0 c8 b7 bb 68 b0 7d 3d
       0.05586101 -0.0692147 -0.005608633 0.061935812
000020 46 9f a9 bd 9e 8b 9c 3d d8 88 51 3d 36 83 81 bd
       -0.08282332 0.07643817 0.051155895 -0.063238546
000030 1e 9c f7 3d be 48 b1 bd d4 e0 65 3d d4 aa bf bd
       0.12090324 -0.086564526 0.056122616 -0.09358755
000040 d0 1f 1d bc d2 00 bb bd 20 4e 08 bc 20 05 4c 3c
       -0.009590104 -0.09131016 -0.008319408 0.012452394
000050 70 9b 19 3c 6c 7e 47 bd 12 20 f4 3d f8 63 a8 3c
       0.009375438 -0.04870455 0.119201794 0.020555481
000060 d4 b0 08 bd 40 7e b9 bd 8e 46 bf bd 4a 7d ca bd
       -0.03337176 -0.090572834 -0.09339629 -0.09887178
000070 b0 02 11 bd 66 24 e4 3d 98 76 b9 3d f8 53 b8 bd
       -0.035402954 0.11139755 0.09055823 -0.09000391
000080 dc 6b 7a bd ea 38 a8 3d 5a a1 db 3d dc 5d d2 3d
       -0.06113802 0.082139805 0.10724135 0.102718085
000090 6a 71 a1 bd 40 87 e3 bb 88 27 01 3d 14 c3 fc 3d
       -0.0788296 -0.0069436133 0.03153184 0.12341896
0000a0 70 d2 90 3c 1e 86 da 3d 78 e8 c1 3c da 4f ad 3d
       0.01767847 0.10670112 0.02367042 0.08462496
0000b0 90 01 9a 3c 80 db ff 3a fe b7 c2 3d d8 d5 d9 bc
       0.018799573 0.0019520372 0.0950775 -0.026591226
0000c0 68 cd 8c bc 66 7e e0 3d 50 71 a1 3d 72 96 bc 3d
       -0.01718779 0.109616086 0.07882941 0.09208383
0000d0 fe b1 ca 3d 1c 29 d7 3d 1a 6a 9c bd 40 10 cf 3b
       0.098972306 0.10505888 -0.07637425 0.006319076
0000e0 98 43 d2 3d 30 20 e4 bd f4 6e 09 3d 22 4b ff bd
       0.10266799 -0.11138952 0.03355308 -0.12465502
0000f0 b2 dd 98 bd 40 c7 ec bb e0 d4 da bd 60 16 d1 3d
       -0.0746416 -0.007225901 -0.10685134 0.10209346

actor.log_std_fc3.weight f4 [1, 64]
000000 78 8c ff 3d 9a e6 97 bd 84 d3 a0 3d 16 13 e6 bd
       0.12477964 -0.07417031 0.078528434 -0.11234109
000010 4c 67 ea 3c 02 ba 03 3d 32 bb 02 3e e6 62 6a 3d
       0.028613709 0.032159813 0.12766722 0.057223223
000020 01 ed b8 3d b4 1c c5 bd d8 3b c4 bd f2 4c af bd
       0.0902958 -0.09624615 -0.09581727 -0.08559598
000030 86 ce 2d 3e 4d c4 e2 3d 0d fc 58 3e bd 5a cb 3d
       0.16973314 0.11072598 0.211899 0.09929416
000040 36 32 37 3d 04 2a 30 3d c6 19 c3 3d c6 b1 52 3d
       0.04472562 0.04300882 0.095264 0.05143907
000050 08 38 47 3c 30 f2 1d 3c a8 4c 0f 3e e8 ab 1d bc
       0.012159355 0.0096402615 0.13994086 -0.009623505
000060 e0 4b 31 bc 10 79 bc bc 0a c4 3e 3e 18 a7 d1 3c
       -0.010821313 -0.023006946 0.1862947 0.025592372
000070 ea 02 82 3d 94 33 e1 3d a0 2f 32 3e aa f9 9d 3d
       0.06348212 0.10996166 0.1740098 0.07713635
000080 f4 2b 14 3e 22 f3 d9 bd 1e ba e6 3d 35 64 9a 3d
       0.14469892 -0.10642077 0.11265968 0.07538644
000090 70 e3 b9 3b 00 f5 89 ba 72 80 5e 3d a6 51 1a 3e
       0.0056728646 -0.0010525286 0.054321714 0.15070209
0000a0 de 8b c9 bd 38 63 19 bd 40 c8 72 bc 92 20 d9 3d
       -0.09841131 -0.037448138 -0.014818251 0.106019154
0000b0 cc 04 58 3e 21 20 1f 3e 78 fa 14 3d c6 a9 a6 bd
       0.2109558 0.155396 0.036371678 -0.081378505
0000c0 ba 75 13 3d 2c d1 90 bd b4 fb 40 3d e6 18 28 3e
       0.036000945 -0.07071146 0.047115043 0.16415748
0000d0 34 4e 6e 3d a4 c1 6c bd de 85 49 3e 52 51 d6 bd
       0.05818005 -0.057801858 0.19679973 -0.10464729
0000e0 94 39 04 3d ea 02 18 3e 3a fe 23 3e 64 49 b7 3c
       0.032281473 0.14844862 0.16014948 0.022373863
0000f0 71 00 8b 3d 40 c1 48 3b cc 7e 5e bd c6 92 ff 3d
       0.067871936 0.0030632764 -0.05432014 0.12479167

critic.fc1.weight f4 [48, 2]
000000 44 b0 15 41 46 19 0a 41 4e 5c 1d 41 ad 20 19 41
       9.355534 8.63117 9.835035 9.5704775
000010 35 4d 14 41 4e 93 02 41 82 8e b6 3e bd 92 5a 40
       9.268849 8.160963 0.356556 3.4152062
000020 e6 db 80 c1 17 aa 56 3f 58 2a 3d bf 7e 6f 8c 41
       -16.107372 0.83853287 -0.73892736 17.55444
000030 a7 24 d2 3e 71 bf 80 40 03 d4 86 bf 05 73 8e bf
       0.4104359 4.0233693 -1.0533451 -1.1128851
000040 2f 58 b6 3e 34 a0 6a 40 38 b9 b2 bf fe 49 2c bf
       0.35614154 3.666028 -1.3962774 -0.67300403
000050 74 fc 6d 3e 95 e8 c4 be 11 f6 19 41 7a 1c 0c 41
       0.23240834 -0.38458696 9.622575 8.756952
000060 8f 92 17 41 8d 19 18 41 70 ba a3 be 90 e9 64 3d
       9.473281 9.506238 -0.31978178 0.055886805
000070 56 53 62 3e 72 ea 14 bf bc 46 89 3f 8a 12 80 3f
       0.22102103 -0.58170235 1.0724711 1.0005658
000080 3f 67 96 3f f4 a0 cc 3e e7 f0 ca 3e df 08 ee bc
       1.1750258 0.39966547 0.3963692 -0.029056964
000090 0e eb 1e be b8 f8 47 3e ae c9 16 41 ef 64 16 41
       -0.15519354 0.19528472 9.424238 9.399642
0000a0 4b e6 1c 41 66 3f e0 c0 15 8f 6b be 7d c8 b9 bd
       9.806224 -7.007739 -0.230038 -0.09071443
0000b0 06 11 a0 3e 20 29 28 3e 22 32 74 c1 12 46 62 3f
       0.31262988 0.16421938 -15.262239 0.8838817
0000c0 2d 25 89 bf 26 c8 97 bd 7b 3e 17 41 8c 85 18 41
       -1.071447 -0.07411222 9.452754 9.532604
0000d0 ab d5 16 41 bd c9 1f 41 39 95 25 41 eb a2 17 41
       9.427165 9.9867525 10.348931 9.477275
0000e0 b9 f5 8e 3f c8 46 8f 3e 19 47 18 41 0c 00 1d 41
       1.1168739 0.2798369 9.517358 9.812511
0000f0 d3 7f 1e 41 2a 57 a7 40 f0 3e 64 c1 62 c9 98 40
       9.906207 5.22939 -14.265366 4.774583
000100 c7 5f 89 bc c7 15 2b 3f 01 c3 66 c1 44 45 5b c1
       -0.016769303 0.66830105 -14.422608 -13.704411
000110 75 be 30 3e 6a 5c 1e bf b9 73 e7 40 a4 12 95 c1
       0.17260154 -0.6185976 7.2328763 -18.634102
000120 40 f3 81 be c0 91 82 be 0a 0f 98 3f d0 cd 79 3e
       -0.25380898 -0.25501823 1.187959 0.24394917
000130 2c 20 2b 41 28 09 24 41 4d cc fe bc 9e 18 26 bf
       10.695354 10.252235 -0.031103278 -0.6488131
000140 2f d5 00 be df e7 0c 3f ce de 46 be 33 8d 03 3d
       -0.12581323 0.5504131 -0.1942093 0.03211708
000150 78 f3 15 c1 ca 12 1c c1 e2 b5 67 3e 09 29 16 3f
       -9.371941 -9.754587 0.22627977 0.58656365
000160 4e 42 65 bd 78 ad 66 be 00 78 48 bc 70 35 3c bf
       -0.055971436 -0.2252711 -0.0122356415 -0.7351904
000170 00 1a 93 3c c0 c0 43 be 00 0d 01 3f e0 78 29 3f
       0.017956734 -0.19116497 0.5041046 0.66200066

critic.fc1.bias f4 [48]
000000 44 84 16 c1 14 10 21 c1 0d ae 1f c1 ad fc 9c 41
       -9.407291 -10.066425 -9.979993 19.623377
000010 35 b9 b4 41 0e 8b ab 41 a0 d8 9c 41 95 9e aa 41
       22.590433 21.442898 19.605774 21.327433
000020 7c e9 9e 41 1e 96 a5 41 e9 0c 23 be e4 c1 1b c1
       19.864006 20.6983 -0.15922894 -9.734837
000030 f2 93 1e c1 02 07 e9 be 64 eb fe be c4 52 75 bf
       -9.911119 -0.4551316 -0.49788964 -0.95829415
000040 06 cb 6b bf f1 f8 de be e7 48 86 be 3b f0 18 c1
       -0.92106664 -0.43549302 -0.26227495 -9.55865
000050 02 cc 1d c1 9c 07 32 bf 2e 99 14 bf f8 10 b8 41
       -9.862307 -0.6954286 -0.58046234 23.008286
000060 f1 4c ab 41 dd 76 1b c1 e1 a2 17 c1 b3 e8 16 c1
       21.412569 -9.716519 -9.477265 -9.431811
000070 b8 57 6d bf be c4 17 c1 28 ea 1f c1 4b d6 6c 41
       -0.92711973 -9.485533 -9.994667 14.802318
000080 2d 4e 0e bf f1 e2 68 41 92 57 b1 bd 5b 17 22 c1
       -0.55588037 14.555406 -0.08659281 -10.130702
000090 74 aa 9b c1 90 fc 67 bf 32 b5 19 c1 45 83 02 bf
       -19.45823 -0.90619755 -9.606737 -0.5098155
0000a0 cb 09 c9 be ab e3 12 bf 17 16 15 c1 05 50 16 be
       -0.39265284 -0.57378644 -9.317893 -0.14678963
0000b0 c7 d0 04 bf d4 94 9b c1 1e 43 9f c1 4c 29 9b c1
       -0.5188107 -19.44767 -19.907772 -19.395164

critic.fc2.weight f4 [48, 48]
000000 76 5b 9d bd d0 0c da bd 28 6f fd 3d 47 0a ff bd
       -0.076834604 -0.10646975 0.12374717 -0.12453132
000010 71 cc 85 3d 0c d2 8a bd d6 39 70 3d 94 14 40 3d
       0.06533135 -0.067783445 0.058648907 0.046894625
000020 a3 e5 87 bd 89 82 61 3d b3 45 67 bd a0 49 2b 3d
       -0.066355966 0.05505613 -0.056462955 0.04181826
000030 a0 c9 86 3b 9d 5b 05 3e 16 9d 8f 3b 3a 01 e5 3c
       0.004113391 0.13023229 0.00438274 0.027954686
000040 a5 8f 90 bd 56 4c b0 bc 11 6d cd bc 89 0d b6 bd
       -0.07058648 -0.021520775 -0.025076421 -0.088893004
000050 14 5e fa bd 3d 77 f8 bd 58 a4 ee bd a8 8a 08 be
       -0.12224975 -0.12132118 -0.1165244 -0.13334143
000060 0a 6a 6a 3d a8 f3 08 be 95 a6 fd 3c 4b 4a 9e bd
       0.057230033 -0.13374197 0.030963222 -0.07729014
000070 b5 90 00 3e d2 1d 15 bd fc b2 dd bd b6 5b 9c bd
       0.12555201 -0.036405392 -0.10825154 -0.0763468
000080 ad 01 5f bd 6b 00 09 be 8e 4c 35 bd 11 81 ce bd
       -0.054444958 -0.13379066 -0.04426246 -0.10083211
000090 b9 3c a8 bd b2 d9 8b 3d 45 3b b2 3c b9 5a 96 3d
       -0.08214707 0.068286315 0.021756778 0.07341523
0000a0 e1 23 9d bd db 56 b2 bd 44 5f f3 3d ad 2c 9a bb
       -0.07672859 -0.087079726 0.11883405 -0.004705033
0000b0 68 e4 0d bd 23 21 cd bd b8 a4 5c bd 90 e4 b7 ba
       -0.034641653 -0.10016086 -0.053868026 -0.0014029909
0000c0 4a e6 b0 3e 7d 28 22 41 d2 92 4e 3e 94 c8 af c1
       0.34550697 10.134885 0.20173195 -21.972939
0000d0 30 8d a0 bf 4b 76 6e 41 80 c0 ad c1 b5 d4 6a 41
       -1.2543087 14.90388 -21.718994 14.67693
0000e0 f1 2c af c1 e7 5c 63 41 1c 71 db bd d2 4c 22 3e
       -21.896944 14.210181 -0.10714933 0.15849617
0000f0 b0 93 ce bc 83 c9 b0 bd 51 e5 96 bd f1 63 07 c1
       -0.025216907 -0.08632185 -0.073679574 -8.4619
000100 5d 5a 0a c1 ba 65 94 bd 76 b0 80 bd 3d c8 8d 3e
       -8.647061 -0.07245965 -0.06283657 0.27691832
000110 f6 f8 15 c1 d6 21 20 3d 48 e6 10 3e 6c 40 90 bf
       -9.3732815 0.03909477 0.14150345 -1.126966
000120 7b 01 a1 41 40 06 da 3b 4c a7 97 3d 55 f1 1f c1
       20.125723 0.006653577 0.07404956 -9.996419
000130 89 81 06 c1 5a 92 1e 41 55 c5 ee bc a8 bb f3 bf
       -8.406625 9.91073 -0.02914683 -1.9041643
000140 9b b6 a7 bd c0 8f 08 c0 d1 2c e5 3d b2 b0 72 c1
       -0.08189126 -2.1337738 0.11190189 -15.1681385
000150 40 61 24 3e 4b a4 07 c1 da 57 21 c1 14 c9 8a 3d
       0.16052723 -8.477611 -10.083948 0.06776634
000160 7b 25 f9 3d 68 24 fb 3d d0 af 1d c1 e3 50 86 bd
       0.12165352 0.12262803 -9.855423 -0.06558397
000170 6e 9f 11 3e 80 ab de 3d 80 ca c3 3d 00 1b 2e bd
       0.14220974 0.10872555 0.09560108 -0.042506218
000180 c0 06 00 3e 19 29 1f c1 00 94 a6 3d 80 1d 00 be
       0.12502575 -9.947534 0.081336975 -0.12511253
000190 5a 16 a0 c1 fb 60 95 be 00 ed 34 3d b6 66 39 be
       -20.010914 -0.29175553 0.044171333 -0.18105587
0001a0 40 01 12 be ef 08 be be 9d 25 d2 3d 00 00 dd bb
       -0.1425829 -0.3711619 0.102610804 -0.0067443848
0001b0 80 f3 aa 3d 82 40 86 ba 80 33 a4 bc c8 fe b1 3d
       0.08347225 -0.0010242613 -0.020044088 0.08691174
0001c0 17 32 ec bb f6 8b 11 be 87 2a b3 3d 80 e5 cc 3d
       -0.0072081196 -0.14213547 0.08748346 0.10004711
0001d0 d9 3a 0d 41 43 bc 07 3e 35 b5 81 3d fe 1e a0 c1
       8.826867 0.1325541 0.063333906 -20.015133
0001e0 c1 95 7c be 00 c8 45 3c 00 9e b2 3d db 02 1f 41
       -0.24666502 0.0120716095 0.08721542 9.938197
0001f0 ff 2f 9f bd ae 72 1e c1 00 60 28 3d a6 e7 9f bf
       -0.077728264 -9.902998 0.041107178 -1.2492568
000200 fa 23 fb 3d 0b c6 a2 bf 4c 17 9d bc 70 19 5b 3f
       0.12262721 -1.2716688 -0.019176148 0.8558569
000210 e7 77 1b 41 80 11 06 bc f6 c2 1d 41 6a a1 24 3b
       9.716773 -0.008182883 9.860098 0.0025120624
000220 38 ac 37 3d 76 79 b5 bd 80 97 82 3d d5 0e 03 bd
       0.044841975 -0.088610575 0.063765526 -0.031996567
000230 3b 37 c2 bd e9 f7 1e 41 60 7f 1e 41 b0 75 21 41
       -0.094831906 9.935525 9.906097 10.091232
000240 d1 7d 20 41 04 d6 7b 3d d7 f2 20 41 33 63 93 c1
       10.030717 0.061483398 10.059287 -18.423437
000250 40 7e 6d 3e fc 97 23 be 44 72 9f c1 ca 99 9c bc
       0.23192692 -0.15975946 -19.930794 -0.019116301
000260 de c3 9a c1 81 6d be bd 42 07 c4 bd 91 d7 1f 41
       -19.345638 -0.0929823 -0.09571697 9.9901285
000270 f2 18 20 41 9f ea 65 bc d8 8d 47 bd e5 ff ea 3d
       10.00609 -0.014032989 -0.048719257 0.11474589
000280 99 9a 73 3d eb b3 7e 3b 11 6b a8 bd d0 eb 1d 41
       0.059473608 0.0038864564 -0.08223546 9.870071
000290 6d 71 9c 3d 6b ba ac bd 84 ea 08 3e 80 dd 73 3e
       0.07638822 -0.08433994 0.1337071 0.23814964
0002a0 7e ad a8 3d 79 63 20 41 c8 3b 1f 41 46 41 94 bc
       0.08236216 10.024285 9.952095 -0.018097531
0002b0 1f 78 d8 bc d4 65 bc 3d fc 8d 1f 41 f3 10 b8 bc
       -0.026424466 0.0919911 9.972164 -0.02246902
0002c0 d2 ea e8 3c 6c 7b 09 be 5b 27 b7 3d ce e5 1f 41
       0.028432284 -0.13425988 0.08943053 9.993605
0002d0 4f 8c 44 bd 41 ae 08 be ac e2 ca 3d 52 c0 e2 3d
       -0.04798537 -0.13347723 0.099065155 0.110718384
0002e0 07 db c6 bd fc 2a 6f 3d 07 82 28 c1 0e 35 dc ba
       -0.09709745 0.058390602 -10.531745 -0.001680048
0002f0 83 ab 36 3d 3a 4b 8a c0 c0 55 20 41 1d 32 22 41
       0.04459716 -4.321683 10.020935 10.137235
000300 aa d2 bf be 72 1b 14 41 4a 26 99 be 47 37 9e c1
       -0.3746541 9.2567005 -0.29912025 -19.77699
000310 55 8d 1f c1 79 35 0b 41 ee 56 a0 c1 af 8e 0c 41
       -9.972005 8.700555 -20.042446 8.784835
000320 12 2d a0 c1 d8 f4 03 41 45 4a f1 3d 6a 64 07 bf
       -20.022007 8.247276 0.11781744 -0.52887595
000330 14 b9 92 be f8 dd aa 3d 65 9e 07 3e d6 76 12 c1
       -0.28656828 0.083431184 0.13244016 -9.154013
000340 c8 2f 18 c1 4d 42 2c 3d da ee 9a bd e0 2a cb be
       -9.511665 0.042055417 -0.075650886 -0.3968115
000350 89 c2 75 be 0c 4d 1f 3d 73 dc ef 3d e0 ae 1e c1
       -0.2399999 0.038891837 0.11711969 -9.917694
000360 c3 86 9a 40 9f 31 88 be ee d7 f2 be 62 4c 1e c1
       4.8289504 -0.26600358 -0.47430366 -9.893648
000370 85 71 16 c1 97 6f 16 41 10 68 01 c0 67 29 2d c1
       -9.402715 9.402244 -2.0219765 -10.822608
000380 50 77 ca bd 05 26 2b c1 c0 07 0c 3c 4a 97 1b c1
       -0.09886038 -10.696782 0.00854677 -9.724436
000390 12 43 06 41 7a 1a 18 c1 e9 49 1b c1 54 b8 3d 3d
       8.391375 -9.506464 -9.705544 0.046318367
0003a0 1c 5a d2 bc 74 8d 1b bd 84 7d ed c1 fd d1 e9 bd
       -0.025677733 -0.037976697 -29.686287 -0.11417005
0003b0 76 52 bf 3c 00 7b 19 3d c4 59 91 c1 96 23 9f c1
       0.02335475 0.037470818 -18.16883 -19.892376
0003c0 00 61 f1 3d 76 7d 1f c1 c0 44 05 3e 00 3c 29 bd
       0.117860794 -9.96813 0.13014507 -0.041316986
0003d0 e0 23 a1 c1 c3 fe 19 3d 80 93 96 3d c8 5a 3c be
       -20.142517 0.037596475 0.07352352 -0.18394005
0003e0 c0 58 02 be 68 10 70 bd 97 f7 2f 3d 00 28 e9 bb
       -0.12729168 -0.058609396 0.04296073 -0.007115364
0003f0 00 12 79 bd 49 c8 05 be 54 72 c3 bd d6 2d 13 3d
       -0.06080818 -0.13064684 -0.09543291 0.035932384

critic.fc2.bias f4 [48]
000000 0a 2c bd 3d b5 b2 55 c0 48 ff 15 bf 46 31 9e 41
       0.092369154 -3.3390324 -0.58592653 19.77406
000010 38 53 2f c1 de 07 6e bd 00 b0 53 3d 2b d3 1f c1
       -10.957817 -0.05811297 0.05168152 -9.989055
000020 cd ba 96 c0 bf 30 cb 40 e6 7b 10 c1 8e fd 1b be
       -4.710303 6.3497005 -9.030249 -0.15233442
000030 df d1 1e c1 ae 92 a0 c1 67 31 04 3e ac 18 0f c1
       -9.926238 -20.07162 0.1290947 -8.943523
000040 80 da bd 3d 46 ed ff be fe c2 1f c1 70 46 1a 3d
       0.09270191 -0.49985713 -9.9851055 0.03766483
000050 64 3f bf 40 e6 96 20 41 7a 60 3b be 2f da 65 bd
       5.976488 10.03684 -0.18298522 -0.05611628
000060 48 49 d0 be d5 9e 1f c1 00 be 23 3d ce 29 c9 bc
       -0.4068091 -9.976277 0.03997612 -0.024556067
000070 ca a5 c4 40 e8 b3 4d be dc c6 bd be 15 08 07 c1
       6.145238 -0.2008816 -0.3706578 -8.439473
000080 7d b0 21 c1 31 22 9e 40 df 84 12 c1 36 70 a7 be
       -10.105588 4.9416738 -9.157439 -0.32702798
000090 d7 0c ff bd 04 6d 9e 3c 80 49 0a be de 4a 12 c0
       -0.12453621 0.019339092 -0.135046 -2.2858195
0000a0 9c 14 9d 40 e5 37 83 be b0 28 21 c1 40 49 13 3e
       4.908766 -0.25628582 -10.072433 0.14383411
0000b0 fe 32 31 bd af 6d cf 40 38 3e 41 c0 00 59 a8 3d
       -0.04326152 6.482139 -3.0194225 0.082201004

critic.fc3.weight f4 [1, 48]
000000 9f 15 92 3d 56 05 17 bf 7f f8 08 40 16 55 bf bc
       0.0713303 -0.58992517 2.140167 -0.023356002
000010 c5 c7 f9 be c9 ff 87 40 07 a2 9f c1 57 a7 1e c1
       -0.48785225 4.249974 -19.954115 -9.915854
000020 0d 04 6a bf 41 a9 a6 c0 0f 04 dd bf 01 ca 10 40
       -0.9141243 -5.208161 -1.7266864 2.2623293
000030 43 40 1f c1 00 c2 91 bd b6 e1 03 3d 73 33 de bf
       -9.953189 -0.07117081 0.032197677 -1.7359451
000040 80 d3 f3 bd a8 a0 03 40 15 9d 1f 41 dd c3 77 3d
       -0.11905575 2.0566807 9.97585 0.060489524
000050 80 5a bd c0 bc 0f 1e c1 07 1e 85 40 f6 af b5 bd
       -5.9172974 -9.878841 4.1599154 -0.088714525
000060 56 c1 03 40 3b b5 1e 41 30 da 9f c1 67 27 ed bd
       2.0586753 9.919246 -19.981537 -0.11579781
000070 0a 24 ba c0 37 dc 0b 40 28 15 87 40 aa 04 d5 bf
       -5.8168993 2.1853158 4.2213326 -1.6642048
000080 a2 d0 1d c1 30 6d c8 c0 0d b3 e1 bf 21 be 88 40
       -9.863436 -6.2633286 -1.7632767 4.273209
000090 83 2c cc 3d 39 6f 03 be 00 08 9c bc 8c b3 b9 be
       0.099694274 -0.12835397 -0.019046783 -0.36269796
0000a0 4e 67 c9 c0 3b 89 85 40 ab d5 1d 41 c0 f9 9e c1
       -6.2938604 4.173002 9.864665 -19.871948
0000b0 a9 05 87 40 cb 53 a1 c0 45 4e 06 bf eb a9 9f c1
       4.219441 -5.0414786 -0.5246318 -19.957968
