humanoid.pt (torch, 951934 bytes, 13 tensors)

actor.fc1.weight f4 [64, 378]
0	0xbd2ff8d5	-0.042961914
1	0xbd2becd2	-0.041973896
2	0x3c193e72	0.009353267
3	0x3ba135ec	0.004919758
4	0xbd4c5663	-0.049887072
5	0x3cad1f7c	0.021133177
6	0x3cba84bc	0.02276837
7	0xbd0baf9c	-0.03410302
8	0x3ccb277b	0.0247991
9	0x3d391167	0.04518261
10	0xbd154f25	-0.03645243
11	0x3b9c68be	0.0047732284
12	0xbcb6243f	-0.02223408
13	0x3be8a765	0.007100033
14	0x3d27d7d8	0.04097733
15	0xbd3a0884	-0.045418277
16	0xbc5c15bc	-0.013432916
17	0x3d186972	0.037209935
18	0xbd207315	-0.03917225
19	0x3d17174e	0.03688746
20	0xbd42c292	-0.047548838
21	0xbc0a2af5	-0.008433093
22	0xbc8e1a43	-0.017346507
23	0x3d468a87	0.048471954
24	0xbd3ee2cf	-0.04660302
25	0xbd00d27d	-0.031450737
26	0xbd15c125	-0.03656115
27	0x3d32670d	0.043555308
28	0xbd12ae84	-0.035810962
29	0xbb856491	-0.0040708263
30	0x3bfa7a8f	0.0076440047
31	0xbb8a4edc	-0.0042208266
32	0xbd4d75da	-0.05016122
33	0x3cadf347	0.021234168
34	0xbcbb499a	-0.022862244
35	0xbd33a751	-0.043860737
36	0xbc9c166f	-0.019053666
37	0xbc29459a	-0.010331536
38	0x3c265f6e	0.010154588
39	0x3ca2f6f2	0.019893143
40	0x3cec1f63	0.02882356
41	0xbc2e7ba8	-0.010649599
42	0xbcf78001	-0.030212404
43	0x3c83d4c1	0.01609266
44	0x3c57d8a6	0.013174212
45	0x3cd8a8ee	0.02644774
46	0xbca5adf7	-0.020224554
47	0x3c2ff1de	0.010738818
48	0x3d25b2f1	0.040453855
49	0x3d2f901b	0.04286204
50	0x3c99583a	0.018718828
51	0x3be773ec	0.0070633795
52	0xb9af7f60	-0.00033473503
53	0x3cd14188	0.025543943
54	0xbd260f6f	-0.040542062
55	0x3d42f8fb	0.047600728
56	0x3d48c43c	0.04901527
57	0xbd3cdf59	-0.04611144
58	0xbcc4c4ef	-0.024019687
59	0x3cd937de	0.026515897
60	0x3ca60e3a	0.020270456
61	0xbad91b0a	-0.0016563844
62	0xbd342e44	-0.043989435
63	0x3b652d87	0.0034969763
64	0xbd0cd171	-0.034379426
65	0xbd2f18bd	-0.0427482
66	0xbd23829a	-0.039919473
67	0x3d0d6538	0.034520358
68	0xbc320d6a	-0.010867456
69	0xbd402570	-0.046910703
70	0xbd256ef1	-0.040389005
71	0x3acfca20	0.0015853085
72	0x3a076297	0.00051645323
73	0xbbbfd4e5	-0.0058542364
74	0xbc55dea2	-0.013053568
75	0xbce54c56	-0.027990501
76	0xbbe639cf	-0.0070259343
77	0xbd50d09a	-0.050980188
78	0xbc083da6	-0.008315479
79	0xbc976e7b	-0.018485298
80	0xbd51b273	-0.051195573
81	0x3d1fd077	0.039017167
82	0xbb982f48	-0.0046443082
83	0x3cc181b4	0.023621418
84	0x3cf6d3ee	0.030130353
85	0xbd0d9de1	-0.034574393
86	0x3d52605f	0.051361438
87	0xbcc55d03	-0.024092203
88	0x3c1ee191	0.009697334
89	0x3c99fd9d	0.01879769
90	0xbd0e6fd6	-0.034774624
91	0xbd435b3f	-0.04769444
92	0xbc637e6e	-0.013885124
93	0xbc9ae790	-0.018909246
94	0x3d28d7ca	0.041221417
95	0x3d24eb6f	0.04026359
96	0xbcfb9e73	-0.030715203
97	0xbce9eb13	-0.028554475
98	0xbc7d5636	-0.015462449
99	0xb89f26ab	-7.588913e-05
100	0xbd29f67f	-0.041494843
101	0xbaec8c0a	-0.0018047106
102	0xbb938ac9	-0.0045026285
103	0x3d18672f	0.03720778
104	0xbccc3983	-0.024929767
105	0x3d08ae84	0.033369556
106	0xbc8f9215	-0.017525712
107	0xbcde2b99	-0.027120398
108	0xba263c74	-0.00063414057
109	0x3d31dbaf	0.043422397
110	0xbcdf32c6	-0.02724589
111	0xbd1dc6bf	-0.038519617
112	0x3cb85ca3	0.02250511
113	0x3d0fe19e	0.035127275
114	0x3d216732	0.039405055
115	0xbc34ab60	-0.011027187
116	0x3cf127bb	0.02943789
117	0x3c036ae3	0.008021089
118	0xbd2b2ca6	-0.041790627
119	0xbd0ec1d3	-0.034852814
120	0xbd41cd09	-0.047314677
121	0xbd393574	-0.045216992
122	0x3c92d626	0.01792438
123	0xbb19a456	-0.00234439
124	0x3b92206e	0.0044594323
125	0xbbcf9582	-0.0063349614
126	0x3cc56ca9	0.024099665
127	0xb9d44e2a	-0.00040494028
128	0x3d12e614	0.03586395
129	0xbd47fbb4	-0.048824027
130	0x3d34abc9	0.04410914
131	0x3d2d1fb1	0.04226655
132	0xbd251d71	-0.04031128
133	0x3d457231	0.048204605
134	0x3bc22206	0.005924466
135	0xbd2f49bf	-0.04279494
136	0x3d151531	0.036397163
137	0x3c23e510	0.010003343
138	0x3d3a88fe	0.045540802
139	0xbd40c914	-0.047066763
140	0xbca78dc6	-0.020453345
141	0xbd3311b5	-0.04371806
142	0xbc840cf8	-0.016119465
143	0xbd25f652	-0.040518112
144	0xbcf8fa4e	-0.030392792
145	0xbc87efc7	-0.016593827
146	0xbcc48653	-0.023989832
147	0x3ca67612	0.020319972
148	0x3ca8e7b2	0.020618293
149	0x3ced55e9	0.02897163
150	0x3ce9ca4f	0.028538851
151	0x3cf020ab	0.029312452
152	0xbca3f6b4	-0.020015098
153	0xbd49677b	-0.049170952
154	0x3c3a22ad	0.011360806
155	0xbd29faea	-0.041499056
156	0xbcfc7724	-0.03081853
157	0xbcbd429c	-0.02310305
158	0x3c8e0c4f	0.017339854
159	0xbc119c2a	-0.00888733
160	0xbcd45b66	-0.025922488
161	0xbd006d4d	-0.031354237
162	0x3ce284f9	0.027651297
163	0x3d229ee9	0.03970233
164	0xbc0ef844	-0.008726183
165	0x3d4a7c6b	0.04943506
166	0x3cb32d3e	0.02187216
167	0xbd01c995	-0.031686384
168	0xbb9feba9	-0.004880388
169	0x3d49613a	0.049164988
170	0xbc2e7dc4	-0.010650102
171	0x3c00277d	0.007821915
172	0x3d2165a9	0.03940359
173	0x3d0889a1	0.03333438
174	0x3c0ce601	0.008599759
175	0xbd51adba	-0.05119107
176	0xbb944e71	-0.0045259525
177	0x39eb9e35	0.00044940566
178	0x3cd1e373	0.025621152
179	0x3b896e3e	0.00419405
180	0x3c1967b2	0.009363102
181	0x3c90455b	0.017611196
182	0xbc8d2722	-0.017230574
183	0xb8faef92	-0.000119655524
184	0xbd08a193	-0.033357214
185	0xbb70b084	-0.0036726305
186	0x3c3c97d9	0.011510813
187	0xbd5247b2	-0.051337905
188	0x3d1ead80	0.03873968
189	0xbcdcb566	-0.026941966
190	0xbb758a74	-0.0037466558
191	0xbd07506a	-0.033035673
192	0xbce94619	-0.028475808
193	0xbb911958	-0.00442807
194	0x3d2dca37	0.042429175
195	0x3d359db0	0.044339836
196	0x3c898f40	0.01679194
197	0x3b88d1a0	0.00417538
198	0x3c2b2c7b	0.010447617
199	0xbcd3cfa0	-0.02585584
200	0x3b6eae61	0.0036419856
201	0x3cbd41da	0.02310269
202	0xbb46e6aa	-0.003034989
203	0x3ca34798	0.0199316
204	0xbcc32c60	-0.02382487
205	0x3d306614	0.0430661
206	0xbc9cb373	-0.019128537
207	0x3c0f362b	0.008740942
208	0x3d0ed618	0.034872144
209	0x3ca56345	0.020188937
210	0xbb60f116	-0.0034323386
211	0xbd1676ab	-0.036734264
212	0xbd235874	-0.039879277
213	0xbd40ba51	-0.047052685
214	0x3c1a987f	0.009435772
215	0x3d1d5634	0.038412288
216	0x3d3bdcc1	0.045864824
217	0xbcfb5eb8	-0.030684814
218	0xbd2fe3ac	-0.042941734
219	0xbbac5441	-0.0052590673
220	0xbcf7100e	-0.030159023
221	0x39eb663f	0.00044898872
222	0xbc6b9765	-0.014379357
223	0xbc259fa1	-0.010108859
224	0xbd401ef0	-0.046904504
225	0x3d417ee1	0.04724014
226	0xbce13949	-0.027493136
227	0xbd0977b0	-0.03356141
228	0x3d052a72	0.032511182
229	0xbcc42b6a	-0.023946483
230	0xbcad33fe	-0.021142956
231	0xbd0bc1d8	-0.03412041
232	0x3c31abaa	0.010844151
233	0xbc9a91fa	-0.018868435
234	0xbd30ade8	-0.0431346
235	0xbb9268cc	-0.004468059
236	0x3cbb19b0	0.022839397
237	0x39f7a40c	0.00047233736
238	0xbd43e0b5	-0.04782172
239	0xbd16eb29	-0.03684536
240	0x3ceb87d2	0.028751288
241	0x3c8bb451	0.017053755
242	0xbc0a5737	-0.008443645
243	0xbd1793a4	-0.037006035
244	0xbc9637ca	-0.01833715
245	0xbd0c76ac	-0.03429286
246	0xbd198f74	-0.037490323
247	0x3b6a0986	0.0035711243
248	0x3c4670d4	0.012111861
249	0xba8a9504	-0.0010572975
250	0xbcfa9561	-0.030588808
251	0x3d0481f7	0.032350507
252	0xbc585d60	-0.013205856
253	0x3b9b4d15	0.0047394135
254	0x3d3c0b1f	0.045909043
255	0xbd28910a	-0.041153945

actor.fc1.bias f4 [64]
0	0x3c620fc1	0.013797701
1	0x3cdbb829	0.026821213
2	0x3b0fecc2	0.0021961187
3	0x3c9a7ca4	0.018858261
4	0x3cbeea78	0.023305163
5	0xbca2463e	-0.019808885
6	0x3d219d39	0.03945658
7	0xbd4296db	-0.04750715
8	0x3d117d1f	0.035519715
9	0x3ca66eaa	0.02031644
10	0xbc6bd913	-0.014395016
11	0x3bcb3b50	0.006202139
12	0x3c39ab73	0.011332381
13	0xbd0304bb	-0.031986933
14	0x3cff85f6	0.031191807
15	0xbca43180	-0.020043135
16	0xbc983122	-0.018578116
17	0x3d610918	0.054940313
18	0x3cfdf716	0.031001609
19	0x3c00ad3f	0.007853805
20	0xbca154dd	-0.019693786
21	0x3d3ea5a4	0.046544686
22	0x3d7bcd92	0.061475344
23	0xbb941e05	-0.00452018
24	0x3c485a90	0.012228623
25	0xbc8a88fe	-0.016911026
26	0x3bc853b2	0.006113493
27	0x3bb5598f	0.005534358
28	0x3dd3b1e8	0.10336667
29	0xbc216d81	-0.009852768
30	0x3d1211d7	0.035661545
31	0x3d2d8407	0.04236224
32	0xbcbf81da	-0.023377348
33	0x3c8d524b	0.017251154
34	0xbcbf4d1b	-0.023352196
35	0x3d3a212a	0.045441784
36	0x3c3a267b	0.0113617135
37	0xbc354b28	-0.011065282
38	0xbd20d2a7	-0.039263394
39	0x3cec2e9e	0.028830823
40	0x3d103815	0.035209734
41	0xbc9f2bf4	-0.019430138
42	0xbca1f410	-0.019769698
43	0xbd047c4b	-0.032345098
44	0xbd0804d8	-0.033207744
45	0x3c887303	0.016656404
46	0xbbd9646f	-0.006634287
47	0x3d4f57e9	0.050620947
48	0x3ca3a40c	0.019975685
49	0xbcd28368	-0.025697425
50	0xbcf33e9c	-0.02969294
51	0x3bf76862	0.007550285
52	0x3d932d42	0.071863666
53	0xbc24dfce	-0.010063125
54	0xbce019ad	-0.027355993
55	0xbcd22d8d	-0.025656486
56	0x3d0f32f7	0.034960713
57	0x3d319fa7	0.043365147
58	0x3d6cf0e1	0.057846908
59	0x3cc36eb3	0.023856496
60	0xbd1cee91	-0.038313452
61	0x3d573979	0.052545045
62	0x3d13ac1c	0.03605281
63	0x3d23e0e2	0.040009387

actor.fc2.weight f4 [64, 64]
0	0x3b4bfec0	0.0031127185
1	0x3dc2b1fe	0.095066056
2	0xbdadd2bc	-0.0848746
3	0xbce77e80	-0.028258562
4	0xbd8455c9	-0.06461675
5	0xbd8e25e0	-0.06940818
6	0xbd1059ac	-0.035241768
7	0xbc2f7b80	-0.010710597
8	0xbd84af4c	-0.06478748
9	0xbd828ef2	-0.06374921
10	0xbc13df80	-0.0090254545
11	0x3c3d53c7	0.011555619
12	0xbd94b97c	-0.07261941
13	0x3d9bd259	0.0760848
14	0x3d503bfb	0.05083845
15	0xbd9bf16c	-0.07614407
16	0xbd243700	-0.040091515
17	0x3dc5d35f	0.096594565
18	0xbdfe994c	-0.12431583
19	0x3d8e3b86	0.06944947
20	0x3dc86ea6	0.097867295
21	0xbda20d16	-0.07912652
22	0x3da5d30c	0.080968946
23	0x3db4e4b1	0.08832682
24	0x3dceaefe	0.10091971
25	0x3d486ee8	0.048933893
26	0xbbb79c60	-0.005603358
27	0x3de0d1ec	0.109775394
28	0x3d75624d	0.0599082
29	0xbdd34067	-0.10315018
30	0xbd9f46ce	-0.07777177
31	0xbd965918	-0.07341212
32	0x3cea72c6	0.028619181
33	0xbd277af8	-0.040888757
34	0x3b736900	0.0037141442
35	0xbcf768d8	-0.03020136
36	0x3d81390e	0.063097104
37	0x3cff3170	0.031151503
38	0xbd599188	-0.053117305
39	0x3d682a71	0.0566811
40	0xbd9db02a	-0.07699616
41	0x3dfe3520	0.124124765
42	0x3df70a80	0.120625496
43	0x3dbe91ec	0.09305176
44	0x3b6b8445	0.0035936993
45	0xbd337cc4	-0.043820158
46	0xbd9068cd	-0.07051239
47	0x3dbbd09d	0.09170649
48	0x3cde7190	0.02715376
49	0xbd941bee	-0.0723189
50	0x3dda2a0e	0.106525525
51	0x3cc9c958	0.024632141
52	0x3dc4b960	0.0960567
53	0xbd501f00	-0.050810814
54	0x3d959298	0.07303351
55	0x3d0c3bc8	0.0342367
56	0x3db3378e	0.087508306
57	0xbd69341e	-0.05693447
58	0xbcf4691a	-0.029835273
59	0x3db3118a	0.0874358
60	0x3d8e7160	0.06955218
61	0x3dac0a2f	0.0840038
62	0x3d420210	0.04736525
63	0xbd0d8f21	-0.034560326
64	0x3d168e2c	0.03675668
65	0xbddb9fe9	-0.1072386
66	0xbda0b2f2	-0.07846631
67	0x3d80b0b1	0.06283701
68	0x3d2dc94e	0.042428307
69	0x3d33fc34	0.04394169
70	0xbd990fb1	-0.07473696
71	0xbdc5fbc0	-0.09667158
72	0xbb2d9068	-0.0026483778
73	0x3d9d5d32	0.07683791
74	0xbd9c0a32	-0.07619132
75	0x3d8acbd7	0.067771606
76	0xbc717c80	-0.014739156
77	0x3dcc90a8	0.099885285
78	0x3dbd30fe	0.0923786
79	0xbd79dc9f	-0.061001416
80	0xbd4fb124	-0.050706044
81	0xbc055b0c	-0.008139383
82	0xbcb9d195	-0.022682944
83	0xbca87580	-0.02056384
84	0xbde59ee6	-0.11211948
85	0x3ce4c3c0	0.027925372
86	0x3df237bd	0.118270375
87	0x3de6b6ac	0.11265311
88	0x3c9eb420	0.019373
89	0x3d63013c	0.0554211
90	0x3dad3d76	0.08458988
91	0x3dda6a1a	0.106647685
92	0x3d8a6da4	0.067591935
93	0xbd1fa5ec	-0.038976595
94	0xbdd5fc74	-0.10448542
95	0x3db2e616	0.08735292
96	0xbdf0c7b4	-0.1175684
97	0xbd4797c8	-0.048728734
98	0xbd846728	-0.06464988
99	0xbd89a346	-0.06720595
100	0xbd333570	-0.043752134
101	0xbd10adcc	-0.035321996
102	0x3c57d680	0.013173699
103	0x3cc8606e	0.024460044
104	0x3d3c95ec	0.046041414
105	0xbdae7d0e	-0.08519946
106	0x3df009e4	0.117206365
107	0x3d80897a	0.062762216
108	0xbcdfb865	-0.027309606
109	0xbd8bb150	-0.06820929
110	0xbd8c5995	-0.06853024
111	0xbd99e5ac	-0.075145096
112	0x3d91f146	0.071260974
113	0x3caf22f2	0.021378968
114	0xbd91f8ee	-0.07127558
115	0x3d5ffcd4	0.054684475
116	0x3c185c6d	0.00929938
117	0x3dad29e9	0.08455259
118	0xbd2cef28	-0.042220265
119	0xbc845ee7	-0.016158534
120	0x3da5469c	0.08070108
121	0xbcc3d91a	-0.023907233
122	0x3d3a2ed8	0.04545483
123	0xbcb8852b	-0.022524437
124	0xbcd2b6a8	-0.025721863
125	0xbd00c316	-0.03143605
126	0xbd2173b0	-0.03941697
127	0x3ccc59f4	0.024945237
128	0xbde10358	-0.10986966
129	0x3d9109c8	0.07081944
130	0xbd16814c	-0.0367444
131	0xbd5a5b78	-0.053309888
132	0xbd3adac8	-0.045618802
133	0x3d44d0d8	0.04805073
134	0xbd22c0e0	-0.03973472
135	0x3d971a0c	0.07378015
136	0xbd944960	-0.07240558
137	0x3c3cced0	0.011523917
138	0xbda90e42	-0.082546726
139	0xbda3c78e	-0.079970464
140	0x3df691e2	0.12039544
141	0xbccf3680	-0.025294542
142	0x3df57fa2	0.11987235
143	0xbdc37fea	-0.09545882
144	0xbdd4d922	-0.10392977
145	0xbd8d0604	-0.06885913
146	0xbdaf89da	-0.08571215
147	0x3dfa5554	0.12223306
148	0xbcece5d0	-0.028918177
149	0x3d9ae230	0.07562673
150	0xbda940f6	-0.082643434
151	0x3cb26c80	0.021780252
152	0x3d6ae098	0.057343096
153	0xbcac46b0	-0.0210298
154	0xbd258914	-0.04041393
155	0xbd523af8	-0.05132577
156	0xbd9ad5e2	-0.07560326
157	0x3cb82620	0.022479117
158	0x3dfb9bee	0.122856006
159	0x3c899670	0.016795367
160	0xbdccac5c	-0.099938124
161	0xbdcd5d96	-0.10027616
162	0xbdaa3642	-0.0831113
163	0x3dcaf2d0	0.09909594
164	0xbdc21e12	-0.09478392
165	0xbd3b388c	-0.045708224
166	0x3d0cd608	0.034383804
167	0x3d401840	0.046898127
168	0xbde532d6	-0.11191337
169	0xbb928840	-0.0044718087
170	0xbdb23932	-0.087023154
171	0x3dc9fd1e	0.098627314
172	0xbdf9e40a	-0.12201698
173	0x3ddcbd74	0.10778323
174	0x3d6d7dbc	0.057981238
175	0x3df31332	0.118688956
176	0xbdd32a68	-0.10310823
177	0xbde0f94e	-0.10985051
178	0x3d7f0128	0.062256962
179	0x3d64be74	0.055845693
180	0x3de95382	0.11392881
181	0xbcce8fd8	-0.025215074
182	0xbd8035f6	-0.06260292
183	0xbdc2c57a	-0.09510322
184	0x3d7fb538	0.062428683
185	0x3da5881a	0.080826
186	0xbdc1911c	-0.094515055
187	0xbd269ffc	-0.040679917
188	0x3d016458	0.031589836
189	0x3d2133ec	0.039356157
190	0x3ddcff70	0.10790908
191	0xbd9392b8	-0.07205719
192	0xbc99c1b0	-0.018769115
193	0x3d533c97	0.051571455
194	0x3cb49f30	0.022048563
195	0x3dbbdc52	0.09172882
196	0x3dfb3d44	0.12267545
197	0xbd010240	-0.031496286
198	0xbcb349f2	-0.021885846
199	0xbdf7a0a4	-0.12091187
200	0x3dfac669	0.12244875
201	0xbde6cce8	-0.112695515
202	0xbcfe4c88	-0.031042352
203	0xbdc911b9	-0.098178335
204	0x3d7f1a30	0.062280834
205	0xbdd4ab3d	-0.103842236
206	0x3deb4e71	0.11489571
207	0xbbcd7309	-0.006269817
208	0xbdd63f3a	-0.10461278
209	0xbaaf1766	-0.0013358414
210	0xbd589913	-0.052880358
211	0x3db62718	0.08894175
212	0x3d0632fe	0.032763474
213	0x3dd052f8	0.10172075
214	0x3d719907	0.05898383
215	0xbdafb53f	-0.08579492
216	0xbdd0b020	-0.10189843
217	0x3d3c63f8	0.045993775
218	0xbd26b5e0	-0.040700793
219	0x3d4e4fec	0.05036919
220	0x3c94a904	0.018147
221	0x3deffa22	0.11717631
222	0xbd0ee088	-0.0348821
223	0xbde69c25	-0.11260251
224	0x3d6688fd	0.056282986
225	0x3db4dd24	0.08831242
226	0x3dff6d08	0.12471968
227	0x3dfb59a0	0.12272954
228	0x3aed6e80	0.0018114597
229	0x3de50844	0.11183217
230	0xbdd96fa0	-0.10616994
231	0x3d8b22a1	0.06793714
232	0x3d20bf92	0.039245196
233	0x3d418804	0.047248855
234	0xbdcd8dc6	-0.10036807
235	0x3d53fb24	0.05175318
236	0x3c89101b	0.016731312
237	0xbc215bc0	-0.009848535
238	0xbdb95521	-0.0904944
239	0x3d34db88	0.044154674
240	0xbcfc3cd8	-0.030790731
241	0x3d0c6ae3	0.034281623
242	0x3d96c10e	0.07361041
243	0xbd98d0d4	-0.07461706
244	0xbde0167d	-0.10941789
245	0x3dc6de12	0.09710325
246	0x3df1c868	0.118058026
247	0xbc70ea6a	-0.014704326
248	0xbdf3995a	-0.11894484
249	0x3db01ba4	0.08599022
250	0xbdae5a22	-0.08513285
251	0x3d84f09f	0.06491207
252	0x3c120a30	0.008913562
253	0x3deeda3a	0.11662717
254	0xbdacfc46	-0.08446555
255	0x3c9c8ad2	0.019109163

actor.fc2.bias f4 [64]
0	0xbc94cb47	-0.018163336
1	0x3d4998fa	0.049218155
2	0xbddad108	-0.10684401
3	0x3defe399	0.11713333
4	0xbdc1101e	-0.09426902
5	0x3e2a3db5	0.16625102
6	0x3dd0269e	0.10163616
7	0x3dcd4290	0.100224614
8	0xbd47b1fc	-0.048753724
9	0x3c9bc6d0	0.0190157
10	0x3d0ad5ae	0.033895187
11	0x3d39596b	0.04525129
12	0xbc8b35c7	-0.016993416
13	0x3e8468c4	0.2586118
14	0x3dbe3435	0.092873015
15	0xbdd2e8f8	-0.102983415
16	0x3d8140c4	0.06311181
17	0x3d047ffc	0.032348618
18	0x3c57c76b	0.013170104
19	0xbd4dafa0	-0.050216317
20	0x3d7ee4a4	0.062229767
21	0xbd076dce	-0.033063702
22	0xbdde224e	-0.10846387
23	0xbd4e0fdc	-0.050308093
24	0xbdf42159	-0.11920423
25	0xbded5ad7	-0.11589592
26	0xbd77e0b4	-0.060517028
27	0x3d9b5b63	0.0758579
28	0xbd4bf852	-0.049797364
29	0x3ca65ef1	0.020308943
30	0x3d0d1674	0.03444524
31	0xbdc3d4c6	-0.09562068
32	0x3cdd19a8	0.026989773
33	0x3ddcae8e	0.10775481
34	0xbd73cfe0	-0.059524417
35	0xbd6b9888	-0.057518512
36	0xbda1c4ec	-0.07898888
37	0x3e329fac	0.17443722
38	0x3dd16b92	0.102255955
39	0xbcfa81f8	-0.030579552
40	0x3d6130b0	0.054978073
41	0xbde970f6	-0.11398499
42	0x3dda1363	0.10648229
43	0xbd8a3d14	-0.06749931
44	0x3d9a9459	0.07547826
45	0xbdde19e5	-0.10844783
46	0xbdb9525b	-0.09048911
47	0xbdcbc483	-0.09949591
48	0x3c1b3db4	0.00947516
49	0xbd083104	-0.03324987
50	0xbe0383b6	-0.12843212
51	0x3dad3362	0.08457066
52	0x3deb292d	0.11482463
53	0x3d5b652c	0.053563282
54	0x3d8d6bd2	0.06905331
55	0xbd9e20c7	-0.077210955
56	0x3d42b5f5	0.04753681
57	0x3dcd50fa	0.10025211
58	0x3d970436	0.0737385
59	0xbd130128	-0.035889775
60	0x3db90160	0.090334654
61	0x3dc4cc1d	0.09609244
62	0x3d0f322c	0.034959957
63	0x3e0fb212	0.14032772

actor.mean_fc3.weight f4 [17, 64]
0	0x3cd773d8	0.026300356
1	0xbc046d20	-0.008082658
2	0xbd644ad8	-0.05573544
3	0xbc7ab060	-0.01530084
4	0xbd9ea9b6	-0.077472135
5	0x3d05b0c0	0.032639265
6	0x3da2bfcc	0.079467386
7	0x3db21a04	0.08696368
8	0xbd9adb52	-0.07561363
9	0x3dbc79e8	0.09202939
10	0xbdb0076c	-0.085951656
11	0xbd834b2a	-0.06410821
12	0xbd65fe88	-0.056150943
13	0xbdb43a1a	-0.088001445
14	0xbd0492b0	-0.032366455
15	0xbded9dcc	-0.11602363
16	0xbd07c8c4	-0.03315045
17	0xbda7fa42	-0.0820203
18	0x3bc8afe0	0.0061244816
19	0xbda8a156	-0.082338974
20	0x3d76a400	0.060214996
21	0x3cc92288	0.024552599
22	0x3d948822	0.07252528
23	0xbc303b10	-0.010756269
24	0xbd8e093c	-0.06935355
25	0x3bd821a0	0.0065958053
26	0x3d1a99b4	0.03774424
27	0xbc9ca230	-0.019120306
28	0xbd8ac55e	-0.06775926
29	0xbbdacec0	-0.0066774786
30	0xbd74ca14	-0.05976303
31	0xbc84edf8	-0.016226754
32	0x3bdaf3c0	0.0066818893
33	0xbdeca874	-0.115555674
34	0x3d32f448	0.043689996
35	0xbd1cfce4	-0.038327113
36	0xbb0a7d80	-0.0021131933
37	0x3d717aa8	0.058954865
38	0xbdbf48da	-0.09340067
39	0x3d01502c	0.0315706
40	0xbd9e7caa	-0.077386215
41	0x3d96ff74	0.073729426
42	0x3d9ebed4	0.07751241
43	0xbdcca8d6	-0.099931404
44	0x3dec422a	0.11536057
45	0xbd127a5c	-0.035761222
46	0xbced48b0	-0.028965324
47	0x3de53abe	0.11192845
48	0xbdb5e048	-0.08880669
49	0x3da50c3c	0.08058974
50	0xbd8ffca2	-0.07030608
51	0xbdab592e	-0.08366619
52	0x3de1320c	0.10995874
53	0x3db5a240	0.08868837
54	0x3dbd0b22	0.09230639
55	0x3da5f02a	0.08102448
56	0xbbd52d20	-0.0065056235
57	0xbd0b732c	-0.034045383
58	0x3d34c13c	0.044129595
59	0xbda8e146	-0.082460925
60	0x3df1f4ea	0.11814292
61	0x3df01bf0	0.11724079
62	0xbdfa60ea	-0.12225516
63	0xbca18208	-0.019715324
64	0x3dba71c2	0.09103729
65	0xbd21b408	-0.03947833
66	0x3c7d5120	0.015461236
67	0xbdb00c2a	-0.0859607
68	0xbd657ba0	-0.0560261
69	0x3d02ae20	0.03190434
70	0x3df99f08	0.12188536
71	0x3cd08b50	0.025457054
72	0xba13f700	-0.0005644411
73	0xbd09c4bc	-0.033634886
74	0xbd117f3c	-0.03552173
75	0xbd85f9fc	-0.06541821
76	0xbc55cf80	-0.01304996
77	0x3ce35c70	0.027754039
78	0xbd7175d0	-0.058950245
79	0x3c406760	0.0117433965
80	0xbd8f28ac	-0.069901794
81	0xbcf5b6b8	-0.029994354
82	0x3df0549e	0.117348894
83	0xbc22c360	-0.009934276
84	0x3d94de1a	0.07268925
85	0xbd84adc2	-0.06478454
86	0xbd8890ac	-0.06668219
87	0x3da549b8	0.08070701
88	0x3d3edb24	0.046595708
89	0x3d30dde8	0.043180376
90	0xbdaab264	-0.083348066
91	0x3d977244	0.07394841
92	0x3dd1351a	0.102152064
93	0xbdb03b64	-0.08605078
94	0xbd2f4b7c	-0.042796597
95	0x3bd50c40	0.0065017045
96	0x3d807916	0.06273095
97	0x3dc6a6d8	0.09699792
98	0xbda1ff2c	-0.07909998
99	0x3dc0160c	0.09379205
100	0xbba07e20	-0.004897848
101	0xbc92c0f8	-0.01791428
102	0xbc781100	-0.015140772
103	0x3d7cbb14	0.06170185
104	0x3c544a20	0.012957126
105	0x3c869420	0.016428053
106	0xbdf3a5dc	-0.118968695
107	0xbd86b40e	-0.065773115
108	0x3cd46b38	0.025930032
109	0xbde789ce	-0.11305581
110	0xbd13b1a8	-0.036058098
111	0xbd4e72d0	-0.050402462
112	0xbdea86a0	-0.11451459
113	0x3dfca5fa	0.12336345
114	0xbd5edda4	-0.05441059
115	0xbd47808c	-0.048706576
116	0x3b18cdc0	0.0023315996
117	0xbd41428c	-0.047182605
118	0xbd226730	-0.03964919
119	0xbd998190	-0.07495415
120	0xbd2a2178	-0.041535825
121	0xbcf17c28	-0.029478148
122	0xbcf37b00	-0.029721737
123	0x3d58fb24	0.05297388
124	0xbdde8880	-0.10865879
125	0x3d410c9c	0.047131166
126	0xbdbadf16	-0.091245815
127	0x3dbc48dc	0.09193584
128	0x3d870f72	0.06594743
129	0xbda11da4	-0.078669816
130	0x3df5d500	0.12003517
131	0xbde4e0c6	-0.11175685
132	0x3dd30c0e	0.103050336
133	0xbc946048	-0.018112317
134	0x3d81e73a	0.06342931
135	0xbddde52c	-0.10834727
136	0xbca990e0	-0.020698965
137	0x3d5ddb40	0.05416417
138	0x3dfc26f2	0.12312116
139	0x3dc90dbe	0.09817074
140	0xbd5e099c	-0.054208383
141	0x3d7c2574	0.061559156
142	0xbdf7bf42	-0.120970264
143	0xbd0ed71c	-0.034873113
144	0x3de869c4	0.11348298
145	0x3dbad950	0.0912348
146	0x3d22390c	0.039605185
147	0xbd6ee560	-0.058324218
148	0xbdaf6944	-0.08565
149	0x3c101c60	0.008795828
150	0xbdc3fe22	-0.09569956
151	0xbceaa8d8	-0.028644964
152	0x3d1d8ae0	0.03846252
153	0xbd82d536	-0.06388323
154	0x3da10610	0.078624845
155	0xbdec594a	-0.11540468
156	0xbde25a6a	-0.11052401
157	0xbdb42504	-0.08796123
158	0xbdad5208	-0.08462912
159	0x3db88abc	0.090108365
160	0xbda692fc	-0.08133504
161	0x3d1a0a74	0.037607625
162	0x3d323e50	0.043516457
163	0xbba2c460	-0.0049672574
164	0x3dc738e6	0.097276494
165	0xbdc9e000	-0.09857178
166	0xbd575890	-0.052574694
167	0x3cc5c6f8	0.024142727
168	0xbd9768ca	-0.07393034
169	0xbde00174	-0.10937777
170	0xbc00b070	-0.007854566
171	0x3d14de88	0.036345035
172	0x3cdeba58	0.027188465
173	0x3de6c54c	0.112681
174	0xbd007650	-0.03136283
175	0x3c339920	0.010961801
176	0x3dd28240	0.102787495
177	0x3d439368	0.047748
178	0x3de23e3a	0.11047025
179	0xbd890abc	-0.066915005
180	0xbdeace10	-0.114650846
181	0xbde1dd3a	-0.11028524
182	0x3dec3454	0.11533418
183	0xbd913d78	-0.07091802
184	0x3d77bd2c	0.060483143
185	0xbdfe4b8c	-0.12416753
186	0xbdefef3c	-0.11715552
187	0x3d044c3c	0.032299265
188	0x3d71c138	0.05902216
189	0xbca87a10	-0.020566016
190	0x3c055f20	0.008140355
191	0xbd87f996	-0.066394016
192	0x3d8442ba	0.064580396
193	0xbd42c290	-0.04754883
194	0x3dc09936	0.09404223
195	0x3cb57690	0.022151262
196	0x3d84f904	0.064928085
197	0xbd501420	-0.050800443
198	0xbd81926e	-0.06326757
199	0xbd2e7968	-0.04259625
200	0xbdb2448c	-0.087044805
201	0xbda0aa56	-0.07844989
202	0x3df3d46c	0.11905751
203	0xbcf0fcd0	-0.029417425
204	0xbc9ea518	-0.019365832
205	0x3dd7a312	0.1052915
206	0x3db60bce	0.0888897
207	0x3d5ddd30	0.05416602
208	0x3d8507ca	0.06495626
209	0xbd302fa4	-0.043014184
210	0xbddee804	-0.10884097
211	0xbdc63ada	-0.09679194
212	0xbbe09080	-0.0068531632
213	0x3dbbff32	0.09179534
214	0x3df39bda	0.11894961
215	0x3d377c04	0.044796005
216	0x3dfc2c1c	0.12313101
217	0xbde06b88	-0.1095801
218	0x3dc3aebc	0.09554812
219	0x3df04c2e	0.1173328
220	0x3db86bbe	0.09004925
221	0x3dbafdda	0.091304496
222	0x3ca5ea40	0.0202533
223	0xbdc287fa	-0.09498592
224	0x3d77730c	0.06041245
225	0xbbd87440	-0.006605655
226	0x3cc0fc20	0.023557723
227	0x3d90bb7e	0.07067011
228	0x3dc688be	0.0969405
229	0xbcf37478	-0.029718623
230	0xbcd39320	-0.02582699
231	0x3c0f2190	0.008736029
232	0x3d4949e4	0.049142733
233	0x3d428630	0.047491252
234	0xbdec99fe	-0.11552809
235	0xbdff6f86	-0.12472443
236	0x3c81bd40	0.015837312
237	0xbd852ba2	-0.06502463
238	0x3d830732	0.06397857
239	0x3c56e970	0.013117179
240	0xbd57065c	-0.0524963
241	0xbd85ccbe	-0.06533192
242	0xbda89eec	-0.08233437
243	0x3dd9b8e0	0.10630965
244	0x3ce32700	0.027728558
245	0x3d7a3e00	0.061094284
246	0x3daba92a	0.08381875
247	0xbc169d70	-0.009192809
248	0x3d22e218	0.0397664
249	0xbd6f90dc	-0.058487758
250	0x3c112a00	0.008860111
251	0x3c7f67f0	0.0155887455
252	0x3d6be5a8	0.057592064
253	0x3d532c20	0.051555753
254	0x3dca292c	0.09871134
255	0x3d4abdc0	0.049497366

actor.mean_fc3.bias f4 [17]
0	0x3dfd1916	0.123583004
1	0x3d8de0be	0.06927632
2	0xbd54e9c4	-0.05198075
3	0xbddc8136	-0.107668325
4	0x3d75b9f8	0.059991807
5	0x3d3f838c	0.046756312
6	0x3ca1f9b8	0.019772395
7	0xbd9e4dc8	-0.07729679
8	0xbdbc0aa8	-0.0918172
9	0x3deb536a	0.11490519
10	0xbdf8e28e	-0.12152587
11	0x3d649f50	0.055815995
12	0xbd278134	-0.040894702
13	0xbcf41128	-0.029793337
14	0x3dda9d08	0.106744826
15	0x3d260410	0.040531218
16	0xbde3acb6	-0.11116926

actor.log_std_fc3.weight f4 [17, 64]
0	0xbd27ab18	-0.040934652
1	0xbd0ddd4c	-0.034634873
2	0x3dbaa5a4	0.09113625
3	0xbc6359ea	-0.013876418
4	0x3df29fda	0.118468955
5	0xbe82d027	-0.25549433
6	0xbe8e6445	-0.27810875
7	0xbcc8c6e3	-0.0245089
8	0x3dbd61b4	0.09247151
9	0x3d88c07c	0.066773385
10	0xbd61f3eb	-0.05516426
11	0xbc1f15c2	-0.009709777
12	0x3d28533b	0.041095
13	0xbeb11d0c	-0.34592474
14	0xbd6b2ead	-0.05741756
15	0x3d6b0764	0.057380095
16	0xbdf7bfe4	-0.12097147
17	0xbd1f99c0	-0.038964987
18	0x3de4a5c9	0.111644335
19	0x3ddea221	0.108707674
20	0xbd044220	-0.032289624
21	0x3d52898e	0.051400714
22	0x3d714114	0.058899954
23	0x3d9ca279	0.07648177
24	0x3bd2c278	0.006431874
25	0xbdf32549	-0.11872346
26	0x3d0dad50	0.03458911
27	0xbbcbcf5b	-0.006219787
28	0xbdd8b7c4	-0.105819255
29	0xbdeb5fdf	-0.11492895
30	0x3d912776	0.07087605
31	0xbd67a9bc	-0.056558356
32	0xbce96e00	-0.028494835
33	0x3ce20e80	0.027594805
34	0xbd728ffc	-0.059219345
35	0x3dc099c8	0.094043314
36	0x3b0a2e40	0.0021084696
37	0xbe8ba6cf	-0.27275702
38	0xbdd4d119	-0.10391445
39	0x3dba82f4	0.091070086
40	0xbc0f9e50	-0.008765772
41	0xbd91ffee	-0.07128893
42	0x3ca43389	0.020044105
43	0x3c80b2b0	0.015710205
44	0xbdc14777	-0.09437459
45	0xbd3db699	-0.046316717
46	0xbdc55884	-0.09636024
47	0xbddfdfeb	-0.10931381
48	0x3c94f4c6	0.018183123
49	0xbd66e47c	-0.056370243
50	0xbd812f83	-0.0630789
51	0x3dae67ee	0.08515917
52	0x3dcc5e07	0.09978872
53	0x3df045f4	0.117320925
54	0xbdcaece2	-0.09908463
55	0xbd05ba79	-0.032648537
56	0x3c5f199a	0.013616944
57	0x3caa3808	0.02077867
58	0x3d871a08	0.06596762
59	0x3bbc81a0	0.005752757
60	0x3bd0ac93	0.0063682287
61	0x3db27823	0.087143205
62	0xbdd6df2d	-0.10491786
63	0xbdad6021	-0.08465601
64	0xbc3cde48	-0.011527605
65	0x3dbba3a6	0.09162073
66	0xbd50ecd0	-0.051007092
67	0xbda491ac	-0.08035597
68	0x3ce73b60	0.028226554
69	0xbe6b7413	-0.22993498
70	0xbe8679ba	-0.26264745
71	0x3d9090d7	0.07058876
72	0x3d6160c0	0.05502391
73	0x3dc934f4	0.09824553
74	0x3df8bb8a	0.12145145
75	0xbdca3622	-0.09873606
76	0xbc54c207	-0.012985713
77	0xbe91e54b	-0.2849525
78	0xbd722e05	-0.05912592
79	0x3cbf41f0	0.023346871
80	0xbdfc77ce	-0.123275384
81	0xbdb2f4a8	-0.08738071
82	0x3d15ec6c	0.036602423
83	0xbd1d468d	-0.03839736
84	0x3dadd1ae	0.08487259
85	0x3d597e92	0.053099222
86	0x3d23dec4	0.040007368
87	0x3db24feb	0.087066494
88	0x3ddf1b57	0.108938865
89	0x3dce691d	0.100786425
90	0x3d637838	0.05553457
91	0xbe1bbbc8	-0.15208352
92	0xbddef2ac	-0.1088613
93	0xbda4773a	-0.08030553
94	0xbc3bc470	-0.011460409
95	0xbd14e9b4	-0.03635569
96	0x3d27a820	0.04093182
97	0xbdcc9156	-0.09988658
98	0xbd008124	-0.031373158
99	0xbca808c0	-0.020511985
100	0x3dc447c2	0.09583999
101	0xbe2eaa7f	-0.17057227
102	0x3d150e3e	0.036390536
103	0xbd88984a	-0.06669672
104	0x3d56e800	0.052467346
105	0x3d2ce6b0	0.04221219
106	0x3c5c3aed	0.013441783
107	0xbd3d28bc	-0.046181425
108	0xbd1d4afd	-0.038401593
109	0xbd3cc1d9	-0.046083305
110	0xbc95f3f4	-0.018304802
111	0xbc947698	-0.018122956
112	0xbc67604e	-0.014122082
113	0xbddc9e12	-0.10772337
114	0x3dd8831f	0.10571884
115	0xbdba4ca6	-0.09096651
116	0x3dcd2a3f	0.100178234
117	0xbdf6bc08	-0.12047583
118	0x3dc42f11	0.0957929
119	0xbc1bd5cc	-0.009511422
120	0xbd822c8e	-0.063561544
121	0x3dae0e0c	0.08498773
122	0x3cdaa120	0.026688159
123	0x3dfc21c2	0.12311126
124	0xbd2f14f3	-0.042744588
125	0x3de66eb6	0.11251585
126	0xbe67187e	-0.22567937
127	0xbea36027	-0.31909296
128	0xbd26f7c2	-0.040763624
129	0xbdfac9b7	-0.12245505
130	0x3d7c5eac	0.061613724
131	0x3d7f3cb5	0.062313754
132	0x3d3d0ccc	0.046154782
133	0xbdf8253d	-0.12116478
134	0xbe91a711	-0.28447774
135	0x3d1bb45e	0.03801381
136	0xbd7a6c00	-0.061138153
137	0x3de92e94	0.11385837
138	0xbda57954	-0.08079782
139	0xbdd5ce1c	-0.10439703
140	0x3d902591	0.07038415
141	0xbeab6309	-0.33473995
142	0x3da13bd0	0.078727365
143	0x3dd48402	0.10376741
144	0xbdd561b6	-0.104190275
145	0x3ca56538	0.020189866
146	0xbd8862c0	-0.0665946
147	0xbcd500d2	-0.026001368
148	0x3b5bb540	0.0033524781
149	0xbdeae4e2	-0.11469437
150	0x3d8287f4	0.06373587
151	0xbbefeec3	-0.007322164
152	0x3db6e83b	0.08931013
153	0x3bc691b8	0.0060598515
154	0x3d90a8b0	0.070634246
155	0xbd7057f9	-0.058677647
156	0xbd18af8d	-0.037276793
157	0xbdf06489	-0.117379256
158	0xbcf744d8	-0.030184194
159	0xbbfbd3e0	-0.0076851696
160	0x3d6f8a18	0.058481306
161	0xbda2a248	-0.07941109
162	0x3dbe9cea	0.09307273
163	0x3c645be0	0.01393792
164	0x3da0db22	0.07854296
165	0xbe3c5996	-0.1839355
166	0xbba08698	-0.0048988573
167	0x3dca00b2	0.09863414
168	0x3d86d3aa	0.065833405
169	0x3d310318	0.04321584
170	0x3dec198b	0.115283094
171	0x3dc4a76a	0.09602244
172	0xbda9a893	-0.08284106
173	0xbde7f097	-0.11325186
174	0xbd6c0a72	-0.05762715
175	0xbc053f62	-0.008132787
176	0x3dda67ce	0.106643304
177	0x3da45dc2	0.080256954
178	0x3d3a5ecc	0.04550056
179	0x3da665ca	0.081248835
180	0x3dc97b90	0.09838021
181	0x3d1b9e24	0.03799261
182	0x3c86e5c3	0.01646698
183	0xbd845880	-0.064621925
184	0x3d7a9bc8	0.06118372
185	0x3b988260	0.004654214
186	0xbdd08832	-0.10182227
187	0x3dc22e3e	0.09481476
188	0xbdbb9d68	-0.09160882
189	0x3c63ae3d	0.013896522
190	0xbde150be	-0.110017285
191	0xbe89bdb3	-0.26902542
192	0x3dca845a	0.09888525
193	0x3c04a2dd	0.00809547
194	0x3d6b79cc	0.0574892
195	0xbcc76ae6	-0.024342965
196	0xbcfba408	-0.030717865
197	0xbdea036c	-0.11426434
198	0xbe2dff49	-0.16991915
199	0xbdf30ab5	-0.118672766
200	0xbabb6500	-0.0014297068
201	0x3d0174bc	0.031605467
202	0xbd8cd075	-0.068756975
203	0xbd93a934	-0.07210007
204	0xbdf402fb	-0.11914631
205	0xbe62b41c	-0.22139019
206	0x3cb12ee9	0.021628814
207	0xbce65c98	-0.028120324
208	0x3c40d1c0	0.011768758
209	0x3d281c2c	0.04104249
210	0x3cc775c6	0.024348151
211	0x3ce51b2b	0.027967056
212	0x3dcb519c	0.09927675
213	0xbd3b794c	-0.045769975
214	0xbcdb95a0	-0.026804745
215	0x3b99c9dd	0.0046932534
216	0x3d42b71a	0.0475379
217	0xbdd4f2a1	-0.1039784
218	0x3dcd704e	0.10031186
219	0xbdce9851	-0.10087646
220	0xbd327a65	-0.043573756
221	0xbdaaa5c0	-0.083323956
222	0xbdc42ba8	-0.09578639
223	0xbdafba78	-0.08580488
224	0x3bcd2300	0.006260276
225	0x3de0a2c2	0.109685436
226	0x3cb55310	0.022134334
227	0xbd793454	-0.06084092
228	0x3ceb7c50	0.0287458
229	0xbe48a918	-0.19595754
230	0xbd67b928	-0.056573063
231	0xbcbd2638	-0.023089513
232	0x3d16681c	0.03672038
233	0x3c5059e0	0.01271674
234	0xbdc34dc2	-0.095363155
235	0xbde99854	-0.114060074
236	0xb89fe661	-7.624622e-05
237	0x3d152207	0.036409404
238	0x3dc77dca	0.09740789
239	0x3d77fa07	0.06054118
240	0x3cfcf45d	0.03087824
241	0xbdd28440	-0.10279131
242	0xbc2f8734	-0.010713387
243	0xbcc68f88	-0.024238363
244	0xbdf27f17	-0.11840647
245	0xbdd4b2d0	-0.10385668
246	0xbd95a9ab	-0.07307752
247	0x3d36fee7	0.044676688
248	0x3deff868	0.117173016
249	0xbd8e5744	-0.06950238
250	0xbdcc06f6	-0.09962265
251	0xbda28c72	-0.07936944
252	0xbe07d432	-0.1326454
253	0x3dc68795	0.09693829
254	0xbe83bfbd	-0.25732222
255	0xbe9dc785	-0.30816284

actor.log_std_fc3.bias f4 [17]
0	0xbdc0f193	-0.094210766
1	0xbd98bc11	-0.07457746
2	0x3d718026	0.058960102
3	0x3d264122	0.04058946
4	0xbbc3a958	-0.005971115
5	0x3d804461	0.06263042
6	0xbdeeab44	-0.1165376
7	0x3d8b12a9	0.067906685
8	0xbc62dd06	-0.013846641
9	0xbd3b8a3b	-0.045786124
10	0xbdaede48	-0.085384905
11	0x3dab1eec	0.08355507
12	0xbdfdab8c	-0.123862356
13	0xbdca8723	-0.098890565
14	0xbc255aca	-0.010092447
15	0xbd8ad0a0	-0.06778073
16	0x3cf8869d	0.030337626

critic.fc1.weight f4 [64, 378]
0	0x414c4b23	12.768344
1	0xc12341ca	-10.203562
2	0xc19409f7	-18.504866
3	0xc1a13bc4	-20.154182
4	0xc218987b	-38.148907
5	0xc0879c4c	-4.237829
6	0xc1b439eb	-22.52828
7	0x41861bd6	16.763592
8	0x41c7190f	24.887236
9	0x420925d3	34.286938
10	0x40a07d90	5.0153275
11	0x41d9f2dc	27.243584
12	0x41b05974	22.043678
13	0x41ed9a64	29.700386
14	0x41dbcf23	27.476141
15	0x41ef4d20	29.912659
16	0x41cf5699	25.917284
17	0x41f6536e	30.790737
18	0x41020f9c	8.128811
19	0x418c6dee	17.553677
20	0x4200a003	32.15626
21	0xc18725fb	-16.893545
22	0x415cc1a4	13.797276
23	0x41e2dfc5	28.359262
24	0x3f8216de	1.0163229
25	0xc1d4a5f4	-26.581032
26	0x41bf0a87	23.88014
27	0xc134f661	-11.310151
28	0xbfacbd05	-1.3495184
29	0xbf2e56dc	-0.68101287
30	0x401475e4	2.3196955
31	0x410b82bc	8.719418
32	0xc04640fe	-3.0977168
33	0xc10b1f9b	-8.695216
34	0x4094abe1	4.6459813
35	0x411a850b	9.657481
36	0x3f9c2203	1.219788
37	0xc05eec4c	-3.4831724
38	0x41216670	10.087509
39	0x41554b96	13.330954
40	0x3fc62730	1.5480709
41	0x402a330d	2.659366
42	0x41c28e24	24.319405
43	0x41ed5c96	29.670208
44	0xc1a5faf8	-20.747543
45	0x40a2a88f	5.083076
46	0x41b08c4e	22.068508
47	0xbc8d99ff	-0.017285345
48	0x3c226476	0.009911647
49	0x3bc136b6	0.0058964146
50	0x3c99faae	0.018796291
51	0x3d27d671	0.04097599
52	0x3d48f6a2	0.049063332
53	0xbd4d39b3	-0.050103854
54	0xbd2cfb2a	-0.042231716
55	0x3d156ce3	0.036480796
56	0xbd1389f5	-0.036020238
57	0xc167fba6	-14.498938
58	0xc1636641	-14.212464
59	0xc15784cb	-13.46992
60	0xc1d11157	-26.133467
61	0xc0fb1bfc	-7.847166
62	0xbf932beb	-1.1497778
63	0x412cbf82	10.796755
64	0xc10c1a8c	-8.756481
65	0xc1848fa2	-16.570133
66	0xc1a1e39c	-20.236137
67	0xc130a745	-11.040837
68	0xc15be456	-13.743246
69	0xc20f1354	-35.768875
70	0xc213820c	-36.877
71	0xc1836794	-16.425575
72	0x41178d39	9.471978
73	0x421ac870	38.69574
74	0xc1ee0896	-29.754192
75	0xc11e06a6	-9.876623
76	0xc1a27439	-20.30675
77	0xc202b321	-32.67493
78	0xc21a3165	-38.548237
79	0xc1e789a6	-28.942211
80	0xc17de960	-15.869476
81	0x4219869f	38.381466
82	0xc1f7f912	-30.996616
83	0x41ccee9f	25.616514
84	0xc0c0a0a7	-6.019611
85	0x41bfe8d8	23.988693
86	0xc1a287d6	-20.316326
87	0xc19611a8	-18.758621
88	0xc15fe473	-13.993274
89	0xc1d90aff	-27.13037
90	0xc17d51a4	-15.832432
91	0xc0b96b9c	-5.794386
92	0x417c57a3	15.771396
93	0xc10740bf	-8.453307
94	0x41c79c0a	24.95119
95	0x416ee549	14.930978
96	0xc1a295d9	-20.323168
97	0xc144038b	-12.250865
98	0xc1244414	-10.266621
99	0xc2051502	-33.270515
100	0xc205bb73	-33.433056
101	0xc043c8aa	-3.0591226
102	0x4159ae2d	13.605023
103	0xc1cc90f2	-25.570774
104	0x41e0b74b	28.089499
105	0x413ba827	11.728553
106	0xc1a2136d	-20.259485
107	0xc125f5f9	-10.372552
108	0xc120f6c4	-10.0602455
109	0xc1eaae91	-29.335238
110	0x41ea9467	29.322462
111	0x4182182d	16.261805
112	0x41597bf2	13.59276
113	0x41b5e96f	22.738981
114	0x41c1d2d1	24.227938
115	0x4149f9b4	12.623463
116	0xc1a1ff71	-20.249727
117	0xc1b3f116	-22.492718
118	0xc18e291b	-17.770071
119	0xc1ff86d2	-31.94083
120	0x41c4b77c	24.589592
121	0xc1268960	-10.408539
122	0xc1c2241a	-24.267628
123	0xc13d13c0	-11.817322
124	0xc1dd92c0	-27.696655
125	0x419fa7de	19.956966
126	0xc1a22b36	-20.2711
127	0xc15b770f	-13.716567
128	0xc13f9789	-11.974496
129	0xc20caa38	-35.16623
130	0x41ded6aa	27.854816
131	0xc016cc88	-2.3562336
132	0xc19706f9	-18.878405
133	0xc1986d09	-19.05324
134	0xc1e8c5d3	-29.096594
135	0x41658f9b	14.34756
136	0xc1a226b5	-20.2689
137	0xc13bd3a7	-11.739173
138	0xc13881e0	-11.531708
139	0xc160a6ea	-14.0407505
140	0xc134c022	-11.296907
141	0x4115964e	9.3491955
142	0xc163b2b5	-14.23113
143	0x41365b5e	11.397306
144	0xc19d98c8	-19.6996
145	0x41697b16	14.59255
146	0xc1a25e85	-20.296152
147	0xc171fdeb	-15.124492
148	0xc150ca66	-13.049414
149	0xc1ad50a2	-21.664371
150	0xc1cd8e5b	-25.69451
151	0x41211569	10.067727
152	0xc16d8f8a	-14.847544
153	0xc1a90c17	-21.130903
154	0x41a83c2c	21.02938
155	0xc16a8c5f	-14.65927
156	0xc1a262fb	-20.29833
157	0xc172c53e	-15.173155
158	0xc183faf3	-16.497534
159	0xc1e7830d	-28.93899
160	0xc1e92be4	-29.146431
161	0x413922eb	11.571025
162	0xc138784c	-11.529369
163	0xc1d2c3bd	-26.345575
164	0x41c0535b	24.0407
165	0xc12ed826	-10.927771
166	0xc1a1e5ee	-20.23727
167	0xc195d9b9	-18.73131
168	0xc19d1b1f	-19.638243
169	0xc189311c	-17.14898
170	0x41d38a68	26.442581
171	0x419a0dcd	19.256739
172	0x4194685c	18.550957
173	0xc18d61b4	-17.672707
174	0xc1937b53	-18.435217
175	0xc1a0d408	-20.10353
176	0xc1a2a85d	-20.332209
177	0xc196be32	-18.842869
178	0xc1c00e39	-24.006945
179	0xc1c627f9	-24.769518
180	0x41c6f7fd	24.871088
181	0x41cf2a52	25.895664
182	0x41939fb4	18.45298
183	0xc1d99c5d	-27.20135
184	0xc1910963	-18.129583
185	0xc1a23e70	-20.280487
186	0xc1a24152	-20.281895
187	0x3d18ffd1	0.03735334
188	0x3d03c4ee	0.03217023
189	0x3d07f4a0	0.033192277
190	0xbcb68bb9	-0.022283422
191	0xbd4de86c	-0.050270483
192	0xbc590a38	-0.013247065
193	0xc034613c	-2.8184347
194	0xbf4f0ebb	-0.8088185
195	0xc06ad656	-3.669332
196	0xbfc8c1cd	-1.5684143
197	0xc11699e5	-9.412572
198	0x41cd0fe1	25.632753
199	0x414e7573	12.903674
200	0x40f25a9f	7.573562
201	0x40976133	4.730615
202	0xbf75de0c	-0.9604194
203	0x40a14bfd	5.040526
204	0x41ba2d1c	23.272026
205	0x4164b7ec	14.294903
206	0x410c6581	8.774781
207	0x4017073b	2.3598163
208	0xbf4c79d3	-0.7987339
209	0x40fbbe97	7.8670154
210	0x41bed9bc	23.856316
211	0x41af0de4	21.881783
212	0x418c5662	17.54218
213	0xc0c305c6	-6.094455
214	0x4121cf4a	10.113108
215	0xc1179bc7	-9.475532
216	0x41aac32f	21.345304
217	0x4194365a	18.526539
218	0x41111587	9.067756
219	0xc0b8dfc0	-5.777313
220	0x3efc823b	0.49318108
221	0x407d9cff	3.9627073
222	0x41e62780	28.769287
223	0x419465d3	18.549719
224	0x4110bf56	9.046713
225	0xc0b9f7b6	-5.811488
226	0x3f08c835	0.5343049
227	0x407e190e	3.9702792
228	0x41e61a70	28.762909
229	0xc20bafda	-34.92173
230	0x41993430	19.150482
231	0xc17b7444	-15.715885
232	0x410c0dfd	8.753415
233	0x41ab62d4	21.423256
234	0x41bff3b0	23.993988
235	0xc148a001	-12.539063
236	0x411f89e1	9.971162
237	0xc1816b83	-16.177496
238	0xbffa107a	-1.9536278
239	0x400b802b	2.1796978
240	0x4207fd2b	33.997234
241	0xc148ec27	-12.557654
242	0x411fd57c	9.98962
243	0xc1813811	-16.152376
244	0xbffc1161	-1.9692804
245	0x400a995e	2.1656108
246	0x42081311	34.01862
247	0x40a052b8	5.0100975
248	0xc0888012	-4.2656336
249	0x41c5ce47	24.725721
250	0xc0ea83d3	-7.328592
251	0xbe9d4620	-0.30717564
252	0x41bce80f	23.61331
253	0x41228651	10.157792
254	0xc17cf618	-15.8100815
255	0x41d1d30e	26.228054

critic.fc1.bias f4 [64]
0	0xc1a23261	-20.2746
1	0x4229cbe1	42.4491
2	0x41c7879e	24.94122
3	0xc0b4631e	-5.6370993
4	0x42244ca7	41.074856
5	0x41c51f92	24.640415
6	0x41d87339	27.056261
7	0xc1297390	-10.5907135
8	0x41eae510	29.361847
9	0xc10592ab	-8.348308
10	0x42266b55	41.604816
11	0x41d62ecd	26.772852
12	0xc1073e2f	-8.452682
13	0x4233439b	44.81602
14	0xc1d9d3cf	-27.228422
15	0x4196b6ad	18.839197
16	0xc1bb3071	-23.398653
17	0xc0ca0db4	-6.3141727
18	0x418a32db	17.274832
19	0xc02f0d06	-2.73517
20	0x3fd19525	1.637364
21	0xc11d7c3e	-9.842833
22	0x41c8613b	25.047476
23	0xc10fe7eb	-8.994121
24	0x421749c4	37.822037
25	0xbf13b123	-0.57692164
26	0x402abb12	2.6676679
27	0xc12c1d22	-10.7571125
28	0xc1d8f8f5	-27.121561
29	0x41e40e84	28.507088
30	0xbf53e303	-0.8276827
31	0xc0892f29	-4.287007
32	0x3fcd08d4	1.6018319
33	0xbf8172d5	-1.0113169
34	0x418745db	16.90911
35	0x41aef0ec	21.867638
36	0xc2386d10	-46.106506
37	0xc1321743	-11.130679
38	0x41a98cac	21.193687
39	0xc1358250	-11.344315
40	0x41a0839c	20.064262
41	0x42040c2a	33.01188
42	0x41b699ef	22.825163
43	0xc1257b0e	-10.342543
44	0xc1299597	-10.599021
45	0x41c1d46b	24.22872
46	0x40c6b198	6.209179
47	0xc11b9ac4	-9.725285
48	0xc0cbad6c	-6.3649197
49	0x41bd691f	23.676329
50	0x41beca2e	23.84872
51	0x421edeb8	39.7175
52	0x417c36fb	15.763423
53	0x41c552ff	24.665525
54	0xc0c49546	-6.143222
55	0x41e722b9	28.891954
56	0xc154ba4a	-13.295481
57	0x410c36dc	8.763393
58	0xc076805f	-3.8515851
59	0xc103226f	-8.195907
60	0xc188f1db	-17.118093
61	0xc177147e	-15.442503
62	0x41c51c9b	24.638968
63	0xc0e1a6e1	-7.051621

critic.fc2.weight f4 [64, 64]
0	0xbf34f311	-0.7068339
1	0xc0800db5	-4.001673
2	0x40ed8c4b	7.4233756
3	0xc043cebc	-3.059493
4	0xc0bee41b	-5.965345
5	0xc074ff1d	-3.8280709
6	0xbf692179	-0.910667
7	0xbf10020a	-0.5625311
8	0xc04ecca4	-3.2312403
9	0xc060e054	-3.513692
10	0x3e94bb3d	0.290491
11	0x40603218	3.5030575
12	0xc07b8f73	-3.9306304
13	0xbf36e447	-0.71442074
14	0xc0a11642	-5.033967
15	0xbf1bbebb	-0.60837907
16	0xbea775ee	-0.3270716
17	0x3d88fcb3	0.066888236
18	0xbed2edda	-0.4119709
19	0xc0430d90	-3.0477028
20	0xc038eeed	-2.8895829
21	0x3f1e5866	0.61853635
22	0xc06bfc08	-3.6872578
23	0xc0b39307	-5.6116977
24	0xc033cc6c	-2.809352
25	0xbeb3c288	-0.35109353
26	0xc055fa0a	-3.3433862
27	0xc03a3ef1	-2.9100916
28	0xc08e4129	-4.445454
29	0xbf9349c6	-1.1506889
30	0xbf95de2d	-1.1708428
31	0xbff223bd	-1.8917156
32	0xc05247cb	-3.285632
33	0xc04d699a	-3.2095704
34	0xbee6ebe9	-0.4510186
35	0xc05562a8	-3.3341465
36	0xbf43ac68	-0.76434946
37	0x3eb2547b	0.34830078
38	0xc04b1914	-3.1734056
39	0x3ecaaf7c	0.3958701
40	0xc04d0039	-3.2031386
41	0xc006f4c3	-2.108689
42	0xbf089a53	-0.5336048
43	0x3f2fbac3	0.6864435
44	0xbf3ed1d7	-0.7453894
45	0xc076f178	-3.858488
46	0xbe3c2607	-0.18373881
47	0x3f8856a8	1.0651445
48	0xbf116bb0	-0.56804943
49	0xc064ed7f	-3.5769956
50	0xc070e4f0	-3.7639732
51	0xc0b6ee3a	-5.7165804
52	0x3e451b9c	0.19248813
53	0xc077126f	-3.8605
54	0xbec18a92	-0.37801033
55	0xc04851d9	-3.1299956
56	0xc00ebc56	-2.230245
57	0x3fa4efcc	1.288568
58	0xbfe27253	-1.7691139
59	0xbfad86ee	-1.3556802
60	0xbe082a1d	-0.13297315
61	0xc05554e5	-3.3333066
62	0xc070e82d	-3.764171
63	0xc0517a01	-3.2730715
64	0xc00d07e2	-2.2036061
65	0xc0b43cdd	-5.6324296
66	0xc067f176	-3.6241126
67	0xc0657620	-3.5853348
68	0xc05e7a91	-3.4762309
69	0xc0aab964	-5.3351307
70	0xc0003386	-2.0031447
71	0xc0689d41	-3.634598
72	0xc0691c3d	-3.6423485
73	0xc052e61d	-3.295295
74	0xc00919fd	-2.1422112
75	0xc05acde3	-3.4188163
76	0xc102b604	-8.169437
77	0xc05c1aa4	-3.439126
78	0xbf7e55e9	-0.9934984
79	0xc102e8d9	-8.181848
80	0xc012948f	-2.2903173
81	0xc0647caf	-3.57011
82	0xc0976282	-4.730775
83	0xc02b4cc5	-2.6765606
84	0xc03ef688	-2.983797
85	0xc0b8db95	-5.7768044
86	0xc0db8bd8	-6.860821
87	0xc05c774e	-3.4447818
88	0xc010c77f	-2.2621763
89	0xc0125838	-2.2866344
90	0xc026d65e	-2.606834
91	0xc02f7e28	-2.742075
92	0xc0e776a1	-7.233231
93	0xc05f3783	-3.4877632
94	0xbfea601e	-1.8310583
95	0xc003f9cd	-2.0621216
96	0xc029312c	-2.6436262
97	0xc03b20db	-2.9238803
98	0xc06abb76	-3.6676917
99	0xc0b171a0	-5.5451202
100	0xc0c1e681	-6.0593877
101	0xc01cef8d	-2.452121
102	0xc024b33e	-2.57344
103	0xc018b7f1	-2.386227
104	0xc103c981	-8.236695
105	0xc0b34905	-5.6026635
106	0xc00e603c	-2.2246237
107	0xc0ba58d6	-5.823344
108	0xc00c0cfb	-2.1882923
109	0xc0b24d63	-5.5719466
110	0xc0b490c9	-5.642674
111	0xc0b6118d	-5.6896424
112	0xc05f53fb	-3.4895008
113	0xc0ab3b3e	-5.3509817
114	0xc0ae04b2	-5.438073
115	0xc06093db	-3.5090244
116	0xc0619770	-3.524868
117	0xc0d77f73	-6.734308
118	0xc0608fdf	-3.5087812
119	0xbfe8538a	-1.8150494
120	0xc0581aba	-3.3766313
121	0xc0bbdf2b	-5.870992
122	0xc06c4b87	-3.6921098
123	0xc102ed51	-8.182939
124	0xc034daf9	-2.825865
125	0xc0552dc1	-3.3309176
126	0xc0acfa1e	-5.405532
127	0xc03b0be6	-2.9226012
128	0xc090eec2	-4.5291452
129	0xc1e64654	-28.78434
130	0xc0ad86ef	-5.4227214
131	0xc0912d23	-4.53676
132	0xc0b2ff0b	-5.593633
133	0xc0af98c9	-5.4874005
134	0xc0a15cfb	-5.0426
135	0xc092acd9	-4.5835996
136	0xc0900701	-4.500855
137	0xc0ade055	-5.4336343
138	0xc09103bf	-4.5317073
139	0xc0900b77	-4.5013995
140	0xc091b332	-4.5531244
141	0xc08f3f8a	-4.476506
142	0xc0961575	-4.6901193
143	0xc1f32dc9	-30.397356
144	0xc08f618c	-4.4806576
145	0xc094556f	-4.635429
146	0xc1e8ed55	-29.115885
147	0xc08effbd	-4.468718
148	0xc08df2d0	-4.43589
149	0xc093f668	-4.623829
150	0xc0b45ce3	-5.6363387
151	0xc0b2df2b	-5.589742
152	0xc091dff6	-4.558589
153	0xc08f6313	-4.480844
154	0xc08e068a	-4.438298
155	0xc08d5369	-4.416432
156	0xc0b36816	-5.606456
157	0xc094d376	-4.650813
158	0xc08de680	-4.434387
159	0xc08e1cc9	-4.441014
160	0xc08f5e61	-4.480271
161	0xc09252cd	-4.5726075
162	0xc1d7cea1	-26.975893
163	0xc0afeb2d	-5.497458
164	0xc195e6c6	-18.737682
165	0xc0937d5f	-4.609054
166	0xc08f8934	-4.4854984
167	0xc08e3a8c	-4.444647
168	0xc0b4c80d	-5.6494203
169	0xc0b1e133	-5.55874
170	0xc08f6206	-4.4807158
171	0xc0927b04	-4.5775166
172	0xc08fd3d4	-4.494608
173	0xc0b47092	-5.6387415
174	0xc0926081	-4.5742803
175	0xc090cd47	-4.5250583
176	0xc08f4e15	-4.4782815
177	0xc0b13759	-5.5380063
178	0xc0b1e4be	-5.5591726
179	0xc0b31719	-5.5965695
180	0xc1eaa05c	-29.3283
181	0xc0b49ac1	-5.643891
182	0xc0930d66	-4.5953856
183	0xc0903e96	-4.50764
184	0xc0b3757e	-5.6080923
185	0xc09292dc	-4.580427
186	0xc0b1487d	-5.5400987
187	0xc0b56cfc	-5.6695538
188	0xc09348e5	-4.6026483
189	0xc0b14f9b	-5.5409675
190	0xc0b1620d	-5.543219
191	0xc0949b5a	-4.643964
192	0xc09144d9	-4.5396543
193	0xc1e71a34	-28.887794
194	0xc0b30e8f	-5.595527
195	0xc08f72a3	-4.4827437
196	0xc0b1cabd	-5.5559983
197	0xc0b3d291	-5.619454
198	0xc0a26045	-5.0742517
199	0xc092856f	-4.5787883
200	0xc0939316	-4.611705
201	0xc0b2404f	-5.57035
202	0xc08e2625	-4.4421563
203	0xc093fd61	-4.62468
204	0xc0931e27	-4.5974307
205	0xc08f944e	-4.4868536
206	0xc0971034	-4.720728
207	0xc1f301f1	-30.375948
208	0xc094636a	-4.6371355
209	0xc094bd98	-4.648144
210	0xc1e91182	-29.133549
211	0xc092bcf5	-4.585566
212	0xc092cf31	-4.587792
213	0xc08e7ede	-4.4529867
214	0xc0b244c3	-5.570894
215	0xc0b569f3	-5.6691833
216	0xc08dcbae	-4.4311132
217	0xc092e9f5	-4.591059
218	0xc08d6e50	-4.419716
219	0xc0938db9	-4.61105
220	0xc0aded48	-5.435215
221	0xc08eeef8	-4.466671
222	0xc08d0d75	-4.4078927
223	0xc08d8836	-4.4228773
224	0xc0944892	-4.6338587
225	0xc08d665f	-4.4187465
226	0xc1d9b3c1	-27.21277
227	0xc0b03494	-5.506418
228	0xc1951bd8	-18.638596
229	0xc0947c67	-4.640186
230	0xc08f5d52	-4.4801416
231	0xc093e10b	-4.621221
232	0xc0afbce1	-5.4918065
233	0xc0af1f3e	-5.4725637
234	0xc08e4355	-4.4457192
235	0xc08de7b0	-4.434532
236	0xc09333fd	-4.600096
237	0xc0b323f7	-5.5981402
238	0xc08e608c	-4.4492855
239	0xc093ca2c	-4.618429
240	0xc09214c2	-4.565034
241	0xc0adf0ff	-5.4356685
242	0xc0ae02d7	-5.4378467
243	0xc0b086e0	-5.516464
244	0xc1e90d2e	-29.131435
245	0xc0b597c8	-5.674778
246	0xc095299a	-4.6613283
247	0xc08f89a1	-4.4855504
248	0xc0b32a1d	-5.598891
249	0xc08e2609	-4.442143
250	0xc0afb538	-5.4908714
251	0xc0b1dad7	-5.557964
252	0xc090a557	-4.520183
253	0xc0aefb48	-5.468174
254	0xc0b09ffc	-5.5195293
255	0xc08eb0f0	-4.459099

critic.fc2.bias f4 [64]
0	0x3f7bf088	0.98413897
1	0x4160e93a	14.05694
2	0xc1a0a5ac	-20.080894
3	0xc1a2c887	-20.347914
4	0xc1a42014	-20.515663
5	0xc0e7cca8	-7.2437325
6	0x409c38ca	4.8819323
7	0xc17b7ac5	-15.717473
8	0xc170e1a7	-15.055091
9	0xc1b137ba	-22.15221
10	0xc1b1274e	-22.144192
11	0xc0ae323c	-5.443632
12	0xc1a11f87	-20.140394
13	0xc19b1746	-19.386364
14	0xc1b0e1d2	-22.110264
15	0xc1b244bf	-22.283567
16	0xc1ae1bb3	-21.763525
17	0xc20cfbbe	-35.245842
18	0xc19f1f05	-19.890146
19	0xc16fc90a	-14.986582
20	0x416cff98	14.812401
21	0xc1a35d28	-20.420486
22	0xc1a3ff35	-20.499613
23	0x4104d5fb	8.302241
24	0xc06ff929	-3.7495825
25	0xc1a267f3	-20.300756
26	0xc118fcf5	-9.561757
27	0xc1dce266	-27.610546
28	0xc1b2a3b1	-22.329927
29	0xc1a5667d	-20.675043
30	0xc1b1e3ef	-22.236296
31	0xc19bf634	-19.495216
32	0x3f1820aa	0.5942484
33	0xc0c582a2	-6.1721964
34	0xc1b153b2	-22.165867
35	0xc16fd066	-14.988379
36	0x41d32ff8	26.398422
37	0xc1b12f11	-22.147982
38	0xc1b11608	-22.135757
39	0xc16f96f2	-14.974352
40	0xc054b84e	-3.323749
41	0xc1ddf295	-27.743448
42	0xc12c4ce6	-10.768774
43	0xc1addee9	-21.733843
44	0xc1aeb5ad	-21.838709
45	0xc02d8eed	-2.7118485
46	0xc13c56ce	-11.771193
47	0x408b65d5	4.3561807
48	0xc1a1678a	-20.175556
49	0xc0d2e787	-6.5907626
50	0xc1c15ed2	-24.171299
51	0xc0e82202	-7.2541513
52	0xc0be2bec	-5.9428616
53	0xc10598e3	-8.349826
54	0xc1b13c12	-22.154331
55	0xc12dc92f	-10.861617
56	0xc1af60a3	-21.922186
57	0xc12b9ded	-10.726056
58	0xc1af3252	-21.89957
59	0xc1b1bdf1	-22.217745
60	0xc20b5cd1	-34.84064
61	0xc1e69c6a	-28.826374
62	0xc0ac389f	-5.3819118
63	0xc21e899a	-39.634377

critic.fc3.weight f4 [1, 64]
0	0x3f8c68ec	1.096952
1	0xc066f13f	-3.6084745
2	0xc1395595	-11.583394
3	0xc1402fdd	-12.011685
4	0xc153df54	-13.242023
5	0xc09f4388	-4.9769936
6	0xc113242d	-9.196332
7	0x409ac219	4.8361936
8	0xbedd6eb2	-0.43248516
9	0xc19fc951	-19.973299
10	0xc19e6add	-19.80218
11	0x40812ff9	4.037106
12	0xc1317b3b	-11.092586
13	0xc01c1794	-2.438939
14	0xc19f6d37	-19.928328
15	0xc12cbe31	-10.796433
16	0xc12ec0f4	-10.922108
17	0x4045bbb3	3.0895813
18	0xbf9f8805	-1.2463385
19	0x3f38f217	0.722444
20	0x4137f49f	11.497222
21	0xc18083f5	-16.064432
22	0xc0c37818	-6.10841
23	0x3f315b37	0.6927981
24	0xc01984c2	-2.398728
25	0xc131be57	-11.10897
26	0x40a16060	5.0430145
27	0xc0829718	-4.080944
28	0xc132c2cf	-11.172561
29	0xc160a1f3	-14.039538
30	0xc0860c88	-4.1890297
31	0xc085193f	-4.159332
32	0x405f5917	3.4898126
33	0x407e13db	3.969962
34	0xc13186ea	-11.095438
35	0xbf08198b	-0.53163975
36	0x40c7387e	6.225646
37	0xc19de3b1	-19.736177
38	0xc13fe296	-11.992819
39	0xbe0226c7	-0.12710105
40	0xc081f372	-4.0609674
41	0xc0101666	-2.251367
42	0x40f0e36f	7.527763
43	0xc12b8a20	-10.721222
44	0xc11a630d	-9.649182
45	0xbf20e350	-0.6284685
46	0xbf10713c	-0.5642278
47	0x408f51c1	4.4787297
48	0xc14549d5	-12.330525
49	0x40ade576	5.4342604
50	0x3fe0a428	1.7550097
51	0xc03f440b	-2.988528
52	0xc0beaf72	-5.9589167
53	0xbee19bf5	-0.44064298
54	0xc132c81c	-11.173855
55	0x3f051b7c	0.5199506
56	0xc094baff	-4.6478267
57	0x3ee66a6d	0.4500307
58	0xc11d7c44	-9.842838
59	0xc14ef0de	-12.933805
60	0xc10fe56c	-8.993511
61	0x41b8670d	23.050318
62	0xc0a77bfa	-5.233884
63	0xc1b293bc	-22.322136
