model_1.pt (torch, 114732 bytes, 13 tensors)

Actor.fc1.weight f4 [32, 378]
00000000: ebc7 d1bc b909 87bc 464c ea3c 7eb0 693d
00000010: 3aff 08bd d1c6 2a3d 495c d23c c84b fc3b
00000020: 1a36 0b3c f40e 243c c5ad 28bc b8ce 393d
00000030: 9ee3 f4bc 9507 8bbc 0bfc b1bc 38b5 163d
00000040: f0e5 3dbd f6cf 8cbd e279 6c3d 3b70 a4bc
00000050: 8b07 8bbd 2d86 74bd e687 b83d bdd5 b8bc
00000060: 7528 1abd 749a a6bb ae37 32bd 1c15 cd3c
00000070: 663d 123d 7f2f 89bc 9de3 e33c 54a4 34bd
00000080: 08f8 3c3c ac91 113d 2444 6f3c 5f30 3d3d
00000090: 9c91 fc3b 4a77 03bd 7c2d 333d 4922 943c
000000a0: 6c16 283d a175 d93b 2ffd 02bd 6577 37bd
000000b0: 8794 84bc 90c7 f53c 2337 173d 44ca 1631
000000c0: 773b 1814 d06f 2c25 58f7 17b7 fed9 353a
000000d0: d09b 18b9 f97d 1cba 3e20 56b7 992b 1336
000000e0: a22f 22b8 65f8 e13c 1451 413d 9d36 583d
000000f0: 5bd2 213c 7dae e1bc f714 c13b 4569 cfbb
00000100: 1c89 79bb 5806 d8bb 274c 493d 6879 4b3d
00000110: 57c6 b73b 99c9 b03c f090 39bc 3396 103d
00000120: 0a33 83bb 9016 8ebc 7266 f7bc 3fb4 453d
00000130: 909c c3bc 941f f3bc 12d1 c837 58b7 183d
00000140: 5c25 973c 5b1a 8f3c f937 223c 6f44 fdbc
00000150: 7907 0ebd 1c9b 543d a8cd 313d 9dfd 1d3d
00000160: bbf9 1a3d 4356 4ebb a130 8ebb 4090 103d
00000170: 38a9 24bd 224b a1bc b4f6 ce3c 3888 d93c
00000180: 02bc bfbc c763 8cbc a79f abbc 98bf de3c
00000190: 6e0c 973c 5112 793c e5c9 35bd 89e9 353d
000001a0: fad4 8d3c 6526 48bd de6b 4a3d 9633 2a3c
000001b0: 3f8a 84bc 8984 393d 2cc8 dcbc 66f7 27bd
000001c0: d052 043d 0d80 633c e803 833c 6d9a d23c
000001d0: 1a3a 4239 72f6 6b3d 1302 873c b9b9 fb3b
000001e0: ed8c 46bd f1e2 273d 090c 323d f785 773d
000001f0: 3c47 6f3c 5ff3 ae3c 6b64 343b 2a90 a93c
00000200: 698b f2bc 8025 92bb ebbf c6bc 1294 413c
00000210: fdd9 7d3d 4524 063b 594c bc3c f734 13bd
00000220: 937a 81bc 128b a33b a86f 193d e7c1 dd3c
00000230: 72b8 1a3d a5ff 39bd 53b9 41bc 3491 b9bc
00000240: 4c32 bc3c aa21 623b 2137 1b3d ccdd ed3b
00000250: d063 873d 42db a93c 0d7f cdba d8af c1bc
00000260: 283c a9bb e9c7 153d 73f4 edbc aba1 8bbc
00000270: 2c86 5abc 7774 f9bc 5711 393d f937 253d
00000280: c360 6b3c 248a d9bc b90a ec3a e7ec 04bc
00000290: 7ec6 81bd e175 653d 4c33 9c3c f1ed 953c
000002a0: 1387 993c 6991 463d 0644 573b 2278 9abc
000002b0: c7cb 4c3c 33e1 f13c 021c a1bb e851 00ba
000002c0: b190 763d b209 96bc 1f07 b73c 16f1 0a3d
000002d0: 454e ec3c d37e 1bbd a4de 56bd d2eb 323c
000002e0: 00d3 d93c a96e 063c 248e 663d b261 d933
000002f0: 7fd5 2939 a6f5 613a b61c 4bba c5a1 e6b9
00000300: 425b 13b5 71fa 823c 0965 abbc e28c 1fbc
00000310: ab87 aa3c 2255 78bc 2437 2abd 1950 24bd
00000320: c762 56bd 6cb8 03bd 9b00 86bb 2d03 abbc
00000330: ea53 fabc fa2f 373d 15a8 853c f3a8 873c
00000340: 2cf5 d1bc 91d3 97bc 92ed fa3b 1071 0e3c
00000350: acdf bb3c 2daf c2bc 0a48 883c e6c8 c6bc
00000360: e333 43bd e85a 433d 19b8 733d c7fa 633d
00000370: a4c8 a43a 8a29 013c b498 0e3d ab05 f93b
00000380: 658f 8f3d 9fbc 85bc fca6 133d ca23 dcbb
00000390: 6dca b13c 11e9 10bc b0fb 053d 88a3 0bbd
000003a0: a6b0 e83c 10aa fc3c e956 463c 0f73 0ebd
000003b0: cd3d fc3c 0128 d43c 1073 f63c 70f5 07bd
000003c0: 7387 d1bc 4fcd fb3c 79fb 733d 0c61 8a3c
000003d0: 9b80 7738 ea71 213c 81b3 2f3c 1ea1 f1bc
000003e0: 17ee 3d3d 0394 6a3d e27d 94bc ffc8 883d
000003f0: f233 1f3a fee0 1b3d 0c03 4a3d eb38 95bd
-0.025608024 -0.016484128 0.028600823 0.05705308 -0.033446528 0.041693512 0.02567877 0.0076994635
0.008496786 0.010013331 -0.010295336 0.045363158 -0.029893693 -0.016971389 -0.021726629 0.036793917
-0.046361864 -0.06875603 0.057733424 -0.020073047 -0.06788548 -0.059698272 0.090102956 -0.022562856
-0.03763624 -0.00508433 -0.04351013 0.02503448 0.035703085 -0.01674628 0.027818495 -0.044102028
0.011533745 0.035539314 0.014603648 0.04618871 0.0077077877 -0.032096185 0.04374455 0.018082755
0.04103701 0.006636337 -0.031979736 -0.044791598 -0.016184105 0.030002385 0.036917817 2.1942848e-09
7.685766e-27 1.4956505e-16 -9.057891e-06 0.00069370854 -0.00014553894 -0.0005969699 -1.2762901e-05 2.1930084e-06
-3.866817e-05 0.027584264 0.047196463 0.05278646 0.009876813 -0.027549023 0.005892392 -0.006329688
-0.0038076108 -0.006592553 0.04914489 0.04967633 0.0056083607 0.021580504 -0.01132606 0.03529949
-0.004003887 -0.017344743 -0.030200217 0.0482676 -0.023878366 -0.029678144 2.3939214e-05 0.037284225
0.018450432 0.017468622 0.00990104 -0.03091642 -0.034675095 0.051905736 0.04340902 0.038571943
0.037835818 -0.0031484521 -0.004339293 0.035293818 -0.040200442 -0.019689146 0.025264122 0.026554212
-0.023405079 -0.017137421 -0.020950152 0.027190968 0.018438544 0.015202121 -0.044381995 0.04441217
0.01731347 -0.04886474 0.049419276 0.010388276 -0.016179202 0.04529241 -0.026950918 -0.041007422
0.03230554 0.01388551 0.015993074 0.025708402 0.00018522926 0.057608075 0.016480481 0.007682052
-0.04847424 0.040987913 0.04346851 0.060430493 0.014604386 0.021356283 0.0027525674 0.020698626
-0.029607492 -0.0044600368 -0.024261435 0.011815088 0.061975468 0.0020468396 0.022985624 -0.035939183
-0.015805518 0.0049909437 0.03746 0.027069999 0.037773557 -0.045409817 -0.01182397 -0.022652246
0.022973202 0.0034504929 0.037894372 0.0072591063 0.066108346 0.020734433 -0.0015678123 -0.02364342
-0.005164642 0.036567602 -0.029047227 -0.017044863 -0.013337653 -0.030451043 0.045182552 0.040336583
0.0143663315 -0.026555128 0.0018008567 -0.008113123 -0.063366875 0.05602062 0.019067429 0.018301936
0.018741166 0.048478518 0.0032846942 -0.018856112 0.012499756 0.029526329 -0.004916669 -0.00048950175
0.060196582 -0.01831517 0.022342263 0.033921324 0.028845916 -0.037962746 -0.05245842 0.010920482
0.02658987 0.008205094 0.0562879 1.01226206e-07 0.0001619663 0.00086196733 -0.0007748114 -0.00043989546
-5.4894565e-07 0.01598856 -0.0209222 -0.009738179 0.020816645 -0.015157016 -0.041556492 -0.04011545
-0.052340295 -0.0321583 -0.0040894276 -0.020875538 -0.030557591 0.04472349 0.0163155 0.016560053
-0.025629602 -0.0185335 0.007657715 0.008693948 0.022933803 -0.023765171 0.016635913 -0.024265718
-0.047656905 0.047694117 0.05950174 0.05565908 0.0012572003 0.007883439 0.034813598 0.0075995526
0.07009772 -0.016325293 0.03604792 -0.0067181336 0.02170297 -0.00884463 0.03271073 -0.034091502
0.028404545 0.03084281 0.012105682 -0.034777697 0.030791188 0.025897982 0.030084163 -0.03319305
-0.025577283 0.030737547 0.059565995 0.016891979 5.9009162e-05 0.009853819 0.010723949 -0.029495772
0.04636964 0.05727006 -0.018126432 0.06678962 0.0006073109 0.038056366 0.049319312 -0.07286247

Actor.fc1.bias f4 [32]
00000000: 30d5 7b3d f6be ff3c 68ed e8bc 94e0 8e3d
00000010: 4d58 bc3d 6bc5 8fbc e170 cb3d 2898 88bb
00000020: e184 05bd f3a8 b93c 96d4 d63c 7645 d0bc
00000030: 59e1 bc3d d449 6c3d 8c5a 0cbc 6d48 2abc
00000040: fdc3 2039 40ef af3c 6f46 2b3d 7e35 a13d
00000050: 53c7 3b3a 0678 063b 5d31 4bbb f2d4 ab3c
00000060: 3451 2bbb 3020 b93c 45e2 163d 18c5 bf3d
00000070: 931b d63b f41a 303d 1795 f9bc 29cf af3d
0.06148261 0.031218987 -0.028433517 0.06976429 0.091965295 -0.01755019 0.09933639 -0.004168529
-0.032597426 0.02266357 0.026224416 -0.025423747 0.09222669 0.057687595 -0.00856651 -0.010393244
0.000153318 0.021476388 0.041815218 0.07871531 0.00071631855 0.0020518317 -0.0031004765 0.020975564
-0.002614093 0.022598356 0.03683688 0.093637645 0.006534049 0.042994455 -0.0304666 0.085844345

Actor.fc2.weight f4 [32, 32]
00000000: 634d 0bbd 93d9 063e 84a6 7b3c c750 543e
00000010: bfe6 4abd 5a05 babd 4963 c03d db26 103e
00000020: 9929 59bd a284 d13d f3d9 2abe 18af 383e
00000030: 2771 13bc 4613 95bd 8327 283e e624 bd3c
00000040: c91a 1f3e d2c2 1cbd a4b4 15be 92d7 163e
00000050: 0c7a 96bd c689 233e 9db3 c8bd 99d7 05be
00000060: 256d 2f38 1cbd f4bc f78c 1a3e 3595 ba3d
00000070: d120 0bbd 2c6f ee3d 2a79 0dbe 1cec 4b3e
00000080: 6277 e13d 3b17 04be 80bb 8e3c 6a13 153e
00000090: 3543 5d3e 235e cf3d 3027 a23d ce9c f93d
000000a0: 3c68 2a3e 287e 1f3e d0d9 cf3d 4e1f 06bd
000000b0: a69e 1abd 1f49 29be 6061 df3d 75a2 863d
000000c0: 00a3 c4bc 0036 173e 9618 963c ab24 b93c
000000d0: 89a9 d4bd c291 c33d 024e debd b16a 81bd
000000e0: c76c f13c e6ca 083e aaa5 ee3d 6ebe 2f3e
000000f0: b0de 54bd 7e61 ebbc ff9d 083d d2d4 d83d
00000100: 515c 163e bcec bcbd 45a5 e6bc 0e4f 273e
00000110: 268b 1b3d f05e 33bd 2883 4d3e 0e01 003d
00000120: 10c1 993d a46e c9bd 5933 31bc 7b67 0c3e
00000130: 5146 a2bd 6af1 81bd de75 61bd 09d4 adbd
00000140: eeb0 61bd fec9 11be c921 7fbd ece1 4b3e
00000150: 7c0b 753d 0bbf fbbc 5f05 0f3e 9f25 233e
00000160: e55e 66bc cb1f 843d edd4 c83d 7c6d a23d
00000170: ff3f 91bc 97de 8e3d a337 cb3d cba1 723d
00000180: fc0d 10be 4aea 81bc 815f ef3d 6e9b 6a3d
00000190: 6861 36bc 1ebf 5f3d 8afe 83bc 49b3 12be
000001a0: 8cb8 f93d 27fc 8b3d 440e d23d 8130 4d3b
000001b0: 8d5d 923d efcd 183d 85dd 11bd c654 a83d
000001c0: 6c7a 2f3e d069 7fbd 6697 453d f867 8b3d
000001d0: 6970 d4bd a5fc a9bd 5f22 c73c 3f15 f1bd
000001e0: 638a 56bc 36ba 1bbe 9d11 c4bd b502 303e
000001f0: 0659 0837 32b7 a93d e36d 08be 62d4 5f3e
00000200: 4239 ad3d 43c7 bf3c 953f 0abe fbd9 2c3e
00000210: 4419 dd3d 293c a1bd 60c8 ad3d f7ed aabb
00000220: 89b1 1c3e 3dc2 d43d 6dbb e13d 61ce 8abd
00000230: 3d30 523e b16d d73d 179d 4bbd bda1 9f39
00000240: a255 4dbd d0ec c1bd 3714 903c fbc1 153e
00000250: 4ac4 ed39 7fde 51bd 9345 24bd f40a b7bd
00000260: 42f3 38bd 10f5 623d b1cb 9ebd 8e45 aebd
00000270: 38ec c3bd 720c 17be d1af 1d3e d6bd 603e
00000280: 097a a0bd cb7d 84bc b33d 6c3d d0cb 22bc
00000290: 0e7f dabd 0af9 fbbd cfb1 383e 45db df3d
000002a0: 9ed8 0c3e 0c7d eebd 56e0 b93d 4c58 033e
000002b0: f0f9 193e 083a 373e 9560 e83d b8ec d13d
000002c0: d4d0 ebbc 0d50 873d c57c e73c 1883 373e
000002d0: fbb8 8abd b2c3 d43d 6099 9f3d f7cd 95bd
000002e0: 78de b53d 53e8 d1bd 40d8 413e 7461 1f3e
000002f0: 8b2f 353c 0bfa 113e bd61 ddbd e5d5 3e3e
00000300: dbe3 303d d64c e53d e867 e2bd 18f2 d53d
00000310: fbab 3b3e 5d39 143e 3f8f 1e3d d565 ad3d
00000320: 80aa e73d b61c 07bd 20ac 2ebb 9875 e8bc
00000330: bd8c dbbd 0717 033e 9be8 123e d13b 81bd
00000340: 314a 0ebe 552f 1b3e 320f 043e 3b9e 3a3e
00000350: 1106 debc 85b8 cebd 1da2 abbd 5da5 5ebd
00000360: cf56 84bc 9ae8 1cbe 3542 8abd d74a 0cbd
00000370: 31ed 3ebd bec4 9c3d c9fd 06bd 0c61 253e
00000380: 4067 50bd 44e8 b63d 35b2 8cbd a00b 0d3d
00000390: 032c 6e3d 6c52 343d e42a e5bd e27b 0bbe
000003a0: 5f17 b23d dc3f f73c dacd dfbd 648a 163e
000003b0: df42 2a3e 988c 053d f21f 193e de6a b83c
000003c0: 6f59 003d cb7a 1d3e 9c4f 113e c61a d33d
000003d0: 20b3 14bc cfc8 933d dfec 73bd fc54 c6bd
000003e0: 9dde 7bbb 8ae7 0fbe 5c02 1fbb 184b eb3d
000003f0: 9322 c43c ca64 ebbd 44b3 263e 3e84 953d
-0.03400935 0.13168935 0.015359525 0.20733939 -0.049536463 -0.09083052 0.09393937 0.14077322
-0.053018186 0.10230376 -0.16684704 0.18035543 -0.008999146 -0.07279067 0.16421323 0.023088884
0.15537561 -0.038271733 -0.1461969 0.14730671 -0.07347497 0.15970525 -0.097998835 -0.13070525
4.18249e-05 -0.02987533 0.15092836 0.0911049 -0.033966843 0.11642298 -0.13815752 0.19914287
0.110090986 -0.12899487 0.017423391 0.14558187 0.21607669 0.10125377 0.07917631 0.12188111
0.16641325 0.15575469 0.10148966 -0.0327447 -0.037748955 -0.165318 0.10907245 0.06573955
-0.024003506 0.14766693 0.01832227 0.022600492 -0.10383899 0.095492855 -0.108547226 -0.06319178
0.029470814 0.1335865 0.11652692 0.17162487 -0.051970184 -0.028733011 0.0333538 0.10587467
0.14683653 -0.09224841 -0.028154979 0.1633875 0.0379745 -0.04379171 0.20069563 0.031251006
0.07507527 -0.09835556 -0.010815465 0.1371135 -0.07923568 -0.06344874 -0.055044048 -0.08487708
-0.055100374 -0.1423721 -0.06228808 0.19910401 0.059825405 -0.030730745 0.13966893 0.1593232
-0.014060711 0.064513765 0.09806237 0.07931039 -0.017730711 0.069760494 0.09922721 0.05923633
-0.14067835 -0.015858788 0.11688138 0.057277136 -0.011131622 0.054625623 -0.016112585 -0.14326204
0.12193403 0.068352036 0.10256627 0.0031309428 0.0714675 0.03730577 -0.035611648 0.08219294
0.17136544 -0.06235677 0.048240088 0.0680694 -0.10373003 -0.08300141 0.024308382 -0.117716305
-0.013094517 -0.15207753 -0.09573672 0.17188533 8.126959e-06 0.08286895 -0.13323168 0.21858361
0.08458187 0.023410445 -0.13500817 0.16880028 0.10795835 -0.07872803 0.08485484 -0.005216356
0.153021 0.103886105 0.11022077 -0.06777645 0.20526214 0.10518969 -0.04971036 0.00030447348
-0.050130494 -0.094689965 0.017587764 0.14624779 0.0004535041 -0.05123758 -0.040105414 -0.08937636
-0.045153864 0.05540949 -0.07753695 -0.0850936 -0.095665395 -0.14750841 0.153991 0.21947417
-0.07835776 -0.016173264 0.05767603 -0.009936288 -0.10668765 -0.1230336 0.18036579 0.10930494
0.13754508 -0.116449445 0.09075992 0.12826651 0.1503675 0.17893231 0.113465466 0.10250229
-0.0287861 0.06607065 0.028257737 0.17921102 -0.067735635 0.103888884 0.07792926 -0.07314675
0.08880323 -0.102493905 0.18930149 0.15564519 0.011058698 0.1425554 -0.10809658 0.18636282
0.04318605 0.11196296 -0.11054975 0.10446566 0.18327324 0.14475007 0.03871083 0.084666885
0.11311817 -0.032986365 -0.0026652887 -0.028376386 -0.10720203 0.12801753 0.14346544 -0.06310237
-0.1389549 0.15154774 0.12896422 0.18224423 -0.027102502 -0.10093788 -0.0838053 -0.05435692
-0.016154675 -0.15323105 -0.06750909 -0.03425106 -0.046612922 0.07654713 -0.032956872 0.16150302
-0.050879717 0.0893102 -0.06869928 0.034434915 0.05814744 0.044023916 -0.11189821 -0.13621476
0.08695864 0.030181818 -0.10927935 0.1470123 0.16627072 0.032604784 0.14953592 0.022511896
0.03133529 0.15378873 0.14190525 0.10307841 -0.00907591 0.072160356 -0.05955207 -0.09684178
-0.0038432248 -0.14053169 -0.002426288 0.11488932 0.023942268 -0.11493833 0.16279322 0.07300614

Actor.fc2.bias f4 [32]
00000000: 25b4 8dbd 6951 be3d aa60 c5bd 48c1 d13c
00000010: 2069 a13c ef1f 3d3e 72f2 aa3d bf40 06be
00000020: a74d f3bd eed0 dd3d eafb d23d 9381 213e
00000030: 6528 cf3c 9e5f dd3d e204 ab3d 5635 f63c
00000040: c313 41bd 2a1a 9d3d 3c0e 9bbc e07c 90bd
00000050: ccfb fabc 0cdf 85bd d447 08be 6e7c a9bc
00000060: 6a38 393e ec05 05bd 6600 0d3e a802 2c3e
00000070: 8982 133e db2c 0dbe a26f 6cbd 3359 a83c
-0.069191255 0.092928715 -0.09637578 0.025604859 0.019703448 0.18469213 0.08347024 -0.13110636
-0.118800454 0.10830866 0.10301955 0.15772085 0.025287816 0.10809253 0.08350541 0.03005473
-0.047137987 0.07671006 -0.018927686 -0.07055068 -0.030637644 -0.065366834 -0.1330865 -0.020689216
0.18087927 -0.03247635 0.13769683 0.16797888 0.14405264 -0.13786642 -0.05772365 0.020550346

Actor.mean_fc3.weight f4 [17, 32]
00000000: 62c5 b314 acc2 7c12 c016 f614 daa8 a794
00000010: 3db4 5395 d153 7394 74ec 6914 b073 1193
00000020: 424b 6513 0afb 0a13 2acd 5995 9f6d f113
00000030: a0d3 4b11 82fd 1b15 b20b 7a14 08b6 8195
00000040: e35a 3713 c263 4513 70ea 1012 aef5 8b15
00000050: 01aa 3194 5df1 5b13 178e 7b95 5050 4e15
00000060: 4753 7115 4b66 4a13 6d50 6894 71a6 7015
00000070: d6f3 f093 bb8e 4c94 17cc a214 1b58 cd94
00000080: e3b9 3313 1824 ce94 3407 5215 9eb5 2194
00000090: beee 4915 8e93 a614 1ddc 7593 c4cc c912
000000a0: aa31 4914 c9ca da94 b562 8a94 00d7 2f92
000000b0: 0430 8e15 97e0 c514 c06c a494 78eb 8e15
000000c0: f2b5 e413 469c be14 02bf 7115 1357 4914
000000d0: 5f9f 1d94 bfff 0815 d956 9394 9870 4013
000000e0: deb6 3a13 dd5a 8415 f68d a314 28ae b512
000000f0: 38ee 0f95 ff80 8994 ac35 5994 90ad 8793
00000100: ba97 c614 4225 ff94 4920 6794 5c93 b313
00000110: 5eb5 5595 219f 3815 9aef c414 2445 c612
00000120: 41c0 cf94 7bcf 1014 a72f 1795 85e3 2615
00000130: a20a 9795 f638 4a14 bc29 0795 93f6 8b95
00000140: 9ab7 7914 79d2 b114 d701 2c14 8c38 cf93
00000150: 5da4 5d14 b4f4 3a15 d8e2 ed94 4e50 5493
00000160: e043 fd13 5d8a 2c93 f0b7 e693 91b5 6b95
00000170: ff8b 3695 76b9 3495 349a f114 ac29 8111
00000180: d19c 8914 e5f2 de13 ed03 9214 a869 7313
00000190: ee86 9893 de60 3a14 b351 1515 a360 6994
000001a0: 5456 f894 64b7 2615 cf20 4b95 859b b514
000001b0: d047 1313 f861 2315 08f5 cd92 ac4c 8614
000001c0: 073c 0395 e106 1a15 d181 8094 1332 4512
000001d0: 2d6d 8315 9749 c294 142a 3c94 a1e1 8495
000001e0: b495 8412 0522 f994 d680 8695 b53e 0115
000001f0: ca7c 4815 bbe8 4b95 e735 1295 3b0c 1a14
00000200: ee9d 7515 911b 6015 e990 4514 eea1 6e14
00000210: 68ad 4215 f4f4 0a15 8855 b192 e6b4 ad13
00000220: 1630 8a95 fe6c 8714 94b0 6e15 8426 6095
00000230: b635 0e95 500f 7312 f9f7 8694 fb59 4514
00000240: a8bf c594 5cbd db94 d059 7913 8e7c 8c94
00000250: f53d bc13 a5b9 7014 c486 9194 981b d914
00000260: 04b5 6f13 6e4a d394 b4e6 5f14 846c 6195
00000270: b441 7414 5f14 3b15 3ce9 0a13 1252 5394
00000280: 4e90 d794 8549 7195 f317 5614 68f7 6294
00000290: 14a1 5495 1406 4213 360c 1014 407d e994
000002a0: a67a 9192 9e59 1c95 b478 8894 1ae4 9615
000002b0: 20e3 b012 48e3 1295 d4a1 0514 f002 2b14
000002c0: 1313 1113 6068 db11 877e 7695 20e7 e491
000002d0: 1f6e 6495 fabf 0394 df57 3415 6b89 3b15
000002e0: c083 9e92 981f 8895 918e 3b15 62c2 0895
000002f0: df47 8495 a257 9493 f67e 5514 0a8c 8715
00000300: e682 2215 1518 7194 6394 1895 d2c5 1795
00000310: 82f6 a694 edd7 7694 b59b 1c95 1c2d dc14
00000320: 90fd 1815 66c6 1794 12b1 c114 c118 4594
00000330: be20 e513 3087 a114 04a9 be94 a07f cc12
00000340: dc74 f892 2e45 ff93 7380 2615 7b8e 6394
00000350: cc47 7d15 c19e 6a14 5299 9813 a233 1495
00000360: 76d4 d614 a075 0714 9748 ec12 5704 f094
00000370: 5c2a 9f13 958f 4d95 a8ba d893 1aa6 2a13
00000380: e50e 9f14 8250 9915 fabf 3c95 3b66 de14
00000390: 80d4 e313 6529 1e15 5c46 7c14 2341 d214
000003a0: 2702 d014 ac10 1a95 ef69 5b94 f811 bc11
000003b0: 8154 8715 2af0 3015 36ca e194 aaba 9694
000003c0: b5c8 2915 b6b9 5014 ee9c 8394 6060 7494
000003d0: 6037 ca13 c261 3715 08ad 1d95 0de7 d013
000003e0: 57cc 9a92 4595 0514 32a1 b014 4606 e514
000003f0: b84a 1c94 35a9 ff14 3072 8695 d74d 4b15
1.8152235e-26 7.975713e-28 2.4848625e-26 -1.6929291e-26 -4.2753294e-26 -1.2284895e-26 1.1810126e-26 -1.8358611e-27
2.8940969e-27 1.754182e-27 -4.3984647e-26 6.0945048e-27 1.6079088e-28 3.1501983e-26 1.2624081e-26 -5.238988e-26
2.3142658e-27 2.491408e-27 4.5727355e-28 5.652927e-26 -8.969744e-27 2.7760687e-27 -5.0801135e-26 4.1664724e-26
4.8735257e-26 2.5546419e-27 -1.1728868e-26 4.8598913e-26 -6.082496e-27 -1.03275166e-26 1.6438319e-26 -2.0734462e-26
2.2684626e-27 -2.0814921e-26 4.2414845e-26 -8.1642404e-27 4.077996e-26 1.6819917e-26 -3.1031872e-27 1.2735362e-27
1.0157701e-26 -2.209236e-26 -1.3973372e-26 -5.548527e-28 5.74291e-26 1.9980502e-26 -1.6602662e-26 5.772485e-26
5.7734704e-27 1.9246736e-26 4.882024e-26 1.0165079e-26 -7.957905e-27 2.766673e-26 -1.4877462e-26 2.428932e-27
2.3566661e-27 5.345773e-26 1.6514788e-26 1.1465639e-27 -2.906654e-26 -1.3884345e-26 -1.0966285e-26 -3.4249937e-27
2.0052736e-26 -2.5763116e-26 -1.1668887e-26 4.533126e-27 -4.315808e-26 3.7284035e-26 1.9885449e-26 1.2512601e-27
-2.097749e-26 7.3110604e-27 -3.0531798e-26 3.3702914e-26 -6.100519e-26 1.0209627e-26 -2.7295956e-26 -5.653068e-26
1.26074964e-26 1.795545e-26 8.684144e-27 -5.2309906e-27 1.11900636e-26 3.7755438e-26 -2.4020359e-26 -2.6797755e-27
6.393311e-27 -2.177767e-27 -5.824154e-27 -4.7601103e-26 -3.6865045e-26 -3.6497013e-26 2.4395604e-26 2.0378294e-28
1.3895318e-26 5.628019e-27 1.4743781e-26 3.0723005e-27 -3.8503245e-27 9.409704e-27 3.015476e-26 -1.1782552e-26
-2.5075651e-26 3.3668103e-26 -4.1021405e-26 1.8337671e-26 1.8589415e-27 3.2994872e-26 -1.2997724e-27 1.3560784e-26
-2.6502593e-26 3.110548e-26 -1.29759e-26 6.222396e-28 5.308273e-26 -1.961802e-26 -9.499873e-27 -5.3670355e-26
8.367276e-28 -2.5155993e-26 -5.4325436e-26 2.610081e-26 4.048812e-26 -4.1179115e-26 -2.9526987e-26 7.777425e-27
4.960194e-26 4.5258186e-26 9.974537e-27 1.2047864e-26 3.931478e-26 2.8062112e-26 -1.11913555e-27 4.384972e-27
-5.581362e-26 1.3674506e-26 4.8203013e-26 -4.5266823e-26 -2.8719042e-26 7.6696154e-28 -1.362835e-26 9.963704e-27
-1.9967512e-26 -2.2188038e-26 3.14725e-27 -1.4185516e-26 4.7518966e-27 1.21535154e-26 -1.4694414e-26 2.1922284e-26
3.0255289e-27 -2.1334913e-26 1.1304121e-26 -4.5523992e-26 1.23318096e-26 3.778042e-26 1.7533042e-27 -1.0668963e-26
-2.176637e-26 -4.872756e-26 1.0808962e-26 -1.14588764e-26 -4.2940127e-26 2.448924e-27 7.27255e-27 -2.357639e-26
-9.181022e-28 -3.1574645e-26 -1.37801e-26 6.09444e-26 1.1163152e-27 -2.966376e-26 6.746699e-27 8.633873e-27
1.8310977e-27 3.4616434e-28 -4.9779117e-26 -3.61145e-28 -4.6131104e-26 -6.6516705e-27 3.642003e-26 3.7872753e-26
-1.0003681e-27 -5.497981e-26 3.7876814e-26 -2.7618322e-26 -5.342777e-26 -3.7446865e-27 1.07787905e-26 5.474701e-26
3.28189e-26 -1.217214e-26 -3.0813212e-26 -3.065026e-26 -1.6858947e-26 -1.246241e-26 -3.162678e-26 2.2232116e-26
3.089618e-26 -7.662679e-27 1.9557862e-26 -9.95084e-27 5.7840013e-27 1.6310168e-26 -1.9251762e-26 1.2905672e-27
-1.5679808e-27 -6.4439266e-27 3.3624762e-26 -1.14886705e-26 5.114958e-26 1.18452896e-26 3.852138e-27 -2.9929093e-26
2.1692279e-26 6.838956e-27 1.4911589e-27 -2.4235519e-26 4.0179012e-27 -4.1512687e-26 -5.4710123e-27 2.1538911e-27
1.6060772e-26 6.1923227e-26 -3.811774e-26 2.2456594e-26 5.7512397e-27 3.19405e-26 1.2736625e-26 2.1230273e-26
2.1003482e-26 -3.1113204e-26 -1.1077566e-26 2.9672244e-28 5.465939e-26 3.5732373e-26 -2.2798952e-26 -1.5219755e-26
3.4287608e-26 1.05379414e-26 -1.3289518e-26 -1.23378585e-26 5.1046573e-27 3.7033673e-26 -3.1842395e-26 5.2734416e-27
-9.76914e-28 6.744222e-27 1.7835039e-26 2.3125565e-26 -7.890723e-27 2.581516e-26 -5.4302325e-26 4.1056928e-26

Actor.mean_fc3.bias f4 [17]
00000000: 2c92 4d15 ddea 0515 d9a9 f814 90d3 3693
00000010: 3179 2e15 1e40 4515 92e8 3793 50de 1694
00000020: 5145 9a93 6edc ae94 daaf 8e14 8aa0 1295
00000030: 6cd4 1c14 b51f 5195 f085 1493 80b4 de10
00000040: 13c5 3515
4.151473e-26 2.704441e-26 2.5108594e-26 -2.3075938e-27 3.5234623e-26 3.9834413e-26 -2.3212513e-27 -7.616908e-27
-3.8943417e-27 -1.7656454e-26 1.4407697e-26 -2.9611108e-26 7.91788e-27 -4.2232226e-26 -1.8746263e-27 8.7841665e-29
3.6708123e-26

Actor.log_std_fc3.weight f4 [17, 32]
00000000: 193a 7abc 9407 43bc 99dd 8bbd 6d2d 1cbc
00000010: eb54 5ebc 23e6 57bc b7e7 4fbc 6871 19bd
00000020: c0c2 1ebc 071e a1bd 4f40 57bc 6da1 9cbd
00000030: 4211 08ba f6c6 6ebc 9fe2 b7bc 6a39 42bc
00000040: 1a17 85bc e764 68bc e548 94bd 879b 26bc
00000050: 1c49 44bc a874 7dbc d156 45bc 44bd 2cbc
00000060: c602 3cbc ac7a 0dbc 92e8 16bc 30b8 00bd
00000070: 3002 0dbc 9408 6fbc d173 82bc af40 70bc
00000080: aa78 98bc 9c5f febb debb 9dbd f5a7 37bc
00000090: 3912 b5bc ee42 c1bb 329d 40bc 505e 63bd
000000a0: 1b49 2ebc 69fa 9fbd 1ea6 30bc 05f8 95bd
000000b0: ca6e 2fba 0ea1 43bc ccf7 1abd 563a 19bc
000000c0: 7704 86bc 9ceb 0abc dc05 92bd e519 c0bb
000000d0: eb82 19bc 44e3 52bc 7efc 3ebc 7ccd 0dbc
000000e0: a2e1 d0bb ef78 20bc f33e e1bb 1ca4 18bd
000000f0: 6b1d bbbb 3166 1dbc 574d 57bc ed52 61bc
00000100: 0774 58bc 9577 20bc e80f 95bd 911c 61bc
00000110: daca 57bc 71c4 53bc fe9f 27bc 3000 52bd
00000120: c6ed 6cbc 94cb a2bd 6d3e 4fbc 8c4b 95bd
00000130: 52ea c7bb d6e4 23bc c501 16bd 0929 f1bb
00000140: 52de 51bc dfb3 58bc 6e0c 89bd 18e5 2bbc
00000150: 0046 60bc 40ba 86bc a898 53bc 3a0d 0cbc
00000160: 1f2c 1bbc 81a4 29bc 6b93 e8bb 0ac8 13bd
00000170: d780 48bc d1d0 57bc 31d3 20bc 2bf4 65bc
00000180: 3bf1 b6bc 78da 0abc fbf3 93bd fcbe 5fbc
00000190: b9ed e1bc a667 07bc be39 0dbc 3b60 65bd
000001a0: 2b36 55bc 611b 94bd fd32 17bc 6b8f 91bd
000001b0: 53f4 99bb b6c0 15bc 648d 22bd 3b94 cdbb
000001c0: db1f 6dbc d6ab edbb 15a0 94bd 2c2b 20bc
000001d0: 62d0 2dbc 28bd 4abc df94 1abc 9dd1 c7bb
000001e0: 84b9 0bbc 212d 28bc fc2c c7bb 0271 13bd
000001f0: 2640 06bc 4fce 16bc 0972 4cbc 2729 84bc
00000200: 62f5 92bc 43b0 3abc 0cf2 90bd 58fd 65bc
00000210: 12d6 88bc 7f9e 40bc f66b 34bc ce49 62bd
00000220: 7c39 62bc 1e13 9fbd 9783 03bc dcf0 8ebd
00000230: a9cd 0bbb 0c71 31bc 4a97 1fbd 7212 f5bb
00000240: 1fbd 68bc 23f4 27bc 6355 8abd ef21 e2bb
00000250: 0d97 56bc 2928 52bc 7877 47bc e295 2bbc
00000260: 2d3b 08bc 0c17 1fbc aad1 04bc 38d4 09bd
00000270: 6fda f4bb bbea 82bc 6373 72bc ac67 4abc
00000280: 10c8 b4bc 8c2c c4bb 99be 99bd 1324 4dbc
00000290: c2e4 cfbc 5769 28bc ea03 1cbc f088 68bd
000002a0: 10bd 20bc e504 93bd aaef a4bb 3602 94bd
000002b0: 9f41 8eba 6574 4bbc 8cea 12bd 19bd 02bc
000002c0: b963 89bc e321 23bc 7535 9ebd b66b 12bc
000002d0: 6fc7 f8bb f9ab 41bc 09a3 22bc 0592 9ebb
000002e0: e385 87bb b1d8 1abc 19fe eebb f9af 1bbd
000002f0: 4ed3 00bc b387 35bc 5a22 28bc ac70 6abc
00000300: f48d e4bc 056e 16bc 3b7c 9abd 3188 3cbc
00000310: 773c 5bbd c95c 05bc 84e5 3bbc fd55 f8bc
00000320: b343 83bc cc06 a1bd 88f2 00bc 5521 8fbd
00000330: fec4 2aba a164 68bc 9594 b2bc d3bc f5bb
00000340: a6f3 59bc 7e10 17bc 104a 8cbd 6f77 f2bb
00000350: 067b 4cbc 2059 59bc 78df 14bc 81a7 d6bb
00000360: 46ca a5bb 6c0a 27bc e887 9abb f5f0 f5bc
00000370: eb8a 17bc 17fa 1abc b265 76bc 8aa3 7ebc
00000380: cbfe 4cbc a28f 4cbc 7aba 94bd 7741 57bc
00000390: 68d1 95bc 7fd8 17bc 6257 15bc e167 63bd
000003a0: c946 4cbc 25e8 a6bd 2c9c 2bbc 56f2 8ebd
000003b0: e481 c1bb dd51 5fbc f90f 23bd 1346 0fbc
000003c0: f1f0 3bbc fcb9 4abc 4bc5 8abd c505 03bc
000003d0: 2fee 2dbc ae24 56bc c786 5fbc 688a 44bc
000003e0: fc11 d6bb 95be 0abc 4766 18bc 2014 16bd
000003f0: de1b 29bc a001 6abc 7936 5abc fbe2 68bc
-0.015272641 -0.011903662 -0.06829376 -0.009532315 -0.013570051 -0.013177427 -0.0126895225 -0.03746167
-0.009689987 -0.078670554 -0.013137891 -0.07647977 -0.000519056 -0.014573803 -0.022446929 -0.011854509
-0.016246367 -0.014184213 -0.07240466 -0.010168917 -0.011980321 -0.015469708 -0.012044624 -0.010543171
-0.011475271 -0.008635204 -0.0092107225 -0.031425655 -0.008606479 -0.0145894475 -0.015924366 -0.014663859
-0.018612225 -0.0077628624 -0.077018484 -0.011209478 -0.022103416 -0.005897871 -0.011756228 -0.055509865
-0.010637547 -0.07811434 -0.010781793 -0.073226966 -0.0006692229 -0.011940254 -0.037833974 -0.009352287
-0.01635955 -0.008479025 -0.07130024 -0.005862462 -0.009369592 -0.012871567 -0.0116568785 -0.008654948
-0.006374554 -0.009794458 -0.006873959 -0.037265882 -0.005710294 -0.009606884 -0.013140998 -0.013752681
-0.013211257 -0.009794136 -0.072784245 -0.013739721 -0.013170922 -0.012925253 -0.010231016 -0.05126971
-0.0144609865 -0.07948986 -0.012649161 -0.072898 -0.006100931 -0.010003289 -0.03662278 -0.007359628
-0.012809353 -0.013226478 -0.06691824 -0.010491632 -0.013688564 -0.016446233 -0.012914814 -0.008548075
-0.0094709685 -0.010354162 -0.0070976517 -0.036079444 -0.012237749 -0.013172344 -0.009815977 -0.014035265
-0.022331825 -0.008474939 -0.0722427 -0.013656374 -0.027579175 -0.008264458 -0.008619724 -0.055999976
-0.013013403 -0.072317846 -0.009228465 -0.07107433 -0.004698315 -0.009140184 -0.03968562 -0.006273774
-0.014472927 -0.0072531505 -0.07257096 -0.009775918 -0.010608764 -0.0123742 -0.009434908 -0.006097986
-0.008528117 -0.010264666 -0.0060783606 -0.035996445 -0.008194005 -0.009204461 -0.01247836 -0.016132904
-0.017939273 -0.011394563 -0.07077417 -0.014037453 -0.01670364 -0.011756538 -0.011012068 -0.055246167
-0.013807651 -0.07767318 -0.008026979 -0.06979534 -0.00213323 -0.010830175 -0.03896264 -0.0074790055
-0.014205246 -0.010251078 -0.067545675 -0.006901018 -0.013097537 -0.012826958 -0.01217448 -0.010472747
-0.00831489 -0.009710085 -0.008106628 -0.033649653 -0.0074723284 -0.015981069 -0.014798018 -0.012353819
-0.022068053 -0.0059867557 -0.07507057 -0.012520808 -0.025377635 -0.010279021 -0.009522418 -0.05677122
-0.009810701 -0.07178668 -0.005033453 -0.07226984 -0.0010853297 -0.012417887 -0.035868213 -0.007979655
-0.016771184 -0.00995681 -0.0772504 -0.008936813 -0.0075921337 -0.011820787 -0.009926566 -0.004839184
-0.0041358336 -0.009451077 -0.0072934744 -0.038009617 -0.007862879 -0.0110797165 -0.010262096 -0.01430909
-0.02789972 -0.009181504 -0.07543226 -0.01150708 -0.05352446 -0.0081397975 -0.011468295 -0.03031444
-0.016023492 -0.078626245 -0.007870324 -0.069887795 -0.00065143395 -0.014184148 -0.021799365 -0.0074993162
-0.013302719 -0.009220241 -0.06850064 -0.0073994915 -0.012480503 -0.013265878 -0.009086482 -0.0065507297
-0.0050595133 -0.010195356 -0.0047159083 -0.030022124 -0.009249429 -0.00945904 -0.0150388945 -0.01554192
-0.012511919 -0.012485417 -0.0726213 -0.013138167 -0.01828833 -0.009267925 -0.009115072 -0.05551899
-0.012468048 -0.08149747 -0.010474246 -0.06979816 -0.0059053767 -0.013630358 -0.039810155 -0.008744734
-0.011471019 -0.012373444 -0.06775912 -0.007996981 -0.010615869 -0.013070269 -0.013642973 -0.011995889
-0.0065329056 -0.00846829 -0.009301729 -0.036640286 -0.010321585 -0.014282614 -0.013318651 -0.014214273

Actor.log_std_fc3.bias f4 [17]
00000000: cf4f 2cbc 421e b6bc f7d0 86bc cb2d e9bc
00000010: ca7d c2bc d1a7 e7bc db41 fabc 5a4d 92bc
00000020: c90a abbc 30c9 babc 3af4 99bc 440e 0bbd
00000030: 2dfc 61bc 7374 d2bc bb01 15bd b686 1ebd
00000040: 6252 f7bc
-0.010517075 -0.022231225 -0.016457064 -0.028464219 -0.023741622 -0.028278263 -0.03054898 -0.01785915
-0.020879166 -0.022801012 -0.018793214 -0.03394915 -0.013793034 -0.025690293 -0.036378603 -0.03870269
-0.03019065

Critic.fc1.weight f4 [32, 378]
00000000: e8a0 66bb bc7a 1a3d 7ec6 ae3d fa12 313d
00000010: fe81 ddbc 262c 50bd bfc6 b7bc 8fcf 573d
00000020: 5116 64bc 72e8 e73c 1f6e 123d 299e 3e3c
00000030: b06e 19bd 45f9 b6bc e86a f33c 867f 683d
00000040: 90ab 56bd daed 4abc 13f3 953c a935 95bd
00000050: 484e 41bd b7f7 45bc 415e 153d 6f28 93bd
00000060: 9983 a7bb 9639 273c 1dc7 edbb bd5e 693c
00000070: 6223 57bc edc5 52bd 4261 4ebc 88b3 14bd
00000080: 0fd5 913d 890a 353c 2e83 aebc 444b 303d
00000090: dff7 51bd 565f c0bc 7456 1bbd af9f 243d
000000a0: 92ce a2bd f1ab 383c f456 e63c 1d93 f3bc
000000b0: 9adc 2cbc ef35 973d e4ab d43c 537a c93c
000000c0: 639e 2dbc 68bb 0b3d 85c6 033b 6aac 833c
000000d0: 2f84 da3c 343d 9c3c af13 423d 7c37 063d
000000e0: 8dec e3bc c502 3a3d 865b 513d 2492 ce3c
000000f0: 0df4 303d d903 293d cdac 9dbd 9835 a3bd
00000100: 38ee 483c ff98 4d3d b5c3 6b3d bce3 b03d
00000110: 9394 863c 83a7 f63c a2ec 9b3c 7015 b33d
00000120: d438 68bc b206 b4bc 9fac dbbc 7d30 643c
00000130: 8d48 353d aa9d 833d 51c1 b63d 7111 ab3d
00000140: 791a 2dbc 9100 573d dee2 0e3a 743f 28bd
00000150: 1f5a 9bbd 159f 033d d8ec 883d d37b 383d
00000160: f123 493d bbce 5d3d d74b 5e3d 0569 193d
00000170: 0fe8 b6bd d3b7 883c 2d91 93bd 7fec 61bd
00000180: e6e3 c73c f645 b43d 0e11 ce3d 2b1a a63d
00000190: 60b1 803d 30e0 2c3d fb1e 9bbb 04f8 9a3d
000001a0: b974 95bc d2cf 46bd d186 7a3c 503b 113d
000001b0: ac82 163d 496d c03d 72cc 0cbd a6b5 73bd
000001c0: 43df a6bd d945 d1bd e0c0 8fbd 6bea 9dbd
000001d0: eb6d b43d a536 623c 15b9 4a3d 83e3 893d
000001e0: 2572 7bbc 74de a73d 9aaf 8b3d 906d db3d
000001f0: 8cbf 8a3d 03b9 1ebd e380 953d e78e 273c
00000200: d5ae 663d 5bd5 213d b45b 2fbd 63c1 323a
00000210: 32d2 d23d f357 fc3c 0307 833d 8db1 9cbc
00000220: cd63 6a3d b3fc 883d 770a a33d 52cb d93c
00000230: 979b d53c 6d39 05bd 52cc 5e3d d80b 6abd
00000240: d8cb c33d 4ae1 2fbd 1c5d 663d 9da6 c03d
00000250: b401 703d 2690 e23c 3a8c ba3c 81b3 533d
00000260: 0f32 d33d aaff bc3c 49bb d2bd 2292 a43d
00000270: 6ca1 5e3d 258a 2cbb a987 7c3d 7a40 4c3d
00000280: 1d97 c83b 121a 81bb 5f98 853b c6ab 853c
00000290: 5dc3 9dbd 9449 983d 0c0a 193d 6fcd b53d
000002a0: 7032 cd3d 5da4 df3c fd69 a8bc 4e9a 4abb
000002b0: 5a6f f0bc 1e3b 283d 3e9b c63d 8abe e93c
000002c0: e023 8d3c f5a0 593a 5806 67bb d46e 8f3d
000002d0: f07c 90bd a657 8abd 279a a8bc 2b78 893d
000002e0: b351 b83b 9642 b53d 34ed 3e3d e5be 34bc
000002f0: e5d4 0f3a a879 0a3d 8a3a 22bc 656c ecbc
00000300: 36f9 b63c f335 633a 4d71 73bd a0db 86bd
00000310: 2c31 193d 4108 74bc 1e13 dbbc c13f 34bd
00000320: 5e0c b6bd 6b51 5f3c 7b36 6e3d f04f 0dbb
00000330: aba7 dbbd d767 7abc befc d1bd 783a 5c3b
00000340: 34da c73d bf20 2cbc 0765 e1bc eaee 72bc
00000350: 64ce faba bb71 113d 4413 c03d 40b8 54bd
00000360: e3c2 8bbd 21fa 803d 5280 b03d f0c7 1abc
00000370: 3e7a 2e3d 8634 d43c 772d 2fbd 40be ee3c
00000380: 9d60 a03d 3ac5 293d c8f4 b23d c9e0 57bd
00000390: b9ba 30bd 95dc e53b 297c 81bd b373 dc3c
000003a0: 7861 3c3d 2156 c13b 65fa 2cbc afe5 123d
000003b0: 2e40 c23c 4281 00bd c293 423d 1c23 403c
000003c0: 7211 91bd 308f 3e3c 59ab ad3b 9189 3bbb
000003d0: ac04 c83d 7bcb 1ebd c68e 8bbc fdc4 283d
000003e0: f640 8a3a 391c f0bc efeb 10bd 3541 343c
000003f0: f22d 96bd c636 f33b 6b4a 8b3c c0e7 9bbd
-0.0035191122 0.037714705 0.08533953 0.043230988 -0.027039524 -0.050823353 -0.022433637 0.052688178
-0.013921336 0.02830908 0.03574955 0.011634388 -0.037459075 -0.022335658 0.029714063 0.05676224
-0.05240971 -0.01238581 0.018304383 -0.072856255 -0.047193795 -0.012082986 0.03646684 -0.071854465
-0.005112123 0.010206601 -0.007256402 0.014243779 -0.0131309945 -0.051458288 -0.01259643 -0.036304027
0.07120716 0.011049875 -0.021302786 0.04304053 -0.05126178 -0.02348296 -0.037924245 0.04019135
-0.079495564 0.011271463 0.028117634 -0.029733235 -0.010550642 0.07383334 0.02596087 0.024594462
-0.010596844 0.03411427 0.002010734 0.016073424 0.026674358 0.019072153 0.047382053 0.032767758
-0.027822757 0.045412797 0.051112674 0.02521617 0.043201495 0.041263435 -0.07698975 -0.079692066
0.012263827 0.050194737 0.057559688 0.08637187 0.016428268 0.030109173 0.019033734 0.08744323
-0.014173705 -0.021975849 -0.02681571 0.013927576 0.044258643 0.064265564 0.08923591 0.08352936
-0.010565394 0.052490775 0.0005450676 -0.04107614 -0.075855486 0.032134134 0.06685799 0.045039963
0.049106542 0.05415223 0.054271545 0.03745367 -0.089309804 0.016689217 -0.072054245 -0.05515718
0.024400663 0.088024065 0.10061847 0.0811046 0.062838316 0.04220599 -0.004733918 0.075668365
-0.018244134 -0.048538037 0.015290932 0.035456955 0.036745712 0.093958445 -0.03437466 -0.059499405
-0.081480525 -0.102184005 -0.0701921 -0.07710727 0.08810028 0.013806974 0.049492914 0.067328475
-0.015347038 0.081967264 0.06820603 0.10714257 0.06774816 -0.03875066 0.07299974 0.010226942
0.056319077 0.039510112 -0.042812064 0.0006818978 0.10293998 0.030803656 0.06397822 -0.019127632
0.057224084 0.066888236 0.079609804 0.026586208 0.026075168 -0.03252547 0.054394074 -0.0571402
0.095603645 -0.04293946 0.05624114 0.09406779 0.058595374 0.027656626 0.022771943 0.05168486
0.10312282 0.023071129 -0.10289628 0.08035685 0.054353163 -0.0026327458 0.061652813 0.049866177
0.0061215297 -0.0039398754 0.004077002 0.01631726 -0.07703278 0.07435909 0.037363097 0.08877074
0.10019386 0.027300054 -0.020558352 -0.0030914727 -0.029349972 0.041072004 0.09697579 0.028533239
0.01722902 0.00083018775 -0.0035251584 0.07003561 -0.0705508 -0.06754999 -0.020581318 0.06712373
0.0056249737 0.08850591 0.046612933 -0.011031841 0.0005486741 0.033807427 -0.009901652 -0.02886028
0.02233563 0.0008667402 -0.059434224 -0.06584859 0.03740041 -0.014894546 -0.026742514 -0.044006113
-0.088890776 0.013630251 0.058157425 -0.002156254 -0.107253395 -0.015283546 -0.10253285 0.0033604186
0.09758416 -0.010505854 -0.027513994 -0.014827469 -0.0019134996 0.035508852 0.093786746 -0.051933527
-0.06824281 0.06297708 0.08618225 -0.009447083 0.042597048 0.025903951 -0.042767968 0.029143453
0.078309275 0.041447856 0.087380946 -0.052704606 -0.043146823 0.007014821 -0.0632251 0.026910638
0.04599139 0.00590016 -0.010557746 0.035863575 0.023712244 -0.03137327 0.047504194 0.011727121
-0.070834056 0.011630818 0.0052999672 -0.0028615932 0.09766516 -0.038768273 -0.017035853 0.041203488
0.0010547924 -0.029310333 -0.035381254 0.011001875 -0.07332982 0.007422301 0.017003259 -0.07612562

Critic.fc1.bias f4 [32]
00000000: 60c8 813d 4ae5 c03a cbfb 4f3d 8e08 813d
00000010: d560 9b3d 3a1f 99bb 7d54 2c3c 013a 6abc
00000020: 20a2 633d 5494 c23d d13c 1cbd 9b2a d73b
00000030: e4d2 d939 1f2f 743c d095 713d d906 a53c
00000040: 2804 a5bc 2d28 803d fde3 653d 5921 833c
00000050: 9670 2b3d c7d2 e53c 23fb a93d cd37 3cbd
00000060: 7519 fcbb 4372 3d3d 48a0 dbbc 49b2 2a3c
00000070: 5264 cf3d 2aed 6a3d b31b 9b3c ddc2 c13d
0.063370466 0.0014716771 0.050777238 0.0630046 0.075868286 -0.004672912 0.01051819 -0.014296056
0.055574536 0.095009476 -0.038143937 0.0065663583 0.0004154659 0.014903813 0.058980763 0.020144867
-0.020143583 0.06257663 0.05612563 0.016007112 0.041855417 0.028054608 0.08299854 -0.045951653
-0.0076934644 0.046251547 -0.026809826 0.010418483 0.101265565 0.057355084 0.018934106 0.09460995

Critic.fc2.weight f4 [32, 32]
00000000: 5b45 123e 77ae 0cbe a126 033e 7555 f43d
00000010: 4afa d23d 9af8 aebd 8ffb 56bc 2e7f 823c
00000020: 9b5e df3b 5904 ae3d dfb9 1fbd 4863 a93c
00000030: 110d 41be 5137 663c 2cc6 063e 2ca8 b73d
00000040: 07df 5aba 5528 333e fd98 b7bc 515b b33d
00000050: 6ccc 8e3d edb1 4b3c 1d79 acbd 8fec 8abc
00000060: 006b 1f3e c043 9abc 1e6e 49bd 1f10 d9bd
00000070: 59f8 f53d 7f5d d2bd 7925 113e fca8 95bd
00000080: 76e8 933d b85c dcbd c078 433d 5429 4e3e
00000090: 52f5 403e 9ca2 e3bd 2445 d33d 1bde 11be
000000a0: 15f4 fb3d 3596 03bd b5b9 1cbd 5c75 87bd
000000b0: 1de3 2fbe 58a4 dc3d f407 ce3d 6814 d0bd
000000c0: dfcf 67bd 3a75 f03d b9c8 4c3e b668 e73d
000000d0: 2ef2 833d bb7b f4bc d0e4 b5bc 17e3 febb
000000e0: b17a c43d 1d5b 9cbd b42d b53d 4ea0 29be
000000f0: cde6 9bbc c6a2 823d e3a1 f13d 26bf 4a3e
00000100: b1fb e83d c4f2 0dbe 6505 d43b 98a7 9e3d
00000110: 4466 59bd bd4c 643d b863 8d3d d870 93bd
00000120: eafc e73d bd86 0abd bd9a e3bc 5212 ccbd
00000130: 3797 2abe 21fa 943d 0396 203e a2e8 d4bb
00000140: ecac 9cbd d6bf 6e3d 7dbf 033e 628b a43d
00000150: 10e8 f83c 5af3 013e ee26 5a3e 79a6 e0bd
00000160: cf67 08be 3677 3e3d 2d1d ef3d 7385 133e
00000170: 4723 8fbb de3a d4bd 95c0 99bd 3698 343e
00000180: 3fb8 0fbe 7331 9c3c f04d fdbd 9bd1 663d
00000190: 6f4b 8fbd 6e86 c8ba 4ede 193d aebf 9abd
000001a0: b6ed 843d dfa7 fe3d 8fae df3d 6936 723d
000001b0: 319d 8e3d d29e 223e a3fb 143d 3763 303e
000001c0: 41e0 ae3d 0208 b13c 76cc 7cbd 6684 bebd
000001d0: e62e 53bd 93ae f7bd f1d3 00be 4aec 1dbe
000001e0: 62f8 1c3e 8b7a c6bd 81e3 e53d d38f e13d
000001f0: 943c c83d 41e9 2e3e ba7b 56bd 21e9 1cbe
00000200: cd4b d53d 2353 31be 36b1 403e 4b2b efbd
00000210: cb0e d6bd 8356 593e 3576 1c3e cf05 ecbd
00000220: 9976 343e c5aa b73d 3838 ab3c 637f 2e3d
00000230: 37b2 033e f9a6 e03d 13da 203d 6764 fbbd
00000240: 1552 00be 7b89 66bb 2df1 00be 5d0c dbbd
00000250: d161 a83d 4f55 c8bd e0da f8bc 0c64 8ebd
00000260: 0298 e33d 5d1c bb3d 6e5c 343e b509 30be
00000270: 56db b43c 09b7 80bc 175b 4c3b 9564 513d
00000280: 73d1 11be 3a59 ce3d a7a6 7c3d ae49 9bbd
00000290: 1b0f aabc 17d5 963d 0ced 0e3d a3a9 633c
000002a0: 5961 d83d 165d 14bd d8c0 0ebe 53e6 18be
000002b0: b189 ca3d d08d 89bd a705 e23d 0b4c 2b3d
000002c0: 726e 033e 2e15 00be e20d f3bd 3dc9 c43d
000002d0: a20e c03b 7e88 cb3d d3a3 303e 576b 23be
000002e0: bcd0 c23d 971d 103d e597 793d 2814 dc3d
000002f0: 5916 e8bb 453e 06be 3a52 aebd f91d 0a3e
00000300: c795 b4bc d098 63bd 3adf cbbd 4512 173d
00000310: 9f53 483e 0ac4 0cbe 8825 0ebe 8f95 c0bd
00000320: 577d c93d cb37 ffbd 39ba a6bd 8d90 5d3e
00000330: ab79 24be 511f 0a3d 8e3d b3bd 13c4 413e
00000340: f114 b0bd 5887 433e 0f17 41bd ecab 0f3d
00000350: 7007 efbd 795b 043d 3efe 013e f671 f93c
00000360: eb9b ea3d 4954 92bd 424d f53d efc9 c93c
00000370: 07fb 453e f2ec b0bd 0204 68bd a84d 97bc
00000380: 1e5c c33c 0830 f2bd 0aa9 143c 7654 193e
00000390: 7e82 073e 8ac7 cd3d 2d32 8bbd 0483 16be
000003a0: 0908 2b3e 29c6 873c da32 883c e31a 493e
000003b0: b7d5 f8bd 149c bebd 826b 423e a494 213d
000003c0: b3f6 15be e806 d9bd b636 13bd 0c72 a1bd
000003d0: 0702 023e a6fc 413e 0b08 d53d 69e3 bebd
000003e0: 874e b6bc 0af2 a83d 0b2d 19be 746e cf3c
000003f0: a412 f03d c12b 183e 6d83 f5bc 1c23 923d
0.1428427 -0.13738428 0.12807705 0.11930362 0.10301645 -0.08543511 -0.0131215 0.015929785
0.006816698 0.08496923 -0.03899562 0.020677224 -0.1885264 0.014051274 0.13161534 0.08967623
-0.00083492737 0.17495854 -0.022411818 0.087576516 0.06972584 0.0124325575 -0.08421538 -0.016958503
0.15568161 -0.018831134 -0.04917728 -0.10598778 0.12010259 -0.10271739 0.14174451 -0.07307622
0.07222073 -0.10759872 0.047722578 0.20132953 0.18843582 -0.11115 0.10315922 -0.14244883
0.12302414 -0.03212567 -0.03826304 -0.066141814 -0.1717648 0.107735336 0.10060111 -0.10160142
-0.056594726 0.11741109 0.19998445 0.11299269 0.064426765 -0.029844156 -0.022203833 -0.007778536
0.09593714 -0.07634566 0.08846608 -0.16565058 -0.019030953 0.06378703 0.117984556 0.1979948
0.11376131 -0.13862139 0.0064703696 0.0774681 -0.053076044 0.055737246 0.069037855 -0.071992576
0.113275364 -0.033819903 -0.027783746 -0.09964432 -0.16659246 0.07274271 0.15682225 -0.0064974586
-0.0765017 0.058288418 0.12866016 0.08034398 0.030384094 0.12690488 0.21303913 -0.10969252
-0.1332085 0.046500407 0.11675487 0.14406376 -0.004368219 -0.103627905 -0.07507435 0.17636189
-0.14035128 0.019066548 -0.12368381 0.05635224 -0.0699681 -0.0015298852 0.037565522 -0.07556091
0.06490652 0.124343626 0.10921966 0.05913392 0.06963576 0.15880898 0.036372792 0.17225347
0.08538867 0.021610264 -0.061718427 -0.09302597 -0.051558398 -0.12093844 -0.12580849 -0.15422168
0.15329126 -0.09691342 0.112250336 0.110137604 0.09777179 0.17081167 -0.05236409 -0.15323307
0.104148485 -0.1731687 0.188176 -0.11678179 -0.1045204 0.21224408 0.15279467 -0.115245454
0.17623366 0.089681186 0.02090083 0.042601954 0.12860952 0.109693475 0.03927047 -0.122750096
-0.12531312 -0.003517716 -0.12592001 -0.106957175 0.08221782 -0.09781896 -0.030377805 -0.06952676
0.111129776 0.09136269 0.17613384 -0.17191203 0.022077244 -0.015712278 0.0031182223 0.051121313
-0.14240055 0.10075612 0.06168237 -0.07582413 -0.020759156 0.073648624 0.034894034 0.013895425
0.105654426 -0.036221586 -0.13940752 -0.14931612 0.09889544 -0.06716502 0.11036234 0.041820567
0.128351 -0.1250808 -0.11867882 0.09608696 0.0058611194 0.09938143 0.17249994 -0.15958916
0.09512469 0.03518447 0.060935874 0.10746032 -0.007082742 -0.13109691 -0.08511777 0.13487996
-0.022044076 -0.055565655 -0.099546865 0.036882658 0.19563149 -0.13746658 -0.13881505 -0.09403526
0.0983836 -0.124618135 -0.08140988 0.21637173 -0.16062038 0.033721272 -0.08751975 0.18922453
-0.08597744 0.19094598 -0.04714113 0.035076067 -0.116713405 0.032313798 0.12694642 0.030449849
0.1145552 -0.07144982 0.119776264 0.024632422 0.1933404 -0.08638944 -0.056644447 -0.018469647
0.023847636 -0.118255675 0.009073505 0.14973626 0.13233373 0.10047825 -0.0679668 -0.14698416
0.16702284 0.016573982 0.01662581 0.19639163 -0.12150138 -0.09307113 0.18986323 0.039448395
-0.1464489 -0.105970204 -0.03594085 -0.07883081 0.12696086 0.18944034 0.10401925 -0.09320719
-0.022254242 0.0824929 -0.14958589 0.025321223 0.117223054 0.14860441 -0.029969895 0.07135603

Critic.fc2.bias f4 [32]
00000000: e9b0 c43a a074 633e db55 c13c c4ab 19be
00000010: e900 123d 2a26 e5bd d82f 073e 2e53 8b3d
00000020: f461 c9bd dfac e83d 542e 103e 3b59 153e
00000030: b3e0 ed3d 73df 123d 6ea3 b63d a74b b03d
00000040: 86ce e23d 56b7 4d3e e39c e33d b411 03be
00000050: f24a 3f3e bd66 a53d 6d4a a4bd ae97 44bd
00000060: 04cf 273d 4bbb efbd f049 6dbd 2ac5 593e
00000070: 59bd 463c bf9c febd 89a3 7e3d 442c d1bc
0.0015006337 0.22212458 0.02360051 -0.1500693 0.0356454 -0.1118892 0.13201845 0.06802975
-0.09833136 0.113610975 0.14080173 0.1458482 0.116151236 0.03585763 0.089178905 0.086081795
0.110745475 0.20089468 0.11113908 -0.12799722 0.18680933 0.080762364 -0.08022008 -0.047996216
0.04096891 -0.11705645 -0.05793184 0.21266618 0.012130105 -0.12432241 0.062167678 -0.025533803

Critic.fc3.weight f4 [1, 32]
00000000: d363 2d3d bc82 303d 7d39 293d f7cb cbbb
00000010: 4bc0 2b3d d1b1 54bc 9a07 043d 37d4 443d
00000020: 6959 9a3b 753e 433d 826f 263d 5e6c 123d
00000030: facc 5e3c 8699 3a3d 0f6e a93c 23f9 843c
00000040: ed08 903c 16bd 113c 1490 323c 1d3b 543c
00000050: 24dc 243d 1ed3 c23c b5cd 0b3d 29e2 313d
00000060: 0c86 fd3c 6743 7e3c fbf3 1e3d 1a78 ba3c
00000070: 663f ea3c d967 fcb9 9607 08bb b14e a43c
0.042331528 0.043093428 0.04131459 -0.006219383 0.04193143 -0.012981848 0.032233812 0.048053946
0.0047103656 0.047666986 0.040633686 0.03574788 0.013598675 0.045556568 0.020682363 0.016232079
0.017582381 0.008895179 0.010898609 0.012953547 0.040249005 0.02378231 0.034131724 0.043428574
0.030947708 0.015519 0.038806897 0.022762347 0.028594684 -0.00048142558 -0.0020756475 0.020057054
