model_3.pt (torch, 114732 bytes, 13 tensors)

Actor.fc1.weight f4 [32, 378]
000000 6b ac dc bc ba 69 53 bc 5a 90 25 3d 03 2e 8d 3d
       -0.026937684 -0.012903625 0.040420868 0.06893542
000010 e1 72 0b bd c5 19 46 3d fe a7 de 3c 14 9f 06 3c
       -0.034045104 0.04836442 0.027179714 0.008216638
000020 47 8b 05 bb c5 fd 27 3c a6 8f 87 bc 63 e7 37 3d
       -0.0020377205 0.010253374 -0.01654799 0.044898402
000030 29 05 23 bd 36 f8 fd bc 14 6c 87 bc 51 e7 10 3d
       -0.039799843 -0.031002145 -0.016531028 0.03537685
000040 e4 15 66 bd bf 1b a9 bd 0f 7d 8e 3d b0 90 09 bd
       -0.05617322 -0.08257245 0.06957447 -0.03358525
000050 14 e1 9a bd 88 16 94 bd 13 e7 d1 3d 3a 33 f8 bc
       -0.075624615 -0.0723086 0.10249152 -0.030297864
000060 b2 d2 26 bd d4 76 80 bb 1e 16 4b bd cc 83 c7 3c
       -0.04072828 -0.0039204154 -0.04958164 0.024354838
000070 8b 6f 3c 3d ef eb 79 bc 5b 53 e6 3c 93 3e 7f bd
       0.046004813 -0.015254005 0.028115919 -0.062315535
000080 12 7e 3f 3c 80 95 0f 3d 1b c5 73 3c 4a 2e 2a 3d
       0.011687772 0.035054684 0.014878537 0.04154805
000090 f2 c6 bf bb 1b a2 01 bd 3d 14 32 3d 5b 0a 63 3c
       -0.0058525736 -0.031648736 0.043476332 0.013857449
0000a0 75 ad ed 3c 3a ef 0a 3d ab 42 76 bd fc e2 8f bd
       0.029013375 0.03391955 -0.060122173 -0.07025716
0000b0 85 75 83 bd 15 65 5a 3d c8 66 6e 3c bf 24 00 00
       -0.064188994 0.053319056 0.014550872 1.3182e-41
0000c0 9a 55 0a 00 82 2a 00 80 d7 92 35 91 f5 7e 22 2a
       9.49063e-40 -1.5249e-41 -1.4323631e-28 1.4432537e-13
0000d0 8e 58 67 a2 ff 9f 73 a9 a4 44 c8 93 48 f9 f8 04
       -3.1353218e-18 -5.4095613e-14 -5.0554783e-27 5.853345e-36
0000e0 a5 48 03 9b d3 9b 21 3d fa 35 72 3d da 27 8a 3d
       -1.0859539e-22 0.039455246 0.059133507 0.06745882
0000f0 40 75 02 3c 77 58 82 bb da 74 6f 3b fd 8c e5 bc
       0.007962525 -0.003977831 0.0036538155 -0.02802133
000100 47 33 e1 ba f4 ac ac 3b 1e ed 79 3d 79 f4 7a 3d
       -0.001718142 0.005269641 0.06101715 0.061268304
000110 74 4e 8f 3c ac 65 09 3d 00 8c 8f bb 25 a9 41 3d
       0.017493464 0.033544227 -0.004380703 0.04728045
000120 d1 7c 9d bb 10 01 f9 bc 0a 5a e3 bc 93 c4 75 3d
       -0.004806139 -0.030396014 -0.027752895 0.06000192
000130 a7 a4 44 bc b8 71 90 bc 68 e0 3e 3c 73 cb 47 3d
       -0.012002147 -0.01763235 0.011650182 0.04877801
000140 b6 2e 92 3c 90 68 e4 3c d8 25 6a 3b af cd 2c bd
       0.01784454 0.02788189 0.0035728123 -0.042188343
000150 f8 a6 03 bd 3d 61 81 3d 56 6e 62 3d 36 6c 4c 3d
       -0.032141656 0.06317375 0.055281006 0.049907885
000160 77 74 4b 3d da 4e 19 3c 12 bf 29 3b 3c 89 39 3d
       0.049671616 0.009357179 0.002590124 0.045296893
000170 33 1e 52 bd 9f c2 4a bc 05 5a 61 3c 29 bc 73 3c
       -0.05129833 -0.012375503 0.0137543725 0.014876404
000180 7a e8 3c bc d1 90 c1 bb c3 34 1e bc 03 61 20 3d
       -0.011530036 -0.005907156 -0.009656134 0.039155018
000190 7e 52 c5 3c b4 87 9c 3c 8a c9 62 bd 94 37 4e 3d
       0.024087187 0.019107677 -0.055367984 0.050345972
0001a0 d5 46 be 3b 02 6e 77 bd e1 08 7b 3d 14 68 b0 3c
       0.0058067837 -0.060407646 0.061287764 0.021534003
0001b0 84 e3 a4 bb 19 12 65 3d f1 fa 0f bd 7f 41 4d bd
       -0.005032005 0.055925462 -0.035151426 -0.05011129
0001c0 35 89 ad 3c 22 c5 70 3b 8d f6 8e 3b 5a ee 68 3c
       0.02118359 0.0036738594 0.0043628872 0.014216984
0001d0 6f 90 45 3c fd 1f 8d 3d 45 17 e6 3c 5c c7 ab 3c
       0.012058361 0.06890867 0.028087268 0.020969085
0001e0 22 67 60 bd 9d 8d 52 3d e6 ee 60 3d 27 d1 8a 3d
       -0.054785855 0.051404584 0.05491533 0.06778174
0001f0 92 97 da 3c 9d 4f 21 3c 5e a2 6f 3c 92 65 02 3d
       0.026683602 0.009845641 0.014626114 0.031835146
000200 74 c7 96 bc ca e6 fc 3b 7f 76 f4 bc f6 be 83 3c
       -0.018405654 0.007717942 -0.02984166 0.016082268
000210 8d b7 95 3d cf de 0c 3c 41 92 0d 3d 79 48 42 bd
       0.073104 0.008598044 0.034563307 -0.047432397
000220 47 cb 80 bb 71 a6 83 3c a0 ce 46 3d 35 7d 1a 3d
       -0.0039304825 0.016070576 0.048536897 0.037717063
000230 1f 2a 3f 3d 20 4c 63 bd af 20 71 ba 66 9b 0a bd
       0.04667103 -0.05549252 -0.00091982906 -0.033839606
000240 39 8e 0b 3d 5e 2b 03 bc dc d2 4b 3d ca fa 93 3c
       0.03407118 -0.008005945 0.049761638 0.018063921
000250 78 0a 9d 3d 34 31 ff 3c 33 ca b0 3a 85 e8 d0 bc
       0.076680124 0.031151392 0.0013487994 -0.025501499
000260 b3 83 b7 3b fa 29 1d 3d 64 08 26 bd 0a 97 be bb
       0.0056004166 0.03837011 -0.040535346 -0.005816345
000270 57 ac bf ba 1e 95 b5 bc c0 40 59 3d 15 33 4e 3d
       -0.0014623505 -0.022165831 0.053040266 0.050341684
000280 97 58 c3 3c 4f 53 0c bd 7b a0 2e 3c f2 59 1d 3b
       0.023845954 -0.034259137 0.010658379 0.002400991
000290 f3 5e 99 bd bf c0 85 3d 64 6d fd 3c 92 9e ef 3c
       -0.07488813 0.06530904 0.03093595 0.029250417
0002a0 de b9 f2 3c 57 b6 70 3d 21 ee 02 3a 32 6a a8 bc
       0.029629644 0.058767643 0.00049945904 -0.02055845
0002b0 e3 eb de 3a 3b 11 ff 3c ab e6 d3 3b 73 5d 32 3c
       0.0017007556 0.031136146 0.0064667067 0.010886538
0002c0 2b 94 93 3d 08 df 21 bc c4 52 f8 3c 08 7b 34 3d
       0.07205995 -0.009879835 0.030312903 0.044062644
0002d0 47 de 9c 3c c1 1f 3b bd 77 79 7b bd d7 c0 ae 3c
       0.019148959 -0.04568458 -0.061395135 0.021332188
0002e0 0b eb 1c 3d ee 70 90 3c 40 91 8b 3d ef 13 00 80
       0.038310092 0.017631974 0.068148136 -7.151e-42
0002f0 61 61 fb 22 48 ef 24 2b 69 40 a6 aa a7 67 00 a8
       6.813679e-18 5.8596574e-13 -2.9532217e-13 -7.127903e-15
000300 13 5b 00 00 73 5e 85 3c cf 43 33 bc 93 c6 06 bc
       3.2671e-41 0.016280388 -0.01094146 -0.008226055
000310 4f ff 09 3c a8 68 6e bc cb a4 42 bd e3 7b 20 bd
       0.008422687 -0.014551319 -0.04752044 -0.039180648
000320 8b b5 87 bd c3 41 f5 bc fd 97 e0 3b 34 c7 a3 bc
       -0.066264234 -0.029938584 0.006854056 -0.019992448
000330 52 70 13 bd fd ee 38 3d d3 21 1f 3b ef bb 96 3c
       -0.03599579 0.045149792 0.0024281635 0.01840016
000340 1c 59 6f bc 52 e5 86 bc 6d dd 11 3b 4b 0f fc 3b
       -0.014608648 -0.01646677 0.0022257224 0.0076922528
000350 11 b4 29 3c 62 6a ba bc bc 24 ea 3c 8b 21 b6 bc
       0.010357873 -0.022755805 0.02858197 -0.022232791
000360 0d 6e 57 bd aa 59 3b 3d 55 c9 96 3d 71 54 64 3d
       -0.052595187 0.045739807 0.0736262 0.055744592
000370 f1 13 82 3c b7 58 30 3c 5b f6 06 3d b2 04 bb 3b
       0.01587865 0.010763339 0.032949787 0.005707347
000380 be 7b ac 3d 3a ac 84 bc 79 81 4f 3d 3a 87 78 bb
       0.084220394 -0.016195405 0.050660584 -0.0037922398
000390 5e 8b a2 3c 84 ad 24 bc 33 01 b1 3c 63 5b 07 bd
       0.019841846 -0.010051135 0.021607017 -0.033046138
0003a0 59 bf 25 3d 68 d6 04 3d 7c 1b cb 3b 85 5a 1b bd
       0.040465686 0.032431036 0.0061983448 -0.037928123
0003b0 cf c9 31 3d a9 92 d3 3c 2e 0e 2f 3d 44 8e f8 bc
       0.04340535 0.025826769 0.042738132 -0.030341275
0003c0 f7 5e e3 bc 15 f1 e0 3c cf d0 93 3d e0 d9 89 3c
       -0.027755244 0.027458707 0.072175615 0.016827524
0003d0 1b 66 50 3c d8 84 4e 3c 4c db 0b 3c c6 9a 55 3b
       0.012719656 0.012604915 0.008536171 0.0032593473
0003e0 d2 80 9c 3d 0b 52 6e 3d cd 62 39 bd 42 fd d3 3d
       0.07641758 0.05818371 -0.04526024 0.103510395
0003f0 af f8 95 bb 9e 7c 6e 3d 9e 54 9e 3d 81 e1 fc bd
       -0.0045767645 0.058224313 0.07730983 -0.12347699

Actor.fc1.bias f4 [32]
000000 43 32 96 3d bf 57 2b 3d d9 e2 0a bd 9b 86 a5 3d
       0.073338054 0.041831728 -0.033907745 0.080823146
000010 63 bf d4 3d 66 c3 05 bd 81 ec e4 3d 45 d7 25 bc
       0.103880666 -0.03265705 0.11177922 -0.010122125
000020 eb 23 52 bc 4c 2d bb 3c 69 78 b0 3c 04 8f 78 bc
       -0.012825946 0.022848748 0.021541791 -0.015170816
000030 14 98 d6 3d 4f b5 8b 3d 29 5b e4 ba b4 36 dc b9
       0.10478225 0.06821691 -0.0017422187 -0.00042002427
000040 11 6c 87 b8 46 52 01 3d 39 87 53 3d 6c 5f ba 3d
       -6.4574306e-05 0.031572603 0.05164263 0.091002315
000050 c3 9f 6d 3a f0 a1 98 bc c4 f2 44 bb 86 e3 ad 3c
       0.0009064639 -0.018631905 -0.0030051926 0.021226656
000060 ff e1 01 3a f6 8b 82 3c 91 a7 34 3d 70 72 d6 3d
       0.00049546355 0.01593588 0.044105116 0.10471046
000070 6d 2a 28 b9 58 6e 4f 3d e3 5d fc bc af cc c7 3d
       -0.00016037533 0.05064234 -0.030806487 0.09755837

Actor.fc2.weight f4 [32, 32]
000000 82 d0 0c bd 76 94 06 3e 6a cf 72 3c b5 01 54 3e
       -0.034378536 0.13142571 0.014819959 0.20703776
000010 df 7c 43 bd 52 18 ba bd 85 a2 ca 3d 28 2b 10 3e
       -0.04772651 -0.0908667 0.098942794 0.14078963
000020 09 a9 58 bd e2 92 d0 3d e9 e7 2a be 38 3b 38 3e
       -0.05289558 0.10184266 -0.16690029 0.1799134
000030 03 98 fa bb 7a ad 95 bd 8f e4 27 3e 17 be 7c 3a
       -0.0076475157 -0.07308479 0.16395782 0.00096413627
000040 72 f8 d1 3d 01 19 1f bd 42 27 16 be 47 be 1a 3e
       0.10252465 -0.038842205 -0.14663413 0.15111648
000050 b6 4f 97 bd a7 62 23 3e ec b5 c9 bd 72 52 06 be
       -0.073882505 0.15955602 -0.09849152 -0.13117388
000060 ec 67 a3 bc d4 54 f9 bc e4 20 1a 3e ac 3b bb 3d
       -0.019947015 -0.030435957 0.1505161 0.09142241
000070 c7 3e cb b9 56 09 ed 3d d0 c9 0d be 46 80 4d 3e
       -0.0003876595 0.11574046 -0.13846517 0.20068464
000080 e4 e6 e0 3d 7e 75 04 be 3f 1c 89 3c e0 af 14 3e
       0.10981539 -0.12935445 0.016737102 0.14520216
000090 5d 89 5f 3e 5f 0a cf 3d 15 5b ae 3d f3 55 f9 3d
       0.21829744 0.101094 0.08513466 0.12174597
0000a0 bc 69 2a 3e 08 d4 1e 3e ad 73 cf 3d 0e aa 08 bd
       0.16641897 0.15510571 0.10129485 -0.0333653
0000b0 50 92 13 bd 54 a4 29 be df c6 de 3d 29 d2 82 3c
       -0.036028206 -0.16566592 0.108777754 0.015969353
0000c0 2d 50 8e bc 14 73 16 3e f1 2e 91 3c 4f 65 df 3c
       -0.017372215 0.14692336 0.017722579 0.027269987
0000d0 76 d2 d5 bd 07 fd c2 3d 4c b3 df bd 19 c1 82 bd
       -0.10440533 0.095209174 -0.1092287 -0.06384487
0000e0 54 61 97 bc 58 00 08 3e 08 73 ed 3d d0 17 30 3e
       -0.018479027 0.13281381 0.11594206 0.17196584
0000f0 c3 bc 04 bb e6 6f f2 bc 9f d4 06 3d 8c a9 dc 3d
       -0.0020254112 -0.029594373 0.032917615 0.10774526
000100 7e ed 16 3e 28 0e bc bd b7 7e e8 bc 7e 21 27 3e
       0.14739034 -0.091823876 -0.028380735 0.1632137
000110 e9 83 24 3d fb 0b 2a bd bd ce 53 3e ec ff 05 3d
       0.04016486 -0.04151533 0.20684333 0.03271477
000120 6d 8c a6 3d 59 8a ca bd 3d 78 1e bc 3a 2f 0c 3e
       0.08132253 -0.09889669 -0.009672222 0.1368989
000130 62 a8 9e bd 85 ba 80 bd d7 20 58 bd e4 c4 59 bc
       -0.0774696 -0.06285576 -0.052765694 -0.013291571
000140 b7 4f 28 bc 07 38 12 be 31 a1 7f bd b2 7f 50 3e
       -0.010272912 -0.14279185 -0.062409583 0.20361212
000150 8e 11 73 3d d9 91 f5 bc 5c 6b 0e 3e a0 93 22 3e
       0.059342913 -0.029976772 0.13908142 0.15876627
000160 65 38 a8 bc 6d 62 83 3d cd 75 c8 3d ae 90 a3 3d
       -0.020534704 0.064152576 0.09788094 0.0798658
000170 a0 5e b6 b7 07 c8 8d 3d 94 77 ca 3d b8 42 7b 3d
       -2.1740154e-05 0.06922918 0.09886089 0.061342925
000180 1f 6d 10 be 93 33 84 bc da 30 ee 3d 48 56 69 3d
       -0.14104126 -0.016137874 0.116304114 0.05696705
000190 e7 30 17 bc 1c b2 5f 3d fc 1a 31 bc e2 a5 12 be
       -0.009227968 0.054613218 -0.010809656 -0.14321092
0001a0 7b 0a fa 3d c4 00 8b 3d 96 00 d2 3d c3 7c 2f 3b
       0.1220903 0.067872554 0.10254018 0.0026777245
0001b0 4a 44 95 3d 31 92 17 3d 8d e8 12 bd 20 89 31 3c
       0.07288416 0.037004653 -0.03586631 0.010835916
0001c0 05 d3 fb 3d 50 f2 80 bd 15 b5 43 3d b4 91 93 3d
       0.12296108 -0.062962174 0.047780115 0.07205525
0001d0 96 4d d5 bd 35 45 aa bd 07 e8 c2 3c fc 12 f2 bd
       -0.10415189 -0.083139814 0.02379228 -0.11820027
0001e0 c1 3c a3 bc 9a 52 1c be 5b fb c4 bd 5d 5f 30 3e
       -0.01992643 -0.15265885 -0.09618255 0.17223878
0001f0 59 91 e0 35 eb 39 a8 3d 93 c0 08 be c8 85 61 3e
       1.6731602e-06 0.08214172 -0.13354711 0.2202369
000200 9b 20 ac 3d b9 a9 c4 3c c4 ee 0a be 36 a2 2d 3e
       0.084046565 0.024006711 -0.13567644 0.1695641
000210 7e 1f e4 3d 55 11 a0 bd 17 7d b8 3d a9 2e 89 bb
       0.11138819 -0.07815806 0.09008234 -0.0041864705
000220 af 4c 1d 3e 10 85 1a 3e ea 89 e3 3d 23 e4 8a bd
       0.15361284 0.15089822 0.111102894 -0.06781795
000230 ec c5 54 3e ba 4f d7 3d e7 5b 4c bd 83 a8 97 3a
       0.20778626 0.105132535 -0.049892332 0.0011570606
000240 05 c2 02 bd 57 31 c4 bd a7 65 8e 3c 39 42 1a 3e
       -0.031923313 -0.09579723 0.017382456 0.15064324
000250 7c dd 69 3d af 1d 4f bd 25 22 21 3d 0b 36 54 bd
       0.05709599 -0.050565418 0.039339203 -0.051809352
000260 9b 14 a4 bc d0 e8 5f 3d c3 4e 9e bd 41 d2 a4 bd
       -0.020029357 0.054665387 -0.07729866 -0.08047915
000270 1c f5 71 bc f7 92 18 be 58 11 1c 3e f7 c0 64 3e
       -0.014767911 -0.14899813 0.15240991 0.22339235
000280 fe 06 a1 bd f7 86 87 bc 17 7e 69 3d 8b af 28 bc
       -0.07862662 -0.016543848 0.057005014 -0.010295759
000290 57 24 d6 bd e7 56 fc bd c5 7a 3e 3e 6e 87 df 3d
       -0.1045615 -0.12321263 0.1860152 0.10914503
0002a0 79 d4 0c 3e 3f b2 ef bd 61 6e b9 3d ca bc 02 3e
       0.13752927 -0.117039196 0.09054256 0.1276733
0002b0 45 a1 1b 3e 05 dc 36 3e 28 c0 e7 3d 06 2d 03 3d
       0.15198238 0.17857368 0.11315948 0.03202536
0002c0 ff d8 b1 bc ba dc 85 3d 78 b1 e2 3c 85 0d 3c 3e
       -0.021709917 0.06536241 0.027672514 0.18364532
0002d0 c3 cf 8b bd 6f 26 d4 3d 83 42 9e 3d 1e 0f 97 bd
       -0.06826737 0.10358893 0.0772753 -0.0737593
0002e0 b5 83 48 3b 16 6c d3 bd 35 44 41 3e 2f af 1f 3e
       0.0030596082 -0.1032335 0.18873675 0.15594171
0002f0 c7 15 8a 36 7e 22 11 3e 23 34 de bd b0 9b 40 3e
       4.1152557e-06 0.14173314 -0.10849788 0.1880939
000300 72 99 2f 3d 3e 70 e4 3d b2 e9 e3 bd d1 0d d5 3d
       0.042870946 0.11154221 -0.11128558 0.10403026
000310 04 fd 3d 3e a3 0f 14 3e 20 ea 36 3d 7d 22 ad 3d
       0.18553549 0.1445909 0.044656873 0.08453844
000320 12 ac e7 3d e4 f1 09 bd ba 3b 3b bb 03 27 ee bc
       0.11312117 -0.03367795 -0.0028569535 -0.029071337
000330 3b 04 d8 bd 22 b5 02 3e ff 94 12 3e d0 8d f0 bb
       -0.10547682 0.12764409 0.1431465 -0.007341124
000340 08 21 cf bd 73 5a 1a 3e 6c 65 03 3e 13 6f 3f 3e
       -0.10113722 0.15073566 0.12831658 0.18694715
000350 11 14 e3 bc 7c 4f cf bd b6 27 ad bd c8 8c 61 bd
       -0.02771953 -0.10122582 -0.0845484 -0.0550659
000360 84 ab a5 bc 12 c1 1d be b2 8f 8b bd 1f c4 0a bd
       -0.020223387 -0.15405682 -0.06814517 -0.033878442
000370 e2 a2 b0 ba 99 d4 9a 3d 4f e7 08 bd 18 5d 27 3e
       -0.0013476277 0.07560081 -0.033423718 0.16344106
000380 6f fc 52 bd 37 92 b6 3d ef f8 8d bd dd e4 0b 3d
       -0.05151027 0.08914607 -0.06932246 0.034153808
000390 14 e5 76 3d 2e 61 35 3d c9 52 d9 bd 60 2a 0b be
       0.06027706 0.04428213 -0.10611493 -0.13590384
0003a0 85 86 b3 3d b5 15 f3 3c 39 75 df bd d1 19 16 3e
       0.08765892 0.029673437 -0.1091103 0.14658286
0003b0 1b ec 2b 3e f7 19 04 3d 8a d4 18 3e 8b 1e 0f 3b
       0.16789286 0.032251325 0.14924827 0.0021838273
0003c0 cc 8a c1 3c 13 d3 1c 3e c2 d7 10 3e 33 06 dc 3d
       0.023625754 0.15314893 0.14144805 0.1074337
0003d0 11 1a 1c bc 8b b8 93 3d 00 2b 76 bd 77 65 c7 bd
       -0.009527699 0.07212933 -0.0600996 -0.0973615
0003e0 51 22 a2 bc 4a 84 10 be e8 6a 3b bb e1 3b ec 3d
       -0.019791754 -0.14112964 -0.0028597657 0.115348585
0003f0 fb 90 02 39 3d f9 ec bd 19 59 26 3e 00 78 99 3d
       0.00012451776 -0.11570976 0.16244926 0.07493591

Actor.fc2.bias f4 [32]
000000 8d 22 7a bd ba be cf 3d 38 d0 ad bd 63 1f 0d 3d
       -0.061068106 0.101438 -0.0848698 0.03445376
000010 58 f0 27 3d 81 2d 45 3e f0 bb bd 3d 78 32 f6 bd
       0.041000694 0.1925564 0.09264362 -0.12021345
000020 4a a6 e1 bd aa 0d f5 3d 40 34 e3 3d 50 d6 2d 3e
       -0.11018045 0.11965497 0.1109395 0.16976285
000030 39 30 d1 3d ae 89 ec 3d 22 ae c1 3d 36 9e 1f 3d
       0.10214276 0.11549698 0.09457041 0.03896924
000040 ca dd 1d bd 8d b5 ad 3d c9 ca 03 bc 0b ed 7f bd
       -0.038541593 0.08481894 -0.008043953 -0.06248192
000050 dc fe b5 bc fc 8d 69 bd 3b 93 fe bd e5 9c 49 bc
       -0.022216253 -0.057020172 -0.12430426 -0.012305473
000060 5c e1 40 3e 2a d4 bc bc e9 b4 14 3e 62 a6 36 3e
       0.18835968 -0.023050386 0.14522137 0.17836908
000070 d6 e1 1c 3e 1f b0 03 be 12 e5 4c bd 0b 50 eb 3c
       0.15320525 -0.12860154 -0.050023146 0.02872469

Actor.mean_fc3.weight f4 [17, 32]
000000 81 16 00 00 90 73 6b 17 dd 15 02 80 cf 03 00 00
       8.073e-42 7.6078456e-25 -1.91514e-40 1.366e-42
000010 13 00 00 80 07 73 02 80 63 32 00 00 64 3c 01 80
       -2.7e-44 -2.24935e-40 1.8075e-41 -1.135e-40
000020 ca 59 05 80 d0 78 01 00 b5 18 00 00 b1 8c 01 00
       -4.91388e-40 1.35175e-40 8.863e-42 1.42306e-40
000030 1e bf d6 ab 5e 37 00 80 de 01 00 80 ca 0e 00 80
       -1.525866e-12 -1.9862e-41 -6.7e-43 -5.305e-42
000040 f9 22 26 80 fe d8 04 00 ad 78 10 00 6d 34 00 80
       -3.502295e-39 4.45184e-40 1.512658e-39 -1.8807e-41
000050 b9 49 05 80 29 6e 0b 00 92 3a 00 00 02 49 00 80
       -4.85624e-40 1.049708e-39 2.1011e-41 -2.619e-41
000060 20 0f 00 80 7d 6d 0a 80 b7 42 00 00 75 3a 00 00
       -5.426e-42 -9.57632e-40 2.3933e-41 2.097e-41
000070 14 3c 02 80 76 20 08 80 da 4c 00 00 93 53 00 00
       -2.05223e-40 -7.46329e-40 2.7569e-41 2.9981e-41
000080 bf 98 20 00 c3 48 00 00 cc 0c 00 00 0c 73 03 80
       2.993531e-39 2.6102e-41 4.59e-42 -3.16778e-40
000090 92 1b 00 00 89 39 01 00 52 56 00 80 f2 ee 0e 1a
       9.89e-42 1.12475e-40 -3.0966e-41 2.955793e-23
0000a0 20 68 00 00 d3 11 00 00 ae 08 00 00 c6 06 00 00
       3.7353e-41 6.394e-42 3.114e-42 2.43e-42
0000b0 bf 5a 00 80 85 a9 01 80 fe 63 01 00 85 0a 00 00
       -3.2554e-41 -1.52648e-40 1.27706e-40 3.774e-42
0000c0 64 0c 02 00 fb 68 00 80 d1 31 00 00 fd 6e 00 00
       1.88116e-40 -3.766e-41 1.7871e-41 3.9815e-41
0000d0 41 74 02 80 38 5a 00 80 d8 12 02 00 fd f0 00 80
       -2.25375e-40 -3.2364e-41 1.90431e-40 -8.645e-41
0000e0 4f 0a 0f 00 21 2f 00 00 ff 20 01 00 54 2b 00 80
       1.38123e-39 1.6907e-41 1.03672e-40 -1.5543e-41
0000f0 15 56 00 00 aa 5a 00 80 ac 43 00 80 8c 4a 00 00
       3.088e-41 -3.2524e-41 -2.4276e-41 2.6742e-41
000100 e7 46 00 00 de 6d 01 80 2e 0a 00 80 72 37 00 00
       2.5435e-41 -1.31248e-40 -3.652e-42 1.989e-41
000110 4f 3a 00 00 a6 09 00 00 b1 2a 00 80 38 08 05 80
       2.0917e-41 3.461e-42 -1.5315e-41 -4.62126e-40
000120 2b 2b 00 80 d9 34 05 00 f8 3f 00 00 e7 6b 00 80
       -1.5486e-41 4.78136e-40 2.2948e-41 -3.8708e-41
000130 e1 3c 00 80 6f 00 02 80 fc 45 00 80 cb 1e 00 00
       -2.1839e-41 -1.83827e-40 -2.5106e-41 1.1046e-41
000140 4d 08 00 80 24 2f 00 00 f3 5d 00 00 e4 08 03 80
       -2.978e-42 1.6911e-41 3.3703e-41 -2.78696e-40
000150 af ba 01 80 2d 0a 00 00 d3 0d 00 00 f2 b0 05 00
       -1.58805e-40 3.65e-42 4.959e-42 5.22653e-40
000160 cd 32 01 80 63 ad 78 00 4c 34 00 00 26 59 00 80
       -1.1006e-40 1.1082459e-38 1.876e-41 -3.198e-41
000170 47 58 00 00 6f 3f 00 00 48 4c 00 80 6c 2a 65 97
       3.1668e-41 2.2756e-41 -2.7365e-41 -7.4047435e-25
000180 95 27 02 00 b8 7c 04 80 7d 38 00 80 95 49 00 00
       1.9787e-40 -4.12083e-40 -2.0264e-41 2.6396e-41
000190 af a9 16 80 ee d5 03 80 9d 48 00 80 54 05 00 00
       -2.081252e-39 -3.5225e-40 -2.6049e-41 1.911e-42
0001a0 23 8e 01 00 65 0a 00 80 8d 67 00 80 03 45 00 80
       1.42825e-40 -3.729e-42 -3.7147e-41 -2.4757e-41
0001b0 92 bb 33 00 61 d0 00 80 61 61 00 00 37 46 00 00
       4.750898e-39 -7.4752e-41 3.4933e-41 2.5188e-41
0001c0 f7 25 00 00 7e 1b 00 00 f0 44 01 80 f7 e9 ab aa
       1.3619e-41 9.862e-42 -1.16566e-40 -3.0538048e-13
0001d0 59 56 00 80 6d 10 00 00 c2 22 00 80 7b 06 00 80
       -3.0976e-41 5.892e-42 -1.2469e-41 -2.325e-42
0001e0 fd 20 03 80 9c 2f 00 80 5b 08 00 00 07 38 00 00
       -2.8734e-40 -1.7079e-41 2.997e-42 2.0099e-41
0001f0 ab 62 00 80 0e 66 00 80 14 22 00 00 b5 1d 00 00
       -3.5395e-41 -3.661e-41 1.2225e-41 1.0657e-41
000200 d7 08 00 00 03 29 00 80 ca 41 00 00 c3 23 00 00
       3.171e-42 -1.4712e-41 2.36e-41 1.2829e-41
000210 2f 5a 00 00 ed 2a 00 80 ad 15 06 00 0a 26 2b 00
       3.2352e-41 -1.5399e-41 5.58789e-40 3.962572e-39
000220 f3 3a 00 00 41 5e 00 00 9b 18 00 80 74 51 00 00
       2.1147e-41 3.3812e-41 -8.827e-42 2.922e-41
000230 b5 2b 00 00 15 5a 00 80 ad b0 02 00 15 50 00 00
       1.5679e-41 -3.2315e-41 2.4705e-40 2.8728e-41
000240 39 23 01 80 47 d8 00 80 16 da 04 80 9c 00 02 80
       -1.04471e-40 -7.7586e-41 -4.45576e-40 -1.8389e-40
000250 ba 9a 02 80 60 3b 04 80 a9 43 00 80 65 2f 00 80
       -2.39176e-40 -3.88642e-40 -2.4272e-41 -1.7002e-41
000260 c3 91 08 80 f5 08 00 80 46 ac 01 80 98 1a 00 00
       -7.86973e-40 -3.213e-42 -1.53636e-40 9.54e-42
000270 70 35 02 80 35 1d 00 00 9d 2b 01 00 03 52 00 00
       -2.02841e-40 1.0478e-41 1.07481e-40 2.942e-41
000280 57 0a 00 00 ae 1f 00 00 74 51 00 00 b8 48 02 00
       3.709e-42 1.1365e-41 2.922e-41 2.09758e-40
000290 dd 6b 00 00 89 e4 02 00 5a 64 00 00 5b 1d 00 80
       3.8694e-41 2.65654e-40 3.6e-41 -1.0531e-41
0002a0 f2 b0 07 00 51 36 00 00 d2 1f 00 00 e8 24 00 00
       7.06324e-40 1.9485e-41 1.1415e-41 1.324e-41
0002b0 ee 4d 00 00 be 44 00 00 51 e3 04 00 6f ff 09 80
       2.7956e-41 2.466e-41 4.48888e-40 -9.18152e-40
0002c0 34 2c 08 80 5b 58 b0 16 80 22 00 00 2e 2c 01 80
       -7.50541e-40 2.8490094e-25 1.2376e-41 -1.07684e-40
0002d0 94 1f 00 80 74 28 08 00 ca 0f 00 80 f7 4e 00 00
       -1.1328e-41 7.49196e-40 -5.664e-42 2.8327e-41
0002e0 c6 21 00 80 15 5b 00 00 16 15 00 00 24 25 00 80
       -1.2116e-41 3.2674e-41 7.564e-42 -1.3324e-41
0002f0 d1 13 00 80 49 32 00 80 0b fd 00 80 f6 55 00 00
       -7.109e-42 -1.8039e-41 -9.0775e-41 3.0837e-41
000300 fd 02 00 80 a2 25 00 80 d5 3c 00 00 4d 5f 00 80
       -1.072e-42 -1.35e-41 2.1822e-41 -3.4187e-41
000310 70 17 00 80 bb 34 00 80 f2 0f 00 80 3b 42 00 80
       -8.408e-42 -1.8916e-41 -5.72e-42 -2.3759e-41
000320 0c 3f 00 80 38 3e 00 00 b4 0c 00 80 0f 2f 00 80
       -2.2617e-41 2.232e-41 -4.557e-42 -1.6881e-41
000330 ea 2e 03 00 32 6f 01 00 2a 2f 00 00 8e 5a 00 00
       2.92336e-40 1.31725e-40 1.6919e-41 3.2485e-41
000340 c1 f7 02 00 a2 17 00 80 03 4f 00 80 80 38 00 00
       2.72548e-40 -8.478e-42 -2.8344e-41 2.0268e-41
000350 f0 39 00 80 5d 54 00 80 55 34 00 00 23 1f 00 80
       -2.0784e-41 -3.0264e-41 1.8773e-41 -1.117e-41
000360 e2 00 00 80 d5 31 00 00 31 a6 25 00 63 6a 00 00
       -3.17e-43 1.7876e-41 3.457532e-39 3.8164e-41
000370 8b c0 02 00 22 55 00 00 3d 34 00 00 8c 47 07 80
       2.52742e-40 3.054e-41 1.874e-41 -6.68515e-40
000380 34 5e 00 80 dd 2d 00 80 d5 5c 00 00 8d 65 00 00
       -3.3794e-41 -1.6453e-41 3.3302e-41 3.643e-41
000390 b8 23 00 80 60 05 00 80 b9 09 00 80 a9 7d 02 00
       -1.2813e-41 -1.928e-42 -3.488e-42 2.2875e-40
0003a0 62 51 00 00 18 2e 00 00 31 63 00 00 ef 69 20 80
       2.9195e-41 1.6535e-41 3.5583e-41 -2.976738e-39
0003b0 43 26 00 80 57 21 00 00 c9 56 01 80 a2 6c 00 00
       -1.3726e-41 1.196e-41 -1.22968e-40 3.897e-41
0003c0 69 d9 00 80 c8 bc 04 80 f1 0e 00 00 cd 30 00 80
       -7.7992e-41 -4.35064e-40 5.36e-42 -1.7506e-41
0003d0 31 6e 00 80 24 33 00 80 ef 54 00 80 ff 0b 00 80
       -3.9529e-41 -1.8346e-41 -3.0468e-41 -4.303e-42
0003e0 b8 7a b0 0c a9 a4 03 80 ee 06 00 00 8c 22 00 00
       2.7190952e-31 -3.34575e-40 2.486e-42 1.2393e-41
0003f0 80 a7 02 80 f3 36 00 00 27 43 00 00 8c 0e 00 00
       -2.43759e-40 1.9712e-41 2.409e-41 5.218e-42

Actor.mean_fc3.bias f4 [17]
000000 94 68 00 80 0f 6a 00 00 15 41 00 00 36 f6 00 00
       -3.7516e-41 3.8047e-41 2.3347e-41 8.8324e-41
000010 86 0a 00 80 30 34 00 00 78 d8 02 80 84 ac 02 00
       -3.775e-42 1.8721e-41 -2.61325e-40 2.45558e-40
000020 ab 04 03 80 6a bf 01 80 dd ef 00 80 12 6a 00 80
       -2.77181e-40 -1.60502e-40 -8.6047e-41 -3.8051e-41
000030 0b 30 00 80 e7 04 00 80 0b 1a 00 00 9d 1b 00 00
       -1.7235e-41 -1.759e-42 9.342e-42 9.906e-42
000040 cd 12 00 80
       -6.744e-42

Actor.log_std_fc3.weight f4 [17, 32]
000000 89 34 62 bc 06 04 3e bc 44 03 96 bd 63 1d 22 bc
       -0.013806471 -0.011597639 -0.073248416 -0.009894702
000010 fc 02 6e bc e2 7a 52 bc 4d cb 4d bc 22 fd 34 bd
       -0.014527079 -0.01284668 -0.012560678 -0.04418672
000020 15 9a 1b bc 48 ae b5 bd d4 bd 50 bc 82 dd ab bd
       -0.009497185 -0.08871132 -0.012740571 -0.08391859
000030 06 36 cc bc d6 39 69 bc 07 58 e0 bc 3a c1 3c bc
       -0.024928104 -0.014234981 -0.027385725 -0.011520678
000040 7a b3 84 bc 47 a7 64 bc 63 9f 9d bd d1 b6 20 bc
       -0.016198862 -0.013955898 -0.07696416 -0.009809212
000050 61 2a 3c bc df 1b 7c bc e1 93 42 bc 13 85 27 bc
       -0.011484713 -0.015387504 -0.011876077 -0.010224598
000060 d4 59 35 bc 9b ee 08 bc e1 be 0f bc cb 91 d1 bc
       -0.01106878 -0.008357669 -0.008773536 -0.025582215
000070 e8 54 0a bc b2 b2 6f bc c6 64 7c bc 5e ca 73 bc
       -0.008443095 -0.014630007 -0.015404886 -0.014879791
000080 c2 5a 9e bc 12 99 15 bc 33 2c 9f bd 1b 00 56 bc
       -0.019330386 -0.009130733 -0.07772102 -0.013061549
000090 c3 e2 e7 bc f5 34 e9 bb 34 79 69 bc 5f 9f 64 bd
       -0.02830637 -0.0071169087 -0.0142500885 -0.05581605
0000a0 a1 99 45 bc 6c 1b a1 bd 42 a0 38 bc 93 b6 95 bd
       -0.012060554 -0.078665584 -0.011268677 -0.07310214
0000b0 bb 3b 21 bd 69 22 43 bc 6d a2 24 bd e2 0e 33 bc
       -0.039363604 -0.0119100595 -0.040193964 -0.010928841
0000c0 29 f6 91 bc af f3 27 bc 67 64 92 bd 43 a5 df bb
       -0.017817574 -0.01025097 -0.071480565 -0.0068251207
0000d0 c2 36 27 bc 82 10 66 bc 81 8c 5d bc e6 eb 17 bc
       -0.010205926 -0.014042022 -0.013522268 -0.009272551
0000e0 60 a6 f5 bb c8 4c 35 bc 9f 56 ef bb a3 8e 1c bd
       -0.00749664 -0.011065669 -0.007304027 -0.038221966
0000f0 f7 1d 0e bc 7a aa 43 bc 17 c4 56 bc cf 7e 7b bc
       -0.008674136 -0.0119425 -0.013108275 -0.015350058
000100 cd 1b 69 bc 8f 73 1b bc 82 96 99 bd a3 77 8c bc
       -0.01422782 -0.009488001 -0.0749941 -0.017146891
000110 a5 a6 9f bc 0a 64 4f bc 71 6d 2f bc ae d8 5c bd
       -0.019488642 -0.0126581285 -0.010707245 -0.05391758
000120 93 ab 85 bc f8 20 aa bd 34 c5 32 bc dc 09 99 bd
       -0.016317165 -0.083070695 -0.010911275 -0.07472584
000130 43 f5 0c bd e0 37 18 bc 5f 25 2d bd 49 bd d4 bb
       -0.034413587 -0.009290665 -0.042271968 -0.006492291
000140 7b 7f 76 bc 7c 46 59 bc 18 07 8c bd 63 0f 14 bc
       -0.015045042 -0.013261434 -0.068372905 -0.009036872
000150 50 7e 43 bc 72 8e 8a bc bf b8 58 bc 4a 03 f2 bb
       -0.011931971 -0.016913626 -0.013227641 -0.007385646
000160 87 ef 0f bc 25 1d 20 bc 0f ec c5 bb 5c 5a 13 bd
       -0.008785135 -0.009772574 -0.0060401033 -0.035974845
000170 1e a0 54 bc b2 b9 74 bc f6 4f 09 bc 43 38 88 bc
       -0.012977628 -0.014936851 -0.008380881 -0.01662839
000180 86 6b bc bc 0e 71 1f bc b1 5b 95 bd 21 2d 7e bc
       -0.02300049 -0.009731544 -0.072928794 -0.015513689
000190 25 ee 0e bd de ab 19 bc 70 e3 35 bc 4e a3 66 bd
       -0.03489508 -0.009379355 -0.011101589 -0.056308083
0001a0 70 81 6b bc e5 44 95 bd 64 3f 1d bc 72 52 91 bd
       -0.014374122 -0.07288531 -0.009597633 -0.07095803
0001b0 e7 16 28 bd 77 7c 14 bc 1e 50 2c bd 90 42 fc bb
       -0.041037466 -0.009062878 -0.042068593 -0.0076983646
0001c0 80 25 82 bc 7b 40 12 bc 4c f7 94 bd 55 89 2d bc
       -0.015887022 -0.008926506 -0.07273731 -0.010591825
0001d0 e0 84 39 bc 2a 43 5d bc d5 cf 37 bc fc a5 d8 bb
       -0.011323184 -0.013504783 -0.011218985 -0.0066115838
0001e0 67 34 1c bc 74 0b 3b bc a2 80 d2 bb d4 02 17 bd
       -0.009533978 -0.011416305 -0.0064240256 -0.03686793
0001f0 13 36 35 bc d0 59 3d bc b5 e9 4a bc 3a 30 91 bc
       -0.011060256 -0.0115570575 -0.012384822 -0.017723192
000200 f1 8a 99 bc ba 18 46 bc 30 f5 93 bd 02 7a 8a bc
       -0.01874301 -0.012090856 -0.072245 -0.016903881
000210 36 70 c1 bc 34 03 4a bc 80 fc 49 bc 0c b6 65 bd
       -0.023613077 -0.012329865 -0.012328267 -0.056081817
000220 0d e6 81 bc b0 ca a1 bd 19 9e d7 bb 41 a2 8f bd
       -0.015856767 -0.07899988 -0.006580126 -0.07013369
000230 76 42 04 bd 1d 45 28 bc 8e 82 2d bd 6e 61 f3 bb
       -0.032289945 -0.010270384 -0.042360835 -0.007427386
000240 05 dc 85 bc 80 f5 38 bc cd 81 8b bd 6a 0e b8 bb
       -0.016340265 -0.0112890005 -0.06811867 -0.0056169527
000250 50 9e 47 bc 44 8f 5f bc 29 da 5b bc 4f 8e 20 bc
       -0.012183741 -0.013644997 -0.013418713 -0.009799554
000260 26 09 12 bc 8a 04 21 bc 45 95 02 bc 0f 07 0b bd
       -0.008913314 -0.009827742 -0.007970159 -0.03394228
000270 9f 4c 21 bc 46 2e 96 bc e3 cd 62 bc 08 e9 6f bc
       -0.009844928 -0.018332612 -0.0138430325 -0.014642961
000280 22 ed b9 bc 8f f9 e7 bb 40 e8 9a bd 4e bc 64 bc
       -0.022696082 -0.0070793102 -0.075638294 -0.013960911
000290 3d a4 ed bc 17 cf 38 bc eb e0 3f bc 87 c8 69 bd
       -0.029008979 -0.011279843 -0.0117113395 -0.057076003
0002a0 25 ab 32 bc 62 01 94 bd ca de b5 bb e2 ef 93 bd
       -0.010905062 -0.07226826 -0.00555024 -0.072234884
0002b0 9f bc 26 bd 1f 70 4d bc b6 8d 1a bd fc a2 17 bc
       -0.040707227 -0.012538939 -0.037732802 -0.009255167
0002c0 40 b0 92 bc 2a 04 3a bc 12 a6 9e bd 33 da 20 bc
       -0.017906308 -0.011353532 -0.07746519 -0.009817648
0002d0 45 6f 08 bc 84 9d 52 bc 39 57 3b bc 2b 5e b1 bb
       -0.00832731 -0.012854937 -0.01143437 -0.005412837
0002e0 e8 29 a4 bb 82 41 2c bc f9 ce fb bb 65 2b 1f bd
       -0.0050098784 -0.010513665 -0.007684585 -0.038859744
0002f0 5c 07 26 bc 99 82 54 bc 95 84 2a bc 91 74 7f bc
       -0.010133591 -0.01297059 -0.010407587 -0.015591756
000300 1a 37 ea bc f5 84 32 bc c2 24 9c bd 0c b5 5b bc
       -0.028590728 -0.010895957 -0.076241985 -0.013409864
000310 e7 24 68 bd bf 9d 1b bc a4 f1 5b bc 80 8c f9 bc
       -0.056675818 -0.009498059 -0.013424311 -0.030462503
000320 c1 1a 92 bc 58 cf a1 bd 19 ba 03 bc 68 8d 8e bd
       -0.017835023 -0.07900876 -0.008039975 -0.06960565
000330 28 0d 1a bd 2e 84 62 bc 99 cb c4 bc 61 69 1a bc
       -0.037610203 -0.013825459 -0.024022864 -0.009424538
000340 17 57 76 bc d8 91 38 bc 1c 72 8c bd 8e 92 05 bc
       -0.015035412 -0.011265241 -0.06857702 -0.008152617
000350 71 79 5a bc 39 a3 68 bc 8e 67 35 bc 4c 3f e9 bb
       -0.013334618 -0.014199072 -0.011072053 -0.0071181413
000360 36 af df bb 7c 5b 3d bc 80 cc ab bb b4 db fb bc
       -0.0068263067 -0.011557456 -0.005242884 -0.030744411
000370 eb f8 51 bc 59 d9 3a bc 7e 66 6e bc 9b 61 8c bc
       -0.012815694 -0.011404359 -0.014550803 -0.017136386
000380 cf 02 5b bc 95 61 55 bc 9f d8 97 bd a1 c6 83 bc
       -0.013367369 -0.013023754 -0.07414364 -0.016085925
000390 45 3a c7 bc ad 9e 1f bc 0d cc 26 bc 42 91 67 bd
       -0.024319777 -0.009742421 -0.010180485 -0.056535013
0003a0 03 ec 6d bc c5 0e aa bd 58 f2 14 bc 40 ee 8f bd
       -0.014521602 -0.08303598 -0.009090982 -0.070278645
0003b0 b9 af 10 bd 67 4d 56 bc 74 28 32 bd a0 d7 0c bc
       -0.035323832 -0.013079978 -0.04349561 -0.008596331
0003c0 f2 9e 5f bc a9 9c 58 bc 80 1b 8c bd d6 ac e0 bb
       -0.013648735 -0.013220944 -0.06841183 -0.006856541
0003d0 81 41 1e bc 32 1a 62 bc ab 5a 70 bc 5e 19 39 bc
       -0.009659172 -0.013800191 -0.014670054 -0.011297552
0003e0 f0 5e e3 bb a2 1b 0b bc bc 22 14 bc 0e 86 17 bd
       -0.0069388077 -0.008490475 -0.009041484 -0.03699308
0003f0 f2 4e 48 bc 71 6f 86 bc 0e f7 49 bc 22 9e 87 bc
       -0.012225853 -0.016410561 -0.012326969 -0.016554896

Actor.log_std_fc3.bias f4 [17]
000000 9d f3 4e bc 72 58 09 bd 4a e4 18 bd 01 27 23 bd
       -0.012631324 -0.033531614 -0.03732709 -0.03983212
000010 cb 31 32 bd bd 12 14 bd f4 29 39 bd 88 3d 1a bd
       -0.043504518 -0.036150683 -0.045206025 -0.037656337
000020 23 a3 b4 bc 28 c6 2e bd ee 67 25 bd 1d 59 26 bd
       -0.022050446 -0.042669445 -0.04038232 -0.04061233
000030 bc 0b 9f bc ff 3b 21 bd ea d3 56 bd fc b6 27 bd
       -0.019414775 -0.039363857 -0.05244819 -0.040945992
000040 c9 68 1b bd
       -0.037941728

Critic.fc1.weight f4 [32, 378]
000000 f2 6f 7c 3d 59 cb 54 3d b4 d0 b4 3d fa 74 3c 3d
       0.061630197 0.05195174 0.088288695 0.046009995
000010 5d 03 1d bd e5 52 d7 bc a6 a9 01 bd 23 d0 6c 3d
       -0.038333286 -0.026284644 -0.03165593 0.057815682
000020 ab 2d df bc 9b 3d 1c 3d d2 67 22 3d 71 7e c5 3c
       -0.027243456 0.03814469 0.039649792 0.024108144
000030 55 7c 09 bd a5 b5 db bc 21 a4 32 3d 66 c4 88 3d
       -0.033565838 -0.026820013 0.043613557 0.06678085
000040 2b 73 45 bd 97 24 89 bc c8 c7 12 3d bf 49 bb bd
       -0.048205536 -0.01674108 0.035835057 -0.09144925
000050 a9 4f 93 bd 36 fd f3 bc 05 0a 5e 3d fe 18 c5 bd
       -0.07192928 -0.029783826 0.054208774 -0.096239075
000060 f9 54 29 3d 67 54 c7 3c 95 a4 8a 3b 0d 9e ab 3b
       0.041340802 0.024332238 0.0042310455 0.005237347
000070 1f b2 73 bc ec 4e 6f bd c2 b0 5a bc 6a b9 02 bd
       -0.01487401 -0.058424875 -0.013347806 -0.031915106
000080 35 4c 98 3d c4 d6 b9 3c a0 26 b4 bc 37 12 41 3d
       0.0743641 0.022685416 -0.021991074 0.04713651
000090 13 e8 52 bd 1c d7 b7 bc b1 de 20 bd fb 9a 38 3d
       -0.051490854 -0.02244144 -0.039274875 0.045069676
0000a0 62 e6 a2 bd 7e 6f 28 3a b6 12 01 3d d2 c8 cf bc
       -0.07954098 0.0006425305 0.031511985 -0.025364313
0000b0 8b d2 39 3b 25 8d 94 3d 61 1e f7 3c 53 7a c9 3c
       0.0028354253 0.07253484 0.030165853 0.024594462
0000c0 63 9e 2d bc 68 bb 0b 3d 85 c6 03 3b 6a ac 83 3c
       -0.010596844 0.03411427 0.002010734 0.016073424
0000d0 2f 84 da 3c 34 3d 9c 3c af 13 42 3d 7c 37 06 3d
       0.026674358 0.019072153 0.047382053 0.032767758
0000e0 8d ec e3 bc b2 45 47 3d 62 34 5d 3d da fa a0 3c
       -0.027822757 0.04865045 0.054005034 0.019650865
0000f0 ec cb 41 3d 1f 1b 7d 3c b2 02 b9 bd cf ad 68 bd
       0.047313616 0.015448361 -0.09033717 -0.05680638
000100 8e ac d0 3c 40 95 5a 3d be fc 77 3d d4 a8 bc 3d
       0.025472905 0.053364992 0.060543768 0.09211889
000110 70 d1 a9 3c 87 82 d6 3c f6 e4 6e 3c 8c e4 ad 3d
       0.02072975 0.026185287 0.014580956 0.084908575
000120 c3 93 28 bc c1 06 93 bc 45 44 f4 bc dd fb 96 3c
       -0.010289135 -0.017947556 -0.02981771 0.018430645
000130 96 81 41 3d 68 74 8d 3d a0 47 ba 3d a4 3a ac 3d
       0.047242723 0.06906968 0.09095693 0.08409622
000140 76 87 82 bc 3e bf 76 3d 9f 57 9f 3b 92 c7 1b bd
       -0.015933733 0.060240977 0.00486274 -0.038032122
000150 bb c3 a7 bd 43 03 37 3d 59 09 8f 3d 82 be 42 3d
       -0.081916295 0.044680845 0.06984205 0.047544964
000160 01 a2 51 3d f8 fa 66 3d 9a 5f 61 3d 51 28 19 3d
       0.05117989 0.056391686 0.055022813 0.037391964
000170 67 60 bb bd 0f da 8e 3c 31 f5 99 bd 65 24 6b bd
       -0.09149247 0.017437963 -0.0751747 -0.057407755
000180 ab 55 e0 3c ae cb b7 3d e0 13 d1 3d 72 20 a3 3d
       0.0273846 0.08974396 0.10208869 0.07965173
000190 b0 51 33 3d de 0d 71 3c 22 52 e2 bb dc de 66 3d
       0.043779075 0.014712779 -0.0069067637 0.05636488
0001a0 1a 8b ac bc ee 6b 50 bd 37 b5 95 3c 76 bf 15 3d
       -0.021062423 -0.05088418 0.018274887 0.036559545
0001b0 c6 af 1b 3d 25 0d d3 3d 1b 31 74 bd 76 3e aa bd
       0.038009427 0.103052415 -0.059617143 -0.08312695
0001c0 8e dd aa bd fd ee 01 be 9a 04 96 bd 7d e6 a1 bd
       -0.083430395 -0.12688823 -0.073250964 -0.0790529
0001d0 6b 8a ba 3d 44 af 80 3c 5a 08 53 3d a6 39 8b 3d
       0.091084324 0.015708573 0.051521637 0.06798105
0001e0 7d 6f 5b bc 1b 3e a7 3d 00 97 8c 3d f4 a3 dc 3d
       -0.01339328 0.081661426 0.068647385 0.10773459
0001f0 a3 05 8e 3d 24 b1 27 bd 64 9d 9b 3d 5d 31 41 3c
       0.06934669 -0.04094042 0.07598379 0.011791554
000200 fe 9f 6c 3d b2 98 12 3d 9c 8f 9c bc ac c1 e0 bc
       0.057769768 0.035790153 -0.019111447 -0.0274361
000210 22 e9 d2 3d e8 81 32 3c bc 33 84 3d 63 ca af bc
       0.10298373 0.01089523 0.0645518 -0.02145881
000220 d6 9c 76 3d 13 10 8b 3d 56 9c a5 3d 16 5f 07 3d
       0.060208164 0.06790175 0.08086459 0.033049665
000230 d4 53 49 3d 6f 94 64 bd c5 a7 5d 3d 7c f3 a6 bd
       0.04915221 -0.05580562 0.054115076 -0.0815191
000240 e5 26 c5 3d ef d3 37 bd 23 96 72 3d 21 60 c3 3d
       0.09626559 -0.04487985 0.059225213 0.095398195
000250 5a 13 79 3d 6e be ce 3c 8d 7c ac 3c fa 60 3f 3d
       0.06080947 0.025237288 0.021055484 0.046723343
000260 0d 8b d3 3d 6d fb c4 3c 57 85 d3 bd 26 03 aa 3d
       0.10329256 0.02404567 -0.10328167 0.08301382
000270 74 da 6a 3d c1 df 18 bc 6b 97 5b 3d 19 f4 38 3d
       0.05733724 -0.009330691 0.0536112 0.045154665
000280 34 18 55 bb c9 b6 cb 3b 5e 66 84 bb 85 3a 08 3c
       -0.0032515647 0.006216858 -0.0040405234 0.008314733
000290 e8 64 9e bd fa 62 89 3d 13 43 25 3d f6 43 b8 3d
       -0.0773409 0.067083314 0.04034717 0.089973375
0002a0 89 b7 cf 3d d7 9f de 3c 2c b4 a6 bc 5e 4d 7b bc
       0.101424284 0.027175827 -0.020349585 -0.01533827
0002b0 c0 e4 f8 bc 8a 5f 3c 3d 16 45 ca 3d 0c 26 fb 3c
       -0.030382514 0.04598955 0.09876458 0.03065779
0002c0 a8 95 a5 3c e0 ab ba bb 32 c2 45 bc b4 c3 88 3d
       0.020212963 -0.0056967586 -0.012070226 0.066779524
0002d0 5f 59 80 bd 9e a7 6a bd 24 08 50 bc 08 6b 74 3d
       -0.06267046 -0.05728876 -0.012697253 0.059672385
0002e0 dc 0d e7 3b b3 50 a4 3d 3b 26 4b 3d e5 be 34 bc
       0.0070512127 0.08023205 0.049597006 -0.011031841
0002f0 e5 d4 0f 3a a8 79 0a 3d 8a 3a 22 bc 65 6c ec bc
       0.0005486741 0.033807427 -0.009901652 -0.02886028
000300 36 f9 b6 3c d2 9e c3 bb 1b f4 7a bd 15 e1 92 bd
       0.02233563 -0.0059698606 -0.061267953 -0.07171837
000310 a2 59 72 3d f0 41 8a bc 49 5e 6d bc 3c 62 5a bd
       0.05916751 -0.016877145 -0.014487811 -0.05331634
000320 00 b5 b0 bd 6a 13 2b 3c 98 ed 95 3d 8c 75 b6 bb
       -0.08628273 0.01044164 0.07320708 -0.005568212
000330 6e f9 c3 bd 77 07 c7 bc da af cc bd 34 24 c2 b9
       -0.09569059 -0.024295552 -0.099944785 -0.00037029537
000340 a5 d9 e6 3d 5d 00 64 bc cc 43 82 bc 55 a3 02 bc
       0.11271981 -0.013916102 -0.015901469 -0.007973512
000350 b3 84 08 3b ac b0 0e 3d 66 d4 de 3d 83 0e 65 bd
       0.0020831048 0.034836456 0.108803555 -0.055922043
000360 ac 43 67 bd e5 37 70 3d 18 46 b6 3d 60 0f 14 bc
       -0.05646102 0.058647055 0.08900088 -0.009036869
000370 85 b8 39 3d 39 f5 02 3d 4c 6d 2e bc 7c 45 cb 3c
       0.045341987 0.031972144 -0.010646176 0.024813406
000380 63 26 a6 3d 61 73 2b 3d e0 93 b8 3d ee 05 3f bd
       0.081127904 0.04185808 0.0901258 -0.046636514
000390 62 a2 34 bc 9a e7 d3 bb 38 62 71 bd eb 1a d6 3c
       -0.011025043 -0.006466818 -0.05893156 0.026135882
0003a0 b5 bd 7b 3d ec fc 25 3b cf b5 79 3a cc 7a 28 3d
       0.061460216 0.0025327755 0.0009525688 0.041132733
0003b0 f8 a8 d8 3c 61 47 16 bd 7c 1f 4d 3d a1 d7 ab 3b
       0.026447758 -0.036689166 0.050078854 0.005244211
0003c0 69 8e 25 bd dd 71 8a 3c 26 a7 03 3c 1f fb 05 bc
       -0.040419016 0.016899997 0.008035457 -0.008177548
0003d0 92 4a cd 3d 3f 59 39 bd 63 34 5b 3c 95 52 cc 3c
       0.10023989 -0.045251127 0.013379189 0.024941722
0003e0 40 82 09 bc 89 5f 43 bd 84 9a a9 bc 6d fd d8 ba
       -0.00839287 -0.04769853 -0.020703562 -0.0016555019
0003f0 21 af 74 bd 00 f9 65 bc b7 03 24 3c bb e1 8f bd
       -0.05973733 -0.014036417 0.010010651 -0.070254765

Critic.fc1.bias f4 [32]
000000 e2 e4 87 3d 02 6f 75 3a 80 c4 57 3d fd d7 88 3d
       0.06635453 0.000936255 0.05267763 0.066818215
000010 83 d4 a1 3d 0d 32 88 bb da b9 58 3c fd 45 d2 bc
       0.079018615 -0.004156357 0.013227904 -0.025668139
000020 81 0f 6d 3d 00 1d c7 3d 05 c1 1b bd 13 27 23 3c
       0.057876114 0.09722328 -0.038025875 0.0099580465
000030 f3 f7 1e bc 37 14 91 3c 92 cb 7c 3d 58 03 c6 3c
       -0.00970267 0.017709835 0.061717577 0.024171516
000040 21 db d5 bc 64 f7 87 3d 94 ca 74 3d 6b d5 a4 3c
       -0.026105465 0.06638983 0.059763506 0.020121297
000050 b6 5d 35 3d 35 dd fe 3c e6 47 b0 3d c3 26 f6 bc
       0.044278823 0.03111134 0.086074635 -0.03004778
000060 0c 0f 50 bc 8b 41 44 3d 48 a0 db bc 89 a3 93 3c
       -0.0126989 0.04791407 -0.026809826 0.018022316
000070 e0 3b d5 3d be 6f 73 3d 40 9f b3 3c 36 8d c6 3d
       0.10411811 0.059432738 0.021926522 0.096949026

Critic.fc2.weight f4 [32, 32]
000000 de bf 13 3e d9 fe 0a be 24 a5 02 3e 2a a9 f6 3d
       0.1442866 -0.13573779 0.12758309 0.12043984
000010 65 bd d5 3d e5 96 ae bd 93 7d 40 bc d3 d7 78 3c
       0.10436515 -0.085248746 -0.011748689 0.015188175
000020 de ed 0a 3c 5a 53 af 3d 6f ff 1e bd 2f 07 b3 3c
       0.0084795635 0.0856082 -0.03881782 0.021854011
000030 1e ab 43 be 62 43 84 3c 4f d1 07 3e b2 73 bc 3d
       -0.19108245 0.016145412 0.13263439 0.09201755
000040 bb d5 84 39 16 ba 35 3e a3 c5 c0 bc cd 66 b6 3d
       0.00025336244 0.17746767 -0.02353174 0.089063264
000050 e6 3c 8d 3d ba 4c 64 3c bb 43 ab bd 53 ef f1 bc
       0.06896381 0.013934309 -0.08362528 -0.029533064
000060 80 2b 20 3e 5e b7 9b bc 1e 6e 49 bd 9b f5 d7 bd
       0.15641594 -0.019008335 -0.04917728 -0.105448924
000070 22 4c f9 3d 9c 49 d0 bd 2a da 11 3e da 3d 92 bd
       0.12172724 -0.1017029 0.14243379 -0.071407035
000080 a5 3e 94 3d 07 fe d7 bd b1 29 42 3d 2e 1c 51 3e
       0.07238511 -0.10546499 0.04740304 0.20420906
000090 0e 7b 41 3e 04 1c df bd f4 16 d4 3d 0b b3 0d be
       0.18894598 -0.108940154 0.103559405 -0.1383783
0000a0 14 d3 01 3e 67 36 f5 bc 4d 4a 26 bd 6c d2 85 bd
       0.12678176 -0.029933168 -0.040598202 -0.065342754
0000b0 5e 10 31 be 50 fa e0 3d 5e 36 d0 3d fb 22 ca bd
       -0.172914 0.10985243 0.1016662 -0.09869953
0000c0 e1 e9 76 bd a2 58 f4 3d 86 fa 4e 3e f0 30 e7 3d
       -0.060281638 0.11930968 0.20212755 0.11288631
0000d0 80 80 80 3d cf 31 db bc b3 87 ad bc 89 a0 92 bc
       0.062745094 -0.026757149 -0.02118287 -0.017898815
0000e0 97 e5 cf 3d e6 af 9c bd b4 2d b5 3d 2a a1 26 be
       0.10151213 -0.076507375 0.08846608 -0.16272417
0000f0 02 0c 8b bc 94 ac 84 3d f9 44 f6 3d aa 84 4a 3e
       -0.0169735 0.06478229 0.12024874 0.1977717
000100 39 c6 e9 3d a0 5d 10 be b8 fa c6 3b e0 f6 9d 3d
       0.11414761 -0.14098215 0.0060723685 0.07713103
000110 40 3e 58 bd f7 12 66 3d 8a 6a 8c 3d ca 48 94 bd
       -0.05279374 0.05617043 0.06856258 -0.07240446
000120 64 0f ea 3d 0b 3c 0a bd 23 84 f6 bc 8c 9c cb bd
       0.11428717 -0.033748668 -0.030092305 -0.09941968
000130 91 ae 2c be 62 14 94 3d 55 23 21 3e a0 68 e3 bb
       -0.16863467 0.0723045 0.15736134 -0.0069399625
000140 be 29 a4 bd 84 82 76 3d 57 c2 03 3e 88 7b a3 3d
       -0.08015774 0.060183063 0.12867104 0.07982546
000150 60 aa e7 3c aa be 03 3e 2a f9 5a 3e 73 49 f4 bd
       0.028279483 0.12865701 0.21384111 -0.11928072
000160 de 8e 08 be 6a d0 3d 3d 2d 1d ef 3d 0b 54 10 3e
       -0.1333575 0.046341337 0.11675487 0.1409456
000170 60 e5 69 bb 86 36 d2 bd 7e b0 99 bd 99 7f 33 3e
       -0.0035689697 -0.10264306 -0.07504366 0.17529143
000180 3e 73 0d be 88 9a a9 3c 41 30 ef bd 2b 42 72 3d
       -0.13813493 0.020703569 -0.116791256 0.059145134
000190 5d 15 88 bd 3e 45 00 38 bf da 27 3d a2 ad 96 bd
       -0.066447 3.0582065e-05 0.040980097 -0.073573366
0001a0 43 16 89 3d cb a5 02 3e ff c2 e4 3d ba 0e 81 3d
       0.06693699 0.12758557 0.11170005 0.06301637
0001b0 f6 06 95 3d ea b9 24 3e a3 03 1e 3d cd 85 34 3e
       0.07276718 0.16086546 0.038577687 0.17629166
0001c0 7b 07 ba 3d 87 67 c3 3c f8 d9 6e bd 24 03 b5 bd
       0.09083458 0.023853077 -0.05831334 -0.0883849
0001d0 1a b7 3d bd 51 c9 f3 bd 6f 7a f8 bd 65 b4 19 be
       -0.046317197 -0.119036324 -0.12132727 -0.15010221
0001e0 5a 14 1e 3e 20 e5 b9 bd 81 e3 e5 3d 63 df e8 3d
       0.15437451 -0.09076905 0.112250336 0.11370733
0001f0 c0 67 ca 3d a5 b8 33 3e 7a c7 50 bd 93 0e 19 be
       0.0988307 0.17550905 -0.050971486 -0.14946966
000200 94 5e d0 3d 73 c2 34 be 90 fb 3b 3e 17 9f f9 bd
       0.10174289 -0.17652301 0.18357682 -0.12188547
000210 44 af e0 bd 57 d4 56 3e d0 2d 18 3e f1 d5 e8 bd
       -0.10970929 0.20979439 0.14861226 -0.11368931
000220 77 ef 31 3e 21 bf ac 3d da 3d b6 3c 78 b1 20 3d
       0.17376505 0.084348924 0.02224629 0.039231747
000230 9c d8 03 3e 82 02 da 3d 91 98 17 3d 21 3c 02 be
       0.12875599 0.106450096 0.037010733 -0.1271825
000240 d2 9b f4 bd db 26 b6 bb 2d cb 05 be 13 b1 e4 bd
       -0.11943783 -0.005558831 -0.13065787 -0.11166587
000250 2e b2 9c 3d ec 84 cc bd 62 e0 0f bd ae 02 b4 bd
       0.076511726 -0.0998629 -0.035126098 -0.087895736
000260 d8 18 e7 3d 4c 3a ba 3d 6e 5c 34 3e b8 e6 3d be
       0.112840354 0.090931505 0.17613384 -0.18545043
000270 cd af 9b 3c fd a6 84 bc 05 95 84 ba 78 84 48 3d
       0.019004727 -0.016192907 -0.0010115212 0.048954457
000280 fe 2f 15 be aa 98 d4 3d 26 c1 81 3d 40 cb 97 bd
       -0.14569089 0.10380681 0.06335668 -0.07411814
000290 51 5e ae bc 03 27 9b 3d 3e 8a 13 3d 68 fb 8a 3c
       -0.021285208 0.075758 0.03602051 0.016965583
0002a0 b1 8b d7 3d 97 c8 0a bd f1 d5 09 be c6 c2 1a be
       0.10524691 -0.033882704 -0.13460518 -0.15113363
0002b0 7f d0 d2 3d 98 65 87 bd 50 d8 dd 3d 6a af 32 3d
       0.10293674 -0.06611174 0.10832274 0.04362432
0002c0 64 c2 0a 3e 32 01 05 be 7a e3 ed bd 72 a4 c7 3d
       0.13550717 -0.12988737 -0.11615653 0.09748162
0002d0 62 41 05 3c 26 31 ca 3d 1b 51 2e 3e 32 7e 20 be
       0.008133264 0.098726556 0.17023127 -0.1567314
0002e0 73 ff c6 3d e5 b3 14 3d e5 97 79 3d 3d b3 e7 3d
       0.09716692 0.036304373 0.060935874 0.11313484
0002f0 69 62 ee bb a4 bd 08 be c9 81 ab bd 85 3c 0a 3e
       -0.007274915 -0.13353592 -0.08374364 0.13499649
000300 85 b8 ae bc d4 77 65 bd d3 d5 cb bd 3f 10 1b 3d
       -0.02132822 -0.05602248 -0.09952893 0.03785729
000310 d2 78 49 3e 4c e1 09 be 72 be 0d be 47 04 ba bd
       0.19674996 -0.1346485 -0.1384218 -0.09082847
000320 d9 77 ce 3d 82 b0 fc bd 08 69 a6 bd 9b 41 5e 3e
       0.10081453 -0.12338354 -0.08125502 0.21704714
000330 f6 2c 21 be c6 e6 0d 3d c6 4a b0 bd 52 0b 43 3e
       -0.15739807 0.03464391 -0.08608012 0.19047287
000340 9c d2 a8 bd 1f e6 45 3e cc 85 36 bd a8 03 14 3d
       -0.082432956 0.19326065 -0.044561192 0.0361363
000350 89 c5 f1 bd 4c 3a 13 3d 2d 46 03 3e a4 c0 b9 3c
       -0.11805255 0.035944268 0.12819739 0.022674866
000360 73 2f ef 3d 22 c2 92 bd 42 4d f5 3d 9c 77 c2 3c
       0.11678972 -0.07165934 0.119776264 0.023738675
000370 fe a0 47 3e 56 c5 ae bd 9c f0 61 bd cb 15 91 bc
       0.19495007 -0.085337326 -0.055161104 -0.017710587
000380 5d 4d c9 3c 7a 6e f4 bd 08 ba 0a 3c 4d c6 18 3e
       0.024573022 -0.11935134 0.008467205 0.14919396
000390 e8 89 08 3e e5 97 cc 3d 20 3b 8a bd 43 d6 18 be
       0.13333857 0.09989909 -0.067495584 -0.14925484
0003a0 e0 58 2b 3e dd a5 87 3c 8d 2d 89 3c f0 d2 49 3e
       0.16733122 0.016558582 0.016745353 0.19709373
0003b0 91 7e 00 be 3f a1 bd bd 18 84 42 3e 8d be 23 3d
       -0.12548281 -0.09259271 0.18995702 0.039976645
0003c0 79 fc 14 be 0e b2 d4 bd ce ca 1a bd cf 5d 9f bd
       -0.14549436 -0.10385524 -0.037791066 -0.077815644
0003d0 c2 27 01 3e cb af 42 3e e9 ea d5 3d 76 5f cf bd
       0.12612823 0.19012372 0.10445196 -0.101256296
0003e0 fc 25 c5 bc 39 a0 a8 3d 0b 2d 19 be 2e e9 b6 3c
       -0.024065964 0.08233685 -0.14958589 0.022327986
0003f0 7a 9a f1 3d 72 30 19 3e fd 29 fb bc 60 ef 93 3d
       0.11797042 0.14959887 -0.03065967 0.072233915

Critic.fc2.bias f4 [32]
000000 c2 8c 8b 3b e8 1e 66 3e 8e 17 d6 3c d7 1d 1a be
       0.004258723 0.22472727 0.026134279 -0.15050445
000010 22 4e 0b 3d 99 fe ed bd c6 1e 0b 3e 30 e4 8f 3d
       0.03401006 -0.11620826 0.13585958 0.07025945
000020 16 56 c7 bd 87 e8 ee 3d 47 db 12 3e 2c c3 17 3e
       -0.097332165 0.11665445 0.1434146 0.14820546
000030 3b ae f2 3d 0d 99 1b 3d de 37 ba 3d db 9c b3 3d
       0.11849638 0.037987757 0.09092687 0.08770152
000040 91 5d e6 3d 90 25 4f 3e 8d 8a e3 3d c4 53 04 be
       0.11248315 0.20229173 0.11110411 -0.12922579
000050 b5 ec 41 3e f3 27 a9 3d 09 fc 9e bd b3 d6 37 bd
       0.18937953 0.08259573 -0.07762916 -0.044882488
000060 3a 89 30 3d 49 f3 eb bd da 1e 64 bd a2 d4 5b 3e
       0.04309962 -0.11521012 -0.055693485 0.21467832
000070 bb 51 67 3c bf 9c fe bd 2f 24 7a 3d 5e 3b c0 bc
       0.014118607 -0.12432241 0.061069664 -0.023465808

Critic.fc3.weight f4 [1, 32]
000000 32 95 33 3d 7d 70 34 3d 46 e6 2c 3d a6 0d f7 bb
       0.043843456 0.04405259 0.042211793 -0.007539469
000010 30 2e 34 3d 62 78 7f bc b9 63 0f 3d 29 be 48 3d
       0.04398936 -0.015592666 0.035007212 0.049009476
000020 65 80 8d 3b eb c5 49 3d 3f a3 26 3d ca 93 13 3d
       0.0043182843 0.049261015 0.040683027 0.036029615
000030 6f 48 56 3c 1c bb 3c 3d 22 6b ac 3c c2 5a 7a 3c
       0.013078793 0.04607688 0.021047179 0.015280427
000040 c1 e5 90 3c cd a5 00 3c 2c 4b 32 3c e3 56 4d 3c
       0.01768768 0.00785203 0.01088218 0.012532922
000050 69 ce 28 3d cc f1 c2 3c bf b3 0c 3d 4a 2e 33 3d
       0.041212473 0.023796938 0.034351107 0.043745317
000060 96 95 f9 3c 94 5b 72 3c e6 9a 22 3d aa 1a bc 3c
       0.030466836 0.014792342 0.039698504 0.022961933
000070 b0 48 ee 3c d9 67 fc b9 ee 11 4e bb 27 c7 9f 3c
       0.029087394 -0.00048142558 -0.0031443792 0.019504143
