model.pt (torch, 114376 bytes, 13 tensors)

Actor.fc1.weight f4 [32, 378]
0	0x3ca1aeec	0.01973673
1	0xbcb648f1	-0.022251578
2	0x3b8ab1ee	0.0042326367
3	0x3d6c5735	0.057700355
4	0x3cdee8be	0.02721059
5	0x3b6d2d80	0.003619045
6	0xbcc13a2c	-0.023587309
7	0x3cd53837	0.026027782
8	0xbd3d073e	-0.046149485
9	0x3d12c24b	0.035829823
10	0x39a302e2	0.0003109193
11	0xbcdaba82	-0.026700262
12	0xbcf66610	-0.030077964
13	0xbc682d14	-0.014170904
14	0xbc18dbeb	-0.009329776
15	0x3cb08f92	0.021552835
16	0x395a850f	0.00020839668
17	0xbdaa5545	-0.08317045
18	0x3d493b6d	0.04912894
19	0xbd1144bf	-0.035465952
20	0x3ccd4101	0.02505541
21	0xbc8920f7	-0.016739352
22	0xbc9d72ef	-0.019219844
23	0xbd80f294	-0.06296268
24	0xbd0a5814	-0.033775404
25	0xbcf8a61b	-0.030352643
26	0x3c0b45b3	0.008500504
27	0x3d1b86b2	0.037970252
28	0xbcb8c020	-0.02255255
29	0xbce09a6e	-0.027417388
30	0xbd228f55	-0.039687473
31	0x3d241d59	0.04006705
32	0x3d02ad2e	0.03190344
33	0x3bae2ec6	0.0053156344
34	0xbd874019	-0.066040225
35	0x3d08dc5c	0.033413276
36	0xbc8d31a2	-0.01723558
37	0x3c9bb40e	0.019006755
38	0xbce75dc4	-0.028242953
39	0x3ce9b673	0.028529381
40	0xbd9c90b0	-0.076447845
41	0xbd318f31	-0.04334945
42	0x3cca1c54	0.024671711
43	0xbd325134	-0.043534473
44	0x3c63c505	0.013901954
45	0xbcfed80c	-0.031108879
46	0x3c8405e1	0.016116085
47	0x80005c2e	-3.3068e-41
48	0x03021390	3.8226023e-37
49	0x206c8fa2	2.0037502e-19
50	0x000050b9	2.8958e-41
51	0x80001af7	-9.673e-42
52	0x00004905	2.6194e-41
53	0x80008369	-4.7141e-41
54	0x800017db	-8.558e-42
55	0x000051ea	2.9385e-41
56	0x00005f59	3.4204e-41
57	0xbb9d3474	-0.0047975127
58	0x3d0e44e2	0.03473366
59	0x3b067068	0.0020513777
60	0x3cbad9de	0.022808965
61	0x3d7773b8	0.060413092
62	0xbd0831dc	-0.033250675
63	0xbd778c2e	-0.06043642
64	0xbc00391c	-0.007826116
65	0xbcdf0428	-0.027223662
66	0xbc8fd0e1	-0.017555656
67	0x3b612d16	0.0034359149
68	0x3d4117cc	0.047141835
69	0xbd0a02c8	-0.03369406
70	0xbc003071	-0.007824049
71	0xbb6413bb	-0.00348018
72	0x3c183b6f	0.009291514
73	0x3ca74de9	0.020422893
74	0xbd3bd6b7	-0.045859065
75	0x3d101da8	0.035184532
76	0x3d27185f	0.040794726
77	0xbd09fd76	-0.033688985
78	0x3b9d4ce5	0.0048004263
79	0xbcc33b06	-0.023831856
80	0x3c01cdde	0.007922618
81	0xbbf40ebf	-0.007448047
82	0x3ba3d900	0.0050002337
83	0x3c1304cb	0.008973311
84	0xbcad6d2a	-0.021170218
85	0xbc970db9	-0.01843916
86	0xbb8b014d	-0.0042420984
87	0x3d2f6693	0.04282243
88	0xbcb88401	-0.022523882
89	0x3d06e2d2	0.032931156
90	0x3b948c37	0.0045333165
91	0xbc904428	-0.017610624
92	0xbd37c080	-0.044861317
93	0x3cb3255d	0.021868402
94	0x3c56aece	0.0131032
95	0xbb47d868	-0.0030493978
96	0x3d8507a6	0.064955994
97	0xbc6e5f5d	-0.014549104
98	0xbcdce337	-0.026963813
99	0x3ba662dc	0.005077703
100	0xbcbe3c29	-0.023222046
101	0xbc130738	-0.008973889
102	0xbd589d57	-0.052884426
103	0x3d3c164a	0.045919694
104	0xbd47a653	-0.048742604
105	0xbc17efad	-0.009273452
106	0xbbd4e4ef	-0.0064970176
107	0xbc412eef	-0.011790975
108	0xbd0d2ad8	-0.034464687
109	0x3ccab57a	0.024744738
110	0xbce58f41	-0.02802241
111	0xbc0fd430	-0.008778617
112	0xbb58830b	-0.0033037092
113	0xbc7bb703	-0.015363458
114	0xbd0f45e5	-0.034978766
115	0x3cf7de05	0.030257234
116	0x3d56314e	0.052293114
117	0xbb58cc1b	-0.003308064
118	0xbb21dd83	-0.0024698682
119	0xbce33cad	-0.027738893
120	0xbd6d5b99	-0.057948682
121	0x3d273fee	0.040832452
122	0xbbfe3091	-0.0077572544
123	0x3d3fd24c	0.046831414
124	0x3d6055f9	0.05476949
125	0xbd34da67	-0.044153597
126	0x3d3f40c1	0.046692614
127	0x3c4bc793	0.012437719
128	0x3d02e60e	0.03195768
129	0x3d613344	0.05498053
130	0xbd268197	-0.04065093
131	0xbb71ece9	-0.003691489
132	0xbbf98bcf	-0.0076155434
133	0x3cdc765e	0.02691191
134	0x3ce27d3d	0.027647609
135	0xbc1e3210	-0.0096554905
136	0xbbc35815	-0.005961428
137	0xbcb62f24	-0.022239275
138	0xbcdf8b46	-0.02728809
139	0xbceb816d	-0.028748238
140	0x3cc9c69b	0.024630835
141	0xbbd7b62c	-0.006582996
142	0x3d758313	0.059939455
143	0xbcd34f5b	-0.025794676
144	0xbc91c780	-0.017795324
145	0x3c8680cc	0.016418837
146	0xbb7ffd95	-0.0039061059
147	0xbce40b36	-0.027837377
148	0xbcf53a12	-0.029934917
149	0x3c59b744	0.013288323
150	0x3d2617d4	0.040550068
151	0xbcdf8cfc	-0.027288906
152	0x3d81e863	0.063431524
153	0xbc3012c8	-0.010746665
154	0x3d00cf79	0.03144786
155	0xbce1f5b6	-0.027582984
156	0x3d4313d9	0.04762635
157	0x3d0835d0	0.033254445
158	0x3b1c39b0	0.0023838095
159	0x3d6e9d9d	0.05825578
160	0x3bdc9544	0.006731661
161	0xbd1a2ee3	-0.03764237
162	0xbb835018	-0.0040073507
163	0xbd06dd56	-0.032925926
164	0x3d0075c8	0.031362325
165	0x3a8750e1	0.0010323786
166	0x3d05b19a	0.032640077
167	0xbc87bbe2	-0.016569082
168	0x3d032ec0	0.032027006
169	0xbac8cc43	-0.0015319664
170	0xbcf0f8b2	-0.029415462
171	0x3bd1cfd5	0.0064029493
172	0x3bb3d1d8	0.005487662
173	0x3b53bd81	0.0032308998
174	0x3d2c4ff4	0.042068437
175	0x3c481c25	0.012213741
176	0x3d228deb	0.039686125
177	0xbcccf2a4	-0.025018044
178	0x3b95d455	0.004572431
179	0x3d0d1598	0.03444442
180	0xbd004ed9	-0.031325195
181	0x3cad43ac	0.021150433
182	0x3c3fcc29	0.01170639
183	0x3d465a6c	0.048426077
184	0x3d8646af	0.065564506
185	0x3d122ede	0.035689227
186	0xbc9a0057	-0.01879899
187	0x92bfaaf1	-1.2095935e-27
188	0xa89a9a7e	-1.7164435e-14
189	0x8782d3eb	-1.968478e-34
190	0x80002d4e	-1.6252e-41
191	0x878bfbe7	-2.106245e-34
192	0x80601c93	-8.826458e-39
193	0xbd43e3a0	-0.047824502
194	0xbd0139d3	-0.031549286
195	0x3c8d01a6	0.0172127
196	0x3d054deb	0.03254501
197	0xbc21b0d4	-0.009868819
198	0xbd8a41d4	-0.06750837
199	0xbd167864	-0.036735907
200	0x3cd9fbf4	0.026609398
201	0x3c4f05af	0.012635632
202	0xba758039	-0.0009365115
203	0x3cce23b2	0.025163505
204	0x3ce4ba12	0.027920756
205	0xbc95f30a	-0.018304367
206	0x3c6f940d	0.0146227
207	0xbd569cae	-0.052395515
208	0xbca43888	-0.020046487
209	0xbd10f165	-0.03538646
210	0x3c70f87b	0.01470768
211	0xbd4d1032	-0.050064273
212	0xbcfe897d	-0.031071419
213	0xbcd15e8b	-0.025557777
214	0x3c502aab	0.012705485
215	0xbcb08629	-0.021548348
216	0xbd8411db	-0.06448718
217	0x3ce39e37	0.027785404
218	0x3d8d87ab	0.06910642
219	0xbc58e566	-0.013238287
220	0x3cb33e8d	0.021880412
221	0xbc86571b	-0.016398957
222	0x3ca2d5cd	0.019877339
223	0xbcd409fc	-0.025883667
224	0xbaeff3c7	-0.0018306904
225	0xbd50189c	-0.05080472
226	0x3d0cd482	0.03438235
227	0x3d01cf19	0.031691644
228	0xbce16e73	-0.027518487
229	0x3cb16f9b	0.021659663
230	0xbcace0d0	-0.021103293
231	0x3d2876cc	0.04112892
232	0xbc904e1b	-0.017615369
233	0x3c15817e	0.009125112
234	0xbd01c97c	-0.03168629
235	0x3cea8a77	0.028630478
236	0x3ca5988c	0.020214342
237	0xbd03f18f	-0.03221279
238	0x3c767c60	0.015044302
239	0x3d0ca84c	0.034340188
240	0x3c871979	0.016491638
241	0x3d42dedb	0.047575813
242	0x3d2e9dab	0.042630833
243	0x3d637c01	0.05553818
244	0x3d32b144	0.043626085
245	0x3c56afb7	0.013103417
246	0x3cafdbf6	0.02146719
247	0xbcf60fef	-0.030036895
248	0x3cf18450	0.029482037
249	0xbcf86c23	-0.030325001
250	0x3cce267f	0.02516484
251	0x3ce1c5b4	0.027560093
252	0x3cedc086	0.029022466
253	0xbd140582	-0.036138065
254	0x3d40ea4d	0.047098447
255	0xbca08360	-0.019593894

Actor.fc1.bias f4 [32]
0	0xbd01d7db	-0.031699996
1	0x3dafcdc7	0.08584171
2	0x3b654ca4	0.0034988308
3	0x3d3abfd6	0.045593105
4	0xbcca5832	-0.024700258
5	0x3d5586c0	0.05213046
6	0x3d63e6ed	0.05564015
7	0xbcf4f721	-0.029902996
8	0x3ca2d767	0.019878102
9	0xba5f3501	-0.0008514673
10	0x3a83af68	0.0010046782
11	0x3c21c981	0.009874702
12	0x3d5549a8	0.052072197
13	0xbcadecba	-0.021231044
14	0x3cbc14bb	0.022959104
15	0x3d055f61	0.032561664
16	0xbbf966d4	-0.007611135
17	0xbc84f1ab	-0.016228518
18	0x3d54f834	0.051994517
19	0xbc62e337	-0.013848118
20	0x3da7533e	0.08170174
21	0x3d696796	0.056983553
22	0xb9ac5b9e	-0.00032874657
23	0xbcb27230	-0.021782964
24	0x3d50896d	0.05091231
25	0x3d1f5e1c	0.03890811
26	0x3c3d6f40	0.011562169
27	0x3ca6fc5f	0.020384012
28	0xbd27f5ef	-0.041006025
29	0x3e19a7ef	0.15005468
30	0x3dd52b5d	0.104086615
31	0x3d03bdd0	0.03216344

Actor.fc2.weight f4 [32, 32]
0	0xbdb63d66	-0.088984296
1	0x3e4dfe26	0.20116481
2	0x3e01c4c0	0.1267271
3	0x3d09a255	0.033602078
4	0x3e11077a	0.14163008
5	0x3dc42679	0.095776506
6	0x3e4318ec	0.19052476
7	0x3d17f787	0.037101295
8	0x3d906c61	0.07051922
9	0xbdeee9e2	-0.11665703
10	0x3c8f6284	0.01750303
11	0x3d46bb94	0.048518732
12	0x3df37e56	0.11889331
13	0xbd2d8e22	-0.042371877
14	0x3e35f924	0.17770821
15	0x3e3e0d98	0.18559873
16	0xbdb828f4	-0.08992186
17	0x3d1e0ed3	0.038588356
18	0x3e0f9857	0.14022957
19	0xbdaedfd7	-0.08538788
20	0xbcdb86e9	-0.026797729
21	0xbc9e14b1	-0.019296976
22	0xbcf35d6d	-0.029707635
23	0xbdea93da	-0.11453982
24	0x3def4255	0.11682574
25	0x3dd66c8b	0.10469922
26	0x3d6a5644	0.057211176
27	0x3d0a595a	0.03377662
28	0x3dbd6aec	0.09248909
29	0xbd0f8eb3	-0.035048198
30	0x3e09779e	0.13424537
31	0x3d1a12e5	0.037615675
32	0x3dbc3658	0.09190053
33	0xbdbb0dfe	-0.09133528
34	0xbd56a5d1	-0.05240423
35	0xbd9f6643	-0.07783177
36	0x3e1a68fe	0.15079114
37	0x3e128eb7	0.14312254
38	0xbd9e406f	-0.077271335
39	0xbafa144f	-0.0019079539
40	0x3d2090a6	0.039200447
41	0xbe23a0d1	-0.15979315
42	0xbdadf921	-0.08494783
43	0x3c897317	0.016778512
44	0xbd6d69c3	-0.05796219
45	0x3dc60b28	0.09670097
46	0x3c969298	0.018380448
47	0x3dbcbc42	0.09215595
48	0xbb4a7d64	-0.0030897493
49	0x3e010f01	0.1260338
50	0x3dc8dfe5	0.098083295
51	0x3dfaa188	0.12237841
52	0x3d968906	0.07350354
53	0x3d049f7f	0.03237867
54	0x3c3d05fa	0.011537069
55	0x3dacdbbe	0.0844035
56	0x3d0031c6	0.031297468
57	0xbd87526d	-0.06607518
58	0xbd4e1564	-0.05031337
59	0xbe047ebd	-0.12938972
60	0x3d90ecc0	0.070764065
61	0x3d4f7618	0.050649732
62	0x3e3c58e1	0.1839328
63	0x3d2a537c	0.041583523
64	0x3e301309	0.17194761
65	0x3e1edf2a	0.15514818
66	0x3cb1c892	0.021702085
67	0xbe1eb3f4	-0.15498334
68	0x3e1e6080	0.154665
69	0x3d7e141c	0.062030897
70	0x3d6c8e82	0.057753094
71	0x3e29fc4f	0.16600154
72	0x3d0b56fc	0.0340185
73	0x3ce5eb37	0.02806626
74	0x3ce85a61	0.028363409
75	0x3cc72b2c	0.024312578
76	0xbc90b1d4	-0.01766292
77	0x3dc3746c	0.0954369
78	0x3d83efb4	0.06442204
79	0xbe1b922e	-0.15192482
80	0xbe10d9f8	-0.14145648
81	0x3dc54ae9	0.096334286
82	0x3e2d5b82	0.16929439
83	0xbc85ab17	-0.016316934
84	0x3d97131c	0.07376692
85	0x3e373d63	0.17894511
86	0xbd257a45	-0.04039981
87	0xbe03fcc7	-0.12889396
88	0x3dd8fcf4	0.10595122
89	0xbca5be5c	-0.020232372
90	0x3d50dd61	0.050992373
91	0x3da0fcd4	0.07860723
92	0xbcbed5b6	-0.023295265
93	0x3e04ed32	0.12981108
94	0x3d03260e	0.032018714
95	0x3df2e1b1	0.118594535
96	0x3ce7c29b	0.028291037
97	0x3d438dc3	0.047742616
98	0x3dda9295	0.106724896
99	0x3e230401	0.15919496
100	0xbc5d7cbb	-0.013518508
101	0x3d32a4b2	0.043614097
102	0x3dc8a841	0.09797717
103	0xbc09c9c8	-0.008409925
104	0x3d2802bc	0.041018233
105	0xbd25932d	-0.04042356
106	0x395316fa	0.00020131088
107	0x3d136f4d	0.035994817
108	0x3dd77e66	0.105221555
109	0x3c35d1b2	0.011097359
110	0x3d8ffa67	0.07030182
111	0x3dfda28d	0.1238452
112	0x3d15c3ed	0.036563803
113	0x3d089a60	0.03335035
114	0xbd397e53	-0.045286488
115	0x3d2ae74b	0.041724484
116	0x3d522e61	0.05131376
117	0x3ce8375d	0.028346712
118	0x39e48ac8	0.0004359095
119	0xbc0ae7b4	-0.008478094
120	0x3d5db3c9	0.054126535
121	0x3d4af0d2	0.04954607
122	0x3b50ccbe	0.0031860317
123	0x3cc3efb8	0.023918018
124	0x3cc7db71	0.02439663
125	0x3daaab98	0.0833351
126	0x3d1062b2	0.035250373
127	0x3d00b9d5	0.031427223
128	0x3cde488d	0.027134204
129	0x3cdde481	0.027086498
130	0xbbcd7cb4	-0.0062709693
131	0x3dcc4ee3	0.09975984
132	0xbe1549e3	-0.14578967
133	0xbe1257d7	-0.1429132
134	0xbdcd51af	-0.100253455
135	0x3cdbee31	0.026846977
136	0xbd368277	-0.044558015
137	0xbd6ba2e7	-0.057528403
138	0x3c67aa2a	0.014139691
139	0x3da04d9a	0.07827301
140	0x3e154082	0.14575389
141	0xbdd581f6	-0.10425179
142	0x3d9d85f0	0.07691562
143	0x3e207d23	0.15672736
144	0xba06e660	-0.0005146023
145	0xbdb9e27e	-0.09076403
146	0x3d84ab0a	0.064779356
147	0xbd24713a	-0.040147044
148	0xbd0b0c52	-0.033947296
149	0x3e34d672	0.1765993
150	0xbaa8783c	-0.0012853215
151	0x3dbe77fb	0.09300228
152	0x3b1531f4	0.002276537
153	0x3bb9a8d6	0.0056658788
154	0x3e2010da	0.15631428
155	0xbe18888e	-0.14895841
156	0xbd7598fa	-0.059960343
157	0xbda947f0	-0.08265674
158	0x3d881e83	0.06646445
159	0x3d00092c	0.031258747
160	0x3c8e3b0b	0.017362138
161	0x3e4533aa	0.1925799
162	0x3aff5360	0.0019479804
163	0x3d77e482	0.060520656
164	0x3d808d12	0.06276907
165	0x3dd5b438	0.104347646
166	0xbdfaf592	-0.1225387
167	0x3e19ffde	0.15039012
168	0x3e3376d5	0.175258
169	0x3de09738	0.10966343
170	0xbd81cd2b	-0.06337961
171	0xbdc333a4	-0.09531334
172	0x3dbcd955	0.0922114
173	0xbd6637ad	-0.05620544
174	0x3da02db3	0.078212164
175	0x3d830995	0.06398312
176	0x3dc2a07c	0.09503266
177	0xbd92466d	-0.07142339
178	0xbdca422e	-0.09875904
179	0x3db8a24d	0.090153314
180	0xbcab80fd	-0.02093553
181	0x3e06a575	0.13149054
182	0xbd00acf0	-0.031414926
183	0xbd575e9e	-0.05258047
184	0x3e2df3e8	0.16987574
185	0x3cd69414	0.026193656
186	0x3d58ad11	0.052899424
187	0x3dbd7dcb	0.09252509
188	0x3c8f8ff8	0.017524704
189	0xbb8a2a91	-0.0042165
190	0x3e314955	0.1731313
191	0xbd5e4b24	-0.05427088
192	0x3e182236	0.148568
193	0xbe08ce17	-0.13359867
194	0xbd39403f	-0.045227285
195	0x3dafef71	0.08590592
196	0x3ca40638	0.020022497
197	0xbdf0e7c0	-0.11762953
198	0x3d3cbdcd	0.046079446
199	0x3d60cd6f	0.054883417
200	0x3e31a47e	0.17347905
201	0x3d0690f5	0.032853086
202	0x3d110f32	0.035414882
203	0xbdc0ce77	-0.0941438
204	0x3d647532	0.05577583
205	0x3e09fcde	0.13475367
206	0x3dae2ab1	0.085042365
207	0xbe0307f0	-0.12795997
208	0x3e3ae011	0.18249537
209	0xbd528a8b	-0.051401656
210	0x3e2ea9d3	0.1705697
211	0x3e268061	0.1625991
212	0x3d8809f7	0.06642526
213	0x3e1057ad	0.14095946
214	0xbd16c6cc	-0.03681068
215	0x3df29957	0.118456535
216	0x3dd49bc4	0.103812724
217	0x3e040185	0.12891205
218	0xbad279d1	-0.0016058033
219	0xbcc7f9d3	-0.024411118
220	0x3d02c966	0.03193035
221	0x3e1f2c9e	0.15544364
222	0x3e2ec40e	0.17066976
223	0x3e239345	0.15974148
224	0x3a8c2f51	0.0010695254
225	0x3969bfef	0.00022292112
226	0xbbaae72b	-0.0052155457
227	0x000078e1	4.3363e-41
228	0x33757ad1	5.715521e-08
229	0x00008114	4.6305e-41
230	0x32a0844a	1.868661e-08
231	0x39d8113b	0.00041211568
232	0xb5293cb4	-6.304574e-07
233	0xb787311c	-1.6116122e-05
234	0x30ca5684	1.4722024e-09
235	0xb6bad1d6	-5.56766e-06
236	0x3b876293	0.004131624
237	0xba5b0927	-0.0008355551
238	0x0902e317	1.5754958e-33
239	0x00000c9f	4.528e-42
240	0xbaf4170e	-0.0018622593
241	0x8000ad94	-6.2268e-41
242	0xaea49689	-7.484597e-11
243	0xbb55e3fd	-0.0032637112
244	0xba11fc8f	-0.0005568945
245	0xba1a8405	-0.0005894306
246	0x3b98bfe6	0.004661548
247	0xbb7f1bb7	-0.0038926431
248	0xbba55326	-0.0050453125
249	0xb8691b05	-5.5576693e-05
250	0x80011891	-1.00648e-40
251	0xba355df3	-0.00069186016
252	0xb7326529	-1.063318e-05
253	0xb8acd046	-8.240393e-05
254	0xa7587a0b	-3.0042181e-15
255	0x326fcadd	1.3957757e-08

Actor.fc2.bias f4 [32]
0	0xba78acc3	-0.0009486193
1	0xbd2d88d0	-0.042366803
2	0xbd6d0199	-0.05786285
3	0x3b679edb	0.0035342488
4	0x3dc51a19	0.09624118
5	0xbe1a4e00	-0.15068817
6	0xbdf8a677	-0.12141126
7	0x15bb09a1	7.554389e-26
8	0x3c4aba63	0.01237354
9	0xbdcdda3f	-0.10051393
10	0x3de4c287	0.11169916
11	0x3a4c2da7	0.0007788785
12	0x3c9fe1af	0.019516794
13	0x3e639f32	0.22228697
14	0xbd57a440	-0.052646875
15	0x3d5574e5	0.052113432
16	0xbc2f929c	-0.010716107
17	0x3d22e2ef	0.039767202
18	0x3dc9aad6	0.098470375
19	0x3e2f5650	0.1712277
20	0x3d8a9ec5	0.06768564
21	0x3d8f3227	0.06991988
22	0x390c705a	0.00013393295
23	0x3c428ea2	0.011874827
24	0x3d854878	0.06507963
25	0xbd92fbfb	-0.07176968
26	0x3b9e1e91	0.004825421
27	0xb5067a9f	-5.009733e-07
28	0x3da3e031	0.080017455
29	0x3e1cd482	0.1531544
30	0xbcd447ce	-0.025913145
31	0xbcf73db0	-0.030180782

Actor.mean_fc3.weight f4 [17, 32]
0	0x8001b8f0	-1.58179e-40
1	0x80000fd6	-5.681e-42
2	0x00014b81	1.18921e-40
3	0x800c974f	-1.156305e-39
4	0x0017f6f5	2.200808e-39
5	0x000035ff	1.937e-41
6	0x0000508a	2.8892e-41
7	0x00042231	3.79608e-40
8	0x8006ee67	-6.36536e-40
9	0x0000382a	2.0148e-41
10	0x00007295	4.1104e-41
11	0x00004a30	2.6613e-41
12	0x800008d1	-3.163e-42
13	0x80000fdb	-5.688e-42
14	0x8007de82	-7.22669e-40
15	0x80007091	-4.0381e-41
16	0x8027fb6f	-3.671782e-39
17	0x8000793e	-4.3494e-41
18	0x00002a45	1.5163e-41
19	0x000070b7	4.0434e-41
20	0x80007de3	-4.516e-41
21	0x00001c51	1.0158e-41
22	0x00002f14	1.6888e-41
23	0x80001b59	-9.81e-42
24	0x8000228a	-1.239e-41
25	0x00149f30	1.893816e-39
26	0x8000d431	-7.612e-41
27	0x0001ae82	1.54437e-40
28	0x8000159d	-7.753e-42
29	0x80003425	-1.8706e-41
30	0x800019e0	-9.282e-42
31	0x80002f1a	-1.6897e-41
32	0x000016b7	8.149e-42
33	0x00005165	2.9199e-41
34	0x800054bf	-3.0401e-41
35	0x000e28b7	1.300303e-39
36	0x807c2866	-1.1402094e-38
37	0x000023d8	1.2858e-41
38	0x80002e2b	-1.6562e-41
39	0x0000079f	2.734e-42
40	0x0000134a	6.92e-42
41	0x0026d098	3.564578e-39
42	0x00002108	1.185e-41
43	0x80007a6e	-4.392e-41
44	0x000366b9	3.12356e-40
45	0x0000442e	2.4458e-41
46	0x00005701	3.1211e-41
47	0x800c17ba	-1.110537e-39
48	0x800000f7	-3.46e-43
49	0x8002553a	-2.14245e-40
50	0x000a0bd8	9.22604e-40
51	0x80065239	-5.80509e-40
52	0x0000061c	2.192e-42
53	0x000f5d33	1.410966e-39
54	0x8000585b	-3.1696e-41
55	0x00072a1e	6.57957e-40
56	0x800019de	-9.28e-42
57	0x80004b36	-2.698e-41
58	0x00007eac	4.5441e-41
59	0x000a320c	9.36308e-40
60	0x800055ba	-3.0753e-41
61	0x000059d4	3.2224e-41
62	0x80031290	-2.82165e-40
63	0x80004647	-2.5211e-41
64	0x80002e4f	-1.6612e-41
65	0x00006e5e	3.9592e-41
66	0x0012a857	1.713428e-39
67	0x8000247a	-1.3085e-41
68	0x0000f87b	8.9138e-41
69	0x000073a7	4.1488e-41
70	0x80006d4d	-3.921e-41
71	0x00000809	2.882e-42
72	0x00312c38	4.515802e-39
73	0x80003c9b	-2.1741e-41
74	0x80000d95	-4.872e-42
75	0x800507dd	-4.61998e-40
76	0x00001ab7	9.583e-42
77	0x000043c9	2.4317e-41
78	0x004cb0cc	7.04292e-39
79	0x00004c70	2.742e-41
80	0x80121456	-1.660334e-39
81	0x00003748	1.9831e-41
82	0x8035d91c	-4.945165e-39
83	0x00008008	4.5929e-41
84	0x802229e8	-3.13744e-39
85	0x00101996	1.478546e-39
86	0x00002c02	1.5787e-41
87	0x8000670b	-3.6965e-41
88	0x000025ed	1.3605e-41
89	0x0005639f	4.94915e-40
90	0x0000165b	8.02e-42
91	0x80004726	-2.5523e-41
92	0x80004f95	-2.8549e-41
93	0x000017b4	8.503e-42
94	0x8000784c	-4.3154e-41
95	0x0003c758	3.47018e-40
96	0x8002faea	-2.73682e-40
97	0x00002342	1.2648e-41
98	0x80022307	-1.96236e-40
99	0x800050d0	-2.899e-41
100	0x000023c6	1.2833e-41
101	0x800055a4	-3.0722e-41
102	0x800042cf	-2.3966e-41
103	0x000049e7	2.6511e-41
104	0x80002677	-1.3799e-41
105	0x000a1557	9.2601e-40
106	0x800431a6	-3.85152e-40
107	0x8035cfc2	-4.941811e-39
108	0x00000621	2.199e-42
109	0x800699c0	-6.06168e-40
110	0x00001cb7	1.0301e-41
111	0x8006f0bb	-6.37371e-40
112	0x800807b0	-7.37442e-40
113	0x800004da	-1.74e-42
114	0x0000262b	1.3692e-41
115	0x000058ba	3.1829e-41
116	0x00024c1f	2.10978e-40
117	0x800050e1	-2.9014e-41
118	0x0001536d	1.21763e-40
119	0x00002607	1.3642e-41
120	0x00001c32	1.0115e-41
121	0x00004c91	2.7467e-41
122	0x800a50f9	-9.47402e-40
123	0x000173cc	1.33376e-40
124	0x00001832	8.68e-42
125	0x0000122a	6.516e-42
126	0x800e0fcc	-1.291364e-39
127	0x80001e14	-1.079e-41
128	0x800006ad	-2.395e-42
129	0x000065ac	3.6473e-41
130	0x80041880	-3.76131e-40
131	0x80025048	-2.1247e-40
132	0x00194c77	2.323318e-39
133	0x80006683	-3.6774e-41
134	0x800060d4	-3.4735e-41
135	0x8000628a	-3.5349e-41
136	0x8003dbb1	-3.54317e-40
137	0x80004362	-2.4172e-41
138	0x800079cb	-4.3691e-41
139	0x80491fed	-6.715444e-39
140	0x0000980d	5.4546e-41
141	0x80004ba3	-2.7133e-41
142	0x00003eee	2.2575e-41
143	0x80007503	-4.1976e-41
144	0x000003b0	1.323e-42
145	0x0000646c	3.6025e-41
146	0x80002dc1	-1.6413e-41
147	0x00002393	1.2762e-41
148	0x00000143	4.53e-43
149	0x8000712c	-4.0598e-41
150	0x800040a7	-2.3193e-41
151	0x00005840	3.1658e-41
152	0x00033670	2.95035e-40
153	0x80000d91	-4.867e-42
154	0x80000595	-2.002e-42
155	0x0001387a	1.12095e-40
156	0x80001fc9	-1.1402e-41
157	0x00108e99	1.520522e-39
158	0x00000b06	3.954e-42
159	0x80005f4b	-3.4185e-41
160	0x80000b8c	-4.142e-42
161	0x00002ede	1.6813e-41
162	0x8000344e	-1.8763e-41
163	0x0017005b	2.112344e-39
164	0x00005da7	3.3596e-41
165	0x00002ee3	1.682e-41
166	0x8053272d	-7.6364e-39
167	0x80002e32	-1.6572e-41
168	0x0024799a	3.3497e-39
169	0x00006a2e	3.809e-41
170	0x0000194d	9.076e-42
171	0x800041b7	-2.3574e-41
172	0x80007303	-4.1258e-41
173	0x00183f18	2.226686e-39
174	0x80002edb	-1.6809e-41
175	0x00006e13	3.9487e-41
176	0x80003643	-1.9465e-41
177	0x80003348	-1.8396e-41
178	0x00002d3d	1.6228e-41
179	0x0000624b	3.5261e-41
180	0x80004afe	-2.6902e-41
181	0x00000da3	4.892e-42
182	0x800063f2	-3.5854e-41
183	0x0006ed92	6.36237e-40
184	0x0000061e	2.194e-42
185	0x00002dfa	1.6493e-41
186	0x800cecb9	-1.186946e-39
187	0x0000231f	1.2599e-41
188	0x0000051b	1.831e-42
189	0x000031d4	1.7875e-41
190	0x800528da	-4.73832e-40
191	0x001a3c3b	2.40933e-39
192	0x0005657d	4.95585e-40
193	0x001e4eeb	2.783375e-39
194	0x800057f6	-3.1554e-41
195	0x000004b7	1.691e-42
196	0x000d98cf	1.248679e-39
197	0x800169dd	-1.29812e-40
198	0x000057c3	3.1483e-41
199	0x000079d5	4.3705e-41
200	0x80078598	-6.90773e-40
201	0x80001d7b	-1.0576e-41
202	0x800051f2	-2.9396e-41
203	0x0040956e	5.931077e-39
204	0x0000deb7	7.9895e-41
205	0x000163b9	1.27609e-40
206	0x000a468a	9.4366e-40
207	0x000019e8	9.293e-42
208	0x000013aa	7.054e-42
209	0x00003f08	2.2611e-41
210	0x0004384e	3.8754e-40
211	0x80004aad	-2.6789e-41
212	0x000060d5	3.4737e-41
213	0x80005e1c	-3.376e-41
214	0x80002cc1	-1.6055e-41
215	0x0003f237	3.62397e-40
216	0x0000235e	1.2687e-41
217	0x00116868	1.598657e-39
218	0x00004f21	2.8386e-41
219	0x800006cf	-2.442e-42
220	0x8000710e	-4.0556e-41
221	0x00005c4d	3.3111e-41
222	0x80003d05	-2.189e-41
223	0x005686ef	7.946258e-39
224	0x8000281a	-1.4386e-41
225	0x801f0532	-2.848764e-39
226	0x0000156d	7.686e-42
227	0x000bdc92	1.089316e-39
228	0x00005b34	3.2718e-41
229	0x800048c8	-2.6109e-41
230	0x00bcf398	1.7352458e-38
231	0x00001150	6.21e-42
232	0x00045307	3.97127e-40
233	0x801965c0	-2.332388e-39
234	0x00121539	1.660652e-39
235	0x000353cb	3.05566e-40
236	0x00001ffb	1.1472e-41
237	0x80002340	-1.2645e-41
238	0x00006399	3.5729e-41
239	0x000018f9	8.959e-42
240	0x00002c50	1.5896e-41
241	0x0001fc6e	1.8239e-40
242	0x00000dba	4.924e-42
243	0x8004b684	-4.32816e-40
244	0x800044ba	-2.4654e-41
245	0x000003fd	1.431e-42
246	0x000061cb	3.5082e-41
247	0x00006761	3.7085e-41
248	0x800595c9	-5.1291e-40
249	0x002ac922	3.929244e-39
250	0x8001b9b4	-1.58453e-40
251	0x0000558a	3.0686e-41
252	0x80006b1b	-3.8422e-41
253	0x00002c53	1.59e-41
254	0x80018def	-1.42752e-40
255	0x80007039	-4.0258e-41

Actor.mean_fc3.bias f4 [17]
0	0x00025082	2.12552e-40
1	0x80005228	-2.9472e-41
2	0x800060c0	-3.4707e-41
3	0x8006a7a1	-6.11147e-40
4	0x80006a8a	-3.8219e-41
5	0x800038f3	-2.043e-41
6	0x800078b8	-4.3306e-41
7	0x00003cfa	2.1874e-41
8	0x8001959a	-1.45502e-40
9	0x80083751	-7.54528e-40
10	0x8000571b	-3.1248e-41
11	0x0002330d	2.01985e-40
12	0x80006f3d	-3.9905e-41
13	0x800c7cfa	-1.146859e-39
14	0x0008aaee	7.96002e-40
15	0x80005f61	-3.4216e-41
16	0x8017d421	-2.188314e-39

Actor.log_std_fc3.weight f4 [17, 32]
0	0xbbccceac	-0.006250223
1	0xbc26ab94	-0.010172743
2	0xbb946345	-0.0045284354
3	0xbd3aa90e	-0.04557138
4	0xbb5fb8b3	-0.003413719
5	0xbbd377b8	-0.0064534806
6	0xbbbe21f1	-0.005802386
7	0x80004449	-2.4496e-41
8	0xbbf82f4e	-0.0075739985
9	0xbbcddab1	-0.0062821736
10	0xbc186ced	-0.009303314
11	0xb7cc6bab	-2.4368832e-05
12	0xbc275478	-0.01021301
13	0xbd363b4c	-0.044490144
14	0xbc2f282b	-0.010690729
15	0xbcf1d0a0	-0.029518425
16	0xbd82d0e3	-0.06387498
17	0xbbbe3715	-0.005804906
18	0xbc06230f	-0.00818707
19	0xbe43e352	-0.19129685
20	0xbc1fe964	-0.0097602345
21	0xbc0a7dc3	-0.0084528355
22	0xbd342bb7	-0.043987002
23	0xbc2dd169	-0.010609009
24	0xbc2e4efc	-0.0106389485
25	0xbc39179e	-0.011297135
26	0xbdd08616	-0.10181825
27	0xb7994400	-1.8270686e-05
28	0xbd6abfbb	-0.057311755
29	0xbc1187c2	-0.008882465
30	0xbd48237c	-0.048861966
31	0xbcb1a37f	-0.021684406
32	0xbc1dc89e	-0.00963035
33	0xbc25747b	-0.010098572
34	0xbbb33591	-0.005469032
35	0xbd32693f	-0.0435574
36	0xbbcd3270	-0.006262116
37	0xbc312a62	-0.0108133275
38	0xbc033348	-0.008007832
39	0x00007c0a	4.4497e-41
40	0xbc4d8dac	-0.012545984
41	0xbc05f235	-0.008175422
42	0xbc191eca	-0.00934572
43	0x3820f7e7	3.837785e-05
44	0xbc1032ed	-0.008801204
45	0xbd1cc199	-0.038270567
46	0xbc756e5d	-0.014979926
47	0xbd8c22e0	-0.068425894
48	0xbcc63445	-0.024194846
49	0xbbbac030	-0.00569918
50	0xbc36fc46	-0.011168545
51	0xbe027de0	-0.1274333
52	0xbbe0083a	-0.006836918
53	0xbbead96e	-0.007167033
54	0xbd1fc677	-0.03900763
55	0xbc530bbc	-0.012881216
56	0xbc40458e	-0.011735333
57	0xbc2802f2	-0.0102546085
58	0xbdfb9ef0	-0.12286174
59	0xb72f592c	-1.0451575e-05
60	0xbd57d4d0	-0.05269319
61	0xbc33b8ec	-0.010969382
62	0xbcd246e5	-0.02566857
63	0xbc701d61	-0.014655442
64	0xbc200d49	-0.009768792
65	0xbc5597d5	-0.013036688
66	0xbc31058c	-0.010804545
67	0xbd1f3831	-0.038871948
68	0xbbe150d6	-0.0068760915
69	0xbc09cb39	-0.008410268
70	0xbc129300	-0.00894618
71	0x80002531	-1.3342e-41
72	0xbc390e70	-0.011294946
73	0xbc73005e	-0.0148316305
74	0xbc66adda	-0.014079535
75	0xb8ceaeed	-9.855428e-05
76	0xbc5f4314	-0.0136268325
77	0xbd1e844d	-0.03870039
78	0xbc4711de	-0.012150256
79	0xbcd829b5	-0.026387075
80	0xbca4c3d3	-0.020112908
81	0xbc525573	-0.0128377555
82	0xbc203932	-0.009779261
83	0xbdfc1b5c	-0.12309906
84	0xbc25ac13	-0.0101118265
85	0xbc5f5754	-0.0136316605
86	0xbd21a683	-0.03946544
87	0xbc8203ca	-0.015870947
88	0xbc56ef0b	-0.013118516
89	0xbc5f88c9	-0.013643452
90	0xbe0e59a7	-0.13901387
91	0xb7c70e72	-2.3729375e-05
92	0xbd274065	-0.040832896
93	0xbc587598	-0.01321163
94	0xbcbc1ebc	-0.022963874
95	0xbc7cd6df	-0.015432089
96	0xbc12f5a3	-0.008969697
97	0xbc59e41b	-0.0132990135
98	0xbc2209df	-0.009890049
99	0xbd373923	-0.044732224
100	0xbbd1a00d	-0.0063972534
101	0xbc55651a	-0.013024593
102	0xbc0c1ecb	-0.0085522635
103	0x80005ce4	-3.3323e-41
104	0xbc36052c	-0.0111096315
105	0xbc42213e	-0.011848746
106	0xbc56d534	-0.013112355
107	0xb9444392	-0.00018717189
108	0xbc4f5a73	-0.012655842
109	0xbd2cc79a	-0.042182542
110	0xbc6d6b4c	-0.014490914
111	0xbcd9969a	-0.02656107
112	0xbce52e2d	-0.02797612
113	0xbc5af2a1	-0.013363511
114	0xbc05d23a	-0.008167798
115	0xbe080ddd	-0.13286538
116	0xbc2a86b6	-0.010408094
117	0xbc619619	-0.013768696
118	0xbd2db4a1	-0.04240859
119	0xbc56256a	-0.013070444
120	0xbc3d4fa0	-0.011554629
121	0xbc2b45b5	-0.010453631
122	0xbdc543d2	-0.09632076
123	0xb5a95c18	-1.2618284e-06
124	0xbd4c6a39	-0.04990599
125	0xbc63736d	-0.0138825
126	0xbd17c084	-0.03704883
127	0xbca68bff	-0.020330427
128	0xbc610b43	-0.013735595
129	0xbc4151b7	-0.0117992675
130	0xbc3dad06	-0.0115768965
131	0xbd01a6ba	-0.031653143
132	0xbba4fc95	-0.005034993
133	0xbc1d8231	-0.00961356
134	0xbc5a4163	-0.0133212535
135	0x80006cd6	-3.9043e-41
136	0xbc511079	-0.012760275
137	0xbc439796	-0.011937996
138	0xbc297dd1	-0.010344938
139	0xb920be4d	-0.00015329682
140	0xbc7981ef	-0.0152287325
141	0xbd11df81	-0.03561354
142	0xbc87cbe6	-0.016576719
143	0xbce0e310	-0.027452022
144	0xbc94d529	-0.018168049
145	0xbc60bfbc	-0.013717588
146	0xbc583c2a	-0.013197938
147	0xbd973c46	-0.07384543
148	0xbc33fe55	-0.01098593
149	0xbc3b627d	-0.011437056
150	0xbd25ea8c	-0.040506884
151	0xbc5dca8e	-0.013537062
152	0xbc41d9a2	-0.011831673
153	0xbc5671c9	-0.013088652
154	0xbe159d8d	-0.14610882
155	0x349c332b	2.9094494e-07
156	0xbd1f7f7a	-0.03893993
157	0xbc42baa8	-0.011885323
158	0xbc8698a8	-0.016430214
159	0xbc9cf770	-0.019160956
160	0xbc2e8de2	-0.010653945
161	0xbc54daad	-0.0129915895
162	0xbc49bb32	-0.012312697
163	0xbd17b7b9	-0.037040446
164	0xbbd7e81b	-0.0065889484
165	0xbc3b3e43	-0.011428419
166	0xbc31e449	-0.01085765
167	0x800054fb	-3.0485e-41
168	0xbc1ec1c2	-0.00968975
169	0xbc227d09	-0.009917506
170	0xbc27af76	-0.010234704
171	0x37a42c14	1.9570849e-05
172	0xbc86fd44	-0.016478188
173	0xbd202d79	-0.039105866
174	0xbc52bb75	-0.012862076
175	0xbcce351c	-0.025171809
176	0xbca1b2b9	-0.019738542
177	0xbc5b599c	-0.013388064
178	0xbc3f5b6f	-0.011679514
179	0xbdfbdfd2	-0.1229855
180	0xbc329d91	-0.010901825
181	0xbc480cc7	-0.012210078
182	0xbd27b8e5	-0.040947814
183	0xbc2e406b	-0.010635476
184	0xbc30d008	-0.010791786
185	0xbc6e22ce	-0.014534665
186	0xbe183884	-0.14865309
187	0x3603d35a	1.9643544e-06
188	0xbd286d34	-0.04111977
189	0xbc2d6503	-0.010583165
190	0xbcb0d0c0	-0.021583915
191	0xbc98e5a6	-0.018664192
192	0xbc264037	-0.010147146
193	0xbc304e9e	-0.010760931
194	0xbc5033bf	-0.01270765
195	0xbd0a5eaf	-0.033781704
196	0xbc01046f	-0.007874592
197	0xbc566382	-0.013085248
198	0xbc5ea507	-0.01358915
199	0x80006914	-3.7695e-41
200	0xbc13ada2	-0.009013565
201	0xbc772e93	-0.015086788
202	0xbc274e8c	-0.010211598
203	0xb98bd651	-0.00026671824
204	0xbc7414ac	-0.014897507
205	0xbd21cd90	-0.03950268
206	0xbc491b6c	-0.012274604
207	0xbcd20027	-0.025634838
208	0xbca1f333	-0.019769287
209	0xbc1a6f27	-0.009425915
210	0xbc57c8d2	-0.013170438
211	0xbdacbe97	-0.0843479
212	0xbc5a5184	-0.013325099
213	0xbc282ce6	-0.010264611
214	0xbd284cc1	-0.041088823
215	0xbc2529cb	-0.010080765
216	0xbc255299	-0.010090494
217	0xbc1d6a0c	-0.009607803
218	0xbe328049	-0.1743175
219	0xb7be3702	-2.267538e-05
220	0xbd31406e	-0.043274336
221	0xbc66f9f1	-0.014097677
222	0xbca45787	-0.020061268
223	0xbc7bf9bd	-0.015379366
224	0xbbeacfc1	-0.0071658795
225	0xbc4111d4	-0.011784036
226	0xbbcf99bb	-0.006335465
227	0xbd36f8d4	-0.044670895
228	0xbba13977	-0.0049201804
229	0xbbab814f	-0.0052339206
230	0xbba7b6a4	-0.005118208
231	0x80005548	-3.0593e-41
232	0xbc497378	-0.012295596
233	0xbc493057	-0.0122795915
234	0xbc238b21	-0.009981901
235	0xb923ec41	-0.00015632903
236	0xbc56a25e	-0.013100235
237	0xbd22a50c	-0.039708182
238	0xbc72f105	-0.014827971
239	0xbd14cbde	-0.036327235
240	0xbd1c66a8	-0.038183838
241	0xbc0a9faf	-0.008460923
242	0xbc28ebe7	-0.01031015
243	0xbe41672d	-0.18887015
244	0xbbf7a53b	-0.007557539
245	0xbc220c02	-0.009890558
246	0xbd29d4f1	-0.041462842
247	0xbc4918fa	-0.012274021
248	0xbc068708	-0.008210905
249	0xbbea8e45	-0.007158073
250	0xbde1d5d1	-0.1102711
251	0xb4218795	-1.5043618e-07
252	0xbd5c6354	-0.053805664
253	0xbbe26aa1	-0.006909684
254	0xbd23d3d2	-0.03999693
255	0xbc87c51a	-0.016573478

Actor.log_std_fc3.bias f4 [17]
0	0xbd12d2a2	-0.035845406
1	0xbc5d654b	-0.01351292
2	0xbc6136d1	-0.013745979
3	0xbcbf60fd	-0.023361677
4	0xbc372cf0	-0.0111801475
5	0xbc8c6ef1	-0.017142745
6	0xbc74646c	-0.014916521
7	0xbcc14e82	-0.023597006
8	0xbc9bb8fa	-0.019009102
9	0xbc43fdfc	-0.01196241
10	0xbc850846	-0.016239297
11	0xbc7f8a83	-0.015596989
12	0xbc990706	-0.018680107
13	0xbcc4fa55	-0.024045149
14	0xbcc387b4	-0.02386842
15	0xbc9d4c89	-0.019201534
16	0xbc6c20b2	-0.014412092

Critic.fc1.weight f4 [32, 378]
0	0x3d748cee	0.059704714
1	0x3c24bbd7	0.01005455
2	0x3c787819	0.015165352
3	0x3da9220e	0.082584485
4	0xbd8ede49	-0.06975991
5	0x3cc5bb67	0.024137212
6	0xbcd9ae8d	-0.02657249
7	0xba1e16fc	-0.00060306466
8	0xbca1b574	-0.019739844
9	0x3dd549c8	0.10414463
10	0x3d8c7755	0.06858698
11	0x3d84accb	0.0647827
12	0x3cefe9cd	0.02928629
13	0xbddc11ef	-0.10745608
14	0x3dabb5d5	0.08384291
15	0x3d273cb0	0.04082936
16	0x3d0c936a	0.034320273
17	0xbd0f6219	-0.035005663
18	0x3d85b3d2	0.06528439
19	0xbda63d6d	-0.08117185
20	0xbe05133c	-0.12995619
21	0xbd566a1e	-0.052347295
22	0x3da61d0a	0.081110075
23	0xbdbfd6af	-0.093671195
24	0x3c117ec7	0.008880324
25	0x3d5830c1	0.05278087
26	0xbdadc9fd	-0.08485792
27	0xbb819243	-0.0039542033
28	0xbdaf51f3	-0.085605524
29	0xbd964bc7	-0.07338672
30	0xbd2d5646	-0.042318605
31	0xbd35a4c5	-0.04434659
32	0x3d12fe1c	0.03588687
33	0xbd06d697	-0.032919493
34	0x3d226ce2	0.03965462
35	0x3d1185d6	0.035528027
36	0xbd6fd36e	-0.058551244
37	0xbc816541	-0.015795352
38	0xbd39826d	-0.0452904
39	0xbc841fc3	-0.016128426
40	0xbaaf8295	-0.0013390357
41	0x3d8e92cc	0.06961593
42	0xbd3e0995	-0.046395857
43	0x3b92da2f	0.004481576
44	0x3c09a492	0.008401053
45	0x3cbc6b3a	0.023000348
46	0xbd27610b	-0.04086403
47	0xbd46d565	-0.048543353
48	0xbd1d3c46	-0.03838756
49	0x3c535fd8	0.012901269
50	0xbd042520	-0.032261968
51	0x3bab2fa5	0.0052241855
52	0xbb0ab28a	-0.0021163546
53	0xbc326168	-0.010887481
54	0xbc10d6d0	-0.008840278
55	0xbb2bdcd3	-0.002622415
56	0xbd1f9cef	-0.038968023
57	0x3daf29a0	0.08552861
58	0x3c376490	0.01119341
59	0x3d188bb8	0.03724262
60	0x3d9df53d	0.07712791
61	0x3c79b2e9	0.015240409
62	0xbd86335f	-0.06552767
63	0x3bb823a4	0.005619483
64	0x3d81e1b1	0.06341875
65	0x3da6192b	0.08110269
66	0x3bf90290	0.0075991824
67	0x3c814e17	0.015784306
68	0x3c0d916f	0.008640631
69	0x3d555bd5	0.05208953
70	0x3c913952	0.017727528
71	0x3d03ee06	0.03220942
72	0x3d8aa908	0.067705214
73	0xbd88a3ca	-0.06671865
74	0xbd68ea2f	-0.05686396
75	0x3c3c2e88	0.011485703
76	0x3d586866	0.052833937
77	0x3d9f0421	0.077644594
78	0x3d77d379	0.06050441
79	0x3d49ffaa	0.049316086
80	0x3d6d20ed	0.05789273
81	0x3a8db853	0.0010812379
82	0x3d986843	0.07441761
83	0x3d1e3d3a	0.03863261
84	0xbd0fab5b	-0.035075527
85	0x3db3f077	0.087860994
86	0x3d302797	0.043006506
87	0x3ce3b00b	0.027793905
88	0x3db51f37	0.088438444
89	0x3dc51c11	0.09624494
90	0x3cd1da70	0.025616854
91	0x3dc0e9c6	0.09419589
92	0xbdbb4f08	-0.091459334
93	0x3dd0422f	0.101688735
94	0xbdc7c96a	-0.097552136
95	0xbd833a3b	-0.06407591
96	0x3dcc8fbf	0.09988355
97	0x3cddfed6	0.027099054
98	0x3d8a2751	0.0674578
99	0x3d8bc16d	0.068240024
100	0xbca4f031	-0.020134063
101	0x3c81c95c	0.015843086
102	0xbda8a701	-0.082349785
103	0x3d5baeae	0.053633384
104	0xbdba0f1e	-0.090849146
105	0xbc75c042	-0.014999451
106	0x3c9982a6	0.018739056
107	0x3d0b238d	0.03396945
108	0x3d864d09	0.06557662
109	0x3d9c9b2c	0.07646784
110	0xbda205d8	-0.07911271
111	0xbd14c257	-0.03631815
112	0xbd99f4a4	-0.075173646
113	0xbde4d66d	-0.11173711
114	0xbbbc603c	-0.0057487767
115	0xbd00df9a	-0.031463243
116	0x3d271004	0.040786758
117	0x3d58ffee	0.05297845
118	0x3da2fb1c	0.079580516
119	0x3cd0b75f	0.025478063
120	0xbdb7a63e	-0.08967255
121	0x3d749f19	0.05972204
122	0x3c2e48d2	0.010637479
123	0x3d9bf4de	0.07615064
124	0x3c81e456	0.01585595
125	0xbd0fb55a	-0.03508506
126	0x3d6ec719	0.058295343
127	0x3d89757d	0.06711862
128	0x3d14474b	0.036200803
129	0xbc00498b	-0.007830034
130	0x3c8a79a8	0.016903713
131	0x3cfa3d9c	0.030546956
132	0x39819966	0.00024719088
133	0x3d0ff658	0.03514704
134	0x3cc4f5d7	0.024043007
135	0xbd6240b4	-0.055237487
136	0x3d6cb828	0.057792813
137	0x3d0e2c97	0.034710493
138	0x3da60393	0.081061505
139	0x3cae632e	0.021287527
140	0x3d78238f	0.060580786
141	0xbd7c5fe6	-0.061614893
142	0x3d856833	0.06514015
143	0xbceb244e	-0.028703835
144	0x3da6ca67	0.08144074
145	0xbd266986	-0.04062798
146	0x3da92be4	0.082603246
147	0x3dc5ce69	0.0965851
148	0x3dcc1385	0.099646606
149	0x3d5fe835	0.05466481
150	0x3d0c77d6	0.034293972
151	0x3ca554c8	0.020182028
152	0x3c08609d	0.008323816
153	0xbda8c83e	-0.08241318
154	0xbce1cb3d	-0.027562732
155	0x3c0af1e6	0.008480525
156	0x3c11371a	0.008863235
157	0x3b4da549	0.0031379035
158	0x3d6e1981	0.05812979
159	0x3d1d9313	0.03847034
160	0x3c861087	0.016365303
161	0xbc02394c	-0.007948231
162	0x3da0cef7	0.078519754
163	0x3d99f61e	0.07517646
164	0xbc106b7e	-0.008814691
165	0xbbb12662	-0.005406187
166	0x3d56e054	0.05246003
167	0x3d73e25a	0.059542038
168	0x3db6867b	0.08912369
169	0x3c1d08f0	0.00958465
170	0x3cff824c	0.03119006
171	0xbb025552	-0.001988728
172	0xbd39244a	-0.045200624
173	0xbd954796	-0.072890446
174	0x3db70a66	0.0893753
175	0x3dbad09b	0.091218196
176	0x3d47c33f	0.048770186
177	0x3d81ad35	0.06331865
178	0x3cd732cc	0.026269339
179	0x3c961449	0.01832022
180	0xbd88245e	-0.066475615
181	0xb9094f8d	-0.00013094973
182	0xbda49a1e	-0.08037208
183	0x3d7f5299	0.06233463
184	0x3da67594	0.08127895
185	0x3d318988	0.04334405
186	0x3d844232	0.06457938
187	0x3d5285d4	0.05139716
188	0x3cb8c87f	0.022556541
189	0xbcba36bc	-0.022731178
190	0x3b8318e0	0.004000768
191	0x3b7cf0e3	0.0038595728
192	0xbb1c334d	-0.0023834289
193	0xbbd761d4	-0.0065729413
194	0xbd187a1d	-0.03722583
195	0xbd313125	-0.04325976
196	0x3da847f1	0.08216847
197	0xbd62e5cc	-0.055394933
198	0xbd475ac1	-0.048670534
199	0xbc855538	-0.016275987
200	0xbc1555ed	-0.009114725
201	0xbd8543cf	-0.06507074
202	0x3da6b4b3	0.081399344
203	0x37f3a0ee	2.9042796e-05
204	0xbda67988	-0.08128649
205	0x3c2094cf	0.009801104
206	0xbd9b4e2d	-0.0758327
207	0xbd5f9a97	-0.054590788
208	0x3defb8cb	0.11705168
209	0xbba8f007	-0.0051555666
210	0xbd2169f5	-0.03940769
211	0xbba73425	-0.0051026517
212	0xbbcc38b6	-0.0062323464
213	0xbca83a5c	-0.02053564
214	0x3db732cb	0.08945235
215	0xbd90214b	-0.070376
216	0xbcefeb63	-0.029287046
217	0x3c84c3a7	0.016206576
218	0x3b892479	0.004185256
219	0x3d4faf20	0.05070412
220	0x3bbcb686	0.005759063
221	0x3d16c8cc	0.03681259
222	0xbbfc934a	-0.007707988
223	0xbcaa42df	-0.02078384
224	0x3d790db3	0.06080408
225	0xbd310e4c	-0.043226525
226	0x3d29ddd0	0.041471303
227	0xbd20c69a	-0.0392519
228	0xbcf0eae8	-0.029408887
229	0xbc8aa65d	-0.016925031
230	0xbc6ed447	-0.014576978
231	0x3c86d7d9	0.016460346
232	0x3d1e5e77	0.038664307
233	0xbd90f9cf	-0.07078897
234	0xbd9eadc8	-0.0774799
235	0x3c5825af	0.013192578
236	0x3d64d654	0.05586846
237	0xbc796ddc	-0.015223946
238	0x3d92f123	0.071748994
239	0xbcb292ce	-0.021798518
240	0x3c8f7fc7	0.017516984
241	0x3d575b9a	0.052577592
242	0x3cf62093	0.03004483
243	0xbcb418b3	-0.021984434
244	0x3d1f693c	0.03891872
245	0x3c70640d	0.014672291
246	0xbc998e98	-0.018744752
247	0xbc487d83	-0.012236956
248	0x3d042a9c	0.032267198
249	0xbc71341f	-0.014721899
250	0x3c9ce6be	0.019152995
251	0x3be9052e	0.007111213
252	0x3bedebb0	0.007260762
253	0x3cb411c7	0.021981133
254	0x3b86bf29	0.0041121435
255	0xbcc828aa	-0.024433453

Critic.fc1.bias f4 [32]
0	0x3d4a064c	0.04932241
1	0x3d8659d6	0.065601036
2	0x3cf30b95	0.029668609
3	0xbd4dee6d	-0.05027621
4	0x3d8d27b2	0.06892337
5	0x3d653c6c	0.055965826
6	0x3cf69d13	0.030104196
7	0x3dda5e80	0.10662556
8	0x3c80d9c7	0.015728844
9	0x3c1b9570	0.009496078
10	0x3c6a37b1	0.014295504
11	0x3cc14526	0.023592543
12	0x3cc06d0c	0.023489498
13	0x3b15d920	0.0022865012
14	0x3de265af	0.11054551
15	0x3da33d7b	0.07970711
16	0x3d6ccea8	0.05781427
17	0x3de6e5ac	0.11274275
18	0x3dd42aa2	0.10359694
19	0x3c4e509d	0.012592462
20	0x3daedd2d	0.0853828
21	0x3cf57550	0.029963166
22	0x3db26d7e	0.0871229
23	0xbcc54f40	-0.02408564
24	0x3d545c8e	0.05184608
25	0x3d02e487	0.031956222
26	0x3d6cba6b	0.05779497
27	0x3d287c86	0.04113438
28	0x3d046617	0.032323923
29	0x3da4835f	0.080328695
30	0x3cc77f27	0.024352623
31	0x3d84ed3c	0.06490561

Critic.fc2.weight f4 [32, 32]
0	0xbd428bf0	-0.047496736
1	0xbd3e3fd9	-0.04644761
2	0xbe08febc	-0.13378423
3	0xbd953ed1	-0.07287372
4	0x3dd7f9bd	0.10545681
5	0x3de5c7cd	0.112197496
6	0x3e586c55	0.21135075
7	0xbbec3b31	-0.0072092046
8	0xbde0de90	-0.109799504
9	0xbdfb96a6	-0.12284593
10	0x3e0f102b	0.13971011
11	0xbdb8ad93	-0.09017482
12	0x3de11189	0.10989673
13	0x3d48cac5	0.0490215
14	0xbe083a53	-0.13303499
15	0x3e492649	0.19643511
16	0xbe480b91	-0.19535662
17	0xbe00c272	-0.12574175
18	0xbb6b0758	-0.0035862532
19	0x3e1eb840	0.15499973
20	0x3e3144db	0.17311423
21	0x3d99722b	0.07492479
22	0x3e48a542	0.19594291
23	0xbbc309df	-0.0059521045
24	0x3d96adf3	0.07357397
25	0xbddf4043	-0.10900929
26	0x3db37164	0.08761862
27	0xbde9ef92	-0.114226475
28	0x3e06c64f	0.13161586
29	0x3db9527f	0.09048938
30	0x3d3ee2c6	0.046602987
31	0x3df88f55	0.121367134
32	0x3ca5e203	0.020249372
33	0xbd61bf57	-0.055114117
34	0x3e022f20	0.1271329
35	0x3990dc32	0.0002762988
36	0xbdc8c1ff	-0.09802627
37	0x3dcd5e1b	0.10027715
38	0x3d7b549f	0.061359998
39	0xbe0b028f	-0.13575195
40	0xbdfd9f1e	-0.12383865
41	0xbe505de0	-0.2034831
42	0x3dc4ac99	0.09603233
43	0x3e2bcd8c	0.16777629
44	0xbb44d138	-0.003003193
45	0xbe19dd1d	-0.15025754
46	0x3e2c2da3	0.16814284
47	0x3e169649	0.14705767
48	0xbcae8b49	-0.02130665
49	0x3d3a0bb1	0.045421306
50	0x3c005aae	0.00783412
51	0x3dd936fd	0.10606191
52	0x3de70b3f	0.11281442
53	0x3e3cf778	0.18453777
54	0x3e1da686	0.15395555
55	0x3e0d6c79	0.1381091
56	0xbb8be087	-0.004268709
57	0x3db37832	0.0876316
58	0xbdc2bcc2	-0.09508659
59	0xbdf41449	-0.119179316
60	0x3da4356e	0.080180034
61	0x3dad362b	0.08457597
62	0xbdcbb916	-0.09947412
63	0x3e45844f	0.19288753
64	0x3dccf47f	0.100075714
65	0xbd8765a4	-0.06611183
66	0x3dd1f54a	0.10251863
67	0xbd0a3906	-0.033745788
68	0xbde462a7	-0.11151629
69	0xbd7faf11	-0.062422816
70	0xbd1eb82f	-0.03874987
71	0xbcc25e96	-0.023726743
72	0x3e282548	0.16420472
73	0xbd3607bd	-0.044440974
74	0xbd9eef8d	-0.077605344
75	0x3d57c97d	0.05268239
76	0xbe1bd3dc	-0.15217537
77	0xbd39d64a	-0.045370378
78	0x3c5a9bd6	0.013342818
79	0xbd0bc8a2	-0.034126885
80	0xbe018ecf	-0.12652133
81	0xbe01859e	-0.12648627
82	0xbdc5f5cc	-0.09666023
83	0x3dd3b8e6	0.10338001
84	0x3dce68a8	0.10078555
85	0xbe2953fa	-0.16535941
86	0x3df0c05d	0.117554404
87	0x3d1d2c4f	0.038372334
88	0x3b971f68	0.004611898
89	0xbdcada12	-0.09904875
90	0x3e2182e2	0.15772584
91	0x3deca985	0.11555771
92	0xbe25b64a	-0.16182819
93	0x3da5e5ac	0.08100447
94	0x3e37ee31	0.17961957
95	0xbd5df4f6	-0.05418869
96	0x3e361ce8	0.17784464
97	0xbac1ad5a	-0.0014776394
98	0x3b928c93	0.004472324
99	0x3e1b46b4	0.1516369
100	0xbde11382	-0.10990049
101	0x3dc1660f	0.09443294
102	0xbdc00b1c	-0.09377119
103	0x3d0441ae	0.0322892
104	0xbd71959d	-0.058980573
105	0xbc849708	-0.016185299
106	0xbe1dbef6	-0.15404877
107	0x3e3d1a30	0.18467021
108	0xbe029bab	-0.12754695
109	0xbdabd0f3	-0.08389463
110	0x3e3b139f	0.18269204
111	0xbde7cb9d	-0.11318133
112	0x3cff4ab6	0.031163555
113	0xbcc00f4f	-0.0234448
114	0x3d4781d2	0.04870779
115	0x3e0a9f0e	0.13537237
116	0x3d11e087	0.035614517
117	0x3e0a671b	0.13515894
118	0x3e366e0c	0.17815417
119	0xbe330040	-0.17480564
120	0xbd13b8d1	-0.036064927
121	0xbd3825fe	-0.044958107
122	0xbdbb9aec	-0.091604084
123	0xbcdd2868	-0.026996806
124	0x3df7bce3	0.12096574
125	0x3cd8ff7b	0.02648901
126	0x3dd048b2	0.101701155
127	0x3c681df8	0.014167301
128	0x3e25b081	0.16180612
129	0x3e3d7c4c	0.18504447
130	0x3e5583a2	0.20850995
131	0xbdb14e7b	-0.08657547
132	0x3e22fbab	0.15916316
133	0xbdb0145a	-0.08597632
134	0xbddf459c	-0.10901949
135	0x3d02a756	0.031897865
136	0x3cf76799	0.030200766
137	0xbd2254e3	-0.039631736
138	0x3e4604f3	0.19337825
139	0xbd78fd5b	-0.060788494
140	0xbdafbf24	-0.08581379
141	0xbe0ece8a	-0.13945976
142	0x3df37e7d	0.1188936
143	0xbdf19dcf	-0.11797678
144	0x3dcd3763	0.1002033
145	0xbd8205a7	-0.06348734
146	0x3e59d160	0.21271276
147	0xbd5e995e	-0.05434548
148	0x3d380985	0.044930954
149	0x3e089907	0.13339625
150	0x3d8072ec	0.062719196
151	0xbe3248f7	-0.17410646
152	0xbd676ecd	-0.056502152
153	0x3d948bba	0.07253213
154	0x3e2fe3ea	0.17176786
155	0xbc06c015	-0.008224507
156	0x3db0a08b	0.08624371
157	0xbd885f19	-0.066587634
158	0xbd80dd68	-0.0629223
159	0xbd8e0bf4	-0.06935874
160	0xbda0ab02	-0.07845117
161	0xbdbf1417	-0.09330004
162	0xbdf4b97c	-0.11949441
163	0x3dae8a36	0.085224554
164	0xbdcda1c7	-0.10040622
165	0xbd428204	-0.047487274
166	0xbe16eb30	-0.14738154
167	0xbcc03bb7	-0.023465974
168	0xbd28abce	-0.04117947
169	0xbdfdb47a	-0.12387939
170	0x3df9cf28	0.12197715
171	0xbe20534e	-0.15656778
172	0xbd71c91f	-0.059029695
173	0xbd4c6926	-0.049904965
174	0xbdfea906	-0.124345824
175	0xbe23df46	-0.16003141
176	0xbdd1fe94	-0.10253635
177	0x3dcc2210	0.099674344
178	0x3d9f1b1e	0.07768844
179	0xbe2e236a	-0.17005697
180	0xbda2fc21	-0.07958246
181	0xbe2f8eed	-0.17144366
182	0x3d781fb6	0.060577117
183	0xbe349720	-0.17635775
184	0xbe20b702	-0.15694812
185	0x3d81e46a	0.06342395
186	0xbdb3c926	-0.087786004
187	0xbd8226d4	-0.06355062
188	0xbe330616	-0.1748279
189	0x3d1ba747	0.038001325
190	0xbe1424fe	-0.14467236
191	0x3d91e1bf	0.07123136
192	0x3e3bc62f	0.1833732
193	0x3e42bf90	0.19018388
194	0x3e1ace11	0.1511767
195	0xbd3776c6	-0.044791006
196	0xbb1afe81	-0.0023650231
197	0x3c6ecd62	0.014575334
198	0xbd69f096	-0.057114206
199	0x3e1c6083	0.15271191
200	0x3e18dee0	0.1492877
201	0x3d3bd606	0.045858406
202	0x3d123334	0.035693362
203	0x3e2302cb	0.15919034
204	0xbdeb5bb1	-0.11492098
205	0xbc8f75d2	-0.017512236
206	0x3e31fa7a	0.17380705
207	0xba771509	-0.0009425437
208	0x3d9ef732	0.077619925
209	0x3e574254	0.21021396
210	0x3e67910e	0.22613928
211	0x3e0d44b7	0.13795744
212	0xbd682c72	-0.05668301
213	0x3de7f379	0.113257356
214	0x3d833b02	0.06407739
215	0xbe0ec960	-0.13944006
216	0x3e4470b9	0.19183625
217	0x3da3af87	0.079924636
218	0xbd10dba0	-0.0353657
219	0xbd087596	-0.033315264
220	0x3e1d14ee	0.15340015
221	0x3c179b6d	0.009253365
222	0xbe106e64	-0.1410461
223	0x3df0c620	0.11756539
224	0xbdbeaa0b	-0.09309777
225	0x3e02c9ab	0.12772243
226	0x3cc48f8d	0.023994232
227	0x3d01b8e6	0.031670474
228	0x3e1e15e5	0.1543804
229	0xb9b4387b	-0.00034374357
230	0x3e0020d0	0.12512517
231	0x3df105ed	0.117687084
232	0xbceac9ec	-0.028660737
233	0x3d14c8d1	0.036324326
234	0xbe0f659f	-0.14003609
235	0x3bb67b08	0.0055688657
236	0x3d6dc64d	0.058050442
237	0xbe09a9cb	-0.13443677
238	0x3dc33ea7	0.09533434
239	0xbcb8c390	-0.022554189
240	0xbe28bd0b	-0.16478364
241	0xbd58f6c5	-0.052969713
242	0x3d125003	0.035720836
243	0xbdcd39f9	-0.10020823
244	0xbe02859c	-0.1274628
245	0xbddf23a7	-0.10895472
246	0x3d98d328	0.0746215
247	0xbe3a9769	-0.18221821
248	0x3dc7f1ae	0.097628936
249	0xbc839458	-0.016061947
250	0x3c99f57c	0.018793814
251	0xbdbdcd69	-0.092676945
252	0xbd8900f0	-0.06689632
253	0x3ca3350a	0.019922752
254	0x3c32a97b	0.010904665
255	0x3d015808	0.031578094

Critic.fc2.bias f4 [32]
0	0x3ceae0c4	0.02867163
1	0x3e0cddb1	0.13756444
2	0xbdf20907	-0.11818128
3	0x3d673857	0.056450214
4	0x3e0163e4	0.12635761
5	0x3e0d116f	0.13776182
6	0x3e32d9f0	0.17465949
7	0x3e63abce	0.22233507
8	0xbe3f3abe	-0.18674752
9	0x3bf074a9	0.0073381257
10	0x3ca464a0	0.020067513
11	0x3db1b882	0.0867777
12	0x3d287bae	0.041133575
13	0xbce24567	-0.027620984
14	0x3e2335da	0.15938511
15	0x3d32a18d	0.043611098
16	0xbdea011e	-0.11425994
17	0x3e623ad3	0.22092752
18	0x3e461e4e	0.19347498
19	0x3dc8fff5	0.09814445
20	0x3dea0548	0.114267886
21	0x3ccbf287	0.02489592
22	0x3df33696	0.11875646
23	0x3d3df0bd	0.046372164
24	0x3d9d61f1	0.076846965
25	0x3cc461b1	0.023972364
26	0x3cbbd658	0.022929356
27	0x3e162ed3	0.146663
28	0x3e2b8614	0.16750365
29	0x3d6cb701	0.057791714
30	0xbc821bb0	-0.015882343
31	0x3df310be	0.11868428

Critic.fc3.weight f4 [1, 32]
0	0x3d073cde	0.03301703
1	0x3d3db4f6	0.046315156
2	0xbbd02fa7	-0.006353337
3	0x3c38112a	0.011234561
4	0x3ce24225	0.02761943
5	0x3ae021a7	0.0017099873
6	0x3cdba51a	0.026812125
7	0x3cd1f60e	0.025630023
8	0xbc904e73	-0.017615533
9	0x3cd19ca6	0.025587391
10	0x3d48eaba	0.049051978
11	0x3cdbda94	0.026837625
12	0x3d468409	0.048465762
13	0x3ce66d38	0.028128251
14	0x3cce9a74	0.025220133
15	0x3c8d83bb	0.017274728
16	0x3a8229c4	0.000993066
17	0x3d264636	0.040594302
18	0x3d3c2292	0.045931406
19	0x3c12a173	0.008949625
20	0x3cc777c0	0.024349093
21	0x3cb0474c	0.021518372
22	0x3d25cf56	0.040480934
23	0x3cbb46c7	0.022860898
24	0x3cc020a6	0.023453068
25	0xbbed51be	-0.0072424104
26	0x3d451fd8	0.04812607
27	0x3c93a080	0.018020868
28	0x3d27a7bc	0.04093145
29	0x3c9a5d83	0.018843418
30	0x3cdb74f1	0.02678916
31	0xba014ce7	-0.0004932419
