model_5.pt (torch, 114732 bytes, 13 tensors)

Actor.fc1.weight f4 [32, 378]
000000 53 c5 d2 3e e5 d2 34 bd b1 e1 de 3d 75 9d 59 ba
       0.4116617 -0.044146437 0.10882891 -0.0008301356
000010 61 62 e1 bc b3 42 33 be a9 7c c8 be c9 3b f5 3e
       -0.027512731 -0.17505912 -0.39157608 0.47897175
000020 05 39 91 3e 6b eb a6 3e f2 55 66 3e 90 13 f6 bc
       0.28363815 0.32601485 0.22493723 -0.030038625
000030 36 60 be 3e fc 46 41 3e e6 ac c7 3e 59 47 74 3d
       0.37182778 0.18874735 0.389991 0.059638355
000040 16 7c d0 3e e4 16 6e 3e 79 fb a6 3e 85 28 dc bc
       0.4071967 0.2325092 0.32613733 -0.02687479
000050 e7 0e e3 bd e4 c1 74 be 3e 36 18 3f a2 32 b9 3e
       -0.11086827 -0.23902088 0.59457767 0.36171442
000060 4e 7a 24 3e 57 e1 9d 3e 92 2d d0 3d e5 b9 88 3c
       0.1606228 0.30835983 0.10164942 0.016690204
000070 df 9c 9d be c4 5e 68 be a2 86 ec 3e 66 a8 ff 3d
       -0.30783746 -0.226924 0.46196467 0.12483291
000080 47 7a ae 3d cf d6 96 3d f3 80 c2 bd a9 d7 86 3e
       0.08519416 0.0736519 -0.09497251 0.2633641
000090 97 f3 45 3e 66 9e 34 be 60 5c 0a 3e 49 4b 6c 3d
       0.19331203 -0.17638549 0.13511801 0.057688985
0000a0 b7 52 0e 3c 43 d9 03 be 6e 17 85 3e e8 0c d6 3d
       0.008686713 -0.12875848 0.25994438 0.104516804
0000b0 1c 02 45 3e 32 7e aa 3e 2c 95 5e 3e a8 4f d9 3b
       0.19239086 0.33299404 0.21736592 0.00663181
0000c0 b9 cf ef 3c 0d 62 69 3c c0 47 b6 3b 68 07 3c bd
       0.029273855 0.0142445685 0.0055627525 -0.0459055
0000d0 09 e5 e5 bc f1 48 06 3d 45 a4 0d bd 8e ab 9c 3b
       -0.028063314 0.032784406 -0.034580488 0.004781193
0000e0 b6 c6 02 bd b3 c5 a8 3d 3e 86 be 3d c6 2c 71 3e
       -0.031927787 0.08240833 0.093029484 0.23552236
0000f0 d0 27 ab 3e 2f a3 4f 3e 94 af 3b be 7a 63 f6 bd
       0.33428812 0.20277093 -0.18328696 -0.120306924
000100 4b f5 00 3e e1 90 1b 3d 0e 12 af 3d 32 3d 6d 3e
       0.12593572 0.037979964 0.085483655 0.23167875
000110 9e 91 87 3e 20 dd 6b 3e 47 4e d9 3e 4a b7 fd be
       0.26478285 0.23033571 0.42442533 -0.495539
000120 47 cf 2f 3e 5e e4 dc 3e 21 99 e8 bc 86 28 3f 3e
       0.17168914 0.4314298 -0.02839333 0.18667802
000130 e2 36 31 3c ee 87 92 3d cc 18 4e 3e 65 fe 3c 3e
       0.010816308 0.07154833 0.20126647 0.18456419
000140 6d fb 01 3f bf 67 33 bf f8 22 01 3f c0 21 02 3f
       0.5077427 -0.7008018 0.50443983 0.5083275
000150 e3 af 24 be e9 a8 12 3f 05 90 88 3d 1c 4a 9c bd
       -0.1608272 0.57288986 0.066680945 -0.07631323
000160 1a 9d 11 bb 29 7e 79 3d 7a c0 92 3e 28 10 5b 3e
       -0.0022218884 0.06091133 0.28662473 0.21392882
000170 a6 ed 63 3d fa a9 d1 3e f6 56 23 bd 79 7c db 3c
       0.05564656 0.40949994 -0.039877854 0.026792752
000180 70 1b a0 3b 60 67 70 3e ac d0 2c 3e 80 e7 56 bd
       0.0048860833 0.23476934 0.16876477 -0.05246687
000190 4e ac 75 be 5d 08 fd be 3e a8 a7 bd 4e 46 5e be
       -0.2399151 -0.49420443 -0.081863865 -0.21706507
0001a0 bb 2f b1 3d 6a f5 22 be 35 83 d8 3c d6 fa b6 3e
       0.08651682 -0.1591393 0.026429752 0.35738248
0001b0 89 86 ba 3e 1c 4a 95 3d d6 0c bb bc fa b1 89 be
       0.36430767 0.07289526 -0.02283327 -0.26893598
0001c0 71 cc 02 be 8b 11 75 bd 9d f2 15 3c 50 6c 8e be
       -0.127733 -0.059831183 0.009152082 -0.2781701
0001d0 9c 52 d3 3d 45 57 6d bd 77 4a a7 bd 27 97 c8 bd
       0.10318491 -0.057944555 -0.081685 -0.09794455
0001e0 82 30 12 3d f3 06 4e be 0e 4a 6e bd 5c b6 9e 3a
       0.035690792 -0.20119838 -0.058176093 0.0012108791
0001f0 84 6e 84 ba e3 68 95 3d b3 8c a5 3d c7 14 04 bd
       -0.0010103737 0.07295396 0.08083477 -0.032246377
000200 55 73 98 3d 72 2d bc bd 5c 48 2e 3f 85 c3 17 bf
       0.07443873 -0.091883555 0.6807916 -0.59282714
000210 60 47 bc bd 11 05 30 bf 52 c7 d2 bd 59 bc 57 3c
       -0.09193301 -0.6875773 -0.102919236 0.013167464
000220 a2 f9 b9 3c 90 21 22 3c c8 4c 85 3d 1f 1c 1e be
       0.022702042 0.009895697 0.065087855 -0.15440415
000230 9f 38 d7 3d 45 9f 9b be 19 9d b1 bd 05 7f a0 be
       0.105088465 -0.3039495 -0.08672542 -0.31346908
000240 f2 f6 02 be 91 df 81 bd c3 4a 80 3d b6 8f 4d bd
       -0.12789515 -0.0634147 0.0626426 -0.05018588
000250 a8 db 7f bb 81 e8 c6 bd ec 12 5d be 20 56 a4 3e
       -0.0039040837 -0.09712315 -0.2158925 0.32096958
000260 6c bf ae bd 32 47 98 be 3e 13 d0 3c 1c ec 57 3d
       -0.085326046 -0.29741818 0.0253998 0.052715406
000270 5b 96 a0 3c 09 06 c5 bc c7 fc ea 3d 08 38 fe bd
       0.019602945 -0.02405073 0.11473995 -0.12413031
000280 46 cf 1f bd 72 bc c9 bd d7 e7 44 bd c2 10 ec 3c
       -0.03901603 -0.09850396 -0.048072662 0.028816584
000290 9c 06 86 3d 1c ac 31 3d bf b8 2b 3d 9e 01 8b 3d
       0.065442294 0.043377027 0.041924234 0.06787418
0002a0 ee a2 5e bc 09 2e 9c 3d ac cc 83 3e bc 66 45 3e
       -0.01358865 0.07625968 0.2574209 0.19277471
0002b0 98 0e 91 bd dc af 37 be ff d4 93 3c 36 c2 26 3d
       -0.07082862 -0.17938179 0.0180459 0.040712558
0002c0 b6 f0 85 3d 9d 36 a7 bc 76 09 93 bd 13 0a 6c bd
       0.065400526 -0.020411784 -0.07179539 -0.057626795
0002d0 66 c6 06 3e 5d 31 df 3d 3c ae ab 3d f0 06 4a be
       0.1316162 0.10898087 0.08382842 -0.19729209
0002e0 38 58 aa bc 43 97 4f 3c 70 ff 85 3d f7 4d a5 bc
       -0.02079402 0.012670341 0.065428615 -0.020178778
0002f0 98 66 0f bc 8f 23 88 3c 4a ae b8 bb a9 2e 43 bd
       -0.008752488 0.016618518 -0.0056360113 -0.04765192
000300 ba 6c d2 bc ee 3d 6d 3d 9b 70 76 be 3f fe 24 be
       -0.02568661 0.05792039 -0.24066393 -0.16112612
000310 18 49 79 3e 2d f3 67 3e da d5 6d 3d 0f 5f 71 be
       0.2434429 0.22651358 0.058065273 -0.23571418
000320 a1 97 80 bd 05 7e c2 3e 2f 23 d5 3e ab cb f2 bd
       -0.06278921 0.3798677 0.41628405 -0.11855253
000330 3c 1b 17 3e 8e 19 34 be 86 22 1d 3d 88 cf c5 3e
       0.14756483 -0.17587873 0.038363002 0.38634896
000340 aa 44 a9 3e 4a be 7b bd c3 94 8b 3e eb b3 e3 bd
       0.330602 -0.06146077 0.27261934 -0.11118301
000350 10 31 9e 3e 52 42 d5 3c ae 4e e1 3e 16 d8 18 be
       0.30896807 0.0260326 0.4400534 -0.1492618
000360 e2 fa 40 3e 4a 89 5d 3e d8 c7 f9 3c 13 a6 39 3d
       0.18845704 0.21634403 0.0304908 0.045324396
000370 f4 e6 29 bd 3f 98 80 be 60 29 28 3e ae ae 7f 3e
       -0.04148002 -0.25116155 0.16422033 0.24968979
000380 99 9b 5f 3b 3b a0 7d bb 18 18 c2 bc 3d 31 79 be
       0.0034119843 -0.003870024 -0.02369313 -0.24335189
000390 8c ba 3a 3e 25 86 84 be 8d 5f a0 3d 6b e2 8d 3e
       0.18235224 -0.25883594 0.07830725 0.27711806
0003a0 c2 29 90 3e ea 92 e2 3d 39 a0 6a 3e ff e1 5e 3d
       0.2815686 0.11063178 0.22912683 0.054414745
0003b0 e9 2a 8d 3c c6 f2 ff 3d 4c 1e bd 3d 31 7e ac bd
       0.017232375 0.12497477 0.09234294 -0.084225066
0003c0 20 ee 94 3d b8 96 4d 3d ef 1b 13 3d 37 9d 5b 3d
       0.07271981 0.050192565 0.03591531 0.05361673
0003d0 3a ea 24 3d a9 81 b1 bd 44 11 c0 3b 4a 68 2a 3d
       0.04026244 -0.08667309 0.005861433 0.041603364
0003e0 79 b7 2e be 30 7c 90 3d f7 39 78 3e 77 1e d3 3d
       -0.17062177 0.07054937 0.24240862 0.10308545
0003f0 5d 16 13 bd 0a f0 ec bd 61 2e 80 be f1 1e d3 3d
       -0.03591 -0.11569221 -0.25035384 0.10308636

Actor.fc1.bias f4 [32]
000000 ba 32 81 3d 0a ed 09 3f c4 0f 0a bf 68 3c a4 be
       0.063085034 0.5387732 -0.53930306 -0.32077336
000010 94 7d 60 be ee 86 2a be 75 ff 20 be b6 24 03 bf
       -0.21922904 -0.16653034 -0.15722449 -0.5122789
000020 00 5e 18 bd d1 1b c2 be 40 a9 9b bc ec ce 92 bd
       -0.03719902 -0.37911847 -0.019001603 -0.071683735
000030 71 ef 81 3e 02 2c 2c be 61 30 f8 3d c9 f4 12 be
       0.25377992 -0.16813663 0.121186025 -0.1435119
000040 64 88 11 3e d8 c0 88 be 53 db de be d6 fb 59 be
       0.14212185 -0.26709628 -0.43526706 -0.21287474
000050 41 c0 2a be d4 fb 00 bf be 62 db be 65 80 ae 3e
       -0.16674902 -0.5038426 -0.42848772 0.34082332
000060 a9 09 fe 3e c4 22 45 be 43 c8 c6 3d 51 69 1a 3f
       0.49616745 -0.19251543 0.09706166 0.6031695
000070 30 c4 84 be 98 1b 39 3e e1 25 b2 be ba d8 8f be
       -0.2593093 0.18076932 -0.34794524 -0.28095037

Actor.fc2.weight f4 [32, 32]
000000 e3 bd ce 3d c7 71 da be 2a 31 8f be 24 83 2e be
       0.10094812 -0.4266493 -0.27967197 -0.17042214
000010 89 42 86 3c c6 69 b7 3c d2 6b 29 be 06 a0 b6 bd
       0.016389148 0.022389304 -0.16545036 -0.08917241
000020 12 bb c9 bd 65 4e 99 be 5a cc 3b be b9 52 ac bd
       -0.09850134 -0.29942623 -0.18339673 -0.084142156
000030 3e 16 7d be 73 79 58 be 7f 6a 93 3c df 5b 40 3c
       -0.24715516 -0.21140079 0.017995117 0.011740654
000040 42 41 d3 bd 00 51 28 be 7d d4 60 3d f9 c7 50 3d
       -0.10315181 -0.16437149 0.054890145 0.05097196
000050 95 79 dc bd 14 49 55 bd fa 02 81 bc fa 75 99 be
       -0.107653774 -0.052071646 -0.01574849 -0.2997282
000060 05 4d 7e be 92 43 fb bc 24 52 76 be 15 c7 26 be
       -0.24834068 -0.030671868 -0.24054772 -0.16286881
000070 7c 61 66 be f8 64 1e bd 4b a2 53 3e ec a7 df bd
       -0.22498125 -0.03867051 0.20667379 -0.109207004
000080 53 cb 89 be e8 27 3c bf 8a d6 bf bd bc 51 7a bb
       -0.26912937 -0.7349839 -0.09367092 -0.003819569
000090 3d 48 cd 3d 84 fd 5a be 73 7e 88 3d 47 02 4b be
       0.10023544 -0.21385771 0.06664743 -0.19825087
0000a0 0a 4b b8 bd 44 bb ab be b5 18 e5 be fe 5b 74 bd
       -0.089986876 -0.3354131 -0.44745412 -0.059658043
0000b0 31 34 12 3d 92 8a 26 bf c6 4f 01 bf 27 f3 2d be
       0.035694305 -0.6505519 -0.5051235 -0.16987287
0000c0 d5 5d 23 be b6 ab 92 bd 67 9f 74 bd 2e 67 41 3e
       -0.15953763 -0.071616575 -0.05972233 0.18887016
0000d0 17 72 93 be 2a 6d 4c bd 7d 49 b9 be 8a 9d e4 bd
       -0.2879798 -0.049908794 -0.3618888 -0.11162861
0000e0 34 b6 23 bf 69 6a 31 bd 4a a6 19 bf c2 80 b3 be
       -0.63949895 -0.04331437 -0.6001936 -0.35059172
0000f0 37 21 d4 be ef 29 05 bd 67 18 65 bd 11 35 65 be
       -0.4143159 -0.032510694 -0.055931475 -0.22383524
000100 4c 04 ab 3d 72 42 5f be c1 60 c9 bd 5f d6 92 bd
       0.08350429 -0.2180269 -0.098329075 -0.07169794
000110 66 97 8d 3d b3 8f 5a 3c 65 e6 54 be 41 af 3a 3d
       0.069136426 0.013339925 -0.20791014 0.04557729
000120 0a 7d 2e 3d 8e 74 e0 3c 1b 7c 95 bd 10 87 52 be
       0.042599715 0.027399328 -0.07299062 -0.20559335
000130 fc 0a 66 be 21 98 37 be 2f a9 7e bd 06 42 d0 3c
       -0.22465128 -0.17929126 -0.062173065 0.025422107
000140 1a 5d cc bd c1 68 69 be a3 f0 75 be d2 aa 32 bd
       -0.09978695 -0.22793867 -0.24017577 -0.04361994
000150 25 c2 4a 3d 98 a4 00 3e 02 1a 25 be 36 d4 f3 3c
       0.049501557 0.12562788 -0.16123202 0.029764276
000160 f3 66 0f be 1c 12 02 3e 3e 32 46 be fd 0a 4c bd
       -0.14004116 0.1270222 -0.19355103 -0.049815167
000170 2a b2 32 bd 30 d7 83 bd e4 3e 18 3c 9c b3 29 3e
       -0.04362694 -0.06437528 0.009292338 0.16572422
000180 22 a2 91 be a2 df e3 3d 72 f5 6b bd e5 16 90 3d
       -0.2844401 0.11126639 -0.05760712 0.07035617
000190 e5 b2 00 bf b7 26 86 be fc 5f ec be 8f 41 b0 bd
       -0.5027297 -0.26201412 -0.4616698 -0.08606254
0001a0 38 1e 67 be e6 4c 0e be 8b fc 92 be 84 66 a3 be
       -0.22570121 -0.13896522 -0.287083 -0.3191415
0001b0 a5 37 8b be b7 28 e7 bd 3b 9c 2f 3e 28 47 4f bf
       -0.2719089 -0.112870626 0.17149441 -0.8096795
0001c0 93 88 f9 be 08 53 53 3d c4 ba 05 be 62 88 8e bd
       -0.4873701 0.051592857 -0.13059527 -0.06959607
0001d0 64 cc 40 bf c0 e0 9b bd 35 66 50 3d c4 72 a8 bd
       -0.75311875 -0.07611227 0.050878722 -0.08225015
0001e0 62 79 67 be 4d 0b 27 bf f4 42 11 be 98 f1 2f bf
       -0.22604898 -0.6525162 -0.14185697 -0.6872802
0001f0 f5 2c 70 be a7 73 24 be b2 17 8a be 63 bc ff bd
       -0.2345465 -0.16059743 -0.26971203 -0.12487104
000200 ad c0 ae bd 4d e7 b5 bd 07 0d c9 bd d2 f0 69 bd
       -0.08532844 -0.08882008 -0.09816938 -0.05711443
000210 96 78 64 be 62 7a 60 be 00 34 85 be a5 1e 37 be
       -0.22311625 -0.21921685 -0.26016235 -0.17882784
000220 65 77 04 bd c7 a6 20 bd 44 6f 9a bd 8f 66 c5 bd
       -0.032340426 -0.03922155 -0.075407535 -0.09638702
000230 f3 6d 16 be 43 11 74 be 0e e7 4e bd 29 da b6 3c
       -0.1469038 -0.2383471 -0.05051332 0.022320824
000240 ee 99 b1 bd 06 6a 1e be 1b c9 ea bd b5 4a 5a be
       -0.08671938 -0.15470132 -0.11464139 -0.21317561
000250 e4 24 24 3e ba 8d 87 bd c9 d6 61 bc 40 c7 d1 3c
       0.16029698 -0.06618829 -0.013784119 0.025607705
000260 36 3c 24 be 7d e2 19 3d cc ec 82 bd b4 09 8e be
       -0.16038594 0.03756951 -0.06392822 -0.27741778
000270 d1 a1 cd 3d e3 51 13 be 3d f3 19 bc c9 ec 69 3d
       0.1004063 -0.14386706 -0.009396371 0.05711058
000280 15 fa 75 3d 68 b8 69 be b8 14 c3 3c dd 00 70 bd
       0.06005295 -0.22824252 0.02381359 -0.058594573
000290 99 d9 99 be 1c 2c 8d bd 4c 0a 30 bd 01 21 e9 be
       -0.30048826 -0.06893179 -0.04297857 -0.45532992
0002a0 41 7a aa be 10 c9 ba be cb 13 1e bf eb 19 b3 bd
       -0.33296397 -0.36481524 -0.6174895 -0.08745178
0002b0 f7 de 9f be a2 e4 02 be 10 7a da be 2e 81 7c be
       -0.31224796 -0.12782529 -0.4267125 -0.24658653
0002c0 77 21 c2 be 2e 09 be bd ed 66 4b bd 21 fb 93 be
       -0.37916157 -0.09279095 -0.049658705 -0.28902534
0002d0 d2 b9 36 bd 3d 83 1f bd 58 c4 32 be 4a e8 2a 3e
       -0.044610806 -0.038943518 -0.17457712 0.16690174
0002e0 3a a6 2f be 9a 48 89 be 6f ee ad 3d 8c 85 7e be
       -0.17153254 -0.26813203 0.08492743 -0.24855632
0002f0 d1 33 5e be e6 75 86 be a0 09 4b be cc fe bc be
       -0.21699454 -0.26261824 -0.1982789 -0.36913145
000300 44 e7 f8 3b 7e 35 24 be 94 54 bd bd be 4a 14 3c
       0.0075959284 -0.1603603 -0.092446476 0.009051023
000310 d8 68 ba bc 4c 23 a9 bd 0b ec 12 3e 59 bb 1e be
       -0.022755072 -0.082586855 0.14347856 -0.15501155
000320 2e 85 4d be 99 c3 68 be 6b fa 7d be c0 09 af bd
       -0.20070335 -0.22730865 -0.24802558 -0.085467815
000330 e5 29 1a be 05 ed 99 be af f8 33 be 55 b4 16 be
       -0.15055044 -0.30063644 -0.17575334 -0.14717229
000340 71 80 cf bc c6 72 39 bd 71 af 22 be 14 84 68 bd
       -0.0253298 -0.045275472 -0.15887238 -0.056766585
000350 a3 84 6d bd 83 44 80 3d 0e 48 d2 bd 86 c8 57 bd
       -0.05798782 0.062630676 -0.102676496 -0.05268147
000360 63 3b 85 be fd d0 4a be b8 f1 11 3b 5e 2c cb bd
       -0.2602187 -0.19806285 0.002226932 -0.09920572
000370 e5 6a bf bd 34 cb 1d be 60 26 df bd 5b 4a 62 be
       -0.093465604 -0.15409547 -0.10895991 -0.22098677
000380 03 c3 13 be 90 74 35 bf cf f5 83 bd 7f f4 52 be
       -0.1442986 -0.70880985 -0.06443369 -0.2060108
000390 c9 b6 10 bc 1c 8a 3e be 69 14 1b 3e 2d 78 05 be
       -0.008832642 -0.18607372 0.15144505 -0.13034125
0003a0 80 e2 9a bc 20 05 1a be 17 53 8b be b2 8f 30 be
       -0.018906832 -0.15041018 -0.2721183 -0.17242315
0003b0 d8 25 26 be 95 2e 15 bf cf 29 1b bf 20 42 11 bf
       -0.16225374 -0.58274204 -0.6061067 -0.56741524
0003c0 7e 5c bf be 59 30 e5 be a6 e6 18 be f2 bc a7 be
       -0.37375253 -0.4476345 -0.14931735 -0.3276134
0003d0 17 69 84 be c2 f6 41 3d 54 68 87 be 6c aa 35 be
       -0.25861427 0.047354467 -0.26446784 -0.17740792
0003e0 de 58 0e bf 89 b2 20 be c1 88 77 be 71 67 32 bf
       -0.5560435 -0.15693106 -0.24173261 -0.6968909
0003f0 6d 2b 2c 3e 1e 96 4c bf 3d c2 e8 3c bb d0 e9 bd
       0.1681344 -0.7991656 0.028412933 -0.11416765

Actor.fc2.bias f4 [32]
000000 ae c0 6d be d1 69 1f bf d2 6c 52 be 3f e0 e9 b9
       -0.23218033 -0.6227084 -0.20549324 -0.000446083
000010 bd b7 95 be 93 ec ad be 08 e7 b2 be 36 cb 67 bf
       -0.29241744 -0.33969554 -0.34941888 -0.9054445
000020 c6 01 1d be d8 43 28 bd c2 a7 89 3d 4d 00 24 3d
       -0.15332708 -0.041080326 0.067214504 0.04003935
000030 31 a6 90 be b0 55 64 be 2d 06 0c be 42 c7 cf 3c
       -0.28251794 -0.22298312 -0.13674231 0.025363568
000040 5d e4 29 3c dc 32 e8 bd d2 c1 1a bf d4 83 e2 bd
       0.010369387 -0.11337826 -0.60451996 -0.110603005
000050 19 db a3 bd 52 9e 87 be 70 35 b0 3d 39 40 08 be
       -0.08000774 -0.26487976 0.086039424 -0.13305749
000060 50 b3 98 bd 3a 7e 7c bf 8a d4 42 be b4 07 0d bf
       -0.07456076 -0.98630106 -0.1902639 -0.5508988
000070 df 90 1f bf 31 93 94 be 82 ba 2a 3c 95 37 de bd
       -0.6233043 -0.29018548 0.0104204435 -0.10850445

Actor.mean_fc3.weight f4 [17, 32]
000000 32 47 98 3d 59 c5 cd be 72 de 80 3e b6 00 31 3e
       0.074354544 -0.40189627 0.25169712 0.17285427
000010 18 8e 2d bc f8 b4 9b be c0 63 90 3e 64 03 07 be
       -0.01059296 -0.30411506 0.28201103 -0.13184887
000020 22 c8 dc 3d f4 83 13 3e a5 27 58 3d ae 03 5a bc
       0.1078036 0.14405805 0.052772183 -0.013306541
000030 40 9d 53 bb b9 c1 25 be 98 e9 72 be c7 01 aa 3d
       -0.0032289773 -0.1618718 -0.23721921 0.0830112
000040 41 34 80 3e 57 32 53 be 1a 00 03 3e d5 15 7a be
       0.25039867 -0.20624672 0.12793007 -0.24422391
000050 2a 8e fc 3d ea a1 3d 3f 14 80 72 3e cb e3 24 3e
       0.12331803 0.74075186 0.2368167 0.16102521
000060 bf 55 89 be 2e 3a ae bd 46 6c da 3e b7 bf 9a bd
       -0.26823232 -0.08507191 0.4266073 -0.07556098
000070 13 25 17 3e b1 23 56 3e 60 d7 b3 bd da 4f 29 3d
       0.14760236 0.20912053 -0.08781314 0.041335918
000080 60 13 0e bc 7f 72 0d be 7d c5 e5 3d 84 72 17 3d
       -0.008671612 -0.13813208 0.112193085 0.036974445
000090 f3 af d2 3d 31 eb 0e bf 65 ff ff 3d 56 71 b0 bd
       0.10287466 -0.55827624 0.124998845 -0.08615367
0000a0 93 5d 1c 3c b8 4b 71 3d 10 e0 1e 3e 54 aa c3 3c
       0.009543794 0.0589101 0.1551516 0.02388493
0000b0 37 30 a1 bd 30 ef 09 be 48 84 8e 3e d8 1d 8b 3e
       -0.078705244 -0.13470149 0.27835298 0.27171206
0000c0 26 99 fa bc c3 c9 6c 3e b4 a2 49 3e 66 76 82 3c
       -0.030590605 0.23123841 0.19690973 0.015925597
0000d0 40 e1 80 bd 6a 33 e1 bd 5e 8a b8 3d 8a 99 b9 bd
       -0.06292963 -0.109961346 0.090107664 -0.090624884
0000e0 ef 38 06 3e 55 ac fa bd 2f 7a 98 bd 18 c2 e4 3d
       0.13107656 -0.12239901 -0.0744518 0.11169833
0000f0 12 b4 b6 3d 4a ca d0 be c3 d6 1a bf 89 ea a8 3c
       0.089210644 -0.40779334 -0.6048395 0.020619648
000100 63 ed 43 bd 12 d5 99 3c f8 f8 21 3e 1a 8d 79 3e
       -0.04783381 0.018778358 0.1581763 0.24370232
000110 f2 15 06 be f3 82 0f 3e e6 ad a3 be 27 9b 34 3e
       -0.13094309 0.14014797 -0.3196861 0.17637311
000120 e2 be 04 3f 8c e5 52 3e c9 f2 9a 3e 10 78 dd bd
       0.51853764 0.20595378 0.30263355 -0.10813916
000130 8c 0b 83 be cd ff 81 be 4e ae 9e 3d 8b b8 0d bb
       -0.25594747 -0.25390473 0.0774809 -0.0021624889
000140 69 43 95 be 3b 9d da 3d ae 9c 02 3e bd 06 c2 be
       -0.29152992 0.106745206 0.12755081 -0.37895766
000150 5f fb 4d be f2 69 4c be b0 2d cb be c9 60 ce 3e
       -0.20115422 -0.1996229 -0.39683294 0.40308216
000160 8e 31 2f 3e 85 50 70 3e 6c 2f c2 be a6 4d 96 3e
       0.17108747 0.23468216 -0.37926805 0.29356116
000170 e0 ea b2 3c 54 44 35 3e 2c d6 70 bd 04 85 31 bd
       0.021840513 0.17701846 -0.058798 -0.043339744
000180 51 05 be be f4 07 7d bd bd d1 cc 3d f3 04 dc b9
       -0.3711343 -0.061775163 0.10000942 -0.00041965357
000190 63 8b e3 bd b3 39 a2 bd 2c af 7d be 67 41 a4 be
       -0.1111057 -0.079211615 -0.24773854 -0.32081148
0001a0 08 63 e8 be 42 0a 86 bd 22 18 14 3e 42 74 55 be
       -0.45388055 -0.06544925 0.14462331 -0.2084513
0001b0 8d ef c7 3e 45 09 67 3d 89 f3 9d 3e 38 41 22 3e
       0.3904995 0.056405324 0.30849865 0.15845191
0001c0 44 35 f6 be 9d 07 6a 3e 6b 5c 1d 3e c8 d0 2b bd
       -0.48087513 0.22854467 0.15367286 -0.041947156
0001d0 36 74 f5 bc 26 5a 16 3e b6 0d 3a 3e b8 0b da bd
       -0.02996264 0.14682826 0.18169293 -0.106467664
0001e0 5f c8 0a 3e 60 be bd bd 42 04 1e 3f 7b a2 ff bd
       0.13552998 -0.09264827 0.61725247 -0.124821626
0001f0 57 6c 06 3e 70 e8 8c 3e 82 3f 09 be 6a 48 2c 3d
       0.13127266 0.27521086 -0.13403133 0.042061247
000200 dd ec 3e 3e 23 49 49 3e 0d c8 08 be b3 f8 ad 3e
       0.18645044 0.19656806 -0.13357563 0.33978805
000210 ac b1 db 3d d7 89 5f be ea 7b 0b be 53 83 9a be
       0.107272476 -0.21829925 -0.13621488 -0.30178317
000220 d6 47 96 3c 21 fa 63 be 55 0c 21 3d e2 57 a3 bc
       0.0183448 -0.22263385 0.0393184 -0.019939367
000230 e4 78 64 3e 7b 68 c1 3d d7 27 60 be be b4 10 3f
       0.22311741 0.09443756 -0.21890198 0.5652579
000240 bc 9f 39 3c 29 5a ac bd 62 78 96 bd 31 d3 02 bf
       0.011329588 -0.08415634 -0.0734718 -0.511035
000250 79 62 b1 bd f8 cb 69 3e 8a 09 54 3e 6e ac ca 3d
       -0.0866136 0.22831714 0.20706764 0.098961696
000260 35 dc 4f be 55 97 81 3e 44 91 a8 3e ad 14 8b 3e
       -0.20298846 0.2531077 0.3292333 0.27164212
000270 e3 5e 04 3d 45 cb 4e be f7 59 8f 3e 59 0b 23 be
       0.032317054 -0.20194729 0.27998325 -0.15922298
000280 d1 7e 11 be 11 8f c9 3e 20 32 e8 3e 46 f8 55 3e
       -0.14208533 0.39366964 0.45350742 0.2089549
000290 d2 ab 26 be b2 cb a4 3e 10 2d 01 be ce 87 b3 be
       -0.16276482 0.32186657 -0.12614846 -0.35064548
0002a0 fc 81 df bd 68 ca 18 3e f6 8c 5e 3e 48 d9 66 3e
       -0.109134644 0.14920962 0.2173346 0.22543824
0002b0 61 6b 78 3e 10 42 79 3e 2f a9 85 be 9c 2c 99 be
       0.24259712 0.24341607 -0.2610564 -0.29916847
0002c0 ec f0 79 bd 2a ed f6 3d d6 5c 57 3e 0f 77 c6 3b
       -0.061020777 0.12056954 0.21031508 0.0060566734
0002d0 43 16 74 be 51 e3 5e 3d f4 66 5d 3d a9 14 77 3e
       -0.23836617 0.054416005 0.054053262 0.24128975
0002e0 da 9d e4 3c f1 97 c6 bc 54 e5 e9 3b 44 c6 83 3e
       0.0279073 -0.024242373 0.0071379337 0.25737202
0002f0 c4 b2 68 be c4 50 ff bd f7 d7 9c be 50 a0 02 3f
       -0.22724444 -0.12466577 -0.30633518 0.5102587
000300 69 b6 14 3d 4c 6a 53 bd 00 c2 8d bd d3 29 ad 3e
       0.036306772 -0.051615044 -0.06921768 0.33820972
000310 f8 25 d2 3e 17 1d 14 be 36 8b 40 be a2 75 f9 bd
       0.41044593 -0.14464222 -0.18803105 -0.1218064
000320 35 cb e3 3d ca 22 75 3e 25 d4 6f 3d fb dc 8a 3e
       0.11122743 0.23939052 0.058551926 0.2712172
000330 08 55 e3 bd b9 d0 16 be 0b e6 ed bb eb a1 92 3e
       -0.11100203 -0.14728059 -0.0072600893 0.2863916
000340 c9 8c af bc 61 5b 27 be 8f 15 89 bd 09 e6 b3 be
       -0.021429436 -0.16343452 -0.06693565 -0.3513644
000350 7d 93 1d 3f 5c bc bb 3d 73 57 da bd 5d 20 07 3e
       0.61553174 0.09166786 -0.10661211 0.1319594
000360 87 da b4 bd 3e 50 5f bc 46 a8 3c 3d 6b 7e 12 be
       -0.08830743 -0.013629971 0.046058916 -0.14306037
000370 95 3b 07 be 53 e0 d6 3a de 78 95 be 75 fe 61 3e
       -0.13206322 0.0016393758 -0.29193777 0.22069724
000380 2e 65 de 3e 13 db ac be 0b 94 6b be bf 8d 46 3d
       0.4343657 -0.3376089 -0.23005693 0.048475023
000390 7a 35 c9 3d 4e f3 2b 3c 19 d5 01 3f 19 a9 a2 be
       0.09824653 0.01049502 0.50715786 -0.31769636
0003a0 62 4f 9f 3c fd 87 09 3e 44 c7 03 3d d7 1d 01 be
       0.019447032 0.13430782 0.032172456 -0.12609039
0003b0 29 2f fc bd f4 e3 ca be ba 6d 7f be a5 79 8d 3e
       -0.123136826 -0.3962704 -0.24944201 0.2763187
0003c0 d7 2c 0f bf f6 e5 59 3c db 60 de bd 66 a9 81 3d
       -0.55927795 0.013299456 -0.108583175 0.06331138
0003d0 af 5a 20 bd d4 f5 a3 3d 45 bd a2 3d 04 20 80 bd
       -0.039148983 0.08005872 0.079462565 -0.062561065
0003e0 e3 b2 1d 3e a5 90 18 3e 26 92 63 3d 18 b0 80 be
       0.15400271 0.14898928 0.0555593 -0.2513435
0003f0 4b 93 4b be 9f e9 f0 3d 49 f9 32 be d0 59 50 be
       -0.19880407 0.1176331 -0.17477907 -0.20346761

Actor.mean_fc3.bias f4 [17]
000000 84 c1 33 3d 6b 74 9e bc c3 17 af 3d 06 3d 1c be
       0.043885723 -0.019342622 0.08549454 -0.15257654
000010 b6 ef e1 3d 21 fe 2c 3e f7 7d 72 3d 64 7d 50 bc
       0.11032049 0.16893817 0.05920216 -0.012725208
000020 e7 7f 5e bd 3e e7 00 3e 71 75 f5 bc fb 2e 9d bd
       -0.054321196 0.12588212 -0.029963227 -0.076749764
000030 1e e1 47 bd 0b 31 1e be ce 7d ba 3d 5c 7e ea 3b
       -0.048798673 -0.15448396 0.091060266 0.0071561765
000040 d3 45 64 3d
       0.055730652

Actor.log_std_fc3.weight f4 [17, 32]
000000 1b 39 cc 3d 5a ae 28 be 1b a6 b3 be 6f ea 39 bd
       0.099718295 -0.1647276 -0.35087666 -0.04538959
000010 e9 1d 07 3e 20 b3 5b be a5 b0 84 3d c3 f1 eb 3d
       0.13195004 -0.2145505 0.06479005 0.11520722
000020 94 01 0b be 89 e8 eb 3d 5d 2f 83 be 02 3f 8c 3d
       -0.13574821 0.11518962 -0.25622073 0.06847955
000030 af 6a cf 3d a8 a1 87 be be 19 b2 3e 64 50 e3 3e
       0.1012777 -0.2649052 0.34785265 0.4439727
000040 eb e3 25 bd 5c 20 4c bf d6 f3 b0 be ef 62 5d 3e
       -0.040500563 -0.79736876 -0.34561032 0.21619771
000050 fd 5a 82 be 05 57 9c bd 8a 6c b1 be 9a f9 c3 bd
       -0.25460044 -0.07633785 -0.3465312 -0.09569092
000060 d1 84 ea 3d 07 13 3a bf ff 33 a6 3d 3f 86 a0 3d
       0.11451114 -0.72685283 0.08115386 0.078381054
000070 38 c0 f0 bd 50 16 80 3e d5 eb 80 3e 1f ac b6 3c
       -0.11755413 0.25017023 0.25179926 0.02229887
000080 56 c4 18 3e 09 70 86 3e a5 ac 86 3e f1 ca 03 3e
       0.14918646 0.2625735 0.26303592 0.12870385
000090 ef 62 81 3e ba 1f 96 3d 00 64 6c bd d1 4f aa be
       0.25270793 0.0733027 -0.057712555 -0.3326402
0000a0 2e 8d 04 bc 14 68 20 3e 77 c3 93 be 00 d7 c7 be
       -0.0080903005 0.15664703 -0.28860065 -0.3903122
0000b0 43 aa ba 3d 0f 60 d3 bc df 7f 46 3e e1 78 0c bc
       0.09114506 -0.02580264 0.19384716 -0.008573742
0000c0 ae 61 f0 3d dd 8b 5e be af c7 2a bf 91 39 a7 3d
       0.11737381 -0.21733041 -0.66710943 0.08165277
0000d0 e6 1f 36 bb ec 30 ee 3c 1e 5a 92 be bc 52 a2 bd
       -0.002779001 0.029076062 -0.2858438 -0.079259366
0000e0 f0 d5 68 be 2a 29 2a be 25 67 74 be 91 a7 20 be
       -0.2273786 -0.16617265 -0.23867472 -0.15688922
0000f0 03 d5 86 bd c9 98 17 bf b5 a6 01 bd a9 da 08 bd
       -0.065835975 -0.59217507 -0.031653125 -0.033411656
000100 2c c6 25 be 33 72 68 3e a7 be 9a 3c 8f 7d f0 be
       -0.16188878 0.22699814 0.018889738 -0.46970794
000110 24 a1 73 be 89 c8 7f bf 4e a3 7b 3e 03 e3 07 bf
       -0.23791939 -0.9991537 0.24574015 -0.5308077
000120 22 fb 70 bd 8e 06 ed 3e 79 d5 94 be 60 85 08 bf
       -0.05883325 0.46294063 -0.29069117 -0.53328514
000130 17 68 a8 3e 66 53 d3 be ba 7f ea 3d 6f 55 ae bd
       0.32891914 -0.41274565 0.11450143 -0.08512389
000140 35 fc 0b 3d 2d b4 2c bf 8c c3 43 bf b2 f9 17 3c
       0.03417607 -0.67462426 -0.76470256 0.009275841
000150 36 a4 8a 3e 0d 7d f7 be a1 56 ca b9 e2 11 f2 bd
       0.27078408 -0.48337594 -0.00038592986 -0.11819817
000160 c2 81 84 bf 96 0d 0a bf 7a 15 66 3c 72 65 0b bf
       -1.0352099 -0.5392698 0.014043206 -0.5445167
000170 b3 57 1c be 0d 81 f1 be 01 e3 be 3e 73 59 16 be
       -0.1526783 -0.4716877 0.37282565 -0.1468256
000180 3d 83 9c 3e c2 40 e3 bd 88 c5 b9 be 6f 97 8a bf
       0.30568877 -0.11096336 -0.36283517 -1.0827464
000190 37 87 9e bd 48 0c f5 be 12 9d 8c be c4 4a 08 bf
       -0.07740634 -0.47860932 -0.27463585 -0.53239083
0001a0 c0 bb 17 3e c1 57 f8 3b 6c 83 3e bd d3 5f c5 3e
       0.14817715 0.0075788205 -0.046512052 0.3854967
0001b0 c4 ad e5 3d c5 9a 20 3d 8b aa ad 3e 3d d0 d7 bd
       0.11214784 0.0392101 0.33919176 -0.10537765
0001c0 54 b1 fe bd 59 f9 39 be 7e dd d7 be 46 ec 0f 3f
       -0.124361664 -0.18161525 -0.42161173 0.562199
0001d0 6c e4 9c 3c 60 dd 97 bc 53 92 c2 3d 38 00 70 be
       0.019151889 -0.018538177 0.095005654 -0.23437583
0001e0 5d 59 e5 3d fb ff 2c bf c7 2a 92 3e ee fd 43 bd
       0.11198685 -0.67578095 0.28548262 -0.047849588
0001f0 47 bf 44 3e 62 2d 85 be 09 f9 83 3e 5a 4a 40 3e
       0.19213592 -0.26011187 0.25775936 0.18778363
000200 67 1a 66 3e 99 5d 3a bf af aa cd be d8 56 5c bf
       0.22471009 -0.7279907 -0.40169284 -0.86070013
000210 50 09 5f bd 96 c7 69 bf 82 0b cf be 99 71 14 3e
       -0.05445224 -0.9132017 -0.40438467 0.14496459
000220 cb 6a 07 bf 6e c3 3c 3e d7 0f 3e bf ec 9b 91 be
       -0.5289733 0.18433926 -0.7424292 -0.2843927
000230 c8 7b ce bc 52 96 44 bf 8b be 33 3e c9 53 0c 3b
       -0.025205508 -0.7679187 0.17553155 0.0021412245
000240 03 96 e7 3e f7 a2 61 bf fb 9c 04 3e 79 bb 26 bf
       0.45231637 -0.8813929 0.12950508 -0.6512981
000250 fc d3 38 3e 04 c0 88 be b3 e9 01 bf 23 9e 02 be
       0.18049616 -0.26708996 -0.5074722 -0.12755637
000260 cc 7d 23 be ea 61 35 bf f7 b8 7c bd 72 23 7e be
       -0.15965956 -0.7085253 -0.061699834 -0.24818209
000270 dd 38 50 3d 3f f5 9e bf 97 89 b1 3e fd 88 cc 3e
       0.05083548 -1.2418593 0.34675285 0.39948264
000280 dd 29 5d bd fc e2 31 bf ff b5 b5 3d f0 d7 4a be
       -0.053995002 -0.69486976 0.088726036 -0.19808936
000290 f9 6a 35 be ec 6c 29 bf e2 66 2e bd aa c6 a9 3e
       -0.17716588 -0.66181827 -0.042578585 0.3315938
0002a0 63 37 07 be d5 ee 7b be e7 3e b7 bd 28 c5 23 be
       -0.13204722 -0.24602826 -0.089475445 -0.15993178
0002b0 13 76 73 bc f5 8c 55 bf ee 34 bf 3d ea c4 15 be
       -0.014859694 -0.8341821 0.093362674 -0.14625898
0002c0 46 54 d8 3d 3d ed 0b bf a3 3e 9f bd 8e 17 7e be
       0.10562949 -0.5465887 -0.07775619 -0.24813673
0002d0 db 08 01 bf 8b de 23 3d 34 cb 5b 3e 4e 9a 1b be
       -0.5040414 0.040007155 0.21464235 -0.15195581
0002e0 70 7c a5 3e ce 98 08 bf 55 38 9d 3c c6 73 89 bd
       0.323215 -0.5335816 0.0191919 -0.06711535
0002f0 bd 52 21 3e 16 8e 61 3e 1c 9e c2 3e df 55 63 be
       0.15754218 0.22026858 0.38011253 -0.22200726
000300 41 4a 87 be b8 2b b9 3d 49 25 12 3e c7 ff 7c bd
       -0.2642384 0.09041542 0.14272036 -0.061767366
000310 d7 0e 03 be 2b 10 81 3d 9c ac a6 be 24 c6 a3 3e
       -0.1279863 0.06301912 -0.32553566 0.31987107
000320 ab 1f 9c bd 67 35 41 3e 69 43 02 3f 48 b8 3a be
       -0.07623228 0.18868028 0.5088411 -0.1823436
000330 ce 0a a5 3c 64 1d 20 3e 5a af 32 bc 61 3c 7a be
       0.020146754 0.15636212 -0.010906065 -0.24437095
000340 52 dd 08 3e ff 06 9f 3e 5c 5b 46 be 2b 01 12 3d
       0.13365677 0.31060025 -0.19370788 0.035645645
000350 3b 51 34 be e7 e5 c1 3e 17 58 03 bd 96 85 33 3e
       -0.17609112 0.37870714 -0.03206643 0.17531428
000360 63 2d 33 be 22 45 da bb 13 e8 93 3e ab f0 25 bf
       -0.17497782 -0.0066610733 0.28887996 -0.64820355
000370 3c 46 a1 3d 92 a0 58 3e a7 64 f0 3d 13 79 90 bd
       0.07874724 0.21155003 0.11737948 -0.07054343
000380 c4 c8 bb be 05 00 90 bc a0 0f 81 3e e4 9b 0b be
       -0.3667661 -0.017578134 0.25207233 -0.13633686
000390 42 64 b0 be b9 e9 d2 3e fd e4 6b 3e cf 45 13 bf
       -0.3445149 0.4119394 0.23036571 -0.57528394
0003a0 f1 a0 25 3e 1d 41 07 be 37 d3 1c 3e e3 7b f3 3d
       0.16174676 -0.13208432 0.15314947 0.11888864
0003b0 c9 fa 3a 3d 15 7e 86 3d 4f 67 c8 3e 4b eb 9d 3e
       0.045649324 0.06567017 0.39141318 0.30843577
0003c0 40 bf 5f 3e 2a 8c 9b 3e e6 57 bf 3d 41 6f 49 be
       0.218503 0.30380374 0.09342937 -0.19671346
0003d0 59 66 24 be 08 03 75 3e 50 95 2b 3f 0e fe 4a be
       -0.16054668 0.23926938 0.6702471 -0.19823477
0003e0 89 22 01 bf 5b c8 06 bf a3 5d 34 be dd b6 d3 ba
       -0.5044332 -0.5264947 -0.17613845 -0.001615252
0003f0 d9 5d 03 be 29 5c 13 3f e0 fd 5b 3e a2 13 11 bf
       -0.12828769 0.575625 0.21483564 -0.5667058

Actor.log_std_fc3.bias f4 [17]
000000 15 1b 5d c1 9c 13 5d c1 b1 1b 5d c1 c0 1c 5d c1
       -13.819112 -13.817287 -13.819261 -13.819519
000010 b0 1b 5d c1 c0 1c 5d c1 15 1b 5d c1 92 13 5d c1
       -13.81926 -13.819519 -13.819112 -13.817278
000020 16 1b 5d c1 c0 1c 5d c1 9c 13 5d c1 b1 1b 5d c1
       -13.819113 -13.819519 -13.817287 -13.819261
000030 15 1b 5d c1 c0 1c 5d c1 b1 1b 5d c1 8f 15 5d c1
       -13.819112 -13.819519 -13.819261 -13.817763
000040 15 1b 5d c1
       -13.819112

Critic.fc1.weight f4 [32, 378]
000000 c2 84 1d be 09 65 c5 bd 17 0e 9a bc 86 0f f0 bd
       -0.15382674 -0.096384116 -0.018805547 -0.11721711
000010 99 63 d6 3d be c0 38 bd d1 a3 c3 bd 05 06 de bd
       0.104682155 -0.04510569 -0.0955273 -0.10840992
000020 2c cf 3c bd 41 be 40 bd 50 a5 dc 3b 7c 5f 9b 3b
       -0.046096012 -0.04705644 0.006733574 0.0047416072
000030 a2 76 19 3e ea 62 06 3e a5 0c 53 3e e0 42 0a 3e
       0.14986661 0.1312367 0.20610292 0.13502073
000040 67 05 08 3e 0e 21 6a 3e 1f 26 5c 3d af 93 85 3d
       0.13283311 0.22864172 0.053747293 0.06522309
000050 55 a1 c6 3d 6d a7 ab 3d 5a 78 10 3e 98 54 5d 3d
       0.096987404 0.08381543 0.1410841 0.054035753
000060 5a f4 3e be 19 1e 0d bd 62 6e 94 3d de 37 61 bd
       -0.186479 -0.03445253 0.07247616 -0.05498492
000070 2e c7 8d 3d 9b 38 9e 3d b9 34 10 be 0e b4 8a bd
       0.06922756 0.077256404 -0.14082612 -0.06772624
000080 24 06 4f bc 27 85 c6 3d 9b fd c6 3b 49 12 d2 3d
       -0.012635741 0.096933655 0.0060727126 0.10257394
000090 63 20 7b bd 5e ce d7 3c 1d 9f 5d 3d e9 b2 e3 3d
       -0.061310183 0.02634352 0.05410682 0.11118109
0000a0 72 22 34 bd 22 2b bd bd c3 21 91 3d 15 1a 9c 3d
       -0.043978162 -0.092367426 0.07086518 0.07622162
0000b0 a0 27 a4 3a 23 42 e9 bd c1 4d 02 be ef 13 93 3c
       0.0012524016 -0.11389568 -0.12724973 0.017953841
0000c0 3e 55 d6 bc 8c 31 10 bd 98 fe 43 3d 78 92 31 bd
       -0.026163694 -0.0352035 0.04785022 -0.043352574
0000d0 a8 53 af 3c d3 ab 04 3d b0 dc 22 bd 48 99 cb bc
       0.021402195 0.032390427 -0.039761245 -0.024853364
0000e0 54 f6 37 3d a2 92 02 bd 76 09 d7 bc 39 b4 6c be
       0.04491265 -0.03187812 -0.026249629 -0.23115624
0000f0 bb 86 c5 bd 2b 04 ef bb 85 e6 da 3d a9 7e 84 3d
       -0.096448384 -0.007294198 0.10688499 0.06469471
000100 d4 e5 c8 bd 8f ed cc bd 44 66 33 bd 34 bd 71 bd
       -0.09809461 -0.10006248 -0.0437987 -0.05901833
000110 d7 23 56 bd cd 4a 58 be 41 37 d2 bd 0f f1 3b 3c
       -0.052280273 -0.21122284 -0.10264445 0.011471047
000120 41 13 8a bd af 14 90 3d 36 22 43 3d 01 34 4a bd
       -0.06741954 0.07035195 0.047640048 -0.049366
000130 f8 41 da bd f4 45 91 bd bf e5 4e be 11 0b 0a be
       -0.10657114 -0.070934206 -0.20204829 -0.13480784
000140 51 2f c1 3a 08 fc 49 bb 8a 9a ca bd e7 52 d4 3d
       0.0014738833 -0.0030820388 -0.09892757 0.10367375
000150 d7 79 24 3d 73 d5 38 3d f9 8b ae bd 2d 5d 72 bd
       0.040155258 0.045125436 -0.085227914 -0.05917089
000160 30 d8 10 be c1 98 08 be 16 eb 40 bc e7 d2 a1 bd
       -0.14144969 -0.13339521 -0.011774799 -0.079015546
000170 ca 38 dc 3d 4e 04 64 3d b5 b7 06 3e 1d e3 f3 3d
       0.10753019 0.055668168 0.13156016 0.11908553
000180 2f b2 95 bd 15 5d de bd 03 3b ac bd da c1 49 be
       -0.073093764 -0.10857598 -0.08409693 -0.19702855
000190 a0 8c 9e 3d b2 e1 4e 3c 3b 25 ca 3d bb 98 c6 39
       0.07741666 0.012627052 0.098703824 0.00037879296
0001a0 4e 7c ab 3d 80 4f 9d 3d cb e3 d2 bd f1 ce f9 bc
       0.083733186 0.07681179 -0.10297354 -0.030494185
0001b0 ae 3c 18 bd 8c 92 22 be ae d3 07 3e 94 c2 02 3e
       -0.037167244 -0.15876216 0.13264343 0.12769538
0001c0 10 fc b6 3d 5f 3e 7d 3d 8b 9e 0b 3c ba 6d 70 3d
       0.08934796 0.06182706 0.008521686 0.058698393
0001d0 83 77 07 be ad 8e 28 be a1 85 20 be 23 67 34 be
       -0.13229184 -0.16460676 -0.15675975 -0.17617469
0001e0 bc d9 ab 3d 7e 7f 29 3a c7 d2 10 be cf 7e 78 3d
       0.08391139 0.0006465836 -0.14142905 0.06066781
0001f0 5e 1d 42 be 3d 52 8a 3d a1 ee 43 bd 6e 08 ba 3b
       -0.18956515 0.06753967 -0.047834996 0.0056772744
000200 cd 90 86 bd 36 9e 30 be 02 39 1c 3e ca 56 06 be
       -0.06570587 -0.17247853 0.15256122 -0.13119045
000210 3b ed 9a bd 28 58 fc bd f4 69 29 be 46 c1 eb 3c
       -0.07564779 -0.12321502 -0.16544324 0.028778683
000220 fd 1a bc bd 8f e8 74 3c 35 66 25 bd ac ed 01 be
       -0.09184835 0.014948024 -0.040380675 -0.12688321
000230 45 e5 d2 3d 05 0b d2 bd 63 db 3b bd 53 ba d4 bd
       0.10297636 -0.10256008 -0.04586352 -0.10387101
000240 9a 95 b1 bd cd a3 13 bb 20 13 58 bd 84 34 68 bc
       -0.08671112 -0.0022528053 -0.052752614 -0.014172677
000250 f3 96 84 bd 2a cd 4a bd 98 43 f4 3c 05 85 1e bd
       -0.06474104 -0.049512066 0.029817387 -0.038701076
000260 36 23 27 bc 66 cc 8d 3a 38 43 ac 3d 14 ba 32 bd
       -0.010201266 0.0010818362 0.084112585 -0.04363449
000270 c8 25 e4 bd 7c da 59 bd 01 69 61 bd fa 5d 9f bd
       -0.11140019 -0.05318688 -0.05503178 -0.077815965
000280 4f e5 da bd b5 e6 f6 bb cf b0 b4 bd 2e 5c bd bd
       -0.106882684 -0.0075348266 -0.08822786 -0.092460975
000290 a1 8c ad 3d 04 96 68 bd 4e 48 82 bd 88 0a 5c bd
       0.084740885 -0.05678369 -0.06361447 -0.05372098
0002a0 34 ac 98 bd fa 61 e0 bb a0 b8 64 bd b9 ca a4 bc
       -0.0745472 -0.006847617 -0.055840135 -0.020116197
0002b0 1a e4 d4 3c a6 a4 9f 3c a8 b2 8e bd bf 00 c7 bd
       0.025987674 0.01948769 -0.0696767 -0.09716939
0002c0 a9 8d 4f bd 9e 0b a0 3c 43 39 55 bd 50 a0 03 3c
       -0.050672207 0.01953679 -0.052056562 0.008033827
0002d0 4e 3d 2a 3d dd ab 1c bc a7 2d 77 3d c4 7d de bc
       0.04156237 -0.00956246 0.06034627 -0.02715958
0002e0 bb 04 b2 bc a7 0e 69 bd 3c 0c 84 bd 2d ef 33 bd
       -0.021730771 -0.05689874 -0.06447646 -0.043929268
0002f0 4e b4 6d ba c7 08 21 bd cf 28 19 3d 5e e9 a2 bc
       -0.00090677 -0.03931501 0.037392434 -0.019886669
000300 0b 9d e7 bc ba 30 9c 3c c4 22 d1 3d 8f 4d 9b 3d
       -0.028273126 0.019066203 0.10211709 0.075831525
000310 d3 01 bb bd 6a ff 82 bd b2 a1 98 3d 54 7b b6 bb
       -0.09131207 -0.063963726 0.07452716 -0.005568901
000320 07 9b 28 bd 9a 9f ff bd 7f 68 d2 3d d7 90 3d 3c
       -0.04116347 -0.124816135 0.10273837 0.011570177
000330 1f 83 96 3d f7 8f 5c bd 3f ef 06 be cb 01 1e be
       0.07349228 -0.053848233 -0.13177203 -0.15430371
000340 8d 53 7c 3c 61 1b 66 bb 4c 0a 27 3d d5 43 0d 3e
       0.015400779 -0.0035111534 0.040781304 0.13795407
000350 48 08 c4 bc 57 1f 3b bd 06 5c 02 3d 27 4c 27 bd
       -0.02392973 -0.045684185 0.03182604 -0.04084411
000360 f6 18 51 3d ce 34 b3 bd 68 9c 2c 3d 95 06 27 3d
       0.051049195 -0.08750306 0.042141348 0.04077776
000370 6f c7 40 bd ad 66 2c 3e 17 67 45 bd f2 95 06 be
       -0.047065195 0.16836043 -0.048194017 -0.13143137
000380 c9 80 82 3d 65 52 21 3d ba 03 7e 3c 2e a4 d4 3d
       0.0637222 0.03938522 0.015503818 0.10382877
000390 8b 28 c7 bd 14 5d 36 bd a9 41 db bc be 1b 96 bd
       -0.0972453 -0.04452236 -0.026764708 -0.0732951
0003a0 dc 7f 7e 3d b3 40 82 bd fa 50 17 bc 29 87 3a bd
       0.062133655 -0.06359997 -0.009235615 -0.045539055
0003b0 4a 31 80 3d 78 16 ac bc 2f 4e a4 3c 87 65 44 3c
       0.06259401 -0.021006808 0.020056812 0.011987097
0003c0 29 88 ec 3d 64 10 85 bd de bc b5 3d e0 cf 64 bd
       0.11549408 -0.06497267 0.08873914 -0.055862308
0003d0 20 2b 89 3d b6 a1 e1 bc 36 f6 4c 3d 13 72 5e bd
       0.066976786 -0.02754293 0.050039493 -0.05430801
0003e0 7a e6 6b bd 9f f6 1d 3d 96 f0 06 3d bd 78 de bd
       -0.057592846 0.038565274 0.032944284 -0.10862873
0003f0 71 f1 92 3d 4f 87 45 bd fa ad a3 bd 4a 22 11 3e
       0.071749575 -0.048224743 -0.07992168 0.14173236

Critic.fc1.bias f4 [32]
000000 9a 92 04 bd 21 a8 99 bc 2b 05 8b be da bc b8 bd
       -0.032366373 -0.018756928 -0.2715238 -0.090203956
000010 9e 60 9b bd 1e 40 3a be c4 9f a7 3c 4f 21 35 be
       -0.07586788 -0.18188521 0.020461924 -0.17688487
000020 8b 61 d6 3d 79 34 0f 3e c6 57 34 3d ca 2b 24 bc
       0.104678236 0.1398486 0.04402902 -0.010020206
000030 55 fa b1 3f d1 a4 d2 bd b9 a8 61 3d 9b f2 cd 3c
       1.390452 -0.102853425 0.055092547 0.025140097
000040 51 c1 82 be 13 07 4a be 00 62 f2 bd 69 63 f7 be
       -0.25538114 -0.19729261 -0.11835098 -0.4831803
000050 d5 98 a7 be 06 ef d5 3d fd c3 10 3d cf 4a bb 3c
       -0.3273379 0.10445981 0.03534316 0.02286282
000060 12 13 f6 bd ae 06 68 be 31 02 23 be ef 2e 66 bd
       -0.12015356 -0.22658798 -0.15918805 -0.056197103
000070 9c 1a eb bc ba 1f 13 be 09 05 fb bd 5c 11 bc bd
       -0.028699212 -0.14367571 -0.1225682 -0.091829985

Critic.fc2.weight f4 [32, 32]
000000 74 37 48 be 5e 9c 41 bd 95 f1 c6 bd e7 f8 9e bd
       -0.19552404 -0.047268264 -0.09714047 -0.07762318
000010 43 5b 04 3d d6 51 06 be 2a 8f e1 bd f7 84 df bc
       0.032313596 -0.13117155 -0.110136345 -0.027285082
000020 ba a6 1a be ff 45 bd bd c6 cc 26 be 93 3a 6c be
       -0.15102664 -0.09241866 -0.16289052 -0.2306922
000030 c6 92 04 be e6 11 9c 3d 68 c6 00 bd 49 a2 43 bd
       -0.12946615 0.07620601 -0.031439215 -0.04776219
000040 c2 f6 bc 3d d7 3f 3f be 87 15 b9 3d ab 76 b3 bd
       0.09226753 -0.18676697 0.09037309 -0.087628685
000050 31 54 88 3b d4 a6 dd be 3b 70 b0 be 05 fa be 3d
       0.004160427 -0.43291342 -0.34460625 0.09325031
000060 28 56 c1 3d 6d 08 28 3d 05 dd 3c be fc b4 a6 ba
       0.09440261 0.04102366 -0.18443687 -0.0012718732
000070 52 6f 0d be 0e 29 b3 3d 6d bc 25 be 0c 02 7f bd
       -0.13811997 0.08748065 -0.1618516 -0.06225781
000080 07 74 db bd 26 cd e7 bd 46 df 0d 3d bc 8f ee 3d
       -0.1071549 -0.11318426 0.03463676 0.11648509
000090 7a c4 9b be 74 04 4f be 23 91 05 be 58 16 ac bd
       -0.30423337 -0.20216542 -0.13043647 -0.08402699
0000a0 99 5c a4 3d e2 b4 4a bb 25 69 04 3d 1d db 09 be
       0.08025474 -0.0030930568 0.032326836 -0.13462491
0000b0 6e b1 84 be 49 92 57 be 84 15 86 3d a7 a0 a9 bd
       -0.25916618 -0.21051897 0.065470725 -0.08282595
0000c0 5a 30 83 be a5 da 5b 3b 0d d1 44 3d 88 c2 c4 bd
       -0.25622827 0.003354707 0.04805093 -0.096074164
0000d0 3b f2 e7 bc 51 1b 9d bd e1 b9 af bd 80 a9 57 bd
       -0.028313747 -0.07671226 -0.085803755 -0.052651882
0000e0 6c 1d 58 be 0a 0a 62 be 4c 5c da 3d 1f a6 3d be
       -0.21104974 -0.22074142 0.106621355 -0.18520401
0000f0 00 cf 4b 3d f2 b4 77 3d 6b 30 c9 bd f8 62 72 bd
       0.049757957 0.060475297 -0.09823688 -0.059176415
000100 59 fb 26 be ae a1 b4 3b 59 3c 39 3e 4d 9f 86 bb
       -0.16306819 0.005512438 0.18089427 -0.0041083456
000110 5b ba 20 3e fb 26 9d bd 82 ad 94 be 56 79 11 3d
       0.15696089 -0.076734506 -0.29038626 0.035516106
000120 48 e9 0c be a4 0a 2e bc b2 be b5 bd 63 d5 f0 bd
       -0.13760865 -0.010622654 -0.08874263 -0.1175945
000130 e5 23 64 be c1 09 02 be ee 66 94 bd f1 9d 2e bc
       -0.22279318 -0.12699033 -0.07246195 -0.010657773
000140 06 4b 98 3d c9 b9 2a bd 6b 3a 7b bc 1d ae 05 be
       0.074361846 -0.041681085 -0.015333752 -0.130547
000150 01 9b 26 be 0b 83 e8 bd 72 40 22 be cf 71 f0 3c
       -0.16270067 -0.113531195 -0.15844896 0.029351143
000160 a9 b6 6f bc b8 69 8e ba 1c 5f 84 3d e1 95 37 be
       -0.014630952 -0.0010865247 0.06463453 -0.17928268
000170 f9 ef be 3c f8 d6 dc bd dc 05 bb bd e1 1e 77 be
       0.023307787 -0.107831895 -0.09131977 -0.24132873
000180 fd 09 82 3d 13 3a 9e bd 76 ce 06 be d4 87 56 bd
       0.06349561 -0.077259205 -0.13164696 -0.05237563
000190 8c be 58 bd 66 57 40 bd cf 0d 50 be ff 12 a8 bd
       -0.052916095 -0.04695835 -0.20317768 -0.08206748
0001a0 07 f5 23 3d ec 63 f0 bd de e2 38 be e9 bb a9 bd
       0.0400286 -0.117378086 -0.18055293 -0.08287794
0001b0 48 32 13 be 53 c1 c8 3d bd fd 0a be b4 e4 2d bd
       -0.1437465 0.09802499 -0.13573356 -0.042454436
0001c0 f2 30 8e bc 08 f9 93 3c 71 84 8a be 6f c6 c9 bd
       -0.017357323 0.018063083 -0.2705417 -0.09852301
0001d0 dd bc 05 bd cc 71 32 be 3a 36 09 be fc 09 50 bd
       -0.032650817 -0.17426223 -0.13399592 -0.05079077
0001e0 83 3d 30 be 8e fb 28 be d7 b7 76 bd 12 0c 58 3d
       -0.17210965 -0.1650221 -0.060233917 0.052745886
0001f0 4b 0c d0 bc 12 9e 22 be 07 af 4f be 01 7c 0f be
       -0.025396487 -0.15880612 -0.20281611 -0.14012147
000200 2e 23 b5 3d 23 26 fe bc 0f bb 0e 3e 87 ff 08 3e
       0.088446006 -0.031024044 0.13938545 0.13378726
000210 c1 af 12 3e f4 15 b5 3d 38 2a 6a be 34 e2 88 3c
       0.14324857 0.08842078 -0.22867668 0.016709425
000220 23 24 12 bd d3 e0 23 be 9d 7f 79 bc 4c a6 06 be
       -0.035678994 -0.16003732 -0.015228179 -0.13149375
000230 2d 8b 15 be 14 42 3f bd ae 3a 33 be f9 6b fe bb
       -0.14603873 -0.046693876 -0.17502853 -0.007764336
000240 07 50 a6 3d cb 1e bd bd 3d 35 9a bd 09 1e b1 ba
       0.08120733 -0.09234389 -0.07529686 -0.001351298
000250 3b 6d c7 3b 21 3a 74 3d ef c1 e2 3c 9f 68 77 bd
       0.0060860193 0.05962575 0.027680365 -0.06040251
000260 e7 69 fd 3d bc 2b 93 bd d8 c0 05 be fb 47 27 3d
       0.12373715 -0.07186076 -0.13061845 0.04084013
000270 dc 49 77 bd d9 97 ea bc d7 58 2c 3c e0 40 5b 3e
       -0.060373172 -0.02863686 0.010519228 0.21411467
000280 f0 b6 e5 3d bc 98 4e bd 95 df 41 3d 9e 80 13 be
       0.11216533 -0.050438628 0.047332365 -0.14404532
000290 ab 64 ef 3d d5 d8 f6 3d 2e 82 b6 bd 6b f7 c3 3c
       0.11689123 0.12053076 -0.089115486 0.023921689
0002a0 6b 9b d2 bc 32 4d 05 3c 7a 04 26 bc a8 28 43 bd
       -0.025708875 0.008136081 -0.010132903 -0.047646195
0002b0 49 35 76 bc 42 61 04 3e a2 e0 d9 bd 00 16 48 bd
       -0.015027353 0.12927726 -0.106385484 -0.048849106
0002c0 39 bc 47 3e 3f bb 4f bd 6c c3 32 be 1c 95 6c be
       0.19505395 -0.05071568 -0.1745736 -0.23103756
0002d0 45 1f b1 3d 5e c1 4d be a5 75 f4 bd eb 84 a8 bd
       0.08648542 -0.20093295 -0.119365014 -0.08228477
0002e0 85 00 d2 3d 69 ec b7 3d 4d 0e d4 3d 26 22 da 3d
       0.10254005 0.089806385 0.1035429 0.106510445
0002f0 e2 8a c6 bd 57 0e a3 3b 6f 9c f0 bd f4 69 b1 bc
       -0.096944585 0.0049760747 -0.11748587 -0.021656968
000300 2a 2a 81 be c3 ea 07 be ab 16 79 3d 1a 3d 30 3e
       -0.2522748 -0.13273148 0.060812633 0.17210808
000310 87 3e 82 bd 58 7d e4 3d 8b 9d ae bd b5 79 4a be
       -0.063595824 0.1115672 -0.08526143 -0.1977299
000320 95 0d 8d 3d 06 dc 0a bc 85 01 b6 3d fb 9a ea bd
       0.06887356 -0.008475309 0.088870086 -0.114553414
000330 39 15 db bc a1 d4 2e be 45 d0 a3 bd a3 92 cb bd
       -0.026743518 -0.17073299 -0.07998709 -0.09940078
000340 35 0b 3f be db 7a b3 3d e8 77 bf bd a3 4e 06 be
       -0.18656619 0.08763667 -0.09349042 -0.13115935
000350 b9 92 03 be aa 9d 96 be 09 f6 0a 3d 60 34 05 be
       -0.12848939 -0.29417163 0.033926044 -0.1300826
000360 f3 a4 06 be 6b 4e d3 bd 20 56 fe 3c fa cd f2 3d
       -0.1314886 -0.103176914 0.031046927 0.11855693
000370 d8 e0 d0 bd 95 35 1c 3e 56 a6 61 bd 55 18 11 3c
       -0.101991355 0.15254815 -0.05509027 0.008855899
000380 5e a2 12 3b fd b5 4d b9 b0 13 18 3e 4f 5b d4 bc
       0.002237461 -0.0001961812 0.1485126 -0.025922446
000390 ee 18 b8 bd 25 48 37 3d 29 2a 2e be f3 2c 73 bd
       -0.0898913 0.044746537 -0.1700827 -0.05936904
0003a0 fe d9 61 bc 49 51 1c bd b6 50 b9 bc 6f fe 59 3e
       -0.013784884 -0.038163457 -0.022621494 0.21288465
0003b0 e1 7a e4 bc 46 a8 67 bd ae 2e 97 bd 78 a5 7e 3c
       -0.027890624 -0.056556962 -0.0738195 0.0155423805
0003c0 90 9d d7 bb d1 b8 c3 3d 9e 5c 11 be 1e a0 84 3d
       -0.006580062 0.09556735 -0.14195487 0.064758524
0003d0 4b 59 2e bc 2a 0d a8 bd b5 fa 80 bd 81 c3 93 3d
       -0.010641406 -0.08205636 -0.062978186 0.07215024
0003e0 54 74 c7 bc de 42 0b bd df 17 c4 bc 0c 02 8a bd
       -0.024347462 -0.033999316 -0.023937164 -0.06738672
0003f0 6a 74 4c bb c5 4e 13 3e f6 79 23 3d 47 2d d4 3c
       -0.0031197318 0.14385517 0.039911233 0.025900496

Critic.fc2.bias f4 [32]
000000 eb 60 21 be d7 79 68 be f4 b6 0a bd 47 5a 6e be
       -0.15759628 -0.22702728 -0.033865884 -0.23276626
000010 b5 ed 86 3e 78 54 21 bd 43 c3 b6 bd 75 32 90 3f
       0.2635323 -0.039387196 -0.08923962 1.1265398
000020 b6 9a 56 bc 27 61 a6 bd b6 71 81 be 4f 09 0f bd
       -0.013098409 -0.08123999 -0.25282067 -0.034920987
000030 a8 75 63 be f5 45 9c be 7d 99 37 3e b6 25 0a 3f
       -0.22212851 -0.30522123 0.17929645 0.5396379
000040 79 0b 4a bd f5 c3 96 3f 37 11 49 3e 0e 51 5e be
       -0.049327347 1.1778551 0.19635473 -0.21710607
000050 1b c5 7a bd 41 48 1b be 82 56 04 3e 48 ee 20 bd
       -0.06122313 -0.15164281 0.12923625 -0.039289743
000060 98 09 79 bd 17 11 ca 3d 0c 23 87 be 0a 5b 9b be
       -0.060800165 0.09866541 -0.26393926 -0.30342895
000070 70 99 58 3e 3e fd 78 be bd 45 de bc d3 e8 ad 3d
       0.21152282 -0.24315354 -0.027132863 0.08491673

Critic.fc3.weight f4 [1, 32]
000000 8f 30 0e bd 35 1c 85 3c 38 c6 af 39 f9 73 86 ba
       -0.034714278 0.016248802 0.00033526286 -0.0010257951
000010 6f cc 33 3b 9d e6 2b b8 7a 1f 71 3c 69 86 27 3c
       0.0027435084 -4.0984352e-05 0.014716977 0.010224917
000020 e2 af 4e bd 84 64 e0 bd 63 d0 23 3d 4e 50 4c bd
       -0.050460704 -0.10956672 0.039993655 -0.049881272
000030 c0 f3 10 bd 71 5d a7 3c fb 2c 22 3c 1f 62 8f bc
       -0.035388708 0.020430299 0.0098984195 -0.017502842
000040 a7 18 2d bd a4 65 e0 3d 70 17 9c bb 7c 0e 56 bd
       -0.04225984 0.109568864 -0.004763536 -0.052259907
000050 ed a6 59 39 49 51 05 ba a4 9f 4e 3d 2c 2c 97 bc
       0.00020756917 -0.000508566 0.050445214 -0.01845368
000060 c4 ba 64 3b 48 94 9e bc 6d a4 f4 ba b7 e0 64 3c
       0.003490136 -0.019357815 -0.0018664725 0.013969592
000070 45 f3 a7 3b b9 94 c6 bc 44 84 16 3d 73 ca 12 bd
       0.0051254355 -0.024240838 0.036747232 -0.035837602
