model_2.pt (torch, 114732 bytes, 13 tensors)

Actor.fc1.weight f4 [32, 378]
00000000: 5701 efbc 2370 61bc 9a0d 073d b9d2 7b3d
00000010: 6f6f 09bd 48d9 323d 97e3 e23c 9461 083c
00000020: 4cdc 683b c4af 143c d6b4 81bc 6df9 373d
00000030: de7f 0bbd cfc3 c6bc 1229 91bc b035 123d
00000040: 8f7b 4ebd 546d 9bbd f91a 823d 8b9c ddbc
00000050: d2bf 91bd eaef 86bd a264 c53d 38d1 d3bc
00000060: f1ab 23bd c44f 5cbb 4b88 3bbd 06ba ca3c
00000070: 9387 1e3d d819 79bc 789e e63c 2667 55bd
00000080: 2011 3a3c 72ba 103d 32fd 733c 40d8 373d
00000090: 3c82 c23a 47e4 02bd f09b 323d a1a6 893c
000000a0: 8125 133d 71b6 923c 11ca 37bd 71f6 6cbd
000000b0: 41b9 28bd 5fd2 253d 2419 da3c 5ac2 8b0f
000000c0: 7d57 0100 07c4 1100 7c43 6ba9 d131 e633
000000d0: f686 4fb0 29b2 90b3 0369 4caa 35c6 8625
000000e0: 0241 1dad 47f2 023d 456d 533d 2f6e 713d
000000f0: 7951 3f3c a5f5 7ebc d7e6 933b a44c 8ebc
00000100: 6b1e 21bb b609 10bb 9d65 5b3d 64a1 5c3d
00000110: a601 233c 90da d83c 95d1 9cbb bd42 253d
00000120: c5de bdbb 3196 bcbc 84aa e2bc b54c 573d
00000130: d265 9fbc 23d6 cebc 6dc1 883b 46f0 293d
00000140: 9806 9d3c 3e4f aa3c ed41 893b 861a 0fbd
00000150: c6fa 02bd d731 643d fce6 433d aa4a 2f3d
00000160: e551 2d3d fd99 f43a 9c46 8fba e386 253d
00000170: 20a3 35bd be65 85bc ecfe ab3c cfbc b53c
00000180: 8786 9bbc e3fb 54bc 6d83 89bc c926 033d
00000190: acb8 a93c 8d5e 863c 8ea4 46bd eca6 3f3d
000001a0: 8dad 543c 979d 59bd b483 5c3d 9f21 6d3c
000001b0: 7b2c 46bc 63a2 4a3d 13ad f8bc 6118 37bd
000001c0: 1c2a e63c 6249 1f3c 2669 3d3c 96ef af3c
000001d0: 13e2 963b 033f 7d3d 52ec aa3c 0590 553c
000001e0: fd2a 53bd 417c 3f3d 5d97 433d 786b 833d
000001f0: 6294 9c3c 7cb1 8b3c b702 eb3b 5613 cb3c
00000200: 17be d0bc 3e8e 0a3a 5229 dabc 16c4 5a3c
00000210: 982b 873d 572e a43b 39fa de3c 5596 24bd
00000220: f889 3abc 1e22 143c 190c 2a3d a834 fd3c
00000230: 7b54 293d 6ca1 4abd c413 02bc ffaa debc
00000240: 58f2 dc3c 1a19 49ba 8c4e 2d3d 1d5c 383c
00000250: 2757 8f3d 9900 ca3c 4f0e d137 504c cbbc
00000260: f8c6 98ba b5dc 1a3d d58a 08bd b55f 53bc
00000270: 131a 12bc 7a5a debc 1534 463d 013e 353d
00000280: 069f 953c 1cfb f3bc 6b98 af3b cb28 7bbb
00000290: 5c9f 8abd b0ac 743d 7363 c03c bb35 b73c
000002a0: 4c76 ba3c 2889 563d f9ac f83a 23dd a1bc
000002b0: a2c1 0a3c 52d6 f93c 91c3 2bba eb8d 733b
000002c0: 2f53 843d debf 74bc 92ae d13c 8b39 1b3d
000002d0: 5cd0 cb3c 16b3 28bd c6a7 65bd f2b4 773c
000002e0: 760a fe3c 9c87 443c 79a2 783d b4c1 621a
000002f0: 9805 9330 602c 6034 44b9 21b4 1b63 dfb2
00000300: fdcc 43a1 975c 883c 6071 93bc 403e 06bc
00000310: 8c04 8c3c 95a9 67bc 3245 33bd b539 1fbd
00000320: 6988 73bd 6abc f5bc d702 983a 436e a0bc
00000330: e487 05bd b56d 373d f409 173c 2157 953c
00000340: 7c7d a6bc 727d 88bc 1908 b83b fb33 fc3b
00000350: de00 8f3c a2bb babc e11c ba3c 5d06 b8bc
00000360: 6ac6 4abd 7114 3c3d 8b71 873d 126a 643d
00000370: da94 063c 43cf 2c3c 4c40 0b3d ebb4 bf3b
00000380: 6d24 9d3d 58b8 84bc 3521 303d 3f1a 84bb
00000390: de1b ab3c 44d9 22bc bb8b e73c 78c8 07bd
000003a0: 9d96 0d3d 5766 043d 2d67 213c 8bf2 19bd
000003b0: acf2 143d d793 d33c 99f3 113d 2807 fbbc
000003c0: 4825 d9bc 7b4c e43c 7a66 853d a3d2 893c
000003d0: afda b73b 3875 4a3c 2b67 203c 9931 83bc
000003e0: 8ba2 6d3d 4112 723d bab8 eebc 9201 a83d
000003f0: 7db4 afba a7f2 423d 1c2d 7b3d 051a d4bd
-0.029175444 -0.013759646 0.032971956 0.061480258 -0.033553537 0.043664247 0.027696414 0.008324046
0.0035531698 0.009075109 -0.0158333 0.044915605 -0.03405749 -0.02426329 -0.01771978 0.03569573
-0.050410803 -0.07589212 0.06352801 -0.027052185 -0.07116665 -0.06588729 0.09638335 -0.0258566
-0.039958898 -0.003361688 -0.045784276 0.024746906 0.038703512 -0.015203916 0.028151736 -0.052100323
0.011356622 0.035334058 0.014891909 0.044883966 0.0014839838 -0.031955983 0.043605745 0.016803088
0.03592444 0.01790926 -0.04487044 -0.057852212 -0.041192297 0.04048383 0.026623316 1.378132e-29
1.2322e-40 1.631525e-39 -5.2239016e-14 1.0719271e-07 -7.549795e-10 -6.73793e-08 -1.8155273e-13 2.3379605e-16
-8.938851e-12 0.031969335 0.05161788 0.05894297 0.011677139 -0.015561496 0.0045136022 -0.01737053
-0.002458478 -0.0021978444 0.053563703 0.05386485 0.0099491235 0.026471406 -0.0047857263 0.04034685
-0.0057943785 -0.023020836 -0.027669199 0.052563388 -0.019457731 -0.025248593 0.004173449 0.04148891
0.019168183 0.020789739 0.004188767 -0.034937404 -0.031977437 0.055711593 0.047827706 0.042795815
0.04231443 0.0018661615 -0.0010931077 0.04041184 -0.04434502 -0.016283866 0.02099558 0.022184758
-0.018985046 -0.012999508 -0.016786302 0.03201941 0.020717941 0.016402507 -0.048496775 0.04679005
0.012980831 -0.053128805 0.05383654 0.014473348 -0.012095566 0.04947127 -0.030355966 -0.044700984
0.028096251 0.009722086 0.011560714 0.021476548 0.004604587 0.06182767 0.02086464 0.013034825
-0.05155467 0.046749357 0.047751773 0.064169824 0.019113723 0.017052405 0.0071719545 0.024789494
-0.025481267 0.0005285478 -0.026631031 0.013352415 0.06600112 0.005010407 0.027218925 -0.04018243
-0.011385433 0.009041337 0.041515443 0.030908898 0.041340332 -0.04947035 -0.007939283 -0.027181147
0.026971027 -0.0007671282 0.042311236 0.01125243 0.06999045 0.024658488 2.4921404e-05 -0.024816662
-0.0011655977 0.03780814 -0.033335526 -0.012901236 -0.008917349 -0.027142752 0.048389513 0.044248585
0.018264305 -0.029782824 0.005358746 -0.0038323875 -0.06768677 0.059735 0.023484921 0.022364488
0.022761486 0.052376896 0.0018972448 -0.019758767 0.008469017 0.030497704 -0.0006552274 0.0037163447
0.064611785 -0.014938323 0.025595937 0.037896674 0.024879627 -0.041186415 -0.056068204 0.015118824
0.031010848 0.011995222 0.06070182 4.6892177e-23 1.0697248e-09 2.0877769e-07 -1.5061693e-07 -2.6005685e-08
-6.633987e-19 0.016645713 -0.017998397 -0.0081935525 0.017092012 -0.014139553 -0.04376716 -0.038873393
-0.059456263 -0.02999707 0.0011597526 -0.019583827 -0.0326003 0.04478236 0.009218682 0.018230023
-0.020323507 -0.01666138 0.0056161997 0.0076966262 0.017456468 -0.022794548 0.022718849 -0.022463972
-0.04950563 0.045917932 0.066134535 0.05576522 0.0082142 0.010547462 0.033996865 0.0058504245
0.07672963 -0.016201183 0.04300042 -0.004031449 0.020887312 -0.0099394955 0.02826487 -0.033150166
0.034567464 0.03232416 0.009851259 -0.037584823 0.036364242 0.025827331 0.035632703 -0.03064306
-0.026507035 0.0278685 0.065136865 0.016824072 0.005610786 0.012357049 0.009790222 -0.016014861
0.05801634 0.05909944 -0.029140819 0.082034245 -0.001340523 0.047594693 0.061322317 -0.10356525

Actor.fc1.bias f4 [32]
00000000: c6f3 863d e664 0f3d f01a f9bc 1506 973d
00000010: 110a c53d bd14 c7bc f927 d43d dcff e1bb
00000020: 25ff c4bc 0c2c bb3c 8822 c53c 0d9b b1bc
00000030: f523 c63d d158 7b3d f2fc cbbb f8ae 72ba
00000040: 6ac5 bfb7 38ff cb3c a81f 393d f426 aa3d
00000050: 37bd 683a b705 ccbb 8de9 3fbb 345d ad3c
00000060: 2270 0ab8 785d a23c 9966 213d 40e3 c73d
00000070: 199a dc39 b9b4 3a3d 2c7d fbbc ca5c b83d
0.06589465 0.035008334 -0.030408353 0.07374207 0.09621061 -0.024301881 0.10359187 -0.006896956
-0.024047444 0.022848152 0.024064317 -0.02168038 0.09674827 0.061364 -0.006225222 -0.000925764
-2.2860902e-05 0.024901971 0.045196205 0.08308211 0.0008878293 -0.006226267 -0.0029283494 0.021162607
-3.3006196e-05 0.01981996 0.039404485 0.097601414 0.00042076482 0.045582507 -0.030699335 0.09002073

Actor.fc2.weight f4 [32, 32]
00000000: 0e79 0dbd 3b34 063e 2ced 763c 9bb9 533e
00000010: 0fc2 4bbd fef5 b9bd 349e c33d 052a 103e
00000020: 548a 59bd 75f3 d03d 1ae2 2abe 5a3d 383e
00000030: 3622 18bc 0f93 95bd a4e7 273e 4e9e 2a3b
00000040: fb8d 053e e787 1ebd fd12 16be 6dca 173e
00000050: 0aff 96bd 487f 233e 6555 c9bd 2727 06be
00000060: 7a9b c030 28f4 f6bc 7727 1a3e 722a ba3d
00000070: 6ce4 b4bb 0c67 ed3d bcb3 0dbe 87c8 4b3e
00000080: a3bb e03d 29d0 04be 5de3 8b3c 645f 143e
00000090: 492a 5d3e 3852 cf3d b2c2 a63d 5885 f93d
000000a0: 2e51 2a3e d316 1f3e caad cf3d ea65 08bd
000000b0: 4555 1bbd 9185 29be f4f3 de3d 9809 143d
000000c0: 564f acbc 40ac 163e 8b81 923c 5852 c53c
000000d0: 5565 d5bd e560 c33d b631 dfbd 7e4b 82bd
000000e0: c081 873b 3469 083e fba3 ed3d 7779 2f3e
000000f0: 85af 5cbc 654a f0bc b550 073d 7ca7 d83d
00000100: aec8 153e 8d05 bebd 4afe e7bc ffb2 263e
00000110: b750 1b3d 985d 2ebd 78e4 4f3e 66ba 023d
00000120: 2e38 9f3d 3314 cabd 9ff0 28bc 9006 0c3e
00000130: 3d87 a2bd 4904 82bd 0450 5fbd 7377 19bd
00000140: fa31 c3bc 9636 12be 2923 80bd b154 4d3e
00000150: c8d9 733d 3e7f f8bc e8a7 0e3e d3c9 223e
00000160: ac0a 1cbb 13c5 833d 881a c83d 901b a23d
00000170: d0eb dbba cadd 8d3d dfaf ca3d 8cf9 723d
00000180: 7f96 10be 0fa5 87bc decd ee3d ac19 683d
00000190: cd37 3abc fe11 603d a74a 6bbc f7a2 12be
000001a0: 1796 f93d 3f6a 8b3d 2316 d23d 3674 303b
000001b0: 1db9 913d 60df 173d efc7 12bd eaf4 093d
000001c0: 80b8 183e 0e9d 80bd 891c 443d fa72 8d3d
000001d0: e4f5 d4bd 50fb a9bd d893 c43c e2b4 f1bd
000001e0: eb4e 05ba 5bfc 1bbe 21e8 c4bd 2dca 2f3e
000001f0: e9dc 5f2f 57a7 a83d baa8 08be 24ad 5f3e
00000200: 0d72 ab3d 06ae bb3c dc6a 0abe 9358 2c3e
00000210: 6ac5 de3d 183d a0bd ad5a b13d 48f5 95bb
00000220: 8ea7 1c3e 0516 0b3e c6e6 e23d ce98 8cbd
00000230: ec91 523e a202 d73d f3dc 4cbd 7efc 4537
00000240: 8d80 2abd 4e3d c4bd d896 8b3c 6331 173e
00000250: d705 073d f972 4fbd 6651 173c 20e7 91bd
00000260: 4529 6dbc b0bc 633d e4d7 9fbd 49f2 aabd
00000270: 65c5 2cbd 9b5c 18be d2f7 1c3e f3e8 613e
00000280: a031 a1bd aa2c 8abc e1cd 6a3d a065 2dbc
00000290: e7c2 dabd 420f fcbd 9db4 3a3e 2ab8 df3d
000002a0: 22be 0c3e 513f efbd 4da9 b93d b4cc 023e
000002b0: 82c1 193e d9fa 363e 06ee e73d e942 7d3d
000002c0: e729 d2bc 6646 863d 10f2 e33c 51d1 383e
000002d0: 2f6d 8bbd 4d88 d43d d5bb 9e3d 50a5 96bd
000002e0: 8957 163d 18aa d2bd 2b5b 413e c41d 1f3e
000002f0: 238f a939 7462 113e 56ff ddbd 31b6 3e3e
00000300: 1a43 2f3d 7cb8 e33d ad28 e3bd 9261 d43d
00000310: d191 3b3e 6c34 143e 3ee6 273d c350 ad3d
00000320: 3276 e73d 96d0 08bd c1fe 33bb d282 edbc
00000330: 78f3 dbbd f4d5 023e eaac 123e aa44 d4bc
00000340: 8e7c f9bd a299 1a3e 5e93 033e d135 3c3e
00000350: f829 e1bc 0ee8 cebd ed95 acbd c585 60bd
00000360: 70c5 bdba fe4e 1dbe c259 8bbd c581 0dbd
00000370: 767e 30bc ee6d 9b3d c55f 08bd 3344 253e
00000380: 2798 54bd eb84 b53d d740 8dbd 9482 0a3d
00000390: 2ff1 6d3d cfe1 353d f98d e0bd e634 0bbe
000003a0: 5049 b23d 5edf f43c f76e dfbd 811a 163e
000003b0: 141b 2a3e ca6e 043d a7d2 183e f9b2 5b3b
000003c0: a09a e53c 7d00 1d3e 7cf0 103e a2f0 d53d
000003d0: 7115 19bc 0611 943d a542 75bd 4afd c6bd
000003e0: 6d13 1fb8 3825 10be c8c6 39bb b7f0 ea3d
000003f0: e43c 273b d483 ecbd 9374 263e 4b92 953d
-0.034539275 0.13105862 0.015071195 0.20676272 -0.049745616 -0.090801224 0.09551659 0.14078529
-0.053110436 0.10202686 -0.16687813 0.17992154 -0.0092855 -0.0730344 0.16396958 0.0026034298
0.13042443 -0.038703825 -0.14655681 0.14823313 -0.073728636 0.15966523 -0.09830741 -0.13100873
1.4014028e-09 -0.03014572 0.15054117 0.09090127 -0.005520394 0.1159192 -0.13838094 0.19900714
0.10973289 -0.12970032 0.017076189 0.14489514 0.21598162 0.10123104 0.08142604 0.121836364
0.1663253 0.1553605 0.101405695 -0.033300318 -0.037923116 -0.16554858 0.10886374 0.03614196
-0.021033924 0.14714146 0.017884037 0.024087116 -0.10419718 0.095399655 -0.108981535 -0.06362055
0.0041353405 0.13321382 0.116035424 0.17136179 -0.0134695815 -0.02933235 0.033035953 0.1057882
0.14627334 -0.092784025 -0.028319497 0.16279219 0.037918773 -0.042569727 0.20301998 0.031916045
0.07774387 -0.09867134 -0.010311275 0.13674378 -0.07935951 -0.063484736 -0.05451967 -0.03746743
-0.023827542 -0.14278635 -0.06256706 0.20051838 0.059533864 -0.030334111 0.13931239 0.15897302
-0.0023810072 0.06434073 0.097706854 0.079154134 -0.0016778652 0.069270685 0.09896826 0.059320018
-0.1411991 -0.016558198 0.1166036 0.056665108 -0.011365843 0.05470466 -0.01436106 -0.14319979
0.121868305 0.06807374 0.102581285 0.0026924736 0.07115386 0.03707826 -0.035835203 0.033680834
0.14914131 -0.06279956 0.047878776 0.06906696 -0.103984624 -0.08299887 0.023996279 -0.11802079
-0.0005085307 -0.15232985 -0.096145876 0.17166968 2.0360215e-10 0.082350425 -0.13345614 0.21843392
0.08371363 0.02291013 -0.13517326 0.16830663 0.108774975 -0.07824153 0.08659873 -0.004576359
0.15298292 0.13582619 0.11079173 -0.06865083 0.20563477 0.10498549 -0.0500154 1.1800903e-05
-0.0416265 -0.095820054 0.017039701 0.14764933 0.032964554 -0.050646756 0.0092357155 -0.07124162
-0.014475171 0.05559987 -0.0780485 -0.083469935 -0.042180438 -0.14879076 0.15328911 0.2206152
-0.07870793 -0.016867 0.057325248 -0.010583311 -0.10681706 -0.12307598 0.18232961 0.109237984
0.13744405 -0.116819985 0.09065495 0.127734 0.15015224 0.17869128 0.11324696 0.06183139
-0.025654746 0.06556396 0.027825385 0.18048598 -0.068079345 0.1037756 0.0775067 -0.073557496
0.036704574 -0.10286349 0.18882434 0.15538698 0.00032340837 0.14197713 -0.10839717 0.18624188
0.042788602 0.11119172 -0.11091743 0.103701726 0.18317343 0.14473122 0.04099106 0.0846267
0.11301841 -0.033402048 -0.0027465078 -0.028993044 -0.10739797 0.12776929 0.14323774 -0.025911648
-0.1218196 0.15097669 0.12849185 0.18379904 -0.027485833 -0.10102855 -0.084270336 -0.054815073
-0.0014478397 -0.15362164 -0.06804229 -0.034547586 -0.010772338 0.07589327 -0.033294458 0.16139297
-0.051902916 0.08863243 -0.06897133 0.033815935 0.05809134 0.0444048 -0.10964579 -0.13594398
0.087053895 0.029891666 -0.10909837 0.14658548 0.16611892 0.03233222 0.14924107 0.0033523424
0.028027833 0.15332218 0.14154238 0.10446288 -0.009343491 0.072298095 -0.05987801 -0.0971628
-3.7926646e-05 -0.14076698 -0.0028347243 0.11471694 0.0025518471 -0.11548582 0.16255407 0.07303294

Actor.fc2.bias f4 [32]
00000000: a3ec 87bd ec48 c43d 97c0 bcbd fe20 ea3c
00000010: 3cff ef3c 3fda 3f3e 4155 b13d 3825 02be
00000020: 1250 edbd 9852 e63d 7ab0 d83d c1f1 253e
00000030: 242c b63d 6498 e23d 0631 b33d 0ed0 073d
00000040: 8702 35bd d1bb a23d a0b4 74bc 26ee 8abd
00000050: ad43 e3bc 33ff 7fbd 1937 05be 1648 91bc
00000060: 11ca 3b3e 15e3 eebc 9fa8 0f3e fde7 2f3e
00000070: 429f 163e def4 09be 4a65 61bd 9fff be3c
-0.06636932 0.09584221 -0.09216421 0.028580185 0.02929651 0.18735598 0.08658839 -0.1270951
-0.11587538 0.11246222 0.10580535 0.16205503 0.08895138 0.110642225 0.08749585 0.0331574
-0.044191863 0.079459794 -0.0149356425 -0.067837045 -0.027742231 -0.062499236 -0.130093 -0.017734569
0.18338801 -0.029161016 0.14029168 0.1717834 0.1470919 -0.13472316 -0.055028237 0.023315249

Actor.mean_fc3.weight f4 [17, 32]
00000000: 8116 0000 28c4 7205 1a84 0000 cf03 0000
00000010: 1300 0080 955d 0200 6332 0000 ceb6 0080
00000020: 143d 0200 f807 0680 b518 0000 a2ee 0000
00000030: 099a 3180 5e37 0080 de01 0080 ca0e 0080
00000040: 8955 0100 9c94 0a80 fab1 0900 6d34 0080
00000050: 33b5 0000 2faa 0600 923a 0000 0249 0080
00000060: 200f 0080 d7bf 0300 b742 0000 753a 0000
00000070: 3e4b 0180 38fa 0080 da4c 0000 9353 0000
00000080: d296 3480 c348 0000 cc0c 0000 a5fb 0180
00000090: 921b 0000 2bb8 0000 5256 0080 1f05 0800
000000a0: 2068 0000 d311 0000 ae08 0000 c606 0000
000000b0: bf5a 0080 abf5 0080 6c67 0180 850a 0000
000000c0: d1a3 0900 fb68 0080 d131 0000 fd6e 0000
000000d0: ef3c 0400 385a 0080 65ce 0180 6a94 0080
000000e0: 71a2 0780 212f 0000 41ae 0000 542b 0080
000000f0: 1556 0000 aa5a 0080 ac43 0080 8c4a 0000
00000100: e746 0000 0c94 0000 2e0a 0080 7237 0000
00000110: 4f3a 0000 a609 0000 b12a 0080 7971 0f80
00000120: 2b2b 0080 b67b 0380 f83f 0000 e76b 0080
00000130: e13c 0080 132d 0180 fc45 0080 cb1e 0000
00000140: 4d08 0080 242f 0000 f35d 0000 91c2 0180
00000150: a319 0100 2d0a 0000 d30d 0000 621d 0480
00000160: c8b5 0080 a452 0680 4c34 0000 2659 0080
00000170: 4758 0000 6f3f 0000 484c 0080 cc64 250c
00000180: 0341 0100 d6ec 0780 7d38 0080 9549 0000
00000190: 2f47 0b00 d76d 0100 9d48 0080 5405 0000
000001a0: b1c7 0080 650a 0080 8d67 0080 0345 0080
000001b0: 2ef5 1580 d7b3 0000 6161 0000 3746 0000
000001c0: f725 0000 7e1b 0000 21c1 0080 9a0b bd26
000001d0: 5956 0080 6d10 0000 c222 0080 7b06 0080
000001e0: 6bd3 0180 9c2f 0080 5b08 0000 0738 0000
000001f0: ab62 0080 0e66 0080 1422 0000 b51d 0000
00000200: d708 0000 0329 0080 ca41 0000 c323 0000
00000210: 2f5a 0000 ed2a 0080 cd09 0880 d970 0d00
00000220: f33a 0000 415e 0000 9b18 0080 7451 0000
00000230: b52b 0000 155a 0080 729f 0180 1550 0000
00000240: c7ea 0000 b163 0100 80d0 0280 1bfd 0000
00000250: c282 0180 0c64 0100 a943 0080 652f 0080
00000260: 43f9 0480 f508 0080 8deb 0100 981a 0000
00000270: 305e 0100 351d 0000 38bc 0180 0352 0000
00000280: 570a 0000 ae1f 0000 7451 0000 2f70 0180
00000290: dd6b 0000 feac 1500 5a64 0000 5b1d 0080
000002a0: 664b 1300 5136 0000 d21f 0000 e824 0000
000002b0: ee4d 0000 be44 0000 78d1 0200 4bbc 0080
000002c0: 9c1c 3480 e07d d58e 8022 0000 fbb2 0080
000002d0: 941f 0080 a73d 0180 ca0f 0080 f74e 0000
000002e0: c621 0080 155b 0000 1615 0000 2425 0080
000002f0: d113 0080 4932 0080 7b99 0300 f655 0000
00000300: fd02 0080 a225 0080 d53c 0000 4d5f 0080
00000310: 7017 0080 bb34 0080 f20f 0080 3b42 0080
00000320: 0c3f 0080 383e 0000 b40c 0080 0f2f 0080
00000330: 589f 0080 c5a8 0080 2a2f 0000 8e5a 0000
00000340: 00b8 0100 7419 0400 034f 0080 8038 0000
00000350: f039 0080 5d54 0080 5534 0000 231f 0080
00000360: e200 0080 d531 0000 9cb4 0300 636a 0000
00000370: fdb1 0480 2255 0000 3d34 0000 efa1 1a00
00000380: 345e 0080 dd2d 0080 d55c 0000 8d65 0000
00000390: b823 0080 6005 0080 b909 0080 166a 0100
000003a0: 6251 0000 182e 0000 3163 0000 7723 0000
000003b0: 4326 0080 5721 0000 36c6 0080 a26c 0000
000003c0: a884 0080 7ec6 0100 f10e 0000 cd30 0080
000003d0: 316e 0080 2433 0080 ef54 0080 ff0b 0080
000003e0: 5482 6c32 91fe 0000 ee06 0000 8c22 0000
000003f0: 1991 0400 f336 0000 2743 0000 8c0e 0000
8.073e-42 1.14148135e-35 4.7389e-41 1.366e-42 -2.7e-44 2.17242e-40 1.8075e-41 -6.5578e-41
2.05582e-40 -5.53872e-40 8.863e-42 8.5605e-41 -4.555197e-39 -1.9862e-41 -6.7e-43 -5.305e-42
1.2252e-40 -9.71666e-40 8.90365e-40 -1.8807e-41 6.5002e-41 6.12063e-40 2.1011e-41 -2.619e-41
-5.426e-42 3.44326e-40 2.3933e-41 2.097e-41 -1.18827e-40 -8.9762e-41 2.7569e-41 2.9981e-41
-4.82955e-39 2.6102e-41 4.59e-42 -1.82109e-40 9.89e-42 6.6067e-41 -3.0966e-41 7.36521e-40
3.7353e-41 6.394e-42 3.114e-42 2.43e-42 -3.2554e-41 -8.8129e-41 -1.28936e-40 3.774e-42
8.85286e-40 -3.766e-41 1.7871e-41 3.9815e-41 3.89201e-40 -3.2364e-41 -1.65876e-40 -5.3241e-41
-7.01121e-40 1.6907e-41 6.251e-41 -1.5543e-41 3.088e-41 -3.2524e-41 -2.4276e-41 2.6742e-41
2.5435e-41 5.3109e-41 -3.652e-42 1.989e-41 2.0917e-41 3.461e-42 -1.5315e-41 -1.418239e-39
-1.5486e-41 -3.19886e-40 2.2948e-41 -3.8708e-41 -2.1839e-41 -1.08005e-40 -2.5106e-41 1.1046e-41
-2.978e-42 1.6911e-41 3.3703e-41 -1.61633e-40 1.01032e-40 3.65e-42 4.959e-42 -3.77883e-40
-6.5211e-41 -5.80659e-40 1.876e-41 -3.198e-41 3.1668e-41 2.2756e-41 -2.7365e-41 1.274147e-31
1.15157e-40 -7.27809e-40 -2.0264e-41 2.6396e-41 1.035726e-39 1.31239e-40 -2.6049e-41 1.911e-42
-7.1636e-41 -3.729e-42 -3.7147e-41 -2.4757e-41 -2.0165e-39 6.4514e-41 3.4933e-41 2.5188e-41
1.3619e-41 9.862e-42 -6.9282e-41 1.3117654e-15 -3.0976e-41 5.892e-42 -1.2469e-41 -2.325e-42
-1.67678e-40 -1.7079e-41 2.997e-42 2.0099e-41 -3.5395e-41 -3.661e-41 1.2225e-41 1.0657e-41
3.171e-42 -1.4712e-41 2.36e-41 1.2829e-41 3.2352e-41 -1.5399e-41 -7.382e-40 1.234344e-39
2.1147e-41 3.3812e-41 -8.827e-42 2.922e-41 1.5679e-41 -3.2315e-41 -1.49034e-40 2.8728e-41
8.4222e-41 1.27598e-40 -2.58467e-40 9.0797e-41 -1.38743e-40 1.27726e-40 -2.4272e-41 -1.7002e-41
-4.5676e-40 -3.213e-42 1.76335e-40 9.54e-42 1.25624e-40 1.0478e-41 -1.59356e-40 2.942e-41
3.709e-42 1.1365e-41 2.922e-41 -1.3208e-40 3.8694e-41 1.990603e-39 3.6e-41 -1.0531e-41
1.771922e-39 1.9485e-41 1.1415e-41 1.324e-41 2.7956e-41 2.466e-41 2.58814e-40 -6.7547e-41
-4.785709e-39 -5.2629767e-30 1.2376e-41 -6.4206e-41 -1.1328e-41 -1.13952e-40 -5.664e-42 2.8327e-41
-1.2116e-41 3.2674e-41 7.564e-42 -1.3324e-41 -7.109e-42 -1.8039e-41 3.30565e-40 3.0837e-41
-1.072e-42 -1.35e-41 2.1822e-41 -3.4187e-41 -8.408e-42 -1.8916e-41 -5.72e-42 -2.3759e-41
-2.2617e-41 2.232e-41 -4.557e-42 -1.6881e-41 -5.7162e-41 -6.0543e-41 1.6919e-41 3.2485e-41
1.57842e-40 3.76473e-40 -2.8344e-41 2.0268e-41 -2.0784e-41 -3.0264e-41 1.8773e-41 -1.117e-41
-3.17e-43 1.7876e-41 3.40297e-40 3.8164e-41 -4.31192e-40 3.054e-41 1.874e-41 2.445814e-39
-3.3794e-41 -1.6453e-41 3.3302e-41 3.643e-41 -1.2813e-41 -1.928e-42 -3.488e-42 1.29892e-40
2.9195e-41 1.6535e-41 3.5583e-41 1.2722e-41 -1.3726e-41 1.196e-41 -7.1105e-41 3.897e-41
-4.7588e-41 1.63041e-40 5.36e-42 -1.7506e-41 -3.9529e-41 -1.8346e-41 -3.0468e-41 -4.303e-42
1.3766641e-08 9.1321e-41 2.486e-42 1.2393e-41 4.19393e-40 1.9712e-41 2.409e-41 5.218e-42

Actor.mean_fc3.bias f4 [17]
00000000: 9468 0080 0f6a 0000 1541 0000 6796 0000
00000010: 860a 0080 3034 0000 6a0f 0200 983f 0600
00000020: a8c8 0180 8c05 0180 e292 0080 126a 0080
00000030: 0b30 0080 e704 0080 58dd 0400 9d1b 0000
00000040: cd12 0080
-3.7516e-41 3.8047e-41 2.3347e-41 5.3954e-41 -3.775e-42 1.8721e-41 1.892e-40 5.73826e-40
-1.63817e-40 -9.3825e-41 -5.2692e-41 -3.8051e-41 -1.7235e-41 -1.759e-42 4.46745e-40 9.906e-42
-6.744e-42

Actor.log_std_fc3.weight f4 [17, 32]
00000000: d391 59bc 57cf 3fbc 9c9f 8dbd ca4e 1cbc
00000010: 4755 63bc ad4f 54bc 4c52 4ebc ee6e 21bd
00000020: 00d3 19bc a1bd a9bd d983 53bc e933 a1bd
00000030: 73ce c6bc 9ad5 68bc abad bbbc f239 3fbc
00000040: 4731 83bc f5e1 65bc ccf5 95bd 2b6a 23bc
00000050: 1687 3fbc e3eb 7bbc f04b 43bc 1893 29bc
00000060: a4f1 37bc e2b6 0abc d7eb 11bc 1552 dcbc
00000070: 612b 0bbc 114e 6ebc eb86 7ebc 5442 6fbc
00000080: 1687 97bc 5430 06bc b434 9dbd e5ce 3abc
00000090: 3715 d1bc 0b8a cabb 85e7 48bc ad04 61bd
000000a0: 58ea 32bc 8bce 9ebd 8e00 33bc 0138 94bd
000000b0: be68 17bd 9527 3bbc 58f8 1bbd 5fe7 24bc
000000c0: 4bc0 87bc 15d1 12bc ff04 91bd bb25 cdbb
000000d0: 1237 1fbc 2f4f 51bc 97cb 45bc c6e3 10bc
000000e0: d93e e2bb 1ac3 26bc 16bf e5bb 29ab 18bd
000000f0: 356e dbbb fab8 25bc a95b 50bc 29b4 61bc
00000100: 2c53 52bc 6105 1bbc 722f 94bd cba5 70bc
00000110: 7fed 82bc 6c47 4cbc bb82 26bc 5a41 55bd
00000120: 3d51 6dbc a1c4 a5bd 86ca 41bc 5e46 95bd
00000130: cd5d 04bd 43fb 0bbc fa86 21bd 3915 ecbb
00000140: f939 56bc a5d5 55bc ac27 88bd 025f 24bc
00000150: fdd5 53bc 9696 83bc 80bd 50bc 6207 01bc
00000160: 4f43 16bc 07f2 23bc 5a2b c8bb 21ba 11bd
00000170: 004b 4cbc 31ce 5cbc d2ee 04bc 1bd6 6bbc
00000180: 894d b6bc c3fa 11bc b980 93bd 35eb 63bc
00000190: 4846 03bd 9953 0cbc 1eee 16bc 7342 63bd
000001a0: 674d 5abc 460e 93bd c780 19bc 59ea 8fbd
000001b0: bdf7 1ebd cfe5 0dbc b4d4 23bd 56c2 e4bb
000001c0: 3938 71bc 3b3c febb d8b6 93bd e1a7 26bc
000001d0: 8e5b 33bc 2e08 4abc 28fd 21bc 98db cdbb
000001e0: c823 14bc 2dad 2ebc 2c83 cbbb f4a1 13bd
000001f0: f207 17bc ac8f 20bc e1fd 45bc b6cd 84bc
00000200: 1537 8fbc e9d9 3fbc 9f8b 8fbd b5ab 70bc
00000210: af9e a8bc f8f1 40bc b91b 39bc 085d 5fbd
00000220: 963b 67bc a12b 9ebd c0e1 fabb dc82 8cbd
00000230: 38a9 f5bc a276 1bbc 85a3 23bd fcc3 08bc
00000240: 5720 6ebc 5ee7 2dbc 654d 88bd e511 e7bb
00000250: 63e6 58bc 8573 4cbc a658 4bbc 086c 28bc
00000260: 2b91 15bc bb2d 21bc a714 00bc 4e8a 08bd
00000270: a49a 0cbc f44e 88bc d825 5cbc a16c 4ebc
00000280: 93c2 b4bc d7e8 cebb 0e8e 99bd 8ad9 4fbc
00000290: 181d d7bc d461 2cbc 6167 22bc 341c 67bd
000002a0: 90e8 24bc cc35 92bd 4f5a a9bb 85dc 92bd
000002b0: 4ca7 19bd eb1d 47bc e9a7 13bd b3c0 0abc
000002c0: e922 8bbc c34f 29bc 46b0 9dbd 1d3f 17bc
000002d0: bfa6 00bc c98e 41bc 7863 28bc 3ce1 a3bb
000002e0: 9748 93bb dfd4 1fbc 7ff8 f2bb fbfa 1bbd
000002f0: 6f8f 0cbc cf86 3abc 57dd 24bc 768c 6bbc
00000300: 7562 e0bc 7007 1ebc 2005 99bd bbb9 3cbc
00000310: 494c 5ebd 497a 07bc b463 40bc a0ec efbc
00000320: 3980 84bc 6413 9fbd b415 01bc ba65 8cbd
00000330: 02d5 11bd ca03 56bc 0a14 b3bc a597 0dbc
00000340: fee0 5abc ff89 1ebc e730 8abd 6b2f 01bc
00000350: 1b5b 54bc 656c 52bc 870e 1abc a7c3 dabb
00000360: bb6f c6bb 2b59 2cbc 0246 9bbb f1ee f2bc
00000370: 46a6 2bbc a04d 1ebc 04f3 64bc 8479 7bbc
00000380: dc0b 46bc 45b0 4fbc 8663 93bd a1b4 62bc
00000390: 0c05 aebc 6ffd 16bc 0bd8 16bc da23 61bd
000003a0: 8f02 51bc f961 a6bd e4c2 24bc d5c7 8cbd
000003b0: e878 07bd 5d8b 49bc 26fc 27bd 5719 19bc
000003c0: 3498 41bc b77b 4ebc 0de1 88bd 56a6 03bc
000003d0: 27e4 2dbc 0d8e 4fbc 0336 61bc 263a 40bc
000003e0: 431b eabb 4b46 0bbc 1325 12bc f7f2 14bd
000003f0: 3f6d 36bc c549 71bc f89f 43bc 544d 6dbc
-0.013279396 -0.0117071485 -0.06915209 -0.009540269 -0.013875312 -0.012958449 -0.012592863 -0.03941243
-0.009388685 -0.08288122 -0.012909853 -0.07871229 -0.024268365 -0.014211083 -0.02290996 -0.01167153
-0.016014708 -0.014030923 -0.07322273 -0.009974043 -0.011689922 -0.015376064 -0.01191996 -0.010350011
-0.011227045 -0.008466454 -0.008906326 -0.026894609 -0.008494229 -0.01454498 -0.015535097 -0.014603216
-0.018497031 -0.008190233 -0.07676068 -0.011401867 -0.025522811 -0.006181007 -0.01226223 -0.0549361
-0.01092013 -0.07754239 -0.010925425 -0.072372444 -0.036965124 -0.011423011 -0.038078636 -0.010064929
-0.016571185 -0.008960982 -0.07081031 -0.0062606013 -0.00971772 -0.0127752265 -0.012072465 -0.008843368
-0.0069044647 -0.010178352 -0.0070113046 -0.037272606 -0.0066964873 -0.010114903 -0.012717166 -0.013775864
-0.0128372125 -0.009461732 -0.07235612 -0.014687966 -0.015982388 -0.0124682 -0.0101630045 -0.052064277
-0.014484701 -0.080941446 -0.0118280705 -0.07288812 -0.032316018 -0.008543792 -0.039435364 -0.0072046784
-0.013075345 -0.013051425 -0.06648192 -0.010032417 -0.012929437 -0.016063016 -0.012740493 -0.007875295
-0.009171321 -0.010006434 -0.0061086835 -0.035577897 -0.012469053 -0.013476894 -0.00811358 -0.014394308
-0.022253769 -0.008909884 -0.07202286 -0.013911058 -0.032049447 -0.008564853 -0.009212045 -0.055483293
-0.013324118 -0.07180457 -0.009369082 -0.0702712 -0.03881048 -0.008660748 -0.03999777 -0.0069811745
-0.014722877 -0.007758645 -0.07212609 -0.010171861 -0.010947121 -0.012331052 -0.009887017 -0.006282281
-0.009041734 -0.0106614055 -0.0062107053 -0.036043122 -0.009218203 -0.009799879 -0.012084455 -0.016211372
-0.01748232 -0.011709669 -0.070090525 -0.014689376 -0.020583479 -0.01177644 -0.0112981135 -0.05453208
-0.0141133275 -0.07723165 -0.007656306 -0.06860897 -0.029987916 -0.0094887335 -0.039950866 -0.008347508
-0.014534078 -0.010614244 -0.06655387 -0.0070516937 -0.013238522 -0.012478714 -0.012411272 -0.010279663
-0.009128849 -0.009837563 -0.007817424 -0.033335023 -0.008581791 -0.01663921 -0.013436757 -0.012599141
-0.022065436 -0.0063143778 -0.07497798 -0.012686143 -0.02625899 -0.010521371 -0.009912343 -0.05642338
-0.010065213 -0.07139167 -0.0051682363 -0.07170967 -0.037513062 -0.012153129 -0.036048803 -0.008468795
-0.01698442 -0.010333958 -0.07699637 -0.009231356 -0.007852255 -0.011813828 -0.010277621 -0.0050012153
-0.0044947374 -0.009755342 -0.007414877 -0.03808115 -0.008579119 -0.01138468 -0.010062537 -0.01437675
-0.027390698 -0.009645328 -0.07471681 -0.011518891 -0.05427197 -0.008268901 -0.011742521 -0.029287636
-0.016174423 -0.0776737 -0.00787871 -0.0685534 -0.03560353 -0.013062427 -0.021860141 -0.008642112
-0.013359306 -0.0096764555 -0.06747609 -0.0078848405 -0.012961174 -0.012843226 -0.009402878 -0.0066761556
-0.0060558 -0.010519306 -0.00473857 -0.029654952 -0.010476654 -0.009662062 -0.013973955 -0.015348796
-0.012087788 -0.012676303 -0.07196717 -0.013837011 -0.02124264 -0.009215697 -0.009206782 -0.05496583
-0.012756958 -0.081241556 -0.010056231 -0.068740524 -0.03307429 -0.012301293 -0.041011952 -0.00934442
-0.011816073 -0.012602738 -0.0668355 -0.008035263 -0.010613478 -0.012668145 -0.013745788 -0.011732614
-0.007144363 -0.008500646 -0.008919972 -0.03636452 -0.011134445 -0.014727061 -0.011939995 -0.0144837685

Actor.log_std_fc3.bias f4 [17]
00000000: de22 38bc 495e dabc 7aff d4bc 6907 07bd
00000010: 6949 09bd befa ffbc 79e3 17bd d17d e1bc
00000020: 8677 adbc f0b9 03bd 6326 eebc 00ea 14bd
00000030: a9e9 81bc 4f5a 00bd 7ce8 31bd 093a 21bd
00000040: c2bf 07bd
-0.011238782 -0.026656287 -0.026000727 -0.03296605 -0.033517275 -0.031247493 -0.03708217 -0.027525814
-0.021175157 -0.032159746 -0.029071039 -0.036355972 -0.015858488 -0.031336125 -0.043434605 -0.039361987
-0.03314186

Critic.fc1.weight f4 [32, 378]
00000000: 40fb e93c e24b 353d 5136 b23d eadf 373d
00000010: 8032 0bbd 767b 1abd 54cc ebbc 14ac 653d
00000020: 05b9 bbbc e2de 0d3d a07d 203d af02 a03c
00000030: 8e7b 0dbd de14 cdbc a020 173d 6374 813d
00000040: 79e7 49bd d889 75bc 01dd f53c eb38 aebd
00000050: 5192 82bd 696e c5bc c688 443d 3658 b4bd
00000060: c40e 773c e0bb 923c 4865 13bb 6617 023c
00000070: 0505 85bc ee94 69bd 641d 52bc ec34 07bd
00000080: 140d 993d 4483 8f3c b0a6 b2bc c4f7 403d
00000090: 1b14 4fbd a482 b7bc a1ba 1dbd 005e 383d
000000a0: 4700 a1bd 404f c83b e13e f13c 6463 e6bc
000000b0: d7ed 52bb 91c6 973d 9297 e13c 537a c93c
000000c0: 639e 2dbc 68bb 0b3d 85c6 033b 6aac 833c
000000d0: 2f84 da3c 343d 9c3c af13 423d 7c37 063d
000000e0: 8dec e3bc 22d6 413d 907c 583d 3ae7 bb3c
000000f0: a6f0 373d d4af fa3c 3947 adbd c4e6 8fbd
00000100: a3bc a13c 113d 553d 63f8 723d 3e88 b73d
00000110: 5abc 9c3c 1b1f ef3c 3402 673c 7cab b23d
00000120: 462e 2ebc 5d1b abbc 4944 f5bc 2432 873c
00000130: 3b7d 3c3d 2239 893d 1dab b83d 40d3 ab3d
00000140: 0914 70bc 89cc 693d 49ae 6b3b 5546 20bd
00000150: 81cb a4bd d9c4 213d 2f87 8c3d 325e 3d3d
00000160: c2c0 4d3d 9ec4 653d a59c 663d 1957 1e3d
00000170: 7d10 b9bd 610c 9a3c a161 97bd 287f 66bd
00000180: 274d d63c 7115 b63d bbc2 cf3d 58b4 a63d
00000190: ca39 653d c85b 013d d0e4 bbbb 7b16 8d3d
000001a0: 4169 a1bc 3731 4cbd b3ac 8b3c 28de 133d
000001b0: 1d72 193d 305c c83d b49c 33bd a0fc 8bbd
000001c0: 39a1 a8bd cc8d e4bd 6cd3 92bd 214a a0bd
000001d0: 4108 b83d 06e0 6e3c 3128 4f3d ecce 8b3d
000001e0: 83b2 83bc f326 aa3d 2d97 8b3d 0ac7 df3d
000001f0: 567c 8c3d bc0e 23bd 3a1b 993d e0b5 343c
00000200: fffd 693d 88c7 1e3d 1307 09bd 9a42 26bc
00000210: c7ea d23d 3fd6 c23c 81e3 833d 695a a7bc
00000220: 7c98 713d 3839 8a3d 827c a43d d1b5 f13c
00000230: d47c 0d3d e692 28bd c80a 5f3d 3bde 87bd
00000240: 430a c53d ef9a 34bd c991 6d3d 0df6 c13d
00000250: bb3d 753d 2289 d63c b7da 813c 883a 613d
00000260: 7b03 d33d 3243 8f3c e7e3 d2bd 9fa3 a73d
00000270: 1bd6 653d 8952 e1bb fc43 673d 6ed7 3d3d
00000280: 62f6 3bb9 5630 2f3b c8c3 6dba 96e2 323c
00000290: aca6 9dbd 1746 8f3d b93e 203d d9e9 b63d
000002a0: 7087 ce3d b5fa de3c af14 6bbc 6b82 29bb
000002b0: 5bed f3bc 93c6 163d cf86 c83d 953c f33c
000002c0: 228d 9b3c 4c56 5abb b65b 13bc 1e25 8a3d
000002d0: 157f 85bd 0da4 79bd 0fba 80bc e776 7e3d
000002e0: bc25 cc3b bd01 ab3d e121 463d e5be 34bc
000002f0: e5d4 0f3a a879 0a3d 8a3a 22bc 656c ecbc
00000300: 36f9 b63c 1ea9 83bb 2745 80bd cdf2 90bd
00000310: c430 493d efe2 91bc dbd3 aebc 285f 4fbd
00000320: 24dc b3bd 42fd 2b3c 0d2e 873d 374a cabb
00000330: f44f d1bd b52f 9cbc 0cd4 cfbd 66b3 9238
00000340: b808 d83d 7d4d 6ebc d9d0 b7bc 38c4 1cbc
00000350: 8335 503a 9fee 0d3d d032 d03d f3da 66bd
00000360: 1c45 81bd 438f 7d3d 4f85 b13d 56e9 11bc
00000370: 798b 303d 73b8 e73c 7f7f e1bc 63f4 e53c
00000380: 9a65 a13d e0fc 2b3d 56fd b33d e51e 4ebd
00000390: 0b9a e4bc bfe3 c7b9 79bc 76bd 4a02 d23c
000003a0: 63b3 5d3d 4301 fa3a 3e68 b7bb 9ceb 253d
000003b0: 878f c53c 93ef 0bbd 1617 443d 0578 ca3b
000003c0: b98c 67bd 6853 853c 7ae8 ba3b 7837 b9bb
000003d0: 59c6 c83d 3385 35bd 0d14 33bb 42e2 033d
000003e0: 227a a3bb b8d2 17bd 8d7e e0bc 037e 823b
000003f0: 2434 8abd 2e4c b2bb d9fc 573c 2f0a 90bd
0.028562188 0.04426182 0.08701766 0.044891275 -0.033983707 -0.037715398 -0.028783955 0.05607231
-0.022915373 0.034636386 0.039182305 0.01953253 -0.03454166 -0.025034364 0.036896348 0.06321027
-0.049293015 -0.014986478 0.03001261 -0.0850695 -0.06375564 -0.0241005 0.047982 -0.088058874
0.015079204 0.017911851 -0.0022490788 0.007940149 -0.016237745 -0.057026796 -0.01282439 -0.033009455
0.074731976 0.017518647 -0.021807998 0.047111288 -0.050556283 -0.022401161 -0.03850806 0.04501152
-0.07861381 0.006112963 0.029448928 -0.028123565 -0.003218522 0.074109204 0.027538095 0.024594462
-0.010596844 0.03411427 0.002010734 0.016073424 0.026674358 0.019072153 0.047382053 0.032767758
-0.027822757 0.047323354 0.052853167 0.022937406 0.044907235 0.03060142 -0.0846085 -0.07026437
0.01974327 0.05206019 0.05931891 0.08961533 0.019132782 0.029189637 0.014099646 0.08724114
-0.01063115 -0.020887071 -0.029939787 0.016503401 0.046017867 0.0670035 0.09017012 0.08389902
-0.014653214 0.057079826 0.0035962036 -0.039129574 -0.08046628 0.03949437 0.06861722 0.04623241
0.050232656 0.056095712 0.05630173 0.03865728 -0.09036348 0.01880473 -0.07391668 -0.05627361
0.026159836 0.088908084 0.10144564 0.081398666 0.055963315 0.03158167 -0.0057340637 0.068890534
-0.01970351 -0.049851622 0.017050123 0.036100537 0.037462343 0.09783208 -0.043850616 -0.06835294
-0.08233876 -0.11159858 -0.07169232 -0.07826639 0.08985949 0.014579779 0.05057544 0.068265766
-0.016076332 0.0830821 0.06815944 0.109266356 0.06859653 -0.039808974 0.07475896 0.0110296905
0.057126995 0.038764507 -0.033454012 -0.010147715 0.102986865 0.023783801 0.06439877 -0.020428853
0.05898331 0.06749195 0.080315605 0.029505642 0.034542874 -0.04115572 0.05445364 -0.06634184
0.09621098 -0.04409307 0.05800036 0.094707586 0.059873324 0.026188437 0.015851362 0.05498746
0.10303398 0.017488096 -0.10297375 0.08185505 0.05611239 -0.006876294 0.05646132 0.046348028
-0.00017925494 0.0026731691 -0.0009070006 0.01091828 -0.07697806 0.069957905 0.039122317 0.08931322
0.100844264 0.027219156 -0.014348193 -0.0025865089 -0.029776266 0.03681047 0.09791338 0.029691974
0.018988196 -0.0033315597 -0.008994034 0.06745361 -0.065183796 -0.060947467 -0.01571372 0.062125113
0.006230084 0.08349941 0.048372153 -0.011031841 0.0005486741 0.033807427 -0.009901652 -0.02886028
0.02233563 -0.004017963 -0.0626319 -0.070775606 0.049118772 -0.017808406 -0.021341255 -0.050627857
-0.08782223 0.010497393 0.0660058 -0.006173398 -0.10220328 -0.019065717 -0.101478666 6.995238e-05
0.10548538 -0.014544842 -0.022438454 -0.009568267 0.0007942544 0.034651395 0.10165942 -0.05636115
-0.0631201 0.061904203 0.08668005 -0.008905729 0.04310176 0.028286194 -0.027526615 0.028070634
0.07880707 0.041989207 0.08788554 -0.050322432 -0.027905485 -0.00038125922 -0.060238335 0.025635857
0.054126155 0.0019073862 -0.0055971434 0.040507898 0.02411629 -0.034164023 0.04787358 0.006178858
-0.056530688 0.016275123 0.005703983 -0.0056523643 0.09803457 -0.04431648 -0.0027325184 0.0321982
-0.0049889246 -0.03706619 -0.027404094 0.003982307 -0.06748226 -0.00544121 0.013182842 -0.07033192

Critic.fc1.bias f4 [32]
00000000: b862 853d 885d 1e3a a567 553d 3445 853d
00000010: f2fd 9e3d 896c 89bb c250 463c c4bb adbc
00000020: 650b 693d d329 c53d 7d6a 1abd 210d 0c3c
00000030: 08b1 b6bb 8fc0 873c 0ba3 773d 04b6 b63c
00000040: c810 cebc c6a7 843d 12b0 6d3d 16fc 943c
00000050: 8109 313d c02e f33c 5f4d ad3d a981 16bd
00000060: 0516 3dbc f5ee 413d 48a0 dbbc 2a41 6e3c
00000070: e1b3 d23d f50d 6f3d 524b a93c 3160 c43d
0.0651297 0.0006041159 0.052100796 0.0650734 0.0776328 -0.0041938466 0.012104215 -0.021207698
0.056895632 0.09627118 -0.03769921 0.008548052 -0.005575303 0.016571311 0.060458224 0.022303589
-0.025154486 0.06477313 0.05802924 0.01818661 0.043221954 0.029685378 0.08462023 -0.036744747
-0.011540894 0.047347028 -0.026809826 0.0145419035 0.102882154 0.05836292 0.020665798 0.095886596

Critic.fc2.weight f4 [32, 32]
00000000: 6014 133e 5f16 0bbe f8a7 023e 3943 f63d
00000010: 526b d43d c7ba aebd d8df 4abc 957b 803c
00000020: 4e1b 013c f0d8 ae3d 7879 1fbd 9b79 ae3c
00000030: 607f 42be b1ce 7c3c c33c 073e 36ec ba3d
00000040: c5d8 a937 1580 343e 95f7 bcbc 44a8 b43d
00000050: cae4 8d3d 320a 563c 303d acbd 4175 cabc
00000060: 1730 203e 5290 9cbc 1e6e 49bd d3f7 d6bd
00000070: 8ed4 f73d b4a0 d1bd 97ba 113e 0cdb 93bd
00000080: 67be 933d 8956 dabd 3960 423d a5a2 4f3e
00000090: c6fa 403e 0378 e1bd cd25 d33d 19f4 0fbe
000000a0: b8bd ff3d e324 ffbc 7ffa 21bd 1be7 86bd
000000b0: 4be3 30be 5f6a de3d 2db3 ce3d 3251 cdbd
000000c0: 5064 70bd c611 f23d 01e5 4d3e 8f35 e63d
000000d0: 92bc 813d db82 e9bc ac1c b3bc caac 5fbc
000000e0: 0d06 ca3d adf3 9cbd b42d b53d 6023 28be
000000f0: 8bf8 94bc ee55 833d f8da f33d b43e 4a3e
00000100: 0bfb e83d 3187 0fbe b9ba c53b 6b8a 9d3d
00000110: 8497 59bd 303e 633d 374a 8c3d 9147 95bd
00000120: dc3a e83d b8b7 0bbd 4afe edbc e63c ccbd
00000130: a79b 2cbe 5eb7 933d fb7a 203e 9b02 ebbb
00000140: 06ee a0bd e132 723d 933c 033e b236 a33d
00000150: c014 ee3c bc5f 023e eb58 5a3e ff01 ecbd
00000160: b72c 09be 8e4f 3d3d 2d1d ef3d 3153 113e
00000170: 0414 8cbb 588a d3bd 2294 9abd a6b7 333e
00000180: bd45 0ebe cae2 a33c 0a01 f4bd 8b40 6d3d
00000190: 2d13 8bbd e7af 30ba 9dab 223d 8fb6 98bd
000001a0: c4ad 873d e335 013e 2061 e23d a503 7d3d
000001b0: fe46 923d 66e1 233e 385c 1b3d 85f9 323e
000001c0: cb2a b53d 76c9 be3c 6f97 74bd e549 b8bd
000001d0: cefc 46bd 29e9 f4bd c23c fbbd 58ce 1cbe
000001e0: 1f9c 1d3e 2652 bfbd 81e3 e53d 938e e53d
000001f0: f992 c93d 3d1b 323e 6c5c 53bd 1978 1abe
00000200: a23e d43d d43a 30be 556e 3e3e 92ba f2bd
00000210: 65ef dbbd 4f85 583e 1ca7 1a3e 6c0f ebbd
00000220: 8ae5 333e 7963 b13d ac1b af3c 09ab 293d
00000230: d931 043e ae18 df3d 38c7 1f3d de0f ffbd
00000240: 451f f7bd c81b 81bb a5e3 02be 3659 dfbd
00000250: 41fd a23d cc64 c9bd 79bb 05bd fcf6 adbd
00000260: b128 e83d 6d21 ba3d 6e5c 343e cd50 34be
00000270: 8e02 aa3c 8ef7 7cbc 2cf6 f13a 299f 503d
00000280: b73d 15be 9022 d23d 9a4e 7f3d 6f2e 9abd
00000290: 9559 b3bc 2aff 973d 26e1 103d 3e34 7d3c
000002a0: 7674 d63d 3aa1 10bd 7415 0cbe 8c0d 1bbe
000002b0: 9365 cf3d 39b2 88bd 02b1 dd3d 6779 2e3d
000002c0: a9ab 073e f77d 04be cbf2 f1bd 4103 c63d
000002d0: 2157 d43b af08 ca3d e32f 2e3e 93e5 25be
000002e0: 7b2d c53d 7cd7 0f3d e597 793d f11b e33d
000002f0: 9826 01bc 9910 09be c2f4 adbd ee13 0a3e
00000300: 7d1a b3bc e2bd 64bd 4a26 ccbd 43de 183d
00000310: 1fd1 483e a55a 0bbe d22b 0ebe cbbe bdbd
00000320: 8dd9 cb3d a20c febd 959e a6bd ccc3 5d3e
00000330: 268f 24be 885d 0b3d 5139 b2bd 674e 423e
00000340: 3c65 aabd 0ca7 443e 7c7e 3bbd acdf 103d
00000350: debf f0bd cb66 0b3d fb81 023e 93c9 d33c
00000360: cf76 ec3d 7e25 93bd 424d f53d c44c c53c
00000370: 12a4 463e fa2f b0bd 8347 65bd 43c5 95bc
00000380: dbb3 c73c 5e9a f0bd 6e45 0c3c 899b 193e
00000390: b818 083e 888b cd3d 4f85 8abd 8d32 17be
000003a0: a389 2b3e 73ba 883c da89 883c c483 493e
000003b0: d84b fcbd 941f bdbd db8e 423e 86aa 243d
000003c0: bb31 15be 5bad d6bd b979 16bd 3e87 a0bd
000003d0: db87 013e 7459 423e e42d d53d 63c5 c8bd
000003e0: 4a94 b6bc 116d a83d 0b2d 19be 31a2 cd3c
000003f0: c926 f13d d587 183e bec5 f4bc d11e 933d
0.14363241 -0.13582753 0.12759387 0.120245405 0.10372032 -0.08531719 -0.01238247 0.015683929
0.007880045 0.08537471 -0.0389342 0.02129822 -0.18993902 0.015430138 0.13206773 0.09127085
2.0247311e-05 0.17626984 -0.023067275 0.088211566 0.06928404 0.013063954 -0.08410108 -0.024714114
0.15643345 -0.019111786 -0.04917728 -0.104964875 0.121010885 -0.1023573 0.14231335 -0.07219514
0.07214051 -0.106610365 0.047455046 0.20276888 0.18845662 -0.110092185 0.10309944 -0.1405796
0.12487358 -0.031145519 -0.039545532 -0.065870486 -0.17274205 0.108601324 0.10092769 -0.100252524
-0.058689415 0.11819796 0.2010689 0.11240684 0.06334795 -0.02850478 -0.021864258 -0.013652036
0.09864435 -0.07663665 0.08846608 -0.16419744 -0.01818492 0.06412874 0.11906999 0.19750482
0.11376008 -0.14016415 0.006034222 0.07692417 -0.053123012 0.05547923 0.06850093 -0.07289041
0.113393515 -0.034110755 -0.029051919 -0.09972553 -0.16856252 0.07212709 0.15671913 -0.0071719415
-0.07857899 0.059130553 0.12816076 0.07969417 0.029062629 0.12731832 0.21322982 -0.11523818
-0.13395964 0.046218447 0.11675487 0.14191891 -0.004274847 -0.10329121 -0.07547785 0.17550525
-0.1389379 0.020005602 -0.11914261 0.05792288 -0.06790767 -0.00067400787 0.039714444 -0.07456695
0.0662494 0.12618212 0.110536814 0.061771054 0.07142447 0.16003951 0.037929744 0.17477997
0.08846053 0.023289423 -0.05971473 -0.08998469 -0.048580937 -0.11958534 -0.12267448 -0.15313089
0.15391587 -0.093418404 0.112250336 0.112088345 0.09842486 0.17393203 -0.051601812 -0.15084876
0.10363509 -0.17209941 0.18596776 -0.11851992 -0.1073902 0.21144603 0.1510281 -0.11477551
0.17568031 0.08661551 0.0213755 0.041422877 0.1290964 0.10893379 0.03900835 -0.12454198
-0.12066511 -0.0039400794 -0.12782152 -0.109056875 0.079584606 -0.098336786 -0.03264949 -0.08494374
0.11335886 0.09088407 0.17613384 -0.17608948 0.020753171 -0.015439881 0.0018460206 0.050933037
-0.14574324 0.102604985 0.06233082 -0.07528388 -0.021893302 0.074217156 0.03537097 0.01545435
0.10471432 -0.035310008 -0.13680059 -0.15141886 0.101267956 -0.06674618 0.10824777 0.042596247
0.13249077 -0.12938677 -0.11813887 0.096685894 0.006480113 0.098649375 0.17010455 -0.16200857
0.09627815 0.03511761 0.060935874 0.11089314 -0.007882737 -0.13385238 -0.084939495 0.13484165
-0.021863217 -0.05584515 -0.099682406 0.03732134 0.19611023 -0.13608797 -0.13883904 -0.092649065
0.09953604 -0.12404753 -0.08135716 0.21656722 -0.16070232 0.034024745 -0.087023385 0.1897522
-0.0832009 0.19204348 -0.04577492 0.03536956 -0.11755346 0.034033578 0.12744896 0.025852954
0.115460984 -0.071848854 0.119776264 0.024084456 0.19398525 -0.08602901 -0.055976402 -0.018282538
0.024377754 -0.11748193 0.008561475 0.15000738 0.1329068 0.10036379 -0.06763708 -0.14765377
0.16751723 0.016690468 0.016667295 0.19679171 -0.123191535 -0.09234539 0.18999808 0.040201686
-0.14569752 -0.10482284 -0.036737178 -0.078382954 0.12649481 0.18979436 0.104091436 -0.098032735
-0.022287507 0.08223928 -0.14958589 0.025101753 0.11774976 0.14895566 -0.029879447 0.07183612

Critic.fc2.bias f4 [32]
00000000: da22 463b acd8 643e 9b1a cc3c a7c4 19be
00000010: d2db 113d f7b4 ebbd bc62 093e 67f4 8d3d
00000020: e242 c8bd 0706 ec3d 859c 113e 62a8 163e
00000030: 17bf f03d face 163d 6e7b b83d ea0c b23d
00000040: 0aac e43d ca7c 4e3e 2e8d e33d c13d 04be
00000050: 84b4 403e 0d5c a73d a549 a1bd c1af 3dbd
00000060: e851 2c3d d1b6 edbd ab61 68bd 85db 5a3e
00000070: 5bd9 573c bf9c febd be37 7c3d 29ea c7bc
0.0030233175 0.22348279 0.02491503 -0.15016423 0.035610028 -0.11509126 0.1341657 0.06931382
-0.09778382 0.11524587 0.14219864 0.1471267 0.117551975 0.036818482 0.09007917 0.086938694
0.11165626 0.20164791 0.11110912 -0.12914182 0.18818861 0.08171854 -0.07875375 -0.04631019
0.0420703 -0.11607135 -0.05673377 0.21372803 0.01317438 -0.12432241 0.061576597 -0.024403648

Critic.fc3.weight f4 [1, 32]
00000000: 0f0d 303d 68a8 313d 5b87 2a3d 8318 e3bb
00000010: a6de 2c3d 9f65 70bc 84d0 093d d13e 463d
00000020: fb5d 913b 13b5 453d 8ece 253d 0037 123d
00000030: ee93 563c c781 3a3d 441c aa3c 9ca8 7e3c
00000040: fb6f 8f3c b79e 053c ed53 323c d897 4d3c
00000050: 1b33 263d 370d c23c 283a 0b3d b7ee 313d
00000060: ecba f93c 2280 743c 092b 203d e59c b93c
00000070: cac5 ea3c d967 fcb9 434f 33bb adcf a03c
0.042981204 0.043373495 0.04163299 -0.0069304123 0.04220452 -0.014672666 0.03364612 0.04839975
0.004436252 0.04826839 0.04048019 0.035696983 0.013096793 0.04553392 0.020765431 0.015543129
0.017509451 0.008155516 0.010884267 0.012548409 0.04057608 0.023687942 0.03399101 0.043440547
0.03048464 0.014923127 0.03910354 0.022657821 0.028658766 -0.00048142558 -0.0027360476 0.019630278
