model_3.pt (torch, 114732 bytes, 13 tensors)

Actor.fc1.weight f4 [32, 378]
000000 f8 0b 6d 3e 26 94 80 3e a1 eb a9 be 75 67 a5 be
       0.23149097 0.25113028 -0.33187583 -0.32305494
000010 25 6a 0b be 4a 09 56 be ba 12 3c 3e 5c 5f d5 3d
       -0.1361471 -0.20901981 0.18366519 0.10418579
000020 df 3a 9a 3e 99 a8 81 bc 01 19 fd bc 08 f6 64 3e
       0.3012304 -0.015827464 -0.030895712 0.22359478
000030 82 56 d9 3d 7d 83 55 3e e7 dc 90 3e 7c 81 ea bd
       0.10612203 0.2085094 0.28293535 -0.114504784
000040 42 82 2d bd d7 f3 5a 3e 5b d5 0e be 80 15 86 be
       -0.04236055 0.2138208 -0.13948576 -0.26188278
000050 9b 30 c0 bd 27 79 de bd 2a ff d1 bc 1c 91 c4 3c
       -0.09384271 -0.10862952 -0.025634367 0.023994975
000060 c0 83 ff 3c c8 ce 0d 3e 1c 1b 90 3e e0 38 53 bd
       0.031190753 0.13848412 0.28145683 -0.051567912
000070 43 1f 6a be 0c 87 c1 3d a9 b7 64 3e 4b 78 31 3e
       -0.22863488 0.09449586 0.22335686 0.17331044
000080 6f 6c ac 3d 10 dc 89 3d ca 9e 23 3d 78 81 38 3e
       0.084191196 0.06731427 0.039946355 0.18018138
000090 c0 22 b8 3d e5 53 4a 3c 7f 12 06 3e 7d 84 1f bc
       0.08991003 0.012349104 0.13092993 -0.0097361775
0000a0 47 99 11 3e f8 a2 07 be 69 a9 77 be 09 be a1 3c
       0.14218627 -0.13245761 -0.24185719 0.019743936
0000b0 dc 22 76 be 79 49 0c bd 9c ed 91 3c e2 55 1f bc
       -0.24036735 -0.034249756 0.017813496 -0.009725066
0000c0 ab 2b da bc 24 87 34 3c 1d ec 0d 3c ca 78 df 3b
       -0.02663215 0.011018548 0.008662251 0.006819819
0000d0 bf 3f 06 3d 4a 87 32 3c ff b5 37 3d e8 f7 ac 3c
       0.032775637 0.010896513 0.0448513 0.021114305
0000e0 f3 c8 15 bd 42 7d 84 be 6e 18 98 be 8a 90 98 be
       -0.036568593 -0.25876814 -0.29706138 -0.29797775
0000f0 4b b3 49 bc 0b c7 e9 bd e8 aa 53 be 62 42 fd 3d
       -0.012310813 -0.114149176 -0.20670664 0.12366177
000100 7d 82 61 3e 3a 8e a2 be 5c 17 93 be 53 35 90 be
       0.22022434 -0.31749135 -0.2872876 -0.28165683
000110 04 09 9f be 16 78 8b be e0 4c 7c 3d dd f3 a5 be
       -0.31061566 -0.27240056 0.06159675 -0.32412615
000120 1d 79 2e bb 4c 8f 95 3e 45 98 6e 3c dc b6 ae be
       -0.0026622482 0.2921089 0.014562671 -0.34123886
000130 8e 71 b1 be 5a f6 ae be af 78 95 be 7e 18 a4 be
       -0.34656948 -0.34172326 -0.29193637 -0.32049936
000140 5a dd 20 be 07 3d f4 3d d6 b5 e6 3d c6 00 98 3e
       -0.15709439 0.119257025 0.11265151 0.2968809
000150 b0 52 92 bb 21 b7 11 be 67 45 93 be d8 93 a3 be
       -0.0044654235 -0.14230014 -0.28763887 -0.31948733
000160 7e ef 76 be 94 67 ad be 5e 0b cd bd f9 5a d7 3d
       -0.24114797 -0.33868086 -0.10011934 0.105153985
000170 00 c7 6b 3e 7f ba 7f 3d 4b c1 ba 3e 81 35 8c 3e
       0.23025131 0.062433716 0.36475596 0.2738457
000180 d0 06 a4 be a7 8b 81 be 65 8f 8b be d5 25 60 be
       -0.32036448 -0.2530186 -0.2725784 -0.21889432
000190 6c fa d4 bb c0 c9 ac 3d d2 29 3c 3e ec 1f a2 bc
       -0.006499579 0.08436918 0.18375328 -0.019790612
0001a0 e4 1f 7d 3e 2f 2e 49 3e 10 34 aa be e8 62 51 be
       0.24719197 0.19646524 -0.33242846 -0.20447886
0001b0 51 75 83 be b6 73 cf bd eb a6 83 3d a2 77 25 3e
       -0.25675443 -0.10129492 0.064283215 0.16158918
0001c0 58 ed 17 3e f6 2b 18 3e 42 2f 67 3e e7 20 64 3e
       0.14836633 0.1486052 0.22576621 0.22278176
0001d0 1d c5 a1 be 4e 90 8f be cf b1 a2 be a3 3e 86 be
       -0.31595698 -0.28039783 -0.31776282 -0.26219663
0001e0 15 77 a0 bd 60 f1 76 3d be 59 8a be 57 53 9a 3d
       -0.07835213 0.060288787 -0.27021593 0.07535427
0001f0 14 15 93 be 9c 48 82 3e 94 d4 94 be 38 6d 86 be
       -0.2872702 0.25446022 -0.29068434 -0.26255202
000200 f5 3d 7b be fb 4f 94 be 2e 84 bb bc e0 5a 8e 3d
       -0.24535353 -0.2896727 -0.022890177 0.06950927
000210 61 70 a8 be a4 c7 04 3d 77 41 8a be da 38 af 3e
       -0.32898238 0.032416955 -0.2700307 0.34223062
000220 7a 36 b2 be 6b 54 85 be 71 c7 98 be fb a2 91 be
       -0.34807187 -0.26040968 -0.29839662 -0.28444657
000230 f9 ea 8b bd f7 75 bc 3c ad 40 a6 be d0 8d 93 3d
       -0.06831927 0.023005469 -0.3247122 0.07204783
000240 56 a2 99 be 91 d4 8c 3e 95 99 9a be 06 ee 96 be
       -0.30006665 0.27505925 -0.301953 -0.29478472
000250 a1 32 8a be e4 31 6a be f9 eb 7e be 51 ad 93 3e
       -0.26991752 -0.22870594 -0.24894704 0.28843167
000260 81 e8 62 be fd 83 81 be e4 1c 91 3e 70 1a 73 be
       -0.22159006 -0.25296012 0.28342354 -0.23740554
000270 1e ea 87 be 26 d3 6f be 46 4e 8d be 84 99 8b be
       -0.26545805 -0.2342039 -0.2759878 -0.2726556
000280 a9 d2 8b be c1 7c 8a 3e 2e e0 63 be b2 6d 9f be
       -0.27309158 0.27048305 -0.22253487 -0.31138378
000290 c1 9e 56 3e b3 3c 9d be 38 c2 88 be 15 f2 92 be
       0.20958997 -0.30710372 -0.26710677 -0.2870032
0002a0 85 03 9c be d0 98 b5 be 76 30 9b 3e bc 7f ad 3e
       -0.30471435 -0.3546815 0.3031041 0.33886516
0002b0 8e 9d 95 3e e9 58 a0 be 7d 47 89 be 9f cd 89 be
       0.29221767 -0.31317833 -0.26812354 -0.2691469
0002c0 93 31 93 be 67 af a2 be 1b cd 80 be f1 5b 92 be
       -0.2874876 -0.31774446 -0.25156483 -0.2858577
0002d0 96 77 b2 3e f7 b9 76 3e b9 a5 89 3e bc 5e aa be
       0.34856862 0.24094377 0.2688425 -0.33275402
0002e0 69 d8 92 be 0f 43 84 be 23 85 b0 be 70 5b 7a 3a
       -0.28680733 -0.25832412 -0.34476575 0.00095503684
0002f0 a3 d0 cc bc 1e 64 2a ba 71 16 23 bd 91 d6 1b 3d
       -0.02500183 -0.0006499904 -0.039816324 0.038046423
000300 39 49 0c 3d 86 ed fe bc 77 b5 82 be 75 f8 a9 bd
       0.034249518 -0.03111912 -0.25529072 -0.082993425
000310 28 09 8c 3e b7 3c 8a bd d2 1f 90 3e 3f 6b 0d bd
       0.27350736 -0.06749862 0.28149277 -0.034526106
000320 dd e6 11 3d 14 55 28 3e 67 e3 16 3e dc 99 37 3c
       0.03562056 0.16438705 0.14735185 0.0112061165
000330 d0 29 7d 3e 39 c1 07 be 07 1e a7 3d a2 48 1f 3e
       0.24722981 -0.13257302 0.08160024 0.15555051
000340 ec ab 19 3e 84 04 9a 3d ad 67 3a 3e f5 3a 38 3e
       0.15006989 0.075203925 0.18203612 0.1799124
000350 ef 4f 46 3e 06 a6 b1 3d 35 58 8e 3e 9b dd 20 3d
       0.1936643 0.086742446 0.27801672 0.03927384
000360 05 d2 29 3e e9 48 38 3e e9 42 f1 3d b7 b6 f1 3d
       0.16584022 0.17996563 0.1178034 0.11802428
000370 4b 0d 29 be d7 9f cc 3d c6 a2 51 3e 43 67 24 3e
       -0.16508977 0.099914245 0.2047225 0.16055016
000380 73 86 f1 3d c5 2f 0e 3e 67 59 ea bd a7 76 99 3d
       0.11793222 0.1388541 -0.114428334 0.07493334
000390 60 5f 2e 3e 0f 5c 40 bb 11 08 10 3e d9 ff 90 3d
       0.1702857 -0.0029351746 0.14065577 0.07080049
0003a0 22 0d ee 3d 1f c2 74 3d 11 4c 0f be fe 34 17 be
       0.11623599 0.05975544 -0.13993861 -0.14766309
0003b0 cc 34 4e be 77 64 11 3d 4f b4 40 be d5 f1 dd 3d
       -0.20137328 0.0354962 -0.18818782 0.108371414
0003c0 eb 28 04 bd 51 4e eb bd 78 e6 47 be d5 f2 0a 3d
       -0.032265585 -0.11489547 -0.1952151 0.03392299
0003d0 1e 2c 31 be 06 e4 32 3d 2d ba 08 bc 07 75 61 be
       -0.17301986 0.04367449 -0.008345169 -0.22017299
0003e0 09 c7 b5 bd 39 c1 b9 bc 8e 91 64 3e 5b e1 47 be
       -0.088758536 -0.022675144 0.2232115 -0.1951956
0003f0 1a f7 93 3d 86 0d 1f be be 54 d1 bd 83 44 0b bd
       0.07224865 -0.15532503 -0.102212414 -0.034000885

Actor.fc1.bias f4 [32]
000000 f7 3e 9a be 39 68 90 3e c8 07 e6 3d e1 e8 cc 3e
       -0.30126163 0.28204516 0.11231953 0.40021423
000010 77 a2 72 be 8c 86 ce 3e 1b d1 3d 3d 43 29 fd be
       -0.23694788 0.40337026 0.046341997 -0.49445543
000020 ac 9b df be 3b 89 88 3e 0b e6 69 be d8 b9 7c be
       -0.43673456 0.266672 -0.2284166 -0.24680269
000030 36 2e 2e bf 51 9b 52 3e e5 f4 0f bf 56 f0 90 be
       -0.6803926 0.20567061 -0.56233054 -0.28308362
000040 ce fc 9a bd db 5c e4 3e 96 8e 0c bf bb 16 0e bf
       -0.0756775 0.44602093 -0.5490507 -0.55503434
000050 79 8a a9 3e 35 8a 7d 3e 5b 58 32 3f 39 83 13 3e
       0.3311346 0.24759753 0.6966607 0.14405526
000060 d2 af 20 3f c8 8f 7d be 8c 43 07 3e 4e 90 24 be
       0.6276828 -0.2476188 0.13209361 -0.16070673
000070 8b 2e 89 3e 20 47 f6 3e 10 c3 23 3f 32 3d 40 be
       0.26793322 0.4810114 0.63969517 -0.18773344

Actor.fc2.weight f4 [32, 32]
000000 73 6c 97 bd 88 b8 87 be b2 2c a7 bd a5 4a af bd
       -0.07393732 -0.26507974 -0.08162822 -0.08559159
000010 e9 0b d9 bd 94 3e 02 bf 14 41 9d 3d 03 7a f2 3e
       -0.10597975 -0.50876737 0.07678428 0.47358713
000020 40 78 dc bd e2 6f 46 be bd 80 2e 3e 30 8f 6d bd
       -0.10765123 -0.19378617 0.17041297 -0.057997882
000030 2c 0b ca bd f4 40 59 3d 53 fd 3b 3f f3 f9 56 bd
       -0.09865412 0.05304046 0.7343342 -0.052484464
000040 4e 00 aa 3c cc 3c cf bd 8d 1c cd bd f7 e6 c3 bc
       0.020752098 -0.10119018 -0.10015211 -0.023913844
000050 fd f9 e8 bd ec 42 f5 bd c8 3f 62 3c 4f 73 89 be
       -0.113758065 -0.11975655 0.013809152 -0.26845786
000060 6e 8e 22 bd 62 2d e2 3c 03 92 0d bf fd 36 60 ba
       -0.039686613 0.02760953 -0.5530092 -0.0008553116
000070 dd 3a e3 bc 80 7f a5 be 09 f4 b7 be b2 f2 0c 3c
       -0.02773803 -0.32323837 -0.35928372 0.008602785
000080 e2 b0 62 3d 25 46 16 bd cf c0 51 be ac 44 94 bd
       0.05534447 -0.03668799 -0.20483707 -0.072396606
000090 f9 d3 3d 3d 20 2a d0 bd 44 81 56 be 0c e0 04 be
       0.04634473 -0.10164285 -0.20947748 -0.12976092
0000a0 0e 1a 90 bd 8a 53 8c 3e 35 10 ea bd 25 f1 2c 3d
       -0.070362195 0.27407485 -0.114288725 0.04222216
0000b0 86 b5 fd 3c 8f df 45 be ad d5 d6 3c 3e cc 31 be
       0.030970346 -0.19323562 0.026224935 -0.17363068
0000c0 20 ab 97 be 79 45 fa bd 28 71 07 3f 44 91 b5 3d
       -0.29622746 -0.12220282 0.5290704 0.08865598
0000d0 bf 86 df be a9 d7 20 be 4a 9b fd bd 94 41 99 3d
       -0.4365749 -0.15707268 -0.12383135 0.07483211
0000e0 0c 02 f5 be 51 8a 1a 3e 98 b3 cf 3b cf b4 9c 3c
       -0.47853124 0.15091826 0.006338548 0.019129185
0000f0 73 85 44 be a6 7b 71 be 9b 86 30 be 8e 6b 9a 3e
       -0.19191532 -0.23582324 -0.17238848 0.30160183
000100 40 4d b2 bc 5a 0b da 3d ac 44 ff bc e6 56 dd 3d
       -0.021765351 0.106466964 -0.031160675 0.1080759
000110 90 46 30 be 62 55 9e 3e 7c fd 57 bd 43 86 0f 3e
       -0.17214417 0.30924517 -0.052731976 0.1401606
000120 50 2d 04 3e 5a 02 71 3e 50 05 03 be 5f 41 60 3e
       0.1290791 0.23536053 -0.12794995 0.21899937
000130 46 b6 ad 3e 7c 9c bc 3e 94 fd 0c bf 80 0f 3e bd
       0.33928126 0.36838138 -0.5507443 -0.0464015
000140 9f 20 3e be 54 ef 4c be 67 be 7d 3d b8 4f 86 3e
       -0.18567131 -0.20013171 0.06194916 0.26232696
000150 cc 82 83 3d 13 3c b8 3e d1 4d b9 3e 18 95 03 bd
       0.06421432 0.35983333 0.36192182 -0.03212461
000160 6d 4e 04 3f 42 e0 31 be a5 97 82 3e 5c 9a a4 3e
       0.5168217 -0.17370704 0.2550632 0.32149017
000170 1d 98 40 3d 75 cc 19 bc b4 bb 0a 3f 88 5a e2 bd
       0.047020067 -0.009387125 0.5419266 -0.11052424
000180 c3 8e 04 3d 88 09 19 be d7 8d 8c be 03 14 9c bd
       0.03236271 -0.14945042 -0.27451965 -0.076210044
000190 6d d4 09 3e 55 76 55 bd 3c 95 ae 3d 07 c0 1b 3e
       0.1345994 -0.052114803 0.08524558 0.15209971
0001a0 85 3b 2c be 9b ce 31 bc 02 e3 71 be 4b 36 90 be
       -0.1681958 -0.010852481 -0.23621753 -0.28166422
0001b0 20 a2 75 be 32 24 8c bd 1d 6a b8 bd 7e 30 98 3d
       -0.23987627 -0.06842841 -0.090046145 0.07431124
0001c0 55 16 51 3d f8 4f 4e be bc e4 19 3d 30 94 aa bd
       0.051046688 -0.20147693 0.037571654 -0.08329046
0001d0 4e 35 61 bd a5 4e c2 be 37 bb 44 3c 64 97 f1 3c
       -0.054982476 -0.37950626 0.012007526 0.029491134
0001e0 a1 fc c0 be fa a7 23 be 48 6d 7f bd 48 fa 46 be
       -0.3769274 -0.15982047 -0.062360078 -0.19431412
0001f0 6a 10 d3 bd 61 78 8f be ed 5b ac 3d 31 9d d5 bd
       -0.10305865 -0.2802153 0.08415971 -0.104303725
000200 fd 0e 5b bd 55 07 0d be 8c 1b 8f bd d9 02 8f 3d
       -0.05348109 -0.13772328 -0.06987676 0.06982965
000210 12 55 90 3d 9b 3e 0a be d4 39 50 be d7 a2 0c be
       0.07047476 -0.13500445 -0.2033456 -0.13733993
000220 92 5f 28 bd 2a 21 5a bd d2 71 16 3e 56 b6 97 be
       -0.041106768 -0.053254284 0.14691857 -0.296313
000230 62 47 45 be 76 fc 1b 3e 57 8c 94 3e ba 2f 68 bd
       -0.19265512 0.15233025 0.2901332 -0.05668614
000240 1f 4e 4a 3d 7d af 1a bb 8a d8 5f bd 3d 7d 02 be
       0.04939091 -0.0023603134 -0.054649867 -0.12743087
000250 c7 5e 14 3d b5 35 81 be 4c 61 a3 be e8 15 3a be
       0.0362232 -0.25236288 -0.3191017 -0.18172419
000260 cb 9a 6a be bc 86 02 3c fa 64 14 be b1 fe 69 be
       -0.22910611 0.0079666935 -0.14491645 -0.22851063
000270 d2 b6 6a bd 0d 5b 46 3e 65 00 45 be a9 fb 16 3e
       -0.057303257 0.1937067 -0.19238432 0.14744438
000280 d3 fa 99 bd 50 81 b3 3d 7c 68 01 be 26 c1 bb bd
       -0.07518544 0.08764899 -0.12637514 -0.091676995
000290 70 25 a9 3b 81 3c e6 3d 11 dd 9c bd 3f ac 4d be
       0.0051619336 0.11242009 -0.076593526 -0.20085238
0002a0 5d 57 20 be c7 43 7d be 4b 3a c8 bd 4b ed 22 3b
       -0.15658326 -0.24732886 -0.097767435 0.0024860676
0002b0 7a 5e 1c 3d 13 a5 b3 bd 42 e6 61 be d8 02 64 3d
       0.038176037 -0.0877172 -0.22060493 0.055666775
0002c0 1b 87 78 be d6 bb ac bc 6f 55 fd bd 8c 3e 1d be
       -0.24270289 -0.02108566 -0.12369811 -0.15355891
0002d0 0e a7 e9 bd f5 96 bd bd b7 f4 51 be e1 f9 97 bc
       -0.11408816 -0.092573084 -0.20503508 -0.018551769
0002e0 5b 9f 56 be 76 0c 19 3d 56 6d b5 3c 49 d6 0a be
       -0.20959227 0.0373654 0.022146862 -0.13558306
0002f0 80 31 a1 bb 6b ef 0c be 7e 2d 52 be aa c6 e2 bc
       -0.004919231 -0.13763206 -0.20525166 -0.027682621
000300 9f da b1 3d eb b5 05 be 71 ce 5a bd a2 14 44 bd
       0.08684277 -0.13057677 -0.053419534 -0.04787124
000310 da 2c 09 bd 53 77 eb bb 29 9c 28 bd 20 14 4a be
       -0.03349004 -0.0071858554 -0.04116455 -0.1973424
000320 80 75 8f 3d a8 9c 33 bd bf 95 eb bd c8 62 68 bd
       0.07004833 -0.04385057 -0.11503171 -0.05673483
000330 56 5c 41 be 12 78 16 bd 87 01 1e 3a 53 43 8d bc
       -0.1888288 -0.0367356 0.0006027449 -0.017244017
000340 94 20 18 bd d3 c3 94 bd b8 1a 87 3d fe b4 5a 3d
       -0.037140444 -0.07263913 0.06596893 0.053395264
000350 14 76 24 be 99 c3 78 be a7 17 20 be 10 7d 70 3d
       -0.16060668 -0.24293365 -0.15634023 0.05871302
000360 93 db 9c bc ca 32 36 be 37 6b f4 bc 18 82 55 bd
       -0.01914767 -0.17792812 -0.02983628 -0.05212602
000370 12 d8 42 3d 0c 12 13 3d 8f 22 5d bb f5 a4 f5 3c
       0.047569342 0.035905883 -0.0033742522 0.029985884
000380 2b 4a c6 bd d1 ea 4b bd 94 58 ce bc 69 5b c8 bd
       -0.09682115 -0.049784485 -0.025188722 -0.0978306
000390 33 6a 86 bc fa ad 6e be aa a7 72 3e c0 8c 07 be
       -0.016408062 -0.23308554 0.23696771 -0.13237286
0003a0 1d c2 49 3d 65 14 ba 3c 4e 5a 2c bd f5 5b 3e 3e
       0.049257386 0.022714803 -0.04207831 0.18589766
0003b0 2a 4b 48 bd cd 1e 5f be 3e ca e5 bd 7b 1d ad 3c
       -0.048899807 -0.21789093 -0.11220215 0.021132221
0003c0 5a bc 29 be 20 cf 2e be a9 00 f6 3d 51 7a 23 3e
       -0.16575757 -0.170712 0.12011845 0.15964629
0003d0 15 e8 9c 3d ae 05 94 bc 80 71 86 bc 6c ac 71 be
       0.07661454 -0.018069115 -0.016411543 -0.2360093
0003e0 1b 32 d6 bd 89 d4 9a 3d e7 78 40 be 89 bd c9 be
       -0.104587756 0.07560069 -0.1879612 -0.39402416
0003f0 75 a3 6e bd 3a ad 6f 3d 0e 81 d5 bd 31 be 10 3d
       -0.058261354 0.05851481 -0.10425006 0.03533763

Actor.fc2.bias f4 [32]
000000 0d 2d fe 3c f5 11 9a bd 71 ec 6b 3e 77 c6 33 be
       0.031027341 -0.07522956 0.23039414 -0.17556177
000010 ba 11 28 be 1d f1 2b be 3b 81 91 bd 65 51 1c bd
       -0.16413012 -0.16791196 -0.07104727 -0.03816356
000020 d3 7f cf be 47 9a 27 be 73 cf 34 bf cb f2 23 bf
       -0.4052721 -0.16367446 -0.7062904 -0.6404235
000030 3e 40 74 3e df 18 4d bd 27 4c 3b bd 4c 10 4b be
       0.23852631 -0.050072547 -0.04572692 -0.19830436
000040 8a 59 30 3f cb 05 17 3e 5a ae 30 be 13 88 b9 be
       0.68886626 0.14748304 -0.1725401 -0.3623663
000050 68 07 1b 3e 34 78 18 be 1f 80 9f bd a6 98 3c be
       0.15139544 -0.14889604 -0.07788109 -0.18417606
000060 8f fc 43 be 65 8f 50 bd 2d 35 d3 bd f4 07 03 be
       -0.19139312 -0.050918 -0.10312877 -0.12796003
000070 65 ae f4 3d e4 5e 05 be 65 cd ae 3d 68 72 36 be
       0.119473256 -0.13024479 0.0853527 -0.1781708

Actor.mean_fc3.weight f4 [17, 32]
000000 d4 41 5e 3d d4 24 44 bd e0 ad 13 be a9 85 17 3d
       0.054261997 -0.047886685 -0.14421797 0.036992703
000010 04 51 21 bf 90 9c 2d 3e 5c 68 3a be 03 12 3a 3d
       -0.63014245 0.16954255 -0.18203872 0.045427334
000020 17 ca 25 3e 27 ff 57 3e 0a 84 b4 3e 09 39 57 3e
       0.16190372 0.21093427 0.35256988 0.21017851
000030 ef 6e 1c be 5e cc 5b 3b 4c 25 ec 3e 55 9a 69 be
       -0.15276693 0.003353856 0.46122205 -0.22812779
000040 d7 04 51 bd 1e 29 47 be 25 fc 21 be 3a b6 34 bd
       -0.051030006 -0.19449279 -0.15818842 -0.044119097
000050 02 44 7c be 20 5b 99 3e 43 01 00 3e 80 1e 99 3e
       -0.24635318 0.29952335 0.12500481 0.29906082
000060 5a b7 08 be 7e 61 0d bd 04 58 4f 3e a7 c8 51 be
       -0.13351193 -0.034516804 0.20248419 -0.20486699
000070 02 59 39 3e ce 6c 1a 3c 5d 26 44 3d ec 22 9c be
       0.1810036 0.009425355 0.04788815 -0.30495393
000080 a7 1b a0 bd 90 76 2c bf cf f7 3d be 4a 9e b0 be
       -0.07817774 -0.6736841 -0.18551563 -0.34495765
000090 ac f0 4a 3e 0d d3 b7 be ce 67 4c 3e aa 54 d6 be
       0.19818372 -0.35903206 0.19961473 -0.4186147
0000a0 d6 7a 7a 3e 19 bb 2a be 46 55 29 be 4c d7 97 3d
       0.2446092 -0.16672935 -0.16536435 0.074141115
0000b0 7e 45 6e 3e 24 29 58 bd 20 9f b2 3d e1 a4 50 3d
       0.23268697 -0.05277361 0.08721757 0.05093849
0000c0 10 c5 e9 bd 5e be 8d be 5a a9 8e 3e 3e 8b 54 3d
       -0.1141454 -0.276843 0.2786358 0.051890604
0000d0 71 8a 8a b7 bb 31 6b 3d 08 52 ad 3d cb 91 05 3c
       -1.6515349e-05 0.057420474 0.08462912 0.0081524355
0000e0 4b cc 48 3e 73 b6 cd 3c 53 04 b9 3d aa 8c 5a 3c
       0.19609182 0.025111413 0.09034028 0.013339201
0000f0 56 b5 b5 3e d2 e5 a0 3e 6f ca 0d bf 83 b9 4e 3d
       0.3548991 0.3142534 -0.55387014 0.050469887
000100 59 c0 06 bf 94 02 d3 be d0 cd 18 3e e3 91 8e be
       -0.5263725 -0.41212904 0.14922261 -0.27845678
000110 44 eb 71 be f6 1f f8 be 37 a1 88 bd 67 42 50 bd
       -0.23624903 -0.48461884 -0.06671374 -0.050844576
000120 99 87 32 bd 1e bc 96 3b 65 98 0b bf e3 cc da bc
       -0.043586347 0.004600062 -0.5452941 -0.026709026
000130 47 23 41 3d 52 14 77 bd 17 e0 59 3e 14 31 a6 be
       0.047152784 -0.060322113 0.2127689 -0.3245932
000140 ef 64 33 3e 2b d4 6b 3e 16 63 7b 3e 8a 05 b7 bc
       0.17518972 0.23030154 0.24549517 -0.022341508
000150 f9 e0 f7 bd 03 16 03 3d cd 2f bc 3d 91 53 03 bd
       -0.12103457 0.032003414 0.09188805 -0.032062117
000160 86 d2 2e be 64 6a 7d bd 87 01 5d 3b 69 f2 b7 be
       -0.17072496 -0.06186904 0.0033722834 -0.35927132
000170 c5 c2 8c be c1 f2 e0 be d9 2f 99 be d2 17 c4 3e
       -0.27492347 -0.43935207 -0.29919317 0.38299423
000180 d1 48 d1 be 34 8c e3 bc 1a d2 fb 3e 1a af 23 3f
       -0.40875867 -0.027776815 0.49183732 0.6393906
000190 ea 40 d8 bd d8 4b b2 3d f5 6d 8b be 19 43 8b 3d
       -0.105592564 0.08705872 -0.27232328 0.06799907
0001a0 26 c7 72 bd 69 7a a0 3c 2d 4b d2 3c c4 86 a0 3e
       -0.059271954 0.01958962 0.025670612 0.31352818
0001b0 1a b1 c5 bd 7d 7b 96 3d b3 f4 02 3e ac 10 d1 3e
       -0.0965292 0.07347772 0.12788658 0.40833032
0001c0 3f c3 19 3d 08 f2 84 3b 4e e1 d0 3a de 49 7e bd
       0.037539717 0.0040571727 0.0015936287 -0.062082164
0001d0 e9 b2 22 3d 5b 45 29 be 41 3d b9 be 80 f1 7d 3e
       0.039721403 -0.16530363 -0.36179546 0.24799156
0001e0 93 38 0a 3e e2 a0 15 be fc f7 81 3e 4f c1 f5 3d
       0.13498144 -0.14612153 0.2538451 0.11999761
0001f0 56 b7 90 be 8c 0f aa be 08 20 cd be a2 d6 63 3e
       -0.28264874 -0.33214986 -0.400635 0.22249845
000200 67 22 b6 be 66 7a e1 be 65 55 4c 3d 0d a4 7c be
       -0.35573122 -0.44038695 0.049886126 -0.24671955
000210 c1 9f 80 be 54 66 dd 3e e8 fd bb bd f5 83 bf 3c
       -0.25121883 0.43242133 -0.09179288 0.023378352
000220 2b 64 96 be 40 55 9e bd 3f df dd be 41 19 54 3e
       -0.29373297 -0.07731104 -0.43334386 0.20712759
000230 71 3e 98 3e ff b1 9a 3e b7 d2 07 be 28 74 a6 3e
       0.2973514 0.30213925 -0.13263975 0.32510495
000240 24 12 08 be 16 fd 9e be 47 a9 31 bc 62 1a 72 be
       -0.1328817 -0.31052464 -0.0108435815 -0.23642877
000250 33 88 29 be a1 44 72 3e 1f bf c5 3e 4c 4e 5c be
       -0.16555862 0.23658992 0.38622376 -0.21514243
000260 e7 35 3d bd 6c 37 0d bd 96 ae 20 3e 5d 3a 62 be
       -0.046193983 -0.034476683 0.15691599 -0.22092576
000270 66 dc 38 3d 1b e9 0a be 54 46 f2 be 85 45 49 3e
       0.045132063 -0.13565485 -0.4731928 0.19655426
000280 09 9e a3 bd 99 73 ef bc df c6 de 3d a0 28 eb be
       -0.07989127 -0.029229926 0.108777754 -0.45929432
000290 09 c2 31 be b2 03 26 bd f4 83 ed 3e ee 99 33 3f
       -0.17359175 -0.040530868 0.46389735 0.70156753
0002a0 8f a1 38 bd 35 c2 27 be f0 73 42 3e f8 1d aa 3b
       -0.04507595 -0.16382678 0.18989539 0.005191561
0002b0 02 96 37 3e a8 08 ca 3d 2f a5 b7 be c5 e0 9f 3d
       0.17928317 0.09864932 -0.35868213 0.07806543
0002c0 92 b6 3d 3d fe 99 9f bd 54 39 46 3e da 07 fe 3d
       0.04631669 -0.077930436 0.19357806 0.12403841
0002d0 17 69 44 be 8e e8 13 3e ce 0f de bd 93 44 20 be
       -0.19180714 0.14444181 -0.10842858 -0.15651159
0002e0 55 d5 18 3f be 33 3f bd 92 3c 9c 3c db d6 3d 3c
       0.5970052 -0.046680205 0.01907185 0.01158687
0002f0 f4 6e 6e be d5 df 93 3e 66 4d bd bd 2b 60 f2 3d
       -0.23284513 0.28881708 -0.09243278 0.11834749
000300 fd da 69 3e 16 ce 52 be 8d 20 cf 3e 9c 4b 13 be
       0.22837444 -0.20586428 0.40454522 -0.14384311
000310 b1 12 23 3e 32 df a9 3e 1e 73 df bd d3 0d 14 be
       0.15925099 0.33178097 -0.10910629 -0.14458399
000320 05 b7 ed 3d 18 9d b4 bd 65 50 48 3e 7a b4 ab 3d
       0.11607174 -0.08819026 0.19561918 0.083840325
000330 05 71 82 be 3d 26 27 bd aa c9 f4 3d d4 93 95 3c
       -0.25476852 -0.04080795 0.11952527 0.018258967
000340 95 7b 7c 3e 44 d0 da bd 26 aa 7c 3e cf dc 23 3f
       0.24656518 -0.10684255 0.24674281 0.640088
000350 7d b7 77 3e 94 cd 81 bd 3b 96 97 bd 9f d9 34 3e
       0.24191089 -0.06338039 -0.07401701 0.17661141
000360 b5 37 65 3e 30 81 c9 be 02 18 f6 bd 1f 29 d6 be
       0.22384532 -0.39356375 -0.12016298 -0.41828248
000370 be 59 ac bc ba a3 8b 3e 0c 7e c2 be 94 82 46 be
       -0.021038886 0.2727335 -0.3798679 -0.19385749
000380 b9 07 31 3d 29 67 22 3e 0a 5c d5 bd cd a6 bb 3c
       0.043220256 0.15859665 -0.10417946 0.022906685
000390 e0 50 07 be f5 ef 34 bd a1 c0 8b be ae f3 dc 3d
       -0.13214445 -0.044174153 -0.27295402 0.10788666
0003a0 7c 19 1d 3e 9a 41 15 be 7d a1 c8 3b 38 e5 d2 3e
       0.15341753 -0.14575806 0.0061227665 0.41190505
0003b0 ed 00 11 bb 92 31 9f 3d 3d d1 a9 3c 74 d6 21 be
       -0.0022125796 0.07773127 0.020729655 -0.15804464
0003c0 c1 1c a5 bd 9e 7b 81 bc 2f 5d 0d 3e ff 1c 75 3e
       -0.08062125 -0.015806016 0.13805078 0.23936842
0003d0 f4 f8 ed be 67 2b f3 bd eb 4c 91 3e 7b 80 9c 3e
       -0.46479 -0.11873513 0.28378996 0.30566773
0003e0 87 99 80 be e1 8a cf 3e 77 97 c5 bd ed 93 55 be
       -0.25117132 0.40535644 -0.0964803 -0.2085721
0003f0 49 be f2 3d 21 90 fd be 7b b2 10 bd 1a bd 57 3e
       0.118527 -0.49524024 -0.035326462 0.2106823

Actor.mean_fc3.bias f4 [17]
000000 27 58 1a bd c7 90 c6 bd 4b 5d 04 3e a5 ae a6 3d
       -0.037681725 -0.09695583 0.12926213 0.081387796
000010 4e 85 58 3c 91 6e 8e 3d b0 84 8c bd 04 db bf 3c
       0.013215376 0.069546826 -0.06861246 0.023419864
000020 8c d7 22 be bf 0f 2b 3e 78 9a 0a be c6 7c 43 ba
       -0.15902537 0.16705225 -0.13535488 -0.00074572524
000030 b0 92 40 3d b3 15 08 be 07 df d6 3c 0d 0e f9 3c
       0.047014892 -0.13289528 0.026229395 0.030402208
000040 6d d4 d1 bd
       -0.10245595

Actor.log_std_fc3.weight f4 [17, 32]
000000 4d cd a9 be 1b cc 81 3e a4 8e 1f 3e 10 91 82 be
       -0.33164445 0.25351033 0.15581757 -0.255013
000010 ba 80 dd bd f4 5c a2 3d 8a 5f 35 3d 67 2f 03 bf
       -0.10815568 0.07927886 0.044280566 -0.51244205
000020 bd 5c 36 bf 1f a4 7a 3e 05 a9 3a bf c9 3d 60 be
       -0.7123526 0.2447667 -0.72914153 -0.21898569
000030 23 d5 79 3e 53 b2 47 bc 9e c2 a5 3c 2a dd 93 be
       0.24397711 -0.012188512 0.020234402 -0.28879672
000040 65 1c db 3e 35 26 e4 3e 4f 7d 6b be 68 75 75 3e
       0.427951 0.445604 -0.2299702 0.23970568
000050 d0 c2 a4 3e b4 8b 8f bb b6 e6 18 3d ad a8 a3 be
       0.3217988 -0.0043806676 0.037329398 -0.31964627
000060 ce ae c6 3a c1 d3 43 be f0 b0 9f 3d d8 58 da 3e
       0.0015158297 -0.19123746 0.0779742 0.42645907
000070 85 1d 31 bd 56 84 a2 3d 19 1a c9 bc 8e 1a aa 3e
       -0.043241043 0.07935397 -0.024548577 0.33223385
000080 02 49 c3 be c1 f3 3c be d3 90 f2 3e 71 14 d3 be
       -0.38141638 -0.1845236 0.47376117 -0.41226533
000090 50 78 bd 3e 0e 0a 0d bd 17 06 17 be 41 23 41 be
       0.37005854 -0.034433417 -0.14748417 -0.18861105
0000a0 7a 50 44 bb 05 0d b8 be ec be 33 bf ce 66 7f bd
       -0.0029955194 -0.35947433 -0.702132 -0.0623539
0000b0 d8 c6 e5 bb 94 bf cd 3d 49 34 48 be ac 4c 6f bd
       -0.0070122294 0.10046306 -0.19551195 -0.05842273
0000c0 c2 f4 c4 3e 82 ee 8b 3e 64 b5 8b 3d 8b c3 9d 3e
       0.38467985 0.27330405 0.06821707 0.3081325
0000d0 ac d4 e9 3e 22 00 5a bd a1 42 ac be 11 2b 74 bd
       0.45670068 -0.053222783 -0.33644584 -0.059611384
0000e0 f2 dc 12 3e 03 82 1e 3c 94 89 01 be bf ff 60 3d
       0.14342096 0.009674552 -0.12650138 0.0549314
0000f0 5c 09 b1 3e a3 29 83 3d a3 93 5e be 8e 26 37 bd
       0.34577453 0.06404426 -0.21736006 -0.044714503
000100 5f 70 91 be 7d 1d 98 be 11 bc 36 3e fe c5 5e bd
       -0.28406045 -0.29709998 0.17845179 -0.05438804
000110 f5 42 18 3d 79 62 f3 be c8 29 4f be c6 9a 9b 3d
       0.03717323 -0.47536066 -0.20230782 0.0759788
000120 07 9f 77 be d6 54 aa 3d d8 ea 3b bf d7 5a 9c bd
       -0.24181758 0.083169624 -0.7340522 -0.07634514
000130 9b af 32 3e c4 e3 98 bc 7b 08 10 3e 5e 45 12 3d
       0.174498 -0.018663295 0.14065735 0.035710685
000140 02 c0 11 3f 00 93 11 3e c8 0a df bb ff 98 b2 be
       0.56933606 0.14216232 -0.006806705 -0.34882352
000150 d3 d7 cb 3e 82 99 12 bf 36 50 9b be eb e2 e2 bd
       0.39813098 -0.57265484 -0.30334634 -0.110784374
000160 20 2f a8 be 0f c8 b3 bd 43 27 3c 3e 0d 60 9b 3d
       -0.32848454 -0.087783925 0.18374352 0.075866796
000170 c4 09 06 3f 8b 2a 91 bc b8 18 a8 3e ed 26 24 bb
       0.5235865 -0.017720481 0.3283136 -0.0025047616
000180 16 f1 20 bf c6 34 6b bd c4 5c 8d be c1 d7 8b be
       -0.6286787 -0.057423376 -0.27609837 -0.27313045
000190 db c8 ec 3a 5f 92 04 bf 28 95 4b be e0 a0 82 3e
       0.0018065231 -0.51785845 -0.19881117 0.25513363
0001a0 37 98 13 be 05 07 ce bf ff d7 cc bf 9a 7d 03 3e
       -0.14413534 -1.6095892 -1.6003417 0.12840882
0001b0 f6 c8 6a 3d 64 6d 7c bd a3 c0 22 bc 28 31 8f 3e
       0.057320558 -0.06162776 -0.0099336235 0.2796719
0001c0 15 0b ee 3e dc ff 89 3e f7 c8 83 bd 57 84 15 be
       0.4649283 0.26953018 -0.064348154 -0.14601265
0001d0 49 04 f5 3e 9e 99 2f bf 2c e9 78 be 78 3f a2 be
       0.47854832 -0.68593776 -0.24307698 -0.31689048
0001e0 4d b7 82 3e f9 2b 4b 3e 6e cb 01 3e 31 1b f5 bc
       0.25530472 0.19840993 0.12675259 -0.029920192
0001f0 7c b5 66 be ce 6f 52 3d 76 f0 5f 3d 87 6f 6b 3e
       -0.22530168 0.051376157 0.05467268 0.22991763
000200 7e 33 4b bf 10 d1 38 bd 97 1d 2e 3f 08 aa 90 3e
       -0.79375446 -0.045121253 0.680139 0.28254724
000210 31 77 25 be 1d 44 83 be b8 75 5a be ce 80 7b bf
       -0.16158749 -0.25637904 -0.21333969 -0.98243415
000220 ae 9d 2b bf 6b 05 12 bf 00 7d 94 bf 73 13 ee 3c
       -0.67037475 -0.5703952 -1.1600647 0.029062008
000230 d0 3a 88 be d3 5b c7 3e 06 24 15 bd 6e 66 d4 bd
       -0.2660737 0.38937244 -0.036411308 -0.103710994
000240 8f 72 e9 3e 20 b5 1f 3f 50 98 ce 3d 12 7b 81 3e
       0.45595214 0.6238575 0.10087645 0.25289208
000250 e3 4a 77 3e 97 bf 2f 3d c4 7c 4e be d5 93 04 3e
       0.24149661 0.042907324 -0.20164782 0.12947018
000260 4f fc 0b be eb 7a 44 bc bf 67 c6 bd 1b 47 af bd
       -0.13670467 -0.011992197 -0.09687757 -0.08558484
000270 e2 84 c7 3e bb 82 a0 3d 56 74 03 bf ce 0c 96 3e
       0.3896857 0.07837435 -0.5134939 0.29306644
000280 22 06 14 bf d6 ac 20 be c2 5a bf 3e bc 21 90 be
       -0.5782186 -0.15690932 0.3737393 -0.28150737
000290 fc 25 9d be 02 a4 bf bb 6f 48 c1 be c7 f5 bf 3d
       -0.30693042 -0.0058484087 -0.37750575 0.0937305
0002a0 dd 72 37 bf b3 e7 12 be 27 5d c3 be 90 a6 b1 bd
       -0.7165964 -0.14346199 -0.38157007 -0.086743474
0002b0 c2 34 2e 3e 76 c9 83 be 10 9a 9d bd b7 45 2c bd
       0.17012313 -0.2573964 -0.07695401 -0.042058673
0002c0 86 d9 4c 3e 60 dc b3 be 07 7a 3f be 36 d8 87 be
       0.20004854 -0.3512907 -0.18698893 -0.26532143
0002d0 b1 51 fe 3e be f3 93 be 3f 79 25 3d ea 5f 5d be
       0.496717 -0.28896898 0.040398832 -0.2161862
0002e0 97 5c a2 be e5 a3 a0 be e5 12 8d be 21 14 4d 3f
       -0.31711265 -0.31375042 -0.27553478 0.8010884
0002f0 4c f5 25 bd 75 36 0f 3e fa 3f 65 3e ab 7b 7c 3e
       -0.040517136 0.13985617 0.22387686 0.2465655
000300 34 79 d0 3e 33 36 bd bf 33 ab d7 bc c5 50 fa bb
       0.4071747 -1.4782165 -0.026326751 -0.007639023
000310 c7 68 6c be af 10 56 be fc 59 6c 3c e4 1d e7 3e
       -0.23086844 -0.20904802 0.014425751 0.45139992
000320 ed 2a 0a bf da 8e 15 c0 ee ce 06 c0 71 dd 0f bd
       -0.5397175 -2.336844 -2.10638 -0.035123292
000330 96 48 4b 3d 92 72 67 be fe 38 a2 be f6 fb cd be
       0.04962977 -0.22602299 -0.31684107 -0.40231293
000340 ec cb 56 3e f4 f6 b5 3d 35 c6 4a 3e de d9 81 3e
       0.20976228 0.08884993 0.19802172 0.25361532
000350 5c 54 3b 3d 66 99 6f 3e f9 c4 d5 be 41 c6 80 3e
       0.04573475 0.2339836 -0.4175184 0.25151256
000360 bf 93 b2 bd 27 fe 29 be d3 0e 8e bd 1d 28 a7 3c
       -0.087195866 -0.16600858 -0.06936421 0.02040487
000370 14 2e 21 be 57 90 7b 3e e6 9c 3e be 02 3b 80 be
       -0.15740234 0.2456678 -0.1861454 -0.2504502
000380 43 6e 04 be ea 21 5a bf b7 33 cc 3e 1f 77 99 bf
       -0.12932687 -0.85208 0.39883205 -1.1989478
000390 d2 19 33 3e 7b 5f 5a bd e5 40 4f bc 2d 4a 38 3e
       0.17490318 -0.053313714 -0.012649749 0.17997046
0003a0 69 4c db be 9d 2d 92 bf 04 4d e2 bd a9 a2 3b bf
       -0.42831734 -1.142017 -0.11049846 -0.73295075
0003b0 fa 63 d4 3e 62 1d 4e 3e db 47 a7 be c7 29 dc 3d
       0.41482526 0.20128396 -0.3267201 0.10750156
0003c0 5b b6 30 3e e2 a7 b9 3d 57 fb 95 bd c1 0c 83 3e
       0.17257063 0.09065224 -0.0732333 0.25595668
0003d0 3c 20 98 3e fe a3 a4 bd d6 95 1d bf 29 00 b6 bd
       0.29712093 -0.080390915 -0.61556756 -0.08886749
0003e0 93 7d 4b be c2 b0 0a bd d1 12 2a 3e c5 2e ea bd
       -0.19872122 -0.033859976 0.1660874 -0.11434702
0003f0 a7 b3 af 3e 53 9f ed bd c0 28 44 bf 55 91 c4 bd
       0.3431675 -0.11602654 -0.7662468 -0.095980324

Actor.log_std_fc3.bias f4 [17]
000000 52 af ce 3e 85 97 1f bd ba 9e cb 3e 86 e1 32 3d
       0.40368134 -0.03896286 0.39769536 0.043672107
000010 ef a3 d2 3e e2 3a 84 3e 09 e1 0b be 6e 8f dd 3e
       0.41140696 0.25826174 -0.13660063 0.4327349
000020 ca 18 99 bd e5 5b 89 3d 87 3c f5 3d 28 9c 7f 3e
       -0.07475431 0.067069806 0.11974435 0.24961913
000030 e3 0c 05 be 6d 1c e5 bd e8 8c e1 3d 8a c4 2d bc
       -0.12993197 -0.111870624 0.11013204 -0.010605941
000040 fd 45 a1 3e
       0.3149871

Critic.fc1.weight f4 [32, 378]
000000 d0 3d ef 3e 4d a7 82 3e 58 1e 59 3f 17 bf 40 3f
       0.46726847 0.25518265 0.84811926 0.7529158
000010 5e 38 11 bf a0 0d 95 3f 69 01 a8 be 4b 61 bb 3e
       -0.56726635 1.1644783 -0.32813576 0.36597666
000020 db a5 49 bf 85 03 11 3f d4 69 b9 3e ae 1e 22 bf
       -0.787687 0.56645995 0.36213553 -0.63328063
000030 10 88 79 3e f3 7c 79 be a5 dc 88 bf e9 87 b7 bd
       0.2436831 -0.2436407 -1.0692335 -0.0896147
000040 4f 7d 09 bf 0c 7f a3 be 69 bc d6 3e f0 54 3d 3f
       -0.5370683 -0.31932867 0.4194062 0.7395773
000050 05 77 f8 3e 7f 80 4c 3f c1 72 90 3e da fd 07 bf
       0.48528305 0.7988357 0.2821255 -0.5312172
000060 ec 9f 8f 3e b8 03 76 bb 83 24 1d bf 4c 4e 82 be
       0.28051698 -0.0037538838 -0.6138384 -0.2545036
000070 3a 72 15 3f e8 9a 30 3e ca 99 6c be 89 9f 20 be
       0.5837742 0.17246592 -0.23105541 -0.15685858
000080 1b 4b 9f 3e bd ce 5a 3c 74 ee 95 be ba c2 ae be
       0.31111988 0.013354954 -0.29283488 -0.3413294
000090 c4 05 9d be 91 34 6b be ca ac 85 3d 58 76 2f bd
       -0.3066846 -0.22969271 0.065270975 -0.04283747
0000a0 3d 6c 7b be 0a 4c 17 3e 6f b8 18 3e 17 fb 22 be
       -0.24553008 0.147751 0.14914106 -0.15916096
0000b0 00 58 89 3e fe 2a 63 3e 2f 09 e0 bd aa d7 3c bd
       0.2682495 0.22184369 -0.10939252 -0.04610411
0000c0 d1 2c 7c 3a ac 83 4b bd 89 95 19 bd d3 54 50 3d
       0.0009619715 -0.04968612 -0.037496123 0.050862145
0000d0 cd 9e d9 3c 35 15 9f 3c 1f 8e 6a bc 31 d2 88 bc
       0.02656498 0.019419292 -0.014316111 -0.01670179
0000e0 58 90 48 bd bd 61 65 3f 65 72 6f 3f 30 96 32 3f
       -0.048965782 0.8960226 0.9353393 0.6976042
0000f0 8d b1 83 bd 9f 9a 9f be a7 52 1b 3e 6f a4 9c 3e
       -0.064303495 -0.31172654 0.15168248 0.30594203
000100 48 29 94 3d 5f fb 5c 3f 0a 73 60 3f e6 fb 92 3f
       0.07234436 0.8632106 0.87675536 1.1483123
000110 bf 42 6b 3f 56 41 37 3f d6 8c 93 be cf 2b 50 3f
       0.9189872 0.7158407 -0.28818387 0.81316847
000120 f9 17 9c 3e 39 eb 27 bf cd cf 63 be 56 2e 7d 3f
       0.3048704 -0.65593296 -0.22247238 0.9889883
000130 83 65 62 3f 09 80 4a 3f 82 3d 87 3f 9b 68 78 3f
       0.88436145 0.79101616 1.0565646 0.97034615
000140 2a d6 e8 be 39 ea ea 3e 83 44 09 3f e0 db 82 bf
       -0.45475894 0.45881823 0.53620166 -1.022335
000150 7d e9 ce be 10 e5 c6 3e af d6 5d 3f ea ad 3a 3f
       -0.40412512 0.38846636 0.86655706 0.7292162
000160 10 10 49 3f e8 de 4b 3f 28 8c c7 be 35 73 81 be
       0.78540134 0.79637 -0.38974118 -0.25283208
000170 3e a6 43 bf f3 4d ad be 39 29 55 bf ae fc 4a bf
       -0.7642554 -0.33848533 -0.83266026 -0.7929181
000180 99 b3 57 3f 49 0c 7b 3f ae d4 72 3f 09 c5 93 3f
       0.8425842 0.9806562 0.94855773 1.1544505
000190 ef 2d 32 3f 3e d6 80 3e b9 74 5d bf 00 19 2c 3e
       0.6960134 0.25163454 -0.8650623 0.16806412
0001a0 13 cc 59 bf e8 4b 5b bf b2 8b 4a 3f 41 98 7d 3f
       -0.8507702 -0.856627 0.7911941 0.99060446
0001b0 8d 5d 7d 3f 18 89 9d 3f ca f6 b9 3e 57 5c 8c be
       0.9897087 1.2307463 0.36321098 -0.274142
0001c0 0b bc 71 bf 0b 5f b8 be 67 8c 63 bf 67 19 7d bf
       -0.94427556 -0.36010012 -0.8888611 -0.98866886
0001d0 e7 af 51 3f 9a 92 3b 3f ac 07 3a 3f b9 81 2c 3f
       0.8190903 0.7327057 0.72667956 0.6738544
0001e0 c9 ff 21 be e8 23 f5 3d 5c 8a 16 3f 3f de 93 3e
       -0.1582023 0.11969739 0.5880487 0.28880498
0001f0 d4 54 38 3f 41 cf 43 bf 25 76 4f 3f f3 d0 62 3f
       0.7200444 -0.7648812 0.8103965 0.8860008
000200 32 54 61 3f 1a f4 13 3f aa 9e 97 be 02 15 8b bd
       0.88019097 0.57794344 -0.2961324 -0.06791116
000210 51 ca d3 3e d0 0c a5 3e ff cd 31 3f d9 8a 19 bf
       0.41365293 0.32236338 0.6945495 -0.5997749
000220 45 c3 54 3f 8e 19 69 3f 88 e8 62 3f 2f 71 10 3f
       0.8311046 0.9105462 0.88636065 0.56422704
000230 c6 77 26 be c3 ad 92 be 13 26 cd 3e a6 0d fd 3d
       -0.16256627 -0.28648195 0.4006811 0.12356119
000240 4d f1 3b 3f f6 df 1b bf 21 40 4f 3f 3b 5b 58 3f
       0.7341507 -0.6088861 0.8095723 0.84514207
000250 bf 3f 59 3f 42 58 54 3f 5f ad 71 3f 93 a3 81 bf
       0.84862894 0.8294717 0.9440517 -1.0128044
000260 31 c2 3f 3f 1f c7 87 3f 85 f3 4b bf 09 41 54 3f
       0.7490569 1.0607642 -0.79668456 0.82911736
000270 ac 56 56 3f 06 31 3e 3f 59 94 54 3f 4a 23 3f 3f
       0.83726 0.74293554 0.8303886 0.7466322
000280 be 2c 19 3f 05 c7 41 bf 34 88 2e 3f 21 50 50 3f
       0.59833896 -0.75694305 0.6817658 0.81372267
000290 fc 9a 3f bf b4 03 55 3f e1 75 56 3f 0c 6e 64 3f
       -0.7484586 0.83208776 0.8377362 0.8923042
0002a0 45 04 69 3f 93 8c 87 3f a1 7b 96 bf e8 00 7e bf
       0.9102214 1.0589775 -1.1756479 -0.9922013
0002b0 30 34 49 bf ec 7a 7f 3f 40 20 69 3f 7a b2 52 3f
       -0.78595257 0.9979694 0.91064835 0.82303584
0002c0 26 12 56 3f 26 fc 52 3f b4 46 4f 3f f6 12 73 3f
       0.8362144 0.82416 0.8096726 0.9495081
0002d0 a0 7a 6d bf 26 a3 07 bf 16 34 99 be 59 a7 3e 3f
       -0.92765236 -0.5298332 -0.2992255 0.744741
0002e0 06 05 81 3f 92 48 a0 3e c5 83 62 3f 0d c3 db bc
       1.0079658 0.31305367 0.88482314 -0.026826406
0002f0 e2 bc 7a bc 6e 60 a0 bc d5 83 27 3c 8b d7 a7 bc
       -0.015303822 -0.019577231 0.010224302 -0.020488521
000300 4e 92 49 3d f3 40 86 3e fa b7 25 3f b2 14 cd bd
       0.049211793 0.26221427 0.6473385 -0.10013713
000310 3b 74 42 3c 26 30 0c 3e 95 c1 1a bf 4b d3 c0 3d
       0.011868532 0.13690242 -0.6045163 0.09415301
000320 72 f6 79 be ed 9a 84 be 98 62 39 3f 00 85 14 3d
       -0.24410418 -0.2589945 0.7241607 0.03625965
000330 9f 2d 0c bf f1 fb b2 3e b6 32 50 be 38 03 97 be
       -0.5475711 0.3495784 -0.20331845 -0.29494643
000340 25 5c 3b 3f ad 52 1c bd 58 09 0b bf 60 8f be be
       0.73187476 -0.038164783 -0.5431113 -0.3721876
000350 09 61 c2 be ab 8e 24 be 4a 39 c0 3e 16 57 b9 3d
       -0.37964657 -0.16070049 0.37543708 0.090498134
000360 a2 2d 23 bf 34 af a1 be 17 89 06 be f4 0f 23 be
       -0.63741505 -0.31578982 -0.13138233 -0.15924054
000370 32 f2 c4 3e 84 41 e0 3e a3 12 47 bf 04 83 c9 be
       0.3846603 0.43799984 -0.7776281 -0.3935777
000380 1a 02 fa bd f0 df 80 be 97 7d ca 3e 32 c5 dc 3e
       -0.12207432 -0.2517085 0.39548942 0.43119198
000390 2e 8c 42 bf 31 19 72 3e 41 af 9c 3d 46 fe d1 be
       -0.7599515 0.23642422 0.076506145 -0.41014308
0003a0 8b dd 18 3f a2 69 7a bd bf fb 03 bf 30 65 25 3e
       0.5971305 -0.061135896 -0.5155601 0.16151881
0003b0 11 1c 08 3e 82 63 cf bd 30 9f ac 3e 0e 51 08 3e
       0.13291956 -0.101264015 0.337152 0.1331217
0003c0 76 a2 92 be 0c 21 5d 3e 05 ff fb 3d 96 c4 ec bd
       -0.28639573 0.21594638 0.123045005 -0.11560933
0003d0 22 a3 c7 3e 36 e4 ea 3d dc 8e b9 be d8 9c d1 3e
       0.38991648 0.11469309 -0.36241806 0.40939975
0003e0 36 ff 0a 3f 2b ae 39 3e 68 d2 e2 3d 6c 99 f2 3e
       0.5429567 0.18132846 0.11075288 0.47382677
0003f0 27 91 e4 be b5 14 de 3e 11 0b fb 3e ba 1f a9 3d
       -0.44641992 0.43375173 0.4903188 0.082580045

Critic.fc1.bias f4 [32]
000000 e2 91 5c 3f 1b d7 c9 be 80 84 61 be 4c 13 12 bf
       0.861601 -0.39421925 -0.22023201 -0.57060695
000010 ae f6 25 3f 46 1e a4 3d 42 9e 0d bd 8a f3 c1 3e
       0.6482953 0.08013587 -0.034574755 0.37881118
000020 3f 86 55 3e 42 c0 ee be b4 ef 8c be ff 75 96 3d
       0.20851992 -0.46631056 -0.2752663 0.07346725
000030 a9 76 73 3e f0 a3 ba 3d 96 d8 f6 be 47 1f 30 bf
       0.23775734 0.091133 -0.48212117 -0.68797725
000040 e3 dd 0c be 42 1a ee bd e6 dc 84 3c 81 1c 9a be
       -0.13756518 -0.11626102 0.016218614 -0.30099872
000050 c8 7e a1 be c0 45 c6 3e 70 b3 09 bf c2 17 a5 be
       -0.3154204 0.3872509 -0.53789425 -0.32244688
000060 d6 83 d9 3e e0 0e a2 3f 3d e4 f4 be ce 26 ee be
       0.42483395 1.266079 -0.47830382 -0.4651398
000070 9f 42 ff bd 38 d7 9b be 02 23 12 3e 60 95 b9 be
       -0.12463879 -0.30437636 0.14271167 -0.36246777

Critic.fc2.weight f4 [32, 32]
000000 f2 01 ce bd 59 e5 23 3c 46 87 15 be 17 06 85 3d
       -0.10058965 0.010003411 -0.14602384 0.06495302
000010 9f 1e f2 bd 01 c3 00 bd f2 b8 97 3d 22 0a bf bc
       -0.11822247 -0.03143597 0.074083224 -0.023320261
000020 c9 e6 39 be f5 b0 35 bc 1c ac d2 bd a8 f4 e8 3b
       -0.18154444 -0.011089553 -0.102867335 0.0071092434
000030 db c9 16 be a7 fd 2e be 93 71 f8 bd 3b ba e9 bb
       -0.14725439 -0.17088948 -0.121310376 -0.007132796
000040 be bb fd bd 99 4e 9b bd de f6 c0 bd 49 2c 8d bd
       -0.123893246 -0.07583351 -0.09422086 -0.06893212
000050 1c f6 8f 3d 4a 94 c9 bd a9 10 21 be 18 63 46 3e
       0.070293635 -0.09842737 -0.15729012 0.19373739
000060 0e be 40 bd 23 63 4c be c8 0a 6d 3d 77 8a 7f be
       -0.04705625 -0.19959693 0.05787161 -0.24955164
000070 1a 92 08 be e6 41 11 bd c2 bb 3e bc 01 71 c0 bd
       -0.13336983 -0.035463236 -0.011641445 -0.09396554
000080 af dd 92 be 3e fd a9 bd b7 07 7f be 70 10 aa be
       -0.28684756 -0.08300255 -0.24905287 -0.33215666
000090 99 ae 71 bd 55 d8 55 be 76 f0 c3 3d bc 7f e0 be
       -0.0590044 -0.20883305 0.09567349 -0.43847454
0000a0 82 1c b6 bb 2e 90 75 be 39 5a b8 be 38 5d 37 be
       -0.0055575976 -0.23980781 -0.36006334 -0.17906654
0000b0 64 91 0f 3d 61 8f 63 be 8a 0c 2c be cd 1e 6b be
       0.035050765 -0.22222663 -0.16801658 -0.22960968
0000c0 66 51 2e be 3c aa 49 3d 5d d7 20 bd dc 42 64 bd
       -0.17023239 0.049234614 -0.039267886 -0.055727825
0000d0 d0 00 1a be 12 06 32 bd 31 3d 13 be 1d bf a4 bd
       -0.15039372 -0.04346282 -0.14378811 -0.080442645
0000e0 d6 0b 02 be ed 94 d1 bd f7 9e 7e bd dc 3b ce bd
       -0.12699828 -0.102334835 -0.06216332 -0.10070011
0000f0 ec 95 18 be cb e5 b7 bb e2 84 57 3c 1c 30 c9 be
       -0.1490094 -0.0056121103 0.01315424 -0.39294517
000100 a3 33 72 be d9 43 a2 3d 1c 5c 76 3d 46 90 73 3d
       -0.2365251 0.07923097 0.060146436 0.05946376
000110 1a 7e 6b be fc 98 8d 3c cf a4 02 be 9f 02 44 be
       -0.22997323 0.017284863 -0.12758182 -0.19141625
000120 c1 16 cd bd c2 74 97 3d 9e 0d 1e be 6b 40 f4 bd
       -0.100141056 0.07395317 -0.15434882 -0.11926349
000130 b0 21 bd 3d ed f2 c2 bd 93 36 1b 3d a3 ee 28 be
       0.09234941 -0.09518991 0.037893843 -0.16497283
000140 7c 3f 62 be 01 1b 44 bd 13 cc 98 bd cb 3a f8 bd
       -0.2209453 -0.047877315 -0.07460799 -0.12120589
000150 96 d8 0b be 91 b5 fb 3c 8a a4 2a 3d 3e ba f1 bb
       -0.1365684 0.030726226 0.041660823 -0.007376938
000160 5e 21 32 bc 02 86 52 be b9 da 55 be 04 a4 1a be
       -0.010872213 -0.20558932 -0.20884217 -0.1510163
000170 f4 d9 72 be 96 6e b6 bd 72 5f 60 3b 9c 73 5c be
       -0.23715955 -0.08907811 0.0034236577 -0.21528476
000180 90 eb 80 bd bf b1 e9 bd d1 b1 ea 3d 25 82 44 3d
       -0.0629493 -0.114108555 0.11459697 0.047975678
000190 74 e4 47 be e2 9a 77 bd f8 22 d4 bd da d1 0a be
       -0.19520742 -0.060450442 -0.10358232 -0.13556615
0001a0 ef b4 2e 3e 5a ff 01 be 73 3d 23 3d 7e 5d f6 3d
       0.17061208 -0.12695065 0.039853524 0.12029551
0001b0 8d f0 91 bd e1 c1 94 3b 86 ec 4f bb 25 31 a4 be
       -0.071259595 0.0045397137 -0.0031726672 -0.32068744
0001c0 14 be 01 3c 60 69 b2 3d 61 b1 24 be 77 c0 4b 3d
       0.007918853 0.08711505 -0.1608329 0.049744096
0001d0 2c 32 9c bd 89 43 a6 bc d7 f7 18 bb e5 8d 03 be
       -0.07626757 -0.020295875 -0.0023341083 -0.12847097
0001e0 97 64 9f bd b6 60 16 be cf 88 92 3d c3 44 25 be
       -0.07782858 -0.1468533 0.071550004 -0.16139512
0001f0 2b cb 36 bd 38 7d 5e bd 06 64 83 bd 21 23 88 bd
       -0.04462735 -0.054318637 -0.06415562 -0.06647325
000200 6a 1d d5 bd bd a2 f7 bd 7a 1c ff 3c 28 63 8f 3d
       -0.10406001 -0.12091587 0.031141508 0.070013344
000210 ce 55 6f 3c f0 c5 2c be 24 d3 99 3b 04 db 0e be
       0.01460786 -0.16872382 0.0046943594 -0.13950735
000220 a1 c3 95 be 46 d5 c7 3d 67 74 43 be 83 c1 b4 3c
       -0.29250816 0.097574756 -0.19087373 0.02206493
000230 13 79 87 3d 78 12 10 bb 5c 50 57 be 82 25 8f 3c
       0.0661489 -0.0021983664 -0.21026748 0.01747394
000240 42 3e 97 be d5 ad 0f 3d 86 fc d4 bc b6 fa 34 3c
       -0.29539686 0.03507789 -0.025999319 0.011046102
000250 e6 b0 04 3e 9d 04 12 be 61 db 48 be 40 8f d7 3d
       0.12958106 -0.14259572 -0.19614936 0.1052537
000260 7f 30 3f bc 35 1d 64 be a2 d4 03 3e e0 2a fd bd
       -0.011669277 -0.22276767 0.12874082 -0.123616934
000270 07 32 73 be 79 ca a1 bd c1 83 d7 3d 12 2e 4b be
       -0.23749553 -0.07899947 0.10523177 -0.19841793
000280 58 e8 8d bd 94 37 c2 bc 8c c7 3f 3e da 66 ca bd
       -0.06929082 -0.023708142 0.18728465 -0.09882899
000290 d6 a5 e7 3c c2 2e 73 bd 1a ad 02 be e9 3c 03 be
       0.028277319 -0.059370764 -0.12761346 -0.12816204
0002a0 f8 5f 96 3d c8 14 59 bd 5d ec 17 3d 39 3b 89 bd
       0.07342523 -0.052998334 0.037090648 -0.06700749
0002b0 0b 1b 32 be 7a 92 80 bc 35 20 96 3d e7 77 e5 bd
       -0.17393129 -0.015694845 0.07330362 -0.1120451
0002c0 c3 33 07 be 8f d6 d6 3d 7c 05 7b 3d 1c fa 44 bd
       -0.1320334 0.104901426 0.061284527 -0.048090085
0002d0 e4 19 9c bd ab b0 5d be b3 3c 48 be 71 e6 52 3e
       -0.07622126 -0.21649425 -0.19554405 0.20595719
0002e0 5f 92 0c 3d 76 40 7d be 99 64 7f bd f1 06 fb bd
       0.034319278 -0.24731621 -0.062351797 -0.12257183
0002f0 42 7b d4 3b 0b bf 75 be 85 5d ae bd e6 4e 41 be
       0.00648442 -0.23998658 -0.08513931 -0.18877754
000300 24 79 cc be 05 e7 9b bc cd c4 45 bd 16 b2 ae be
       -0.39936173 -0.019031057 -0.048283387 -0.34120244
000310 1a b9 ef be 08 64 55 3e 22 49 27 3e d1 9e 94 be
       -0.4682091 0.2083894 0.16336492 -0.29027417
000320 38 ad 26 be 19 bd 7c be 21 57 df be 9c 58 1d 3e
       -0.16277015 -0.2468151 -0.43621162 0.15365833
000330 8d 23 2f be b7 69 bf be 74 4c 0e 3e aa df 91 bd
       -0.17103405 -0.37385342 0.13896352 -0.07122739
000340 9d 08 82 3e 9b 89 22 be 1e 76 2f bd 65 43 99 3e
       0.25397196 -0.15872805 -0.042837255 0.2993423
000350 f5 44 0c be 25 7f 1f be 9f b0 89 be 35 36 ac bd
       -0.1369818 -0.15575846 -0.26892564 -0.08408777
000360 ce 8d 4f be 7a 45 84 be 9e 9c 2e bd 58 4a 67 bd
       -0.20268938 -0.25834256 -0.04262983 -0.056467384
000370 f4 7c 0a be 0c 1d 6e bd 6f 89 99 be 4a 6c d4 3c
       -0.13524228 -0.05813317 -0.29987666 0.025930542
000380 ed 46 78 be ed 32 28 bb 77 64 20 3e 3b c1 b7 3e
       -0.24245806 -0.002566512 0.15663324 0.3588961
000390 4f 4e 5c be 1a 92 da be e3 2c 69 3c c2 7c 7a 3e
       -0.21514247 -0.42689592 0.014231893 0.24461654
0003a0 d6 47 95 be 81 bf 33 3d 39 b7 e7 3c 06 b7 b4 be
       -0.2915637 0.043883804 0.02828561 -0.35295886
0003b0 b5 69 83 be 35 d7 0b bf b6 a0 52 bd f5 cf be 3d
       -0.25666586 -0.54625255 -0.051422797 0.093170084
0003c0 1c 94 b8 be 57 24 a5 3d ed 96 2b be 86 0e 88 be
       -0.36050498 0.08063572 -0.16756792 -0.2657358
0003d0 ca 74 57 3e 5b 4e 53 be e4 d9 0c 3e 21 d2 c6 bd
       0.21040645 -0.20635359 0.13754994 -0.09708048
0003e0 ae 59 24 be e5 b9 2e be 91 ed ee 3d 33 5a e1 3c
       -0.16049835 -0.170631 0.11666406 0.02750883
0003f0 1f e9 b4 3e 26 1a a5 bb b9 56 a2 be 54 45 69 3e
       0.35334107 -0.0050385175 -0.3170679 0.22780353

Critic.fc2.bias f4 [32]
000000 4c 64 a2 3d 4f 5f 9d be da ec 80 bd 61 d2 3b 3f
       0.07929286 -0.30736777 -0.06295176 0.7336789
000010 b2 57 73 be 59 da 3c bd 8d 13 a4 bd 19 70 bf 3f
       -0.23763922 -0.04610667 -0.080115415 1.4956084
000020 c9 a7 a6 3c 1e 03 98 be 8c c9 b0 be ab 98 88 be
       0.020343678 -0.29689878 -0.34528768 -0.26678976
000030 14 4f d9 3e 84 3f c4 bd 54 67 92 3d f9 cb 0a be
       0.42443144 -0.09582427 0.071486145 -0.13554372
000040 bb 87 7a be 59 69 d3 be c8 ec b4 3c fb 4e d2 be
       -0.2446584 -0.4129131 0.022085562 -0.41075882
000050 76 04 f7 bd f4 b7 0b be a0 90 3b be ab 38 83 3c
       -0.12061398 -0.13644391 -0.18316889 0.016018232
000060 ec 3a 06 be 8e 39 0d bf cd 32 bc 3c c3 27 ba be
       -0.13108414 -0.55165946 0.022973442 -0.3635846
000070 b7 4a ab 3e 30 d3 18 be 6a 7b 88 be 8c 5f 26 be
       0.3345544 -0.14924312 -0.26656657 -0.16247386

Critic.fc3.weight f4 [1, 32]
000000 1b 51 fb 3d 7e 69 19 3e 3a bb 25 3d 4e 48 85 bd
       0.12271329 0.14981648 0.040461756 -0.06507932
000010 e8 91 43 bd 53 81 73 bb 4c f6 64 3e 3d 7d 95 bd
       -0.04774657 -0.003715594 0.2235958 -0.07299278
000020 14 20 ba bd 43 6c 90 bd 7e d1 40 3e e2 93 b9 3c
       -0.0908815 -0.07051899 0.18829915 0.022653524
000030 f1 e5 52 3c c0 88 c1 3b 93 f8 96 3c 37 39 36 3d
       0.012872205 0.0059061944 0.018429076 0.044488158
000040 4a e0 07 be e2 9c f8 3d ba 24 c8 ba 57 ba 4e 3e
       -0.13269153 0.12139298 -0.0015269734 0.2018827
000050 de b8 91 bd 15 5a fd bc 78 89 0d 3d 36 44 01 bc
       -0.07115339 -0.030926744 0.03455493 -0.007889798
000060 db 60 2c 3c 1e f7 ba bd 0d aa 5c 3d 13 3a 54 3e
       0.010521139 -0.09129165 0.05387311 0.20725279
000070 6c 67 ab 3d 02 8f 04 3c be a8 ce 3b f6 ce 4c 3e
       0.083693355 0.008090736 0.0063067367 0.20000824
