model_4.pt (torch, 114732 bytes, 13 tensors)

Actor.fc1.weight f4 [32, 378]
-0.020681707 -0.011313999 0.04977639 0.07823806 -0.032250565 0.055526283 0.027260698 0.008439136
-0.009277183 0.010489478 -0.018814491 0.044765964 -0.04724933 -0.03864919 -0.013617884 0.03454898
-0.063597225 -0.09014345 0.07733132 -0.04189773 -0.081752054 -0.080644116 0.1102231 -0.03640187
-0.0400925 -0.0038144558 -0.053869415 0.02473995 0.058494832 -0.014442414 0.028236613 -0.07519532
0.011372666 0.035178237 0.015015836 0.036833797 -0.014291835 -0.031734172 0.043345973 0.009781939
0.02107473 0.051735044 -0.07678459 -0.08561134 -0.0886979 0.067347944 -0.00011433829 1.3182e-41
3.46196e-40 -1.5249e-41 3.028e-42 2.7853754e-21 -1.1512173e-29 -5.0370675e-22 2.6148e-41 -1.1498e-41
-9.57852e-39 0.048853204 0.068554625 0.077415295 0.0060834885 0.0058224187 0.0043569542 -0.038017046
-0.0024125937 0.014626372 0.070329025 0.07070927 0.027092502 0.042244542 -0.0028100065 0.05593411
-0.004737133 -0.039479498 -0.02692477 0.06940585 -0.0026882808 -0.008009807 0.021438269 0.05806992
0.01761891 0.037688423 0.00096819527 -0.05170809 -0.030806256 0.07312428 0.06459258 0.05874655
0.05872536 0.018301569 0.0061911005 0.0504697 -0.059904605 -0.008479988 0.0047464757 0.005797112
-0.0022164937 0.0030347009 -0.0006810574 0.047780667 0.028259343 0.022465963 -0.06403308 0.054649703
-0.0032079301 -0.06954288 0.07059663 0.030475356 0.003907698 0.06393354 -0.040028706 -0.05596555
0.012418771 -0.002841089 -0.004716223 0.0050814925 0.02136989 0.07774346 0.036978435 0.030519798
-0.05773651 0.056292895 0.06383121 0.07130229 0.036181595 0.0008887004 0.023938628 0.04071534
-0.009498787 0.016277013 -0.033467732 0.01938352 0.08198621 0.012862095 0.043694295 -0.056532763
0.0053827465 0.024967656 0.057424244 0.045911502 0.05220124 -0.062057808 0.007848828 -0.041054778
0.04286727 -0.017115977 0.059069175 0.026585942 0.08505295 0.03921707 0.0030735282 -0.02664252
0.01405705 0.039246753 -0.04952227 0.0030504984 0.007850559 -0.016128253 0.05864929 0.057866454
0.030611765 -0.039598346 0.017030213 0.01001423 -0.08385577 0.072015874 0.040243804 0.03788599
0.038271815 0.066626914 -0.0012247215 -0.021746762 -0.006740251 0.032025497 0.015315409 0.019888543
0.08136461 -0.0037422834 0.03600594 0.051636055 0.012238247 -0.051041864 -0.06780548 0.028905962
0.047369245 0.024450962 0.077450365 -7.151e-42 4.9078048e-29 3.1554478e-20 -9.648229e-21 -1.4314754e-23
3.2671e-41 0.017196044 0.0011975194 -0.0074482146 -0.0054076267 -0.01377059 -0.051759753 -0.03819345
-0.07387156 -0.028909475 0.012710463 -0.01917037 -0.03975416 0.04485677 -0.00516416 0.019327141
-0.008728772 -0.01597244 -0.0015278424 0.0073925895 0.0018854262 -0.022207506 0.03459367 -0.021822669
-0.055946704 0.04533434 0.08200655 0.055934127 0.024481088 0.011312806 0.032006383 0.0053451015
0.09259966 -0.01597285 0.05925804 -0.0032144352 0.018900571 -0.01073972 0.013678516 -0.032569736
0.046527673 0.032666516 0.0021324016 -0.03853384 0.05126241 0.025814736 0.05069237 -0.029739073
-0.029024255 0.02677153 0.08003004 0.016820535 0.020677898 0.0131409 0.0072598755 0.024977917
0.098655485 0.057821415 -0.06444956 0.12784187 -0.008092314 0.06936009 0.096656196 -0.14612322
00000000: af6c a9bc 5a5e 39bc 54e2 4b3d 473b a03d
00000010: 2b19 04bd 876f 633d d451 df3c 4d44 0a3c
00000020: 53ff 17bc 0fdc 2b3c d920 9abc 845c 373d
00000030: 8388 41bd 9d4e 1ebd 8c1d 5fbc 3b83 0d3d
00000040: 433f 82bd 219d b8bd e25f 9e3d f49c 2bbd
00000050: 9f6d a7bd be28 a5bd a6bc e13d 211a 15bd
00000060: 0938 24bd f3fb 79bb 2da6 5cbd 70ab ca3c
00000070: 4798 6f3d e09f 6cbc 7850 e73c 0100 9abd
00000080: 6b54 3a3c 0e17 103d fb04 763c 09df 163d
00000090: 4d28 6abc b1fb 01bd 8c8b 313d 6d44 203c
000000a0: eaa4 ac3c 20e8 533d 3d41 9dbd 0055 afbd
000000b0: 3fa7 b5bd b8ed 893d e7c8 efb8 bf24 0000
000000c0: 0ec5 0300 822a 0080 7108 0000 ff74 521d
000000d0: 9f7e 698f 6c3c 189c e448 0000 0d20 0080
000000e0: 044d 6880 4c1a 483d 5e66 8c3d e98b 9e3d
000000f0: 0058 c73b fdc9 be3b c8c4 8e3b c3b7 1bbd
00000100: 9b1c 1ebb 73a3 6f3c aa08 903d 06d0 903d
00000110: 18f1 dd3c 9d08 2d3d 1628 38bb 2a1b 653d
00000120: f439 9bbb 41b5 21bd 5691 dcbc a724 8e3d
00000130: de2d 30bb 913b 03bc 4f9f af3c b9da 6d3d
00000140: 8855 903c 2d5f 1a3d 7cce 7d3a ddcb 53bd
00000150: 675d fcbc 2fc2 953d 1d49 843d 39a0 703d
00000160: 018a 703d 2ced 953c b7de ca3b 51b9 4e3d
00000170: 885e 75bd a6ef 0abc 5388 9b3b b3f5 bd3b
00000180: 9842 11bb d5e1 463b fd88 32ba a9b5 433d
00000190: 2380 e73c 8a0a b83c c723 83bd 5ed8 5f3d
000001a0: 233c 52bb 7f6c 8ebd f794 903d 74a7 f93c
000001b0: 260c 803b 96ef 823d 24f5 23bd 223c 65bd
000001c0: 1a78 4b3c 9031 3abb 8c8a 9abb a682 a63b
000001d0: e80f af3c f737 9f3d b376 173d a804 fa3c
000001e0: 1e7d 6cbd 6193 663d f0b9 823d ef06 923d
000001f0: 2733 143d adf7 683a f11a c43c 21c5 263d
00000200: cda0 1bbc 5f57 853c 7615 09bd 30ca 9e3c
00000210: 63e8 a73d 89bb 523c caf8 323d e68e 67bd
00000220: c061 b03b f888 cc3c af35 6b3d b30d 3c3d
00000230: f8d0 553d 5430 7ebd 5f98 003c 0e29 28bd
00000240: 9795 2f3d ce36 8cbc 85f2 713d c3ca d93c
00000250: 3e30 ae3d 14a2 203d 3f6d 493b 6a41 dabc
00000260: 8b4f 663c 34c1 203d ddd7 4abd dfea 473b
00000270: a29f 003c 661f 84bc 3d3a 703d 6005 6d3d
00000280: 86c5 fa3c e031 22bd f282 8b3c ba12 243c
00000290: 93bc abbd 0f7d 933d b0d6 243d 572e 1b3d
000002a0: e8c2 1c3d b173 883d d686 a0ba 4426 b2bc
000002b0: 53dd dcbb 2b2d 033d 7bed 7a3c 4ced a23c
000002c0: 7da2 a63d 1941 75bb f77a 133d 5480 533d
000002d0: ee82 483c 4611 51bd 99dd 8abd 32cc ec3c
000002e0: 4106 423d 624d c83c 4c9e 9e3d ef13 0080
000002f0: f3da 7810 0603 151f f93f 369e 9d71 8a99
00000300: 135b 0000 b8de 8c3c 15f6 9c3a 2710 f4bb
00000310: 7632 b1bb 0a9e 61bc 0902 54bd bc70 1cbd
00000320: f949 97bd 90d3 ecbc 8c3f 503c 2e0b 9dbc
00000330: 42d5 22bd bcbb 373d 1d38 a9bb f453 9e3c
00000340: 2003 0fbc a2d8 82bc e241 c8ba 893d f23b
00000350: 6820 f73a 84ec b5bc 18b2 0d3d 74c5 b2bc
00000360: 5f28 65bd 80b0 393d 0df3 a73d 2f1b 653d
00000370: 908c c83c 5959 393c 2019 033d f625 af3b
00000380: e4a4 bd3d 7fd9 82bc 8fb8 723d 46a9 52bb
00000390: 5fd5 9a3c a7f5 2fbc db1b 603c d867 05bd
000003a0: cd93 3e3d 53cd 053d c3bf 0b3b a9d5 1dbd
000003b0: 88f8 513d 6d79 d33c cda2 4f3d 5b9f f3bc
000003c0: 46c4 edbc f84f db3c cae6 a33d 38cb 893c
000003d0: b264 a93c ee4c 573c 40e4 ed3b 7d9e cc3c
000003e0: e30b ca3d 26d6 6c3d 22fe 83bd fbe8 023e
000003f0: a095 04bc aa0c 8e3d aff3 c53d 53a1 15be

Actor.fc1.bias f4 [32]
0.08263676 0.05044588 -0.03838442 0.08978202 0.11393824 -0.0417323 0.12296601 -0.014483723
0.0010016763 0.022778431 0.019803023 -0.006975545 0.11509376 0.07691347 0.003816349 -0.00013647873
-2.237554e-05 0.039803337 0.059863456 0.10122261 0.0011998519 -0.0322593 -0.003188165 0.021192105
-0.011124205 0.013787221 0.049939852 0.1138169 -6.56433e-05 0.056982223 -0.030847272 0.107391186
00000000: 763d a93d 57a0 4e3d fb38 1dbd a3df b73d
00000010: 7458 e93d 7def 2abd 9ad5 fb3d 234d 6dbc
00000020: ae4a 833a d599 ba3c f339 a23c 1d93 e4bb
00000030: 47b6 eb3d cf84 9d3d b61b 7a3b bb1b 0fb9
00000040: 1bb3 bbb7 d308 233d 6233 753d cd4d cf3d
00000050: 5944 9d3a 5422 04bd 88f0 50bb 119b ad3c
00000060: 4c42 36bc cce3 613c bb8d 4c3d d618 e93d
00000070: faa9 89b8 3166 693d 6bb3 fcbc e9ef db3d

Actor.fc2.weight f4 [32, 32]
-0.034038655 0.13202311 0.014349377 0.20762768 -0.044616837 -0.09127456 0.103826135 0.1405649
-0.052674044 0.101720184 -0.16710906 0.18010853 -0.005112965 -0.07323401 0.16379952 0.00015177109
0.07777285 -0.03889731 -0.14668138 0.15532535 -0.07404335 0.15913787 -0.09861003 -0.13127941
-0.03483743 -0.03085028 0.15056421 0.0922938 6.684639e-05 0.11558404 -0.13851449 0.20332858
0.11000687 -0.12877433 0.016182685 0.14586438 0.22171816 0.10069786 0.09023935 0.12147085
0.16651225 0.15494147 0.10103826 -0.033186078 -0.0332459 -0.16586235 0.10857451 0.0058409553
-0.013722859 0.14680609 0.017602772 0.031754993 -0.10461608 0.09475545 -0.109379336 -0.06398135
-0.03370615 0.13229752 0.11593666 0.17297667 -0.00015500053 -0.029829388 0.03284839 0.11073698
0.14897609 -0.09054786 -0.028765082 0.16399136 0.043500774 -0.04149932 0.21208383 0.033066332
0.08505164 -0.099044204 -0.009394132 0.13727142 -0.074702665 -0.062398545 -0.051370315 -0.0047498513
-0.0040279846 -0.14268957 -0.062198564 0.20794334 0.059177082 -0.030203864 0.13893 0.158633
-0.033903606 0.06379425 0.098147966 0.08097322 0.0002902639 0.069217436 0.09879612 0.0643119
-0.14070746 -0.015440681 0.11568784 0.0576519 -0.00574548 0.054071616 -0.0055104266 -0.1435335
0.12229915 0.06773376 0.10224008 0.0028866592 0.07570489 0.036773805 -0.036114708 0.0027000513
0.09844589 -0.06304948 0.047689933 0.07666847 -0.10434268 -0.08369876 0.023653613 -0.11831781
-0.035179224 -0.15317285 -0.09614851 0.17325766 1.5272855e-05 0.08192426 -0.13360173 0.22324449
0.08480782 0.02579648 -0.13698153 0.17190549 0.11562689 -0.078761734 0.0954392 -0.0042012488
0.15450352 0.16124468 0.111078754 -0.06579263 0.21126336 0.105202936 -0.049901407 0.00019539807
-0.023135578 -0.09520741 0.018100163 0.15536413 0.054004163 -0.051286176 0.058430213 -0.033000853
-0.03361242 0.05288035 -0.07597041 -0.07583531 -0.004103327 -0.14901076 0.15113045 0.22784923
-0.07841582 -0.015950808 0.056511007 -0.009664864 -0.1011967 -0.12356285 0.19118406 0.10891379
0.13765258 -0.11717615 0.09032716 0.12785637 0.15470654 0.1784128 0.11299672 0.014753735
-0.017663917 0.065273225 0.027586069 0.18814598 -0.06845654 0.10318602 0.077127516 -0.07388297
-0.012108882 -0.103691675 0.18875363 0.15688403 4.079579e-05 0.14153568 -0.10855343 0.19096525
0.04307748 0.112163186 -0.11192905 0.10478852 0.18920426 0.14413849 0.04993687 0.08422546
0.113220304 -0.03385949 -0.003149334 -0.02886881 -0.1025088 0.12741368 0.14290874 -0.0015864845
-0.08118034 0.15059692 0.12817422 0.19161032 -0.02797119 -0.10174345 -0.08472797 -0.05522643
-0.03559209 -0.15465596 -0.068155445 -0.032695543 -5.3247004e-05 0.075319886 -0.033501036 0.16672738
-0.05080361 0.08989008 -0.07001983 0.03483127 0.06352474 0.04336556 -0.10127227 -0.13632089
0.088249035 0.029528894 -0.10949315 0.14679068 0.17051959 0.03193855 0.14889583 0.0006475865
0.018816018 0.15305834 0.1413627 0.11163078 -0.009724343 0.07139737 -0.06024442 -0.09748948
-0.034707267 -0.14166912 -0.0028210268 0.11636167 0.00020760957 -0.11593497 0.16238478 0.077808455
00000000: 1e6c 0bbd 1131 073e a619 6b3c 5a9c 543e
00000010: 25c0 36bd 28ee babd cca2 d43d 3ff0 0f3e
00000020: bdc0 57bd ac52 d03d a31e 2bbe 5f6e 383e
00000030: a98a a7bb b6fb 95bd 10bb 273e be24 1f39
00000040: 5f47 9f3d c952 1fbd a533 16be 9c0d 1f3e
00000050: 0aa4 97bd 0af5 223e 0ef4 c9bd 1c6e 06be
00000060: b1b1 0ebd bab9 fcbc 812d 1a3e 8804 bd3d
00000070: e22f 8c38 53b7 ec3d bed6 0dbe 5e35 503e
00000080: 484b e13d 6bdd 03be 8d91 843c 795d 153e
00000090: 160a 633e ae3a ce3d 69cf b83d b6c5 f83d
000000a0: 3082 2a3e faa8 1e3e 26ed ce3d 20ee 07bd
000000b0: da2c 08bd d2d7 29be 505c de3d 7c65 bf3b
000000c0: d8d5 60bc 5654 163e b033 903c 8611 023d
000000d0: f540 d6bd 250f c23d 4602 e0bd a708 83bd
000000e0: 760f 0abd 0079 073e 3370 ed3d cc20 313e
000000f0: a387 22b9 c35c f4bc 098c 063d 12ca e23d
00000100: 308d 183e 2871 b9bd c0a4 ebbc 5aed 273e
00000110: de2d 323d 31fb 29bd 812c 593e 9070 073d
00000120: 8e2f ae3d b0d7 cabd d8e9 19bc e190 0c3e
00000130: b6fd 98bd 9e95 7fbd ae69 52bd a4a4 9bbb
00000140: 2ffd 83bb 371d 12be ecc3 7ebd 19ef 543e
00000150: ab63 723d 186e f7bc aa43 0e3e b070 223e
00000160: 82de 0abd 8fa6 823d cd01 c93d 4ad5 a53d
00000170: 902e 9839 dfc1 8d3d 9f55 ca3d f5b5 833d
00000180: 9e15 10be e9fa 7cbc bfed ec3d 6624 6c3d
00000190: 9444 bcbb 337a 5d3d cf90 b4bb 72fa 12be
000001a0: fa77 fa3d ffb7 8a3d 3f63 d13d 1b2e 3d3b
000001b0: 2a0b 9b3d 21a0 163d 04ed 13bd 58f3 303b
000001c0: 009e c93d 1620 81bd 8556 433d 5c04 9d3d
000001d0: 9db1 d5bd 416a abbd 39c5 c13c 9c50 f2bd
000001e0: 1718 10bd 58d9 1cbe 83e9 c4bd 756a 313e
000001f0: 351e 8037 e8c7 a73d e4ce 08be 349a 643e
00000200: b9af ad3d 2453 d33c e344 0cbe fe07 303e
00000210: cacd ec3d d54d a1bd a175 c33d a1aa 89bb
00000220: 2c36 1e3e 531d 253e 427d e33d 49be 86bd
00000230: 6c55 583e a374 d73d 6b65 4cbd c5e3 4c39
00000240: d386 bdbc 1afc c2bd cb46 943c c617 1f3e
00000250: 7833 5d3d 7411 52bd 8554 6f3d e72b 07bd
00000260: 2dad 09bd 1199 583d 6096 9bbd 8b4f 9bbd
00000270: 3475 86bb 4796 18be f1c1 1a3e 4f51 693e
00000280: 7998 a0bd 45ab 82bc 1678 673d 6159 1ebc
00000290: 3740 cfbd 850e fdbd c1c5 433e 310e df3d
000002a0: ccf4 0c3e 0dfa efbd 72fd b83d c8ec 023e
000002b0: 646b 1e3e d8b1 363e d36a e73d a6b9 713c
000002c0: ebb3 90bc f8ad 853d 2efc e13c 57a9 403e
000002d0: f132 8cbd 3153 d33d 08f5 9d3d f44f 97bd
000002e0: 5564 46bc 4d5c d4bd a248 413e 35a6 203e
000002f0: 251c 2b38 bbee 103e 4351 debd 658c 433e
00000300: 0372 303d d0b5 e53d 0f3b e5bd 5d9b d63d
00000310: c3be 413e 0a99 133e 9a8a 4c3d 667e ac3d
00000320: 0ce0 e73d 40b0 0abd 0f65 4ebb 487e ecbc
00000330: 22f0 d1bd bb78 023e ab56 123e 96f1 cfba
00000340: e141 a6bd 1436 1a3e 1a40 033e 7f35 443e
00000350: d623 e5bc df5e d0bd dc85 adbd 1c35 62bd
00000360: 03c9 11bd 225e 1ebe 1595 8bbd c3eb 05bd
00000370: 8955 5fb8 5041 9a3d 6238 09bd 95ba 2a3e
00000380: 7217 50bd 4a18 b83d 8e66 8fbd 3cab 0e3d
00000390: 4219 823d 16a0 313d d667 cfbd b497 0bbe
000003a0: e9bb b43d 94e6 f13c f23d e0bd 4c50 163e
000003b0: b09c 2e3e ffd1 023d 2678 183e cbc2 293a
000003c0: 0d24 9a3c 53bb 1c3e 62c1 103e ae9e e43d
000003d0: da52 1fbc c938 923d dac2 76bd 91a8 c7bd
000003e0: 3529 0ebd b611 11be fae0 38bb 074f ee3d
000003f0: c5b1 5939 506f edbd 3248 263e 0a5a 9f3d

Actor.fc2.bias f4 [32]
-0.05423958 0.10856427 -0.07581294 0.04251283 0.056067523 0.19926673 0.10070801 -0.11164707
-0.10266853 0.12862046 0.11703124 0.179208 0.11797365 0.12178442 0.103741586 0.045948416
-0.031096574 0.09182614 0.00055084494 -0.056074042 -0.01546422 -0.049811505 -0.11669643 -0.005700257
0.19455445 -0.015473754 0.15136369 0.18646182 0.16141155 -0.12037826 -0.04368444 0.036044393
00000000: 522a 5ebd f256 de3d d143 9bbd ef21 2e3d
00000010: 0fa7 653d 940c 4c3e 0040 ce3d 38a7 e4bd
00000020: e143 d2bd 15b5 033e 13ae ef3d 4d82 373e
00000030: 2b9c f13d 1c6a f93d 7876 d43d 6834 3c3d
00000040: 3ebe febc 580f bc3d 9466 103a e5ad 65bd
00000050: a45d 7dbc 2607 4cbd 8afe eebd 39c9 babb
00000060: 4839 473e a185 7dbc 15ff 1a3e d9ef 3e3e
00000070: 1249 253e e188 f6bd 75ee 32bd 49a3 133d

Actor.mean_fc3.weight f4 [17, 32]
8.073e-42 -2.0535819e-38 -3.27298e-40 1.366e-42 -2.7e-44 -3.7601e-40 1.8075e-41 -1.89775e-40
-8.16303e-40 -1.601484e-39 8.863e-42 2.32201e-40 -2.7585575e-35 -1.9862e-41 -6.7e-43 -5.305e-42
4.5663483e-15 7.40539e-40 2.487718e-39 -1.8807e-41 -8.1555e-40 -5.72523e-40 2.1011e-41 -2.619e-41
-5.426e-42 -1.579046e-39 2.3933e-41 2.097e-41 -3.44216e-40 -2.49738e-40 2.7569e-41 2.9981e-41
-4.5133072e-07 2.6102e-41 4.59e-42 2.4406e-40 9.89e-42 1.86943e-40 -3.0966e-41 -3.0439363e-26
3.7353e-41 6.394e-42 3.114e-42 2.43e-42 -3.2554e-41 -2.54647e-40 2.11805e-40 3.774e-42
3.15959e-40 -3.766e-41 1.7871e-41 3.9815e-41 -3.76312e-40 -3.2364e-41 3.18545e-40 -1.4048e-40
-6.288635e-39 1.6907e-41 -5.1605e-40 -1.5543e-41 3.088e-41 -3.2524e-41 -2.4276e-41 2.6742e-41
2.5435e-41 1.45696e-40 -3.652e-42 1.989e-41 2.0917e-41 3.461e-42 -1.5315e-41 1.2343015e-38
-1.5486e-41 8.00217e-40 2.2948e-41 -3.8708e-41 -2.1839e-41 -2.99053e-40 -2.5106e-41 1.1046e-41
-2.978e-42 1.6911e-41 3.3703e-41 1.211247e-39 -2.63412e-40 3.65e-42 4.959e-42 -1.079867e-39
-1.82038e-40 -2.1190139e-17 1.876e-41 -3.198e-41 3.1668e-41 2.2756e-41 -2.7365e-41 5.984831e-39
-3.26081e-40 7.18381e-40 -2.0264e-41 2.6396e-41 -3.4551e-39 3.81808e-40 -2.6049e-41 1.911e-42
2.40082e-40 -3.729e-42 -3.7147e-41 -2.4757e-41 -1.58237e-19 -1.21159e-40 3.4933e-41 2.5188e-41
1.3619e-41 9.862e-42 4.63366e-40 -1.193893e-27 -3.0976e-41 5.892e-42 -1.2469e-41 -2.325e-42
4.72228e-40 -1.7079e-41 2.997e-42 2.0099e-41 -3.5395e-41 -3.661e-41 1.2225e-41 1.0657e-41
3.171e-42 -1.4712e-41 2.36e-41 1.2829e-41 3.2352e-41 -1.5399e-41 -2.117911e-39 -2.584685e-39
2.1147e-41 3.3812e-41 -8.827e-42 2.922e-41 1.5679e-41 -3.2315e-41 4.15463e-40 2.8728e-41
2.49688e-40 -1.25039e-40 1.36281e-39 -3.07308e-40 -4.01639e-40 3.73163e-40 -2.4272e-41 -1.7002e-41
1.548012e-39 -3.213e-42 -2.56698e-40 9.54e-42 -3.39137e-40 1.0478e-41 -4.68918e-40 2.942e-41
3.709e-42 1.1365e-41 2.922e-41 3.51761e-40 3.8694e-41 4.40743e-40 3.6e-41 -1.0531e-41
1.168206e-39 1.9485e-41 1.1415e-41 1.324e-41 2.7956e-41 2.466e-41 7.54197e-40 -1.532861e-39
1.10625254e-13 -8.004741e-39 1.2376e-41 3.71535e-40 -1.1328e-41 1.248809e-39 -5.664e-42 2.8327e-41
-1.2116e-41 3.2674e-41 7.564e-42 -1.3324e-41 -7.109e-42 -1.8039e-41 -1.255147e-39 3.0837e-41
-1.072e-42 -1.35e-41 2.1822e-41 -3.4187e-41 -8.408e-42 -1.8916e-41 -5.72e-42 -2.3759e-41
-2.2617e-41 2.232e-41 -4.557e-42 -1.6881e-41 -8.00204e-40 -1.69746e-40 1.6919e-41 3.2485e-41
4.58331e-40 -8.478e-42 -2.8344e-41 2.0268e-41 -2.0784e-41 -3.0264e-41 1.8773e-41 -1.117e-41
-3.17e-43 1.7876e-41 9.57137e-40 3.8164e-41 4.20629e-40 3.054e-41 1.874e-41 2.920365e-39
-3.3794e-41 -1.6453e-41 3.3302e-41 3.643e-41 -1.2813e-41 -1.928e-42 -3.488e-42 -1.57855e-40
2.9195e-41 1.6535e-41 3.5583e-41 1.4244e-41 -1.3726e-41 1.196e-41 1.97528e-40 3.897e-41
-1.26785e-40 4.73986e-40 5.36e-42 -1.7506e-41 -3.9529e-41 -1.8346e-41 -3.0468e-41 -4.303e-42
8.172109e-14 2.56848e-40 2.486e-42 1.2393e-41 -4.06056e-40 1.9712e-41 2.409e-41 5.218e-42
00000000: 8116 0000 829d df80 6090 0380 cf03 0000
00000010: 1300 0080 2a18 0480 6332 0000 0411 0280
00000020: 85e3 0880 4970 1180 b518 0000 4887 0200
00000030: 8aab 1286 5e37 0080 de01 0080 ca0e 0080
00000040: 2185 a427 5210 0800 bf16 1b00 6d34 0080
00000050: 6ce1 0880 f63b 0680 923a 0000 0249 0080
00000060: 200f 0080 bd31 1180 b742 0000 753a 0000
00000070: 89bf 0380 2bb8 0280 da4c 0000 9353 0000
00000080: 6c4e f2b4 c348 0000 cc0c 0000 57a8 0200
00000090: 921b 0000 1f09 0200 5256 0080 7aba 1695
000000a0: 2068 0000 d311 0000 ae08 0000 c606 0000
000000b0: bf5a 0080 dac5 0280 6d4e 0200 850a 0000
000000c0: c470 0300 fb68 0080 d131 0000 fd6e 0000
000000d0: 0119 0480 385a 0080 f977 0300 9a87 0180
000000e0: 287a 4480 212f 0000 8a9e 0580 542b 0080
000000f0: 1556 0000 aa5a 0080 ac43 0080 8c4a 0000
00000100: e746 0000 2496 0100 2e0a 0080 7237 0000
00000110: 4f3a 0000 a609 0000 b12a 0080 4e67 8600
00000120: 2b2b 0080 aeb6 0800 f83f 0000 e76b 0080
00000130: e13c 0080 a341 0380 fc45 0080 cb1e 0000
00000140: 4d08 0080 242f 0000 f35d 0000 7730 0d00
00000150: 49de 0280 2d0a 0000 d30d 0000 3bc2 0b80
00000160: 73fb 0180 cd71 c3a3 4c34 0000 2659 0080
00000170: 4758 0000 6f3f 0000 484c 0080 462b 4100
00000180: fb8c 0380 8ed2 0700 7d38 0080 9549 0000
00000190: 6a9f 2580 5328 0400 9d48 0080 5405 0000
000001a0: 409d 0200 650a 0080 8d67 0080 0345 0080
000001b0: 33d0 3aa0 be51 0180 6161 0000 3746 0000
000001c0: f725 0000 7e1b 0000 ad0b 0500 0e2e bd92
000001d0: 5956 0080 6d10 0000 c222 0080 7b06 0080
000001e0: 6124 0500 9c2f 0080 5b08 0000 0738 0000
000001f0: ab62 0080 0e66 0080 1422 0000 b51d 0000
00000200: d708 0000 0329 0080 ca41 0000 c323 0000
00000210: 2f5a 0000 ed2a 0080 e00f 1780 0d25 1c80
00000220: f33a 0000 415e 0000 9b18 0080 7451 0000
00000230: b52b 0000 155a 0080 2486 0400 1550 0000
00000240: 07b8 0200 8f5c 0180 f6d6 0e00 a658 0380
00000250: 9b5f 0480 3a10 0400 a943 0080 652f 0080
00000260: 3adb 1000 f508 0080 92cb 0280 981a 0000
00000270: 60b1 0380 351d 0000 271b 0580 0352 0000
00000280: 570a 0000 ae1f 0000 7451 0000 91d4 0300
00000290: dd6b 0000 9dcc 0400 5a64 0000 5b1d 0080
000002a0: 7cb8 0c00 5136 0000 d21f 0000 e824 0000
000002b0: ee4d 0000 be44 0000 6536 0800 feb0 1080
000002c0: 1e1b f929 f629 5780 8022 0000 b00b 0400
000002d0: 941f 0080 2c99 0d00 ca0f 0080 f74e 0000
000002e0: c621 0080 155b 0000 1615 0000 2425 0080
000002f0: d113 0080 4932 0080 d7aa 0d80 f655 0000
00000300: fd02 0080 a225 0080 d53c 0000 4d5f 0080
00000310: 7017 0080 bb34 0080 f20f 0080 3b42 0080
00000320: 0c3f 0080 383e 0000 b40c 0080 0f2f 0080
00000330: a5b6 0880 2fd9 0180 2a2f 0000 8e5a 0000
00000340: a4fd 0400 a217 0080 034f 0080 8038 0000
00000350: f039 0080 5d54 0080 5534 0000 231f 0080
00000360: e200 0080 d531 0000 1c6c 0a00 636a 0000
00000370: 8b94 0400 2255 0000 3d34 0000 cacc 1f00
00000380: 345e 0080 dd2d 0080 d55c 0000 8d65 0000
00000390: b823 0080 6005 0080 b909 0080 09b8 0180
000003a0: 6251 0000 182e 0000 3163 0000 b527 0000
000003b0: 4326 0080 5721 0000 a126 0200 a26c 0000
000003c0: 6d61 0180 4829 0500 f10e 0000 cd30 0080
000003d0: 316e 0080 2433 0080 ef54 0080 ff0b 0080
000003e0: 0005 b829 fdcb 0200 ee06 0000 8c22 0000
000003f0: eb6b 0480 f336 0000 2743 0000 8c0e 0000

Actor.mean_fc3.bias f4 [17]
-3.7516e-41 3.8047e-41 2.3347e-41 -2.9667e-40 -3.775e-42 1.8721e-41 -4.36078e-40 4.1255e-40
-4.60465e-40 3.93566e-40 5.57378e-40 -3.8051e-41 -1.7235e-41 -1.759e-42 9.342e-42 9.906e-42
-6.744e-42
00000000: 9468 0080 0f6a 0000 1541 0000 ff3a 0380
00000010: 860a 0080 3034 0000 9cbf 0480 067e 0400
00000020: 9703 0580 1a49 0400 be11 0600 126a 0080
00000030: 0b30 0080 e704 0080 0b1a 0000 9d1b 0000
00000040: cd12 0080

Actor.log_std_fc3.weight f4 [17, 32]
-0.015803928 -0.011582461 -0.07937854 -0.010526417 -0.015501413 -0.012853901 -0.012626282 -0.050690062
-0.009867909 -0.096659854 -0.012644718 -0.09076135 -0.027285542 -0.014541195 -0.03509283 -0.011434473
-0.016662387 -0.013982974 -0.08203863 -0.009710492 -0.011370175 -0.015512925 -0.011922395 -0.01016813
-0.01099452 -0.008326291 -0.008741263 -0.02649118 -0.008477932 -0.014841676 -0.015498565 -0.015428828
-0.020344157 -0.009500773 -0.07961215 -0.015482072 -0.032596484 -0.0076234625 -0.015822869 -0.057580713
-0.013240366 -0.080948055 -0.010882896 -0.074969985 -0.04330351 -0.012777515 -0.04339103 -0.010514366
-0.0192244 -0.01108046 -0.07290611 -0.006191857 -0.0098283505 -0.015540485 -0.014579166 -0.00918041
-0.0074517275 -0.011232118 -0.007394464 -0.03898899 -0.009927688 -0.01397585 -0.013613458 -0.017614359
-0.015991468 -0.009610223 -0.07874087 -0.020374402 -0.024103533 -0.013018282 -0.0115188565 -0.056540407
-0.018409949 -0.086191654 -0.009934338 -0.07743785 -0.037904587 -0.010609732 -0.046520602 -0.0055776676
-0.017413583 -0.01376804 -0.07091512 -0.00789053 -0.010829683 -0.018240407 -0.013934316 -0.006914046
-0.008304398 -0.009549084 -0.005992781 -0.036799647 -0.013630483 -0.016702717 -0.009133781 -0.019678665
-0.02400312 -0.010058942 -0.074837096 -0.017979188 -0.039386433 -0.009846263 -0.01268044 -0.05811022
-0.015538057 -0.07523218 -0.009166587 -0.07287994 -0.04506574 -0.009925259 -0.045331404 -0.007220079
-0.017287659 -0.009717866 -0.07418011 -0.009895874 -0.010900666 -0.015010221 -0.012248349 -0.0064812275
-0.0094499765 -0.011535326 -0.0064907065 -0.03760777 -0.0122755235 -0.013633737 -0.012869712 -0.020020425
-0.020270586 -0.012335626 -0.07542573 -0.019834025 -0.027681803 -0.012826384 -0.013471363 -0.058350954
-0.017756565 -0.08166898 -0.0052196314 -0.07250433 -0.036051556 -0.011502619 -0.04592297 -0.006028519
-0.01844119 -0.0121216215 -0.070343345 -0.003830007 -0.010753573 -0.01520136 -0.014490052 -0.009143432
-0.008307976 -0.009604106 -0.007987214 -0.034699585 -0.011048265 -0.02024056 -0.014561664 -0.01738067
-0.023637984 -0.007877076 -0.076943465 -0.016002879 -0.033483624 -0.0121617 -0.014034124 -0.05847562
-0.0119795585 -0.074175894 -0.0058447896 -0.07365149 -0.045617364 -0.013366729 -0.04059698 -0.00981471
-0.019127926 -0.01259143 -0.078472726 -0.010207377 -0.0086522475 -0.0144954715 -0.012842115 -0.0057954486
-0.00541293 -0.011287495 -0.007986456 -0.039945558 -0.011892986 -0.015250399 -0.011032572 -0.017590255
-0.029762272 -0.010822815 -0.07882731 -0.015856847 -0.06004242 -0.009669841 -0.014243217 -0.032383196
-0.01925671 -0.08124989 -0.0066040726 -0.07165292 -0.040922 -0.014787541 -0.02690074 -0.007797938
-0.0166672 -0.011741907 -0.070474215 -0.0062024905 -0.011849495 -0.015406951 -0.01179799 -0.006290504
-0.0060388357 -0.011094287 -0.005083457 -0.03120816 -0.0136924805 -0.012960518 -0.015012417 -0.019333921
-0.014918679 -0.013171627 -0.07740899 -0.019065605 -0.02846236 -0.010160498 -0.011197611 -0.058863096
-0.016435677 -0.08577385 -0.0077599343 -0.07271501 -0.039100077 -0.014323426 -0.047141448 -0.007244538
-0.01577624 -0.013899893 -0.07069814 -0.0051733786 -0.008226889 -0.015292363 -0.015595737 -0.010627441
-0.0062919874 -0.008195946 -0.009018119 -0.03773466 -0.013180808 -0.018287713 -0.013030679 -0.019328171
00000000: 3d77 81bc 5dc4 3dbc 3791 a2bd fe76 2cbc
00000010: a3f9 7dbc 2b99 52bc 77de 4ebc 62a0 4fbd
00000020: 03ad 21bc 9af5 c5bd cb2b 4fbc 16e1 b9bd
00000030: ee85 dfbc 313e 6ebc 80bd 0fbd a857 3bbc
00000040: 8f7f 88bc d818 65bc df03 a8bd c118 1fbc
00000050: f849 3abc ec29 7ebc 2656 43bc 3a98 26bc
00000060: 5c22 34bc ff6a 08bc 8437 0fbc 0804 d9bc
00000070: 06e7 0abc 802a 73bc b1ed 7dbc 32c9 7cbc
00000080: caa8 a6bc 21a9 1bbc b20b a3bd 84a8 7dbc
00000090: e483 05bd 3dce f9bb f69e 81bc c1d9 6bbd
000000a0: 1fee 58bc 18c8 a5bd 2d4e 32bc dd89 99bd
000000b0: 055f 31bd c858 51bc cbba 31bd 7344 2cbc
000000c0: 7d7c 9dbc d18a 35bc cc4f 95bd 10e5 cabb
000000d0: 1707 21bc 859d 7ebc 74dd 6ebc 6e69 16bc
000000e0: 9f2d f4bb eb06 38bc 434d f2bb ebb2 1fbd
000000f0: bea7 22bc f7fa 64bc fb0a 5fbc fd4b 90bc
00000100: 8a00 83bc 3274 1dbc e542 a1bd 38e8 a6bc
00000110: c674 c5bc a24a 55bc 96b9 3cbc ea96 67bd
00000120: 76d0 96bc 4085 b0bd a2c3 22bc bc97 9ebd
00000130: d741 1bbd 71d4 2dbc 638c 3ebd dec4 b6bb
00000140: eea6 8ebc 5893 61bc f23b 91bd 4847 01bc
00000150: fc6e 31bc e86c 95bc c24c 64bc 398f e2bb
00000160: 2b0f 08bc c373 1cbc 175f c4bb 3abb 16bd
00000170: 6452 5fbc 23d4 88bc dba5 15bc 2735 a1bc
00000180: 31a2 c4bc 43ce 24bc 3144 99bd 1749 93bc
00000190: ab53 21bd 3852 21bc 9fc1 4fbc fb04 6ebd
000001a0: 5693 7ebc 5413 9abd 742f 16bc 1442 95bd
000001b0: da96 38bd 8e9d 22bc 6cad 39bd 6a96 ecbb
000001c0: d99e 8dbc af37 1fbc beeb 97bd 4e22 22bc
000001d0: b598 32bc 6eed 75bc 4dad 48bc 7a60 d4bb
000001e0: 13d4 1abc aafe 3cbc feaf d4bb 9b0a 1abd
000001f0: 471f 49bc 0a60 5fbc 7cdb 52bc e001 a4bc
00000200: 800e a6bc 5e1b 4abc ce78 9abd f77a a2bc
00000210: f3c4 e2bc c125 52bc feb6 5cbc 6901 6fbd
00000220: 3776 91bc 1142 a7bd 7109 abbb 267d 94bd
00000230: ccaa 13bd 7b75 3cbc b919 3cbd e28a c5bb
00000240: fa11 97bc c499 46bc 2c10 90bd db00 7bbb
00000250: c12f 30bc 200f 79bc af67 6dbc 55ce 15bc
00000260: 2d1e 08bc 8a5a 1dbc cedc 02bc 2721 0ebd
00000270: c803 35bc 88cf a5bc 0c94 6ebc e861 8ebc
00000280: 72a4 c1bc da0e 01bc 8994 9dbd 7818 83bc
00000290: 2026 09bd de41 47bc 62ef 65bc 2284 6fbd
000002a0: e945 44bc 88e9 97bd a685 bfbb 98d6 96bd
000002b0: 46d9 3abd 2000 5bbc 0549 26bd e1cd 20bc
000002c0: 2bb2 9cbc 494c 4ebc 4fb6 a0bd d83c 27bc
000002d0: 28c2 0dbc 6a7e 6dbc bc67 52bc bfe7 bdbb
000002e0: f35e b1bb 2fef 38bc a0d9 02bc f49d 23bd
000002f0: ccda 42bc cfdc 79bc f6c1 34bc 7019 90bc
00000300: 02d0 f3bc 2d52 31bc 3670 a1bd 38e6 81bc
00000310: 0aef 75bd 416e 1ebc 625c 69bc 3ea4 04bd
00000320: 3fc0 9dbc 5866 a6bd fa66 d8bb c4be 92bd
00000330: d49d 27bd 7147 72bc f15e dcbc d885 ffbb
00000340: a789 88bc 2161 40bc c954 90bd 433e cbbb
00000350: 6224 42bc 706d 7cbc 5b4c 41bc 9220 cebb
00000360: 6de1 c5bb d0c4 35bc 2193 a6bb 41a8 ffbc
00000370: 6d56 60bc 5a58 54bc a4f6 75bc 2c62 9ebc
00000380: 7a6d 74bc cfcd 57bc 9b88 9ebd 792f 9cbc
00000390: e529 e9bc 3878 26bc 2f76 37bc 6e1a 71bd
000003a0: 1da4 86bc 33aa afbd 0c47 febb 9beb 94bd
000003b0: 6727 20bd ceac 6abc 6417 41bd 9763 edbb
000003c0: 2c3d 81bc 60bc 63bc 30ca 90bd 7285 a9bb
000003d0: 13ca 06bc d28c 7abc 4385 7fbc b81e 2ebc
000003e0: 042d cebb 4a48 06bc bcc0 13bc a98f 1abd
000003f0: 51f4 57bc 1dd0 95bc a17e 55bc 1d56 9ebc

Actor.log_std_fc3.bias f4 [17]
-0.014480219 -0.041569225 -0.04993643 -0.047956035 -0.054819908 -0.042205833 -0.05433025 -0.04911466
-0.023299977 -0.054473247 -0.05293034 -0.04591394 -0.023969788 -0.04867226 -0.06281514 -0.04312274
-0.043864638
00000000: 713e 6dbc 7e44 2abd 248a 4cbd 8c6d 44bd
00000010: d78a 60bd 06e0 2cbd 6589 5ebd 742c 49bd
00000020: 98df bebc 571f 5fbd 7ccd 58bd 4110 3cbd
00000030: 4a5c c4bc 905c 47bd 39a5 80bd 78a1 30bd
00000040: 68ab 33bd

Critic.fc1.weight f4 [32, 378]
0.096882746 0.05647511 0.08875123 0.046413865 -0.039594617 -0.018182922 -0.030708259 0.059000734
-0.028718995 0.03873361 0.037801046 0.026518172 -0.032663435 -0.02843765 0.04806871 0.06838273
-0.04743846 -0.018357038 0.03858685 -0.09510676 -0.075461894 -0.032516494 0.057682797 -0.09985097
0.075829655 0.028043885 0.009863838 0.004059358 -0.012705229 -0.056768615 -0.013489067 -0.030756105
0.07152173 0.027245283 -0.020887293 0.047958214 -0.052830406 -0.024136627 -0.03887166 0.04556464
-0.08092179 -0.0039416957 0.032824162 -0.022920154 0.007390412 0.07117187 0.03273083 0.024594462
-0.010596844 0.03411427 0.002010734 0.016073424 0.026674358 0.019072153 0.047382053 0.032767758
-0.027822757 0.049213868 0.054426584 0.016210407 0.049122 -0.0030070941 -0.09236165 -0.04065516
0.027474537 0.053918242 0.061039537 0.09359149 0.021023182 0.02146851 0.016599635 0.08092891
-0.010772678 -0.013613978 -0.029188946 0.019458907 0.047738485 0.07023203 0.09041594 0.08334168
-0.014634625 0.06075215 0.0044158464 -0.03602236 -0.0813545 0.047689743 0.070337884 0.048582338
0.051832415 0.055610016 0.05261298 0.035543345 -0.09223952 0.015048595 -0.07559797 -0.058236495
0.027880406 0.09001739 0.102104224 0.07635164 0.02954429 -0.0040461 -0.007493953 0.04177824
-0.021732297 -0.05128934 0.018770693 0.036292993 0.03784537 0.108893156 -0.082180806 -0.10497371
-0.08389795 -0.1492987 -0.074198335 -0.07910353 0.09158015 0.016716449 0.052123543 0.06714944
-0.0103882495 0.07956468 0.06932296 0.105028465 0.069779254 -0.041745953 0.07647963 0.012013447
0.057776205 0.03197502 -0.004019542 -0.04661487 0.10296128 -0.003992728 0.06463055 -0.021853542
0.06070393 0.06760011 0.080705255 0.03758958 0.07110673 -0.0774452 0.053590916 -0.10373808
0.09615189 -0.04493165 0.059720974 0.09558277 0.060930453 0.024239257 0.03226183 0.032336507
0.10329012 0.036820374 -0.103380136 0.08344433 0.057833005 -0.0114660775 0.051397 0.04498235
-0.0042684725 0.008626765 -0.006503076 0.007585822 -0.077587955 0.06470482 0.040842935 0.090170726
0.101485476 0.026501462 -0.031653594 -0.03210414 -0.030500332 0.059860487 0.09901908 0.031048905
0.020708766 -0.0077539627 -0.0143528925 0.066805616 -0.061768685 -0.054834843 -0.010312261 0.058878597
0.007490569 0.07773182 0.05009277 -0.011031841 0.0005486741 0.033807427 -0.009901652 -0.02886028
0.02233563 -0.0055479025 -0.059085537 -0.06986313 0.073548146 -0.014176299 -0.008514602 -0.052618306
-0.08441945 0.012727246 0.08198887 -0.0027346283 -0.09032807 -0.028442588 -0.09809008 0.0016764958
0.121526025 -0.011392993 -0.010518263 -0.0075585903 0.0038658562 0.036706615 0.117430024 -0.053400714
-0.051007416 0.05425053 0.092415914 -0.00813583 0.048522297 0.036768094 0.0023389864 0.020416882
0.08454294 0.042759057 0.09330624 -0.04184056 0.0019601185 -0.008937486 -0.0572713 0.026892023
0.07021298 0.0048776837 0.00632768 0.039042898 0.029877558 -0.03836502 0.053251114 0.0072073187
-0.027842026 0.014810201 0.011465272 -0.009853392 0.103412084 -0.04328805 0.025956176 0.019272303
-0.010403859 -0.056083694 -0.014543958 -0.0061517316 -0.05277093 -0.020396737 0.0076896995 -0.07211819
00000000: 766a c63d 7252 673d 34c3 b53d 771c 3e3d
00000010: f72d 22bd 5af4 94bc e38f fbbc c1aa 713d
00000020: 1944 ebbc 22a7 1e3d 45d5 1a3d a33c d93c
00000030: 18ca 05bd 13f6 e8bc b2e3 443d 3f0c 8c3d
00000040: d54e 42bd 8061 96bc 3f0d 1e3d 55c7 c2bd
00000050: c48b 9abd 0430 05bd cc44 6c3d aa7e ccbd
00000060: 944c 9b3d 4abc e53c ef9b 213c 5d04 853b
00000070: 9829 50bc 3586 68bd 3f01 5dbc 3af4 fbbc
00000080: fc79 923d 8031 df3c d41b abbc d56f 443d
00000090: b264 58bd 2dba c5bc e437 1fbd fda1 3a3d
000000a0: 53ba a5bd 5729 81bb a172 063d 0cc3 bbbc
000000b0: 452b f23b 8fc2 913d c310 063d 537a c93c
000000c0: 639e 2dbc 68bb 0b3d 85c6 033b 6aac 833c
000000d0: 2f84 da3c 343d 9c3c af13 423d 7c37 063d
000000e0: 8dec e3bc 7b94 493d 69ee 5e3d b0cb 843c
000000f0: 2634 493d ab12 45bb 1b28 bdbd 0686 26bd
00000100: 4812 e13c 60d9 5c3d 9804 7a3d e5ac bf3d
00000110: cf38 ac3c bbde af3c f5fb 873c 0ebe a53d
00000120: e37f 30bc 2a0d 5fbc a81d efbc 4968 9f3c
00000130: 6e89 433d cfd5 8f3d fe2b b93d 0baf aa3d
00000140: 11c6 6fbc 3fd7 783d ceb2 903b 2f8c 13bd
00000150: 309d a6bd 5256 433d 4f0d 903d 46fe 463d
00000160: 3a4e 543d 54c7 633d b580 573d e695 113d
00000170: 13e8 bcbd 628e 763c 1cd3 9abd 6489 6ebd
00000180: 7365 e43c 0a5b b83d 051c d13d 405e 9c3d
00000190: de06 f23c 2695 84bb d68f f5bb a91f 2b3d
000001a0: ee07 b2bc c514 52bd ffc4 993c f6a7 143d
000001b0: bf03 1b3d 6003 df3d 694e a8bd 75fc d6bd
000001c0: b0d2 abbd c2e1 18be 4cf5 97bd 0801 a2bd
000001d0: 608e bb3d eff0 883c 7f7f 553d a585 893d
000001e0: 7a33 2abc cff2 a23d 32f9 8d3d 2a19 d73d
000001f0: 6de8 8e3d cefd 2abd 5aa1 9c3d 0cd4 443c
00000200: bea6 6c3d 3df8 023d 5db6 83bb 3cef 3ebd
00000210: 5ddd d23d 6ed5 82bb 065d 843d 3306 b3bc
00000220: afa4 783d ed71 8a3d cc48 a53d 88f7 193d
00000230: 68a0 913d 979b 9ebd 2682 5b3d a174 d4bd
00000240: 48eb c43d 400a 38bd fb9d 743d e6c0 c33d
00000250: 3692 793d 6891 c63c fb24 043d 4973 043d
00000260: c589 d33d f6d0 163d f7b8 d3bd dce4 aa3d
00000270: 4de2 6c3d 37dc 3bbc a985 523d 6a3f 383d
00000280: 8bde 8bbb 4657 0d3c c117 d5bb 7d92 f83b
00000290: 6fe6 9ebd f683 843d ec4a 273d 6eab b83d
000002a0: 9ed7 cf3d 9819 d93c 33a7 01bd a17f 03bd
000002b0: d5db f9bc 4530 753d 84ca ca3d 465a fe3c
000002c0: 6ea5 a93c f414 febb 6528 6bbc 62d1 883d
000002d0: 2901 7dbd 809a 60bd c2f4 28bc af2a 713d
000002e0: 7273 f53b dc31 9f3d 142e 4d3d e5be 34bc
000002f0: e5d4 0f3a a879 0a3d 8a3a 22bc 656c ecbc
00000300: 36f9 b63c 2ecb b5bb ad03 72bd 6714 8fbd
00000310: 69a0 963d b543 68bc d480 0bbc 4b86 57bd
00000320: 1be4 acbd f085 503c c8e9 a73d 7337 33bb
00000330: ecfd b8bd 6e00 e9bc 74e3 c8bd ddbd db3a
00000340: a3e2 f83d ada9 3abc cb54 2cbc 0dae f7bb
00000350: 4e5a 7d3b ad59 163d 277f f03d b5ba 5abd
00000360: 27ed 50bd ce35 5e3d 8e44 bd3d 254c 05bc
00000370: 51bf 463d 249a 163d ae49 193b 4e41 a73c
00000380: d924 ad3d 1f24 2f3d 5817 bf3d 0261 2bbd
00000390: 5575 003b 896e 12bc 5095 6abd a94c dc3c
000003a0: d3cb 8f3d fad4 9f3b 6d58 cf3b 72eb 1f3d
000003b0: c8c1 f43c a424 1dbd d71d 5a3d 5f2b ec3b
000003c0: f614 e4bc 7ca6 723c d6d8 3b3c 1f70 21bc
000003d0: b7c9 d33d cf4e 31bd 0ca2 d43c f3e0 9d3c
000003e0: f374 2abc 04b8 65bd c849 6ebc 7794 c9bb
000003f0: 5526 58bd 0f17 a7bc e0f9 fb3b b4b2 93bd

Critic.fc1.bias f4 [32]
0.066850364 0.001056827 0.052642953 0.06786485 0.07975112 -0.0046674404 0.013543997 -0.027412158
0.058209985 0.09756654 -0.038796037 0.010539726 -0.009885376 0.017910456 0.062224306 0.025203671
-0.028334854 0.06705184 0.060763583 0.021132229 0.044715725 0.03187532 0.08680957 -0.023500454
-0.012957189 0.047143124 -0.026809826 0.019946253 0.10468736 0.059745077 0.022537475 0.09747655
00000000: d8e8 883d 3b85 8a3a 23a0 573d bafc 8a3d
00000010: 8e54 a33d 54f1 98bb a4e7 5d3c 768f e0bc
00000020: 986d 6e3d f7d0 c73d 98e8 1ebd d1ae 2c3c
00000030: 46f6 21bc f3b8 923c eade 7e3d ee77 ce3c
00000040: 7f1e e8bc 7a52 893d 3ce3 783d 7f1d ad3c
00000050: d627 373d b28f 023d 37c9 b13d 0684 c0bc
00000060: 644a 54bc 2619 413d 48a0 dbbc 5366 a33c
00000070: 5466 d63d 41b7 743d 83a0 b83c c9a1 c73d

Critic.fc2.weight f4 [32, 32]
0.14470668 -0.13624965 0.12772252 0.12059835 0.10481334 -0.085072204 -0.011267593 0.015268716
0.009069057 0.085907266 -0.038782682 0.022443905 -0.19298424 0.016720826 0.13315538 0.09253748
0.00050251983 0.1784368 -0.02377691 0.08968666 0.06888963 0.014705002 -0.08296078 -0.03860126
0.15600304 -0.01890957 -0.04917728 -0.10610535 0.122279465 -0.1005117 0.14239652 -0.07080607
0.072681546 -0.104733795 0.047458164 0.20539907 0.18935047 -0.10791682 0.10406035 -0.13517545
0.12839723 -0.029047644 -0.0410849 -0.06476823 -0.17349283 0.11113159 0.102464154 -0.09741962
-0.060986858 0.120355844 0.20297658 0.11349946 0.06257176 -0.025300365 -0.020439684 -0.027102334
0.103540614 -0.07639869 0.08846608 -0.16161671 -0.015964095 0.06596661 0.12112432 0.19836108
0.11449975 -0.14216015 0.0061974414 0.077167295 -0.052536692 0.056891035 0.06872325 -0.07153033
0.11501392 -0.033541813 -0.030574126 -0.09898322 -0.16942891 0.07254181 0.15802369 -0.0067869537
-0.08085855 0.061142575 0.12902641 0.08008408 0.02796312 0.12974755 0.21457236 -0.12839483
-0.13339216 0.046447735 0.11675487 0.13986202 -0.003026973 -0.10146311 -0.07490465 0.17540547
-0.13822234 0.021156553 -0.11609441 0.059657022 -0.066430576 0.00010575306 0.04112592 -0.07323757
0.066795416 0.12777062 0.11227408 0.06305781 0.07532958 0.16106805 0.03835021 0.1764953
0.09184779 0.023406394 -0.057992272 -0.0881982 -0.045415252 -0.119311206 -0.12149068 -0.14772342
0.15481916 -0.09009284 0.112250336 0.11477779 0.0984792 0.17514962 -0.050793853 -0.14913324
0.10001724 -0.18273914 0.18198597 -0.124677524 -0.11198948 0.20866548 0.14656624 -0.11218655
0.17235649 0.08235282 0.022520304 0.037740406 0.12893598 0.104551665 0.035334326 -0.12968528
-0.11807981 -0.0066735493 -0.13337351 -0.1138948 0.07424297 -0.10115791 -0.036896188 -0.10317847
0.11054052 0.09129587 0.17613384 -0.19501212 0.01743629 -0.016155966 -0.003670866 0.047392454
-0.14450923 0.10496053 0.06423875 -0.07321728 -0.019805685 0.07731749 0.036499947 0.017797794
0.10584677 -0.03267589 -0.13367438 -0.1508174 0.105779804 -0.06577782 0.10910121 0.044394556
0.13662614 -0.1298943 -0.11440061 0.09800062 0.00908736 0.099183805 0.1704197 -0.13037302
0.098226845 0.038404852 0.060935874 0.114416584 -0.0061090407 -0.13350658 -0.082004055 0.13476951
-0.020934375 -0.05642992 -0.09931643 0.03842486 0.19720477 -0.13336363 -0.13800263 -0.08812832
0.102023505 -0.12272187 -0.081223756 0.21761224 -0.15807877 0.035345547 -0.08524952 0.19117485
-0.08160284 0.19428214 -0.04360259 0.036710583 -0.11820107 0.037417877 0.12904611 0.014828015
0.117678486 -0.07153941 0.119776264 0.023541503 0.19574171 -0.08410501 -0.054579444 -0.017203625
0.024961866 -0.11802553 0.008375998 0.15014324 0.13369316 0.100067936 -0.066830635 -0.14890143
0.16856325 0.017074227 0.016768768 0.19774148 -0.12723422 -0.09116536 0.19062759 0.041259166
-0.14527898 -0.10275355 -0.03803153 -0.07686136 0.12604466 0.19109389 0.10499706 -0.10913337
-0.02367415 0.082434334 -0.14958589 0.023228418 0.118873134 0.15077446 -0.030251978 0.07344822
00000000: fd2d 143e 0785 0bbe b1c9 023e 45fc f63d
00000010: 60a8 d63d 563a aebd b69b 38bc a329 7a3c
00000020: 6296 143c 26f0 af3d 97da 1ebd 48dc b73c
00000030: a99d 45be 1dfa 883c e259 083e 4a84 bd3d
00000040: 89bb 033a 23b8 363e cbc7 c2bc a4ad b73d
00000050: 0216 8d3d 40ed 703c 57e7 a9bd 5b1c 1ebd
00000060: 43bf 1f3e 3ee8 9abc 1e6e 49bd c34d d9bd
00000070: a86d fa3d 14d9 cdbd 65d0 113e c602 91bd
00000080: 10da 943d ac7e d6bd 7e63 423d 2254 523e
00000090: 17e5 413e 7e03 ddbd 981d d53d 6f6b 0abe
000000a0: 907a 033e 53f5 edbc a448 28bd 35a5 84bd
000000b0: 1ba8 31be f698 e33d bad8 d13d f083 c7bd
000000c0: 5bcd 79bd 207d f63d 18d9 4f3e 6872 e83d
000000d0: 9f25 803d b642 cfbc 2071 a7bc b705 debc
000000e0: 1a0d d43d eb76 9cbd b42d b53d da7e 25be
000000f0: 22c7 82bc 8119 873d 0710 f83d 2b1f 4b3e
00000100: d87e ea3d 6e92 11be e813 cb3b e309 9e3d
00000110: b730 57bd 9306 693d c6be 8c3d 7e7e 92bd
00000120: 6b8c eb3d 2463 09bd 9776 fabc b7b7 cabd
00000130: c67e 2dbe cd90 943d f6d0 213e 1865 debb
00000140: 2b99 a5bd a370 7a3d 801f 043e 1f03 a43d
00000150: ea12 e53c 8bdc 043e dbb8 5b3e ef79 03be
00000160: f497 08be fb3f 3e3d 2d1d ef3d fd37 0f3e
00000170: 2e60 46bb e4cb cfbd 9c67 99bd 7e9d 333e
00000180: 288a 0dbe 8250 ad3c e8c2 edbd ec5a 743d
00000190: c10c 88bd bec7 dd38 a773 283d 94fd 95bd
000001a0: 09cc 883d 4dd6 023e f4ef e53d 7424 813d
000001b0: 6546 9a3d 06ef 243e 1c15 1d3d 2fbb 343e
000001c0: b21a bc3d c4be bf3c 4e89 6dbd 42a1 b4bd
000001d0: 5805 3abd 6f59 f4bd 1bd0 f8bd cf44 17be
000001e0: ea88 1e3e 9882 b8bd 81e3 e53d 9e10 eb3d
000001f0: 76af c93d 6c5a 333e 370d 50bd 62b6 18be
00000200: d7d5 cc3d f81f 3bbe 885a 3a3e ee56 ffbd
00000210: be5a e5bd 67ac 553e 7615 163e 10c2 e5bd
00000220: 387e 303e 98a8 a83d 807c b83c af95 1a3d
00000230: cb07 043e 2f1f d63d baba 103d 38cc 04be
00000240: d4d3 f1bd caad dabb 1193 08be ad41 e9bd
00000250: b30c 983d e12b cfbd 7520 17bd 3c4f d3bd
00000260: 1163 e23d 54f9 ba3d 6e5c 343e 42b1 47be
00000270: 8dd6 8e3c 8459 84bc e992 70bb 971e 423d
00000280: 3afa 13be 8cf5 d63d 9b8f 833d f1f2 95bd
00000290: 883f a2bc a258 9e3d f880 153d aecc 913c
000002a0: 31c6 d83d 27d7 05bd f0e1 08be e06f 1abe
000002b0: 15a3 d83d 86b6 86bd 7570 df3d 11d7 353d
000002c0: b9e7 0b3e 0303 05be de4a eabd 8db4 c83d
000002d0: 27e3 143c e120 cb3d 8082 2e3e 8180 05be
000002e0: 282b c93d 684e 1d3d e597 793d 3e53 ea3d
000002f0: 592e c8bb f3b5 08be bef1 a7bd 0501 0a3e
00000300: 917e abbc 0f23 67bd 6a66 cbbd 6363 1d3d
00000310: 0cf0 493e 7a90 08be 9050 0dbe 9f7c b4bd
00000320: b3f1 d03d 9b55 fbbd a458 a6bd bed5 5e3e
00000330: 67df 21be 7ec6 103d 4d97 aebd 57c3 433e
00000340: 641f a7bd e6f1 463e a198 32bd d65d 163d
00000350: 6713 f2bd 7d43 193d aa24 043e 34f1 723c
00000360: 6b01 f13d 4183 92bd 424d f53d 1cda c03c
00000370: 8470 483e 3f3f acbd b28e 5fbd 9eee 8cbc
00000380: d47c cc3c 5eb7 f1bd 7b3b 093c 26bf 193e
00000390: dce6 083e 6bf0 cc3d 80de 88bd 9e79 18be
000003a0: d89b 2c3e 40df 8b3c a85e 893c be7c 4a3e
000003b0: b049 02be e7b4 babd e133 433e 5fff 283d
000003c0: 03c4 14be 7470 d2bd f3c6 1bbd 7d69 9dbd
000003d0: da11 013e 1eae 433e b308 d73d 5181 dfbd
000003e0: 4bf0 c1bc 55d3 a83d 0b2d 19be 8649 be3c
000003f0: c273 f33d 9f64 1a3e ffd2 f7bc 056c 963d

Critic.fc2.bias f4 [32]
0.004870799 0.22533728 0.026731357 -0.15120284 0.03180785 -0.11621377 0.13665564 0.070734434
-0.097139485 0.117179155 0.14404888 0.14883381 0.11893524 0.03843039 0.09136287 0.088087976
0.112908386 0.20259221 0.11099138 -0.12922579 0.19002014 0.08304941 -0.076988876 -0.044230513
0.043606658 -0.11478859 -0.055135522 0.21517012 0.014613916 -0.12432241 0.060732257 -0.022977555
00000000: 399b 9f3b d1be 663e b8fb da3c ebd4 1abe
00000010: f348 023d 7c01 eebd 75ef 0b3e 37dd 903d
00000020: 11f1 c6bd a0fb ef3d 8d81 133e e467 183e
00000030: 5294 f33d 2f69 1d3d 751c bb3d 7867 b43d
00000040: 833c e73d 5574 4f3e 734f e33d c453 04be
00000050: a494 423e cf15 aa3d 58ac 9dbd 0e2b 35bd
00000060: e59c 323d 4816 ebbd c9d5 61bd 8e55 5c3e
00000070: 356f 6f3c bf9c febd 63c2 783d 6d3b bcbc

Critic.fc3.weight f4 [1, 32]
0.044694092 0.044768967 0.04299173 -0.007915758 0.048081476 -0.016088853 0.03609141 0.04975393
0.00432127 0.050326332 0.04112053 0.03638651 0.012787582 0.047134247 0.021383738 0.015347714
0.017943796 0.007976228 0.010862175 0.012532922 0.041840993 0.023886887 0.035102665 0.044370953
0.03052811 0.014959423 0.040266808 0.023683075 0.029793395 -0.00048142558 -0.0034358471 0.019508388
00000000: 2711 373d aa5f 373d 1918 303d 18b1 01bc
00000010: 15f1 443d c5cc 83bc 96d4 133d c7ca 4b3d
00000020: 7199 8d3b fc22 4e3d 006e 283d 050a 153d
00000030: 0283 513c d70f 413d f32c af3c fa74 7b3c
00000040: defe 923c baae 023c 44f7 313c e356 4d3c
00000050: 7661 2b3d 6fae c33c d0c7 0f3d 51be 353d
00000060: 1616 fa3c 5e18 753c cfee 243d 0203 c23c
00000070: 4711 f43c d967 fcb9 f32b 61bb 0ed0 9f3c
