model_9.pt (torch, 114732 bytes, 13 tensors)

Actor.fc1.weight f4 [32, 378]
0	0xbb8a5463	-0.0042214855
1	0xbc3d501a	-0.011554742
2	0x3d9e7a71	0.077381976
3	0x3dd7c0bc	0.10534808
4	0xbcecb52c	-0.028894983
5	0x3d9cb261	0.076512106
6	0x3ce879fc	0.02837848
7	0x3c1c65be	0.009545742
8	0xbcf21838	-0.029552564
9	0x3c521edf	0.012824743
10	0xbcd0dbbd	-0.025495404
11	0x3d354890	0.044258654
12	0xbd8ab783	-0.06773283
13	0xbd6e5356	-0.058184944
14	0xbb910bc9	-0.0044264537
15	0x3d03616e	0.032075338
16	0xbdabf17b	-0.08395668
17	0xbde04365	-0.109503545
18	0x3dca6e43	0.09884312
19	0xbd845874	-0.064621836
20	0xbdccc95e	-0.09999345
21	0xbdd3141c	-0.1030657
22	0x3e07175f	0.13192509
23	0xbd5fb5e7	-0.054616835
24	0xbd3097c6	-0.043113492
25	0xbbe47ebb	-0.0069731153
26	0xbd8e2828	-0.06941253
27	0x3cc63368	0.024194434
28	0x3dadbaff	0.08482932
29	0xbc2ec4ff	-0.010667085
30	0x3ce83f7d	0.028350586
31	0xbdd4fdca	-0.10399969
32	0x3c488136	0.012237838
33	0x3d0ad9fa	0.033899285
34	0x3c7c2645	0.015389984
35	0x3cb3273f	0.0218693
36	0xbd0f8d4e	-0.035046868
37	0xbcf5b139	-0.029991733
38	0x3d325618	0.043539137
39	0xbb81363b	-0.0039432324
40	0x3a6e9fd6	0.0009102797
41	0x3da02643	0.07819798
42	0xbdd0eca3	-0.10201385
43	0xbdf4e5ce	-0.11957894
44	0xbdf662c4	-0.12030557
45	0x3db64683	0.08900168
46	0xbd04fd72	-0.032468267
47	0x000024bf	1.3182e-41
48	0x00294c33	3.79259e-39
49	0x80002a82	-1.5249e-41
50	0x00000871	3.028e-42
51	0x0001c263	1.61568e-40
52	0x8000ae9b	-6.2637e-41
53	0x80019b91	-1.47642e-40
54	0x000048e4	2.6148e-41
55	0x8000200d	-1.1498e-41
56	0x800063a0	-3.5739e-41
57	0x3d9c43a1	0.07630087
58	0x3dc4b49a	0.096047595
59	0x3dd72823	0.10505702
60	0x3ae9b5f9	0.0017830721
61	0x3ce2e5f7	0.027697546
62	0x3bac7bcd	0.0052637816
63	0xbd7fecbe	-0.062481634
64	0xbb6da5b8	-0.0036262106
65	0x3d2bbbcc	0.041927144
66	0x3dc79e08	0.09746939
67	0x3dc8fafd	0.09813497
68	0x3d605de9	0.05477706
69	0x3d87dbd1	0.066337235
70	0xbae357ab	-0.0017344853
71	0x3da2c2b1	0.07947291
72	0xbb5bfd5d	-0.0033567764
73	0xbd83dc8a	-0.06438549
74	0xbcd486e6	-0.02594323
75	0x3dc63bc1	0.09679366
76	0x3cc85425	0.024454186
77	0x3ca357fd	0.019939417
78	0x3d4d2c2c	0.050090954
79	0x3dae8b3f	0.08522653
80	0x3c82988e	0.015941884
81	0x3d86825e	0.06567834
82	0xbb771c3c	-0.0037706038
83	0xbda373b2	-0.079810515
84	0xbce36b25	-0.027761051
85	0x3dd115df	0.1020925
86	0x3dbbddbd	0.091731526
87	0x3dae0434	0.084968954
88	0x3dae84ea	0.08521445
89	0x3d32a1ff	0.043611523
90	0x3c731954	0.014837582
91	0x3d819668	0.06327516
92	0xbdaeecf5	-0.0854129
93	0x3aa6a499	0.0012713849
94	0xbcb27ae2	-0.02178711
95	0xbcab689c	-0.020923905
96	0x3ccc34da	0.024927545
97	0x3cf3b3cf	0.029748825
98	0x3cd5afda	0.02608483
99	0x3d93ca8b	0.072163664
100	0x3d23b4ca	0.039967336
101	0x3d078eec	0.033095285
102	0xbdb84887	-0.089982085
103	0x3d8a820a	0.06763084
104	0xbcf41691	-0.029795917
105	0xbdc5a256	-0.09650104
106	0x3dc82434	0.0977253
107	0x3d6a8fcb	0.057266038
108	0x3cfb5ba2	0.030683342
109	0x3db244be	0.08704518
110	0xbd4f0873	-0.050545167
111	0xbd906242	-0.07049991
112	0xbc63e02e	-0.013908429
113	0xbc9a9405	-0.01886941
114	0xbd00cc38	-0.03144476
115	0xbcb3a7c4	-0.021930583
116	0x3d46ac85	0.04850437
117	0x3dd4e3da	0.10395022
118	0x3d816761	0.06318546
119	0x3d6864f6	0.05673691
120	0xbd84378e	-0.06455909
121	0x3d8c3ad8	0.06847161
122	0x3db810a3	0.08987548
123	0x3da4211e	0.08014129
124	0x3d823b9d	0.063590266
125	0xbcd1c312	-0.025605712
126	0x3d5138d7	0.051079597
127	0x3d89d05c	0.067291945
128	0x3c8c6825	0.017139504
129	0x3d25366a	0.040335096
130	0xbd365369	-0.04451314
131	0x3cf40d38	0.02979146
132	0x3ddd3e13	0.10802855
133	0x3cd2fa2a	0.025754053
134	0x3d8fc2e7	0.070195965
135	0xbdaadc8f	-0.083428495
136	0x3d053804	0.032524124
137	0x3d53a036	0.05166646
138	0x3dac386f	0.08409201
139	0x3d8d1535	0.068888105
140	0x3d7f8836	0.06238576
141	0xbd9f1450	-0.07767546
142	0x3d09fceb	0.033688467
143	0xbd6d4213	-0.05792434
144	0x3d8c6e39	0.06856961
145	0xbd348cf3	-0.044079732
146	0x3db08550	0.08619177
147	0x3d565c1f	0.052333947
148	0x3de227e9	0.110427685
149	0x3d829e58	0.06377858
150	0x3bfce186	0.007717314
151	0xbcf686cb	-0.030093571
152	0x3d223579	0.039601777
153	0x3d28f86c	0.04125254
154	0xbd9bf208	-0.07614523
155	0x3cf12805	0.029438028
156	0x3d0f500f	0.03498846
157	0x3b56eb55	0.0032794077
158	0x3d9ca615	0.07648865
159	0x3da6109e	0.08108638
160	0x3d513b2b	0.051081818
161	0xbd6643c1	-0.05621696
162	0x3d16f220	0.036852002
163	0x3d07ad6f	0.033124384
164	0xbde28662	-0.11060788
165	0x3dbe1ec4	0.09283212
166	0x3d89f6b0	0.06736505
167	0x3d82caf5	0.06386367
168	0x3d837699	0.06419105
169	0x3dba0899	0.09083671
170	0xbbc1c125	-0.005912917
171	0xbccda9b0	-0.025105327
172	0xbd04580c	-0.03231053
173	0x3d0ac8fd	0.033883084
174	0x3d2af983	0.04174186
175	0x3d3e8b82	0.046519764
176	0x3dde2a31	0.10847891
177	0x3c825da6	0.015913796
178	0x3d5d424c	0.054018304
179	0x3d99c932	0.07509078
180	0xbc11b5c8	-0.008893438
181	0xbd8a82f5	-0.06763259
182	0xbdb3bc4f	-0.087761514
183	0x3d54787e	0.051872723
184	0x3d987685	0.07444481
185	0x3d3a8324	0.04553522
186	0x3dd6211e	0.10455535
187	0x800013ef	-7.151e-42
188	0x0000bd93	6.8006e-41
189	0x00022950	1.98491e-40
190	0x8001f2a6	-1.78881e-40
191	0x80014781	-1.17486e-40
192	0x00005b13	3.2671e-41
193	0x3c9b30ff	0.018944262
194	0x3cdda11b	0.02705436
195	0xbb73fa9a	-0.0037228228
196	0xbd1f2cd7	-0.038861122
197	0xbc5ad14b	-0.013355563
198	0xbd893449	-0.06699426
199	0xbd137c28	-0.036007077
200	0xbdbcce4c	-0.092190355
201	0xbcc89a6e	-0.0244877
202	0x3cd3b45a	0.025842834
203	0xbc988e2a	-0.018622477
204	0xbd5d6aa2	-0.05405677
205	0x3d3c95e7	0.046041396
206	0xbcc06d1d	-0.02348953
207	0x3cc204f8	0.02368401
208	0x3b92222a	0.004459639
209	0xbc5e0739	-0.013551527
210	0xbc819bb0	-0.015821308
211	0x3bef41f0	0.0073015615
212	0xbca06f00	-0.019584179
213	0xbc9fecdf	-0.019522129
214	0x3d44f89e	0.048088662
215	0xbc9f5864	-0.019451328
216	0xbd8ded92	-0.069300786
217	0x3d2f11db	0.042741638
218	0x3dd1437b	0.10217949
219	0x3d6cdd7e	0.05782842
220	0x3d375dab	0.044767063
221	0x3c6a1b0a	0.014288673
222	0x3cd18f4b	0.025581023
223	0x3b3f236d	0.0029165403
224	0x3de6f3b0	0.112769485
225	0xbc642f87	-0.013927347
226	0x3da2e0a7	0.07953005
227	0xb913e69a	-0.00014104918
228	0x3c4c8914	0.012483854
229	0xbc421c77	-0.011847607
230	0xbbebb6c7	-0.0071934196
231	0xbcfc4574	-0.030794837
232	0x3d758f4e	0.05995112
233	0x3d0caad2	0.034342594
234	0xbc4f3419	-0.012646698
235	0xbd27c28c	-0.04095702
236	0x3d90f7a8	0.07078487
237	0x3cd7f329	0.026361065
238	0x3d8fb4f0	0.07016933
239	0xbcde8883	-0.027164703
240	0xbd1546c7	-0.03644445
241	0x3cc50be0	0.024053514
242	0x3dcbde0a	0.0995446
243	0x3c8e74d2	0.017389689
244	0x3d248583	0.04016639
245	0x3c7d6b43	0.015467468
246	0xb945dfef	-0.00018870806
247	0x3d613482	0.054981716
248	0x3e0aa13e	0.13538072
249	0x3d6cf251	0.05784828
250	0xbdc7ecd2	-0.09761967
251	0x3e2485c2	0.1606665
252	0xbcb94661	-0.022616567
253	0x3d9bac85	0.07601265
254	0x3e06e396	0.13172755
255	0xbe41fee3	-0.18944888

Actor.fc1.bias f4 [32]
0	0x3de0b9a8	0.10972911
1	0x3d9b3bc6	0.0757976
2	0xbd68e4b4	-0.056858733
3	0x3dee883c	0.116470784
4	0x3e13549b	0.14387743
5	0xbd89344e	-0.066994295
6	0x3e20569e	0.15658042
7	0xbd088c4f	-0.033336934
8	0x3d109cd7	0.035305824
9	0x3ccaa79b	0.024738124
10	0x3cd31c00	0.025770187
11	0x3c93f0fd	0.018059248
12	0x3e14169e	0.14461753
13	0x3dd1ccf0	0.10244167
14	0x3ca65998	0.020306394
15	0x3d4a2700	0.0493536
16	0xb68986d8	-4.098616e-06
17	0x3d830afb	0.06398579
18	0x3daf0e31	0.08547629
19	0x3e064afb	0.1311454
20	0x3b929663	0.004473494
21	0xbd87a781	-0.06623746
22	0xbb59fcbc	-0.0033262214
23	0x3caf150f	0.021372346
24	0xbc96b749	-0.018397944
25	0x3c55bfb9	0.0130461985
26	0x3d8c848d	0.068612196
27	0x3e108cf9	0.14116277
28	0x3d21219b	0.03933869
29	0x3d9d7584	0.0768843
30	0xbd02950c	-0.031880423
31	0x3e0bc573	0.1364954

Actor.fc2.weight f4 [32, 32]
0	0xbd006d2b	-0.03135411
1	0x3e0aceff	0.13555525
2	0x3c43c565	0.011948918
3	0x3e577bac	0.21043271
4	0xbd03d5b1	-0.032186214
5	0xbdbe6e51	-0.09298385
6	0x3df61169	0.120150395
7	0x3e0f2cfa	0.13982001
8	0xbd507752	-0.050895043
9	0x3dccad6a	0.099940136
10	0xbe2b4ade	-0.16727778
11	0x3e39fbad	0.18162413
12	0x3b8143ce	0.0039448505
13	0xbd959246	-0.0730329
14	0x3e27d34a	0.16389194
15	0x3d4ad174	0.049516156
16	0x3d051f46	0.032500528
17	0xbd1d693f	-0.03843045
18	0xbe155f09	-0.14587034
19	0x3e2f1cb0	0.17100787
20	0xbd9bb7a9	-0.0760339
21	0x3e213475	0.15742667
22	0xbdcd2d04	-0.10018352
23	0xbe07d140	-0.13263416
24	0xbd621727	-0.05519786
25	0xbd05065c	-0.032476768
26	0x3e1acb94	0.15116721
27	0x3dc3aa2a	0.095539406
28	0x3d2c2595	0.04202803
29	0x3deca8a1	0.11555601
30	0xbe0e4fb0	-0.13897586
31	0x3e5b1f30	0.21398616
32	0x3de4e4bc	0.1117644
33	0xbe00540d	-0.12532063
34	0x3c60a63e	0.01371151
35	0x3e185e9a	0.14879838
36	0x3e6fc9a5	0.23416765
37	0x3dcb64df	0.09931349
38	0x3dd90664	0.10596922
39	0x3df75a9d	0.1207783
40	0x3e2bcb4f	0.16776775
41	0x3e1c8428	0.15284789
42	0x3dce8012	0.10083021
43	0xbd0195ae	-0.031636886
44	0xbcc75b97	-0.024335666
45	0xbe29c774	-0.16579992
46	0x3dde4740	0.108534336
47	0x3d45d256	0.048296295
48	0xbb96d89e	-0.0046034595
49	0x3e16b7db	0.14718573
50	0x3c9618a9	0.018322306
51	0x3d410a2f	0.047128852
52	0xbddb0b35	-0.10695497
53	0x3dbee048	0.09320122
54	0xbde3baaf	-0.111195914
55	0xbd8647ca	-0.065566614
56	0xbd5c389e	-0.05376493
57	0x3e05a211	0.13050105
58	0x3dee8147	0.116457514
59	0x3e34b505	0.17647178
60	0x3d2866a5	0.041113514
61	0xbcf5bc25	-0.02999694
62	0x3d042f12	0.032271452
63	0x3df92bf6	0.12166588
64	0x3e1dc4a9	0.15407051
65	0xbdb09b76	-0.08623402
66	0xbd037a33	-0.03209896
67	0x3e2af731	0.16695859
68	0x3d63f276	0.05565115
69	0xbd37562b	-0.04475991
70	0x3e6931d2	0.22772911
71	0x3d030383	0.03198577
72	0x3db6d5fc	0.08927533
73	0xbdcf59f9	-0.10124583
74	0xbc1c496c	-0.0095389895
75	0x3e0e291f	0.13882874
76	0xbd87227c	-0.06598374
77	0xbd7d7006	-0.061874412
78	0xbd4fc63d	-0.050726164
79	0x3d4663a6	0.048434876
80	0xb8e6625c	-0.000109855755
81	0xbe119c4b	-0.14219777
82	0xbd7abd7e	-0.06121587
83	0x3e64317b	0.222845
84	0x3d68e6a1	0.05686057
85	0xbd06ff04	-0.032958046
86	0x3e0c5ca8	0.1370722
87	0x3e20cbab	0.15702693
88	0xbd5d0d63	-0.053967845
89	0x3d7d118f	0.061784323
90	0x3dca5cc9	0.098809786
91	0x3dace1c0	0.08441496
92	0x3d2d3455	0.042286236
93	0x3d8d7b3a	0.06908269
94	0x3dc92a51	0.09822524
95	0x3d999cc5	0.075006045
96	0xbe0d17d4	-0.13778621
97	0xbc369126	-0.0111430045
98	0x3de5c8ff	0.112199776
99	0x3d7b5aa6	0.061365746
100	0x3c10a287	0.008827812
101	0x3d530f67	0.05152836
102	0x3c4965c2	0.012292327
103	0xbe143d00	-0.14476395
104	0x3dfe4018	0.12414569
105	0x3d864d08	0.06557661
106	0x3dd089d8	0.101825416
107	0x3ba0226c	0.004886916
108	0x3db024e1	0.08600784
109	0x3d168d7a	0.036756016
110	0xbd152250	-0.036409676
111	0x3d47a0fe	0.04873752
112	0x3d4d6af4	0.050150827
113	0xbd7f7e51	-0.062376324
114	0x3d47b8ea	0.048760332
115	0x3dc1b4c1	0.09458304
116	0xbddaeb6b	-0.10689434
117	0xbdb08bf9	-0.08620448
118	0x3cb2bf68	0.021819785
119	0xbdf58a88	-0.11989313
120	0xbd67d547	-0.05659988
121	0xbe1f0eff	-0.15533064
122	0xbdc341ee	-0.095340595
123	0x3e35dffd	0.17761226
124	0x3d2eeefd	0.042708386
125	0x3da79539	0.08182759
126	0xbe096139	-0.13415994
127	0x3e71b9e8	0.23606074
128	0x3db74d64	0.08950308
129	0x3d0869d6	0.033304058
130	0xbe1196ab	-0.14217632
131	0x3e3b4acd	0.18290253
132	0x3e07aea0	0.13250208
133	0xbda7929c	-0.081822604
134	0x3de9162f	0.11381184
135	0xbb9b4db4	-0.0047394875
136	0x3e21a922	0.15787175
137	0x3e27e3d2	0.163955
138	0x3de4f9c8	0.111804545
139	0xbd638cad	-0.05555408
140	0x3e64fd0b	0.22362153
141	0x3dda6580	0.10663891
142	0xbd4b5131	-0.049637977
143	0x3d4fb64a	0.050710954
144	0xbbb9dab6	-0.0056718243
145	0xbdb555d6	-0.088542625
146	0x3cc602f2	0.024171326
147	0x3e321bca	0.17393413
148	0x3d451e70	0.04812473
149	0xbd5ddcb6	-0.054165564
150	0x3da46376	0.08026783
151	0xbb180bbd	-0.0023200356
152	0xbd59d63b	-0.05318282
153	0x3d4a979e	0.049461
154	0xbd8e1ae8	-0.06938726
155	0xbd71cfaa	-0.059035935
156	0x3d3f667f	0.046728607
157	0xbe153434	-0.14570695
158	0x3e1618f2	0.14657953
159	0x3e7a9ba2	0.24473432
160	0xbd9cc3ab	-0.07654508
161	0xbc4ab393	-0.012371915
162	0x3d5dd267	0.054155733
163	0xbbdd62e3	-0.006756173
164	0xbdb51c14	-0.08843246
165	0xbdffc1ac	-0.12488112
166	0x3e549cba	0.20762911
167	0x3dddc27a	0.10828109
168	0x3e0e59d9	0.13901462
169	0xbdf3f076	-0.11911099
170	0x3db8ad4e	0.0901743
171	0x3e047f14	0.12939101
172	0x3e27c901	0.1638527
173	0x3e36d2f7	0.17853914
174	0x3de7874a	0.11305101
175	0x3d5447ae	0.05182617
176	0xbbe06ba8	-0.006848771
177	0x3d8685c8	0.065684855
178	0x3ce81a26	0.028332781
179	0x3e50f5d3	0.20406274
180	0xbd90b61e	-0.07065986
181	0x3dd04514	0.101694256
182	0x3d9a5060	0.075348616
183	0xbd9a662b	-0.07539018
184	0xbd04fea8	-0.03246942
185	0xbdd7d18e	-0.10538016
186	0x3e41dac0	0.18931103
187	0x3e242045	0.16027935
188	0x3d2b05e2	0.041753657
189	0x3e10d19c	0.1414246
190	0xbddf5c4b	-0.10906275
191	0x3e4ecbb0	0.20194888
192	0x3d3903c5	0.04516961
193	0x3dedc23f	0.11609315
194	0xbdebbbf8	-0.115104616
195	0x3dde38ac	0.10850653
196	0x3e503cad	0.20335646
197	0x3e11b6d8	0.14229906
198	0x3d88e382	0.06684019
199	0x3daa80a9	0.08325321
200	0x3deab6b7	0.11460631
201	0xbd15337a	-0.036426045
202	0xbb654258	-0.003498217
203	0xbcdc5833	-0.026897525
204	0xbdbd6c07	-0.0924912
205	0x3e026ec0	0.1273756
206	0x3e12240f	0.14271568
207	0x3d43af96	0.047774874
208	0xbd1f413f	-0.038880583
209	0x3e1ab480	0.15107918
210	0x3e04253b	0.12904827
211	0x3e559cd0	0.208606
212	0xbcfdcb35	-0.030980686
213	0xbdd483ca	-0.10376699
214	0xbdb22c41	-0.08699847
215	0xbd6a5d3f	-0.057217833
216	0xbd670887	-0.056404617
217	0xbe20b8e9	-0.15695538
218	0xbd8a42cc	-0.06751022
219	0xbce71df5	-0.028212527
220	0x3d2a335a	0.04155288
221	0x3d99c313	0.075079106
222	0xbd0c2f68	-0.034224898
223	0x3e37c2c0	0.17945385
224	0xbd3f6139	-0.046723578
225	0x3dbfc63a	0.093639806
226	0xbd9671a7	-0.07345896
227	0x3d1a8f3f	0.037734266
228	0x3d9ad0ea	0.075593784
229	0x3d24a9e6	0.04020109
230	0xbdb00dc7	-0.08596378
231	0xbe0cfb1a	-0.13767663
232	0x3dba477a	0.09095664
233	0x3ce07fc3	0.027404672
234	0xbde13b43	-0.109976314
235	0x3e17cde7	0.1482464
236	0x3e376119	0.17908134
237	0x3d02d70a	0.03194336
238	0x3e185672	0.14876726
239	0x3d4ad96b	0.049523752
240	0x3be2daaf	0.006923042
241	0x3e1d1a92	0.15342167
242	0x3e118c39	0.14213647
243	0x3e01716b	0.12640922
244	0xbc46f1e0	-0.012142628
245	0x3d8c877a	0.068617776
246	0xbd7e60c3	-0.062103998
247	0xbdcaf3e1	-0.099097975
248	0xbd624013	-0.055236887
249	0xbe133a36	-0.14377674
250	0xbb18ad8f	-0.0023296808
251	0x3df54bcc	0.11977348
252	0x3d2a6f08	0.041609794
253	0xbdee030f	-0.11621677
254	0x3e25b01e	0.16180465
255	0x3db52b0d	0.08846102

Actor.fc2.bias f4 [32]
0	0xbd055228	-0.032549053
1	0x3e04dcee	0.12974903
2	0xbd513dfa	-0.051084496
3	0x3d8d9ce4	0.0691469
4	0x3dc0206e	0.093811855
5	0x3e615dda	0.22008458
6	0x3e00b0d4	0.12567455
7	0xbdb2f11c	-0.08737394
8	0xbda24dea	-0.07925017
9	0x3e1d7b9d	0.15379186
10	0x3e090de6	0.13384208
11	0x3e51a12b	0.20471637
12	0x3e1f4af1	0.15555932
13	0x3e1251a8	0.14288962
14	0x3e06b6a9	0.13155617
15	0x3d8418c8	0.06450039
16	0xbbfbdf67	-0.0076865437
17	0x3de9a874	0.11409083
18	0x3ccfd075	0.025367955
19	0xbd1f6a96	-0.038920008
20	0x3b4c6b3e	0.003119185
21	0xbcd66dae	-0.026175346
22	0xbdbeabbc	-0.093100995
23	0x3c5aeaa2	0.013361605
24	0x3e59944d	0.21247979
25	0x3bc5f38a	0.006040995
26	0x3e2d67dd	0.16934152
27	0x3e566bec	0.20939606
28	0x3e3e8bb3	0.18607979
29	0xbdc08473	-0.09400263
30	0xbcbe3b7d	-0.023221726
31	0x3d77f769	0.060538683

Actor.mean_fc3.weight f4 [17, 32]
0	0x00001681	8.073e-42
1	0x801cb106	-2.634898e-39
2	0x0004ea83	4.51469e-40
3	0x000003cf	1.366e-42
4	0x80000013	-2.7e-44
5	0x802e748d	-4.266243e-39
6	0x00003263	1.8075e-41
7	0x0018e38a	2.285678e-39
8	0x80613099	-8.925477e-39
9	0x0014e9bb	1.920557e-39
10	0x000018b5	8.863e-42
11	0x00175f8b	2.146491e-39
12	0x013c8c31	3.463073e-38
13	0x8000375e	-1.9862e-41
14	0x800001de	-6.7e-43
15	0x80000eca	-5.305e-42
16	0x00b970f6	1.703009e-38
17	0x81116a01	-2.6708348e-38
18	0x00ece02d	2.1753596e-38
19	0x8000346d	-1.8807e-41
20	0x000ec72c	1.357146e-39
21	0x8040d570	-5.954039e-39
22	0x00003a92	2.1011e-41
23	0x80004902	-2.619e-41
24	0x80000f20	-5.426e-42
25	0x00732dfb	1.0577577e-38
26	0x000042b7	2.3933e-41
27	0x00003a75	2.097e-41
28	0x802b0aec	-3.952844e-39
29	0x801be99d	-2.563363e-39
30	0x00004cda	2.7569e-41
31	0x00005393	2.9981e-41
32	0x80a193a6	-1.4838481e-38
33	0x000048c3	2.6102e-41
34	0x00000ccc	4.59e-42
35	0x001c3caf	2.593163e-39
36	0x00001b92	9.89e-42
37	0x0014f3fc	1.924235e-39
38	0x80005652	-3.0966e-41
39	0x010e244d	2.6107325e-38
40	0x00006820	3.7353e-41
41	0x000011d3	6.394e-42
42	0x000008ae	3.114e-42
43	0x000006c6	2.43e-42
44	0x80005abf	-3.2554e-41
45	0x8020190c	-2.947721e-39
46	0x00193177	2.313632e-39
47	0x00000a85	3.774e-42
48	0x010fd97a	2.6420984e-38
49	0x800068fb	-3.766e-41
50	0x000031d1	1.7871e-41
51	0x00006efd	3.9815e-41
52	0x802bfb7d	-4.039143e-39
53	0x80005a38	-3.2364e-41
54	0x0027b2cb	3.645723e-39
55	0x800817a0	-7.43159e-40
56	0x80c8ee86	-1.8452665e-38
57	0x00002f21	1.6907e-41
58	0x0010cafc	1.542185e-39
59	0x80002b54	-1.5543e-41
60	0x00005615	3.088e-41
61	0x80005aaa	-3.2524e-41
62	0x800043ac	-2.4276e-41
63	0x00004a8c	2.6742e-41
64	0x000046e7	2.5435e-41
65	0x000a6d43	9.5755e-40
66	0x80000a2e	-3.652e-42
67	0x00003772	1.989e-41
68	0x00003a4f	2.0917e-41
69	0x000009a6	3.461e-42
70	0x80002ab1	-1.5315e-41
71	0x010542d9	2.4476203e-38
72	0x80002b2b	-1.5486e-41
73	0x806b94ad	-9.879733e-39
74	0x00003ff8	2.2948e-41
75	0x80006be7	-3.8708e-41
76	0x80003ce1	-2.1839e-41
77	0x802230fb	-3.139978e-39
78	0x800045fc	-2.5106e-41
79	0x00001ecb	1.1046e-41
80	0x8000084d	-2.978e-42
81	0x00002f24	1.6911e-41
82	0x00005df3	3.3703e-41
83	0x8035317f	-4.885037e-39
84	0x00268ca3	3.5402e-39
85	0x00000a2d	3.65e-42
86	0x00000dd3	4.959e-42
87	0x807d48c4	-1.150554e-38
88	0x80138aa6	-1.794612e-39
89	0x81402426	-3.5290766e-38
90	0x0000344c	1.876e-41
91	0x80005926	-3.198e-41
92	0x00005847	3.1668e-41
93	0x00003f6f	2.2756e-41
94	0x80004c48	-2.7365e-41
95	0x8186fb3a	-4.958432e-38
96	0x0029b63d	3.83063e-39
97	0x00554e11	7.834022e-39
98	0x8000387d	-2.0264e-41
99	0x00004995	2.6396e-41
100	0x011edaa9	2.9176898e-38
101	0x002e6abe	4.262725e-39
102	0x8000489d	-2.6049e-41
103	0x00000554	1.911e-42
104	0x001f60f2	2.881678e-39
105	0x80000a65	-3.729e-42
106	0x8000678d	-3.7147e-41
107	0x80004503	-2.4757e-41
108	0x8095cb6a	-1.375646e-38
109	0x8005fb3f	-5.49308e-40
110	0x00006161	3.4933e-41
111	0x00004637	2.5188e-41
112	0x000025f7	1.3619e-41
113	0x00001b7e	9.862e-42
114	0x80144fe8	-1.865375e-39
115	0x814459d0	-3.6063952e-38
116	0x80005659	-3.0976e-41
117	0x0000106d	5.892e-42
118	0x800022c2	-1.2469e-41
119	0x8000067b	-2.325e-42
120	0x803b44bb	-5.44295e-39
121	0x80002f9c	-1.7079e-41
122	0x0000085b	2.997e-42
123	0x00003807	2.0099e-41
124	0x800062ab	-3.5395e-41
125	0x8000660e	-3.661e-41
126	0x00002214	1.2225e-41
127	0x00001db5	1.0657e-41
128	0x000008d7	3.171e-42
129	0x80002903	-1.4712e-41
130	0x000041ca	2.36e-41
131	0x000023c3	1.2829e-41
132	0x00005a2f	3.2352e-41
133	0x80002aed	-1.5399e-41
134	0x01bc4a7d	6.916718e-38
135	0x810b1f51	-2.5552736e-38
136	0x00003af3	2.1147e-41
137	0x00005e41	3.3812e-41
138	0x8000189b	-8.827e-42
139	0x00005174	2.922e-41
140	0x00002bb5	1.5679e-41
141	0x80005a15	-3.2315e-41
142	0x8034d440	-4.851587e-39
143	0x00005015	2.8728e-41
144	0x8012470e	-1.678529e-39
145	0x80058858	-5.08088e-40
146	0x8051ccb2	-7.512106e-39
147	0x80278319	-3.628613e-39
148	0x802e9de6	-4.281076e-39
149	0x002eb21b	4.288325e-39
150	0x800043a9	-2.4272e-41
151	0x80002f65	-1.7002e-41
152	0x80919ba6	-1.3371983e-38
153	0x800008f5	-3.213e-42
154	0x801f3889	-2.867181e-39
155	0x00001a98	9.54e-42
156	0x002c8180	4.087218e-39
157	0x00001d35	1.0478e-41
158	0x00112417	1.57415e-39
159	0x00005203	2.942e-41
160	0x00000a57	3.709e-42
161	0x00001fae	1.1365e-41
162	0x00005174	2.922e-41
163	0x002d9ae4	4.188162e-39
164	0x00006bdd	3.8694e-41
165	0x80f2fcaa	-2.2314829e-38
166	0x0000645a	3.6e-41
167	0x80001d5b	-1.0531e-41
168	0x00783fe0	1.1043174e-38
169	0x00003651	1.9485e-41
170	0x00001fd2	1.1415e-41
171	0x000024e8	1.324e-41
172	0x00004dee	2.7956e-41
173	0x000044be	2.466e-41
174	0x0060120b	8.82268e-39
175	0x801492ab	-1.889324e-39
176	0x819af44e	-5.6921226e-38
177	0x80bdb676	-1.7422363e-38
178	0x00002280	1.2376e-41
179	0x80132b34	-1.760373e-39
180	0x80001f94	-1.1328e-41
181	0x80246e7f	-3.345716e-39
182	0x80000fca	-5.664e-42
183	0x00004ef7	2.8327e-41
184	0x800021c6	-1.2116e-41
185	0x00005b15	3.2674e-41
186	0x00001516	7.564e-42
187	0x80002524	-1.3324e-41
188	0x800013d1	-7.109e-42
189	0x80003249	-1.8039e-41
190	0x800e6cb0	-1.324687e-39
191	0x000055f6	3.0837e-41
192	0x800002fd	-1.072e-42
193	0x800025a2	-1.35e-41
194	0x00003cd5	2.1822e-41
195	0x80005f4d	-3.4187e-41
196	0x80001770	-8.408e-42
197	0x800034bb	-1.8916e-41
198	0x80000ff2	-5.72e-42
199	0x8000423b	-2.3759e-41
200	0x80003f0c	-2.2617e-41
201	0x00003e38	2.232e-41
202	0x80000cb4	-4.557e-42
203	0x80002f0f	-1.6881e-41
204	0x800da1aa	-1.251856e-39
205	0x8010af6a	-1.532295e-39
206	0x00002f2a	1.6919e-41
207	0x00005a8e	3.2485e-41
208	0x0039c7ce	5.3063e-39
209	0x800017a2	-8.478e-42
210	0x80004f03	-2.8344e-41
211	0x00003880	2.0268e-41
212	0x800039f0	-2.0784e-41
213	0x8000545d	-3.0264e-41
214	0x00003455	1.8773e-41
215	0x80001f23	-1.117e-41
216	0x800000e2	-3.17e-43
217	0x000031d5	1.7876e-41
218	0x813844e6	-3.3844895e-38
219	0x00006a63	3.8164e-41
220	0x003473a6	4.816933e-39
221	0x00005522	3.054e-41
222	0x0000343d	1.874e-41
223	0x011370c3	2.7080538e-38
224	0x80005e34	-3.3794e-41
225	0x80002ddd	-1.6453e-41
226	0x00005cd5	3.3302e-41
227	0x0000658d	3.643e-41
228	0x800023b8	-1.2813e-41
229	0x80000560	-1.928e-42
230	0x800009b9	-3.488e-42
231	0x800b649d	-1.046284e-39
232	0x00005162	2.9195e-41
233	0x00002e18	1.6535e-41
234	0x00006331	3.5583e-41
235	0x00003598	1.9226e-41
236	0x80002643	-1.3726e-41
237	0x00002157	1.196e-41
238	0x0019f5ab	2.384016e-39
239	0x00006ca2	3.897e-41
240	0x8007ca60	-7.15447e-40
241	0x003b24c5	5.431485e-39
242	0x00000ef1	5.36e-42
243	0x800030cd	-1.7506e-41
244	0x80006e31	-3.9529e-41
245	0x80003324	-1.8346e-41
246	0x800054ef	-3.0468e-41
247	0x80000bff	-4.303e-42
248	0x819a4646	-5.6671503e-38
249	0x001df8f8	2.752543e-39
250	0x000006ee	2.486e-42
251	0x0000228c	1.2393e-41
252	0x802f0885	-4.319325e-39
253	0x000036f3	1.9712e-41
254	0x00004327	2.409e-41
255	0x00000e8c	5.218e-42

Actor.mean_fc3.bias f4 [17]
0	0x80006894	-3.7516e-41
1	0x00006a0f	3.8047e-41
2	0x00004115	2.3347e-41
3	0x000982e1	8.7347e-40
4	0x80000a86	-3.775e-42
5	0x00003430	1.8721e-41
6	0x8036186d	-4.967879e-39
7	0x80654b3b	-9.302373e-39
8	0x80352d8c	-4.88362e-39
9	0x802180e2	-3.076806e-39
10	0x80077ca0	-6.87555e-40
11	0x80006a12	-3.8051e-41
12	0x8000300b	-1.7235e-41
13	0x800004e7	-1.759e-42
14	0x00001a0b	9.342e-42
15	0x00001b9d	9.906e-42
16	0x800012cd	-6.744e-42

Actor.log_std_fc3.weight f4 [17, 32]
0	0xbcbf133e	-0.023324605
1	0xbc43146c	-0.011906724
2	0xbdc12384	-0.09430602
3	0xbc64f305	-0.013973956
4	0xbca924b9	-0.020647394
5	0xbc5ac792	-0.013353245
6	0xbc5d62a0	-0.013512284
7	0xbd8fc07e	-0.07019137
8	0xbc4084c8	-0.0117504075
9	0xbdf5a293	-0.11993899
10	0xbc4ebbd1	-0.012618021
11	0xbddcf5a9	-0.107890435
12	0xbd0a8686	-0.033819698
13	0xbc8b3f2f	-0.016997902
14	0xbd85f690	-0.06541169
15	0xbc3bc20a	-0.011459837
16	0xbc9c597b	-0.019085636
17	0xbc716af1	-0.0147349695
18	0xbdbf1320	-0.0932982
19	0xbc1fb764	-0.009748314
20	0xbc3b4329	-0.011429586
21	0xbc885e87	-0.016646637
22	0xbc4dda82	-0.012564303
23	0xbc270e46	-0.010196274
24	0xbc331420	-0.010930091
25	0xbc0cccae	-0.008593721
26	0xbc0e303a	-0.00867849
27	0xbd17686c	-0.03696482
28	0xbc14cfdf	-0.009082763
29	0xbc853147	-0.016258849
30	0xbc88b09f	-0.016685782
31	0xbc993be9	-0.018705325
32	0xbcc86440	-0.024461865
33	0xbc2fc584	-0.010728244
34	0xbdb383bf	-0.08765363
35	0xbcd07137	-0.02544461
36	0xbd426e3c	-0.04746841
37	0xbc1c9d3f	-0.009558975
38	0xbcac4f9b	-0.021034053
39	0xbd867ff6	-0.06567375
40	0xbc913fce	-0.01773062
41	0xbdba51ff	-0.09097671
42	0xbc20ec3d	-0.009821949
43	0xbdaaf781	-0.08347989
44	0xbd6c2cb0	-0.057659805
45	0xbc91fb48	-0.017820016
46	0xbd6ebf47	-0.058287885
47	0xbc10ca2a	-0.008837262
48	0xbcca0a26	-0.024663042
49	0xbc74dc49	-0.014945098
50	0xbda1c97d	-0.07899759
51	0xbb931741	-0.004488856
52	0xbc17124a	-0.009220669
53	0xbcba3c8f	-0.022733955
54	0xbc997d29	-0.018736439
55	0xbc1755ec	-0.009236794
56	0xbbf08ac9	-0.007340763
57	0xbc422e2c	-0.011851829
58	0xbbfab44b	-0.007650887
59	0xbd2fc2cf	-0.042910393
60	0xbc5d3065	-0.013500308
61	0xbca7f3eb	-0.020502051
62	0xbc895a00	-0.016766548
63	0xbcdf88e2	-0.02728695
64	0xbcaa1597	-0.020762248
65	0xbc38c8df	-0.01127836
66	0xbdb7093c	-0.08937308
67	0xbcf15456	-0.02945916
68	0xbd19cd41	-0.03754926
69	0xbc7974e1	-0.01522562
70	0xbc81d6d5	-0.01584951
71	0xbd84ff56	-0.06494014
72	0xbcc23ea1	-0.023711504
73	0xbdc582ca	-0.09644087
74	0xbc1240f1	-0.008926616
75	0xbdaeb3f5	-0.08530418
76	0xbd47aa64	-0.04874648
77	0xbc84f68d	-0.016230846
78	0xbd7fd64e	-0.062460236
79	0xbb8e9443	-0.0043511703
80	0xbcc5d2d5	-0.024148384
81	0xbc93af59	-0.018027948
82	0xbd9e21cc	-0.0772129
83	0xbbd9a5c2	-0.0066420743
84	0xbc25587f	-0.0100919
85	0xbcc911de	-0.024544653
86	0xbc91bb9c	-0.017789654
87	0xbbe4e4a5	-0.0069852644
88	0xbc035624	-0.008016143
89	0xbc2947ab	-0.010332028
90	0xbbb1f5bc	-0.005430905
91	0xbd26fc88	-0.040768176
92	0xbc8a3151	-0.016869219
93	0xbcaf8059	-0.021423506
94	0xbc5c7cdd	-0.013457504
95	0xbcf49163	-0.029854482
96	0xbce4d43d	-0.027933234
97	0xbc393eb1	-0.011306451
98	0xbda9554e	-0.08268224
99	0xbce32ad9	-0.027730392
100	0xbd5fd6e8	-0.05464831
101	0xbc4057a7	-0.011739648
102	0xbc94821f	-0.018128453
103	0xbd875ea6	-0.0660985
104	0xbca2628d	-0.019822383
105	0xbdaeabf0	-0.08528888
106	0xbc053678	-0.008130662
107	0xbda63d99	-0.081172176
108	0xbd715c8f	-0.05892616
109	0xbc72d398	-0.014820956
110	0xbd77114c	-0.06031923
111	0xbbb8426e	-0.0056231534
112	0xbcb8fe59	-0.02258222
113	0xbc60ed2b	-0.01372842
114	0xbda3d198	-0.07998961
115	0xbc07af80	-0.008281589
116	0xbc288224	-0.010284934
117	0xbcb5ed48	-0.022207871
118	0xbc86d815	-0.016460458
119	0xbbd4a6e5	-0.006489622
120	0xbc17b36c	-0.009259086
121	0xbc47f52b	-0.012204449
122	0xbbd83c3c	-0.0065989774
123	0xbd29e83c	-0.04148124
124	0xbc82d4e9	-0.015970664
125	0xbca52aaf	-0.020161955
126	0xbc8241b5	-0.015900472
127	0xbcf2b8ca	-0.02962913
128	0xbccdb734	-0.025111772
129	0xbc6bdc00	-0.014395714
130	0xbdaf6db0	-0.08565843
131	0xbcef10d5	-0.02918283
132	0xbd270182	-0.040772922
133	0xbc7cfa37	-0.015440515
134	0xbc9789ff	-0.018498419
135	0xbd883015	-0.06649796
136	0xbcbeb0a8	-0.023277596
137	0xbdbb4a74	-0.0914506
138	0xbb8912fa	-0.0041831704
139	0xbda47d38	-0.08031696
140	0xbd45edd0	-0.0483225
141	0xbc8d628c	-0.017258905
142	0xbd796984	-0.060891643
143	0xbb97baee	-0.004630438
144	0xbccddb77	-0.025129063
145	0xbc8c47ab	-0.017124018
146	0xbd9d3a1a	-0.076770976
147	0xbb1ca869	-0.0023904091
148	0xbc250187	-0.010071165
149	0xbcb75738	-0.022380456
150	0xbc9d7228	-0.019219473
151	0xbc1af311	-0.009457366
152	0xbc0691b6	-0.008213451
153	0xbc2f9aa4	-0.010718022
154	0xbc020eea	-0.007938126
155	0xbd1ed422	-0.038776524
156	0xbc770310	-0.015076414
157	0xbcd1d708	-0.02561523
158	0xbc9b4a54	-0.01895634
159	0xbce07cc3	-0.027403241
160	0xbcdeaa92	-0.027180944
161	0xbc15fd61	-0.0091546485
162	0xbdaae854	-0.08345094
163	0xbccec85c	-0.025242023
164	0xbd4f1326	-0.05055537
165	0xbc665a89	-0.014059671
166	0xbca51139	-0.020149814
167	0xbd86cad3	-0.065816544
168	0xbc80dddf	-0.015730796
169	0xbdabb255	-0.083836235
170	0xbbaf4bbb	-0.005349604
171	0xbda71104	-0.08157542
172	0xbd8126a4	-0.06306198
173	0xbc917317	-0.017755074
174	0xbd5faa8a	-0.054605998
175	0xbc0f3a85	-0.0087419795
176	0xbcc1dba4	-0.023664303
177	0xbc850190	-0.016236097
178	0xbdab5dde	-0.08367513
179	0xbc15b652	-0.009137707
180	0xbc0aaf7d	-0.008464691
181	0xbcaeffd4	-0.021362223
182	0xbc8a114a	-0.016853947
183	0xbbc8207b	-0.0061073876
184	0xbbb58f24	-0.0055407453
185	0xbc47fb0a	-0.0122058485
186	0xbc0ac2da	-0.008469308
187	0xbd336803	-0.043800365
188	0xbc804a14	-0.015660323
189	0xbcb91f3b	-0.0225979
190	0xbc60f35b	-0.013729895
191	0xbcd7ced9	-0.02634375
192	0xbd0fffbd	-0.035156
193	0xbc4ced7d	-0.0125077935
194	0xbdb5a6b9	-0.088696904
195	0xbcd63a26	-0.026150774
196	0xbd92bbfc	-0.071647614
197	0xbc496a5d	-0.012293425
198	0xbc981d76	-0.018568736
199	0xbd2680f1	-0.04065031
200	0xbcd00d1f	-0.025396882
201	0xbdb950df	-0.09048628
202	0xbbb40e4d	-0.005494869
203	0xbda4710a	-0.08029373
204	0xbd5d9e23	-0.05410589
205	0xbcaae004	-0.020858772
206	0xbd26ee9a	-0.040754892
207	0xbbcd231a	-0.006260288
208	0xbcc009e8	-0.023442224
209	0xbc813c20	-0.01577574
210	0xbd9f6a46	-0.07783942
211	0xbb96a944	-0.0045978148
212	0xbc3c6a5e	-0.011499969
213	0xbcb8e5cd	-0.022570515
214	0xbc848b79	-0.016179787
215	0xbbddfa58	-0.006774228
216	0xbbd32a1f	-0.00644423
217	0xbc43e875	-0.011957278
218	0xbbc4b401	-0.0060029035
219	0xbd112d3f	-0.03544354
220	0xbc8cf317	-0.017205758
221	0xbc991475	-0.018686512
222	0xbc9eeb5c	-0.019399337
223	0xbcef7f10	-0.029235393
224	0xbca2c908	-0.01987125
225	0xbc756871	-0.014978514
226	0xbdb38e94	-0.08767429
227	0xbce9a811	-0.028522523
228	0xbd281ba9	-0.041042004
229	0xbc4eecba	-0.012629682
230	0xbc80d5d4	-0.015726961
231	0xbd8935a7	-0.066996865
232	0xbcb52d8d	-0.022116447
233	0xbdc3513d	-0.09536979
234	0xbbd8491f	-0.0066005136
235	0xbda54bcb	-0.08071097
236	0xbd52b53c	-0.05144237
237	0xbca48556	-0.02008311
238	0xbd7dc2bc	-0.06195329
239	0xbbbc3774	-0.005743915
240	0xbcb867a8	-0.022510365
241	0xbc967294	-0.018365182
242	0xbd9e60e5	-0.07733325
243	0xbb6c8dc0	-0.0036095232
244	0xbbf7af25	-0.0075587207
245	0xbcb5daa8	-0.02219899
246	0xbca37152	-0.019951496
247	0xbc327b80	-0.0108937025
248	0xbbce58d5	-0.0062972107
249	0xbc143b71	-0.009047375
250	0xbc14a3b1	-0.00907223
251	0xbd2abff9	-0.041686986
252	0xbc896430	-0.016771406
253	0xbcbfe006	-0.023422252
254	0xbc8e9885	-0.017406711
255	0xbcf03c63	-0.02932567

Actor.log_std_fc3.bias f4 [17]
0	0xbcac23a3	-0.021013087
1	0xbd803899	-0.06260795
2	0xbd99d31b	-0.07510968
3	0xbd8d37ef	-0.06895434
4	0xbda27451	-0.07932342
5	0xbd74cb52	-0.059764214
6	0xbd9de7e0	-0.07710242
7	0xbd96d050	-0.07363951
8	0xbce5a665	-0.028033445
9	0xbda2546d	-0.07926259
10	0xbda00c9a	-0.078149036
11	0xbd7d3aa8	-0.061823517
12	0xbd19afea	-0.03752128
13	0xbd921842	-0.07133533
14	0xbdb142e2	-0.08655335
15	0xbd58afac	-0.05290191
16	0xbd7a404a	-0.061096467

Critic.fc1.weight f4 [32, 378]
0	0x3e871cae	0.26389068
1	0x3d51142d	0.05104463
2	0x3dadb9ec	0.084827274
3	0x3d2de487	0.04245427
4	0xbc77d0fc	-0.015125509
5	0xbbd2f979	-0.006438431
6	0xbca05c4a	-0.019575257
7	0x3d8f5799	0.0699913
8	0xbca17dfd	-0.019713396
9	0x3cb7fc63	0.022459215
10	0x3d123889	0.035698447
11	0x3d0d4c97	0.03449687
12	0xbc9833bf	-0.018579362
13	0xbce95711	-0.0284839
14	0x3d62adec	0.055341646
15	0x3d8d1f9e	0.06890796
16	0xbd06c0f4	-0.03289886
17	0xbc953b8f	-0.018216876
18	0x3d212591	0.039342467
19	0xbdcdfc79	-0.10057921
20	0xbd9459fa	-0.07243724
21	0xbd0bdd8a	-0.034146823
22	0x3d7ed500	0.06221485
23	0xbdc5ec69	-0.09664232
24	0x3e968c96	0.29404134
25	0x3cabb889	0.020962017
26	0x3cdf8d02	0.027288917
27	0x3c66a775	0.014078011
28	0x3cab6d2f	0.020926086
29	0xbd30e0d1	-0.04318315
30	0xbc7e772c	-0.0155313425
31	0xbcb927b0	-0.022601932
32	0x3d74390a	0.05962471
33	0x3d2908a6	0.041268013
34	0xbb3c3588	-0.002871843
35	0x3d76d38e	0.060260348
36	0xbd5be1f8	-0.053682297
37	0xbcf6b119	-0.030113744
38	0xbd058407	-0.032596614
39	0x3d6d6dbd	0.057965983
40	0xbda6e8ad	-0.08149848
41	0xbc139629	-0.009007969
42	0x3cd3b915	0.02584509
43	0xbc5ad580	-0.013356566
44	0x3c2aa199	0.010414504
45	0x3d9b8636	0.07593958
46	0x3d2ff94f	0.04296237
47	0x3cc97a53	0.024594462
48	0xbc2d9e63	-0.010596844
49	0x3d0bbb68	0.03411427
50	0x3b03c685	0.002010734
51	0x3c83ac6a	0.016073424
52	0x3cda842f	0.026674358
53	0x3c9c3d34	0.019072153
54	0x3d4213af	0.047382053
55	0x3d06377c	0.032767758
56	0xbce3ec8d	-0.027822757
57	0x3d3faebd	0.046797503
58	0x3d52cc13	0.05146415
59	0xbbabd65d	-0.00524406
60	0x3d719031	0.058975402
61	0xbe0cc9e1	-0.13748886
62	0xbd9269d0	-0.071490884
63	0x3d8a36b2	0.067487136
64	0x3bef94b0	0.007311426
65	0x3d50e2b8	0.050997466
66	0x3d6ad134	0.057328418
67	0x3dc0fbbe	0.09423016
68	0x3c6f9208	0.014622219
69	0xbc4b5137	-0.0124095
70	0x3cb37062	0.021904174
71	0x3d5f4c16	0.05451592
72	0xbc1cd815	-0.009573002
73	0x3c7bc4e1	0.015366764
74	0xbcff1c87	-0.031141533
75	0x3c962031	0.018325897
76	0x3d345608	0.04402736
77	0x3d8c997a	0.06865211
78	0x3d9f26f2	0.077711
79	0x3d9224e9	0.07135946
80	0xbb9337f1	-0.0044927527
81	0x3d531de1	0.051542167
82	0xbc14b57d	-0.009076473
83	0xbc92dca8	-0.017927483
84	0xbd93e73c	-0.07221839
85	0x3d5adf79	0.053435776
86	0x3d88737a	0.066626504
87	0x3d4caaad	0.049967457
88	0x3d4e9f11	0.050444666
89	0x3d2910b3	0.04127569
90	0x3d056d43	0.032574903
91	0x3cb5b057	0.022178812
92	0xbdba3106	-0.09091382
93	0xbb6e29c4	-0.0036340812
94	0xbd9113f7	-0.07083886
95	0xbd6e7f69	-0.058226977
96	0x3cc5fe8a	0.024169225
97	0x3db2dcf2	0.08733548
98	0x3dc89b99	0.09795303
99	0x3d3b07d8	0.045661777
100	0xbd340bde	-0.04395663
101	0xbdb83290	-0.08994019
102	0xbb4db199	-0.0031386374
103	0xbcfbf6a5	-0.030757258
104	0xbc877928	-0.016537264
105	0xbd469d70	-0.048489988
106	0x3c76bc20	0.015059501
107	0x3cfb5575	0.030680398
108	0x3d06cac5	0.03290822
109	0x3e02d587	0.12776767
110	0xbe66217b	-0.2247371
111	0xbe7b30ea	-0.24530378
112	0xbd9f3060	-0.07772899
113	0xbe96171a	-0.293145
114	0xbd8db0ff	-0.06918525
115	0xbd985ae8	-0.07439214
116	0x3db3f488	0.08786875
117	0x3c972d51	0.018454226
118	0x3d4e2ade	0.05033385
119	0x3d6052c3	0.054766428
120	0x3c0d1d35	0.0086129205
121	0x3d84aeab	0.06478628
122	0x3d8f2284	0.06989005
123	0x3dad8678	0.084729135
124	0x3d88ee83	0.066861175
125	0xbd29cadb	-0.041453224
126	0x3d950783	0.07276823
127	0x3c197563	0.009366366
128	0x3d5b5186	0.053544544
129	0x3b8aefa5	0.0042399936
130	0x3d8d88d9	0.06910867
131	0xbe0af425	-0.13569696
132	0x3dcec3cc	0.10095939
133	0xbda15950	-0.07878363
134	0x3d7cffc0	0.06176734
135	0xbc9b8d70	-0.018988341
136	0x3d697146	0.05699279
137	0x3d7e2947	0.062051084
138	0x3d9b2de5	0.07577113
139	0x3d7221ab	0.05911414
140	0x3e59dbe4	0.21275288
141	0xbe5ec02b	-0.21752994
142	0x3d4b57c0	0.04964423
143	0xbe7d2f53	-0.24725084
144	0x3dbea224	0.093082696
145	0xbd24b9fd	-0.040216435
146	0x3d656a92	0.056009836
147	0x3dbcd198	0.09219664
148	0x3d66572a	0.05623547
149	0x3c803579	0.015650498
150	0x3dc49cd6	0.096002266
151	0xbd4353b5	-0.04768725
152	0x3dcc937c	0.09989068
153	0x3de185bc	0.11011836
154	0xbdcc443a	-0.09973951
155	0x3da40c51	0.08010162
156	0x3d5daee9	0.054121885
157	0xbcb465c8	-0.02202119
158	0x3d2e86ef	0.04260915
159	0x3d308c17	0.04310235
160	0xba55e8d0	-0.0008159997
161	0x3c881f19	0.016616391
162	0xbc7b2ac0	-0.015330017
163	0x3c443b76	0.011977067
164	0xbd975770	-0.07389724
165	0x3d65b801	0.056083683
166	0x3d181786	0.03713181
167	0x3db21b3e	0.08696602
168	0x3dc84582	0.097788826
169	0x3c815563	0.015787786
170	0xbdc10a8e	-0.09425841
171	0xbde34428	-0.11096984
172	0xbcd7173b	-0.026256194
173	0x3e068e82	0.131403
174	0x3dc09f30	0.094053626
175	0x3ce758f2	0.028240655
176	0x3c8b3e8f	0.016997604
177	0xbc96600b	-0.018356344
178	0xbcb88985	-0.022526512
179	0x3d836883	0.064164184
180	0xbd839aa8	-0.06425983
181	0xbd4182e7	-0.04724398
182	0xbaf662ca	-0.0018797752
183	0x3d81097a	0.06300636
184	0x3b497a75	0.0030743156
185	0x3d8fe291	0.07025636
186	0x3d3dfaae	0.046381645
187	0xbc34bee5	-0.011031841
188	0x3a0fd4e5	0.0005486741
189	0x3d0a79a8	0.033807427
190	0xbc223a8a	-0.009901652
191	0xbcec6c65	-0.02886028
192	0x3cb6f936	0.02233563
193	0x3c5c3e95	0.013442655
194	0xbccca375	-0.024980286
195	0xbd6d5bcb	-0.05794887
196	0x3e2a1972	0.16611269
197	0xbc028674	-0.007966626
198	0x3c110b2b	0.00885276
199	0xbd11c850	-0.035591424
200	0xbd8b9aa6	-0.06816606
201	0x3c938b93	0.01801089
202	0x3e06836f	0.13136075
203	0x3b34e140	0.002760008
204	0xbd9f51fd	-0.0777931
205	0xbd09fd99	-0.033689115
206	0xbda78ac2	-0.08180763
207	0x3b9ef575	0.004851038
208	0x3e2f0804	0.17092901
209	0xbc2d2e62	-0.010570141
210	0x3b059ea7	0.0020388754
211	0xbac4d463	-0.001501691
212	0x3ca4e43c	0.020128362
213	0x3d405a1b	0.04696093
214	0x3e29af22	0.16570714
215	0xbd567c52	-0.052364655
216	0xbd1ec93d	-0.038766135
217	0x3d4ba0f9	0.049714062
218	0x3dd7da5a	0.10539694
219	0x3bb71ee4	0.0055883992
220	0x3d7cfc34	0.061763957
221	0x3d31d175	0.043412644
222	0xbc85b285	-0.016320476
223	0x3c8217a1	0.015880408
224	0x3dc7baa6	0.09752397
225	0x3d675b12	0.056483336
226	0x3dda35dd	0.10654805
227	0xbd1029b1	-0.03519601
228	0xbc88cd0d	-0.016699338
229	0xbbcb41ef	-0.0062029283
230	0xbd285cee	-0.04110425
231	0x3cc82c0a	0.024435062
232	0x3df32f6e	0.11874281
233	0x3b9fe2b3	0.0048793196
234	0x3c959b03	0.018262392
235	0x3d0f3ef7	0.034972157
236	0x3d2e564e	0.042562775
237	0xbd35a728	-0.044348866
238	0x3d87aade	0.06624387
239	0x3c3654b1	0.01112859
240	0xbd4611d6	-0.048356853
241	0x3c2ff499	0.010739469
242	0x3cc5d719	0.024150418
243	0xbc81bce9	-0.01583715
244	0x3dee65a0	0.11640477
245	0xbd213f32	-0.03936691
246	0x3bb24e05	0.0054414296
247	0x3c463156	0.012096724
248	0xba267bde	-0.0006350855
249	0xbd6a4f8c	-0.057204768
250	0x3b9fc6ea	0.0048760073
251	0xbc49205e	-0.012275783
252	0xbcfe5f3c	-0.03105127
253	0xbc546f16	-0.012965938
254	0x3bf80597	0.0075690257
255	0xbd9b03c0	-0.07569075

Critic.fc1.bias f4 [32]
0	0x3d814f03	0.063138984
1	0x3c0d21a4	0.008613978
2	0x3d49f6f6	0.049307786
3	0x3d86f9e8	0.065906346
4	0x3d9d8f82	0.076933876
5	0xbc34b228	-0.011028804
6	0x3c0cff63	0.008605811
7	0xbd28083e	-0.041023485
8	0x3d5cbfd7	0.05389389
9	0x3dbedc23	0.093193315
10	0xbd43bebe	-0.047789328
11	0x3bc1ec42	0.0059180567
12	0xbd1442a8	-0.03619638
13	0x3c53a04a	0.012916634
14	0x3d6b8907	0.057503726
15	0x3ca99976	0.020703059
16	0xbd07522e	-0.033037357
17	0x3d7500d0	0.059815228
18	0x3d71e8d0	0.059059918
19	0x3c8a9dd1	0.016920956
20	0x3d2b4044	0.041809335
21	0x3ce4ecb1	0.027944895
22	0x3dab5f48	0.08367783
23	0xbc71c17e	-0.014755605
24	0xbc160269	-0.009155848
25	0x3d14bfd6	0.03631576
26	0xbcdba048	-0.026809826
27	0x3cf88d18	0.030340716
28	0x3dce7196	0.100802585
29	0x3d5d11df	0.05397212
30	0x3caa0009	0.02075197
31	0x3dc13711	0.09434331

Critic.fc2.weight f4 [32, 32]
0	0x3e14ee67	0.14544068
1	0xbe09b787	-0.13448916
2	0x3e0213fd	0.12702937
3	0x3dfefeab	0.12450918
4	0x3dd7d9c0	0.105395794
5	0xbdaa3deb	-0.08312591
6	0xbc23304f	-0.009960248
7	0x3c96effa	0.018424977
8	0x3c523b66	0.0128315445
9	0x3db619ed	0.08891664
10	0xbd1eda97	-0.038782682
11	0x3cc05e88	0.023482576
12	0xbe5bd6f4	-0.21468717
13	0x3ca7084e	0.020389702
14	0x3e0a5a93	0.13511114
15	0x3dc5a80e	0.096511945
16	0x3a0a535e	0.0005276705
17	0x3e3ad410	0.18244958
18	0xbcaf0461	-0.021364393
19	0x3dba00a5	0.09082154
20	0x3d8dd4f0	0.0692538
21	0x3c8ada88	0.016949907
22	0xbda4802e	-0.08032261
23	0xbd853499	-0.06504173
24	0x3e206ef1	0.15667321
25	0xbc70fa0a	-0.014708051
26	0xbd496e1e	-0.04917728
27	0xbdd5e642	-0.10444309
28	0x3dff86eb	0.124769054
29	0xbdb86321	-0.09003282
30	0x3e1513bf	0.14558314
31	0xbd8ed4ae	-0.06974159
32	0x3d95d6e1	0.073163755
33	0xbdd655bd	-0.10465572
34	0x3d3c6e67	0.046003725
35	0x3e54daae	0.20786545
36	0x3e42306f	0.18963788
37	0xbdd83a86	-0.105580375
38	0x3dd59748	0.10429245
39	0xbe051fe3	-0.13000445
40	0x3e066967	0.13126145
41	0xbcdeb69a	-0.02718668
42	0xbd26ce66	-0.04072418
43	0xbd834c05	-0.06410984
44	0xbe4e59f2	-0.20151499
45	0x3de7b7aa	0.11314328
46	0x3dd60b2a	0.10451348
47	0xbdc26314	-0.09491554
48	0xbd72d34d	-0.059283543
49	0x3dfe9e39	0.12432522
50	0x3e522966	0.20523605
51	0x3de9f470	0.11423576
52	0x3d7e8335	0.062136848
53	0xbcba35d1	-0.02273074
54	0xbc951bf9	-0.018201815
55	0xbd579d69	-0.052640352
56	0x3dd4bc9b	0.10387536
57	0xbd93d142	-0.07217647
58	0x3db52db4	0.08846608
59	0xbe251d9c	-0.16124576
60	0xbc66ccb6	-0.014086893
61	0x3d9be57b	0.07612129
62	0x3dfc61ad	0.12323318
63	0x3e4b5845	0.19857891
64	0x3debee2c	0.11520037
65	0xbe118a46	-0.14212903
66	0x3ba55f45	0.0050467574
67	0x3da3cd72	0.0799817
68	0xbd5592e2	-0.05214203
69	0x3d72e1c1	0.059297327
70	0x3d8dd77c	0.06925866
71	0xbd8b4e48	-0.0680204
72	0x3df22f14	0.11825386
73	0xbd009fc9	-0.031402383
74	0xbcf78058	-0.030212566
75	0xbdc93e5d	-0.09826348
76	0xbe454543	-0.19264702
77	0x3d99e5cb	0.07514533
78	0x3e242839	0.16030969
79	0xbb8390b4	-0.0040150527
80	0xbda219f0	-0.079151034
81	0x3d856150	0.065127015
82	0x3e067444	0.1313029
83	0x3da5f40e	0.0810319
84	0x3ce5cc7d	0.02805161
85	0x3e079e9e	0.13244101
86	0x3e5e0fc4	0.21685702
87	0xbe1e56a1	-0.15462734
88	0xbe08ccd8	-0.13359392
89	0x3d4f8cc6	0.05067136
90	0x3def1d2d	0.11675487
91	0x3e0f0313	0.13966016
92	0xba476c47	-0.0007607382
93	0xbdbaf75c	-0.09129211
94	0xbd9435bb	-0.07236811
95	0x3e344d10	0.17607522
96	0xbe0d53cc	-0.13801497
97	0x3ca7e8c2	0.02049673
98	0xbde78d22	-0.11306216
99	0x3d70507c	0.058670506
100	0xbd877af3	-0.066152476
101	0x3b415911	0.002950255
102	0x3d27290d	0.040810633
103	0xbd969eb0	-0.07354486
104	0x3d8870ee	0.06662165
105	0x3e019381	0.12653925
106	0x3de5243d	0.111885525
107	0x3d844e8d	0.06460295
108	0x3dcddb44	0.10051587
109	0x3e24b837	0.16085897
110	0x3d198df7	0.037488904
111	0x3e329572	0.17439821
112	0x3db843d9	0.08997316
113	0x3caf1033	0.02137003
114	0xbd7121db	-0.058870178
115	0xbdb484c6	-0.08814387
116	0xbd37907c	-0.044815525
117	0xbdf49bcb	-0.11943778
118	0xbdfc6ea6	-0.12325792
119	0xbe0e1844	-0.13876444
120	0x3e1fed24	0.15617806
121	0xbdba11e1	-0.090854414
122	0x3de5e381	0.112250336
123	0x3deb0727	0.114759736
124	0x3dc9704c	0.09835872
125	0x3e2a5821	0.16635181
126	0xbd53a7cc	-0.051673695
127	0xbe1a4798	-0.15066373
128	0x3dcd92f3	0.10037794
129	0xbe46ca0a	-0.1941301
130	0x3e3ac0c9	0.18237604
131	0xbe017a0d	-0.12644215
132	0xbdf00d33	-0.117212676
133	0x3e581b2b	0.21104114
134	0x3e169555	0.14705403
135	0xbdd8a596	-0.10578458
136	0x3e325678	0.17415798
137	0x3da43298	0.080174625
138	0x3cb87c8a	0.022520322
139	0x3d20a870	0.039223135
140	0x3e062677	0.1310061
141	0x3ddfa149	0.109194346
142	0x3d1bb254	0.038011864
143	0xbe064623	-0.13112693
144	0xbdf18661	-0.11793209
145	0xbb26e8e6	-0.0025468408
146	0xbe0fef5a	-0.14056149
147	0xbde9abf7	-0.11409753
148	0x3d985c43	0.074394725
149	0xbdcb3af5	-0.099233545
150	0xbd1832b8	-0.037157744
151	0xbe2ea234	-0.17054063
152	0x3db4e0cc	0.08831939
153	0x3dced8cb	0.10099944
154	0x3e345c6e	0.17613384
155	0xbe67d1d1	-0.22638632
156	0x3c94b9cf	0.018155007
157	0xbbc8b35c	-0.006124897
158	0xbc009e59	-0.007850253
159	0x3d55b8e0	0.052178264
160	0xbe10935a	-0.1411871
161	0x3ddb484f	0.10707151
162	0x3d8b2738	0.0679459
163	0xbd95eeac	-0.07320914
164	0xbc7b2068	-0.0153275505
165	0x3da29e30	0.07940328
166	0x3d1b7b5a	0.037959434
167	0x3c96c1c7	0.018402947
168	0x3dd972fd	0.106176354
169	0xbd00cdaa	-0.031446137
170	0xbe09b63c	-0.13448423
171	0xbe1919d0	-0.14951253
172	0x3e0842a1	0.13306667
173	0xbd86f094	-0.065888554
174	0x3de25362	0.1105106
175	0x3d3590c9	0.04432753
176	0x3e09af63	0.13445811
177	0xbe079ac1	-0.13242628
178	0xbde7ee84	-0.1132479
179	0x3dcadd76	0.099055216
180	0x3c329191	0.010898964
181	0x3dcccbcb	0.09999808
182	0x3e2e1525	0.17000253
183	0xbdc031bf	-0.09384488
184	0x3dced2c5	0.10098795
185	0x3d263640	0.04057908
186	0x3d7997e5	0.060935874
187	0x3ded832b	0.11597284
188	0xbb8137a1	-0.003943399
189	0xbe111dd0	-0.14171529
190	0xbda311d9	-0.079623885
191	0x3e0abc5b	0.13548414
192	0xbca91d58	-0.020643875
193	0xbd6df1d2	-0.058091946
194	0xbdcde660	-0.10053706
195	0x3d24fd2b	0.040280502
196	0x3e49d520	0.19710207
197	0xbe052c9e	-0.13005301
198	0xbe0d9f4f	-0.13830303
199	0xbdac07ff	-0.08399963
200	0x3dd6d72c	0.104902595
201	0xbdf809eb	-0.12111267
202	0xbda658a4	-0.081223756
203	0x3e5f3f52	0.21801499
204	0xbe4fda3a	-0.2029809
205	0x3d15a6e0	0.036536098
206	0xbdaa8e9a	-0.0832798
207	0x3e456175	0.19275458
208	0xbda6f335	-0.08151857
209	0x3e4b11a9	0.19830956
210	0xbd23f4ea	-0.04002849
211	0x3d160a9c	0.03663121
212	0xbdf49f11	-0.11944402
213	0x3d24682f	0.04013842
214	0x3e06b3e0	0.13154554
215	0xbc67bc47	-0.01414401
216	0x3df02e69	0.11727602
217	0xbd899ec5	-0.06719736
218	0x3df54d42	0.119776264
219	0x3cb72c01	0.02235985
220	0x3e4a0f4f	0.19732402
221	0xbd9692fb	-0.07352253
222	0xbd562f33	-0.052291106
223	0xbc94d72d	-0.01816901
224	0x3cd4319a	0.025902558
225	0xbdf2dfb5	-0.11859075
226	0x3bb64258	0.005562108
227	0x3e1a1d27	0.15050183
228	0x3e076a6d	0.13224192
229	0x3dcd6cf8	0.1003055
230	0xbd88dd04	-0.066827804
231	0xbe191090	-0.14947724
232	0x3e2e725d	0.17035814
233	0x3c80e595	0.015734473
234	0x3c895ea8	0.016768768
235	0x3e4ac883	0.19803052
236	0xbe13f9fc	-0.1445083
237	0xbdb4f267	-0.08835297
238	0x3e461646	0.19344434
239	0x3d2ca74b	0.04215173
240	0xbe14be58	-0.14525735
241	0xbdca25cc	-0.098704904
242	0xbd283af8	-0.041071862
243	0xbd9af731	-0.07566679
244	0x3dff2eee	0.12460123
245	0x3e45dc8b	0.19322412
246	0x3dd8150c	0.105508894
247	0xbe14f271	-0.14545609
248	0xbcedfdfc	-0.029051773
249	0x3db15e21	0.08660532
250	0xbe192d0b	-0.14958589
251	0x3c9b21ee	0.018937077
252	0x3df7a193	0.12091365
253	0x3e2518d5	0.16122754
254	0xbcfa5c93	-0.030561721
255	0x3d9b494a	0.07582338

Critic.fc2.bias f4 [32]
0	0x3b1dc272	0.0024072197
1	0x3e640cdd	0.22270532
2	0x3cc53b98	0.024076268
3	0xbe19b6be	-0.15011117
4	0x3cb67367	0.022271825
5	0xbde44fa7	-0.11148005
6	0x3e08edf7	0.13372026
7	0x3d87bcc7	0.06627803
8	0xbdcdc797	-0.10047834
9	0x3ddfaec8	0.10922009
10	0x3e10d79a	0.14144745
11	0x3e15c2be	0.1462507
12	0x3dedcb04	0.11610988
13	0x3d088381	0.033328537
14	0x3db5a05a	0.08868475
15	0x3daea1c4	0.08526948
16	0x3de155c1	0.110026844
17	0x3e4c426c	0.19947213
18	0x3de45fc4	0.11151078
19	0xbe0453c4	-0.12922579
20	0x3e3dcf7e	0.18536183
21	0x3da4b92b	0.080431305
22	0xbda35951	-0.0797602
23	0xbd406438	-0.046970576
24	0x3d2854ce	0.0410965
25	0xbdf106f8	-0.11768907
26	0xbd6cffe9	-0.057861242
27	0x3e597169	0.21234669
28	0x3c431dc7	0.011908955
29	0xbdfe9cbf	-0.12432241
30	0x3d8077db	0.062728606
31	0xbcd1fd3b	-0.025633445

Critic.fc3.weight f4 [1, 32]
0	0x3d460b5f	0.048350688
1	0x3d44c7ef	0.048042234
2	0x3d3ea4e1	0.04654396
3	0xbc018dfd	-0.007907388
4	0x3d9974d2	0.07492985
5	0xbc9e3ae9	-0.0193152
6	0x3d24f505	0.04027273
7	0x3d5b19c8	0.053491384
8	0x3b912965	0.0044299834
9	0x3d69fd45	0.057126302
10	0x3d36ee6d	0.044660974
11	0x3d163828	0.03667465
12	0x3c3ac46e	0.011399372
13	0x3d6764bd	0.056492556
14	0x3cbda5cb	0.023150345
15	0x3c8b2a1d	0.016987855
16	0x3cae85e2	0.021304075
17	0x3c119e65	0.008887862
18	0x3c34d0ba	0.011036092
19	0x3c4d56e3	0.012532922
20	0x3d36a415	0.044590075
21	0x3cc18934	0.023624994
22	0x3d220b42	0.039561518
23	0x3d4c8d8e	0.049939685
24	0x3cefd7f3	0.029277777
25	0x3c81f92b	0.015865883
26	0x3d2a791c	0.041619405
27	0x3cd6ce91	0.026221545
28	0x3d0a4dcd	0.033765603
29	0xb9fc67d9	-0.00048142558
30	0xbbada4c4	-0.0052991826
31	0x3ca9d144	0.020729668
