model_0.pt (torch, 114732 bytes, 13 tensors)

Actor.fc1.weight f4 [32, 378]
00000000: 1547 143c bcee 8cbd dc44 e03c 4604 82bd
00000010: d0c4 a6bb 3bf9 823d d6fa f0bc fc5e 7ebd
00000020: b137 8b3d d8d7 b83b 34c2 83bd 6838 913c
00000030: 863a b7bc 9fe7 fbbc daee 633c aeb1 0abc
00000040: 0a92 adbc 6409 de3c dc85 64bd 90f5 b3bb
00000050: 1532 15bc 5f88 19bd 0c98 cb3c f87f 81bd
00000060: e601 cbbc bafc 38bd 3616 5b3d c8b8 4ebc
00000070: 8471 c4bc 925c dabc 9cd1 c7bb 0bc9 c4bc
00000080: 9149 81bd 8ec7 86bd 4ad6 253c 2ac6 553d
00000090: 918d 90bc c8a4 813d 9f7f e3bc 4552 713d
000000a0: f91e c53c c0ca db39 aaa4 913d ae42 34bd
000000b0: 2eb6 59bd 8393 c93c 346c 823c a84f d93b
000000c0: b9cf ef3c 0d62 693c c047 b63b 6807 3cbd
000000d0: 09e5 e5bc f148 063d 45a4 0dbd 8eab 9c3b
000000e0: b6c6 02bd f04a 7f3b 2844 fb3b 0789 5ebd
000000f0: c0b1 faba 7a3e 97bc e6a8 08bc 1608 8f3d
00000100: 7a51 39bd b6e8 22bd 144b 473c 16e7 b53c
00000110: 0066 c83c 5066 0abd af97 483d 3eca b1bc
00000120: 740e 90bc 102b 91bb 165a 513d ee30 f73c
00000130: 1202 80bd 92bb 72bd 364b 13bd 0051 afb9
00000140: a48d f83c 7c78 cfbc 9275 7d3c e7e5 393c
00000150: d028 2bbc 289c c63c 848c d9bb 6a54 0dbd
00000160: f7ab 973c 38d1 893b 5c25 cabc a4a2 d43c
00000170: 0048 0a3b 1748 003d d410 ddbb 2ef9 153c
00000180: 3027 8cbd 0b8d fa3c 10d7 6cbd fde1 48bd
00000190: 4858 4bbb 9453 0cbc 14ad cc3b 470e dcbc
000001a0: d8e5 803d b2b1 bd3b 1210 40bd 3d50 953c
000001b0: ec3b a23c 9087 963c 000d 15b9 2043 4d3d
000001c0: a027 1a3d 1aaa 3ebc af2f c7bc 6e30 e13c
000001d0: 0fa7 f43c 7224 d4bb f35e bebc 5cdf 3fbc
000001e0: aa4d 01bc f1f4 8bbd b20a fb3c 974b 82bc
000001f0: 504f 0f3b 54a2 5a3d a03d f63b c6b3 62bd
00000200: 2596 f93c 489b 263b 7a93 683c 6320 c43c
00000210: 7824 54bc 833c e7bc ba6a 00bd 3aad 913d
00000220: df54 4fbd daf7 17bd b426 09bc a348 85bd
00000230: 807b a4ba c21c 943c 14b2 aebb 1b71 8b3c
00000240: 269d 1bbd 69b4 3a3c dbf0 2ebc 4224 77bd
00000250: 6e96 37bd b776 04bd 64d2 6cbc 8073 f9b9
00000260: 84e6 83bd 98ef b43b 7207 a53c 4891 31bb
00000270: 7e06 5cbd 8293 89bd e769 21bc a725 0ebd
00000280: ff86 c5bc 2101 993c 7ed8 dcbc 5671 31bd
00000290: 5018 ae3c 89b0 83bd 1299 00bd 1610 c93c
000002a0: 6632 47bd 3f87 f13c a80a 573c c000 93bc
000002b0: bd35 00bd c40c e63c 6a2e 1ebd 5212 febb
000002c0: a1c0 01bc 4483 07bc 60ed abbc 603b 1cba
000002d0: 7c9f 9cbc d443 c5bc ddb8 813d 528a 88bd
000002e0: 3ed9 e9bc e495 c73b 484b 01bc f74d a5bc
000002f0: 9866 0fbc 8f23 883c 4aae b8bb a92e 43bd
00000300: ba6c d2bc 9d78 d7bc 60fa c3bb be3e f03c
00000310: d70e 80bd e8c3 e3bc 6a94 6fbc b291 863d
00000320: b785 5cbd 8508 963c ffb9 c33c 3010 1b3c
00000330: 90b5 193b 897d 633d 5c9b 64bd 7316 a73c
00000340: 980f 703c 84c2 f5bc f564 a43c 4017 d6b9
00000350: 806f 7b3b e841 33bd 7922 743d 50e0 6d3b
00000360: 34d5 f6bb 68dc 193b eee8 09bc 54bf 3c3c
00000370: 4136 74bc 7827 fdbc 50c3 743c 5033 123d
00000380: 6a64 11bd 3250 1abd d0d4 3c3b 0e2d bdbc
00000390: 8975 073d 1318 8fbd bf28 403c c47c 8b3d
000003a0: b9bd f1bc e2f1 8a3d cc93 3c3d d5b9 fe3c
000003b0: 0028 55b8 7576 833c 828b 8b3c b6af c3bc
000003c0: c76b e13c 4023 dc3c 76a2 983c 2e8d 62bd
000003d0: a08c 0fbd 97bd d7bc 2e24 21bd a2bf 04bc
000003e0: bd17 ba3c 92a8 65bd 9562 9d3c 34e4 17bd
000003f0: ca2c aa3c 5246 863c bb74 093d 48d7 34bd
0.00905015 -0.068814725 0.027376585 -0.06348471 -0.00508938 0.06395193 -0.029416483 -0.062102303
0.06797732 0.005640965 -0.06433526 0.017727092 -0.022366773 -0.030750094 0.013911927 -0.008465214
-0.0211878 0.027104087 -0.05579172 -0.00549192 -0.009106179 -0.03748357 0.024852775 -0.06323236
-0.024781179 -0.045162894 0.05348798 -0.0126172975 -0.02397991 -0.02665547 -0.0060979854 -0.024021646
-0.0631286 -0.06581031 0.010121891 0.052190937 -0.01764563 0.06330258 -0.027770815 0.05891635
0.02406262 0.00041921996 0.07111485 -0.044008903 -0.053152256 0.024606472 0.015920736 0.00663181
0.029273855 0.0142445685 0.0055627525 -0.0459055 -0.028063314 0.032784406 -0.034580488 0.004781193
-0.031927787 0.0038954578 0.007668037 -0.0543299 -0.001912646 -0.018462408 -0.00834105 0.06983964
-0.045243718 -0.03977271 0.012163896 0.022204917 0.0244627 -0.03378898 0.04897278 -0.021702882
-0.017585017 -0.0044301823 0.051111303 0.030174699 -0.06250395 -0.059260912 -0.0359604 -0.0003343895
0.030340977 -0.025326006 0.0154699255 0.011346317 -0.010446742 0.024244383 -0.006639065 -0.03450433
0.018514616 0.004205849 -0.024676017 0.02595646 0.0021100044 0.03131875 -0.006746391 0.009153647
-0.06843412 0.030584833 -0.057822287 -0.049043644 -0.0031027962 -0.008564848 0.0062462185 -0.026862277
0.06293839 0.005789005 -0.046890326 0.018226737 0.019803964 0.018375188 -0.0001421459 0.050112844
0.037635446 -0.011637235 -0.02431473 0.027488913 0.029864816 -0.006474071 -0.023238635 -0.011710968
-0.007892052 -0.06833828 0.030644748 -0.015905185 0.0021867342 0.053377464 0.0075146705 -0.055347227
0.030467102 0.0025422145 0.014195317 0.023941224 -0.012948148 -0.028227096 -0.031351782 0.071131185
-0.05061805 -0.037101604 -0.008371044 -0.06507995 -0.0012549013 0.018080119 -0.005331287 0.017021706
-0.037991665 0.011395552 -0.010677542 -0.060337313 -0.044821195 -0.032339778 -0.014454458 -0.00047579035
-0.06440452 0.005521726 0.020145152 -0.002709465 -0.05371713 -0.06717588 -0.009851909 -0.034703877
-0.024112223 0.018677296 -0.0269587 -0.043320976 0.021251827 -0.06430156 -0.03139598 0.024543803
-0.048632048 0.029483436 0.013125099 -0.017944694 -0.03130125 0.028082259 -0.038618483 -0.007753649
-0.0079194615 -0.008271042 -0.020987213 -0.00059597753 -0.019119017 -0.024080195 0.06334088 -0.066670075
-0.028545972 0.0060908664 -0.007891484 -0.020178778 -0.008752488 0.016618518 -0.0056360113 -0.04765192
-0.02568661 -0.02630263 -0.0059807748 0.029326793 -0.062528305 -0.027803376 -0.014622787 0.06570758
-0.053838458 0.01831461 0.0238924 0.009464309 0.0023454167 0.05553964 -0.055812225 0.020396447
0.014652155 -0.029999979 0.020067671 -0.00040834583 0.003836602 -0.043764025 0.05960319 0.003629703
-0.00753274 0.002347732 -0.008417351 0.011520226 -0.014905513 -0.03090261 0.014939144 0.035693467
-0.035496153 -0.037674136 0.002881337 -0.023092773 0.033071075 -0.06987014 0.011728465 0.068109065
-0.029509412 0.06784417 0.046039388 0.031094471 -5.082041e-05 0.016047696 0.017034296 -0.023887496
0.027517213 0.026872277 0.018632155 -0.05531042 -0.03504622 -0.02633552 -0.039341144 -0.008102329
0.022716397 -0.056068964 0.019212047 -0.037082866 0.02077331 0.016390953 0.03355859 -0.04415062

Actor.fc1.bias f4 [32]
00000000: 14b0 27bc 0e63 353d aa1d d23c af10 bebc
00000010: 1165 87bc 3bf4 083c 1925 85bd 9a30 99bc
00000020: e146 af3c 9ad0 75bd 8c27 1c3d 72b5 1f3d
00000030: d8f7 913c 028a 323d f8c0 3abd 7027 033b
00000040: 817c 0dbd e788 693d a063 9ebc 62fb 8dbc
00000050: 2eb4 85bc da0a debc 5bfd 7e3d 642f a83b
00000060: f030 fdbb 0549 543d fca6 4cbc de3e 26bd
00000070: 3010 92bb 62e7 b63c d199 cabc 84bd ccbb
-0.010234851 0.04428392 0.02564891 -0.023201315 -0.016527684 0.00835901 -0.065012164 -0.018699933
0.021396102 -0.06001339 0.038123652 0.0389914 0.017818376 0.043588646 -0.045594186 0.002001252
-0.034542564 0.057015326 -0.019334614 -0.017331783 -0.016321268 -0.027104784 0.062253337 0.0051326025
-0.007726781 0.05182745 -0.012490984 -0.0405873 -0.004457496 0.022327129 -0.024731549 -0.006248178

Actor.fc2.weight f4 [32, 32]
00000000: 2469 3b3e fa04 48bd 5459 14be dc41 17be
00000010: 4697 0a3d 4f6c f13d e235 edbd d905 2fbd
00000020: 1cba 853b 418b 31be 50c3 09bd 8212 813d
00000030: c0ac 93bd 0da0 d2bd b65b c6bd 54b9 063e
00000040: 3019 b43d dc8f 80bd 6d2f dc3d 7434 8d3d
00000050: 4f5f 963c 06ab d33d 4a33 083e 89ec 14be
00000060: d6e2 6e3c e6f5 afbc 90cf 11be c036 ce39
00000070: 6a57 7bbd 7273 703d 1007 6c3d a634 923d
00000080: 3e08 34be edf5 cbbd ae26 8bbd c147 08be
00000090: f294 b33c 12ac 293e d854 ed3d 41e8 30be
000000a0: 92ad 8bbd 9aa2 113e 8d71 e43d 0eed d33d
000000b0: 6975 003e 57a3 ad3c fe53 233e 0bd6 b33c
000000c0: 5087 65bd 27a4 2e3c 6db5 013d 1414 b43d
000000d0: 3690 00be 3a07 20be 3bb0 113e e0e4 f13c
000000e0: ef18 b3bd 37e2 2cbe 4e25 dcbd 5f67 18be
000000f0: 230a 253d ea51 26be f35d 2e3d 8289 fbbd
00000100: f2fa dc3d 34c8 d4bb 7990 4c3d ae1e 603d
00000110: 1034 0d3c 2c40 7f3d d8b1 93bd 50a2 3d3e
00000120: cabb 3ebd 8e65 af3d fc64 b03d 20e2 36bd
00000130: 9ca5 a9bd c291 c3bd 9305 943c 1668 573d
00000140: 3a26 343d ab41 04be 1ccd 14be bc73 f0bc
00000150: bf90 913d bf8b 003d 8624 e0bd 1fac 323e
00000160: 2b55 4f3d bd21 1d3e c2b7 d3bd a3f0 293e
00000170: 5eb5 09bc 41b6 cebc ec56 373e 5548 333e
00000180: 9c9c 2abe 5afe 08be 275b 8f3c feb2 0e3e
00000190: 5aa9 ca3d 3c03 14be ec98 9abd 9778 66bd
000001a0: 51cb 01be dd2f 8dbd 2f1b 23be f123 113d
000001b0: 4db5 92bd 888f f6bc 8bd0 ce3d 7646 2ebe
000001c0: 79da 0fbe 943c 2f3e e96e 49bc d12e 603d
000001d0: 3567 d2bd cfa3 82bc af84 d23d 79dc c2bd
000001e0: e3ed a8bd 4890 44bc 3f83 3fbd c492 7dbd
000001f0: 7d40 0abe 8007 59bc 6061 34be 63bc ffbd
00000200: 2019 7aba fde5 bfbc 325c 473d e033 d13d
00000210: 7128 04be ae3c e6bc 52ad ffbd b143 32bd
00000220: 1828 5c3c 041e 773d 4f4b 003d db06 433d
00000230: 1eb1 cd3b 6019 ccbd 8d53 443d 3716 413e
00000240: e7a1 f13c e312 9fbd 54f5 9c3d a0cb 05be
00000250: 5597 343e 1b66 59bd cf46 14be d581 183e
00000260: 0df9 3e3e 3bf7 143e 8b6e 8e3d 9a9e adbd
00000270: 77f0 153e 4c48 36bd 2602 adbd 8487 033e
00000280: ed13 873d 61eb 073e 380b 39bd 3e0c 2a3d
00000290: 164a bdbd bfc9 073e 30a9 25bd bdfe 7cbd
000002a0: 2e85 cdbd 96ec 43bc 5798 23be a9a5 aa3d
000002b0: cd47 35be 2fc8 893d ba11 12be d24c 28be
000002c0: c285 02be 92c5 593c 5b31 103e ea04 46be
000002d0: 43fb 0f3e 0039 c63d fcab 373c bb69 ce3d
000002e0: 1c89 14bc 0f71 24be 35d5 093c 37b2 04be
000002f0: eb2d 0fbe 16ce 09be 6e1d 47be b8f3 28be
00000300: ec7e d23d 524d 1dbc c042 dfbd fa37 c23d
00000310: d8fc 843d 6967 9f3d fcfe 833d 2048 f7ba
00000320: aa05 e1bd e70c 00be f552 12be b4f5 3f3d
00000330: 260d 04bd 1f92 12be b862 bebd acc8 4c3c
00000340: e44d 8c3d 6e0d 873d e84b dcbd 2705 1c3d
00000350: be70 f23d 954e 043e ceae bcbd c67e 6d3d
00000360: 3648 14be 68f8 48bc 5206 e73d 2598 4abd
00000370: 60a0 4abb 425b 22bd f02f 83bb 3511 0fbe
00000380: ba0d 14be 3873 8fbd d409 2c3c c4d2 50bd
00000390: 2e64 173e c7b4 09bc a087 413d 8127 123d
000003a0: 78b5 f13d 5c69 c33c 8638 41be fe07 abbd
000003b0: 7bae 833d 244b f93c 4a7d 163e f256 103e
000003c0: c137 27be 9480 fe3d 87f0 babd c56b 35be
000003d0: efc5 e2bc 79f8 1b3e 1637 29be 8718 9dbd
000003e0: 793e 403e dec3 333c b1c8 02be 743f be3b
000003f0: f5bf ee3d 7ca0 ecbd 7055 9d3d 3db9 fc3c
0.18301827 -0.04883287 -0.14487201 -0.14771217 0.03383567 0.11788236 -0.11582543 -0.042730186
0.004081024 -0.17338277 -0.03363353 0.06302358 -0.07210684 -0.102844335 -0.09685461 0.13156635
0.08793867 -0.06277439 0.10751233 0.0689477 0.018355994 0.103353545 0.13300815 -0.14543356
0.014580449 -0.021479558 -0.14239335 0.00039332174 -0.06136266 0.058703847 0.057623923 0.07138948
-0.17581269 -0.09959016 -0.06794487 -0.13308622 0.021921609 0.16569546 0.11588448 -0.17276098
-0.06820215 0.14222184 0.111544706 0.10347949 0.12544788 0.02119605 0.15950009 0.02195265
-0.056037247 0.010659254 0.03166716 0.08792892 -0.12555012 -0.15627757 0.14227383 0.029528081
-0.0874499 -0.16883169 -0.10749303 -0.14883183 0.04029287 -0.16242185 0.042570066 -0.12282087
0.107900515 -0.0064935926 0.049942467 0.05471676 0.00861837 0.06231706 -0.072116554 0.18518949
-0.04656581 0.08564292 0.08613011 -0.044649243 -0.082835406 -0.095492855 0.018069064 0.0525895
0.04398177 -0.12915675 -0.14531368 -0.029352061 0.07107686 0.031383272 -0.10944466 0.17448471
0.050618332 0.15344901 -0.103377834 0.16595702 -0.008405058 -0.02523339 0.17904252 0.17508061
-0.16661304 -0.13378277 0.01749952 0.13935468 0.098955825 -0.14454359 -0.07548699 -0.056267347
-0.12675215 -0.06893895 -0.15928338 0.035434667 -0.07163487 -0.030097738 0.1009837 -0.17019066
-0.14048184 0.17112952 -0.012294509 0.054732148 -0.102735914 -0.01594725 0.10279214 -0.09514708
-0.08248498 -0.01199729 -0.046756025 -0.061907545 -0.13501163 -0.013246417 -0.1761527 -0.12487104
-0.0009540487 -0.023425097 0.04867191 0.102149725 -0.12906052 -0.028105106 -0.1248423 -0.043521587
0.0134372935 0.06033136 0.03132182 0.04761396 0.0062772175 -0.099657774 0.047931243 0.1885613
0.029496146 -0.07767274 0.0766398 -0.13065958 0.17635854 -0.05307589 -0.14480136 0.14893277
0.18649693 0.14547436 0.06954678 -0.084775165 0.14642511 -0.04450254 -0.084476754 0.12844664
0.065955974 0.13273384 -0.045176715 0.04151558 -0.092426464 0.13260554 -0.040444553 -0.061766375
-0.10035168 -0.011958262 -0.15976082 0.083323784 -0.17703171 0.06727635 -0.14264575 -0.16435555
-0.12746337 0.013291733 0.14081328 -0.19337812 0.14060692 0.09678841 0.011210438 0.1007876
-0.009065893 -0.16058753 0.008412649 -0.12958609 -0.1398236 -0.13457522 -0.1944482 -0.16499221
0.10278115 -0.009600954 -0.109014034 0.09483333 0.064935386 0.07783396 0.06445119 -0.0018866099
-0.109874085 -0.12504922 -0.14289458 0.04686518 -0.0322391 -0.14313553 -0.09296173 0.012499016
0.06850794 0.065943584 -0.107566655 0.03809085 0.1183791 0.12920602 -0.09213029 0.05798223
-0.14480671 -0.012266256 0.112805024 -0.049461503 -0.0030918345 -0.03963781 -0.0040035173 -0.13971408
-0.14458361 -0.07004398 0.01050039 -0.05098225 0.1478431 -0.008404917 0.047248483 0.035682205
0.118021905 0.02385395 -0.18869218 -0.08351134 0.06429764 0.030431338 0.14696231 0.14095667
-0.16329862 0.12426868 -0.09127908 -0.17716892 -0.027682273 0.15231504 -0.1652492 -0.07670694
0.18773831 0.010971991 -0.1277187 0.005805904 0.11657707 -0.115540475 0.076823115 0.030850047

Actor.fc2.bias f4 [32]
00000000: 353c 42bd 4002 103d f09b 853a 2324 d13d
00000010: d3b3 d6bc e0d5 6bbd 458b 13be 6fc2 1abe
00000020: 8dfe 813d 35e7 083e 40fd 313e 4b93 5e3d
00000030: 505c 5bbd a2b6 c93d c214 debd 8af2 053e
00000040: 39a1 acbc b8da c23d e79b 413c 1f4f 053e
00000050: 2a6c 9e3d 7f74 ed3c a591 7c3d 0aec b23d
00000060: 2005 1a3a 2d51 bc3d 4a63 19bd 9c54 2dbe
00000070: 0140 38bd c4f2 c03b 8f2f 1f3e 11b2 803d
-0.0474207 0.035158396 0.0010193568 0.10211971 -0.026208794 -0.057577014 -0.14408596 -0.15113233
0.0634738 0.13369448 0.17381763 0.05433969 -0.053554833 0.098492876 -0.10843803 0.13080803
-0.02107297 0.095143735 0.011816955 0.13018464 0.077354744 0.028986214 0.061662335 0.08736427
0.00058753975 0.091951706 -0.037448205 -0.16926807 -0.044982914 0.005888315 0.15545486 0.062839635

Actor.mean_fc3.weight f4 [17, 32]
00000000: 3247 983d 59c5 cdbe 72de 803e b600 313e
00000010: 188e 2dbc f8b4 9bbe c063 903e 6403 07be
00000020: 22c8 dc3d f483 133e a527 583d ae03 5abc
00000030: 409d 53bb b9c1 25be 98e9 72be c701 aa3d
00000040: 4134 803e 5732 53be 1a00 033e d515 7abe
00000050: 2a8e fc3d eaa1 3d3f 1480 723e cbe3 243e
00000060: bf55 89be 2e3a aebd 466c da3e b7bf 9abd
00000070: 1325 173e b123 563e 60d7 b3bd da4f 293d
00000080: 6013 0ebc 7f72 0dbe 7dc5 e53d 8472 173d
00000090: f3af d23d 31eb 0ebf 65ff ff3d 5671 b0bd
000000a0: 935d 1c3c b84b 713d 10e0 1e3e 54aa c33c
000000b0: 3730 a1bd 30ef 09be 4884 8e3e d81d 8b3e
000000c0: 2699 fabc c3c9 6c3e b4a2 493e 6676 823c
000000d0: 40e1 80bd 6a33 e1bd 5e8a b83d 8a99 b9bd
000000e0: ef38 063e 55ac fabd 2f7a 98bd 18c2 e43d
000000f0: 12b4 b63d 4aca d0be c3d6 1abf 89ea a83c
00000100: 63ed 43bd 12d5 993c f8f8 213e 1a8d 793e
00000110: f215 06be f382 0f3e e6ad a3be 279b 343e
00000120: e2be 043f 8ce5 523e c9f2 9a3e 1078 ddbd
00000130: 8c0b 83be cdff 81be 4eae 9e3d 8bb8 0dbb
00000140: 6943 95be 3b9d da3d ae9c 023e bd06 c2be
00000150: 5ffb 4dbe f269 4cbe b02d cbbe c960 ce3e
00000160: 8e31 2f3e 8550 703e 6c2f c2be a64d 963e
00000170: e0ea b23c 5444 353e 2cd6 70bd 0485 31bd
00000180: 5105 bebe f407 7dbd bdd1 cc3d f304 dcb9
00000190: 638b e3bd b339 a2bd 2caf 7dbe 6741 a4be
000001a0: 0863 e8be 420a 86bd 2218 143e 4274 55be
000001b0: 8def c73e 4509 673d 89f3 9d3e 3841 223e
000001c0: 4435 f6be 9d07 6a3e 6b5c 1d3e c8d0 2bbd
000001d0: 3674 f5bc 265a 163e b60d 3a3e b80b dabd
000001e0: 5fc8 0a3e 60be bdbd 4204 1e3f 7ba2 ffbd
000001f0: 576c 063e 70e8 8c3e 823f 09be 6a48 2c3d
00000200: ddec 3e3e 2349 493e 0dc8 08be b3f8 ad3e
00000210: acb1 db3d d789 5fbe ea7b 0bbe 5383 9abe
00000220: d647 963c 21fa 63be 550c 213d e257 a3bc
00000230: e478 643e 7b68 c13d d727 60be beb4 103f
00000240: bc9f 393c 295a acbd 6278 96bd 31d3 02bf
00000250: 7962 b1bd f8cb 693e 8a09 543e 6eac ca3d
00000260: 35dc 4fbe 5597 813e 4491 a83e ad14 8b3e
00000270: e35e 043d 45cb 4ebe f759 8f3e 590b 23be
00000280: d17e 11be 118f c93e 2032 e83e 46f8 553e
00000290: d2ab 26be b2cb a43e 102d 01be ce87 b3be
000002a0: fc81 dfbd 68ca 183e f68c 5e3e 48d9 663e
000002b0: 616b 783e 1042 793e 2fa9 85be 9c2c 99be
000002c0: ecf0 79bd 2aed f63d d65c 573e 0f77 c63b
000002d0: 4316 74be 51e3 5e3d f466 5d3d a914 773e
000002e0: da9d e43c f197 c6bc 54e5 e93b 44c6 833e
000002f0: c4b2 68be c450 ffbd f7d7 9cbe 50a0 023f
00000300: 69b6 143d 4c6a 53bd 00c2 8dbd d329 ad3e
00000310: f825 d23e 171d 14be 368b 40be a275 f9bd
00000320: 35cb e33d ca22 753e 25d4 6f3d fbdc 8a3e
00000330: 0855 e3bd b9d0 16be 0be6 edbb eba1 923e
00000340: c98c afbc 615b 27be 8f15 89bd 09e6 b3be
00000350: 7d93 1d3f 5cbc bb3d 7357 dabd 5d20 073e
00000360: 87da b4bd 3e50 5fbc 46a8 3c3d 6b7e 12be
00000370: 953b 07be 53e0 d63a de78 95be 75fe 613e
00000380: 2e65 de3e 13db acbe 0b94 6bbe bf8d 463d
00000390: 7a35 c93d 4ef3 2b3c 19d5 013f 19a9 a2be
000003a0: 624f 9f3c fd87 093e 44c7 033d d71d 01be
000003b0: 292f fcbd f4e3 cabe ba6d 7fbe a579 8d3e
000003c0: d72c 0fbf f6e5 593c db60 debd 66a9 813d
000003d0: af5a 20bd d4f5 a33d 45bd a23d 0420 80bd
000003e0: e3b2 1d3e a590 183e 2692 633d 18b0 80be
000003f0: 4b93 4bbe 9fe9 f03d 49f9 32be d059 50be
0.074354544 -0.40189627 0.25169712 0.17285427 -0.01059296 -0.30411506 0.28201103 -0.13184887
0.1078036 0.14405805 0.052772183 -0.013306541 -0.0032289773 -0.1618718 -0.23721921 0.0830112
0.25039867 -0.20624672 0.12793007 -0.24422391 0.12331803 0.74075186 0.2368167 0.16102521
-0.26823232 -0.08507191 0.4266073 -0.07556098 0.14760236 0.20912053 -0.08781314 0.041335918
-0.008671612 -0.13813208 0.112193085 0.036974445 0.10287466 -0.55827624 0.124998845 -0.08615367
0.009543794 0.0589101 0.1551516 0.02388493 -0.078705244 -0.13470149 0.27835298 0.27171206
-0.030590605 0.23123841 0.19690973 0.015925597 -0.06292963 -0.109961346 0.090107664 -0.090624884
0.13107656 -0.12239901 -0.0744518 0.11169833 0.089210644 -0.40779334 -0.6048395 0.020619648
-0.04783381 0.018778358 0.1581763 0.24370232 -0.13094309 0.14014797 -0.3196861 0.17637311
0.51853764 0.20595378 0.30263355 -0.10813916 -0.25594747 -0.25390473 0.0774809 -0.0021624889
-0.29152992 0.106745206 0.12755081 -0.37895766 -0.20115422 -0.1996229 -0.39683294 0.40308216
0.17108747 0.23468216 -0.37926805 0.29356116 0.021840513 0.17701846 -0.058798 -0.043339744
-0.3711343 -0.061775163 0.10000942 -0.00041965357 -0.1111057 -0.079211615 -0.24773854 -0.32081148
-0.45388055 -0.06544925 0.14462331 -0.2084513 0.3904995 0.056405324 0.30849865 0.15845191
-0.48087513 0.22854467 0.15367286 -0.041947156 -0.02996264 0.14682826 0.18169293 -0.106467664
0.13552998 -0.09264827 0.61725247 -0.124821626 0.13127266 0.27521086 -0.13403133 0.042061247
0.18645044 0.19656806 -0.13357563 0.33978805 0.107272476 -0.21829925 -0.13621488 -0.30178317
0.0183448 -0.22263385 0.0393184 -0.019939367 0.22311741 0.09443756 -0.21890198 0.5652579
0.011329588 -0.08415634 -0.0734718 -0.511035 -0.0866136 0.22831714 0.20706764 0.098961696
-0.20298846 0.2531077 0.3292333 0.27164212 0.032317054 -0.20194729 0.27998325 -0.15922298
-0.14208533 0.39366964 0.45350742 0.2089549 -0.16276482 0.32186657 -0.12614846 -0.35064548
-0.109134644 0.14920962 0.2173346 0.22543824 0.24259712 0.24341607 -0.2610564 -0.29916847
-0.061020777 0.12056954 0.21031508 0.0060566734 -0.23836617 0.054416005 0.054053262 0.24128975
0.0279073 -0.024242373 0.0071379337 0.25737202 -0.22724444 -0.12466577 -0.30633518 0.5102587
0.036306772 -0.051615044 -0.06921768 0.33820972 0.41044593 -0.14464222 -0.18803105 -0.1218064
0.11122743 0.23939052 0.058551926 0.2712172 -0.11100203 -0.14728059 -0.0072600893 0.2863916
-0.021429436 -0.16343452 -0.06693565 -0.3513644 0.61553174 0.09166786 -0.10661211 0.1319594
-0.08830743 -0.013629971 0.046058916 -0.14306037 -0.13206322 0.0016393758 -0.29193777 0.22069724
0.4343657 -0.3376089 -0.23005693 0.048475023 0.09824653 0.01049502 0.50715786 -0.31769636
0.019447032 0.13430782 0.032172456 -0.12609039 -0.123136826 -0.3962704 -0.24944201 0.2763187
-0.55927795 0.013299456 -0.108583175 0.06331138 -0.039148983 0.08005872 0.079462565 -0.062561065
0.15400271 0.14898928 0.0555593 -0.2513435 -0.19880407 0.1176331 -0.17477907 -0.20346761

Actor.mean_fc3.bias f4 [17]
00000000: 84c1 333d 6b74 9ebc c317 af3d 063d 1cbe
00000010: b6ef e13d 21fe 2c3e f77d 723d 647d 50bc
00000020: e77f 5ebd 3ee7 003e 7175 f5bc fb2e 9dbd
00000030: 1ee1 47bd 0b31 1ebe ce7d ba3d 5c7e ea3b
00000040: d345 643d
0.043885723 -0.019342622 0.08549454 -0.15257654 0.11032049 0.16893817 0.05920216 -0.012725208
-0.054321196 0.12588212 -0.029963227 -0.076749764 -0.048798673 -0.15448396 0.091060266 0.0071561765
0.055730652

Actor.log_std_fc3.weight f4 [17, 32]
00000000: 3892 b33d b04a b9bd 7ccf e5be 44f1 4abd
00000010: a430 0c3e 1330 5c3e a433 7d3d ac8f a93b
00000020: 4a06 febd e023 2e3e 6458 3abe 9c10 063d
00000030: 18a6 533c 0f49 6abe 27bc 293e 041b 9c3e
00000040: 89da 0cbe 2d2f 2cbe f64b e43c 23cf 633e
00000050: f160 8cbd a0ea 84bd 4ef3 d5be f560 6fbd
00000060: 0a8d 9a3d ffff e2bc 281c 36bc 44ed 55bd
00000070: 06ac 81be 5839 4a3e 385c 093e 4172 893e
00000080: 4c1e 983d 0cc6 383e 5f5f 1f3e 496b 2c3e
00000090: 2049 853d 5aab c8bd d874 4fbe 57c6 b4be
000000a0: 48f3 29be a425 c2bb ecbd adbe e94e b1be
000000b0: 0b7d 38bd 629e 42be 1e40 bf3d 302a b4bd
000000c0: 2d44 9ebe d2b9 073e 1d19 c83d 0d3f 03be
000000d0: fe36 66bd 5ef8 adbe 7dc5 edbe 3242 5ebe
000000e0: 3729 25be bef6 2abe 82d7 91be 6f4a 40be
000000f0: 8739 2dbe e0f6 ba3d 9275 85be 195c 1abe
00000100: dd21 5bbe dcdf 4e3e e136 f1bc 5448 e4be
00000110: e298 9bbe 5b58 85bd d510 6f3e d0e8 b93e
00000120: ed1e f1bd 8107 ff3e 0072 cdbe 76b1 48bd
00000130: 3bf9 a93e 6dda 61be e600 c6bb b520 20be
00000140: 750c d3bd cde5 263e 193b 993d 1b89 86bd
00000150: b838 db3e accf d6be d643 cebd ecda c0bd
00000160: a138 fbbe 98cc 9c3e 28d9 1d3c 682f eb3e
00000170: 646a b3bd c8be c43e a381 af3e 666b 15be
00000180: 8ed8 833e dcf3 06be 5da4 c3be 5655 843d
00000190: b861 ecbd a277 edbe bfe4 9abe cedf 483e
000001a0: 4082 e83d 2b9f 9ebc e1d4 80be 5291 38be
000001b0: 13b8 993d c9fb 163e 45b2 843e a38b 18be
000001c0: daa5 71be 1f3f 8dbe 2cbc d83e bd6e 083f
000001d0: bf25 393e 10a5 31bd 7e28 de3a 32e7 83be
000001e0: a6e3 b63d a9e7 a93e 64c6 833e 4205 5a3e
000001f0: 6c94 323e 7c3d b1bd a916 6d3e 7804 243e
00000200: 6b2a 7fbe 5e6a 5b3d 4b4f 02be b7e9 623e
00000210: b6d6 003e 0a34 33bd 4fdd a1be 37f5 61be
00000220: 2ee8 dbbe 2e51 353d 7207 a8be ed27 743e
00000230: 4866 febd ba38 8c3e d58a 17bc a291 a23d
00000240: a822 ca3e 033c 76be 115f 143f ccde eebd
00000250: 74fe ac3e 146e abbe 9ab6 73be b53a d63e
00000260: fcaa 1cbe 235c 813d bb31 16be c2d5 9bbe
00000270: ebed 64be a704 00be f654 013f 2474 2a3f
00000280: a46d 0bbe 70d9 303e 6a68 9abc 620a 023e
00000290: bec1 92be 5c76 b0bd ead0 b1bd bca9 033e
000002a0: f56c 8abe d2c5 aebe 7f26 39be b8f4 3ebe
000002b0: 24e5 0fbe a6e9 c03e f286 47bc 9f74 50be
000002c0: 82d6 29bd 28a7 8b3d 91d6 4cbe 87ba bdbe
000002d0: f9e7 a2be c592 54bd df7d 493e 645d 75be
000002e0: 7b9e 6e3e fc24 efbd 15fb 20bd 71bd 0f3e
000002f0: 8aa1 463d 97aa 2a3e 372e 943e bc70 a0be
00000300: 8515 08be 6b17 a3bc 926d 323e 9570 92bc
00000310: f4c2 23be bd6a 793e 68d5 3cbe 2e87 73be
00000320: 8cab 39bd d7d3 023e 5cf1 c33e 3c54 d6be
00000330: 08f0 57bd 8851 c93d 0897 19bf 15df a8be
00000340: a434 a6bb 4268 3b3e 9002 093d 77e1 853c
00000350: 9534 353c 0663 433e e4fc 8bbe ca3d 1a3e
00000360: 31d6 ce3c 8ec3 07bd 5f7f 5e3e 3bd4 6b3d
00000370: 7b31 483e 8ae9 123e b703 0fbe d844 0cbe
00000380: cb94 f5be 774f 5fbe aca3 e53d a93a 093e
00000390: df05 fabe dd2e b73e 7abf 323e 4eac aa3e
000003a0: e87c f33c 8d13 80be e0be 823d e001 663b
000003b0: 409b 9ebd 3664 433c d941 283e b1bf 3b3e
000003c0: 7c53 b63d 406a 5d3d 5f8e c43d bb03 c2be
000003d0: 25b2 e93c 6d3a 0a3e fbf6 103f 263a 92be
000003e0: fbc8 20bf 606f 98bd 12b3 71be 03e8 d33c
000003f0: 11a6 ddbe 391e c03e 48e6 a53d 0474 31bf
0.087681234 -0.09047449 -0.4488486 -0.049546495 0.1369043 0.21502714 0.061816826 0.0051745977
-0.12403543 0.17005873 -0.18197781 0.032730684 0.012918018 -0.22879432 0.1657568 0.3048936
-0.1375524 -0.16814871 0.027868252 0.22246985 -0.068544276 -0.06490064 -0.4178719 -0.058442075
0.07546432 -0.02770996 -0.011115111 -0.052228227 -0.25326556 0.19748437 0.13414085 0.2684498
0.07427654 0.18044299 0.15563725 0.16837801 0.06508088 -0.09798308 -0.20259416 -0.3530757
-0.1659671 -0.0059248973 -0.3393396 -0.34630516 -0.045041125 -0.19005731 0.09338401 -0.08797109
-0.3091139 0.13254479 0.09770415 -0.1281702 -0.05620479 -0.33978552 -0.46439734 -0.21704939
-0.16129003 -0.16695687 -0.28484732 -0.18778394 -0.16916476 0.09129119 -0.26066262 -0.15074195
-0.21399637 0.20202583 -0.029445114 -0.44586432 -0.30390078 -0.06510993 0.23346265 0.36310434
-0.11773477 0.49810413 -0.40126038 -0.048997365 0.3319796 -0.22055979 -0.0060425876 -0.15637477
-0.1030511 0.162986 0.07481975 -0.065691195 0.4281671 -0.41955316 -0.100715324 -0.09416756
-0.49066642 0.30624843 0.009634294 0.45934606 -0.08760527 0.38426805 0.34278592 -0.1459175
0.25751156 -0.13178962 -0.38211337 0.06461589 -0.11542076 -0.46380335 -0.30252644 0.19616625
0.11352968 -0.019363007 -0.25162414 -0.18024185 0.075058125 0.14744486 0.2591726 -0.14897017
-0.23598424 -0.2758722 0.42331064 0.53293973 0.18080805 -0.043370306 0.0016949323 -0.25762326
0.08930139 0.33184555 0.25737298 0.21291068 0.17439431 -0.08654305 0.23153175 0.1601733
-0.24918525 0.053568237 -0.1272556 0.22159468 0.12581906 -0.0437508 -0.31614158 -0.22066198
-0.42950577 0.044266872 -0.3281818 0.23843355 -0.12421852 0.2738703 -0.009249409 0.079379335
0.39479566 -0.2404633 0.5795756 -0.11663589 0.33787882 -0.3348242 -0.23800126 0.41841665
-0.152996 0.06316402 -0.14667408 -0.30436522 -0.22356384 -0.12501775 0.50520265 0.66583467
-0.13616043 0.17270446 -0.018848617 0.12699273 -0.2866344 -0.08616325 -0.08682425 0.12857717
-0.27036253 -0.341353 -0.18081091 -0.1864804 -0.14052254 0.3767826 -0.01217817 -0.20356987
-0.041464336 0.06818992 -0.20003726 -0.37056372 -0.31817606 -0.051897783 0.19676922 -0.23961407
0.23302643 -0.11676976 -0.03930195 0.1403711 0.0484939 0.16666637 0.2894151 -0.3133601
-0.13289459 -0.019908627 0.1742461 -0.017875949 -0.15992337 0.24357124 -0.18440783 -0.23782036
-0.045329615 0.12776123 0.3827008 -0.4186114 -0.052719146 0.09830004 -0.5999608 -0.32982698
-0.005072193 0.1830149 0.03344971 0.016342862 0.0110599 0.19080743 -0.27341378 0.15062633
0.025248619 -0.03314548 0.21728276 0.057575446 0.19550125 0.143469 -0.13966261 -0.13698137
-0.47965083 -0.21807657 0.112128586 0.13401283 -0.48832604 0.3577794 0.17455855 0.33334583
0.029722646 -0.25014916 0.06384063 0.0035096332 -0.07744455 0.011925748 0.16431369 0.18334843
0.08902642 0.054056406 0.09597468 -0.3789347 0.028527329 0.1349885 0.5662686 -0.2855999
-0.6280667 -0.07443118 -0.23603466 0.025867468 -0.4329076 0.37523058 0.08100563 -0.6931765

Actor.log_std_fc3.bias f4 [17]
00000000: 901e 033c d468 64bc b0f3 05bd c07e b83d
00000010: 6640 d63d 08d1 b93d b7c1 9fbd a56a 39be
00000020: 745c c63d 3127 5fbd 4296 ce3c 6fc0 cb3d
00000030: 40f0 0fba dde1 93bd cfd4 11be 7a2e c13d
00000040: 6bab 3d3e
0.008002892 -0.013941009 -0.0327031 0.09008551 0.10461502 0.09073073 -0.0780062 -0.18107088
0.09685603 -0.054480735 0.025218133 0.09948813 -0.0005490817 -0.072208144 -0.14241336 0.09432693
0.18522422

Critic.fc1.weight f4 [32, 378]
00000000: b2ee 9fbc a661 0cbd a1a0 713d f4b6 e5bc
00000010: 2a25 3f3d 6066 dcbc e89e a4bc 7c50 fabc
00000020: ec67 593c 34fd 25bc b963 153d 9e67 b43c
00000030: 9c10 ec3c 293f 153d 11c4 6c3d 5d16 783d
00000040: 2416 033d 2c3c eb3c 868a 82bb aef6 2fbd
00000050: 9218 013d 7ce0 f83b e136 163d 6254 c4bb
00000060: 1f2d 053d 4080 0739 5414 2d3c 22de 45bd
00000070: 751f 623c 42ca b63c c291 f33c 3619 c83b
00000080: 7ce0 033b 98db 5c3c 39ea 123c d8e9 073d
00000090: c695 a5bc 9c24 10bd 1c47 a23c 28b9 0e3d
000000a0: 7841 22bd 78a8 d0bc 7f88 b33c d814 8fbc
000000b0: dc53 00bd 5a8a 13bd 82a0 62bc ef13 933c
000000c0: 3e55 d6bc 8c31 10bd 98fe 433d 7892 31bd
000000d0: a853 af3c d3ab 043d b0dc 22bd 4899 cbbc
000000e0: 54f6 373d aaa1 0b3d 4fb3 323d 5434 7abd
000000f0: a583 bf3c e241 c0bc 505b 743d 6fda 623d
00000100: 9b75 38bd 989f c0bc 5a5d 443d 7ac5 173b
00000110: 0c7f ad3c 722a e5bc baf4 a1bc 6657 0a3d
00000120: eab8 22bd c43b 16bd 0b57 0e3d cee1 893c
00000130: 9701 73bc eeac 003d 69bd 53bd 80c7 65bc
00000140: d6cd 08bc a68f a7bc e63d 933c 180c da3c
00000150: 9e48 24bd 8179 513d 4d5d d53b 1a36 ef3c
00000160: c5eb 36bd 68cf f73c fe2c 0c3d be83 5cbd
00000170: c8cb 01bb c6de 603d dead fc3c 9dea 0d3d
00000180: c2be 983c d07d 25bd 3cef 97bc f815 303b
00000190: e4ae 143d da90 eabc 1cf0 ef3c 3ad2 a8bc
000001a0: 9049 05ba d03b a53a 6910 38bc 622e 073d
000001b0: 10a8 d33c b003 54bc c338 c43b 3af6 7a3d
000001c0: 605b 3a3d a9f0 83bc c750 26bd 30fb 87bc
000001d0: 351a 26bd a6a9 65bd d915 6fbd 7664 e23c
000001e0: ae6f bb3c 64b4 57bd 5065 a63c 70d7 2cbc
000001f0: 36c9 42bd 3855 a9bc 0ed5 333d c49a 6b3d
00000200: 082f 9dbc c20d bfbc c41e 023d 5496 2dbd
00000210: 42ca ab3c dc73 01bd 265a 2abd 28c3 01bd
00000220: 8006 e5b8 a5d7 6f3d 68a1 2fbb 06ac 25bd
00000230: eda9 7a3c d541 063d 2ad5 1a3d 92e5 29bc
00000240: 26cd 113c d9ea 52bd 93b0 1f3d f268 5c3d
00000250: 804f 2339 c7fe 2e3d 1a4d 6a3d a0ab 60bd
00000260: 2944 6b3d 1483 fe3c 9021 7dba 4f59 003d
00000270: 2010 a1bc 037c 173c 62eb bebb 7715 1b3c
00000280: 0c44 1dbd 3ef8 18bd 8694 28bc 921f f1bc
00000290: 5825 0abc 36c2 d43b fa65 e63c 70fb 24bb
000002a0: 02e9 8abc 715c 713d 96dd 45bd e77b 6fbd
000002b0: 2746 a6bc aab3 6a3d cd5f 0dbc e082 e9bc
000002c0: 1236 283d 68db 713d 2e2b 04bc f909 693d
000002d0: 4361 dd3c 1aad 26bd 1853 913c 9c69 bb3c
000002e0: faed a13c b6ea 43bc 5456 df3c 2def 33bd
000002f0: 4eb4 6dba c708 21bd cf28 193d 5ee9 a2bc
00000300: 0b9d e7bc 5a06 d43b 6c95 f13c d046 773c
00000310: 1e5a bc3c aa8d 1cbd e866 003d 8920 4cbd
00000320: a023 193d ad1d 19bd 4659 5a3d 58ea b83a
00000330: a8f7 183d 623f 17bd f23a 5abd 4a88 1dbb
00000340: a8d6 05bd 2ed7 8cbc f3f1 743c 29d4 013c
00000350: 86b9 28bc 77da b8bc 80f1 5dba 10e8 8a3c
00000360: 1197 34bc 7845 b13b 8497 e93c f6fc 543d
00000370: 6267 5fbd e06c 653d 8c96 3b3d c0c4 1dbd
00000380: ea30 4d3d c648 4f3d ed84 033c 5793 0bbc
00000390: c839 55bb 9c4d 8a3b d8cd 2bbd 1c48 9fbb
000003a0: caa6 063d c60d 05bd aa72 7ebc d6b0 7cbc
000003b0: fc97 39bb 4fd9 253d 7906 ac3b b3ff 913b
000003c0: 9ab8 603d cec5 0ebd 94fa be3c f7a6 b83b
000003d0: c4af 553d 47aa 0fbd fe85 2dbc f6ee 113d
000003e0: ce56 4bbc aff2 06bd 3200 2dbb b62f d23b
000003f0: 796c 443c dbf9 a33c f1f8 b53c de24 5a3c
-0.019522998 -0.034272812 0.05899108 -0.02804134 0.0466663 -0.026904285 -0.020095304 -0.030555956
0.013269406 -0.010131169 0.036472056 0.022022065 0.028816514 0.036437187 0.05780417 0.060568202
0.032003537 0.028715216 -0.0039837984 -0.04295986 0.031517573 0.00759512 0.03667343 -0.0059915045
0.032513734 0.0001292238 0.010563929 -0.048307545 0.013801445 0.02231324 0.029732589 0.006106521
0.0020122817 0.01348009 0.008966976 0.033181995 -0.02021302 -0.035191163 0.019809298 0.034844548
-0.039613217 -0.025470957 0.021915672 -0.017465994 -0.031329975 -0.036020614 -0.013832213 0.017953841
-0.026163694 -0.0352035 0.04785022 -0.043352574 0.021402195 0.032390427 -0.039761245 -0.024853364
0.04491265 0.03408972 0.043628033 -0.06108506 0.023378203 -0.023468915 0.059657395 0.055384096
-0.045034032 -0.0235136 0.04794059 0.0023158477 0.021178745 -0.027974341 -0.019770015 0.033774756
-0.03972713 -0.03667809 0.03475098 0.016831305 -0.014831922 0.03141492 -0.051694307 -0.014024615
-0.008349856 -0.02045424 0.017973851 0.026617095 -0.040108316 0.051141266 0.0065113665 0.029200602
-0.04465844 0.030250266 0.034222595 -0.053836577 -0.00198053 0.054899953 0.030844625 0.034647573
0.018645648 -0.040403187 -0.018546693 0.0026868563 0.0362996 -0.028633524 0.029289298 -0.020608056
-0.0005084509 0.0012606326 -0.011234381 0.03300322 0.025836974 -0.012940332 0.005988212 0.061269976
0.0454973 -0.016105967 -0.04060438 -0.016599268 -0.040552337 -0.056069992 -0.058370445 0.027635794
0.022880401 -0.05266227 0.020311981 -0.010549411 -0.04755517 -0.020670518 0.043904357 0.057520643
-0.019187465 -0.02332199 0.03176762 -0.042379692 0.020970467 -0.031604633 -0.04158988 -0.031680256
-0.00010920782 0.058555264 -0.0026799086 -0.040447257 0.0152993025 0.032777626 0.037800945 -0.010369675
0.008899009 -0.0514935 0.038986754 0.05381102 0.00015574507 0.042723443 0.057202436 -0.054851174
0.05743805 0.031068362 -0.0009656185 0.03133517 -0.01966101 0.009245875 -0.0058263997 0.009465567
-0.038394973 -0.037346117 -0.010289317 -0.029434 -0.008431755 0.0064928783 0.028124798 -0.0025174282
-0.01695681 0.05892605 -0.048307024 -0.05846777 -0.020297123 0.057300247 -0.008628798 -0.028504789
0.04106719 0.059047133 -0.008066935 0.056894276 0.027023917 -0.040692426 0.017739818 0.022877507
0.019766796 -0.011957815 0.027262844 -0.043929268 -0.00090677 -0.03931501 0.037392434 -0.019886669
-0.028273126 0.0064704837 0.029490195 0.015092567 0.02299219 -0.03822104 0.03134814 -0.049835715
0.03738749 -0.037381817 0.053307794 0.0014107926 0.03734556 -0.03692568 -0.05327887 -0.0024037533
-0.032675415 -0.01719245 0.014950263 0.007924118 -0.0102981385 -0.02256511 -0.0008466467 0.01695636
-0.011022345 0.0054098926 0.028514631 0.051999055 -0.054541953 0.056012034 0.04579787 -0.038517714
0.050095476 0.05060651 0.008027297 -0.008519015 -0.003253566 0.0042206775 -0.041944355 -0.004860891
0.032873906 -0.03248384 -0.015530268 -0.01542302 -0.002831935 0.040490445 0.005249795 0.0044555306
0.05486355 -0.03485661 0.023312844 0.005635138 0.052169576 -0.0350745 -0.010591028 0.03562828
-0.012410833 -0.032946285 -0.0026397821 0.006414379 0.0119887525 0.020016601 0.022213431 0.013314454

Critic.fc1.bias f4 [32]
00000000: 0531 733d 0c74 503d 3ae3 55bc 7d4e 653d
00000010: 8ed8 c83c 4ecf 673d 3828 9f3c ba0f 883c
00000020: d264 39bd b29f 233d 9d8b 603d 3051 ed3c
00000030: 3d75 e0bc a9a9 f23c b9c0 003d 88f0 db3c
00000040: 9216 f33b 0e87 94bc ec0f ab3c 4646 98bc
00000050: 764b 51bd 7c8c cdbc 724c c73c b0b7 eb3c
00000060: b4d3 32bd 696f 09bd 15dc 1abd 8baf b6bc
00000070: e54b 0a3d 3074 bcbc c8d6 173c 5153 43bd
0.05937292 0.05089192 -0.013054663 0.055983055 0.024517324 0.056594186 0.019428357 0.016609062
-0.045262165 0.03994722 0.054820646 0.028969377 -0.027399654 0.029621916 0.031433795 0.026848093
0.007418462 -0.018130805 0.020881616 -0.018588196 -0.051097356 -0.025091402 0.024328444 0.028774112
-0.043658927 -0.033553515 -0.037807543 -0.022300502 0.033763785 -0.023004621 0.009267516 -0.04768688

Critic.fc2.weight f4 [32, 32]
00000000: 7cd4 14be ca78 9e3b 2608 48bd c253 41bc
00000010: dc12 ae3d 6446 b3bd 6d24 afbd ee6f af3d
00000020: 7ffe c3bd cdb7 01bc 9996 02be 47eb 2cbe
00000030: 3fae 083e 716e 013e 90e1 5b3d cab2 b73b
00000040: 5868 183e 0235 f5bd a7c2 fe3d 825c c13d
00000050: 35fb 8f3d d854 bbbd 5dcc 3bbe 4d92 243e
00000060: eb5d fb3d 0026 033d 8408 96bb aa9e 433d
00000070: 5e45 50bb 7b19 0e3e bc21 31be ad45 9cbb
00000080: 247d 2dbd 81bf 5ebd 80d7 0a3e 7d89 2a3e
00000090: 933c a3bd d6c2 1bbe 2391 05be 9420 c7bc
000000a0: 5750 1d3e 8659 a83d 16de e73d 0033 adbd
000000b0: d349 2fbe 7704 0cbe 0abd 193e 9e8d ddbc
000000c0: 86ab 3dbe 90d3 cd3d 3b1f 0c3e 907e 3cbd
000000d0: 3bf2 e7bc a0e1 74ba 2849 17bc c55d 103d
000000e0: cedb 24be 7ba6 2dbe c46f 203e 391d 00be
000000f0: 00cf 4b3d 6df8 fe3d 6b30 c9bd 1fdb 273c
00000100: a443 aebc ffd2 903d dde2 3c3e 4b4f 6a3d
00000110: 78bf 6e3d 3477 c6bc b664 26be 6e7c 4dbd
00000120: 32cf 5abd 0777 833d 681d 85bd dcc5 11be
00000130: aa7e c0bd 10b6 cebd ed84 af3d 257b 1b3e
00000140: f8cf 123e 30bf 40bd a471 0d3c 070e 0b3c
00000150: 4cb0 09be ee5e 32bb 1335 b4bd fc87 ba3d
00000160: 18ce 78bd 157e 543d 0efd c23d 9f0e 01be
00000170: 7ba2 9a3d 051c 97bd c502 20be 9523 dbbd
00000180: 38d9 4f3d 99ab 60bc b019 a7bd c899 fb3c
00000190: 4a80 3bbb f24d d73c 2034 6ebd ac76 823c
000001a0: 1cd3 c33d 9847 b9bd 729b c7bd a9ea 953d
000001b0: 2767 513c 4971 243e a4d7 363b b4e4 2dbd
000001c0: af82 af3d e4a1 1a3e 396a 0dbe 683b 6c3b
000001d0: 34b9 a5bc cc71 32be 3a36 09be a088 98b9
000001e0: 78ec f9bd df73 ebbd 47c5 26bc 4a89 d23d
000001f0: c346 fd3d e8b8 debd 696d 1cbe 4fe9 21be
00000200: 865a bd3c 5703 e53b c8af fd3d 3a41 093e
00000210: 7c04 e23d f061 273e c518 27be 0f6a bfbc
00000220: dac6 0ebd 59bd b5bd f09d 233b 0f14 7bbd
00000230: 144e 27be 481c 94ba 2c4f a8bd 40ab ddbc
00000240: ea1c 3c3e 0100 fbbd b4b2 a5bd 2806 b5ba
00000250: 76d7 6c3d f138 a33d ede1 983d 0ae0 23bd
00000260: 82fd ff3d 8920 bbbd 80b9 d3bd 8e81 923d
00000270: 5b60 71bc ce75 e53c 171e 363d bdd9 383e
00000280: 642a 203e fdf3 82bb 8ec2 803d 092f d9bd
00000290: 1b8e 273e f9d3 d93d 199e 89bd f73f ba3d
000002a0: 248f f3bb 9ce0 cf3d b85d 043d 7664 3a3d
000002b0: e01f bd3d afee 0e3e ebd0 0dbe 0e28 f4bb
000002c0: c062 233e a894 a63d fa2a cfbd 773f 24be
000002d0: 0bc0 db3d bf51 b3bd 0cd1 27be c0f0 47bc
000002e0: 9f25 183e 9675 d53d 2c27 d93d 50f8 213e
000002f0: 16de c4bd 4511 3a3d 94c6 8fbd 6983 013d
00000300: 9714 15be 6ca6 23be 684c ba3d c622 263e
00000310: 4ea3 db3b 50f0 cc3d 02a1 31bd 929d 2bbe
00000320: 1a2d 8c3d 377d 8a3d d1bb 283e 3250 ad3c
00000330: b06d c03c ac68 3abe 2a34 51bd cfb4 ce3c
00000340: 660d 19be 99f9 e53d 3e35 cbbc d092 6b3c
00000350: 6623 26be 7914 15be bb06 c13d 20c5 39be
00000360: f607 9dbb 1c0a 94bd efdd ff3c 9c75 e73d
00000370: 35ba 93bd 434c 283e 3e5c 13bb 5307 133e
00000380: 9069 4dbd dea9 2bbe 6016 d6bd d198 c9bd
00000390: 26c0 20be ac93 b1bc 4ce7 26be 4031 c0bd
000003a0: bda9 08be 5147 5d3d 1cd0 4e3d dd06 2b3e
000003b0: b875 40bd 224f 34be 79f7 51bd 6868 42bd
000003c0: 2362 82bd 7fcf 0ebd 84a5 1abe f94f c9bd
000003d0: 097b 09be ac18 93bd 5874 5abd 0047 1c3e
000003e0: 4b08 92bd 2127 81bd aaa1 2ebe 63a6 ff3d
000003f0: 74f9 6c3d 4168 9cbd 1d30 92bd 096e 84bd
-0.14534181 0.0048361765 -0.048835896 -0.011799755 0.08499691 -0.0875366 -0.085518695 0.08566271
-0.09570026 -0.007917357 -0.12752761 -0.16886626 0.1334772 0.12639786 0.05368191 0.00560603
0.14883554 -0.11973001 0.12439471 0.094414726 0.07030336 -0.09147042 -0.18339677 0.16071434
0.12273773 0.03201866 -0.004578652 0.047758736 -0.0031779627 0.13876908 -0.17298025 -0.004769048
-0.04235567 -0.05438185 0.13558769 0.1665401 -0.07970538 -0.15211043 -0.13043647 -0.024307527
0.15362678 0.082202 0.113216564 -0.08456993 -0.17118005 -0.13673578 0.15013519 -0.027045067
-0.18522462 0.10050118 0.13683788 -0.046019137 -0.028313747 -0.0009341482 -0.00923375 0.035245676
-0.16099474 -0.16958039 0.15667635 -0.12511148 0.049757957 0.12449727 -0.09823688 0.010245114
-0.021272488 0.07071494 0.18445916 0.057204526 0.058288068 -0.024226762 -0.16249356 -0.050167494
-0.053420253 0.06419187 -0.064997494 -0.14235634 -0.09399159 -0.100933194 0.085702755 0.15183695
0.14337146 -0.04705733 0.008633051 0.008487231 -0.13446158 -0.0027217227 -0.087991856 0.09107968
-0.06074342 0.051878054 0.095209226 -0.12603234 0.07550522 -0.07378391 -0.15626056 -0.10700146
0.050744265 -0.013712787 -0.081591964 0.030712977 -0.0028610402 0.026282284 -0.05815518 0.015925728
0.0956175 -0.090468585 -0.09746446 0.073201485 0.012780941 0.1605884 0.0027899528 -0.042454436
0.08569848 0.15100819 -0.13810052 0.003604615 -0.020229913 -0.17426223 -0.13399592 -0.00029093493
-0.12203306 -0.1149671 -0.0101788705 0.10280092 0.12367012 -0.10875112 -0.15276112 -0.15811656
0.023114454 0.0069889235 0.12387043 0.13403788 0.110360116 0.16345954 -0.16318043 -0.023366002
-0.03485761 -0.08874006 0.0024965964 -0.061298426 -0.16338378 -0.0011299932 -0.08218226 -0.027059197
0.18370405 -0.1225586 -0.080907255 -0.0013811039 0.057822667 0.07969845 0.07464967 -0.040008582
0.12499525 -0.09137065 -0.10338116 0.07153617 -0.014732446 0.028010275 0.04446229 0.1805181
0.1564117 -0.003996371 0.06287108 -0.10604674 0.16362803 0.10636134 -0.06719608 0.090942316
-0.007432835 0.10150263 0.03231594 0.045505963 0.09234595 0.13958238 -0.13849227 -0.007451064
0.15955639 0.08133823 -0.10115619 -0.16039835 0.10729989 -0.08755826 -0.16388339 -0.012203395
0.14858101 0.10422818 0.106031746 0.1581738 -0.09612672 0.045426626 -0.07020298 0.031619463
-0.14558636 -0.15981454 0.090966046 0.16224203 0.006702817 0.100067735 -0.04336644 -0.16759327
0.0684454 0.06762164 0.16477896 0.021156404 0.023489803 -0.18203992 -0.05107514 0.0252327
-0.14946517 0.112292476 -0.024805661 0.014378265 -0.16224441 -0.14558591 0.09425112 -0.18141603
-0.004792209 -0.07228491 0.031233756 0.11301729 -0.072132505 0.16435342 -0.00224854 0.14358263
-0.0501495 -0.16764018 -0.104534864 -0.098436005 -0.15698299 -0.02167686 -0.1629917 -0.09384394
-0.13346 0.05402309 0.050491437 0.16701837 -0.046987265 -0.17608312 -0.0512614 -0.04746285
-0.06366374 -0.034865852 -0.15102202 -0.09829707 -0.1342584 -0.0718244 -0.05333361 0.1526146
-0.07130488 -0.06306291 -0.17053857 0.124829076 0.057855085 -0.07637072 -0.07138083 -0.064663

Critic.fc2.bias f4 [32]
00000000: b66f 933d 435f 2ebe e83d 9d3d b718 a7bd
00000010: d4d6 023e 8c3d 3f3d 7521 903d 6251 ea3d
00000020: 628c 133e fc55 553b 177d debd 0782 7bbc
00000030: b8e1 a8bd dcb5 dbbd 6c67 283e 81c4 aa3d
00000040: 940e 313d 576d 83bd d8d9 36bd 56bf efbd
00000050: 934f 95bd cb16 03be aa9b 71bc 7aab 403d
00000060: d888 08be 65bf 0c3e 0983 2cbe 38aa abbd
00000070: 656e e43d 1d8d 87bd 722d 313d fd04 1f3e
0.071990415 -0.17028527 0.07677823 -0.08159011 0.12777263 0.046689555 0.070376314 0.11441304
0.1440902 0.0032552471 -0.10863703 -0.015350825 -0.082461774 -0.10728046 0.16445702 0.083382614
0.043226793 -0.06417339 -0.044641346 -0.11706416 -0.07290568 -0.12801664 -0.014746586 0.047038533
-0.13333452 0.13744886 -0.16846861 -0.08382076 0.111538686 -0.06618712 0.04325623 0.15529247

Critic.fc3.weight f4 [1, 32]
00000000: 0bef f0bd b8cb 15bd 8148 6a3c b2a4 80bd
00000010: a87c 683d 9dc4 31bd 1ff4 8ebd 6f33 b03d
00000020: 01ea 8a3c 69d3 28be e116 f8bd 3b0c 743d
00000030: b602 6abd 018a 8fbd 5812 c8bb 3e05 ed3c
00000040: 5243 debd 5fb5 3e3e 4468 343e 33cd f5bd
00000050: b6f5 9bbc aff5 b23c eab7 1d3d 0130 4abc
00000060: e69f e53d 783b a13d 14dd d9bd d74f debd
00000070: 2ac2 613d 0fa3 f0bd 33ce dabc fdc8 cbbd
-0.11764344 -0.036571234 0.014299513 -0.06281413 0.056759506 -0.043400396 -0.06980156 0.0860356
0.016957285 -0.16486897 -0.12113739 0.059581976 -0.05713149 -0.07008744 -0.0061057024 0.028933164
-0.10852684 0.18623875 0.17617899 -0.12002029 -0.019038063 0.021845667 0.038505472 -0.012340547
0.11212139 0.07872671 -0.106378704 -0.10855072 0.05511681 -0.11749851 -0.026709652 -0.09950445
