model_1.pt (torch, 114732 bytes, 13 tensors)

Actor.fc1.weight f4 [32, 378]
0.23313259 0.25167033 -0.33176926 -0.32296953 -0.13725828 -0.20871603 0.18201792 0.10557745
0.30088985 -0.01559079 -0.030839458 0.22479007 0.1061468 0.20850609 0.28240907 -0.114901856
-0.04232549 0.21381678 -0.13895506 -0.26158753 -0.09358353 -0.10827134 -0.024610031 0.02374148
0.031355184 0.13858317 0.2814739 -0.05162604 -0.2287113 0.094698444 0.22336166 0.17331064
0.08402567 0.06733066 0.03997781 0.18017954 0.089856505 0.012365009 0.13093019 -0.009725081
0.14218521 -0.13245757 -0.24185725 0.019562786 -0.24037743 -0.034712393 0.017431224 -0.009725066
-0.02663215 0.011018548 0.008662251 0.006819819 0.032775637 0.010896513 0.0448513 0.021114305
-0.036568593 -0.2586955 -0.2969692 -0.2974068 -0.012642935 -0.1146929 -0.20680256 0.124362595
0.2203145 -0.31739372 -0.28716117 -0.2814335 -0.31040612 -0.27230513 0.06151161 -0.32393083
-0.0025061816 0.29199255 0.014425212 -0.3410692 -0.34644306 -0.34144756 -0.29178068 -0.32037228
-0.1576408 0.1197159 0.11308504 0.29673585 -0.00479092 -0.141878 -0.28751245 -0.3193588
-0.24101302 -0.33840156 -0.10124371 0.104503326 0.2301001 0.061666783 0.36458263 0.2737463
-0.32023805 -0.252899 -0.27244866 -0.21837576 -0.0070832632 0.08371374 0.18354599 -0.020262036
0.24699388 0.19634001 -0.33230203 -0.20435655 -0.25662282 -0.10072801 0.06378259 0.16113889
0.1481436 0.14816506 0.22553575 0.22265433 -0.31583056 -0.28032404 -0.3176885 -0.2619893
-0.078136764 0.05997086 -0.2701619 0.07503882 -0.28714132 0.2544006 -0.29055792 -0.26245213
-0.24526313 -0.2890394 -0.022976222 0.069247164 -0.32890588 0.032192532 -0.269818 0.34214124
-0.34794545 -0.26030248 -0.29830083 -0.28390047 -0.068457566 0.022847008 -0.32463995 0.07193644
-0.2998437 0.27496547 -0.30182657 -0.29467565 -0.26977095 -0.22861409 -0.24878187 0.28805238
-0.22152676 -0.2526632 0.28335282 -0.23727491 -0.26533163 -0.23409657 -0.27585915 -0.27253842
-0.272989 0.2703456 -0.2224497 -0.31124145 0.20949337 -0.30698 -0.26698035 -0.2869734
-0.3046612 -0.35451362 0.3028564 0.33873972 0.29219267 -0.31280535 -0.26803005 -0.26910925
-0.28736117 -0.3177043 -0.25147521 -0.2856468 0.34841663 0.24094042 0.26884896 -0.33257723
-0.28668395 -0.25832468 -0.34463933 0.00095503684 -0.02500183 -0.0006499904 -0.039816324 0.038046423
0.034249518 -0.030607013 -0.25529194 -0.08285766 0.27356136 -0.06706223 0.28149965 -0.034288637
0.03562065 0.16445829 0.14743675 0.011417807 0.24724463 -0.13252346 0.081602514 0.1556271
0.15014789 0.07536873 0.18202752 0.1799699 0.19365948 0.08689578 0.2780723 0.03950881
0.16586106 0.1799692 0.11784696 0.118152365 -0.16501692 0.10033452 0.20469591 0.16055374
0.11797578 0.1389822 -0.11435546 0.075353615 0.17025912 -0.0030171524 0.1406655 0.07088135
0.116278164 0.059886836 -0.13995878 -0.14772473 -0.20132937 0.035580367 -0.18813229 0.10842902
-0.032274835 -0.114957124 -0.19517119 0.034007154 -0.17296432 0.043732114 -0.0083544245 -0.22008397
-0.088761345 -0.02251839 0.22332379 -0.19513305 0.07225929 -0.15520066 -0.102042645 -0.03401315
00000000: 4fba 6e3e efda 803e a9dd a9be 435c a5be
00000010: 6f8d 0cbe a8b9 55be e862 3a3e fd38 d83d
00000020: 3c0e 9a3e 8370 7fbc 08a3 fcbc 5e2f 663e
00000030: 7e63 d93d 9f82 553e ec97 903e aa51 ebbd
00000040: 7e5d 2dbd c9f2 5a3e 3c4a 0ebe cdee 85be
00000050: b9a8 bfbd 5dbd ddbd fa9a c9bc 7e7d c23c
00000060: 4b6e 003d bfe8 0d3e 591d 903e d475 53bd
00000070: 4c33 6abe 42f1 c13d ebb8 643e 5878 313e
00000080: a715 ac3d a8e4 893d c6bf 233d fc80 383e
00000090: b006 b83d 9b96 4a3c 9012 063e f255 1fbc
000000a0: 0099 113e f5a2 07be 6da9 77be 2342 a03c
000000b0: 8025 76be 952e 0ebd edcb 8e3c e255 1fbc
000000c0: ab2b dabc 2487 343c 1dec 0d3c ca78 df3b
000000d0: bf3f 063d 4a87 323c ffb5 373d e8f7 ac3c
000000e0: f3c8 15bd bd73 84be 590c 98be b445 98be
000000f0: 5024 4fbc 1ce4 eabd 0dc4 53be d1b1 fe3d
00000100: 209a 613e 6e81 a2be ca06 93be 0d18 90be
00000110: 8ded 9ebe 946b 8bbe 99f3 7b3d 43da a5be
00000120: c03e 24bb 0c80 953e b957 6c3c 9fa0 aebe
00000130: fc60 b1be 37d2 aebe 4764 95be d607 a4be
00000140: 976c 21be 9c2d f53d 2199 e73d c3ed 973e
00000150: 26fd 9cbb 7748 11be d534 93be ff82 a3be
00000160: 1ecc 76be f842 adbe dd58 cfbd d705 d63d
00000170: 5c9f 6b3e 4f96 7c3d 93aa ba3e 7a28 8c3e
00000180: 3ef6 a3be fa7b 81be 647e 8bbe e59d 5fbe
00000190: b81a e8bb 1c72 ab3d 7bf3 3b3e 92fc a5bc
000001a0: f7eb 7c3e 5b0d 493e 7e23 aabe d842 51be
000001b0: 1164 83be 7d4a cebd 72a0 823d 9801 253e
000001c0: f5b2 173e 95b8 173e d8f2 663e 7fff 633e
000001d0: 8bb4 a1be a286 8fbe 11a8 a2be 7623 86be
000001e0: 2b06 a0bd 01a4 753d a952 8abe f4ad 993d
000001f0: 3004 93be cc40 823e 02c4 94be 2060 86be
00000200: 4226 7bbe f9fc 93be a138 bcbc 75d1 8d3d
00000210: 5a66 a8be 51dc 033d 9625 8abe 232d af3e
00000220: e825 b2be 5e46 85be e3ba 98be 675b 91be
00000230: 7b33 8cbd a629 bb3c 3537 a6be 6a53 933d
00000240: 1d85 99be 46c8 8c3e 0389 9abe badf 96be
00000250: 6b1f 8abe d019 6abe adc0 7ebe 9a7b 933e
00000260: e9d7 62be 125d 81be 9f13 913e 32f8 72be
00000270: 8cd9 87be 03b7 6fbe 693d 8dbe 288a 8bbe
00000280: 37c5 8bbe bd6a 8a3e dbc9 63be 0a5b 9fbe
00000290: 6e85 563e 7c2c 9dbe a6b1 88be 2dee 92be
000002a0: 8efc 9bbe cf82 b5be fe0f 9b3e 4b6f ad3e
000002b0: 479a 953e 0628 a0be 3c3b 89be b0c8 89be
000002c0: 0121 93be 23aa a2be 5cc1 80be 4c40 92be
000002d0: aa63 b23e 16b9 763e 92a6 893e 9047 aabe
000002e0: 3dc8 92be 2243 84be 9174 b0be 705b 7a3a
000002f0: a3d0 ccbc 1e64 2aba 7116 23bd 91d6 1b3d
00000300: 3949 0c3d 8fbb fabc a0b5 82be 47b1 a9bd
00000310: 3c10 8c3e ec57 89bd b920 903e 3e72 0cbd
00000320: f5e6 113d c167 283e a9f9 163e c111 3b3c
00000330: b22d 7d3e 3bb4 07be 381f a73d b65c 1f3e
00000340: 5ec0 193e ec5a 9a3d 6c65 3a3e 084a 383e
00000350: ac4e 463e 6af6 b13d 7e5f 8e3e fdd3 213d
00000360: 7bd7 293e d949 383e bf59 f13d def9 f13d
00000370: 32fa 28be 2f7c cd3d ce9b 513e 3368 243e
00000380: 499d f13d 5a51 0e3e 3233 eabd ff52 9a3d
00000390: 6858 2e3e 6bbb 45bb 9e0a 103e 3e2a 913d
000003a0: 3f23 ee3d e64b 753d 5b51 0fbe 2745 17be
000003b0: 4929 4ebe b8bc 113d c0a5 40be 0910 de3d
000003c0: 9e32 04bd a46e ebbd f5da 47be 164b 0b3d
000003d0: 8f1d 31be 7220 333d ffe0 08bc b15d 61be
000003e0: 82c8 b5bd 7d78 b8bc feae 643e f5d0 47be
000003f0: aefc 933d ecec 1ebe bcfb d0bd 5f51 0bbd

Actor.fc1.bias f4 [32]
-0.3011352 0.05089159 0.11187869 0.055727474 -0.23729043 0.06799425 0.046724148 -0.3617863
-0.43673456 0.0741285 -0.22785883 -0.12283471 -0.35893992 0.019280873 -0.4060806 -0.14926018
-0.07525377 0.19259185 -0.24163331 -0.3421369 -0.05211387 -0.06669908 0.33257407 -0.055775944
0.35313013 -0.24802318 -0.21991083 -0.05595779 0.26668957 0.060892295 0.20737702 -0.18876827
00000000: 652e 9abe b373 503d a820 e53d 7e42 643d
00000010: 43fc 72be 9240 8b3d d261 3f3d 0e3c b9be
00000020: ac9b dfbe afd0 973d d353 69be c490 fbbd
00000030: f9c6 b7be ecf2 9d3c cce9 cfbe a9d7 18be
00000040: a61e 9abd cc36 453e b96e 77be 912c afbe
00000050: 5a75 55bd 8799 88bd 2647 aa3e 5175 64bd
00000060: 79cd b43e caf9 7dbe 4e30 61be ff33 65bd
00000070: 898b 883e 336a 793d a45a 543e 784c 41be

Actor.fc2.weight f4 [32, 32]
0.0863583 -0.26504222 -0.08165265 -0.085592 -0.21610281 -0.33594453 0.07678428 0.2950174
-0.10765123 -0.19642298 0.17041218 -0.032315314 -0.08939881 0.05303319 0.8903542 -0.052485418
0.02071223 -0.10124315 -0.110598974 -0.01973109 -0.113916576 -0.10715069 0.042395256 -0.19882701
-0.022304581 0.026050728 -0.37115288 0.019980602 -0.028219346 -0.26421693 -0.19448435 0.00061597076
0.05534447 -0.03668799 -0.20483707 -0.072396606 -0.14667284 -0.10177442 -0.20947748 -0.12997067
-0.070362195 0.2740737 -0.114288725 0.028498676 0.030875098 -0.19323562 0.026193703 -0.17408423
-0.29623243 -0.12220282 0.41938055 0.086509824 -0.4365749 -0.15725371 -0.12383135 0.07480387
-0.47859266 0.06967242 0.0062200176 0.019129185 -0.19191532 -0.23582324 -0.17239325 0.3015748
-0.021762092 -0.067038685 -0.031184372 -0.08227687 -0.17215075 0.068979815 -0.052744962 -0.041383777
0.1290791 0.065111786 -0.12794209 0.036191992 0.105226554 0.16630639 -0.5752201 -0.18243644
-0.18567374 -0.22331262 -0.06569722 0.076852135 0.01489081 0.12957104 0.24833372 -0.17161462
0.17609219 -0.17370704 -0.082045265 0.004415573 0.04679797 -0.2532978 0.13570172 -0.10858699
0.03236271 -0.14945042 -0.27451965 -0.076210044 0.1345994 -0.052114803 0.08524558 0.15209971
-0.1681958 -0.010852481 -0.23621753 -0.28166422 -0.23987627 -0.06842841 -0.090046145 0.07431124
0.051046688 -0.20147693 0.037571654 -0.08329046 -0.054982476 -0.37950626 0.012007526 0.029491134
-0.3769274 -0.15982047 -0.062360078 -0.19431412 -0.10305865 -0.2802153 0.08415971 -0.104303725
-0.05348109 -0.13650838 -0.06979956 0.07154489 0.07041852 0.04438487 -0.20334062 -0.13829093
-0.041106768 0.12122899 0.14691763 -0.12316152 -0.021988844 0.16279882 0.25878102 -0.056271426
0.04945595 0.03700031 0.048563905 0.05310939 0.08590875 -0.07167505 -0.1825281 -0.18183437
-0.016649777 0.007966097 0.022849396 -0.14599827 -0.057598267 0.22604004 0.015758405 0.14412308
-0.07518544 0.08764899 -0.12637514 -0.091676995 0.0051619336 0.11242009 -0.076593526 -0.20085238
-0.15658326 -0.24732886 -0.097767435 0.0024860676 0.038176037 -0.0877172 -0.22060493 0.055666775
-0.24270289 -0.02108566 -0.12369811 -0.15355891 -0.11408816 -0.092573084 -0.20503508 -0.018551769
-0.20959227 0.0373654 0.022146862 -0.13558306 -0.004919231 -0.13763206 -0.20525166 -0.027682621
0.08684277 -0.13057677 -0.053419534 -0.04787124 -0.03349004 -0.0071858554 -0.04116455 -0.1973424
0.07004833 -0.04385057 -0.11503171 -0.05673483 -0.1888288 -0.0367356 0.0006027449 -0.017244017
-0.037140444 -0.07263913 0.06596893 0.053395264 -0.16060668 -0.24293365 -0.15634023 0.05871302
-0.01914767 -0.17792812 -0.02983628 -0.05212602 0.047569342 0.035905883 -0.0033742522 0.029985884
-0.09682115 -0.049784485 -0.025188722 -0.0978306 -0.01643783 -0.23359118 0.23696771 -0.13396308
0.049257386 0.022714917 -0.04207831 0.1856563 -0.048924796 -0.21789032 -0.112266324 0.021105455
-0.16575757 -0.170712 0.119959265 0.15927707 0.07661454 -0.018135738 -0.016408568 -0.23604079
-0.10458592 0.07556996 -0.1879612 -0.39402416 -0.058261354 0.05851481 -0.10424795 0.03525835
00000000: 9fdc b03d 9db3 87be 8139 a7bd dc4a afbd
00000010: 0e4a 5dbe ec00 acbe 1441 9d3d 850c 973e
00000020: 4078 dcbd 1b23 49be 8880 2e3e 105d 04bd
00000030: b916 b7bd 5539 593d 41ee 633f f3fa 56bd
00000040: b2ac a93c 9258 cfbd b781 e2bd 18a3 a1bc
00000050: 184d e9bd d271 dbbd a6a6 2d3d 4f99 4bbe
00000060: 19b8 b6bc 5668 d53c c007 bebe 5cae a33c
00000070: 422c e7bc 7147 87be e826 47be 1979 213a
00000080: e2b0 623d 2546 16bd cfc0 51be ac44 94bd
00000090: 6831 16be 1b6f d0bd 4481 56be 0817 05be
000000a0: 0e1a 90bd 6353 8c3e 3510 eabd 0e76 e93c
000000b0: c6ed fc3c 8fdf 45be 2d94 d63c 2343 32be
000000c0: c7ab 97be 7945 fabd 0cb9 d63e 102c b13d
000000d0: bf86 dfbe 1e07 21be 4a9b fdbd c532 993d
000000e0: 190a f5be 6ab0 8e3d 4ad1 cb3b cfb4 9c3c
000000f0: 7385 44be a67b 71be db87 30be 0368 9a3e
00000100: 6a46 b2bc 944b 89bd 5e76 ffbc c780 a8bd
00000110: 4948 30be 4a45 8d3d 1a0b 58bd 0982 29bd
00000120: 502d 043e 5459 853d 4003 03be 0e3e 143d
00000130: 0581 d73d 394c 2a3e a041 13bf 9ed0 3abe
00000140: 4221 3ebe 10ac 64be 448c 86bd a764 9d3d
00000150: 95f8 733c 45ae 043e 324b 7e3e bebb 2fbe
00000160: 8351 343e 42e0 31be 5907 a8bd 83b0 903b
00000170: 3aaf 3f3d 40b0 81be 64f5 0a3e db62 debd
00000180: c38e 043d 8809 19be d78d 8cbe 0314 9cbd
00000190: 6dd4 093e 5576 55bd 3c95 ae3d 07c0 1b3e
000001a0: 853b 2cbe 9bce 31bc 02e3 71be 4b36 90be
000001b0: 20a2 75be 3224 8cbd 1d6a b8bd 7e30 983d
000001c0: 5516 513d f84f 4ebe bce4 193d 3094 aabd
000001d0: 4e35 61bd a54e c2be 37bb 443c 6497 f13c
000001e0: a1fc c0be faa7 23be 486d 7fbd 48fa 46be
000001f0: 6a10 d3bd 6178 8fbe ed5b ac3d 319d d5bd
00000200: fd0e 5bbd dac8 0bbe 12f3 8ebd 2186 923d
00000210: 9637 903d e9cc 353d 8638 50be 239c 0dbe
00000220: 925f 28bd e846 f83d 9371 163e 1b3c fcbd
00000230: f321 b4bc bcb4 263e f27e 843e de7c 66bd
00000240: 5292 4a3d a38d 173d f2ea 463d 3b89 593d
00000250: edf0 af3d 5eca 92bd a5e8 3abe ca32 3abe
00000260: 1d65 88bc 3c84 023c a82e bb3c 9280 15be
00000270: 29ec 6bbd 0a77 673e c517 813c 0095 133e
00000280: d3fa 99bd 5081 b33d 7c68 01be 26c1 bbbd
00000290: 7025 a93b 813c e63d 11dd 9cbd 3fac 4dbe
000002a0: 5d57 20be c743 7dbe 4b3a c8bd 4bed 223b
000002b0: 7a5e 1c3d 13a5 b3bd 42e6 61be d802 643d
000002c0: 1b87 78be d6bb acbc 6f55 fdbd 8c3e 1dbe
000002d0: 0ea7 e9bd f596 bdbd b7f4 51be e1f9 97bc
000002e0: 5b9f 56be 760c 193d 566d b53c 49d6 0abe
000002f0: 8031 a1bb 6bef 0cbe 7e2d 52be aac6 e2bc
00000300: 9fda b13d ebb5 05be 71ce 5abd a214 44bd
00000310: da2c 09bd 5377 ebbb 299c 28bd 2014 4abe
00000320: 8075 8f3d a89c 33bd bf95 ebbd c862 68bd
00000330: 565c 41be 1278 16bd 8701 1e3a 5343 8dbc
00000340: 9420 18bd d3c3 94bd b81a 873d feb4 5a3d
00000350: 1476 24be 99c3 78be a717 20be 107d 703d
00000360: 93db 9cbc ca32 36be 376b f4bc 1882 55bd
00000370: 12d8 423d 0c12 133d 8f22 5dbb f5a4 f53c
00000380: 2b4a c6bd d1ea 4bbd 9458 cebc 695b c8bd
00000390: a1a8 86bc 8732 6fbe aaa7 723e 9e2d 09be
000003a0: 1dc2 493d a214 ba3c 4e5a 2cbd af1c 3e3e
000003b0: 5e65 48bd a41e 5fbe e3eb e5bd 59e5 ac3c
000003c0: 5abc 29be 20cf 2ebe 34ad f53d 8719 233e
000003d0: 15e8 9c3d 6691 94bc 436b 86bc adb4 71be
000003e0: 2531 d6bd 6cc4 9a3d e778 40be 89bd c9be
000003f0: 75a3 6ebd 3aad 6f3d f37f d5bd 0f6b 103d

Actor.fc2.bias f4 [32]
0.037509557 -0.07526149 -0.15250415 -0.17556177 0.034192804 -0.16791196 -0.07104727 -0.03825007
-0.40557402 -0.16368854 -0.39498797 -0.3185154 0.011299903 -0.15592769 -0.04572692 -0.19830436
0.4830891 0.023045594 -0.1725401 -0.3623663 0.08409363 -0.14889604 -0.07787608 -0.18418154
-0.19139312 -0.050918 -0.10312877 0.026772015 -0.062432785 -0.13024479 0.08319154 -0.17828092
00000000: 9fa3 193d b222 9abd 0c2a 1cbe 77c6 33be
00000010: c10d 0c3d 1df1 2bbe 3b81 91bd 1bac 1cbd
00000020: 66a7 cfbe f89d 27be dd3b cabe 7314 a3be
00000030: 3a23 393c 82ab 1fbe 274c 3bbd 4c10 4bbe
00000040: 7457 f73e 1dca bc3c 5aae 30be 1388 b9be
00000050: 4839 ac3d 3478 18be 7f7d 9fbd 169a 3cbe
00000060: 8ffc 43be 658f 50bd 2d35 d3bd fc50 db3c
00000070: 85b9 7fbd e45e 05be 5360 aa3d 468f 36be

Actor.mean_fc3.weight f4 [17, 32]
0.054261997 -0.047886685 -0.14421797 0.036992703 -0.63014245 0.16954255 -0.18203872 0.045427334
0.16190372 0.21093427 0.35256988 0.21017851 -0.15276693 0.003353856 0.46122205 -0.22812779
-0.051030006 -0.19449279 -0.15818842 -0.044119097 -0.24635318 0.29952335 0.12500481 0.29906082
-0.13351193 -0.034516804 0.20248419 -0.20486699 0.1810036 0.009425355 0.04788815 -0.30495393
-0.07817774 -0.6736841 -0.18551563 -0.34495765 0.19818372 -0.35903206 0.19961473 -0.4186147
0.2446092 -0.16672935 -0.16536435 0.074141115 0.23268697 -0.05277361 0.08721757 0.05093849
-0.1141454 -0.276843 0.2786358 0.051890604 -1.6515349e-05 0.057420474 0.08462912 0.0081524355
0.19609182 0.025111413 0.09034028 0.013339201 0.3548991 0.3142534 -0.55387014 0.050469887
-0.5263725 -0.41212904 0.14922261 -0.27845678 -0.23624903 -0.48461884 -0.06671374 -0.050844576
-0.043586347 0.004600062 -0.5452941 -0.026709026 0.047152784 -0.060322113 0.2127689 -0.3245932
0.17518972 0.23030154 0.24549517 -0.022341508 -0.12103457 0.032003414 0.09188805 -0.032062117
-0.17072496 -0.06186904 0.0033722834 -0.35927132 -0.27492347 -0.43935207 -0.29919317 0.38299423
-0.40875867 -0.027776815 0.49183732 0.6393906 -0.105592564 0.08705872 -0.27232328 0.06799907
-0.059271954 0.01958962 0.025670612 0.31352818 -0.0965292 0.07347772 0.12788658 0.40833032
0.037539717 0.0040571727 0.0015936287 -0.062082164 0.039721403 -0.16530363 -0.36179546 0.24799156
0.13498144 -0.14612153 0.2538451 0.11999761 -0.28264874 -0.33214986 -0.400635 0.22249845
-0.35573122 -0.44038695 0.049886126 -0.24671955 -0.25121883 0.43242133 -0.09179288 0.023378352
-0.29373297 -0.07731104 -0.43334386 0.20712759 0.2973514 0.30213925 -0.13263975 0.32510495
-0.1328817 -0.31052464 -0.0108435815 -0.23642877 -0.16555862 0.23658992 0.38622376 -0.21514243
-0.046193983 -0.034476683 0.15691599 -0.22092576 0.045132063 -0.13565485 -0.4731928 0.19655426
-0.07989127 -0.029229926 0.108777754 -0.45929432 -0.17359175 -0.040530868 0.46389735 0.70156753
-0.04507595 -0.16382678 0.18989539 0.005191561 0.17928317 0.09864932 -0.35868213 0.07806543
0.04631669 -0.077930436 0.19357806 0.12403841 -0.19180714 0.14444181 -0.10842858 -0.15651159
0.5970052 -0.046680205 0.01907185 0.01158687 -0.23284513 0.28881708 -0.09243278 0.11834749
0.22837444 -0.20586428 0.40454522 -0.14384311 0.15925099 0.33178097 -0.10910629 -0.14458399
0.11607174 -0.08819026 0.19561918 0.083840325 -0.25476852 -0.04080795 0.11952527 0.018258967
0.24656518 -0.10684255 0.24674281 0.640088 0.24191089 -0.06338039 -0.07401701 0.17661141
0.22384532 -0.39356375 -0.12016298 -0.41828248 -0.021038886 0.2727335 -0.3798679 -0.19385749
0.043220256 0.15859665 -0.10417946 0.022906685 -0.13214445 -0.044174153 -0.27295402 0.10788666
0.15341753 -0.14575806 0.0061227665 0.41190505 -0.0022125796 0.07773127 0.020729655 -0.15804464
-0.08062125 -0.015806016 0.13805078 0.23936842 -0.46479 -0.11873513 0.28378996 0.30566773
-0.25117132 0.40535644 -0.0964803 -0.2085721 0.118527 -0.49524024 -0.035326462 0.2106823
00000000: d441 5e3d d424 44bd e0ad 13be a985 173d
00000010: 0451 21bf 909c 2d3e 5c68 3abe 0312 3a3d
00000020: 17ca 253e 27ff 573e 0a84 b43e 0939 573e
00000030: ef6e 1cbe 5ecc 5b3b 4c25 ec3e 559a 69be
00000040: d704 51bd 1e29 47be 25fc 21be 3ab6 34bd
00000050: 0244 7cbe 205b 993e 4301 003e 801e 993e
00000060: 5ab7 08be 7e61 0dbd 0458 4f3e a7c8 51be
00000070: 0259 393e ce6c 1a3c 5d26 443d ec22 9cbe
00000080: a71b a0bd 9076 2cbf cff7 3dbe 4a9e b0be
00000090: acf0 4a3e 0dd3 b7be ce67 4c3e aa54 d6be
000000a0: d67a 7a3e 19bb 2abe 4655 29be 4cd7 973d
000000b0: 7e45 6e3e 2429 58bd 209f b23d e1a4 503d
000000c0: 10c5 e9bd 5ebe 8dbe 5aa9 8e3e 3e8b 543d
000000d0: 718a 8ab7 bb31 6b3d 0852 ad3d cb91 053c
000000e0: 4bcc 483e 73b6 cd3c 5304 b93d aa8c 5a3c
000000f0: 56b5 b53e d2e5 a03e 6fca 0dbf 83b9 4e3d
00000100: 59c0 06bf 9402 d3be d0cd 183e e391 8ebe
00000110: 44eb 71be f61f f8be 37a1 88bd 6742 50bd
00000120: 9987 32bd 1ebc 963b 6598 0bbf e3cc dabc
00000130: 4723 413d 5214 77bd 17e0 593e 1431 a6be
00000140: ef64 333e 2bd4 6b3e 1663 7b3e 8a05 b7bc
00000150: f9e0 f7bd 0316 033d cd2f bc3d 9153 03bd
00000160: 86d2 2ebe 646a 7dbd 8701 5d3b 69f2 b7be
00000170: c5c2 8cbe c1f2 e0be d92f 99be d217 c43e
00000180: d148 d1be 348c e3bc 1ad2 fb3e 1aaf 233f
00000190: ea40 d8bd d84b b23d f56d 8bbe 1943 8b3d
000001a0: 26c7 72bd 697a a03c 2d4b d23c c486 a03e
000001b0: 1ab1 c5bd 7d7b 963d b3f4 023e ac10 d13e
000001c0: 3fc3 193d 08f2 843b 4ee1 d03a de49 7ebd
000001d0: e9b2 223d 5b45 29be 413d b9be 80f1 7d3e
000001e0: 9338 0a3e e2a0 15be fcf7 813e 4fc1 f53d
000001f0: 56b7 90be 8c0f aabe 0820 cdbe a2d6 633e
00000200: 6722 b6be 667a e1be 6555 4c3d 0da4 7cbe
00000210: c19f 80be 5466 dd3e e8fd bbbd f583 bf3c
00000220: 2b64 96be 4055 9ebd 3fdf ddbe 4119 543e
00000230: 713e 983e ffb1 9a3e b7d2 07be 2874 a63e
00000240: 2412 08be 16fd 9ebe 47a9 31bc 621a 72be
00000250: 3388 29be a144 723e 1fbf c53e 4c4e 5cbe
00000260: e735 3dbd 6c37 0dbd 96ae 203e 5d3a 62be
00000270: 66dc 383d 1be9 0abe 5446 f2be 8545 493e
00000280: 099e a3bd 9973 efbc dfc6 de3d a028 ebbe
00000290: 09c2 31be b203 26bd f483 ed3e ee99 333f
000002a0: 8fa1 38bd 35c2 27be f073 423e f81d aa3b
000002b0: 0296 373e a808 ca3d 2fa5 b7be c5e0 9f3d
000002c0: 92b6 3d3d fe99 9fbd 5439 463e da07 fe3d
000002d0: 1769 44be 8ee8 133e ce0f debd 9344 20be
000002e0: 55d5 183f be33 3fbd 923c 9c3c dbd6 3d3c
000002f0: f46e 6ebe d5df 933e 664d bdbd 2b60 f23d
00000300: fdda 693e 16ce 52be 8d20 cf3e 9c4b 13be
00000310: b112 233e 32df a93e 1e73 dfbd d30d 14be
00000320: 05b7 ed3d 189d b4bd 6550 483e 7ab4 ab3d
00000330: 0571 82be 3d26 27bd aac9 f43d d493 953c
00000340: 957b 7c3e 44d0 dabd 26aa 7c3e cfdc 233f
00000350: 7db7 773e 94cd 81bd 3b96 97bd 9fd9 343e
00000360: b537 653e 3081 c9be 0218 f6bd 1f29 d6be
00000370: be59 acbc baa3 8b3e 0c7e c2be 9482 46be
00000380: b907 313d 2967 223e 0a5c d5bd cda6 bb3c
00000390: e050 07be f5ef 34bd a1c0 8bbe aef3 dc3d
000003a0: 7c19 1d3e 9a41 15be 7da1 c83b 38e5 d23e
000003b0: ed00 11bb 9231 9f3d 3dd1 a93c 74d6 21be
000003c0: c11c a5bd 9e7b 81bc 2f5d 0d3e ff1c 753e
000003d0: f4f8 edbe 672b f3bd eb4c 913e 7b80 9c3e
000003e0: 8799 80be e18a cf3e 7797 c5bd ed93 55be
000003f0: 49be f23d 2190 fdbe 7bb2 10bd 1abd 573e

Actor.mean_fc3.bias f4 [17]
-0.037681725 -0.09695583 0.12926213 0.081387796 0.013215376 0.069546826 -0.06861246 0.023419864
-0.15902537 0.16705225 -0.13535488 -0.00074572524 0.047014892 -0.13289528 0.026229395 0.030402208
-0.10245595
00000000: 2758 1abd c790 c6bd 4b5d 043e a5ae a63d
00000010: 4e85 583c 916e 8e3d b084 8cbd 04db bf3c
00000020: 8cd7 22be bf0f 2b3e 789a 0abe c67c 43ba
00000030: b092 403d b315 08be 07df d63c 0d0e f93c
00000040: 6dd4 d1bd

Actor.log_std_fc3.weight f4 [17, 32]
-0.33159065 0.25501978 0.15581757 -0.255013 -0.10815568 0.07927886 0.044280566 -0.50848687
-0.7123526 0.2632131 -0.7258375 -0.21897365 0.24420317 -0.008081146 0.020234402 -0.28879672
0.427951 0.4456171 -0.2299702 0.23970568 0.3218025 -0.0043806676 0.037329398 -0.31964627
0.0015158297 -0.19123746 0.0779742 0.42660353 -0.043241043 0.07935397 -0.024548577 0.33223385
-0.43406594 -0.1845236 0.29097936 -0.41226533 0.3707096 -0.034433417 -0.14748417 -0.18861105
-0.0029955194 -0.35947433 -0.5934415 -0.0623539 -0.085619055 -0.07540504 -0.19551195 -0.05842273
0.23820919 0.15458182 0.06821707 0.3081325 0.2874424 -0.053222783 -0.33644584 -0.059611384
0.14342096 0.009674552 -0.12650138 0.055265713 0.18822046 0.06404426 -0.21736006 -0.044714503
-0.28406045 -0.29709998 0.17845179 -0.05438804 0.03717323 -0.47536066 -0.20230782 0.0759788
-0.24181758 0.083169624 -0.7340522 -0.07634514 0.174498 -0.018663295 0.14065735 0.035710685
0.56933606 0.14216232 -0.006806705 -0.34882352 0.39813098 -0.57265484 -0.30334634 -0.110784374
-0.32848454 -0.087783925 0.18374352 0.075866796 0.5235865 -0.017720481 0.3283136 -0.0025047616
-0.22655994 -0.057423376 -0.27560952 -0.27313045 0.0042090504 -0.51785845 -0.19881117 0.25513363
-0.14413534 -1.6095892 -1.1507785 0.12840882 0.075908765 -0.05722661 -0.0099336235 0.2796719
0.46561348 0.27073193 -0.064348154 -0.14601265 0.48415092 -0.68593776 -0.24307698 -0.31689048
0.25530472 0.19840993 0.12675259 -0.02967554 -0.22401108 0.051376157 0.05467268 0.22991763
-0.5395834 -0.0450698 0.5148748 0.28254724 -0.34931937 -0.25637904 -0.21333969 -0.83817405
-0.67037475 -0.5703952 -0.84723157 0.03184642 -0.28426313 0.20089333 -0.036411308 -0.103710994
0.27954134 0.4452599 0.10087645 0.25289208 0.14360312 0.042907324 -0.20164782 0.1294758
-0.13670467 -0.011992197 -0.09687757 -0.27438164 0.40317053 0.07837435 -0.5134939 0.29319653
-0.5779145 0.037057117 0.3737393 -0.28150737 -0.3068069 -0.0058484087 -0.37750575 0.09709665
-0.5233494 -0.14020905 -0.18852727 -0.05840618 0.17031854 -0.25732782 -0.07695401 -0.042058673
0.20006627 -0.3512907 -0.18698893 -0.26532143 0.49685776 -0.28896898 0.04053373 -0.2161862
-0.31711265 -0.31375042 -0.27553478 0.8014301 -0.040517136 0.13985617 0.22387686 0.2465655
0.4078589 -1.4782165 -0.02193659 -0.007639023 -0.23021953 -0.20904802 0.014425751 0.45139992
-0.5397175 -2.336844 -1.2753961 0.15759636 0.093852445 -0.2239625 -0.31684107 -0.40231293
0.23884605 0.110622756 0.19802172 0.25361532 0.057156183 0.2339836 -0.4175184 0.25151256
-0.087195866 -0.16600858 -0.06936421 0.022761865 -0.14381371 0.2456678 -0.1861454 -0.2504502
-0.12932687 -0.85208 0.08813453 -1.1989478 0.08980298 -0.053313714 -0.012649749 0.18424779
-0.42831734 -1.142017 -0.11049846 -0.6729615 0.11857906 0.20128445 -0.3267201 0.10750156
-0.16715768 0.092234656 -0.0732333 0.25595668 -0.032347485 -0.080390915 -0.61556756 -0.08886749
-0.19872122 -0.033859976 0.1660874 -0.1501139 0.24821295 -0.11602654 -0.60330236 -0.095980324
00000000: 40c6 a9be f491 823e a48e 1f3e 1091 82be
00000010: ba80 ddbd f45c a23d 8a5f 353d 322c 02bf
00000020: bd5c 36bf dec3 863e 7dd0 39bf a13a 60be
00000030: 6510 7a3e c866 04bc 9ec2 a53c 2add 93be
00000040: 651c db3e ed27 e43e 4f7d 6bbe 6875 753e
00000050: 4cc3 a43e b48b 8fbb b6e6 183d ada8 a3be
00000060: ceae c63a c1d3 43be f0b0 9f3d c76b da3e
00000070: 851d 31bd 5684 a23d 191a c9bc 8e1a aa3e
00000080: e43d debe c1f3 3cbe 3ffb 943e 7114 d3be
00000090: a6cd bd3e 0e0a 0dbd 1706 17be 4123 41be
000000a0: 7a50 44bb 050d b8be c8eb 17bf ce66 7fbd
000000b0: 0b59 afbd f56d 9abd 4934 48be ac4c 6fbd
000000c0: 1ced 733e b24a 1e3e 64b5 8b3d 8bc3 9d3e
000000d0: a62b 933e 2200 5abd a142 acbe 112b 74bd
000000e0: f2dc 123e 0382 1e3c 9489 01be 4d5e 623d
000000f0: ddbc 403e a329 833d a393 5ebe 8e26 37bd
00000100: 5f70 91be 7d1d 98be 11bc 363e fec5 5ebd
00000110: f542 183d 7962 f3be c829 4fbe c69a 9b3d
00000120: 079f 77be d654 aa3d d8ea 3bbf d75a 9cbd
00000130: 9baf 323e c4e3 98bc 7b08 103e 5e45 123d
00000140: 02c0 113f 0093 113e c80a dfbb ff98 b2be
00000150: d3d7 cb3e 8299 12bf 3650 9bbe ebe2 e2bd
00000160: 202f a8be 0fc8 b3bd 4327 3c3e 0d60 9b3d
00000170: c409 063f 8b2a 91bc b818 a83e ed26 24bb
00000180: 54ff 67be c634 6bbd b11c 8dbe c1d7 8bbe
00000190: 13ec 893b 5f92 04bf 2895 4bbe e0a0 823e
000001a0: 3798 13be 0507 cebf b64c 93bf 9a7d 033e
000001b0: 0e76 9b3d 7366 6abd a3c0 22bc 2831 8f3e
000001c0: e464 ee3e 609d 8a3e f7c8 83bd 5784 15be
000001d0: a1e2 f73e 9e99 2fbf 2ce9 78be 783f a2be
000001e0: 4db7 823e f92b 4b3e 6ecb 013e 1e1a f3bc
000001f0: 2963 65be ce6f 523d 76f0 5f3d 876f 6b3e
00000200: 2322 0abf 1c9b 38bd d6ce 033f 08aa 903e
00000210: fdd9 b2be 1d44 83be b875 5abe 9392 56bf
00000220: ae9d 2bbf 6b05 12bf 2be4 58bf 6471 023d
00000230: f08a 91be fbb6 4d3e 0624 15bd 6e66 d4bd
00000240: 0b20 8f3e 1bf9 e33e 5098 ce3d 127b 813e
00000250: b20c 133e 97bf 2f3d c47c 4ebe 4e95 043e
00000260: 4ffc 0bbe eb7a 44bc bf67 c6bd c07b 8cbe
00000270: 5e6c ce3e bb82 a03d 5674 03bf db1d 963e
00000280: 34f2 13bf 34c9 173d c25a bf3e bc21 90be
00000290: cb15 9dbe 02a4 bfbb 6f48 c1be 9cda c63d
000002a0: 3afa 05bf f692 0fbe 4b0d 41be 523b 6fbd
000002b0: fc67 2e3e 79c0 83be 109a 9dbd b745 2cbd
000002c0: 2cde 4c3e 60dc b3be 077a 3fbe 36d8 87be
000002d0: 2464 fe3e bef3 93be b206 263d ea5f 5dbe
000002e0: 975c a2be e5a3 a0be e512 8dbe 862a 4d3f
000002f0: 4cf5 25bd 7536 0f3e fa3f 653e ab7b 7c3e
00000300: e2d2 d03e 3336 bdbf 5db4 b3bc c550 fabb
00000310: abbe 6bbe af10 56be fc59 6c3c e41d e73e
00000320: ed2a 0abf da8e 15c0 2e40 a3bf f160 213e
00000330: b635 c03d 6d56 65be fe38 a2be f6fb cdbe
00000340: 0f94 743e 2f8e e23d 35c6 4a3e ded9 813e
00000350: 9a1c 6a3d 6699 6f3e f9c4 d5be 41c6 803e
00000360: bf93 b2bd 27fe 29be d30e 8ebd 1777 ba3c
00000370: e743 13be 5790 7b3e e69c 3ebe 023b 80be
00000380: 436e 04be ea21 5abf e07f b43d 1f77 99bf
00000390: a0ea b73d 7b5f 5abd e540 4fbc 74ab 3c3e
000003a0: 694c dbbe 9d2d 92bf 044d e2bd 3447 2cbf
000003b0: 94d9 f23d 831d 4e3e db47 a7be c729 dc3d
000003c0: 622b 2bbe 86e5 bc3d 57fb 95bd c10c 833e
000003d0: cc7e 04bd fea3 a4bd d695 1dbf 2900 b6bd
000003e0: 937d 4bbe c2b0 0abd d112 2a3e 75b7 19be
000003f0: 892b 7e3e 539f edbd 0672 1abf 5591 c4bd

Actor.log_std_fc3.bias f4 [17]
0.40369743 -0.09601029 0.39769536 0.044035457 0.22291902 0.2583322 -0.13544454 0.12147006
-0.07471222 0.06707835 -0.07978319 0.25719437 -0.11096582 -0.11177807 0.11013204 -0.03248385
0.3149871
00000000: 6eb1 ce3e 0ba1 c4bd ba9e cb3e 865e 343d
00000010: e244 643e 1e44 843e f9b1 0abe 4bc5 f83d
00000020: b802 99bd 6060 893d 5e65 a3bd fbae 833e
00000030: 0c42 e3bd e7eb e4bd e88c e13d c90d 05bd
00000040: fd45 a13e

Critic.fc1.weight f4 [32, 378]
-0.014765828 -0.10290345 0.45112044 0.37459546 -0.13016297 0.7730156 0.042894974 -0.13308959
-0.3966976 0.162474 0.07945668 -0.4223382 -0.1830058 -0.18406016 -0.46834067 0.21831879
-0.20184292 -0.27980125 0.088176735 0.3521949 0.09895211 0.33072096 -0.076489225 -0.17868684
-0.10233165 -0.19468014 -0.26354825 0.059000596 0.21778475 -0.05212855 -0.032115087 -0.2887111
0.04388114 -0.03157262 -0.0712601 -0.088595055 -0.07592519 -0.08736837 0.1468113 0.11179961
-0.037257224 0.0961738 0.19098257 -0.03487792 0.12880725 0.059130732 -0.112451226 -0.04610411
0.0009619715 -0.04968612 -0.037496123 0.050862145 0.02656498 0.019419292 -0.014316111 -0.01670179
-0.048965782 0.44740668 0.48075193 0.21944359 -0.18345205 0.08960049 -0.101269156 -0.08867292
0.11110215 0.4404218 0.4779403 0.617444 0.4830416 0.38297746 0.007909611 0.48405918
-0.06271066 -0.34847164 0.07982901 0.5238864 0.48554713 0.39779148 0.67723775 0.6094049
-0.11314782 0.21473671 0.22528502 -0.6626658 -0.0660933 0.10816789 0.46774197 0.38555488
0.4185179 0.4582553 -0.054237492 0.062141668 -0.45027572 0.0015359416 -0.501948 -0.41899332
0.4437692 0.6221257 0.54613274 0.70238554 0.8349766 0.46208277 -0.5559819 0.4242242
-0.5354217 -0.47113973 0.3923797 0.628527 0.5800345 0.70976657 0.54029226 0.047036376
-0.6407212 0.020042237 -0.57547903 -0.5998538 0.42027614 0.3003197 0.33636928 0.30166292
0.07334832 0.16358152 0.2548112 0.069289796 0.32937393 -0.39420682 0.41158155 0.39242756
0.4163373 0.24426307 -0.0043427832 0.058286194 0.37511843 0.0218796 0.3410167 -0.41204116
0.43229014 0.41811323 0.4272268 0.22792047 0.13197759 -0.14174916 0.39506105 -0.17013562
0.3773256 -0.4626219 0.4107581 0.42203793 0.39471942 0.2869632 0.4251753 -0.4782636
0.31723773 0.56223786 -0.3864828 0.4167179 0.438446 0.33576822 0.39200994 0.2557859
0.21146819 -0.3133117 0.27412415 0.38675833 -0.35677028 0.42587665 0.43892288 0.4725878
0.42887923 0.6452007 -0.85628724 -0.52188873 -0.51285946 0.6350145 0.5807249 0.40675333
0.4374004 0.45265302 0.3392281 0.5788054 -0.57377094 -0.33616292 -0.49241662 0.41727123
0.66884476 0.39142346 0.48600978 -0.026826406 -0.015303822 -0.019577231 0.010224302 -0.020488521
0.049211793 0.058643676 0.27189943 -0.04449504 -0.3172705 -0.09889384 -0.29439896 -0.085898936
-0.41377255 -0.020806769 0.15352565 -0.2340019 -0.25779444 0.08534489 -0.36084235 -0.041054867
0.16515858 -0.30303589 -0.26529357 -0.17569011 -0.19398317 0.07331592 -0.02041786 -0.29893497
-0.30308506 -0.03269347 -0.097388774 0.060081128 0.020334443 -0.038561944 -0.27227247 -0.11048132
-0.08808073 -0.03238673 0.031163659 -0.045369845 -0.25459576 0.11035326 -0.20105068 -0.13091625
0.06614488 -0.32267344 -0.24053456 0.034878954 -0.038869265 -0.08690171 0.042813737 -0.05083121
-0.13447359 0.08930651 -0.048743848 -0.10124701 0.0955783 -0.06925981 -0.21049604 0.13130575
0.19885115 0.20776641 -0.23308045 0.11575256 -0.2001065 0.15570979 0.090010636 0.13333018
00000000: 5fec 71bc 0bbf d2bd 42f9 e63e faca bf3e
00000010: 7149 05be 5ae4 453f a4b2 2f3d a348 08be
00000020: f31b cbbe 965f 263e 2fba a23d b63c d8be
00000030: df65 3bbe 447a 3cbe 59ca efbe f68e 5f3e
00000040: e9af 4ebe 1c42 8fbe 0196 b43d e452 b43e
00000050: 67a7 ca3d 4254 a93e 62a6 9cbd aff9 36be
00000060: 4293 d1bd 3b5a 47be ccef 86be 9caa 713d
00000070: f702 5f3e bf84 55bd 1c8b 03bd f1d1 93be
00000080: b6bc 333d 4b52 01bd d1f0 91bd 5371 b5bd
00000090: aa7e 9bbd 30ee b2bd b455 163e 32f7 e43d
000000a0: 089b 18bd c5f6 c43d ef90 433e 26dc 0ebd
000000b0: 0ce6 033e 1133 723d d44c e6bd aad7 3cbd
000000c0: d12c 7c3a ac83 4bbd 8995 19bd d354 503d
000000d0: cd9e d93c 3515 9f3c 1f8e 6abc 31d2 88bc
000000e0: 5890 48bd 7d12 e53e 1e25 f63e d2b5 603e
000000f0: dbda 3bbe 7680 b73d 3466 cfbd 269a b5bd
00000100: 8689 e33d f77e e13e 97b4 f43e cf10 1e3f
00000110: 3b51 f73e 9f15 c43e 5097 013c 9bd6 f73e
00000120: 726e 80bd e06a b2be 647d a33d 6b1d 063f
00000130: a299 f83e 53ab cb3e 745f 2d3f f601 1c3f
00000140: 0bba e7bd f1e3 5b3e 1eb1 663e 77a4 29bf
00000150: ed5b 87bd 2087 dd3d e07b ef3e 7367 c53e
00000160: fa47 d63e 70a0 ea3e 2228 5ebd 4388 7e3d
00000170: 8a8a e6be a651 c93a aa7f 00bf 4b86 d6be
00000180: b735 e33e a143 1f3f 5bcf 0b3f 8acf 333f
00000190: 07c1 553f 1d96 ec3e d454 0ebf ea33 d93e
000001a0: 6611 09bf 3a39 f1be fee5 c83e 25e7 203f
000001b0: 247d 143f 43b3 353f 9850 0a3f 37a9 403d
000001c0: 4e06 24bf 9e2f a43c 9852 13bf 0590 19bf
000001d0: 6f2e d73e 81c3 993e 9838 ac3e 9073 9a3e
000001e0: a537 963d ea81 273e 9d76 823e cfe7 8d3d
000001f0: b3a3 a83e 7ad5 c9be d1ba d23e 44ec c83e
00000200: 2a2a d53e 1920 7a3e e84d 8ebb 81bd 6e3d
00000210: 860f c03e d93c b33c be99 ae3e 0ff7 d2be
00000220: 2255 dd3e f012 d63e 79bd da3e fc63 693e
00000230: 2225 073e b126 11be 7145 ca3e 0838 2ebe
00000240: d230 c13e c7dc ecbe e34e d23e 5b15 d83e
00000250: aa18 ca3e d7ec 923e 94b0 d93e f7de f4be
00000260: fc6c a23e d2ee 0f3f 13e1 c5be 0c5c d53e
00000270: fe7b e03e d0e9 ab3e 87b5 c83e 5ff6 823e
00000280: 1e8b 583e 646a a0be 005a 8c3e 3005 c63e
00000290: 98aa b6be 810c da3e 80ba e03e 07f7 f13e
000002a0: 0f96 db3e e02b 253f a435 5bbf 809a 05bf
000002b0: c24a 03bf 4f90 223f 63aa 143f f941 d03e
000002c0: f2f2 df3e 23c2 e73e 4eaf ad3e 972c 143f
000002d0: a7e2 12bf 8c1d acbe 081e fcbe 93a4 d53e
000002e0: 6939 2b3f a868 c83e 46d6 f83e 0dc3 dbbc
000002f0: e2bc 7abc 6e60 a0bc d583 273c 8bd7 a7bc
00000300: 4e92 493d 5a34 703d 6736 8b3e 6e40 36bd
00000310: 4771 a2be db88 cabd 76bb 96be c8eb afbd
00000320: ffd9 d3be f572 aabc d435 1d3e 329e 6fbe
00000330: a2fd 83be 4dc9 ae3d 54c0 b8be 2629 28bd
00000340: 551f 293e 8527 9bbe 8fd4 87be 1ce8 33be
00000350: 86a3 46be a826 963d 5b43 a7bc 010e 99be
00000360: f72d 9bbe 97e9 05bd c473 c7bd a117 763d
00000370: 6b94 a63c 21f3 1dbd 4c67 8bbe 0844 e2bd
00000380: ab63 b4bd f3a7 04bd ee4a ff3c bbd5 39bd
00000390: 605a 82be e400 e23d 3be0 4dbe e90e 06be
000003a0: f876 873d 7435 a5be b14e 76be 3cdd 0e3d
000003b0: 6135 1fbd 86f9 b1bd 755d 2f3d 6334 50bd
000003c0: 72b3 09be 55e6 b63d a1a7 47bd 985a cfbd
000003d0: 8ebe c33d 16d8 8dbd 468c 57be 0475 063e
000003e0: a39f 4b3e b8c0 543e a4ac 6ebe ae0f ed3d
000003f0: b8e8 4cbe 6372 1f3e 7f57 b83d b587 083e

Critic.fc1.bias f4 [32]
0.46278778 -0.1913697 -0.13278507 -0.13334566 0.37357128 0.033284385 -0.120570764 0.54390407
0.31867492 -0.2147848 0.1491806 -0.047034815 0.15286513 -0.04865102 0.09542729 -0.20647684
-0.2147182 -0.04224624 -0.15790236 -0.3113108 -0.21131365 -0.0016528798 -0.017132621 -0.19831043
0.37269422 0.7359314 -0.20498107 -0.071456894 0.27373585 -0.11062088 0.072906256 -0.27045813
00000000: 85f2 ec3e 6bf6 43be cff8 07be c48b 08be
00000010: bc44 bf3e 3555 083d ceed f6bd 4c3d 0b3f
00000020: 5c29 a33e 8cf0 5bbe cdc2 183e 94a7 40bd
00000030: ad88 1c3e 4b46 47bd 626f c33d aa6e 53be
00000040: 16df 5bbe 650a 2dbd 28b1 21be 2164 9fbe
00000050: 9b62 58be 71a5 d8ba b659 8cbc e411 4bbe
00000060: c7d1 be3e 0066 3c3f 8fe6 51be fe57 92bd
00000070: 1b27 8c3e 338d e2bd e04f 953d 7d79 8abe

Critic.fc2.weight f4 [32, 32]
-0.020584036 0.022361267 -0.14540906 0.06495302 0.057780392 0.05165569 0.074083224 -0.013297966
-0.18153054 0.04912771 -0.102867335 0.13131265 -0.14765136 -0.17088948 -0.10625613 0.0024165951
-0.11841479 -0.05374703 0.090053104 -0.06893212 0.07060943 -0.052711405 -0.15729012 0.19373739
-0.045567304 -0.12683177 0.058829598 -0.24955164 -0.054318592 0.017771244 -0.0057633775 -0.090625025
-0.08780735 0.13240959 -0.034872975 -0.054151114 0.06391951 0.0028081785 0.095673844 -0.24354947
-0.0055575976 -0.045109376 -0.12470258 -0.17906654 0.035191245 -0.028232196 0.05841402 0.048842125
0.021328527 0.055541165 -0.039267886 -0.055727825 -0.06593148 -0.042843036 0.14493412 -0.076943725
-0.12161455 -0.08467192 -0.014313035 0.14743811 0.081309766 0.0011606608 0.01332712 -0.14313439
-0.23413178 0.07923097 0.060146436 0.05946376 -0.21898691 0.017284863 -0.039861456 -0.19141625
-0.100141056 0.07395317 -0.15434882 -0.11926349 0.094740294 -0.09518991 0.037893843 -0.16497283
-0.2209453 -0.047877315 -0.07460799 -0.12120589 -0.1365684 0.030726226 0.045379948 -0.007376938
-0.008443304 0.008394462 -0.20884217 -0.1510163 -0.23715955 -0.08907811 0.005195154 -0.21528476
0.09043686 -0.114108555 0.12603328 0.08794875 -0.073905095 -0.011696465 -0.09182189 -0.0149239665
0.21591431 -0.1268415 0.068312116 0.112367935 -0.05465889 0.034879126 0.015290613 -0.32068744
0.013714785 0.08711505 0.007699554 0.13687144 -0.07560704 0.022176005 0.075083874 -0.12680404
0.09526893 0.11369439 0.09795741 -0.15163878 -0.025432365 -0.037855748 -0.035280112 -0.07768329
-0.10406001 -0.12091587 0.031141508 0.070013344 0.01460786 -0.16872382 0.104389794 -0.13950735
-0.29250816 0.097574756 -0.19087373 0.02206493 0.0661489 -0.0021983664 -0.21026748 0.01747394
-0.29539686 0.03507789 -0.025999319 0.011046102 0.12958106 -0.14259572 -0.19614936 0.1052537
-0.011669277 -0.01059609 0.12874082 -0.123616934 -0.23749553 -0.07899947 0.10523177 -0.19841793
-0.06929082 -0.023708142 0.18728465 -0.09882899 0.028277319 -0.059370764 -0.12761346 -0.12816204
0.07342523 -0.052998334 0.037090648 -0.06700749 -0.17393129 -0.015694845 0.07330362 -0.1120451
-0.1320334 0.104901426 0.061284527 -0.048090085 -0.07622126 -0.21649425 -0.19554405 0.20595719
0.034319278 -0.24731621 -0.062351797 -0.12257183 0.00648442 -0.23998658 -0.08513931 -0.18877754
-0.39936173 -0.019031057 -0.048283387 -0.34120244 -0.4682091 0.2083894 0.16336492 -0.29027417
-0.16277015 -0.2468151 -0.43621162 0.15365833 -0.17103405 -0.37385342 0.13896352 -0.07122739
0.25397196 -0.15872805 -0.042837255 0.2993423 -0.1369818 -0.15575846 -0.26892564 -0.08408777
-0.20268938 -0.25834256 -0.04262983 -0.056467384 -0.13524228 -0.05813317 -0.29987666 0.025930542
0.0497468 -0.07119487 0.020571891 -0.088625394 0.097062565 0.095537916 -0.024444235 0.14694047
0.029646348 -0.13701683 0.032712303 0.0012273792 0.101863556 0.1769571 0.06772781 0.013613003
-0.07140391 0.11400104 0.06041046 -0.15379462 -0.09286877 0.039183117 0.0064751524 0.04940023
0.10966791 0.0572791 -0.06995249 0.093312345 0.02502904 0.033165656 0.02969559 -0.025917085
00000000: da9f a8bc fa2e b73c 1de6 14be 1706 853d
00000010: 22ab 6c3d eb94 533d f2b8 973d b6df 59bc
00000020: 24e3 39be 233a 493d 1cac d2bd d376 063e
00000030: eb31 17be a7fd 2ebe d09c d9bd bd5f 1e3b
00000040: 7483 f2bd d925 5cbd c36d b83d 492c 8dbd
00000050: ad9b 903d eae7 57bd a910 21be 1863 463e
00000060: c8a4 3abd 30e0 01be 4ef7 703d 778a 7fbe
00000070: 2c7d 5ebd 0095 913c b7da bcbb 9d99 b9bd
00000080: 57d4 b3bd 6196 073e f7d6 0ebd 8fcd 5dbd
00000090: 3be8 823d 6b09 383b a6f0 c33d 0865 79be
000000a0: 821c b6bb 9cc4 38bd 1164 ffbd 385d 37be
000000b0: b224 103d 3547 e7bc 8a43 6f3d ae0e 483d
000000c0: 2ab9 ae3c 227f 633d 5dd7 20bd dc42 64bd
000000d0: 1507 87bd 2e7c 2fbd 9c69 143e ac94 9dbd
000000e0: 0d11 f9bd 7968 adbd 3881 6abc 04fa 163e
000000f0: bc85 a63d 5021 983a fe59 5a3c d291 12be
00000100: 3ec0 6fbe d943 a23d 1c5c 763d 4690 733d
00000110: 1b3e 60be fc98 8d3c c445 23bd 9f02 44be
00000120: c116 cdbd c274 973d 9e0d 1ebe 6b40 f4bd
00000130: 3307 c23d edf2 c2bd 9336 1b3d a3ee 28be
00000140: 7c3f 62be 011b 44bd 13cc 98bd cb3a f8bd
00000150: 96d8 0bbe 91b5 fb3c 53e0 393d 3eba f1bb
00000160: c955 0abc ed88 093c b9da 55be 04a4 1abe
00000170: f4d9 72be 966e b6bd 1c3c aa3b 9c73 5cbe
00000180: f636 b93d bfb1 e9bd de0e 013e 791e b43d
00000190: 8e5b 97bd 88a2 3fbc 1d0d bcbd a783 74bc
000001a0: a418 5d3e bde2 01be 39e7 8b3d 2921 e63d
000001b0: 00e2 5fbd 6add 0e3d 7b85 7a3c 2531 a4be
000001c0: fab3 603c 6069 b23d 8a4c fc3b 0728 0c3e
000001d0: ddd7 9abd 74aa b53c 93c5 993d ebd8 01be
000001e0: 5b1c c33d 9bd8 e83d e59d c83d 3247 1bbe
000001f0: 8957 d0bc a10e 1bbd e181 10bd 6b18 9fbd
00000200: 6a1d d5bd bda2 f7bd 7a1c ff3c 2863 8f3d
00000210: ce55 6f3c f0c5 2cbe 51ca d53d 04db 0ebe
00000220: a1c3 95be 46d5 c73d 6774 43be 83c1 b43c
00000230: 1379 873d 7812 10bb 5c50 57be 8225 8f3c
00000240: 423e 97be d5ad 0f3d 86fc d4bc b6fa 343c
00000250: e6b0 043e 9d04 12be 61db 48be 408f d73d
00000260: 7f30 3fbc 399b 2dbc a2d4 033e e02a fdbd
00000270: 0732 73be 79ca a1bd c183 d73d 122e 4bbe
00000280: 58e8 8dbd 9437 c2bc 8cc7 3f3e da66 cabd
00000290: d6a5 e73c c22e 73bd 1aad 02be e93c 03be
000002a0: f85f 963d c814 59bd 5dec 173d 393b 89bd
000002b0: 0b1b 32be 7a92 80bc 3520 963d e777 e5bd
000002c0: c333 07be 8fd6 d63d 7c05 7b3d 1cfa 44bd
000002d0: e419 9cbd abb0 5dbe b33c 48be 71e6 523e
000002e0: 5f92 0c3d 7640 7dbe 9964 7fbd f106 fbbd
000002f0: 427b d43b 0bbf 75be 855d aebd e64e 41be
00000300: 2479 ccbe 05e7 9bbc cdc4 45bd 16b2 aebe
00000310: 1ab9 efbe 0864 553e 2249 273e d19e 94be
00000320: 38ad 26be 19bd 7cbe 2157 dfbe 9c58 1d3e
00000330: 8d23 2fbe b769 bfbe 744c 0e3e aadf 91bd
00000340: 9d08 823e 9b89 22be 1e76 2fbd 6543 993e
00000350: f544 0cbe 257f 1fbe 9fb0 89be 3536 acbd
00000360: ce8d 4fbe 7a45 84be 9e9c 2ebd 584a 67bd
00000370: f47c 0abe 0c1d 6ebd 6f89 99be 4a6c d43c
00000380: 4dc3 4b3d 9ece 91bd 6286 a83c 3b81 b5bd
00000390: bdc8 c63d 62a9 c33d 473f c8bc 9077 163e
000003a0: e6dc f23c 244e 0cbe 56fd 053d 03e0 a03a
000003b0: d79d d03d 3e34 353e e1b4 8a3d 1309 5f3c
000003c0: 373c 92bd 6179 e93d f570 773d 567c 1dbe
000003d0: fb31 bebd 7a7e 203d 842d d43b e557 4a3d
000003e0: 9299 e03d 7d9d 6a3d 4043 8fbd 8b1a bf3d
000003f0: b409 cd3c b6d8 073d 2a44 f33c 1150 d4bc

Critic.fc2.bias f4 [32]
0.14104764 -0.1463042 -0.016963204 0.7815616 -0.14784339 -0.04610667 -0.080115415 1.129926
0.17980412 -0.29689878 -0.13087383 -0.08209394 0.5089784 -0.03224896 0.071486145 -0.13554372
0.072078094 -0.12906669 0.022085562 -0.16789128 -0.12061398 -0.13644391 -0.007855056 0.020740015
-0.12879302 -0.34494594 0.23028319 -0.14327376 0.49619845 -0.14924312 -0.2660992 0.057636473
00000000: cb6e 103e c5d0 15be 6bf6 8abc 6c14 483f
00000010: 4264 17be 59da 3cbd 8d13 a4bd 6aa1 903f
00000020: 921e 383e 1e03 98be ca03 06be de20 a8bd
00000030: 694c 023f 7c17 04bd 5467 923d f9cb 0abe
00000040: ae9d 933d 0f2a 04be c8ec b43c b1eb 2bbe
00000050: 7604 f7bd f4b7 0bbe 7eb2 00bc f7e6 a93c
00000060: 51e2 03be c19c b0be 5bcf 6b3e 5bb6 12be
00000070: b90d fe3e 30d3 18be 283e 88be 3914 6c3d

Critic.fc3.weight f4 [1, 32]
0.009101904 -0.00422554 -0.0059903674 0.018130697 -0.058990456 -0.003715594 0.2235958 0.029937109
0.0013911861 -0.07051899 -0.026266783 0.021379363 0.025691086 -0.00088223506 0.018429076 0.044488158
0.0008351153 -0.041643947 -0.0015269734 -0.0145882685 -0.07115339 -0.030926744 -0.10284329 -0.0102650095
-0.001290206 -0.11060723 0.00869605 -0.0030173361 0.00020569885 0.008090736 0.003798698 -0.08840001
00000000: 2720 153c 6676 8abb d84a c4bb d486 943c
00000010: fa9f 71bd 5381 73bb 4cf6 643e ab3e f53c
00000020: 7658 b63a 436c 90bd 702d d7bc c623 af3c
00000030: 1d76 d23c cb45 67ba 93f8 963c 3739 363d
00000040: a4eb 5a3a d892 2abd ba24 c8ba a203 6fbc
00000050: deb8 91bd 155a fdbc 819f d2bd 922e 28bc
00000060: 211c a9ba 0b86 e2bd e179 0e3c 80be 45bb
00000070: ddb0 5739 028f 043c 94f3 783b 100b b5bd
