model_0.pt (torch, 114732 bytes, 13 tensors)

Actor.fc1.weight f4 [32, 378]
000000 3a 97 b7 bc ab 53 ed bc 0e 5a 29 3c bc 0d 1f 3d
       -0.022410978 -0.02897056 0.010336412 0.038831457
000010 78 68 f7 bc 6a dc 2e 3d be a6 2e 3d c9 34 07 3b
       -0.030201182 0.042690672 0.042639486 0.0020630828
000020 ad d9 07 3d a5 b7 1c bc 16 65 ea bc bb 6f 51 3d
       0.033166576 -0.009565269 -0.028612655 0.051131945
000030 32 6e 9c bc 61 90 fc 3b 99 85 ee bc ae 71 0f 3d
       -0.019095514 0.007707641 -0.029116439 0.035020523
000040 68 f8 23 bd 8a e9 31 bd d4 13 67 b9 a7 0e 0d 3d
       -0.04003182 -0.04343561 -0.00022037263 0.0344378
000050 04 47 43 bd d8 d9 0d 3c f4 a8 4f 3d 8b 24 0f 3c
       -0.047675148 0.008657895 0.050698236 0.00873674
000060 e6 0f c1 bc f3 9f e1 bb 3c f7 da bc 2d 60 05 3d
       -0.023567151 -0.0068855225 -0.026729219 0.032562423
000070 25 d1 32 3d 4d d6 10 bb e4 52 5f 3c 2e a1 d2 bc
       0.043656487 -0.002210039 0.0136306025 -0.025711622
000080 47 d5 0a 3b 2d a0 18 3d b0 cb f1 36 80 4b 04 3d
       0.0021184252 0.03726213 7.206072e-06 0.032298565
000090 4f 2e 95 3c 4f ac 28 bd 7a 68 f5 3c 63 4d 6b 3b
       0.018210558 -0.04117995 0.029957045 0.003590428
0000a0 ae a2 46 3d 21 84 1e bc 49 8d 1a bd cc 6d 74 bc
       0.048494987 -0.009675057 -0.037732396 -0.014918756
0000b0 f0 fa 40 bc 2d 36 52 3c 6e 07 fd 3c d2 e6 a4 3c
       -0.011778578 0.012830299 0.030887332 0.020129595
0000c0 9f 8d 10 3a e0 21 73 3c 95 fa f1 bc f0 55 37 3d
       0.0005514267 0.014839619 -0.029538432 0.04475969
0000d0 76 ab 18 bd 38 b5 33 bd 7a e8 f7 bc 9b 1a dd 3c
       -0.037272893 -0.043873996 -0.03026222 0.026990226
0000e0 67 17 07 bd 39 c6 18 3c d9 26 ed 3c 1d 38 1c 3d
       -0.032981303 0.009324604 0.028949188 0.03813945
0000f0 b6 97 17 3b 91 b9 49 bd 06 be 81 3c 08 c0 7d 3c
       0.0023131198 -0.049249236 0.01583768 0.015487678
000100 94 8f 52 bc aa 4f cc bc b4 d9 fb 3c 78 a3 15 3d
       -0.0128516145 -0.02494033 0.030743457 0.03653285
000110 5f 8d 4d bc f8 26 96 3b 7f e0 09 bd 2f e7 0a 3d
       -0.0125459125 0.004582282 -0.03366136 0.03391188
000120 cb 02 06 bd e8 c8 29 3a a8 a1 93 bc 13 1b ff 3c
       -0.032717507 0.0006476776 -0.01802142 0.03114084
000130 08 54 2d bd 86 6a 42 bd 8e 32 97 bc 2f 47 b7 3c
       -0.042316467 -0.04746487 -0.018456724 0.02237281
000140 b2 f7 1f 3d 36 d9 d8 3c 38 f5 60 3c a1 95 aa bc
       0.03905458 0.026470762 0.01373034 -0.020823302
000150 50 79 b5 bc 57 a9 38 3d 50 df cc 3c 4a 5b af 3c
       -0.022152573 0.04508337 0.025008827 0.021405835
000160 b4 47 a7 3c 94 8c c1 bc 2b c1 ff bc 5b 81 2c 3c
       0.020419933 -0.023626603 -0.03122004 0.010528888
000170 50 34 cc bc 18 15 3b bd 4f b6 32 3d 05 3d 37 3d
       -0.024927288 -0.045674413 0.043630894 0.044735927
000180 5d 56 2b bd 2f fc 0d bd 13 d1 1d bd 5b ae 1c 3c
       -0.04183041 -0.03466433 -0.038529467 0.009563054
000190 36 d2 0f bc ce 9c 1f 3c 16 4a ed bc 38 b4 d9 3c
       -0.008778146 0.009741975 -0.028965991 0.026575193
0001a0 28 6c 11 3d 41 cd fe bc 54 4b fe 3c 40 99 e2 bb
       0.035503536 -0.031103732 0.031041779 -0.0069152415
0001b0 c2 64 09 bd bc 4b 19 3d 79 24 cd bc 99 5a ed bc
       -0.033543356 0.03742574 -0.025041806 -0.028973864
0001c0 fb 53 4a 3d d4 b4 f3 3c 43 c6 09 3d d8 62 32 3d
       0.049396496 0.029749312 0.033636343 0.043551296
0001d0 8f 69 95 bc 5e fd 27 3d 21 7b 04 bb 5f 08 53 bc
       -0.01823881 0.041013114 -0.0020214992 -0.012880414
0001e0 04 f4 10 bd 2e 92 54 3c d4 c8 e9 3c 22 8e 07 3d
       -0.03538896 0.012974305 0.028538145 0.033094533
0001f0 ab 5d 84 bb 95 61 22 3d b1 4e 80 bc 4f 2c 53 3b
       -0.0040394864 0.039643843 -0.015662523 0.0032222455
000200 b6 88 41 bd 2d 3b ca bc 0e 67 02 bb 69 5d 81 3b
       -0.04724952 -0.02468642 -0.001989785 0.003947903
000210 42 c4 43 3d aa 3f dd bc c5 7c a0 3b 1d 1b 94 bc
       0.047794588 -0.027007896 0.004897686 -0.018079335
000220 37 3a 0c bd 6a fe 49 bc 2f ef a6 3c 45 31 63 3c
       -0.034235206 -0.012328723 0.020377724 0.013866727
000230 d4 c4 21 3d 80 15 08 bd c2 aa ed bc 3d a2 dc bb
       0.03949435 -0.03322363 -0.029012088 -0.0067332075
000240 ec 09 b6 3b ea 44 ae 3c 05 e5 9f 3c aa a1 2b bc
       0.005555382 0.021273095 0.019518385 -0.010475555
000250 37 3b 4e 3d 2d e7 3f 3b 82 16 43 bc da 64 09 bd
       0.05034944 0.0029282079 -0.011907222 -0.033543445
000260 c3 ca bb bc 65 69 28 3d 72 dc 31 bc 88 62 0f bd
       -0.022923833 0.041116137 -0.010855781 -0.035006076
000270 0e 26 02 bd 88 a1 3e bd d6 a4 f5 3c 57 d3 c9 3c
       -0.031774573 -0.046540767 0.029985826 0.024636908
000280 50 b4 31 bb eb 14 30 bc 02 1e 74 bc b0 3e d1 bc
       -0.0027115531 -0.010747175 -0.014899733 -0.025542587
000290 4a c0 3f bd 79 1c 25 3d 9c de 2e 3a 05 b4 1d 3a
       -0.04681424 0.040310357 0.00066707446 0.00060158997
0002a0 18 9b 70 3a 46 8f 0c 3d bd 32 5e 3c 44 46 ae bc
       0.0009178384 0.034316324 0.013561902 -0.02127374
0002b0 73 78 f6 3c a2 cf f2 3c aa 9d ba bc 5e be 98 bc
       0.030086732 0.029640023 -0.022780258 -0.018645462
0002c0 62 89 2b 3d 07 f6 0c bd 37 5c c5 3b 82 9a 93 3c
       0.041879065 -0.034414317 0.0060229558 0.018018011
0002d0 54 28 39 3d d1 06 bf bc c2 60 22 bd ac 4e d8 bb
       0.045204476 -0.02331868 -0.039643057 -0.0066011753
0002e0 d9 e5 16 3c 13 58 0b bc ca b5 1b 3d 0e 84 bd 3c
       0.009210073 -0.008504885 0.038015164 0.023134258
0002f0 1f 5c 1a 3d 8d ea 3c 3d 1b 20 3a bd d1 da 2c bd
       0.03768551 0.046122123 -0.045440774 -0.042200867
000300 3f 0c cd bc 5c b7 cf 3c b6 73 62 bc 40 06 9a 3b
       -0.025030253 0.025355987 -0.013821533 0.004700452
000310 69 79 b2 3c 59 8c 9c bb 75 2b ca bc 86 3e 06 bd
       0.021786408 -0.004777473 -0.024678925 -0.03277447
000320 3b e3 04 bd e4 34 25 bd 5e b6 b5 bc a0 b3 5f bc
       -0.032443266 -0.040333644 -0.022181686 -0.013653666
000330 1b e2 64 bc ca d9 0e 3d c8 23 14 3d e3 f2 9e 3b
       -0.013969923 0.03487567 0.036166936 0.0048507317
000340 18 e2 33 bd a9 95 2d bc d9 61 c7 3c 4e df 1d 3c
       -0.04391679 -0.010594764 0.02433865 0.0096357595
000350 52 0b 66 3c 3c a8 19 bd 8f d3 54 bb a3 77 99 bc
       0.014040785 -0.037513956 -0.0032474732 -0.018733805
000360 23 42 ff bc eb 96 1f 3d 0c 61 21 3d 00 88 2c 3d
       -0.031159466 0.038962286 0.03939919 0.042121887
000370 40 34 97 bc 42 e6 9f 3c a9 4e 43 3d f1 e3 0a bb
       -0.018457532 0.019518975 0.047682438 -0.0021192993
000380 f0 d9 4c 3d 89 c2 f6 bc f2 93 87 3c f0 bc 93 3b
       0.05001253 -0.030122058 0.016550038 0.004508607
000390 46 84 0d 3d 94 50 7a bc c7 0b c5 3c 5b 00 a4 bc
       0.034549974 -0.015278 0.024053467 -0.0200197
0003a0 6a b1 00 3c 56 16 36 3d cc 8e ef 3c 5e 79 01 bd
       0.007854799 0.044454895 0.029242896 -0.031609885
0003b0 82 64 3b 3c 23 cb 23 3d 6c 49 4a 3c 8c bb 12 bd
       0.011437537 0.03998865 0.012346607 -0.03582339
0003c0 45 ab 5f bc 6d dd 13 3d 20 08 25 3d 30 a6 fd 3c
       -0.013651674 0.03609984 0.04029095 0.030963033
0003d0 2e 71 93 bc 89 4e 3c 3c d0 e4 bc 3c 98 73 3e bd
       -0.017998304 0.011493334 0.023058325 -0.046496958
0003e0 d8 12 0f 3d a9 5e 49 3d 83 f3 e0 ba c2 66 4d 3d
       0.03493008 0.04916254 -0.0017162416 0.050146826
0003f0 9c 38 a3 3c c9 ce bd 3c 58 c3 07 3c 6a 80 0d bd
       0.019924454 0.023169892 0.00828632 -0.034546293

Actor.fc1.bias f4 [32]
000000 3e b4 31 3d 4d 04 fc bb 1e 99 1c bd 39 2f fe 3c
       0.043384783 -0.0076909424 -0.03823196 0.031028377
000010 59 bd e5 3c 2b a1 db bc e5 3b 21 3d bb 68 84 bc
       0.02804439 -0.02681025 0.03936376 -0.01616322
000020 22 c4 50 bd b3 17 26 3d 81 fa 69 3c 0d d2 1d bd
       -0.050968297 0.040549945 0.014280916 -0.0385304
000030 58 6d a9 3c 56 75 35 3d 9c 49 b8 bc 1c ee 25 bd
       0.020682022 0.044301353 -0.022496037 -0.040510282
000040 30 ac 69 3c 9e 4b df 3b 31 f6 d9 3c 6d 6b a9 3b
       0.014262244 0.006814434 0.026606651 0.005170277
000050 f2 b3 a0 3c 25 7a 1c bc bf bc 25 3c ba 38 31 3d
       0.019617055 -0.009550606 0.010115801 0.04326699
000060 c3 2b 71 bc 93 6e 07 3d b1 44 0f 3a 6d d1 99 3c
       -0.014719906 0.033064436 0.0005465253 0.01877662
000070 ab 25 2e 3d d1 a3 ee 3c ab be 82 bc 1c f2 7a 3c
       0.04251639 0.029130848 -0.015960058 0.015316512

Actor.fc2.weight f4 [32, 32]
000000 e7 09 3a bd 43 88 cd 3d a5 a1 1e 3c c6 6e 32 3e
       -0.0454196 0.100357555 0.009682094 0.17425069
000010 67 a1 ca bd 9e 8f c9 bd 39 37 50 3d 39 d5 08 3e
       -0.09894066 -0.09841846 0.050833914 0.13362588
000020 3f 86 7d bd 91 77 da 3d 3f de 32 be a1 c8 24 3e
       -0.061895605 0.10667337 -0.17467593 0.16092159
000030 c0 60 78 bd 72 ec a6 bd b3 29 1e 3e 85 ce a1 3d
       -0.060639143 -0.08150567 0.15445594 0.079007186
000040 d6 6c 21 3e c9 61 46 bd e0 5d 20 be 86 63 bb 3d
       0.15764174 -0.0484331 -0.1566081 0.09149842
000050 d3 7d af bd be 54 1c 3e 51 8c e4 bd 58 6e 18 be
       -0.08568921 0.15266702 -0.11159576 -0.14885843
000060 d3 db a1 3c e6 14 12 bd 04 90 f6 3d bf 0d 2f 3d
       0.01975814 -0.03566446 0.120391876 0.04273772
000070 a5 11 d8 bd f6 c1 db 3d 39 76 1e be e1 41 0e 3e
       -0.105502404 0.107303545 -0.15474786 0.13892318
000080 28 5b c6 3d 77 b9 24 be 01 44 0c 3c e5 73 e5 3d
       0.096853554 -0.16086374 0.008561135 0.11203746
000090 6b f9 2e 3e e1 07 ba 3d 45 52 0d 3d 43 33 e5 3d
       0.17087333 0.09083534 0.034502286 0.11191418
0000a0 cf a5 1f 3e ce ff 21 3e a2 9d ba 3d 30 b1 4a bd
       0.15590595 0.15820238 0.09112097 -0.049485385
0000b0 04 7f b4 bd a3 98 34 be 1e be c6 3d 31 d0 a9 3d
       -0.08813289 -0.17636351 0.09704231 0.082916625
0000c0 aa 68 14 bd 38 67 0c 3e 27 22 df 3b f4 9e 10 bd
       -0.036232628 0.1371125 0.006809491 -0.03530784
0000d0 9b 9c ea bd d8 6e af 3d 86 8a f4 bd 7b a2 9b bd
       -0.114556514 0.08566064 -0.11940484 -0.0759935
0000e0 e9 c4 ad 3d f6 da ff 3d 76 4e af 3d a1 47 01 3e
       0.08484823 0.12492935 0.08559887 0.1262498
0000f0 60 60 01 be 73 3d 23 bd 46 28 b4 3c f9 af 3d 3d
       -0.1263442 -0.039853524 0.02199186 0.0463104
000100 70 80 c7 3d dc 5d 18 be ef 0a 8f bd 4d 79 de 3d
       0.097412944 -0.14879555 -0.06984507 0.1086298
000110 9c 24 13 bd 1a 02 ba bd 84 48 0f 3e a6 59 9d bc
       -0.035923585 -0.09082432 0.13992506 -0.019207787
000120 99 9c 8e 3c 7e 5b d6 bd 69 44 27 bd f4 b3 ee 3d
       0.017408656 -0.104666695 -0.040836725 0.11655417
000130 2f ba 2b be 59 1a e3 bd 9b 35 d6 bd 39 0f 1c be
       -0.16770242 -0.1108901 -0.10459443 -0.15240182
000140 6b eb b5 bd b6 f1 32 be bc 16 c1 bd dd 23 01 3e
       -0.08882793 -0.17475018 -0.09428164 0.12611337
000150 08 73 5a 3d 75 e0 a2 bd 98 35 0d 3e 9a a8 19 3e
       0.05333236 -0.07952968 0.13789976 0.15005723
000160 82 f1 14 bd 2c 5a 2f 3d 5a a1 37 3d 34 d7 c4 bb
       -0.036363132 0.042810604 0.04483161 -0.0060070995
000170 40 33 8f bd 37 d6 2a 3d c7 51 bb 3d 26 e0 4e bc
       -0.06992197 0.041708197 0.09146457 -0.012626683
000180 a2 ca 1a be b3 23 42 bd 4b 52 e2 3d 64 8d b8 3c
       -0.15116361 -0.047397327 0.110508524 0.022528358
000190 cb 55 8c bd 78 0c 37 3d bb 88 7c bd 26 ab 1b be
       -0.06852301 0.044689626 -0.061653834 -0.15202007
0001a0 d4 53 e8 3d e0 c2 b2 3d f6 bc bd 3d 78 fe 91 bc
       0.11344114 0.08728576 0.09264557 -0.017821535
0001b0 d2 41 b4 3c bd 8e ef 3c 48 c9 44 bd f4 20 15 3e
       0.022004042 0.029242868 -0.04804352 0.14563352
0001c0 e2 1d 30 3e 23 73 99 bd e4 de 13 3d 73 0c 56 3b
       0.171989 -0.07492664 0.036101237 0.003266123
0001d0 1d 7f f1 bd 25 79 bb bd 44 d3 85 3c 94 61 08 be
       -0.11791823 -0.09153966 0.01633609 -0.13318473
0001e0 1f ca a1 bd ff ab 24 be 1c 44 06 be 29 c6 fb 3d
       -0.0789988 -0.16081236 -0.13111919 0.122936554
0001f0 19 b8 65 bc fd aa 92 3d e2 88 18 be 07 24 22 3e
       -0.014020943 0.0716152 -0.14895967 0.15834056
000200 f6 55 91 3d 29 44 c1 bc 1e 33 16 be 96 29 f3 3d
       0.07096474 -0.023592072 -0.14667937 0.11873166
000210 b7 f6 5c 3d ed 93 b5 bd cc 8e 18 3d 04 a7 87 bc
       0.053946223 -0.08866105 0.037245557 -0.016559131
000220 28 83 11 3e 33 41 f1 3d b2 f4 cd 3d cd 3e b6 bd
       0.14210188 0.11780014 0.100564376 -0.08898697
000230 75 35 0f 3e f0 a9 be 3d d8 1a 73 bd 02 a7 fc bb
       0.13985236 0.09309757 -0.059351772 -0.0077103386
000240 5f 54 87 bd ca 08 db bd d4 43 01 3c 58 e1 88 3d
       -0.066078894 -0.10695036 0.007889707 0.06683606
000250 cd c1 ce bc e0 3f 81 bd 3f 7f 9d bd 97 c7 e5 bd
       -0.025238896 -0.06311011 -0.07690286 -0.11219709
000260 2f 43 ae bd b7 14 39 3d b4 34 ef bd 86 17 1f be
       -0.08508908 0.04518577 -0.11679974 -0.15536317
000270 d5 66 32 be 5e c9 22 be 34 f2 26 3e 21 92 1b 3e
       -0.1742204 -0.15897128 0.1630333 0.15192463
000280 c9 df bb bd 40 23 43 bd 5a 23 49 3d 9e 89 34 bd
       -0.09173543 -0.04764104 0.04910598 -0.044076554
000290 49 76 1b be ca bf 08 be 45 bf 0b 3e db 7f cb 3d
       -0.15181841 -0.13354412 0.13647182 0.09936496
0002a0 8f ea 01 3e 25 3f fd bd ae b8 a4 3d 0e 3a e7 3d
       0.12687133 -0.123655595 0.08043037 0.1129037
0002b0 f7 3f ce 3d 25 5a 2c 3e e6 b6 cf 3d e3 91 03 3e
       0.10070794 0.16831262 0.10142307 0.1284862
0002c0 ca 87 26 bd 5d 71 60 3d eb 30 8a 3c e2 a6 fa 3d
       -0.040656842 0.05479561 0.016869029 0.122388616
0002d0 75 15 9f bd e1 b3 c0 3d 33 32 8f 3d fb 13 af bd
       -0.077677645 0.09409309 0.069919966 -0.08548733
0002e0 ef 6a 26 3e 55 0e e4 bd 63 42 22 3e 4d 21 e2 3d
       0.1625173 -0.11135546 0.15845637 0.11041508
0002f0 31 fb 8e 3d 14 3a 07 3e 95 58 f6 bd 5a 31 02 3e
       0.06981505 0.13205749 -0.120286144 0.12714139
000300 40 e2 f6 3c 17 cf a4 3d f4 84 f6 bd 6d 44 90 3d
       0.030137181 0.08047312 -0.120370775 0.07044301
000310 ab 00 0e 3e cc c5 09 3e 70 a6 d4 bb f5 d5 98 3d
       0.13867442 0.1345436 -0.0064895675 0.07462684
000320 95 d4 d2 3d 65 5e 2c bd 92 85 59 bc 25 69 42 bd
       0.10294453 -0.04208221 -0.013276475 -0.047463555
000330 e8 3e 22 be cf 8c f0 3d 52 d3 06 3e bd 9d e3 bd
       -0.1584431 0.11745607 0.1316655 -0.111140706
000340 55 e3 22 be 8c be 0f 3e fa 4c f1 3d 27 e9 00 3e
       -0.15907033 0.14037532 0.1178226 0.1258894
000350 12 8e 21 bd 35 92 e4 bd db 38 c7 bd ec 88 91 bd
       -0.03944213 -0.11160699 -0.09727641 -0.07106194
000360 e9 70 6b bd 11 e9 26 be 62 66 ce bd d6 73 af bd
       -0.057480726 -0.16299845 -0.10078122 -0.08567016
000370 a3 f5 f6 bd bf 82 86 3d 1f fb 42 bd 3a be d1 3d
       -0.1205857 0.065679066 -0.04760277 0.10241361
000380 d7 bd b1 bd f7 d8 63 3d e9 4e d1 bd de 3b 1b bb
       -0.08678787 0.055626836 -0.10220129 -0.0023686807
000390 0b ce 00 3c f4 23 38 3c ca 81 2d be a8 1e 32 be
       0.0078616245 0.011239041 -0.16944042 -0.17394507
0003a0 e3 a3 4e 3d 78 d4 15 3d ef 86 15 be 94 a6 fc 3d
       0.050449263 0.03657958 -0.14602254 0.1233646
0003b0 9a 2e fe 3d dc 65 1c 3c d8 da ea 3d 31 66 b1 3d
       0.12411232 0.00954577 0.114675224 0.086620696
0003c0 a0 99 87 3c ae 0c f8 3d 8f 8c de 3d 8d e1 04 3d
       0.016552746 0.121117935 0.10866653 0.032441664
0003d0 cd 29 c0 bc a3 ca 43 3d 8e ce 96 bd cb 69 ec bd
       -0.023457432 0.04780067 -0.07363616 -0.11543616
0003e0 a3 b2 4c bd df a8 23 be 38 36 ef bc 0b 64 86 3d
       -0.04997505 -0.15982388 -0.029200658 0.065620504
0003f0 00 38 b7 3d 17 d3 19 be a2 4d 27 3e ff 89 af 3b
       0.08946228 -0.1502193 0.16338208 0.0053570266

Actor.fc2.bias f4 [32]
000000 5d b4 a6 bd 46 4f a3 3d 4d 65 2e be 41 48 41 3c
       -0.0813987 0.079741046 -0.1703083 0.011797012
000010 76 b4 9c 39 01 c4 2f 3e 6b c0 8f 3d 05 49 2e be
       0.00029889093 0.17164613 0.07019123 -0.17020042
000020 4a 9d 08 be df 37 f8 3c bd 45 b8 3d be 9e aa 3d
       -0.13341251 0.030300079 0.089976765 0.08331059
000030 af 01 c4 3d 6c d2 c0 3d 73 fc 90 3d 05 ad 82 3c
       0.095706336 0.09415135 0.07079401 0.015951643
000040 c4 25 7d bd 94 40 82 3d 28 b4 bd bd 59 25 ad bd
       -0.061803594 0.063599735 -0.09262878 -0.08454389
000050 8c 07 38 bd 25 71 a4 bd a5 76 16 be f6 5f 09 bd
       -0.044929072 -0.08029393 -0.14693697 -0.03353878
000060 67 88 2e 3e 4c 97 40 bd 75 b5 04 3e 40 57 06 3e
       0.17044221 -0.047019288 0.12959845 0.1311922
000070 f0 d6 05 3e 2d 42 1b be 6e bd 92 bd a3 ba c5 3b
       0.13070273 -0.15161963 -0.07165037 0.0060342117

Actor.mean_fc3.weight f4 [17, 32]
000000 e7 1d 34 bb 84 c3 b8 b7 0f fe b3 ba 90 e6 a1 3a
       -0.0027483643 -2.2025553e-05 -0.0013732332 0.0012352038
000010 3f 43 31 3b 79 ab 31 ba 70 d2 01 bb da 80 cb ba
       0.0027048138 -0.00067775656 -0.0019809268 -0.0015526072
000020 69 fc fa 39 8c 62 bd b9 ce 87 1a 3b 86 eb a6 b9
       0.00047871776 -0.00036122312 0.002357948 -0.00031837466
000030 2f 90 c6 38 7c f1 13 bb a2 da 74 ba e3 8f 3c 3b
       9.468232e-05 -0.0022574356 -0.000934044 0.0028772287
000040 00 fe 08 38 88 ac 17 39 07 cd 91 38 83 6a 37 3b
       3.2661483e-05 0.00014464755 6.952328e-05 0.002798707
000050 bf 8d 33 3a d1 cc 8c 39 cf 3f 25 bb 4d bb 28 bb
       0.000684943 0.0002685548 -0.0025215035 -0.0025746406
000060 77 aa 1d 3b 12 94 71 39 47 6d 27 ba ce e8 1d 3b
       0.0024057904 0.00023038712 -0.0006386828 0.0024095061
000070 17 7e 4c 3a c2 b2 33 3a 51 a6 bb ba 2a 11 f5 3a
       0.0007800771 0.0006854945 -0.0014316534 0.0018697132
000080 ac 05 02 38 85 b5 9e ba 14 40 31 bb 6a ab 61 ba
       3.0999698e-05 -0.001210854 -0.002704625 -0.00086086115
000090 ab b2 28 bb 13 5e b1 3a 26 42 0a 39 e0 2c 22 b7
       -0.002574126 0.0013532065 0.00013185348 -9.666401e-06
0000a0 db 02 0f ba b6 16 db 3a da 9a 95 3a 8a 4c 84 3a
       -0.00054554426 0.0016715142 0.0011413947 0.0010093611
0000b0 1d 58 37 3b 93 a0 a4 3a 4e 2f 8f ba c3 3b 32 bb
       0.0027976104 0.0012560062 -0.0010924132 -0.0027196265
0000c0 b3 01 95 39 08 b6 fd 3a 57 b1 1d 3b 59 25 e1 ba
       0.0002842076 0.0019356618 0.0024062002 -0.0017177268
0000d0 d0 1b ec 39 fc a4 08 3b ee 05 5c ba 2d c8 a2 3a
       0.0004503415 0.0020850291 -0.00083932176 0.0012419276
0000e0 4f d5 cd 38 f8 82 3c bb 78 34 7a 3a cc b4 fe ba
       9.8148936e-05 -0.0028764587 0.00095445616 -0.0019432544
0000f0 f8 49 e2 3a f8 24 c8 3a b8 fe 86 3a 36 fc 1b bb
       0.0017264476 0.0015269807 0.0010299301 -0.0023801452
000100 b8 aa fd 3a 7c cd d0 3a 05 35 08 bb 26 5e d3 ba
       0.0019353246 0.001593038 -0.0020783555 -0.0016126081
000110 69 f4 2c bb 92 91 33 bb 49 7a 04 3b 56 0f 2a 39
       -0.0026390797 -0.00274 0.002021449 0.00016218176
000120 5e d6 ad 3a 8e 2f cb 39 e6 a8 d5 ba 0b 3c ec ba
       0.0013262739 0.00038754608 -0.0016300946 -0.0018023265
000130 9a fd 3b 3b 72 99 20 ba c2 c6 30 3b 7b 6a 37 bb
       0.0028685094 -0.0006126381 0.0026973938 -0.0027987051
000140 fc 3f ff ba 9b 75 98 3a cd 6f 1f 3b 40 28 d0 b9
       -0.0019474025 0.0011631729 0.0024328113 -0.0003970284
000150 46 77 95 ba 60 c2 06 bb 5c 75 2f bb e8 a1 ae b9
       -0.0011403344 -0.0020562634 -0.0026772832 -0.00033308496
000160 2d 75 ab 3a bc bf a9 b7 ef b7 d8 39 bf 0c 1e bb
       0.0013081186 -2.0235653e-05 0.00041335772 -0.0024116484
000170 b7 80 00 3b 24 e3 1a 3b 0d 9a 0b bb 9a 92 aa 38
       0.001960797 0.0023633922 -0.0021301538 8.133538e-05
000180 08 bf 82 ba 09 5d fb 39 9a 0f 55 3a c1 53 92 ba
       -0.0009975145 0.00047943767 0.000812763 -0.0011163877
000190 ce 3a 30 39 88 90 37 3a bf e6 d5 3a a2 60 b8 ba
       0.00016806574 0.0007002433 0.0016319378 -0.0014066885
0001a0 18 ed b3 3a 8b 0b f1 3a 02 52 0c 3b be 96 8c ba
       0.0013727276 0.0018390281 0.0021411185 -0.0010726077
0001b0 b4 89 96 b7 92 f3 e7 3a f8 f5 7b 3a 1e 91 1b bb
       -1.7945516e-05 0.0017696491 0.00096115423 -0.002373762
0001c0 33 1a 14 3b 7d c2 de 3a ad b1 82 3a 35 cf 78 38
       0.0022598624 0.0016995218 0.0009971164 5.9320784e-05
0001d0 df e1 29 bb b2 a3 8e ba ee 35 a0 3a 0f c7 29 3b
       -0.0025921983 -0.0010882525 0.0012223104 0.0025906002
0001e0 89 03 3b ba eb 1b ce ba 93 d1 31 3b a6 eb f7 ba
       -0.00071340107 -0.0015724873 0.0027132973 -0.0018914833
0001f0 73 61 22 bb 86 b6 28 3b 88 ab f7 3a c8 8b 2b bb
       -0.0024777323 0.0025743558 0.0018895725 -0.0026175845
000200 61 cc 37 3b 38 69 2a bb b6 86 18 bb aa b3 11 bb
       0.0028045403 -0.0026002657 -0.0023273653 -0.0022232332
000210 36 46 06 bb 97 24 df 3a e6 96 3f b9 62 3e 3e b9
       -0.0020488626 0.0017024454 -0.00018271393 -0.00018143051
000220 6c ec 2d bb d7 f3 85 3a 61 7b 31 bb ac 4e 1d bb
       -0.0026538623 0.0010219765 -0.0027081596 -0.002400319
000230 3a c7 dd ba 48 b0 fe ba 8a 1c 52 3a 88 34 05 bb
       -0.0016920336 -0.0019431198 0.0008015117 -0.00203255
000240 9e 70 bb 3a ee 19 a1 3a bc 6c 9f b9 30 11 93 ba
       0.001430053 0.0012291053 -0.00030407857 -0.0011220332
000250 d7 eb ce b9 35 0a 2f ba ae a1 5f 3a 7e 22 f5 ba
       -0.00039467096 -0.0006677241 0.0008530867 -0.0018702296
000260 76 06 52 b9 46 98 fd ba 8d b7 63 3a 9d 5d 16 bb
       -0.00020029568 -0.0019347749 0.0008686714 -0.0022943981
000270 f0 bf 76 ba 1d b1 20 bb c8 40 84 ba 75 44 ab ba
       -0.0009412756 -0.002451963 -0.0010090107 -0.0013066666
000280 f8 6e c6 ba fa 02 26 bb ff 9c 44 ba 81 fe 6c 3a
       -0.0015139272 -0.0025331364 -0.0007500201 0.00090406096
000290 f9 db 2e bb e0 85 6d 39 72 a6 2b 3a d0 54 07 3b
       -0.0026681407 0.00022651954 0.00065479346 0.0020649917
0002a0 9e f2 fd 38 db be 33 3b a7 66 f3 ba 4c 5b 3b bb
       0.00012109171 0.002742699 -0.0018570021 -0.0028588353
0002b0 4a aa c3 ba 40 80 17 bb c0 c3 2f ba 25 15 05 3a
       -0.001492807 -0.0023117214 -0.0006704889 0.0005076698
0002c0 be 66 08 38 0a 02 aa b8 cb ee 25 bb 85 97 97 3a
       3.2520613e-05 -8.1066115e-05 -0.0025319334 0.0011565542
0002d0 97 3f 33 3b f8 ec df 39 d1 24 3d bb fd b1 20 bb
       0.0027351135 0.0004271043 -0.0028861056 -0.0024520152
0002e0 a8 4e 18 3b 61 a9 2d bb 22 52 03 3b 8f 0b 00 3b
       0.0023240242 -0.0026498663 0.0020037969 0.001953814
0002f0 06 35 36 bb dc bd 1f 3b 8c 5c 22 3a 9e d9 31 bb
       -0.00278026 0.002437464 0.00061936 -0.0027137767
000300 47 34 2f 3b 9a 0a 2c bb bf 99 15 bb d8 27 00 3b
       0.002673404 -0.0026251436 -0.0022827236 0.0019554999
000310 4a 7e c4 ba c1 9c db 3a de 5d 24 bb ae c1 ff ba
       -0.001499125 0.001675509 -0.0025080363 -0.0019512677
000320 b0 17 07 bb 82 31 ec 39 8f 06 24 3b 8a 56 02 bb
       -0.0020613484 0.00045050314 0.0025028323 -0.0019888007
000330 90 8b 84 3a 93 c2 c6 3a 4c 3a 8c 3a 17 d7 46 3a
       0.0010112394 0.0015164189 0.0010698526 0.00075851515
000340 f6 b0 23 ba bc fc 20 3a d1 22 01 bb 7f 21 a9 ba
       -0.0006244326 0.0006141176 -0.001970459 -0.0012903659
000350 2f 13 2a bb 8c 17 fe 3a e7 cd 5d ba b2 50 24 bb
       -0.0025951376 0.001938568 -0.0008461163 -0.0025072512
000360 6e 6d 04 3b c6 08 cb 39 93 14 a1 38 3f 59 ad 3a
       0.0020206827 0.00038725714 7.6809105e-05 0.001322545
000370 10 15 53 ba 51 1b 1d bb 70 55 4d ba 80 06 ea b8
       -0.000805215 -0.002397258 -0.00078328606 -0.000111592
000380 54 b1 ce 3a 1b 83 3b bb 91 de 15 bb af 44 a1 ba
       0.0015769401 -0.002861208 -0.0022868256 -0.0012303795
000390 a4 d6 97 3a 00 47 3d bb cc 64 ee ba e2 e6 98 3a
       0.0011584354 -0.002888143 -0.0018187999 0.0011665488
0003a0 27 8f a7 ba 41 87 e2 3a 4a be 9a 3a b6 c1 91 38
       -0.0012783752 0.001728274 0.0011805978 6.95022e-05
0003b0 9a 9e 2d 3b db e1 06 bb 2e 8d c2 3a 7d 98 e4 3a
       0.002649224 -0.0020581398 0.00148431 0.0017440465
0003c0 c5 94 ec ba 14 3c 15 3a d8 62 8f ba 2d 01 60 3a
       -0.0018049708 0.0005692851 -0.0010939492 0.0008545097
0003d0 5c 3b c0 ba 08 8b 24 3b fc 2a e8 ba 28 91 b0 b9
       -0.0014666128 0.0025107283 -0.0017713006 -0.00033677486
0003e0 ca 2f 0d b8 94 2f 56 3a b4 68 d4 3a 08 e4 b0 3a
       -3.3661527e-05 0.0008170542 0.001620552 0.0013495693
0003f0 98 95 d9 39 fc 16 c6 3a 34 94 2d bb 5c 6f 09 3b
       0.0004150092 0.0015113051 -0.002648604 0.0020970916

Actor.mean_fc3.bias f4 [17]
000000 33 07 17 3b 1f 0c c2 ba 4e f0 b6 3a e0 92 b5 ba
       0.0023045063 -0.0014804638 0.0013957114 -0.0013852976
000010 d8 7a fc 3a 83 38 0c bb 66 b7 35 ba c5 75 0f 3a
       0.0019262685 -0.0021395988 -0.00069319305 0.0005472566
000020 5a 4d de 39 67 2d 81 ba eb 0f 79 3a ce a9 f7 3a
       0.0004240077 -0.000985545 0.0009500968 0.001889521
000030 ce 60 34 bb 6e bd 24 bb 43 df 0d ba d6 19 02 bb
       -0.002752352 -0.0025137323 -0.0005411992 -0.0019851825
000040 84 0a 0c bb
       -0.0021368572

Actor.log_std_fc3.weight f4 [17, 32]
000000 e4 bf 47 bb 91 fa dd ba d6 aa 2c bb 0d 56 7b 3a
       -0.0030479366 -0.0016935637 -0.0026346943 0.00095877127
000010 02 b9 e7 ba 97 7e 40 bb 94 b4 8a ba d7 c6 17 3b
       -0.0017679038 -0.0029372328 -0.0010582381 0.002315929
000020 67 4f 08 3b 73 66 4a bb 87 15 33 bb 12 33 92 3a
       0.002079928 -0.0030883818 -0.0027326064 0.0011154136
000030 e5 51 39 3b 3e f3 2d bb 55 0e e9 3a 65 0e 1e bb
       0.0028277573 -0.0026542689 0.001778076 -0.0024117467
000040 05 e2 12 bb 62 74 1a bb 28 c8 94 b9 d1 bb 4a ba
       -0.002241255 -0.0023567905 -0.00028377888 -0.00077336753
000050 8a eb ef 39 8d a3 07 bb 27 26 9b ba 08 34 12 ba
       0.00045761123 -0.002069685 -0.0011836932 -0.0005577211
000060 ba 14 27 bb 86 9c cc 3a 80 2b c0 ba 29 d4 bd ba
       -0.0025494532 0.0015610612 -0.0014661402 -0.0014482784
000070 a8 05 86 3a 04 96 25 bb ab 5c 3d bb c8 08 36 ba
       0.0010225074 -0.0025266418 -0.0028894346 -0.00069440575
000080 48 1d 0e 3b 25 76 2e 3a ae 17 2e bb bc bc fd b9
       0.0021684933 0.0006655178 -0.0026564407 -0.00048396538
000090 ea 95 05 bb 3c c2 2b 3b 9f 58 ab ba 78 4e f9 39
       -0.0020383545 0.0026208302 -0.0013072676 0.00047551445
0000a0 31 5d 87 3a da d3 35 3a cd bc 25 bb 4c 4e 0a bb
       0.0010327456 0.00069361704 -0.0025289536 -0.0021103797
0000b0 f3 03 2f 3b 16 8b 8c ba e0 59 ee 3a d5 eb f7 ba
       0.0026705235 -0.0010722603 0.0018184744 -0.0018914888
0000c0 10 d2 13 bb 58 77 d1 3a 60 c1 0b 3b 2e 68 bb 3a
       -0.0022555627 0.0015981002 0.0021324977 0.0014298016
0000d0 a9 f7 68 3a 77 be 60 ba fc dd 16 bb cd cf 2e ba
       0.0008887002 -0.00085733033 -0.0023020497 -0.0006668538
0000e0 73 85 24 3a ba 1f be ba a0 55 81 ba f0 f1 0a 3a
       0.0006275989 -0.0014505305 -0.0009867437 0.0005300334
0000f0 30 1b 21 3b 9c 54 e7 3a 4f 3a c0 ba d2 01 58 38
       0.0024582855 0.0017649117 -0.0014665815 5.150011e-05
000100 10 81 ed 39 dc 1b a3 39 71 93 0a bb ea 6d 12 bb
       0.00045300322 0.0003111054 -0.002114501 -0.0022343346
000110 d5 1c 88 3a f3 6d 36 bb e7 29 db 3a 95 e4 f1 3a
       0.0010384569 -0.002783653 0.0016720862 0.0018454964
000120 96 fe 0f bb 1e f8 ab 3a 81 58 2b bb 6d 30 31 3a
       -0.0021971813 0.0013120209 -0.0026145282 0.000675923
000130 f2 b6 45 bb e6 98 cf 3a 60 e0 f0 3a d4 e6 ff 3a
       -0.0030168858 0.0015838414 0.0018377416 0.0019523748
000140 fd 3b f6 3a 6d 05 b7 ba 14 a2 e1 3a e2 b5 ac ba
       0.0018786188 -0.0013963409 0.0017214441 -0.0013176764
000150 f7 2f d5 ba 57 83 3b bb 06 83 fe ba 34 b7 90 3a
       -0.0016264905 -0.002861222 -0.001941771 0.0011040927
000160 31 ed 66 ba 55 52 81 b9 30 5a 8e 37 b4 ec b4 b9
       -0.0008809148 -0.0002466614 1.6969716e-05 -0.00034508633
000170 6c ea 1f bb 24 7c ff b9 0f 55 2d 3b 00 14 36 3a
       -0.00244012 -0.00048729882 0.0026448404 0.0006945729
000180 32 44 9f 3a 64 be d0 b7 a8 ee 2d 3b 48 9f ed ba
       0.0012151061 -2.488419e-05 0.0026539955 -0.0018129135
000190 62 80 21 bb 4d 31 b0 39 0d 9d 00 3b b6 ae e8 3a
       -0.0024643173 0.00033606068 0.001962486 0.0017752263
0001a0 95 fe 05 ba 87 cc cc 3a 4a 41 91 ba 32 01 af 3a
       -0.0005111483 0.0015624919 -0.001108208 0.0013351797
0001b0 ca ed ca ba 59 97 19 3b 89 a7 35 bb d4 15 8a 3a
       -0.0015482244 0.0023436157 -0.0027718267 0.001053507
0001c0 61 14 2c 3a a6 f4 38 3b b4 05 06 3b 71 52 2d bb
       0.0006564316 0.0028221994 0.0020450177 -0.0026446844
0001d0 14 10 06 ba 80 a8 fb b8 c8 dc 58 37 fa 82 ed 3a
       -0.000511409 -0.00011999998 1.2926008e-05 0.0018120699
0001e0 a5 19 cd ba 36 4a ff ba 24 62 3a b9 58 b6 17 ba
       -0.0015647901 -0.0019477073 -0.00017774903 -0.0005787364
0001f0 d8 5e 5b 37 31 1c 2e 3b 3a 81 cf b9 aa b1 bf ba
       1.30755e-05 0.0026567096 -0.00039578398 -0.0014625092
000200 00 21 d5 ba b9 9a 09 bb 8f db d1 ba ab 75 22 bb
       -0.0016260445 -0.0020996763 -0.0016010868 -0.0024789374
000210 15 78 17 3b 31 50 1f bb e5 43 84 3a b7 6e cc ba
       0.0023112346 -0.0024309272 0.0010091035 -0.001559696
000220 84 f3 03 bb 07 98 60 3a 35 f1 75 3a 44 c9 0c 3b
       -0.002013416 0.0008567576 0.0009381951 0.0021482268
000230 ea 1b 95 3a 6f 17 3b 39 c2 dd 00 ba a5 6c 88 3a
       0.0011376117 0.0001784244 -0.0004915857 0.0010408355
000240 d6 e5 d4 38 d4 71 7c 3a fe b4 2a 3a ef 15 b4 3a
       0.00010151758 0.0009629999 0.0006511955 0.0013739447
000250 a1 76 0d bb 63 a3 01 3a 1c 20 d0 ba 96 ce ef ba
       -0.00215856 0.0004945306 -0.001587871 -0.001829582
000260 04 d9 40 ba 2e b1 ab b9 b4 20 fa ba 1b e1 3a 3b
       -0.00073565566 -0.0003274767 -0.0019083233 0.002851552
000270 fa 12 08 3b 57 4a 35 bb 09 ce 45 bb a2 27 12 3b
       0.0020763264 -0.0027662718 -0.003018262 0.0022301455
000280 f1 ea 31 3b 75 65 10 3b 34 17 19 39 0c 6a 77 ba
       0.0027148093 0.002203313 0.00014599861 -0.00094381045
000290 c1 6f 40 bb 92 0f 01 bb dd 25 42 39 ac c4 ee 39
       -0.0029363486 -0.0019693119 0.00018515387 0.0004554143
0002a0 86 47 2b 3b 6a f4 e4 3a 86 11 3c 3b 92 e5 e0 ba
       0.002613516 0.0017467861 0.0028696968 -0.0017158261
0002b0 52 76 12 3b 5c a2 9a ba b1 a7 2c 3a c4 d2 6f ba
       0.0022348356 -0.0011797654 0.0006586267 -0.0009148533
0002c0 ed 95 e5 ba 74 58 88 b9 b3 a9 dd ba 54 5a 07 bb
       -0.0017515995 -0.00026005844 -0.0016911536 -0.0020653205
0002d0 6b 3e 18 3b 8e 1e 40 b9 cb c9 6f ba 41 0b 3e 3b
       0.0023230563 -0.0001832193 -0.0009147196 0.0028998407
0002e0 96 50 30 3b 8b d9 bf ba f6 85 c8 ba 05 b1 43 bb
       0.0026903502 -0.0014636976 -0.0015298713 -0.002986015
0002f0 31 a7 05 b9 97 86 88 b9 f9 17 dc 3a 30 bf a9 b7
       -0.00012746152 -0.0002604022 0.0016791812 -2.0235399e-05
000300 a1 07 b2 b9 8e 55 aa b8 83 8b 2a bb 66 e3 76 39
       -0.0003395649 -8.1221675e-05 -0.0026023097 0.000235451
000310 c1 5b d1 3a 50 4e 99 3a 88 e5 9d b9 f0 c9 85 b7
       0.0015972779 0.0011696313 -0.00030116388 -1.594887e-05
000320 6a ea 21 bb c6 cf ca 3a d3 f5 70 3a 68 bd d8 3a
       -0.0024706372 0.0015473298 0.0009191904 0.001653594
000330 71 3c 30 3b df 6f 76 ba a1 2d e0 3a cf dd 23 3a
       0.0026891495 -0.00094008254 0.0017103442 0.00062510086
000340 bc ae 3a 3b 68 22 aa 3a c9 23 27 3b 3c 4b 01 3a
       0.0028485497 0.0012980225 0.0025503507 0.000493217
000350 3d dd 4c ba 60 d1 3f ba 75 8c 3f 3a 64 ad dd 3a
       -0.00078149495 -0.0007317271 0.00073070015 0.0016912636
000360 36 39 27 3b 34 be ba ba 1c 60 92 3a 03 0d 8f 3a
       0.0025516278 -0.0014247359 0.0011167559 0.0010913912
000370 22 be 01 ba b1 d3 22 3b fa d6 70 ba c7 89 be 39
       -0.00049492915 0.0024845416 -0.00091873074 0.00036342276
000380 8e 9b 26 3b 7b 82 40 bb 67 75 18 bb e5 3e fc ba
       0.0025422308 -0.0029374647 -0.0023263337 -0.0019244818
000390 5d 8e 04 bb 88 6e 90 39 db b7 37 3b 7f 61 9d ba
       -0.0020226457 0.00027548173 0.002803317 -0.0012007206
0003a0 89 fa 45 ba d3 ce 62 ba da 87 95 ba bf 82 17 3b
       -0.0007552286 -0.0008652035 -0.0011408285 0.0023118702
0003b0 a1 4b 38 bb e6 fc 2b bb 78 ad e1 3a 9a 63 cc 38
       -0.002812125 -0.0026243269 0.0017217835 9.74603e-05
0003c0 98 60 2f 3b e6 6f 77 ba 1d 69 3d 3a 19 8b 28 3a
       0.0026760455 -0.00094389764 0.0007225441 0.00064294186
0003d0 cd 8c 3d 3a 92 63 8b 39 38 e7 40 bb 5e 08 46 bb
       0.0007230759 0.00026586332 -0.0029434692 -0.003021739
0003e0 54 63 b0 3a 3b 44 99 3a 16 61 3e bb 28 84 32 3b
       0.0013457336 0.0011693308 -0.0029049567 0.0027239416
0003f0 2b dc 35 ba ac 3a bc ba f9 af bf ba ce 64 29 39
       -0.00069374096 -0.0014360747 -0.0014624587 0.00016154649

Actor.log_std_fc3.bias f4 [17]
000000 de 45 07 39 a9 1b b4 ba 00 60 2c 3a b0 dd 2d bb
       0.00012900631 -0.0013741154 0.00065755844 -0.002652984
000010 83 18 40 bb 23 96 de ba 62 3d 48 bb 71 3b 58 3a
       -0.0029311485 -0.0016982 -0.0030554165 0.00082486036
000020 94 26 90 3a 06 51 33 bb e7 43 86 ba 8d 7f 22 3b
       0.0010997825 -0.0027361526 -0.0010243625 0.0024795264
000030 ec 58 1e bb e6 41 2f bb a8 bf 1f bb 09 5f a0 b9
       -0.0024161888 -0.002674216 -0.002437571 -0.00030588385
000040 46 d5 47 bb
       -0.003049211

Critic.fc1.weight f4 [32, 378]
000000 7f 43 c0 3c 9c c0 a8 3c 7b 6f f5 3c 01 e6 53 bc
       0.023469685 0.020599656 0.029960385 -0.012933255
000010 84 4e 48 bb 72 b2 21 bd 1f fa 12 bc f7 ad 34 3d
       -0.0030564377 -0.03947682 -0.008970766 0.04411122
000020 e0 70 35 3d 01 87 8b 3b e1 29 ab 3c 6f 20 fa 3b
       0.0442971 0.004258037 0.020893993 0.007633261
000030 73 67 bc bc 0d 94 13 3d f7 0e b6 3c cb ca 34 3d
       -0.022998547 0.036029864 0.022223933 0.04413871
000040 cf 41 26 bd 5a ca 3c 3d f2 76 bc bc a2 08 de bc
       -0.040590104 0.046091415 -0.023005936 -0.027103726
000050 f1 b3 1e 3b bc 0d 1f 3d b6 8b a1 3a 3a ef e8 bc
       0.002421614 0.038831457 0.0012324962 -0.028434385
000060 9c 84 14 3d 27 ac 8d 3b ad 3f 48 3d 90 4b 0c 3d
       0.03625928 0.0043235007 0.04888885 0.03425175
000070 cc 83 dd 3c 68 bb c3 bc 80 68 d0 bc ee ae 8c bb
       0.027040385 -0.023893073 -0.025440454 -0.004293314
000080 78 af 31 3d a0 6e ad 3c c8 ce 00 bd 99 fa be 3c
       0.04338023 0.021170914 -0.031447202 0.023312854
000090 02 7e 05 bb be d0 fb bc 52 19 43 bd a2 0c 93 3c
       -0.0020369296 -0.030739184 -0.04763157 0.01795036
0000a0 cd 53 01 bd 12 d1 c0 bc 54 ae 24 3d f1 15 29 3c
       -0.03157406 -0.023537192 0.040205315 0.010320173
0000b0 10 7f f9 3a e6 db 0b 3d 94 86 1a 3d 53 7a c9 3c
       0.001903506 0.03414526 0.037726 0.024594462
0000c0 63 9e 2d bc 68 bb 0b 3d 85 c6 03 3b 6a ac 83 3c
       -0.010596844 0.03411427 0.002010734 0.016073424
0000d0 2f 84 da 3c 34 3d 9c 3c af 13 42 3d 7c 37 06 3d
       0.026674358 0.019072153 0.047382053 0.032767758
0000e0 8d ec e3 bc 7c 2a 2e bc ba 24 a1 bb 79 9a db bc
       -0.027822757 -0.010630246 -0.004917708 -0.026807057
0000f0 58 5f 9d 3c e8 bf 14 bc bf 3d 50 bd 24 6e e3 bc
       0.019210503 -0.009078957 -0.050840136 -0.02776248
000100 07 57 56 bc 58 3c c2 bb 85 82 b9 3a bf 0b fa 3c
       -0.013082272 -0.0059276037 0.0014153278 0.03052318
000110 08 66 25 bd da 7c e7 bc e8 d6 b0 3c e9 ec 07 3d
       -0.040380508 -0.028257776 0.02158685 0.03318492
000120 a4 3e 1d bd 1b 06 02 3d fa 2b ad bb c6 c0 2c bd
       -0.038389817 0.031744104 -0.0052847834 -0.04217603
000130 31 bc 42 bc 9b cc 12 3c 4e 9e 1a 3d 59 ff f3 3c
       -0.011885689 0.008959915 0.037748627 0.029784845
000140 d3 58 e9 bc 2a 31 42 3d b6 b1 ce bc c6 cd cc bb
       -0.028484738 0.047410168 -0.025231224 -0.006250116
000150 42 16 52 bd cf b9 e0 bb 69 88 2f 3c 97 4d 16 bc
       -0.051290758 -0.0068580876 0.010713675 -0.009173772
000160 95 c4 c8 bb b7 f7 64 bb 91 df 2c bb bd 15 b7 bc
       -0.00612695 -0.0034937689 -0.0026378373 -0.022349233
000170 f9 fd 0f bd 2f 4c 2b bd 0e 49 86 bc 28 b9 b0 b9
       -0.035154317 -0.0418207 -0.016392257 -0.00033707288
000180 a2 05 02 bd ab cc 0a 3d 67 9a 3d 3d 56 c5 c1 3c
       -0.031743653 0.033886593 0.046289828 0.023653667
000190 00 3b 45 3c 9f 11 32 3c 8f ce 4a 3d db a1 dd 3c
       0.0120379925 0.010868459 0.049513396 0.027054718
0001a0 8b 80 15 3d 86 0a d8 3b de 55 27 bd 35 89 97 bc
       0.03649954 0.0065930514 -0.040853374 -0.018498043
0001b0 3e 6d 8c bc c9 0d 2e 3d 49 57 86 3c ee 3d f8 bb
       -0.017141934 0.042493615 0.016399043 -0.007575742
0001c0 b2 b3 e1 bc a9 fe 4c bd b9 76 7d bc 9c 50 b4 bc
       -0.027551506 -0.05004755 -0.0154702 -0.022011094
0001d0 41 e4 02 3d 75 fa 23 bd 0e 05 bd bb 74 b7 16 3c
       0.03195596 -0.040033776 -0.005768425 0.009199012
0001e0 e2 ae 3a 3d 5d af af 3c 1a 30 7d 3c 19 61 40 3d
       0.045576937 0.021445924 0.015453363 0.0469676
0001f0 f6 49 51 3c a6 de 82 3c 5b 14 8a 3c 17 b6 33 bd
       0.012773981 0.015975308 0.01685541 -0.043874826
000200 70 fb 01 3b a1 6d 96 bc 9f 59 9b ba b5 c8 c5 bc
       0.0019833706 -0.018362822 -0.0011852271 -0.024143556
000210 e8 53 48 3d ca f2 53 bc 11 c2 17 3c fc 5c 13 3d
       0.048908144 -0.012936303 0.009262578 0.03597735
000220 ab 85 8d 3a e0 75 54 3c af f0 d2 3c c5 24 d0 bc
       0.0010797282 0.012967557 0.025749533 -0.025408158
000230 c1 c8 d0 bc 3d f0 9e 3c ab 89 58 39 12 29 a1 bb
       -0.025486352 0.019401664 0.0002065065 -0.004918226
000240 a3 3c 25 3d 7f 95 46 3c b7 00 cb 38 a4 b7 22 3d
       0.04034103 0.012120604 9.6799275e-05 0.039725915
000250 28 7f 75 3b 52 db d0 bc 2b 16 76 3c 97 78 2e 3d
       0.0037459824 -0.025495205 0.015019934 0.042595472
000260 ae 3b 4a 3d 7e 83 00 3d 25 5b 46 bd 1a 4e cd 3c
       0.04937332 0.0313754 -0.048426766 0.025061656
000270 53 c6 ea ba f3 e7 4e bd 30 79 79 3c d5 c5 97 3a
       -0.0017911888 -0.050514173 0.015226647 0.0011579344
000280 c5 71 1f bd 37 5f 28 3d 9e cb 34 bd 30 7c fb bc
       -0.03892686 0.04110643 -0.044139497 -0.030698866
000290 e8 19 b9 bc b3 39 d4 3c 0f db 99 bc 36 0f 0e 3d
       -0.02259536 0.02590642 -0.018781213 0.034682475
0002a0 66 69 3b 3d 73 e4 d6 bc bf 22 31 bc 6e 6c c2 bb
       0.045754813 -0.02623198 -0.010811507 -0.005933336
0002b0 87 e6 c8 3c e9 8b 3a 3d 7a 21 2d 3d d6 c9 d9 bc
       0.024523987 0.045543585 0.042268254 -0.0265855
0002c0 a2 65 1f bd 64 a3 40 bd 31 e7 4b bd b3 7d a2 3c
       -0.038915284 -0.04703082 -0.04978103 0.019835329
0002d0 e0 54 c1 bc 9d 3e b8 bc f1 5a dd 3c 5c d3 9e 3c
       -0.023600042 -0.022490794 0.027020903 0.019387893
0002e0 1b d2 46 bd a3 b8 25 3d 86 29 1c bc e5 be 34 bc
       -0.048540216 0.040459286 -0.009531384 -0.011031841
0002f0 e5 d4 0f 3a a8 79 0a 3d 8a 3a 22 bc 65 6c ec bc
       0.0005486741 0.033807427 -0.009901652 -0.02886028
000300 36 f9 b6 3c 94 23 ec 3c bf d0 9f bc 2e 9b 1f bd
       0.02233563 0.028825559 -0.019508718 -0.03896635
000310 f1 ec 6e 3c a6 d2 85 3c db 5c eb 3c b9 74 96 bc
       0.014582858 0.016335797 0.0287308 -0.018366205
000320 0e ea 18 bd 8a 6a 9f 3c 15 e6 1a 3b 93 a1 ca 3c
       -0.037332587 0.019459981 0.0023635675 0.024735248
000330 9b 0b 51 bd 5b d4 15 bd 3d d9 50 bd ea 45 03 ba
       -0.05103646 -0.03657947 -0.050988425 -0.00050076714
000340 9e 46 2a 3d 30 c0 17 3c c3 49 eb 3c 37 4c 3f bc
       0.041571252 0.00926213 0.028721696 -0.011675886
000350 a5 2f da 3c c7 7b da 3c 72 b6 19 3d be 51 24 bd
       0.026634047 0.02667035 0.03752751 -0.040117018
000360 2e 42 49 bc e4 75 46 3d e3 2f 11 3d cb 16 b2 bc
       -0.012283845 0.048452273 0.03544606 -0.021739384
000370 4c 9e 1f bc a2 ae 4e 3d b8 79 46 3a 21 83 6f 3c
       -0.009742331 0.05045951 0.0007571238 0.014618666
000380 f7 e0 e1 3c b7 d7 ee 3c a8 87 0f 3d e6 98 e6 bc
       0.027573092 0.029155595 0.03504148 -0.02814908
000390 1b 52 c6 39 ea f4 c2 bb 20 3f 0d bd cc 7d 24 3d
       0.00037826676 -0.005949606 -0.03448403 0.04015903
0003a0 c3 a8 2b bc b5 37 05 3d b5 30 3b 3d 4f 11 f0 3c
       -0.010477248 0.03252383 0.045700748 0.029305128
0003b0 81 42 dd bc ec 67 b7 bc 14 15 8f bb 0a d7 a4 3c
       -0.02700925 -0.022388421 -0.0043665264 0.02012207
0003c0 57 c5 d8 bc 79 36 a6 3b f1 0b 3a bd cd a5 c8 3b
       -0.026461286 0.0050724116 -0.045421544 0.0061232806
0003d0 fb 92 3b 3d 55 d1 f8 bc 8b f1 df 3c 33 54 58 3c
       0.04579447 -0.030373255 0.027336856 0.013203668
0003e0 38 7d 6b 3b 37 f6 1d bd c2 ba 64 bb af 0b 9d bc
       0.003593279 -0.038564887 -0.0034901355 -0.01917061
0003f0 3b 4e 8a bc 6d 6c 54 bc bc 42 8c bb 9e 52 4c bd
       -0.016883006 -0.012965304 -0.0042804163 -0.049883477

Critic.fc1.bias f4 [32]
000000 92 c9 ec 3b 0b 3c f7 3c fc 8e 2f 3b 75 76 6d 3c
       0.0072261775 0.030179998 0.0026788106 0.014493574
000010 e5 c9 c9 3c a0 8c 50 bd 60 40 35 bd a4 fc 97 3c
       0.024632404 -0.05091536 -0.044250846 0.018553086
000020 b4 f2 87 3b 8f 47 3d 3d 59 61 bf bc 89 64 4f bd
       0.0041488055 0.04621082 -0.023361849 -0.050632987
000030 b0 0a 66 3c b8 33 fe bc 9f e5 92 3b a0 92 cc bc
       0.014040634 -0.03103052 0.0044829394 -0.02497226
000040 e0 2a e9 bb 4b 17 88 3b 8d 0a 05 3c 0a d2 e9 bc
       -0.007115707 0.0041531674 0.008120191 -0.028542537
000050 5c 92 19 bc a2 10 ce bc 92 5d e4 3c 7f 1f 20 bd
       -0.009373274 -0.025154416 0.027876649 -0.039092537
000060 c3 0f a3 3c 4d 6f 1c bb db ad 93 bc d7 2b fc 3c
       0.019904977 -0.0023870051 -0.018027237 0.030782623
000070 7c ba 46 3d 7d e4 37 bb 6a 16 03 bd 36 cf 2b 3d
       0.04851769 -0.0028059774 -0.032003798 0.04194566

Critic.fc2.weight f4 [32, 32]
000000 34 f6 ca 3d 24 56 0a be ea d5 a4 3d 4b f5 c9 3d
       0.09910241 -0.13509423 0.08048613 0.09861239
000010 23 7b 6a 3d cd 0b e4 bd 18 4d 75 bd a4 71 f2 3c
       0.05724634 -0.11135063 -0.059887975 0.029595204
000020 3a 58 ca bc 66 47 36 3d fc b8 60 bd 4d ac 0a bd
       -0.024700273 0.044501685 -0.054863915 -0.033855725
000030 ba 57 30 be bc a6 f2 ba 8f 7c c1 3d cb 36 4b 3d
       -0.17220965 -0.0018512825 0.09447586 0.0496128
000040 b1 13 56 bc 57 3e f9 3d 7a 4f 3a bd 29 37 09 3d
       -0.013066218 0.121700935 -0.04548595 0.03349987
000050 44 39 e1 3c f4 41 ea bc 54 22 0c be b4 6d e7 bc
       0.027493127 -0.028595902 -0.1368497 -0.028250553
000060 37 02 29 3e 89 6f 6e bd 6a e1 4e bd 49 5e cc bd
       0.16504751 -0.058211837 -0.05050794 -0.09978921
000070 c7 30 ab 3d 7f 18 23 be 7b 5e f8 3d a8 a1 fc bd
       0.08358913 -0.15927313 0.12127396 -0.12335521
000080 4d 24 b8 3c 34 3b e0 bd e4 9a 00 39 cd cc 26 3e
       0.022478247 -0.10948792 0.00012264733 0.16289063
000090 f6 a7 16 3e fd 4c 13 be 0c 09 8d 3d b4 8f 14 be
       0.1471251 -0.14384837 0.06886491 -0.14507943
0000a0 a2 d5 9d 3d ea 1d 95 bd ed cf dc bc ca a2 f1 bd
       0.07706763 -0.07281096 -0.026954615 -0.11798628
0000b0 a1 69 27 be 81 1d ac 3d 94 fa 5c 3d 69 04 11 be
       -0.16348888 0.08404065 0.053949907 -0.14161839
0000c0 18 6f 21 bd 12 71 8a 3d 03 8e 26 3e ee 5d aa 3d
       -0.039412588 0.06759848 0.1626511 0.08318697
0000d0 1d 30 e6 3c 8e 38 95 bd fc eb 97 bd cd f3 c7 bc
       0.028099114 -0.072861776 -0.07418057 -0.024408245
0000e0 13 31 b2 3d 8b ea f3 bd 46 e6 a7 3d 06 b7 2b be
       0.087007664 -0.1190997 0.08198218 -0.16769037
0000f0 bb eb 6c bd 3d a7 f7 3b 0c eb bb 3d ce a4 2f 3e
       -0.057841998 0.007557778 0.09175691 0.17152712
000100 da 43 83 3d c8 1d 07 be a7 a8 12 bd 8a a2 33 3d
       0.06409426 -0.13194954 -0.03580537 0.04385618
000110 43 77 c6 bd de 5a aa 3c 8f 33 17 3d 56 9e 85 bd
       -0.09690716 0.020795282 0.036914404 -0.06524341
000120 b4 36 94 3d 7a e4 8c bd 0b 20 84 bc 02 18 1a be
       0.07236996 -0.06879516 -0.01612856 -0.15048221
000130 61 98 1c be 98 52 65 3d d5 e3 e4 3d da 40 24 bd
       -0.15292503 0.05598697 0.11176268 -0.04010091
000140 70 94 70 bd 81 aa 1c 3c 6f 2e c0 3d 55 71 48 3d
       -0.05873531 0.009562136 0.093838565 0.048936207
000150 8a 98 82 bb 95 9f ac 3d 25 8a 27 3e 49 1d 00 be
       -0.003985469 0.08428875 0.16361292 -0.12511171
000160 d2 33 09 be 13 52 c2 3b 25 64 e4 3d 84 bf 1d 3e
       -0.13398674 0.005930194 0.111519136 0.15405089
000170 cc 1a 46 bd be ce 22 be 6c 3e d7 bd 36 22 1b 3e
       -0.0483654 -0.15899178 -0.10509953 0.15149769
000180 96 a5 17 be 3f b3 79 3c de 41 0d be 1c bf 47 3d
       -0.1480926 0.0152404895 -0.13794658 0.04876624
000190 24 aa b0 bd bc 3a 13 bc bb 5c f2 3c 1a 9a a9 bd
       -0.08626202 -0.008986171 0.029585233 -0.08281346
0001a0 f6 29 57 3d f0 81 ea 3d 77 04 d6 3d 11 50 27 3d
       0.05253025 0.11450565 0.1045007 0.04084784
0001b0 31 4b 75 3d 84 b7 1d 3e 0b 11 c9 3c 5c 26 25 3e
       0.05988616 0.15402037 0.02454426 0.16127914
0001c0 7f 67 9d 3d a7 27 26 3b bf 86 98 bd 2e 74 d6 bd
       0.07685756 0.0025353224 -0.07447576 -0.10471378
0001d0 88 a1 7c bd 27 34 0c be 7d 3d 19 be 2c a1 24 be
       -0.061677486 -0.1369177 -0.14964862 -0.16077107
0001e0 ac d0 17 3e 71 6c c6 bd 81 e3 e5 3d 15 92 d7 3d
       0.14825696 -0.09688652 0.112250336 0.1052591
0001f0 d8 36 b5 3d 3c 63 2d 3e 97 fb 6d bd e7 6b 25 be
       0.08848351 0.16932386 -0.058101263 -0.16154443
000200 ac 98 7d 3d a7 68 32 be 00 6c 10 3e d7 38 29 be
       0.061913177 -0.17422734 0.14103699 -0.16525589
000210 e7 a6 18 be 23 2d 33 3e 08 af c8 3d 94 ab dc bd
       -0.14907418 0.17497687 0.097990096 -0.107749134
000220 ca 0d 0a 3e a2 69 2b 3d cc 2a 28 3c 0e ea 8b bc
       0.13481823 0.041848786 0.01026411 -0.01707938
000230 53 7f 0e 3e 63 4f 7a 3d 9a 2f f2 bb cb d0 34 be
       0.13915758 0.061110865 -0.0073909285 -0.17657773
000240 6f 76 12 be 53 ad 70 bd ed 5b 2b be 76 a6 21 be
       -0.14302991 -0.058759045 -0.16734286 -0.15786156
000250 d1 70 cc 3c 25 12 10 be a8 20 aa bd 54 6f 83 bd
       0.024956139 -0.14069422 -0.0830701 -0.064177185
000260 59 a7 e9 3d c4 e6 45 3d 0d f3 33 3e 8a 2e 23 be
       0.11408872 0.04831578 0.17573185 -0.15935722
000270 61 3a ad bc 8e 75 95 bd 46 ca 10 bd ce 03 5b bb
       -0.021146001 -0.072978124 -0.035349153 -0.0033419016
000280 62 f2 19 be bf e0 bf 3d 74 c6 16 3d ac cd b1 bd
       -0.15033868 0.09369039 0.036810353 -0.08681807
000290 a1 93 3b bd 6e 21 51 3d 5e 6d 50 3c 1d f1 fb 3a
       -0.045795087 0.05105727 0.012721388 0.0019221638
0002a0 f8 27 b3 3d cd 91 79 bd eb 2e 17 be 23 4b 2c be
       0.08747858 -0.060930062 -0.14763992 -0.16825537
0002b0 22 6d af 3d bc e3 96 bd d3 1e c3 3d de 0f 84 3c
       0.08565737 -0.07367656 0.09527364 0.016120847
0002c0 a9 1d ee 3d 26 ce 11 be 37 96 0a be e1 f8 8e 3d
       0.11626751 -0.14238796 -0.13533865 0.06981064
0002d0 69 32 a7 bb ab 4d 95 3d f4 88 1a 3e e2 95 2a be
       -0.005102445 0.072902046 0.15091306 -0.16658738
0002e0 1f 00 b0 3d ad 48 80 3c 9a 5a 7a 3d cd 13 c7 3d
       0.08593773 0.015659655 0.06112156 0.097205736
0002f0 86 d3 ec bc e1 da 10 be 8b 02 d4 bd f3 71 ff 3d
       -0.028909456 -0.14145996 -0.103520475 0.12472906
000300 49 96 96 bd fe 42 64 bd cc 7e 1c be f1 d1 b3 3b
       -0.07352883 -0.05572795 -0.15282744 0.0054876735
000310 bd ff 15 3e ba 74 31 be c8 a3 33 be b9 68 b6 bd
       0.14648338 -0.17329684 -0.17542946 -0.08906693
000320 64 e5 69 3d 73 27 1d be c3 a6 bb bd c2 e2 2c 3e
       0.05710353 -0.1534708 -0.09162667 0.16883376
000330 e4 20 26 be 83 1f e9 3b 70 d4 0a be be 43 28 3e
       -0.16223484 0.007114352 -0.13557601 0.16432092
000340 69 91 cd bd 15 ce 16 3e 9c 89 c8 bd 61 38 93 bc
       -0.100375004 0.14727052 -0.09791872 -0.01797122
000350 13 9f 2b be b6 cd b5 bc 15 e2 a8 3d 3b 2d 81 3c
       -0.16759901 -0.022192817 0.08246247 0.015768638
000360 15 e7 ea 3d 7b bc 03 be 74 6b e9 3d 9c e4 e3 3c
       0.11469857 -0.12864868 0.11397448 0.02781897
000370 4b 65 24 3e d3 3b 0b be f5 5d a2 bd 12 cc 7f bd
       0.16054265 -0.1359704 -0.07928077 -0.062450476
000380 08 a4 cf bc d8 f5 17 be 55 d7 18 bd 07 28 cf 3d
       -0.02534677 -0.14839876 -0.03731473 0.101150565
000390 ff 89 b7 3d b5 8f 80 3d e4 a9 f4 bd fe 06 1a be
       0.089618675 0.0627741 -0.119464666 -0.1504173
0003a0 2e 54 fb 3d dd 7d f8 bc 05 f3 f2 3a 2e a3 12 3e
       0.122719154 -0.030333454 0.001853556 0.1432006
0003b0 5c fa de bd 28 8c 15 be 22 93 15 3e b9 10 4a bc
       -0.10887596 -0.14604247 0.14606908 -0.012333089
0003c0 0e 9d 22 be 33 d1 1d be df 1b 92 bd d3 0e 06 be
       -0.15880224 -0.15411834 -0.07134222 -0.13091592
0003d0 55 94 94 3d 92 ed 16 3e 2c 1d 60 3d 5c 4a e0 bd
       0.072548546 0.14739063 0.05471532 -0.10951683
0003e0 29 fc 25 bd 15 c0 3f 3d 14 32 1f be a6 87 b1 bb
       -0.04052368 0.046814043 -0.15546447 -0.005417782
0003f0 76 2b 96 3d 88 6f c3 3d 73 22 89 bd 41 75 a5 3c
       0.07332508 0.09542757 -0.06696024 0.020197513

Critic.fc2.bias f4 [32]
000000 cd f8 45 bd 5f 39 30 3e 1a df ce bc d6 68 2e be
       -0.048332978 0.17209385 -0.025252867 -0.17032179
000010 03 ec b9 bc 04 06 0b be ca bd ac 3d eb ac b6 3c
       -0.022695547 -0.13576514 0.08434637 0.02229925
000020 b7 f9 0c be 96 43 83 3d ed 1a be 3d 3d 05 cf 3d
       -0.13767134 0.06409375 0.092824794 0.10108421
000030 b9 6e 9c 3d 05 ed 59 bc 79 6c 43 3d a6 7b 3e 3d
       0.07638306 -0.013301139 0.04771087 0.04650464
000040 86 7a 91 3d aa 4e 26 3e 6f 37 b2 3d f2 a8 1d be
       0.071034476 0.16240945 0.08701979 -0.15396479
000050 ca ee 0e 3e 67 60 27 3d 72 f6 fe bd aa e0 cc bd
       0.13958278 0.04086342 -0.124493495 -0.10003789
000060 de 4b 72 bb 31 1e 1e be 6f bd d0 bd 8a 8f 2c 3e
       -0.003697149 -0.15441205 -0.101923816 0.16851631
000070 9a f4 f4 bc ec 0c fb bd ac cb f9 3c a7 c4 88 bd
       -0.029901791 -0.12258324 0.030492626 -0.066781335

Critic.fc3.weight f4 [1, 32]
000000 42 54 7b b8 ba bf b1 39 d9 1d ab 3a 2b 9a 20 3b
       -5.9921535e-05 0.00033902918 0.001305516 0.0024505954
000010 30 2f 61 3a 90 c3 5d ba ed 5f 3e 3b 45 41 39 3b
       0.00085901003 -0.0008459622 0.0029048875 0.0028267663
000020 1b 1c 29 ba 6c b6 e7 ba 6d 81 18 3b 23 e3 26 ba
       -0.00064510264 -0.0017678267 0.0023270503 -0.00063662435
000030 64 f2 94 ba 81 6f 33 3b e5 04 10 3b 73 4a 20 ba
       -0.0011363742 0.0027379694 0.0021975574 -0.00061146094
000040 55 b5 9c b9 a2 79 dd ba ee bc bc 39 01 ae 0b bb
       -0.00029889742 -0.0016897211 0.00035998918 -0.0021313431
000050 57 3c 1f 3b a8 91 b1 3a c4 e0 08 bb f7 3a 94 b9
       0.002429744 0.0013547437 -0.0020885924 -0.00028272692
000060 24 43 f0 b9 ed 4c 17 bb 71 2e 0c 3b e0 a7 af b9
       -0.0004582639 -0.0023086623 0.0021389986 -0.00033503678
000070 cc 04 12 3a 64 77 1e bb e6 37 b8 ba 0d 29 0b 3b
       0.0005570173 -0.002418005 -0.0014054745 0.0021234185
