model_7.pt (torch, 114732 bytes, 13 tensors)

Actor.fc1.weight f4 [32, 378]
000000 c7 a2 a9 bb 1b e5 3f bc f9 51 98 3d be 9f d1 3d
       -0.0051768753 -0.011712338 0.0743751 0.102355465
000010 af 50 f3 bc 95 ac 97 3d e2 26 e2 3c 66 28 13 3c
       -0.029701559 0.07405964 0.027606431 0.0089818
000020 e1 83 d9 bc 78 17 50 3c 98 10 c3 bc 0c bb 35 3d
       -0.026552143 0.012700908 -0.023811623 0.044367835
000030 98 4e 84 bd 7f e9 60 bd 3d 78 de bb 16 5f 07 3d
       -0.06460303 -0.05491018 -0.006789236 0.033049665
000040 f5 60 a5 bd 33 8b d9 bd 46 3b c5 3d f1 23 7d bd
       -0.08075134 -0.10622253 0.09630446 -0.061801855
000050 2d 09 c7 bd 32 bc cd bd f8 50 04 3e a8 31 54 bd
       -0.09718547 -0.10045661 0.12921512 -0.05180517
000060 2b 9f 17 bd 18 b5 e4 bb cd b6 85 bd 7e 6a c6 3c
       -0.03701703 -0.006979596 -0.06529007 0.024220701
000070 c2 98 b9 3d 76 4b 42 bc ec bd e7 3c 93 34 d5 bd
       0.09062339 -0.011858812 0.028288804 -0.10410418
000080 25 e8 49 3c f8 49 0b 3d 3d 5d 75 3c 90 26 b4 3c
       0.012323414 0.03400609 0.014975843 0.021991044
000090 a4 a8 05 bd cd b1 f7 bc 89 18 32 3d 03 ee 69 bb
       -0.03263153 -0.03023615 0.04348043 -0.0035694845
0000a0 26 08 5b 3b 9a ba aa 3d 97 e2 d6 bd 4e 4b f5 bd
       0.0033421605 0.08336373 -0.10492437 -0.11977254
0000b0 bb a0 00 be 13 5e bc 3d e1 13 06 bd bf 24 00 00
       -0.12561314 0.09197631 -0.0327338 1.3182e-41
0000c0 d9 ac 10 00 82 2a 00 80 71 08 00 00 63 c2 01 00
       1.531374e-39 -1.5249e-41 3.028e-42 1.61568e-40
0000d0 9b ae 00 80 91 9b 01 80 e4 48 00 00 0d 20 00 80
       -6.2637e-41 -1.47642e-40 2.6148e-41 -1.1498e-41
0000e0 a0 63 00 80 90 63 96 3d 03 cc be 3d a7 23 d0 3d
       -3.5739e-41 0.07343209 0.09316256 0.1016305
0000f0 6d b8 24 3b 2c 4e b7 3c 06 1d af 3b 68 45 6b bd
       0.002513434 0.022376142 0.005344036 -0.057439238
000100 0d ba 6e bb d9 ba 1f 3d 0f 77 c1 3d ee 96 c3 3d
       -0.0036426813 0.03899655 0.09446537 0.09550272
000110 ac b6 54 3d bc 4d 81 3d 5a a7 10 bb 67 de 9c 3d
       0.051932022 0.06313655 -0.0022072406 0.076596074
000120 ca c6 57 bb d5 f3 79 bd b4 87 d8 bc 0f 72 c0 3d
       -0.0032924884 -0.061023552 -0.026431896 0.09396755
000130 4f b8 af 3c d3 e0 8b 3c bd 99 41 3d 06 96 a8 3d
       0.02145019 0.017074978 0.047265757 0.0823174
000140 1b bc 81 3c ba 00 83 3d 4c cc 38 bb 04 3a 9d bd
       0.015836766 0.06396623 -0.0028197942 -0.07677081
000150 ce b8 eb bc 2b 86 cc 3d fb b6 b5 3d d7 4d a8 3d
       -0.028774645 0.09986528 0.088727914 0.08217972
000160 9a 4d a8 3d 53 69 24 3d c3 0f 43 3c cb 48 77 3d
       0.08217926 0.040139508 0.011905613 0.060372155
000170 9c 4c a9 bd 5a db ef ba dd 5a 9a bc 29 69 93 bc
       -0.08266565 -0.0018299625 -0.018842155 -0.01799448
000180 bc 97 b3 3c 28 5a dd 3c f3 f8 be 3c 3e 7e 8c 3d
       0.021922939 0.027020529 0.023312068 0.06860016
000190 05 08 17 3d a3 e0 f5 3c 29 93 b2 bd 4b a0 83 3d
       0.036872882 0.030014342 -0.08719475 0.06427058
0001a0 a0 6a db bc 9e cc bf bd b8 fe c1 3d 5c 7a 5f 3d
       -0.026784241 -0.093651995 0.09472412 0.05456005
0001b0 3b 43 e5 3c de 54 ad 3d e8 d5 4e bd 03 bc 8e bd
       0.02798616 0.08463453 -0.050496966 -0.06969454
0001c0 85 a1 34 bc ab b7 90 bc c6 86 e8 bc 71 60 9c bc
       -0.011024837 -0.017665705 -0.028384577 -0.019088956
0001d0 89 60 3a 3d ea 2d cf 3d d6 72 76 3d e0 f5 59 3d
       0.04550222 0.10116179 0.06016811 0.053213
0001e0 f2 dc 7d bd 0c 67 86 3d 28 65 b2 3d da 08 9e 3d
       -0.061978288 0.065626234 0.087107 0.07716532
0001f0 a4 20 78 3d 06 e5 b9 bc f8 ea 44 3d 78 45 84 3d
       0.060578004 -0.022692215 0.048075646 0.064585626
000200 b2 87 6b 3c 40 37 17 3d e9 43 2a bd a8 86 da 3c
       0.014375614 0.036917925 -0.04156867 0.026675537
000210 48 de d7 3d a0 03 b7 3c 93 f0 89 3d f3 08 a5 bd
       0.10540444 0.022340596 0.06735339 -0.080583476
000220 97 d4 f1 3c 28 98 48 3d 24 b8 a6 3d 75 c9 88 3d
       0.029520316 0.048973233 0.08140591 0.0667905
000230 84 f3 80 3d 17 75 9d bd ce c7 fe 3c 2a 9e 68 bd
       0.06296447 -0.07688349 0.031101134 -0.056791462
000240 4d df 86 3d 8c ed 28 bd ac 60 aa 3d 8b c1 4a 3d
       0.0658556 -0.041242167 0.0831922 0.049500983
000250 d4 65 dc 3d 7d 53 79 3d ef ae 0c 3c 7b ea ff bc
       0.1076161 0.060870636 0.008586629 -0.031239739
000260 aa 95 16 3d 0b 8d 2f 3d 04 e7 95 bd fc 67 d9 3c
       0.036763825 0.04285912 -0.07319453 0.026538841
000270 63 03 03 3d 8a 34 6d 3a c9 a7 98 3d 85 57 a1 3d
       0.03198565 0.00090486614 0.074538775 0.07878021
000280 2e aa 4a 3d f7 cc 5f bd 1b 59 0e 3d ea 16 00 3d
       0.049478702 -0.05463883 0.034752946 0.031271853
000290 2f 7a dc bd fd be b9 3d 5e d2 83 3d 8f e7 79 3d
       -0.10765492 0.09069631 0.06436609 0.061011847
0002a0 c7 33 7b 3d 76 1b b4 3d 3f 24 e1 bb e5 bd d8 bc
       0.061328676 0.087943 -0.006870776 -0.026457736
0002b0 37 3e f1 bc 76 25 12 3d 25 d6 1e 3d e0 9d 32 3d
       -0.029448612 0.035680257 0.038778443 0.043607593
0002c0 8f 06 d8 3d 28 6e 5d 3c 67 34 55 3d d8 fb 94 3d
       0.10548126 0.013515033 0.052051928 0.07274598
0002d0 84 5f ea bb 2d 56 87 bd 5e 7c af bd 3f 0d 4d 3d
       -0.0071524996 -0.066082336 -0.08568643 0.05006146
0002e0 71 4b 92 3d d0 9a 31 3d 8f fe cf 3d ef 13 00 80
       0.071432956 0.04336053 0.10155975 -7.151e-42
0002f0 93 bd 00 00 50 29 02 00 a6 f2 01 80 81 47 01 80
       6.8006e-41 1.98491e-40 -1.78881e-40 -1.17486e-40
000300 13 5b 00 00 83 bd 94 3c 59 79 06 3d 37 97 a0 bb
       3.2671e-41 0.018156772 0.03283057 -0.0049008387
000310 b4 0e 2f bd ae aa 64 bc a5 fd 80 bd 4e 9a 17 bd
       -0.04273863 -0.013956709 -0.06298379 -0.03701239
000320 6b 8f b7 bd 6a 99 d3 bc 07 10 bd 3c ed 18 9e bc
       -0.08962902 -0.02582999 0.023078931 -0.019298995
000330 c1 50 4c bd e3 3d 3c 3d 19 64 ab bc 1e 61 b7 3c
       -0.0498817 0.045957457 -0.020921754 0.022385176
000340 0e ed dc 3a 81 4e 6c bc 69 cc 3e bc fa e0 f2 3b
       0.0016855316 -0.014423014 -0.011645415 0.007412073
000350 d4 14 8f bc bd d6 a8 bc 51 95 39 3d 74 70 a6 bc
       -0.017465986 -0.020610208 0.045308415 -0.020317294
000360 fa a1 85 bd 10 99 33 3d 7c d9 cb 3d fd 39 6a 3d
       -0.06525035 0.043847144 0.09953591 0.05718421
000370 c7 c8 2d 3d 4a e2 56 3c 53 fc e7 3c a8 77 82 3b
       0.042427804 0.013115475 0.02831856 0.0039815493
000380 f8 89 e1 3d 5e 7b 6f bc be 17 9e 3d 77 2e af ba
       0.110126436 -0.014616815 0.07719372 -0.0013365288
000390 75 59 79 3c 24 0f 3d bc 36 0f a4 bb 47 a7 00 bd
       0.015219082 -0.011539254 -0.005006696 -0.031409528
0003a0 99 37 6a 3d 3a f0 09 3d ef 58 08 bc 86 7d 23 bd
       0.05718193 0.033676364 -0.008321985 -0.03991463
0003b0 f5 96 8b 3d 49 ce d8 3c 19 f5 8a 3d 59 74 e7 bc
       0.06815902 0.026465552 0.0678503 -0.028253721
0003c0 75 78 08 bd 51 29 ce 3c 15 7e c6 3d ba 41 8f 3c
       -0.033318 0.025166186 0.09692017 0.017487396
0003d0 66 03 1b 3d 7c 92 6c 3c 07 fe 40 3b e0 fa 79 3d
       0.037845038 0.0144392215 0.0029448287 0.06103027
0003e0 bf 9b 0f 3e dd 0c 68 3d 55 00 d0 bd 62 af 2a 3e
       0.14024256 0.056652892 -0.10156313 0.16668466
0003f0 bb 77 91 bc a6 68 aa 3d 5d 0b 0a 3e 2b 78 44 be
       -0.017757287 0.08320741 0.13480897 -0.19186465

Actor.fc1.bias f4 [32]
000000 ac 98 da 3d 92 41 95 3d 09 18 66 bd d0 59 e8 3d
       0.10673651 0.07287897 -0.056175265 0.113452554
000010 c3 06 10 3e a4 d2 86 bd b7 d8 1c 3e 61 33 03 bd
       0.1406508 -0.06583145 0.15317045 -0.03203142
000020 02 ff 02 3d 2e 86 c1 3c 85 22 c2 3c 27 19 78 3c
       0.031981476 0.023623552 0.0236981 0.015142716
000030 24 d4 10 3e b3 db cb 3d 6e 58 95 3c 00 43 32 3d
       0.14143425 0.09954014 0.018230643 0.043520927
000040 33 f6 9a b7 e2 89 7a 3d 1f fc a8 3d 6b 01 03 3e
       -1.8472876e-05 0.06116665 0.08251213 0.1279351
000050 db 33 1d 3b 1d 58 87 bd 84 90 4b bb ea 25 b0 3c
       0.0023987207 -0.06608603 -0.003106148 0.021502454
000060 12 ec 97 bc 8d b3 40 3c 47 aa 87 3d a5 68 0d 3e
       -0.018545184 0.011761558 0.06624275 0.1380945
000070 73 95 07 3d f9 61 98 3d 07 a4 02 bd 66 88 08 3e
       0.03310151 0.07440562 -0.03189471 0.13333282

Actor.fc2.weight f4 [32, 32]
000000 48 96 01 bd c2 6c 0a 3e bb f1 48 3c 0e 26 57 3e
       -0.03163746 0.1351805 0.012264664 0.2101061
000010 92 1b 09 bd 0a 28 be bd 74 2e f3 3d 3d 45 0f 3e
       -0.03347356 -0.092849806 0.118740946 0.13991256
000020 ed 37 51 bd 66 36 cd 3d af 58 2b be 13 dd 39 3e
       -0.051078726 0.10020141 -0.16733049 0.1815074
000030 c6 d1 4b 3b a6 88 95 bd 71 d0 27 3e 55 27 30 3d
       0.0031100377 -0.07301454 0.16388108 0.04300626
000040 44 fe 1f 3d 92 c0 1d bd ad 7e 15 be 7f a4 2d 3e
       0.039060846 -0.038513727 -0.14599104 0.16957282
000050 a7 6f 9b bd 82 55 21 3e a6 ec cc bd f2 b4 07 be
       -0.07589655 0.15755275 -0.100060746 -0.13252619
000060 f8 00 5c bd ed ab 04 bd 1d bc 1a 3e 5c 09 c3 3d
       -0.05371186 -0.032390524 0.15110822 0.095232695
000070 ad ae 0e 3d c8 9b ec 3d 46 48 0e be cd e9 59 3e
       0.034834553 0.115531504 -0.13894758 0.21280594
000080 60 8a e4 3d d2 aa 00 be 9f af 65 3c 0c 0e 18 3e
       0.111592054 -0.12565163 0.014018922 0.14849108
000090 82 94 6e 3e e8 9a cb 3d e7 6b d6 3d 97 85 f7 3d
       0.23298839 0.099416554 0.104697995 0.12086027
0000a0 c6 ab 2b 3e ee cf 1c 3e 6c 6d ce 3d e5 f9 01 bd
       0.16764745 0.15313694 0.10079464 -0.03173246
0000b0 07 70 cd bc b3 bf 29 be 09 4b de 3d 1c b9 2b 3d
       -0.025077833 -0.16577034 0.108541556 0.04192458
0000c0 f2 8d d1 bb 3a a6 16 3e 05 45 95 3c b8 b3 3b 3d
       -0.006395095 0.14711848 0.018221388 0.04582569
0000d0 46 bf da bd 66 18 bf 3d aa 7a e3 bd 85 0c 86 bd
       -0.10681014 0.093308255 -0.11107381 -0.06545357
0000e0 ab 55 56 bd 84 b9 05 3e a8 6c ee 3d 6c 69 34 3e
       -0.052327793 0.1305905 0.11641818 0.1761834
0000f0 32 79 0b 3d 74 cc f5 bc 7f 55 04 3d a8 e7 f6 3d
       0.034051128 -0.030004717 0.032308098 0.12055904
000100 46 8a 1d 3e 38 17 b1 bd ff 2e 01 bd d3 b0 2a 3e
       0.15384778 -0.08647007 -0.03153896 0.16669016
000110 e7 30 5f 3d d6 36 35 bd 29 f6 67 3e 3e b7 04 3d
       0.054489996 -0.04424175 0.22652496 0.032401316
000120 16 d1 b6 3d 0e 7f ce bd 13 a1 19 bc bc 22 0e 3e
       0.08926599 -0.100828275 -0.009376782 0.13880438
000130 3a 94 88 bd 1e 33 7c bd 95 bc 4e bd 1b 37 2c 3d
       -0.06668897 -0.061572187 -0.050472815 0.04204474
000140 3a 46 7c b9 b0 9a 11 be 10 b5 7a bd f1 e3 62 3e
       -0.00024058754 -0.14219165 -0.06120783 0.22157265
000150 68 ee 69 3d b8 47 05 bd 1e 80 0c 3e 0a eb 20 3e
       0.057112128 -0.0325391 0.13720748 0.1571466
000160 72 47 56 bd 53 e3 7d 3d b9 79 ca 3d ed 65 ac 3d
       -0.05231423 0.06198437 0.09886498 0.08417878
000170 78 3e 10 3d 0a aa 8d 3d 20 3d c9 3d 8c 60 97 3d
       0.035215825 0.06917198 0.09826112 0.07391462
000180 0e 59 0d be 1a d0 3c bc 3c c1 e6 3d 6d 9c 79 3d
       -0.13803503 -0.011524225 0.11267325 0.060940195
000190 d3 34 f4 3b 11 0f 54 3d 78 c3 32 3c 44 0b 14 be
       0.007452586 0.05177218 0.010910861 -0.14457422
0001a0 4e 03 fe 3d 36 f5 86 3d 1f 7f d0 3d 67 7c 9b 3b
       0.12402974 0.06589739 0.101804964 0.0047450545
0001b0 99 6b ae 3d 75 fc 16 3d 64 c5 14 bd de 19 2d 3d
       0.085166164 0.036861856 -0.03632106 0.042260997
0001c0 0a 75 6a 3d 15 fe 7f bd 0d 1e 47 3d 6d a9 be 3d
       0.057240523 -0.06249817 0.048612643 0.09309659
0001d0 6d a0 da bd 15 1d b0 bd f7 54 b3 3c 12 6a f5 bd
       -0.1067513 -0.08599297 0.0218911 -0.11983122
0001e0 32 64 61 bd c4 f6 1e be b7 67 c3 bd b4 75 35 3e
       -0.055027194 -0.15523821 -0.095412664 0.17720681
0001f0 c3 55 11 3d ab 89 a7 3d 10 5d 09 be d3 62 70 3e
       0.03548218 0.08180555 -0.13414407 0.23475198
000200 d7 5b b6 3d e9 a3 05 3d 3c d5 10 be 56 42 3a 3e
       0.08904236 0.03262702 -0.14143842 0.18189368
000210 ff 06 06 3e 38 1a a7 bd 77 dd e5 3d b3 74 97 bb
       0.13088606 -0.08159298 0.11223882 -0.004622066
000220 51 5c 21 3e fe 31 2b 3e 4a 90 e4 3d 0d 55 66 bd
       0.15757872 0.1671829 0.111603335 -0.056233454
000230 08 e7 63 3e ce 4f da 3d 80 6e 4b bd 00 8f 34 3d
       0.222561 0.10659753 -0.049665928 0.044081688
000240 6b 09 0b bc 28 c9 b6 bd 50 af c0 3c 62 65 30 3e
       -0.008486132 -0.08925086 0.023521096 0.17226174
000250 2d 21 46 3d a7 08 5d bd e6 55 a2 3d 82 77 a5 bb
       0.048371483 -0.05396333 0.0792654 -0.005049647
000260 70 05 53 bd d6 bb 4a 3d 14 27 8f bd 7a bc 76 bd
       -0.051518857 0.04949554 -0.069898754 -0.06023834
000270 60 01 20 3d d6 91 15 be 64 5d 16 3e 99 f0 78 3e
       0.03906381 -0.14606413 0.14684063 0.2431053
000280 1f 30 9d bd 81 dd 50 bc 4a 0b 5f 3d 92 63 e8 bb
       -0.07675194 -0.012748123 0.054454125 -0.007091948
000290 c5 bc b7 bd d8 8d ff bd 79 31 53 3e a3 e9 dd 3d
       -0.08971552 -0.124782264 0.20624341 0.10835578
0002a0 60 33 0e 3e e6 66 f3 bd e6 95 b8 3d ce 60 04 3e
       0.13886786 -0.11884861 0.09012966 0.12927553
0002b0 35 f3 26 3e 5a d7 36 3e f2 81 e7 3d ba c0 39 3d
       0.16303714 0.17855588 0.11304082 0.045349814
0002c0 db d2 14 bc e2 5b 86 3d 3c 2a e7 3c 62 84 4f 3e
       -0.009083475 0.06560494 0.028218381 0.20265344
0002d0 8d 6b 90 bd 21 7c d0 3d 3a 97 9a 3d 66 2b 9a bd
       -0.07051764 0.10179926 0.075483754 -0.07527809
0002e0 90 1a fe bc b9 a5 d7 bd 20 cc 41 3e 80 ce 23 3e
       -0.031018525 -0.10529656 0.18925524 0.15996742
0002f0 38 c4 0d 3d 60 cc 10 3e 33 4f df bd f6 96 4d 3e
       0.034610957 0.14140463 -0.10903778 0.20077118
000300 ef 2f 38 3d de 04 ed 3d 82 e6 ea bd 34 6d dd 3d
       0.044967588 0.11573194 -0.11469747 0.108118445
000310 e1 e5 4e 3e e2 dd 11 3e 2d 2a 86 3d d7 c0 aa 3d
       0.2020488 0.14244798 0.06551013 0.083375625
000320 6f 75 ea 3d 1d bf 13 bd 85 66 67 bb 2b 46 dd bc
       0.1144818 -0.03607093 -0.003530891 -0.027010998
000330 e6 13 bf bd 62 7e 02 3e 70 2c 12 3e b7 61 29 3d
       -0.09329967 0.12743524 0.14274764 0.041352954
000340 e1 52 3a bd a8 9e 1a 3e 6c 05 04 3e c7 2b 54 3e
       -0.045489196 0.15099585 0.12892693 0.20719825
000350 55 3e fc bc 68 35 d4 bd 66 dd b1 bd 35 cb 69 bd
       -0.030791441 -0.10361749 -0.086848065 -0.05707856
000360 96 d8 60 bd 21 9b 20 be f6 5a 8a bd 73 1c ea bc
       -0.054894052 -0.15684177 -0.06755631 -0.028578019
000370 72 f0 0c 3d 34 c2 99 3d bf 02 0c bd 09 7a 36 3e
       0.034408994 0.075077444 -0.034182306 0.1781999
000380 a0 7d 40 bd 7b 2b bf 3d 10 84 95 bd 77 63 19 3d
       -0.046994805 0.09334465 -0.073005795 0.037448373
000390 6d 7a 98 3d c9 d1 25 3d f8 8a b2 bd a7 c2 0c be
       0.07445226 0.04048327 -0.087179124 -0.13746129
0003a0 00 04 ba 3d f7 32 e3 3c db 38 e1 bd d0 be 17 3e
       0.09082794 0.027734263 -0.109971724 0.14818883
0003b0 9d ab 36 3e 6f 66 03 3d d9 6e 18 3e 83 cf 30 3d
       0.17838903 0.03208011 0.14886035 0.04316665
0003c0 e1 12 19 3c 05 0f 1d 3e c9 78 11 3e c8 29 00 3e
       0.00934288 0.15337761 0.14206232 0.12515938
0003d0 e2 fe 43 bc 51 04 8d 3d 77 d5 7d bd fa b5 ca bd
       -0.011962624 0.06885589 -0.061971154 -0.098979905
0003e0 96 0a 5c bd b8 18 13 be 44 f8 18 bb 88 c3 f4 3d
       -0.053721033 -0.14364898 -0.0023341337 0.11951357
0003f0 bf 9e 0d 3d 49 f3 ed bd ed b9 25 3e 31 f8 b2 3d
       0.03457522 -0.116186686 0.16184206 0.08738745

Actor.fc2.bias f4 [32]
000000 a2 9c 10 bd 33 47 02 3e cf 6c 5c bd 23 4a 87 3d
       -0.035305627 0.12722473 -0.053814705 0.06605937
000010 ce c1 b8 3d 36 bf 5e 3e 16 7e fb 3d a7 9b b8 bd
       0.0902134 0.21752629 0.12279908 -0.09014063
000020 88 14 a8 bd 0e 8b 1a 3e 76 f9 06 3e dc cc 4e 3e
       -0.08207041 0.15092108 0.131811 0.20195335
000030 d2 a4 1b 3e 17 89 0f 3e 6f 99 03 3e f9 3e 7f 3d
       0.15199593 0.1401714 0.12851499 0.062315915
000040 73 61 2c bc 64 00 e4 3d 78 e1 b8 3c 9d 46 28 bd
       -0.010521281 0.11132887 0.02256845 -0.041082967
000050 8d ed 58 3a 1a 7d ee bc 98 7f c4 bd 1f af 33 3c
       0.0008275144 -0.029112387 -0.09594649 0.010967045
000060 ad 4b 57 3e c2 1a 67 3b 1b 25 2b 3e 49 b3 53 3e
       0.21024962 0.0035263752 0.16713373 0.2067386
000070 9a ad 3b 3e 98 d5 c6 bd 72 3c d4 bc 75 c1 6b 3d
       0.18327942 -0.097087085 -0.025907729 0.057557542

Actor.mean_fc3.weight f4 [17, 32]
000000 81 16 00 00 a2 8d f1 80 7d bd 04 00 cf 03 00 00
       8.073e-42 -2.2183163e-38 4.35318e-40 1.366e-42
000010 13 00 00 80 ca 12 12 80 63 32 00 00 41 4c 09 00
       -2.7e-44 -1.659779e-39 1.8075e-41 8.53874e-40
000020 02 d0 1c 00 04 bb 09 00 b5 18 00 00 8a 88 0a 00
       2.646013e-39 8.93608e-40 8.863e-42 9.67336e-40
000030 96 2c 14 81 5e 37 00 80 de 01 00 80 ca 0e 00 80
       -2.7215296e-38 -1.9862e-41 -6.7e-43 -5.305e-42
000040 1a 52 89 80 69 57 21 00 e5 6d 6c 00 6d 34 00 80
       -1.2610915e-38 3.061928e-39 9.957656e-39 -1.8807e-41
000050 d5 de 07 00 21 e7 1a 80 92 3a 00 00 02 49 00 80
       7.22786e-40 -2.470636e-39 2.1011e-41 -2.619e-41
000060 20 0f 00 80 51 46 48 80 b7 42 00 00 75 3a 00 00
       -5.426e-42 -6.63738e-39 2.3933e-41 2.097e-41
000070 95 fb 18 00 8f 46 0b 80 da 4c 00 00 93 53 00 00
       2.294303e-39 -1.035502e-39 2.7569e-41 2.9981e-41
000080 5f d4 4a 80 c3 48 00 00 cc 0c 00 00 d6 11 1a 80
       -6.872011e-39 2.6102e-41 4.59e-42 -2.394121e-39
000090 92 1b 00 00 0a e1 08 00 52 56 00 80 f6 f7 5d 80
       9.89e-42 8.15413e-40 -3.0966e-41 -8.629653e-39
0000a0 20 68 00 00 d3 11 00 00 ae 08 00 00 c6 06 00 00
       3.7353e-41 6.394e-42 3.114e-42 2.43e-42
0000b0 bf 5a 00 80 b6 02 0c 00 40 40 0a 00 85 0a 00 00
       -3.2554e-41 1.102998e-39 9.41404e-40 3.774e-42
0000c0 38 dd 0e 00 fb 68 00 80 d1 31 00 00 fd 6e 00 00
       1.365055e-39 -3.766e-41 1.7871e-41 3.9815e-41
0000d0 3a d4 11 80 38 5a 00 80 be 63 0f 00 21 10 06 80
       -1.637336e-39 -3.2364e-41 1.413313e-39 -5.56799e-40
0000e0 2c 5b 65 00 21 2f 00 00 82 6a 08 00 54 2b 00 80
       9.308091e-39 1.6907e-41 7.72892e-40 -1.5543e-41
0000f0 15 56 00 00 aa 5a 00 80 ac 43 00 80 8c 4a 00 00
       3.088e-41 -3.2524e-41 -2.4276e-41 2.6742e-41
000100 e7 46 00 00 ae 9d 06 00 2e 0a 00 80 72 37 00 00
       2.5435e-41 6.07578e-40 -3.652e-42 1.989e-41
000110 4f 3a 00 00 a6 09 00 00 b1 2a 00 80 9d ba 22 80
       2.0917e-41 3.461e-42 -1.5315e-41 -3.189351e-39
000120 2b 2b 00 80 53 2b 2b 80 f8 3f 00 00 e7 6b 00 80
       -1.5486e-41 -3.964468e-39 2.2948e-41 -3.8708e-41
000130 e1 3c 00 80 aa fd 42 80 fc 45 00 80 cb 1e 00 00
       -2.1839e-41 -6.15214e-39 -2.5106e-41 1.1046e-41
000140 4d 08 00 80 24 2f 00 00 f3 5d 00 00 d3 9e 39 00
       -2.978e-42 1.6911e-41 3.3703e-41 5.291599e-39
000150 e5 b0 0c 80 2d 0a 00 00 d3 0d 00 00 18 ec 28 00
       -1.165484e-39 3.65e-42 4.959e-42 3.758114e-39
000160 3a 54 0e 00 06 ca 2b 00 4c 34 00 00 26 59 00 80
       1.315912e-39 4.021399e-39 1.876e-41 -3.198e-41
000170 47 58 00 00 6f 3f 00 00 48 4c 00 80 20 e9 ff 00
       3.1668e-41 2.2756e-41 -2.7365e-41 2.3501681e-38
000180 e0 e6 0f 00 e1 c0 21 00 7d 38 00 80 95 49 00 00
       1.460355e-39 3.099763e-39 -2.0264e-41 2.6396e-41
000190 6e 00 0b 80 4e f0 11 00 9d 48 00 80 54 05 00 00
       -1.010345e-39 1.647409e-39 -2.6049e-41 1.911e-42
0001a0 6a 16 0a 80 65 0a 00 80 8d 67 00 80 03 45 00 80
       -9.26396e-40 -3.729e-42 -3.7147e-41 -2.4757e-41
0001b0 bf 02 45 80 82 30 05 80 61 61 00 00 37 46 00 00
       -6.337634e-39 -4.76579e-40 3.4933e-41 2.5188e-41
0001c0 f7 25 00 00 7e 1b 00 00 53 1a 09 80 65 41 0d 01
       1.3619e-41 9.862e-42 -8.35963e-40 2.5944528e-38
0001d0 59 56 00 80 6d 10 00 00 c2 22 00 80 7b 06 00 80
       -3.0976e-41 5.892e-42 -1.2469e-41 -2.325e-42
0001e0 fc d3 16 00 9c 2f 00 80 5b 08 00 00 07 38 00 00
       2.096427e-39 -1.7079e-41 2.997e-42 2.0099e-41
0001f0 ab 62 00 80 0e 66 00 80 14 22 00 00 b5 1d 00 00
       -3.5395e-41 -3.661e-41 1.2225e-41 1.0657e-41
000200 d7 08 00 00 03 29 00 80 ca 41 00 00 c3 23 00 00
       3.171e-42 -1.4712e-41 2.36e-41 1.2829e-41
000210 2f 5a 00 00 ed 2a 00 80 93 28 61 80 bc cf a1 00
       3.2352e-41 -1.5399e-41 -8.922598e-39 1.4860036e-38
000220 f3 3a 00 00 41 5e 00 00 9b 18 00 80 74 51 00 00
       2.1147e-41 3.3812e-41 -8.827e-42 2.922e-41
000230 b5 2b 00 00 15 5a 00 80 6b 4c 14 80 15 50 00 00
       1.5679e-41 -3.2315e-41 -1.864124e-39 2.8728e-41
000240 d3 62 08 80 18 13 05 80 c2 6e 84 80 83 ee 0e 80
       -7.70135e-40 -4.66027e-40 -1.2162018e-38 -1.371259e-39
000250 31 d2 3c 00 8a 44 12 00 a9 43 00 80 65 2f 00 80
       5.585532e-39 1.677626e-39 -2.4272e-41 -1.7002e-41
000260 37 64 3d 80 f5 08 00 80 8b ae 18 00 98 1a 00 00
       -5.637916e-39 -3.213e-42 2.266666e-39 9.54e-42
000270 25 d4 10 80 35 1d 00 00 0c 71 08 00 03 52 00 00
       -1.545471e-39 1.0478e-41 7.75238e-40 2.942e-41
000280 57 0a 00 00 ae 1f 00 00 74 51 00 00 60 4d 11 00
       3.709e-42 1.1365e-41 2.922e-41 1.58896e-39
000290 dd 6b 00 00 ea 47 14 00 5a 64 00 00 5b 1d 00 80
       3.8694e-41 1.862508e-39 3.6e-41 -1.0531e-41
0002a0 95 84 78 80 51 36 00 00 d2 1f 00 00 e8 24 00 00
       -1.1067821e-38 1.9485e-41 1.1415e-41 1.324e-41
0002b0 ee 4d 00 00 be 44 00 00 1a b5 3c 80 77 43 37 00
       2.7956e-41 2.466e-41 -5.575097e-39 5.075154e-39
0002c0 4c 40 3f 80 bf f4 56 80 80 22 00 00 3f b9 08 80
       -5.808702e-39 -7.985651e-39 1.2376e-41 -8.01138e-40
0002d0 94 1f 00 80 4f 74 3b 00 ca 0f 00 80 f7 4e 00 00
       -1.1328e-41 5.460018e-39 -5.664e-42 2.8327e-41
0002e0 c6 21 00 80 15 5b 00 00 16 15 00 00 24 25 00 80
       -1.2116e-41 3.2674e-41 7.564e-42 -1.3324e-41
0002f0 d1 13 00 80 49 32 00 80 27 41 2d 00 f6 55 00 00
       -7.109e-42 -1.8039e-41 4.15597e-39 3.0837e-41
000300 fd 02 00 80 a2 25 00 80 d5 3c 00 00 4d 5f 00 80
       -1.072e-42 -1.35e-41 2.1822e-41 -3.4187e-41
000310 70 17 00 80 bb 34 00 80 f2 0f 00 80 3b 42 00 80
       -8.408e-42 -1.8916e-41 -5.72e-42 -2.3759e-41
000320 0c 3f 00 80 38 3e 00 00 b4 0c 00 80 0f 2f 00 80
       -2.2617e-41 2.232e-41 -4.557e-42 -1.6881e-41
000330 d8 9e 17 00 af 2e 0b 00 2a 2f 00 00 8e 5a 00 00
       2.169199e-39 1.026937e-39 1.6919e-41 3.2485e-41
000340 82 02 1e 80 a2 17 00 80 03 4f 00 80 80 38 00 00
       -2.755965e-39 -8.478e-42 -2.8344e-41 2.0268e-41
000350 f0 39 00 80 5d 54 00 80 55 34 00 00 23 1f 00 80
       -2.0784e-41 -3.0264e-41 1.8773e-41 -1.117e-41
000360 e2 00 00 80 d5 31 00 00 dc 5f 3c 81 63 6a 00 00
       -3.17e-43 1.7876e-41 -3.4598922e-38 3.8164e-41
000370 0a 19 14 80 22 55 00 00 3d 34 00 00 8d ff 31 80
       -1.845692e-39 3.054e-41 1.874e-41 -4.591614e-39
000380 34 5e 00 80 dd 2d 00 80 d5 5c 00 00 8d 65 00 00
       -3.3794e-41 -1.6453e-41 3.3302e-41 3.643e-41
000390 b8 23 00 80 60 05 00 80 b9 09 00 80 9c 6a 13 00
       -1.2813e-41 -1.928e-42 -3.488e-42 1.783119e-39
0003a0 62 51 00 00 18 2e 00 00 31 63 00 00 31 2d 00 00
       2.9195e-41 1.6535e-41 3.5583e-41 1.6212e-41
0003b0 43 26 00 80 57 21 00 00 3c c7 09 00 a2 6c 00 00
       -1.3726e-41 1.196e-41 8.97991e-40 3.897e-41
0003c0 4f d2 05 80 a8 17 22 80 f1 0e 00 00 cd 30 00 80
       -5.34622e-40 -3.130893e-39 5.36e-42 -1.7506e-41
0003d0 31 6e 00 80 24 33 00 80 ef 54 00 80 ff 0b 00 80
       -3.9529e-41 -1.8346e-41 -3.0468e-41 -4.303e-42
0003e0 07 94 3f 80 7f fe 0b 00 ee 06 00 00 8c 22 00 00
       -5.838738e-39 1.101486e-39 2.486e-42 1.2393e-41
0003f0 f7 24 13 80 f3 36 00 00 27 43 00 00 8c 0e 00 00
       -1.758135e-39 1.9712e-41 2.409e-41 5.218e-42

Actor.mean_fc3.bias f4 [17]
000000 94 68 00 80 0f 6a 00 00 15 41 00 00 21 71 06 00
       -3.7516e-41 3.8047e-41 2.3347e-41 5.91596e-40
000010 86 0a 00 80 30 34 00 00 6b 30 1a 00 bd ca 13 00
       -3.775e-42 1.8721e-41 2.405092e-39 1.817603e-39
000020 15 b6 15 80 b5 20 13 00 49 ce 05 80 12 6a 00 80
       -1.993864e-39 1.756607e-39 -5.33179e-40 -3.8051e-41
000030 0b 30 00 80 e7 04 00 80 0b 1a 00 00 9d 1b 00 00
       -1.7235e-41 -1.759e-42 9.342e-42 9.906e-42
000040 cd 12 00 80
       -6.744e-42

Actor.log_std_fc3.weight f4 [17, 32]
000000 c6 e4 b7 bc a9 ce 41 bc 09 27 be bd 03 58 5c bc
       -0.022447955 -0.011829057 -0.09284789 -0.013448718
000010 43 79 a2 bc 4d 2b 59 bc 5e 08 5b bc 7c 98 8b bd
       -0.019833213 -0.013254953 -0.013368694 -0.068161935
000020 90 bc 3a bc c9 f2 f0 bd f5 4e 4e bc 79 84 d9 bd
       -0.011397496 -0.117650576 -0.012592067 -0.1062097
000030 bb 16 07 bd 91 aa 87 bc 84 1e 7f bd 6d 56 3b bc
       -0.03298066 -0.016560825 -0.06228496 -0.01143418
000040 1d ce 98 bc 40 06 6f bc 00 d6 bc bd 5d 44 1f bc
       -0.01865297 -0.014588892 -0.09220505 -0.009720889
000050 67 66 3a bc 07 d6 86 bc 80 ec 4b bc e1 7e 26 bc
       -0.011376954 -0.016459478 -0.012446523 -0.010162086
000060 b4 98 32 bc 03 bc 0b bc a1 4f 0d bc d2 97 11 bd
       -0.010900665 -0.008528712 -0.008624942 -0.035545178
000070 b9 02 13 bc 51 77 83 bc 85 ac 86 bc ee ed 94 bc
       -0.008972817 -0.016048105 -0.016439686 -0.01817986
000080 f4 5d c6 bc 45 58 2e bc 15 34 b2 bd 35 da ca bc
       -0.024214722 -0.010641162 -0.0870134 -0.024762252
000090 c4 88 3e bd f8 93 1b bc a9 ed a9 bc 33 69 85 bd
       -0.04651715 -0.009495728 -0.020743208 -0.06514206
0000a0 b9 bb 8d bc b7 0f b9 bd 8a d3 22 bc 8d d7 a9 bd
       -0.017301427 -0.090362005 -0.00993813 -0.08293066
0000b0 27 46 68 bd 5a b9 8e bc f4 25 6a bd 35 53 13 bc
       -0.056707527 -0.017422367 -0.0571651 -0.008992006
0000c0 83 fb c5 bc 9a 98 6e bc 54 01 a1 bd bc ea 98 bb
       -0.024167782 -0.01456275 -0.078615814 -0.0046666544
0000d0 ae f4 15 bc d6 02 b6 bc 69 c1 96 bc 17 3c 17 bc
       -0.009152574 -0.02221815 -0.018402772 -0.009230635
0000e0 78 06 ef bb 02 a5 41 bc ba 3c f9 bb a7 b8 2e bd
       -0.0072944723 -0.011819126 -0.007606116 -0.042656567
0000f0 ca 13 59 bc 5d 45 a5 bc 40 d2 87 bc 5d a8 d9 bc
       -0.013249347 -0.020174677 -0.016579747 -0.02656954
000100 0d 5d a8 bc 15 86 36 bc ce a5 b5 bd 9b 22 ed bc
       -0.020552183 -0.011140366 -0.08869515 -0.028947165
000110 18 44 16 bd 14 69 78 bc b0 09 7f bc 4c 0d 84 bd
       -0.036686033 -0.015161771 -0.0155662745 -0.06447849
000120 29 a7 be bc 12 64 c4 bd 9c c6 13 bc 49 e0 ad bd
       -0.023273068 -0.095893994 -0.00901952 -0.084900446
000130 b1 ab 44 bd 8a d8 81 bc 14 78 7b bd f4 91 91 bb
       -0.0480153 -0.015850324 -0.061393812 -0.004442448
000140 9e 67 c1 bc a4 03 90 bc 2a 8d 9d bd e2 74 dd bb
       -0.023608979 -0.017579861 -0.076929405 -0.0067583183
000150 d4 9a 23 bc 5f 7e c5 bc 1f 0c 8f bc 30 6c e4 bb
       -0.009985644 -0.02410811 -0.017461834 -0.006970905
000160 79 5e 02 bc 12 19 28 bc e6 e5 b1 bb 78 0f 26 bd
       -0.007957094 -0.0102598835 -0.0054290174 -0.040542096
000170 aa 10 88 bc 61 b4 ad bc 08 23 59 bc e8 25 ef bc
       -0.016609509 -0.021204175 -0.013252981 -0.02919288
000180 f0 fc e2 bc 1d df 37 bc 04 13 a8 bd 51 e0 dd bc
       -0.0277085 -0.011222628 -0.08206752 -0.027084501
000190 7d e7 5b bd 15 7a 3f bc 6b 12 92 bc ad 52 86 bd
       -0.05368756 -0.0116868215 -0.017831048 -0.06558738
0001a0 d8 10 9f bc ee 70 ad bd 8e 22 07 bc fb 2e a5 bd
       -0.019417211 -0.08468805 -0.008247985 -0.080656014
0001b0 6b b4 6d bd 42 a5 6c bc 8e 89 72 bd 9d 4d bd bb
       -0.058033388 -0.014443697 -0.059213214 -0.0057770745
0001c0 26 18 b5 bc 86 8d 5a bc af 19 a3 bd a5 96 0a bc
       -0.022106241 -0.013339406 -0.07963883 -0.008458768
0001d0 08 7f 27 bc 7d d1 b1 bc 87 25 84 bc d1 b6 d4 bb
       -0.010223158 -0.021706337 -0.016131176 -0.00649152
0001e0 28 1e 17 bc 36 73 47 bc 29 49 d7 bb 8c ec 28 bd
       -0.009223498 -0.0121734645 -0.0065700007 -0.041241214
0001f0 d9 c5 80 bc 67 9a a2 bc 91 db 80 bc f8 07 ed bc
       -0.015719341 -0.019849015 -0.015729697 -0.028934464
000200 fd c5 cb bc 80 57 69 bc 62 f2 ad bd c3 5d ea bc
       -0.024874682 -0.014242053 -0.084934965 -0.028609162
000210 41 42 23 bd 47 98 7b bc ed d2 94 bc c4 25 87 bd
       -0.039858107 -0.01535613 -0.018166984 -0.06599
000220 37 f8 ba bc f6 10 ba bd 30 cc 8c bb 08 8f a3 bd
       -0.022823436 -0.09085266 -0.004296802 -0.079862654
000230 8b 70 42 bd 9c fa 89 bc 55 c3 74 bd 8a d5 9b bb
       -0.04747061 -0.016843133 -0.059756596 -0.0047556804
000240 12 4c c9 bc df 10 88 bc 14 8e 9c bd 0a 4a 26 bb
       -0.024572406 -0.016609607 -0.07644287 -0.002537372
000250 00 5e 23 bc a1 1c b3 bc 0c 3f 9a bc 40 b2 1a bc
       -0.009971142 -0.021864237 -0.018828891 -0.009441912
000260 34 95 05 bc e6 46 2e bc 74 10 02 bc 14 d0 1d bd
       -0.008153249 -0.010637021 -0.007938493 -0.038528517
000270 91 f8 71 bc 75 c2 cf bc 7a 4e 99 bc 86 9f da bc
       -0.0147687355 -0.025361279 -0.018714178 -0.026687395
000280 b3 1c dc bc a3 48 14 bc 93 80 a9 bd e1 a4 c7 bc
       -0.026869154 -0.009050521 -0.08276477 -0.024370613
000290 14 9f 49 bd f9 6f 64 bc d0 7b a1 bc c5 68 85 bd
       -0.049223974 -0.013942712 -0.019712359 -0.06514124
0002a0 7d 7d 7a bc b9 01 aa bd 8c 19 b2 bb da 93 a5 bd
       -0.015288708 -0.0830111 -0.0054351743 -0.08084841
0002b0 98 9b 7c bd f4 a4 8d bc e5 02 5a bd e0 c4 11 bc
       -0.061671823 -0.01729057 -0.053225417 -0.008897036
0002c0 e2 a8 bd bc 6c 9a 81 bc 6d 62 aa bd 35 6d 18 bc
       -0.023151819 -0.015820704 -0.083195545 -0.009303381
0002d0 aa a7 09 bc 44 a5 a9 bc b7 d0 86 bc ed 18 c7 bb
       -0.008401791 -0.020708688 -0.016456945 -0.0060759694
0002e0 37 dd b3 bb a5 fd 46 bc 50 96 09 bc 55 fc 31 bd
       -0.0054890173 -0.0121454345 -0.008397654 -0.043453533
0002f0 80 48 7b bc fc d6 b4 bc f4 f4 5c bc f0 c7 d0 bc
       -0.01533711 -0.022075169 -0.013486136 -0.025485963
000300 01 cc 0e bd 84 5e 4b bc 82 20 b4 bd ec 64 d0 bc
       -0.034862522 -0.012412671 -0.08795263 -0.025438748
000310 fd 0b 91 bd be 28 48 bc bb f6 95 bc 33 31 24 bd
       -0.07082365 -0.012216745 -0.018306127 -0.040085983
000320 2c e8 cb bc 33 14 b8 bd 6f d7 b8 bb 35 46 a3 bd
       -0.024890982 -0.08988228 -0.005640916 -0.07972375
000330 9b eb 59 bd 22 2b a7 bc 78 60 22 bd ca 82 d2 bb
       -0.053203207 -0.02040631 -0.03964278 -0.0064242827
000340 83 5c bb bc 8e 19 7c bc a3 84 9e bd c8 a1 9c bb
       -0.022871261 -0.015386952 -0.07740142 -0.004780028
000350 5b 4a 3b bc 97 91 b4 bc 95 c3 81 bc ed 0f de bb
       -0.011431302 -0.022042079 -0.015840331 -0.006776801
000360 d4 7f d1 bb 67 64 43 bc 8f 6e c3 bb 48 18 10 bd
       -0.006393412 -0.011925793 -0.0059641073 -0.035179406
000370 34 f2 8a bc c2 ae 96 bc ba e9 9c bc 6a 59 e9 bc
       -0.016961195 -0.018393878 -0.019154418 -0.028485019
000380 fe fb a0 bc e1 83 73 bc 0d 2f b2 bd 5c 33 e5 bc
       -0.01965141 -0.014862985 -0.087003805 -0.027978592
000390 93 d4 24 bd 65 12 4e bc 4d 80 7d bc 83 48 88 bd
       -0.04024179 -0.012577628 -0.015472484 -0.066544555
0003a0 dc 70 b1 bc 22 43 c2 bd 92 73 dc bb c0 6c a4 bd
       -0.02166026 -0.09485461 -0.0067276442 -0.08028555
0003b0 ef 7d 4f bd ff 68 a1 bc 9e 9f 79 bd 95 84 c0 bb
       -0.05065721 -0.019703386 -0.06094324 -0.00587518
0003c0 15 0e b4 bc 54 05 93 bc c0 bc 9d bd 55 0e 77 bb
       -0.021979371 -0.017946877 -0.07702017 -0.0037697752
0003d0 d9 74 f4 bb 41 34 b2 bc 5a c4 a0 bc 78 64 32 bc
       -0.0074602184 -0.021753432 -0.019624878 -0.010888211
0003e0 50 41 cc bb f5 76 13 bc c6 4b 14 bc 23 e2 29 bd
       -0.006233372 -0.00900053 -0.009051269 -0.041475426
0003f0 4d 64 87 bc 01 0b be bc ff 01 8d bc a0 eb ea bc
       -0.01652732 -0.023198606 -0.017212866 -0.028676808

Actor.log_std_fc3.bias f4 [17]
000000 42 0a a3 bc bd ac 77 bd 1d 44 95 bd e9 de 88 bd
       -0.019902352 -0.06046747 -0.07288382 -0.06683142
000010 0a d8 9d bd 4d 32 6c bd c9 6a 99 bd f5 4d 92 bd
       -0.07707222 -0.057665158 -0.07491071 -0.071437754
000020 f3 6f df bc ad c1 9d bd 2f 7b 9b bd 77 09 75 bd
       -0.027275061 -0.07702956 -0.07591855 -0.05982348
000030 d8 64 12 bd ac 93 8d bd 34 a8 ac bd 1e e9 4e bd
       -0.035740703 -0.06912932 -0.0843052 -0.050515287
000040 8c de 71 bd
       -0.059050128

Critic.fc1.weight f4 [32, 378]
000000 b4 fd 51 3e e3 fd 47 3d 17 68 b2 3d 90 d3 36 3d
       0.20506936 0.04882611 0.0871126 0.044635355
000010 7b 76 c4 bc d6 4d 16 bc d5 cc 97 bc 4a 6a 86 3d
       -0.023982277 -0.009173831 -0.018530289 0.06563242
000020 cd ec be bc 28 a7 f4 3c a5 fa 13 3d e7 24 f3 3c
       -0.023306275 0.029864863 0.036127705 0.029680682
000030 28 9d c3 bc 7f 37 ed bc b0 e9 57 3d c7 7b 8d 3d
       -0.023878649 -0.028957127 0.052713096 0.06908374
000040 87 ea 1d bd 44 bd 98 bc 8e a1 21 3d f2 e3 ca bd
       -0.03855374 -0.018644936 0.03946071 -0.09906758
000050 69 20 98 bd e6 16 0b bd 0b b5 79 3d f0 bc c9 bd
       -0.07428057 -0.033957385 0.06096367 -0.0985049
000060 38 a5 5b 3e a9 18 9e 3c ab 52 b0 3c 5a 75 08 3c
       0.21449745 0.019298868 0.021523794 0.00832876
000070 33 a1 0f 3c 66 99 36 bd 58 5a 7c bc 33 a3 d4 bc
       0.00876646 -0.044579886 -0.015402399 -0.025956726
000080 93 43 86 3d 16 2f 0d 3d fa f4 5c bc 7c e7 62 3d
       0.065558575 0.034468733 -0.013486141 0.055396542
000090 52 34 5d bd 54 0f d5 bc d3 7f 0d bd 34 dd 56 3d
       -0.054004975 -0.026008286 -0.03454573 0.05245705
0000a0 7f e8 a7 bd fc 82 eb bb 24 15 ee 3c ea d0 8a bc
       -0.08198642 -0.0071872454 0.029062815 -0.016945321
0000b0 e5 3f 20 3c 59 bb 96 3d cf 3c 21 3d 53 7a c9 3c
       0.009780859 0.073599525 0.039364632 0.024594462
0000c0 63 9e 2d bc 68 bb 0b 3d 85 c6 03 3b 6a ac 83 3c
       -0.010596844 0.03411427 0.002010734 0.016073424
0000d0 2f 84 da 3c 34 3d 9c 3c af 13 42 3d 7c 37 06 3d
       0.026674358 0.019072153 0.047382053 0.032767758
0000e0 8d ec e3 bc 84 51 46 3d 57 2b 5a 3d 11 af 40 3b
       -0.027822757 0.048417583 0.05326399 0.0029401223
0000f0 b8 da 57 3d 94 24 aa bd 90 08 9a bd 9f df d2 3c
       0.05269882 -0.08307758 -0.075211644 0.025741396
000100 3b 83 2c 3c e4 45 58 3d ff 63 73 3d 09 1f c2 3d
       0.010529335 0.052801028 0.059421536 0.09478576
000110 08 28 90 3c 02 2c bb b7 ca dd 88 3c 87 9c 82 3d
       0.017597213 -2.231263e-05 0.01670732 0.063775115
000120 35 ad c3 bb 61 59 a8 3b b3 f7 0d bd 26 ad 9f 3c
       -0.0059715756 0.005137608 -0.034660053 0.019491743
000130 d3 e8 3c 3d 0d 7c 8f 3d b3 e8 a9 3d 9e 55 9c 3d
       0.046120476 0.07006083 0.08296337 0.07633518
000140 67 17 02 bc 43 da 63 3d c0 1f 53 bb 43 8e cb bc
       -0.00794015 0.055628072 -0.003221497 -0.02484811
000150 df 39 9f bd 36 55 56 3d de bc 8c 3d 00 e0 4d 3d
       -0.0777471 0.052327357 0.06871961 0.05026245
000160 db 68 54 3d 55 55 41 3d 65 b1 1f 3d e9 fd d9 3c
       0.05185781 0.04720052 0.038987536 0.026610332
000170 52 5c bc bd 1e e8 35 3b 17 ce 95 bd 19 ef 71 bd
       -0.09197296 0.002775676 -0.07314699 -0.059065912
000180 f6 23 d7 3c 85 6e b6 3d 93 52 cd 3d f4 47 6a 3d
       0.026262265 0.08907799 0.100255154 0.057197526
000190 e0 f4 a7 bc 56 80 80 bd 3c 19 a7 bb 1e b7 e8 bb
       -0.020502508 -0.06274478 -0.0050994437 -0.0071019074
0001a0 3a a2 99 bc 00 ec 4d bd 7f 83 8c 3c 92 06 09 3d
       -0.018754113 -0.050273895 0.017152546 0.03345353
0001b0 dc 42 11 3d 4d d9 f8 3d 17 de 31 be 6f dc 48 be
       0.035464153 0.12150822 -0.17369877 -0.19615339
0001c0 d6 8e a4 bd 61 f5 77 be fa 2c 92 bd bb 5d 9d bd
       -0.08035056 -0.24214698 -0.07137485 -0.07683893
0001d0 ed 3d b8 3d b6 c5 98 3c 39 f7 53 3d f9 b6 76 3d
       0.089961864 0.018648963 0.05174944 0.06023309
0001e0 ce bd 15 3b de f2 8d 3d a4 cd 90 3d 30 ae ba 3d
       0.0022848728 0.06931089 0.07070473 0.09115255
0001f0 5e fe 8c 3d 92 3f 2d bd e7 50 99 3d 5d 2f 36 3c
       0.06884454 -0.042296953 0.07486134 0.011119691
000200 15 c0 64 3d 1c 1f 7f 3c 46 76 37 3d 69 ff db bd
       0.055847246 0.015571382 0.04479053 -0.10742075
000210 2e b4 d2 3d e9 8d 5e bd d0 18 83 3d 8a 33 aa bc
       0.10288273 -0.054334555 0.06401217 -0.020776529
000220 12 04 72 3d bb c7 84 3d 06 6b a0 3d c0 95 58 3d
       0.059085913 0.06483408 0.07832913 0.052877188
000230 69 e1 26 3e 5b b8 2b be f4 ff 55 3d bb 4e 48 be
       0.16296925 -0.16769545 0.05224605 -0.19561283
000240 c2 55 c3 3d 4c c3 2e bd 5d fd 6d 3d 17 11 c1 3d
       0.095378414 -0.04266672 0.058102954 0.09427088
000250 d8 99 70 3d ce 76 a4 3c ef 7f a2 3d c9 b9 ce bc
       0.058740467 0.020076182 0.07934558 -0.025235074
000260 38 0f d1 3d 41 fd b5 3d e5 ea d0 bd 79 0f a8 3d
       0.10207981 0.08886195 -0.102010526 0.08206076
000270 b3 41 66 3d 2b 49 8d bc aa e4 40 3d 89 e2 39 3d
       0.056215 -0.017246803 0.04709307 0.045382056
000280 bf e0 6c b9 7e d1 45 3c a4 a2 38 bc 03 a2 44 3c
       -0.00022590438 0.012073873 -0.011269245 0.012001517
000290 08 d9 9b bd 34 82 75 3d 4f aa 20 3d 52 21 b6 3d
       -0.07609755 0.059938625 0.03922492 0.08893074
0002a0 ba e9 cc 3d be f8 a8 3c ed 4b 9e bd 93 ac b4 bd
       0.10005517 0.020626422 -0.077293254 -0.088219784
0002b0 0d b7 e9 bc 2c f9 e0 3d 54 b3 c5 3d 5a 40 f6 3c
       -0.028529668 0.10985026 0.09653345 0.030059982
0002c0 f8 63 9c 3c b0 0b 5e bc e2 39 95 bc d5 7b 88 3d
       0.019090638 -0.013552591 -0.018216077 0.06664244
0002d0 ab 09 85 bd e4 81 53 bd 33 76 bf bb 40 bd 80 3d
       -0.06495985 -0.051637545 -0.005842948 0.062860966
0002e0 27 76 b4 3b 82 32 97 3d 77 8d 46 3d e5 be 34 bc
       0.005507249 0.073826805 0.048474755 -0.011031841
0002f0 e5 d4 0f 3a a8 79 0a 3d 8a 3a 22 bc 65 6c ec bc
       0.0005486741 0.033807427 -0.009901652 -0.02886028
000300 36 f9 b6 3c 1b b9 e6 3b a4 c7 18 bd 0e 32 70 bd
       0.02233563 0.0070411093 -0.037299767 -0.058641486
000310 ca 1c 07 3e 86 76 45 bc b1 4c 53 3b 56 ee 1e bd
       0.13194576 -0.012052184 0.0032241757 -0.038801514
000320 c4 76 98 bd b9 0d 98 3c d4 42 e8 3d 56 54 9b b9
       -0.07444528 0.018561231 0.113408715 -0.0002962674
000330 8e 13 a7 bd f6 69 eb bc 05 6d b4 bd 5d 37 e1 3b
       -0.08158027 -0.02873705 -0.08809856 0.006873055
000340 1b a5 1c 3e 29 1c 44 bc 1b c6 e5 ba ba fc 8d 3a
       0.15297358 -0.0119696045 -0.0017530354 0.0010832765
000350 65 d6 61 3c 3e 39 34 3d 7a c7 17 3e 5a c1 5c bd
       0.013784026 0.043999903 0.14822188 -0.053895332
000360 7a b6 2d bd d0 ed 4d 3d be f7 cf 3d c4 ca 94 3b
       -0.04241035 0.050275624 0.10154675 0.004540773
000370 1a ee 6b 3d bd 4f 2d 3d b3 f6 94 bb 71 b1 86 3c
       0.05760012 0.042312372 -0.0045460104 0.016442033
000380 09 d8 bf 3d 86 10 63 3d c5 ae d1 3d 69 ab 14 bd
       0.09367377 0.05543568 0.10238413 -0.036296282
000390 d6 60 a1 bb f8 63 01 bb e5 c4 42 bd 83 51 de 3c
       -0.004924874 -0.0019743424 -0.047551055 0.027138477
0003a0 3d 20 cf 3d 4b be 73 3b 9c e7 71 3c 89 09 11 3d
       0.10113571 0.003719228 0.014764693 0.035409484
0003b0 b1 cf 1e 3d 0f 83 13 bd c6 9b 7e 3d 63 cb 32 3c
       0.03877229 -0.03601366 0.062160276 0.010912749
0003c0 22 1c 10 bd fb 1e 37 3c fb c9 a6 3c 5b d3 f5 bb
       -0.03518308 0.01117682 0.020359984 -0.007502002
0003d0 ab 08 e6 3d 84 21 22 bd de 7e 98 3c ae 0c 75 3c
       0.11232122 -0.039582744 0.018615182 0.014956636
0003e0 17 25 94 bb b7 2b 59 bd 42 8d 02 bb 75 34 2d bc
       -0.004521023 -0.053020205 -0.0019920622 -0.010571589
0003f0 64 bc 1b bd 89 d9 8b bc ca e8 f8 3b 6b bf 93 bd
       -0.03802146 -0.017071502 0.00759611 -0.072142445

Critic.fc1.bias f4 [32]
000000 66 98 85 3d cf fa a6 3b c1 a0 52 3d 33 88 89 3d
       0.06523208 0.0050958167 0.051422838 0.06715431
000010 7f f7 a0 3d 3c 6a f4 bb d7 8a 33 3c 86 6f 18 bd
       0.07859706 -0.007458953 0.010958395 -0.037215732
000020 f7 6b 66 3d f9 d2 c3 3d df 88 26 bd 67 26 08 3c
       0.056255307 0.09561724 -0.040657874 0.008309937
000030 ce e7 01 bd ea 43 78 3c c8 6c 75 3d 8b 50 bb 3c
       -0.031715207 0.015152911 0.059918195 0.022865554
000040 99 ec fe bc 8c 97 81 3d 38 4b 76 3d 8b d8 9a 3c
       -0.031118678 0.063277334 0.060130328 0.018902084
000050 67 52 32 3d 90 c3 f6 3c 8a f6 ae 3d 7d 98 92 bc
       0.043535616 0.030122548 0.08543117 -0.017894978
000060 73 ba 37 bc f6 20 27 3d 48 a0 db bc 5f b8 dc 3c
       -0.011213887 0.04080292 -0.026809826 0.026943384
000070 f3 11 d3 3d 93 8c 6a 3d 4b dc b4 3c b6 cb c4 3d
       0.10306158 0.05726297 0.0220777 0.09609167

Critic.fc2.weight f4 [32, 32]
000000 1a b9 14 3e 1d 7f 0a be 11 1f 02 3e 78 33 fc 3d
       0.14523736 -0.13525052 0.12707163 0.123145044
000010 11 32 d7 3d 8b 14 ab bd cf 53 29 bc 62 be 9a 3c
       0.10507596 -0.08353528 -0.010334923 0.01888961
000020 1a d5 41 3c 43 8d b3 3d 97 da 1e bd 38 c8 bd 3c
       0.0118305925 0.08767178 -0.038782682 0.02316676
000030 67 cc 53 be fd 4e 9d 3c 34 03 0a 3e 98 c7 c2 3d
       -0.20683442 0.019202704 0.13477784 0.09510726
000040 5e 53 0a 3a 18 b1 38 3e d4 dc b3 bc 7a 99 b9 3d
       0.0005276705 0.18036306 -0.021955885 0.090624765
000050 8b 0b 8d 3d 4a da 88 3c 10 33 a6 bd 14 f2 6f bd
       0.06886967 0.01670565 -0.08115208 -0.058580473
000060 40 9a 20 3e 1a 53 91 bc 1e 6e 49 bd 34 f6 d6 bd
       0.15683842 -0.017739821 -0.04917728 -0.10496178
000070 91 e8 fd 3d ad 2b c1 bd 3f fd 13 3e 14 27 8f bd
       0.12397874 -0.094321586 0.14452074 -0.069898754
000080 f6 da 95 3d 60 c5 d4 bd 36 e0 3e 3d 9d e3 54 3e
       0.07317154 -0.10389209 0.046600543 0.20789953
000090 94 1b 42 3e 6b ed d7 bd 63 14 d6 3d 70 e9 02 be
       0.18955833 -0.10543331 0.10453107 -0.12784362
0000a0 a3 91 06 3e ac f2 e0 bc 9a 8f 28 bd 24 80 83 bd
       0.13141493 -0.027459465 -0.041152574 -0.06420925
0000b0 a8 1e 44 be ce 17 e8 3d 4a e1 d5 3d 45 ea c2 bd
       -0.1915232 0.113326654 0.10443361 -0.095173396
0000c0 96 cc 77 bd 49 60 fa 3d 2b 8a 52 3e cc f5 e9 3d
       -0.060497843 0.12225396 0.2056052 0.11423835
0000d0 c8 50 7f 3d 31 6a b9 bc 6e 32 99 bc ba 2c 3d bd
       0.0623329 -0.022633644 -0.018700805 -0.046185233
0000e0 0b a1 d8 3d 60 0c 9a bd b4 2d b5 3d c3 0a 24 be
       0.105775915 -0.075218916 0.08846608 -0.1601973
0000f0 1c 78 68 bc 15 88 93 3d 75 c2 fc 3d 76 c5 4b 3e
       -0.014188793 0.0720369 0.12341777 0.19899544
000100 17 87 eb 3d 21 44 12 be e7 ce aa 3b 98 13 a1 3d
       0.11500376 -0.14283802 0.005212653 0.07865065
000110 20 4e 57 bd 0a b4 70 3d b1 1d 8d 3d f8 8e 8a bd
       -0.05256474 0.05876545 0.06890429 -0.067655504
000120 1c 32 f0 3d 23 c0 05 bd 1f 09 fb bc e9 c9 c9 bd
       0.117283076 -0.03265394 -0.030643998 -0.098529644
000130 8e 81 3d be 80 93 97 3d 68 ad 23 3e c2 e3 b1 bb
       -0.18506452 0.0740118 0.15984118 -0.005428762
000140 03 99 a4 bd 05 22 81 3d 61 db 05 3e 32 1f a5 3d
       -0.08036997 0.06305317 0.13071968 0.08062591
000150 dc b8 e1 3c b1 2b 07 3e 36 53 5d 3e aa 03 18 be
       0.027553968 0.1320026 0.21613774 -0.14845148
000160 48 83 08 be dc 13 43 3d 2d 1d ef 3d 10 a3 0e 3e
       -0.1333133 0.04762636 0.11675487 0.13929391
000170 74 ed cd ba dd 56 c3 bd 32 3d 96 bd 08 fe 33 3e
       -0.0015711025 -0.09538052 -0.07335891 0.17577374
000180 77 68 0d be f7 17 ac 3c 4f ec e8 bd 63 dd 72 3d
       -0.13809381 0.021007521 -0.11373197 0.059293162
000190 0c 33 87 bd 83 fe b0 3a fe c2 28 3d d3 3f 99 bd
       -0.06601533 0.0013503585 0.041201584 -0.07482877
0001a0 7b 0d 88 3d 83 58 02 3e 9c fb e5 3d ac 52 83 3d
       0.06643196 0.12729077 0.11229631 0.06412253
0001b0 f2 b1 bc 3d 87 f1 24 3e 96 9a 19 3d 87 a3 33 3e
       0.09213628 0.1610776 0.03750094 0.1754285
0001c0 d2 ac ba 3d 36 be bb 3c 08 8d 70 bd 88 2a b4 bd
       0.09114994 0.022917848 -0.058728248 -0.08797175
0001d0 f0 a7 35 bd ee 5f f5 bd 1d f5 fa bd ca 72 0f be
       -0.04434961 -0.11981188 -0.12253783 -0.14008632
0001e0 53 22 1f 3e 38 44 b6 bd 81 e3 e5 3d 18 ac eb 3d
       0.15540437 -0.088997304 0.112250336 0.11507434
0001f0 ca 1b c9 3d 3e 5a 2e 3e ef 60 52 bd 5e 47 19 be
       0.098197535 0.17026612 -0.051361974 -0.1496863
000200 f7 a3 ce 3d d2 37 41 be 31 cb 3a 3e 9c b1 00 be
       0.100898676 -0.1886895 0.18241574 -0.12567753
000210 65 53 e9 bd 76 b9 56 3e 90 a0 16 3e 07 3a d9 bd
       -0.11392859 0.20969185 0.14709687 -0.10606771
000220 fa e8 31 3e 8b 8a a6 3d 8a 7c b8 3c 78 bc 1d 3d
       0.1737403 0.08131894 0.022520322 0.038509816
000230 a6 74 04 3e e2 7a db 3d 55 f2 19 3d 61 5c 05 be
       0.12935123 0.107167974 0.03758462 -0.13023521
000240 61 86 f1 bd bc 77 8d bb 80 8b 0c be 09 25 e9 bd
       -0.11793209 -0.004317252 -0.1372509 -0.11384017
000250 32 b2 98 3d 14 5e cb bd 27 d8 15 bd 52 df 13 be
       0.07455863 -0.09930053 -0.036583092 -0.14440659
000260 26 c4 c4 3d 62 3f c7 3d 6e 5c 34 3e 61 84 5b be
       0.09607725 0.09728886 0.17613384 -0.21437217
000270 44 ca 97 3c 2c 3c 23 bc e4 ed b9 bb 7c 45 51 3d
       0.018529065 -0.009963077 -0.0056741107 0.051091656
000280 a8 e3 11 be 64 7c da 3d 46 6d 88 3d 81 93 95 bd
       -0.14247 0.10668257 0.06661467 -0.07303525
000290 4c d0 89 bc 5e 0f a1 3d 58 0c 19 3d 9f 52 8a 3c
       -0.016822957 0.07864259 0.037365288 0.0168851
0002a0 8f d1 d8 3d 19 f2 00 bd b3 2a 09 be 70 ac 19 be
       0.10586845 -0.031480882 -0.13395195 -0.15007186
0002b0 25 9f fd 3d 8b ec 86 bd 23 8f e0 3d e8 d4 36 3d
       0.1238387 -0.06588086 0.10964801 0.044636637
0002c0 d3 07 0b 3e ea cf 05 be 27 bf e8 bd 36 1e ca 3d
       0.13577203 -0.13067594 -0.113645844 0.098690435
0002d0 e0 e1 2b 3c 77 44 cb 3d 86 05 2e 3e 70 26 d2 bd
       0.0104908645 0.09925168 0.16994295 -0.102612376
0002e0 32 77 cc 3d 97 a5 27 3d e5 97 79 3d 3a c7 ec 3d
       0.09983672 0.040929403 0.060935874 0.11561437
0002f0 b2 e2 99 bb 4c a2 0d be ad b9 a4 bd a5 2c 0a 3e
       -0.0046962136 -0.13831443 -0.08043227 0.13493593
000300 16 10 a9 bc 9e e2 6c bd b1 64 cd bd 41 98 21 3d
       -0.020637553 -0.057833306 -0.10028971 0.03945184
000310 5e c3 49 3e 30 74 06 be 24 4d 0d be 29 80 ab bd
       0.19703433 -0.1313026 -0.13798958 -0.08374054
000320 88 03 d5 3d 73 c4 f9 bd a4 58 a6 bd b6 29 5f 3e
       0.10401064 -0.12195673 -0.081223756 0.21793255
000330 d7 0c 45 be 3f 6d 14 3d e1 64 ab bd ad bc 44 3e
       -0.1924318 0.036236998 -0.083688505 0.19212599
000340 35 f3 a6 bd e3 e9 48 3e 3e 0f 2a bd 93 45 17 3d
       -0.08151857 0.1962047 -0.041518442 0.036931586
000350 36 ca f3 bd ab d7 21 3d 2e db 05 3e 8a e1 d8 bb
       -0.11903803 0.039512318 0.13071892 -0.006618683
000360 7b 79 f0 3d 7e 08 90 bd 42 4d f5 3d 03 a4 b8 3c
       0.117419206 -0.0703287 0.119776264 0.022539144
000370 a1 8f 49 3e ef 71 9f bd 33 1b 5a bd ca ef 8e bc
       0.19683696 -0.07785403 -0.053248595 -0.017448325
000380 3b a8 d2 3c 9f 68 ed bd 4a ec e9 3b 50 f7 1b 3e
       0.025714984 -0.115922205 0.0071387636 0.15231061
000390 0a ab 08 3e 60 91 ce 3d 94 99 87 bd 28 b5 15 be
       0.13346496 0.10086322 -0.066210896 -0.14619887
0003a0 9e 31 2f 3e 83 66 90 3c a8 5e 89 3c ba f7 4a 3e
       0.17108771 0.017627006 0.016768768 0.19821063
0003b0 66 02 10 be 86 c7 b4 bd 80 43 45 3e e6 6a 31 3d
       -0.14063415 -0.088271186 0.1926403 0.043314837
0003c0 58 be 14 be 4d 69 ce bd 95 11 1c bd 77 16 9b bd
       -0.14525735 -0.10078678 -0.038102705 -0.07572644
0003d0 51 c6 00 3e 27 d0 45 3e dc 13 d9 3d 70 ef 05 be
       0.12575652 0.19317685 0.10599491 -0.1307962
0003e0 8a ae c3 bc 41 35 ab 3d 0b 2d 19 be e1 94 c3 3c
       -0.023886938 0.08359767 -0.14958589 0.023874702
0003f0 b7 33 f7 3d 42 b6 20 3e 16 cb eb bc 03 84 9a 3d
       0.12070411 0.15694526 -0.028783362 0.075447105

Critic.fc2.bias f4 [32]
000000 21 52 80 3b 5b b0 65 3e fe 7a d1 3c 56 46 1a be
       0.0039160405 0.22430556 0.025571343 -0.15065894
000010 0d 24 df 3c d6 0a e9 bd aa a9 0a 3e cf 9d 8d 3d
       0.02723887 -0.1137902 0.13541284 0.06914865
000020 69 1d ca bd 92 16 e6 3d 8c 57 12 3e 81 50 17 3e
       -0.09868891 0.11234774 0.14291209 0.14776804
000030 74 06 f1 3d 81 5c 13 3d c7 d6 b8 3d 31 ef b1 3d
       0.11768809 0.03597689 0.090253405 0.086882
000040 9a b9 e4 3d bd 02 4e 3e 89 6e e3 3d c4 53 04 be
       0.11168213 0.20118232 0.11105067 -0.12922579
000050 22 db 40 3e 7b d5 a7 3d 5d 48 a0 bd 65 9c 39 bd
       0.18833593 0.08195015 -0.07826302 -0.045315165
000060 3d 75 2e 3d ef b3 ed bd d3 2c 66 bd c0 23 5b 3e
       0.042592276 -0.11606585 -0.05619509 0.21400356
000070 57 f7 5c 3c bf 9c fe bd 56 3d 7b 3d ad 78 c5 bc
       0.013486705 -0.12432241 0.06133779 -0.024105394

Critic.fc3.weight f4 [1, 32]
000000 7b 56 40 3d b4 9b 3f 3d 15 a6 39 3d 0d 38 02 bc
       0.046957474 0.04677935 0.045324404 -0.007947934
000010 62 77 7f 3d b2 6f 91 bc 4e 38 1d 3d 22 97 55 3d
       0.06236971 -0.017753456 0.038383774 0.052146085
000020 7b 95 a5 3b da 49 5b 3d af cd 30 3d d4 a1 15 3d
       0.00505322 0.053537227 0.043164905 0.036531284
000030 8b e7 35 3c d4 de 56 3d f0 6f b9 3c 64 6c 84 3c
       0.011102567 0.0524586 0.022636384 0.016164966
000040 1c 89 a1 3c 10 ca 10 3c 10 5a 33 3c e3 56 4d 3c
       0.0197187 0.008837238 0.010946766 0.012532922
000050 ad 08 30 3d b0 22 c2 3c d5 7f 1b 3d cf e6 41 3d
       0.042977024 0.02369818 0.037963707 0.047339257
000060 56 9a f3 3c 20 39 7b 3c 62 cb 28 3d 46 b9 d3 3c
       0.029736679 0.015333444 0.041209586 0.025845181
000070 bf 57 04 3d d9 67 fc b9 a6 29 8f bb d3 18 a1 3c
       0.032310244 -0.00048142558 -0.0043689786 0.019665157
