model.pt (torch, 114312 bytes, 13 tensors)

Actor.fc1.weight f4 [32, 378]
000000 a1 9a c1 bc f3 5b 14 bd 54 9b 24 bd b8 10 25 3d
       -0.023633303 -0.036220502 -0.040187195 0.040299147
000010 d2 58 84 3d 43 1a 07 bc 12 9a 43 bb 4f 46 ba 3b
       0.06462254 -0.008246007 -0.0029846472 0.005684651
000020 7b 11 fd bc 50 39 24 bd ab 3b d7 3c 1a 24 00 bd
       -0.030892124 -0.04009372 0.02627357 -0.03128443
000030 fb 0c d6 bc a9 4f 25 bd bb 3d 08 3c 69 ab 3c 3d
       -0.026129236 -0.040359173 0.008315499 0.046061907
000040 4e 9c 1a 3d ab 8f 2d bd 44 a7 0e 3d 55 59 91 3a
       0.03774672 -0.04237334 0.034827486 0.0011089245
000050 c3 e2 d4 bc 36 fc 58 3b 91 ad 61 3c 01 d7 d3 bc
       -0.025987035 0.0033109314 0.013774292 -0.025859358
000060 35 48 1c bd 23 60 ac bc 41 be c6 bc cb ba d2 bb
       -0.0381548 -0.021041935 -0.024260642 -0.006430959
000070 7a 0a 44 bd eb 47 ab 3c 32 74 59 bd d8 00 23 bd
       -0.047861554 0.020908317 -0.053089328 -0.039795727
000080 e6 1b 38 bd 92 57 4d 3c b8 88 10 bd 10 b5 b1 bc
       -0.04494848 0.012533085 -0.035286635 -0.021692783
000090 77 8c c2 bc 57 48 ba 3c 2d 85 dc 3c 0c 73 3b bc
       -0.02374862 0.022739572 0.026918972 -0.0114410035
0000a0 d6 d5 63 bd 6f ce 47 bd 83 c1 1e bc 02 f8 c5 3c
       -0.05562385 -0.048780855 -0.0096896915 0.02416611
0000b0 3f a5 81 3c 2e 2a be bc 34 a3 38 3d e4 f2 07 bd
       0.015825866 -0.023213472 0.045077518 -0.033190623
0000c0 ec 2e 18 bc a5 a2 1d 3a 4c 92 8e bb 74 18 fd 3c
       -0.009288531 0.00060133106 -0.004350936 0.03089545
0000d0 03 62 25 bd 1b b6 01 bc d4 1f 69 3c 77 bb 85 3c
       -0.040376674 -0.0079169525 0.01422878 0.016324742
0000e0 f5 9c 8e 3c c6 2e 5f bd 74 15 3f 3c 13 db f1 bc
       0.017408827 -0.054487966 0.01166283 -0.029523408
0000f0 50 62 af 3d 68 bd 6b ba fc 68 e0 3c c6 c5 84 bc
       0.085636735 -0.00089927623 0.02739381 -0.016207587
000100 17 aa db bc 56 12 17 bd 89 98 6a bc 78 44 00 3d
       -0.026814504 -0.03688272 -0.014318594 0.031315297
000110 71 9c ae 3b 9c a3 10 3d 77 0e 99 bc 6e 70 f2 bc
       0.005328708 0.03531228 -0.018683655 -0.029594626
000120 be 58 2a bc 2a dd f4 bb 96 e8 bf bc ab 3e 26 3d
       -0.010397134 -0.007472654 -0.023426335 0.04058711
000130 30 1e 81 3c 5b b0 99 bc 3f ff b7 3a 1a 8f c2 ba
       0.015761465 -0.01876085 0.0014037861 -0.0014843673
000140 e5 11 4d bd 38 e2 fd 3c 59 35 a9 3b 6e 2c 93 bc
       -0.050065894 0.030991659 0.0051638302 -0.017965522
000150 6a fa 80 3c 06 13 b0 3c ff 32 82 3c 3d 4f 9c 3c
       0.015744407 0.021493446 0.015893457 0.019080753
000160 0b 56 ab 3c 02 98 40 bd e3 b9 cb 3c 91 bf a7 bb
       0.020915052 -0.047019966 0.024868911 -0.005119272
000170 97 29 d6 bc 28 24 e7 bc fe 59 60 3d 35 eb ce 3c
       -0.026142878 -0.028215483 0.054773323 0.02525864
000180 02 fc c5 bc a8 35 a7 3c 3c 04 4d bc 87 d4 09 3c
       -0.024168018 0.020411327 -0.012513217 0.008412487
000190 da 3f 88 3d 0a 10 f9 bb d6 e3 7e 3c 13 83 bd 3b
       0.06652804 -0.007600789 0.01555725 0.0057834475
0001a0 2c 2a 5a 3d e5 09 29 bd 2e 9c e2 3a ea bc 56 bd
       0.053262874 -0.0412692 0.0017288977 -0.052426256
0001b0 ae 57 dd bc 92 7a dd bc 87 77 38 3c ab a6 f5 3c
       -0.027019348 -0.027035985 0.011258966 0.0299867
0001c0 f6 96 06 3c 55 88 74 3d 4b db 8c 3c 51 64 f2 3b
       0.008214703 0.05970033 0.01719441 0.0073972126
0001d0 db 98 36 bd fc 89 8f bc a3 24 9d 3c 5f 72 12 bd
       -0.044579368 -0.01752185 0.019182509 -0.035753604
0001e0 b9 30 47 3d f6 c6 70 3c f9 ea 62 bd e3 8b bf ba
       0.04863045 0.0146958735 -0.05539987 -0.0014613833
0001f0 e0 6b cf bc 1a 3a 39 3c 83 e9 2f bd 6d e1 8c 3c
       -0.025319993 0.011305356 -0.042947304 0.017197335
000200 32 7b ce 3b fa 8a d0 bc 64 4e c3 bc b9 89 a3 ba
       0.006301307 -0.025456894 -0.02384109 -0.0012476958
000210 f1 e7 f1 bb ab 0c 26 3d 8e c2 02 bd 64 7f 23 bd
       -0.007382386 0.040539425 -0.031923823 -0.03991641
000220 58 65 da bc 3d b9 18 3d d8 03 28 bd 83 c2 ca bc
       -0.026659653 0.037286032 -0.04101929 -0.024750954
000230 b1 ed 31 bd 25 8b 29 3d e1 98 85 bd f6 c9 50 bc
       -0.04343957 0.041392464 -0.065233 -0.012743464
000240 01 b5 da 3c c7 ad 81 bc 95 d9 85 3c 23 fa 3e 3d
       0.026697638 -0.015829934 0.016339103 0.046625268
000250 ac 67 22 bd 9a 50 43 bc 1c 0c a6 3c 45 54 88 bc
       -0.03964965 -0.011921072 0.020269446 -0.016641745
000260 be 02 fd 3c 5a 1f 2a 3c 91 86 09 bd ae 84 d9 3a
       0.030885097 0.010383451 -0.0335756 0.0016595328
000270 4b ee 16 bc 09 d8 47 bd d2 78 49 bd 15 eb 8a 3c
       -0.009212087 -0.04879001 -0.04918749 0.016957799
000280 a6 32 b1 bc a1 4d 4a 3c 1f 21 9d bc f3 29 1c bb
       -0.021630596 0.01234761 -0.019180832 -0.0023828715
000290 b9 5f 17 3d ef a3 18 3c 23 4f dc bc fe 98 ee 3c
       0.036956523 0.009316429 -0.026893204 0.029125687
0002a0 85 1b f8 bc d5 89 e3 3c 82 1f 90 3c dd 54 12 3b
       -0.03028656 0.027775684 0.01759315 0.0022328414
0002b0 01 e9 85 bc 1e 67 1b bd 30 2d b3 bb c2 38 ad 39
       -0.016346456 -0.037940137 -0.0054680333 0.0003303942
0002c0 50 45 d3 3c 06 c6 4d bc 7c 84 d9 3c cc 6c 98 bc
       0.025789887 -0.0125594195 0.026552431 -0.018606566
0002d0 9e 61 04 3d bd 16 9e bc 0a 43 ce 3c 7b fd db 3c
       0.032319658 -0.019297952 0.025178451 0.026854267
0002e0 6d e3 db 3c 28 f7 50 bd 11 02 0e 3d 30 85 33 3d
       0.026841844 -0.051016957 0.03466994 0.04382819
0002f0 5a ad ad bc 0d 56 4c 3d ed 1c fc bb fe 8c 6c 3c
       -0.021200825 0.049886752 -0.007693878 0.014437912
000300 35 a6 3d 3d 73 ba 58 3d 0e 27 ab bc ba c5 61 bc
       0.046301086 0.052912187 -0.020892646 -0.013780052
000310 26 b3 08 bd 30 f7 3f 3c f4 ae f0 bc 62 45 ed bb
       -0.033373974 0.011716649 -0.0293803 -0.007240937
000320 03 91 6f bc af 80 4d bd 87 19 2b 3d c9 fd 58 bc
       -0.014621976 -0.05017155 0.04177239 -0.013244101
000330 64 b3 b8 bc fc 7a 1e bd bb 16 06 bc c5 08 19 bd
       -0.022546478 -0.038691506 -0.00818413 -0.03736188
000340 9a 13 c5 bb 83 b4 99 bc 9b af 5a 3c 41 d2 83 3d
       -0.0060142996 -0.018762833 0.013347532 0.06436587
000350 ac 86 0a bc 76 0a ea 3c a0 15 7e 3b 18 7b 95 bc
       -0.00845496 0.028569441 0.0038770214 -0.018247172
000360 64 ea 05 3d 3f 2e 12 3d aa 8b cd 3c 86 d0 1f bd
       0.032694235 0.035688635 0.025091011 -0.039017223
000370 75 db c2 bc 3f 8c 99 3c d9 89 ea bc 0d 45 20 3d
       -0.023786286 0.018743632 -0.028630184 0.039128352
000380 61 88 00 3c fc 84 80 3d 79 cc 3c 3d ee f4 5f bc
       0.007845015 0.06275365 0.046093438 -0.013669236
000390 3a 0b 6a bc df b2 2a bd f8 7f 0e bc af 50 b2 3b
       -0.014284903 -0.04167449 -0.008697502 0.005441747
0003a0 b6 72 0c bd 34 99 11 bc 3e 9b 1b 3d 1a c0 86 3c
       -0.034289084 -0.008886624 0.037989847 0.016449023
0003b0 d5 dc 1a 3d 00 65 c5 3c b0 8b f8 3c df 8c 29 3d
       0.037808258 0.024096012 0.030340046 0.04139411
0003c0 a7 ce 3e 3a 9b 86 41 bc 2f 6f 40 bd be 68 69 3c
       0.00072787184 -0.011811878 -0.046981033 0.014246164
0003d0 64 f1 d0 bc e5 77 23 bc 6e 61 83 3d 42 3b 37 bd
       -0.025505729 -0.009977316 0.064150676 -0.044734247
0003e0 fa 3b 68 bd ad ea 90 3c eb b7 4b bc 73 25 03 bd
       -0.056697823 0.017690027 -0.012433986 -0.032018136
0003f0 2a 47 45 3d 30 24 cf 3c 35 cd 07 bd 1e 8e 06 3c
       0.04816357 0.02528581 -0.033154685 0.008212594

Actor.fc1.bias f4 [32]
000000 c5 c3 79 3c f1 10 35 3d 7c 3f ea 3c 77 b9 d1 3c
       0.015244429 0.04420561 0.028594725 0.025601132
000010 4a 59 c7 39 73 0c 73 bd 75 f0 0f 3d 4f e0 b6 bb
       0.00038022763 -0.059338044 0.035141427 -0.005580939
000020 e9 dd 4f 3d 55 b4 3f bc df f3 44 bd 8e 2f 2f 3d
       0.05074874 -0.011700709 -0.048084136 0.04276996
000030 09 e1 3c bc 7f 18 1e bd 39 9e 28 3d 90 a3 5c bd
       -0.011528262 -0.03859758 0.041166518 -0.053866923
000040 94 d5 00 bc ad dd 6d 3d e3 72 3a bd ac 49 3d 3d
       -0.007863421 0.058072735 -0.04551972 0.046212837
000050 68 df 28 bd 69 d2 2e 3d a1 a0 28 3c 2a 06 8e bd
       -0.04122868 0.04268113 0.010292203 -0.069347695
000060 38 6d c6 bc 4e b9 b1 3c b9 c5 91 36 10 ad f7 3c
       -0.024222001 0.021694805 4.3443547e-06 0.03023389
000070 5d 29 c4 bc f3 7f 4e bd 57 40 a3 3c 2b e8 1b bb
       -0.023945505 -0.05041499 0.01992814 -0.0023789506

Actor.fc2.weight f4 [32, 32]
000000 99 32 b2 3d f6 86 b5 bd 6d 6d 30 be 70 d6 ac bc
       0.08701057 -0.088636324 -0.17229243 -0.021098346
000010 70 86 1e 3d 03 4f 74 3d 06 51 33 3d 2c 9c 7c bc
       0.03870243 0.059645664 0.04377844 -0.015418094
000020 95 0d 4b be 66 f6 7f bd df db 01 3e f2 e1 1b 3e
       -0.198294 -0.062490843 0.1268153 0.1522291
000030 dd b2 ea bb 2b 95 34 bd 2d 17 5b bd bb 53 a6 bc
       -0.0071624354 -0.04408757 -0.0534889 -0.020303598
000040 46 11 a3 bd 43 96 81 3c d6 24 0c bc 63 53 b0 3d
       -0.07962279 0.01581872 -0.008553704 0.08609655
000050 7c 41 30 be e6 cb 64 be 38 19 6a 3d 26 01 c9 3c
       -0.1721248 -0.22343406 0.057152957 0.02453668
000060 db 9b f9 bc 3f 49 8b 3d f5 12 22 be b8 b2 4a 3b
       -0.030469825 0.0680108 -0.15827544 0.0030929279
000070 6f 2b ec bd c1 6a 23 be 0b 70 05 3e 6b 2c a9 3d
       -0.11531722 -0.15958692 0.13031022 0.08260425
000080 b8 45 0b 3e 2a 36 0c 3e 15 78 19 3e be 15 a0 3a
       0.13600814 0.13692537 0.14987214 0.0012213511
000090 8f bb a8 bd 08 d3 90 3c 48 06 62 3e 3e 85 1b be
       -0.08238899 0.017678753 0.22072709 -0.15187547
0000a0 1c 36 0b be c4 41 c1 3d 60 7c b6 3d f3 94 e9 bd
       -0.1359486 0.09436372 0.089104414 -0.11405363
0000b0 35 ca 0d 3e 88 fc 79 3d 8e 21 47 3e 89 a5 52 bd
       0.13846667 0.06103185 0.19446394 -0.051427398
0000c0 41 68 11 3e ac 80 5b 3e 94 20 11 be e6 45 ca bd
       0.14199926 0.21435803 -0.14172584 -0.09876613
0000d0 16 3d f4 bd 88 38 05 3e 4d 79 c6 3d a1 23 9f 3d
       -0.11925714 0.13009846 0.09691105 0.077704675
0000e0 af bc 52 bd 40 64 a3 bd 4d 5f 45 3e 94 bf 33 3e
       -0.051449474 -0.079781055 0.19274636 0.1755355
0000f0 e6 0a 17 bd 18 8d 64 bd c8 d2 6c 3d ad e8 1b 3e
       -0.036875628 -0.05579862 0.057818204 0.15225478
000100 94 7b 5b 3d 10 d6 e7 bb da 9d bd 3d 95 c4 36 3e
       0.05358465 -0.007075079 0.092586234 0.17848428
000110 1f cd 37 3d 4c 78 53 bd 5f fc 4d be 3d fb 1a be
       0.044873353 -0.051628396 -0.20115803 -0.15134902
000120 15 b9 17 be dd ef 19 3d b9 a7 50 3d 41 c4 f2 bd
       -0.14816697 0.037582267 0.050941203 -0.11853839
000130 27 3b e1 bd 7e 8d 41 3d 0a 91 9c bd 8a f0 2a be
       -0.109976105 0.047254078 -0.076448515 -0.16693321
000140 fc 7e 85 bd 5c 63 e5 bd 8d ed ee bd 05 67 eb bd
       -0.06518361 -0.11200592 -0.11666403 -0.11494259
000150 dc 1e a4 3c 39 eb 17 3c dc 42 29 be 09 c1 40 3e
       0.020034246 0.00927239 -0.16529411 0.18823637
000160 f7 88 12 3d 8b 94 26 3e a4 5e 03 3d 05 02 18 3e
       0.03577515 0.16267602 0.03207268 0.1484452
000170 62 b7 af bd d7 7f 18 3e bf 9a e4 bd b4 b0 1f be
       -0.08579899 0.14892517 -0.11162328 -0.1559475
000180 4e 80 13 3e e3 55 fd bd 05 85 25 3e 0a b3 b0 bc
       0.14404413 -0.12369897 0.16164024 -0.021569747
000190 9c 20 28 3e 9a 53 c2 3b 00 a8 93 3d b5 14 b7 bd
       0.1641869 0.0059303762 0.07209778 -0.089394964
0001a0 e6 60 2f 3e 67 ae 68 3c 3a 96 e4 bd 1e 4e a3 3d
       0.17126808 0.014201737 -0.11161466 0.07973884
0001b0 56 18 b4 3d 87 a0 d3 bd ae 23 e0 bc 7a 88 2d 3d
       0.08793704 -0.103333525 -0.027360763 0.042366482
0001c0 16 d6 12 3e 70 6f 9d 3c 6d 2c c3 3d 1c cd ff 3d
       0.1433948 0.019218177 0.09529958 0.124902934
0001d0 67 15 f7 3c 8e 12 8d bd 2e b8 77 3d 00 32 8c 3d
       0.030161573 -0.06888305 0.06047838 0.06845474
0001e0 f4 04 bd 3d 42 04 0a 3e d2 e1 dc bd 91 ee 25 be
       0.0922946 0.13478187 -0.10785259 -0.16204287
0001f0 76 48 60 3b 03 85 dc 3d 53 24 b7 3d 4c 96 60 3d
       0.0034222878 0.107675575 0.08942475 0.054830834
000200 7d 90 56 3d 88 8f 1c bd 6f 3c 0a 3d bc 7e 0e bc
       0.05238389 -0.03822282 0.03374904 -0.008697208
000210 f4 71 3b 3d 18 d9 22 3d 0a d9 4e 3c aa ed d0 3d
       0.04576297 0.039757818 0.012624988 0.10201581
000220 f6 de e0 bd 07 bb 65 bd 5f 14 e3 ba 77 b3 37 3e
       -0.109800264 -0.056086566 -0.0017324797 0.17939554
000230 3d 0f cf 3d 12 f0 87 3d 89 0c 06 3d 67 2e 10 bc
       0.10110328 0.06637587 0.0327268 -0.008800126
000240 7a 49 2e 3e 79 ee 4a 3c 26 f6 0d be 3f 4c 3b 3e
       0.17020217 0.012385958 -0.1386343 0.18290804
000250 60 38 9c bd 20 af b6 3c 06 74 85 3d 9f 30 46 3d
       -0.0762794 0.022300303 0.0651627 0.048386212
000260 81 c5 9b bd cc 11 5a bd ff ee 4e 3e 1c bf 55 bd
       -0.0760603 -0.05323963 0.20208357 -0.05218421
000270 9e 56 99 bd 45 07 ab bb 74 a3 38 3d 64 cb b6 3d
       -0.07487224 -0.0052193725 0.045077756 0.089255124
000280 e9 05 37 3c a2 b0 00 be 03 8d 4d be 30 d4 40 bd
       0.011170843 -0.1256738 -0.20073323 -0.047077358
000290 21 09 2b be 3f 43 19 be 45 a7 69 3b 6c ff 9e 3d
       -0.16702701 -0.14967059 0.003565268 0.077635616
0002a0 54 c7 72 3d d9 26 5a bd bf 01 da bd bf 14 21 be
       0.059272125 -0.053259704 -0.10644864 -0.1573057
0002b0 4f c3 0c be bb 84 e4 bd 44 eb 0c 3d f5 c4 5f 3d
       -0.1374638 -0.11158129 0.034404054 0.054631192
0002c0 d2 78 20 bc b1 3e ab ba 96 f6 e1 3c a9 1a 3a be
       -0.009794431 -0.0013064948 0.027583402 -0.18174233
0002d0 91 a2 f8 3d 8f a4 09 be 0b c8 3b be 91 f3 7f bb
       0.12140382 -0.1344168 -0.18338029 -0.003905509
0002e0 ea c2 f2 3c b2 fc 5e 3d 5b 9e 91 bb ab e2 a8 3d
       0.029633958 0.054440208 -0.0044439263 0.082463585
0002f0 08 ef b6 3d 1c 2a f6 bd 23 e5 b2 3d c3 98 0b bc
       0.0893231 -0.120197505 0.087351106 -0.008520308
000300 03 03 47 be 03 5a 21 bd c6 98 d8 bc c6 7a a4 3d
       -0.19434743 -0.039392482 -0.026440036 0.0803123
000310 a6 5a 00 3d e9 94 91 bd db 7f d7 bc 0b e6 50 be
       0.03133645 -0.071084805 -0.026306083 -0.20400254
000320 23 2c b4 3c f3 ca a3 ba 44 f0 19 3e d4 34 2e bc
       0.021993702 -0.0012496397 0.1503306 -0.010632712
000330 42 00 15 3e f1 8f 25 3c 81 0d 1b be 92 f9 12 be
       0.1455088 0.010105119 -0.1514187 -0.14353016
000340 84 4b 0d bc 37 b1 2d 3e ad 16 bb bd fe 27 9b 3c
       -0.008623961 0.16962133 -0.091351844 0.018939968
000350 51 64 cd 3a 7f 13 09 be 7f 84 1d be 4f 3b 48 3d
       0.0015670155 -0.13386343 -0.15382574 0.048884686
000360 2d 23 25 bd d8 8d 4d bc b4 41 dd 3d 22 7a f3 bd
       -0.04031675 -0.012546025 0.108035475 -0.11888529
000370 d0 63 fa bd 0c 02 33 be 29 88 06 3d 0d f8 a9 3d
       -0.12226069 -0.1748125 0.032844696 0.08299265
000380 b0 8d 93 bc 80 94 32 3e df ad 01 3d 22 16 75 3d
       -0.018011898 0.17439461 0.031659957 0.05983556
000390 06 ce 2f be 2b 93 fd 3d e6 52 ef bd 5c 32 f5 bd
       -0.17168435 0.12381586 -0.116857335 -0.11972496
0003a0 06 d2 0d bb 60 cf 1e be c1 04 15 3e c7 4a f0 3d
       -0.0021640076 -0.15508795 0.14552595 0.11733013
0003b0 d4 80 31 3c dc 15 47 3e b3 9a 8c bd ab df 49 bd
       0.010833938 0.19441932 -0.06865444 -0.049285572
0003c0 cc 8f 9c 3a 8c 09 0d be de a1 42 3d 11 03 56 bd
       0.001194471 -0.13773173 0.04751765 -0.052249018
0003d0 57 87 16 bd 62 68 b3 3b 05 8a 55 bd 9a fe d2 bc
       -0.036750164 0.00547509 -0.05213358 -0.02575617
0003e0 3e 65 ad 3d 68 f3 cc bd a0 16 fe 3c 2e 29 07 3e
       0.08466576 -0.100073636 0.031016648 0.13199303
0003f0 d6 19 03 3e dc 4d 27 bd d7 dd 2a 3e ef fd 18 bc
       0.12802824 -0.040845737 0.16686188 -0.009337886

Actor.fc2.bias f4 [32]
000000 39 40 1e be 41 59 ce bd cf c2 bf bb 05 8e b0 bb
       -0.15454186 -0.100756176 -0.0058520804 -0.005388024
000010 d9 cc c0 bd 3f ad f3 bd 5d 27 11 be c3 8b f4 bd
       -0.094140716 -0.118982784 -0.14175172 -0.1194072
000020 d3 5d dc bd 46 fd 1f 3e ab 9a e6 bd 5f f9 5f 3d
       -0.10760083 0.1562396 -0.11259969 0.05468118
000030 b3 7f 20 3e fe 7a 59 bd 30 1b 4e 3d b4 c4 41 3e
       0.15673713 -0.05309581 0.050318897 0.18922693
000040 f4 b0 1b be 23 d8 2c be 92 98 e0 3d b7 da 3a be
       -0.15204221 -0.16879325 0.109666005 -0.18247496
000050 78 f7 1b 3e 83 bf 1f 3e f1 93 ba bd 72 79 9a 3d
       0.1523112 0.156004 -0.09110249 0.07542695
000060 24 2e 81 bd 01 fb 3f 3d 69 5a 1a be 05 98 0c 3e
       -0.06307629 0.046870235 -0.15073551 0.13729866
000070 bd d5 25 be 43 0e 94 bd c0 66 04 be 54 9f c5 3d
       -0.16194816 -0.07229283 -0.12929821 0.0964953

Actor.mean_fc3.weight f4 [17, 32]
000000 2c ca 31 3d ee 52 1f 3e e2 43 8e bd 4d 94 8b bb
       0.043405697 0.15558979 -0.06946541 -0.004259622
000010 ab 62 a1 3d a9 ff bb bd ab 7f d8 3d b0 dc fa bd
       0.078801475 -0.09179623 0.10571226 -0.12249124
000020 b8 5d db bd 44 75 6b bc 43 a0 92 3d 43 fc 1d 3d
       -0.10711235 -0.01437122 0.07159474 0.038570654
000030 37 b8 10 3e a2 08 24 3e f9 c1 56 3d a5 70 89 3c
       0.14132772 0.16018918 0.05243108 0.016777346
000040 5d d9 32 3e c7 cb 22 be f5 39 03 3e 7b 05 15 3d
       0.1746573 -0.15898047 0.12815078 0.03638218
000050 f6 37 c1 bd 04 70 ac bc 44 2c 2d 3e 08 de 95 3d
       -0.09434502 -0.021049507 0.16911417 0.0731774
000060 a9 63 ef bd 69 d5 e7 3d 72 37 17 be 62 ac b8 bd
       -0.116889305 0.11320002 -0.14767244 -0.090172544
000070 64 95 da 3d 82 fd d9 3d cf d2 d0 3d 7f ab 3b 3e
       0.10673025 0.10644056 0.101964585 0.1832714
000080 4d 05 98 3d 61 70 53 3d 16 24 12 3e 27 34 c6 3d
       0.07422886 0.051620845 0.14271578 0.09677916
000090 d2 7c 06 bd 94 6e 04 be 2d 37 a7 bd 98 5c 2e 3c
       -0.03283388 -0.12932807 -0.08164821 0.010642193
0000a0 79 6b d9 3d e6 09 82 bd ed 17 f8 3d ce 88 1f 3e
       0.10616202 -0.06349544 0.121139385 0.1557953
0000b0 81 3b 0b bb 5a b4 79 3d fe a6 41 3d 88 d4 86 3b
       -0.0021245184 0.060963012 0.047278397 0.004114691
0000c0 3a 59 50 bd 3c 3f 21 3e 66 b1 02 be 5e 15 11 3e
       -0.050866343 0.15746778 -0.12762985 0.14168307
0000d0 75 a6 5c bd 81 67 0b 3e 95 a3 2b be 96 ec 10 be
       -0.053869683 0.13613702 -0.1676162 -0.1415275
0000e0 d0 88 31 3e 38 53 74 3d 11 34 f1 bd 7a 03 bf bc
       0.17337346 0.059649676 -0.11777509 -0.023317087
0000f0 31 5d 7d 3d 71 2e 3c 3e 02 1f 9c bb 3b a1 1b 3c
       0.061856452 0.18377091 -0.0047644386 0.00949889
000100 95 32 17 be 26 cb 90 bb 00 5d f3 bd 0e c6 3f 3d
       -0.1476539 -0.0044187484 -0.11882973 0.04681974
000110 1c 06 81 3d 1d fc db 3d 46 a3 0d 3e db 7f 14 bd
       0.062999934 0.10741446 0.13831815 -0.036254745
000120 85 e6 e5 3d 7e 87 26 be 0e ec a9 3d 3d 1c ab bc
       0.11225609 -0.16262624 0.08296977 -0.020887488
000130 5b b6 43 3e 90 f6 38 3e f8 7b 00 3d 0c bc ac bd
       0.19112532 0.18062806 0.031368226 -0.084343046
000140 f6 66 f2 bd f0 27 5a 3d 0e e4 93 bd de 07 0b 3e
       -0.118360445 0.053260744 -0.07221232 0.1357722
000150 04 f9 fb 3d d6 b9 0d be 6f d9 f0 bd da c7 c2 bd
       0.12303355 -0.13840422 -0.11760222 -0.09510775
000160 22 2d f6 3d 39 24 44 bd 07 0d 26 be 0f ac 65 bd
       0.12020327 -0.047886107 -0.16215907 -0.05607229
000170 0c df 1b 3e 9e 2e 15 3e 03 13 03 be eb 86 15 3e
       0.15221804 0.14568564 -0.12800221 0.14602248
000180 8b 98 b7 3d 9d b0 e5 bb 0a b1 2e 3e ab bd 17 3b
       0.08964642 -0.0070095793 0.17059723 0.0023153822
000190 d9 49 01 3c 71 0b 1b bd 66 50 fd 3d 3c e4 f7 3d
       0.007891142 -0.03785271 0.123688504 0.12104079
0001a0 a1 7a 8d 3c 8b 36 83 bd db 8e 26 3e 56 d6 3b be
       0.017270388 -0.064068876 0.16265433 -0.18343481
0001b0 f0 4a 47 bc 83 00 ba 3d 14 c0 86 3b 49 6e be 3b
       -0.012163863 0.09082129 0.004112253 0.005811487
0001c0 ea 04 3c bd e5 9e 31 3e 60 9b 36 be dc e5 02 3e
       -0.045903124 0.1734577 -0.17832708 0.12782997
0001d0 00 a9 cc 3d 2a 3d 42 3b eb 41 82 3d 91 59 b3 bd
       0.09993172 0.0029638507 0.06360229 -0.08757318
0001e0 f3 b3 fd 3c 62 55 6a 3c 9d db 29 be 99 35 c3 bc
       0.030969596 0.014302583 -0.16587682 -0.023829268
0001f0 db b1 24 3e bd 9a 3e bd a5 46 44 3d 79 f5 2d be
       0.16083471 -0.04653429 0.047918934 -0.16988172
000200 11 03 91 bd 74 ea 6c 3b 75 44 f2 3d 72 ae d5 bd
       -0.07080663 0.0036150487 0.118294634 -0.104336634
000210 a1 fe 3b be 8c 31 62 3d bd a5 e7 bd bf a2 cf 3d
       -0.18358852 0.055223033 -0.11310909 0.10138463
000220 36 a0 03 be 4b 5d dd bc b3 8c 03 3c f2 96 78 bd
       -0.12854084 -0.027022025 0.008029151 -0.060690828
000230 d1 5d 15 bc 5d 15 00 3e b1 e8 81 bd 55 04 d5 3d
       -0.009116606 0.1250815 -0.063432105 0.10401217
000240 d3 35 ef 3d 89 42 f5 3d 79 d7 a8 3d 05 5b ba bd
       0.11680188 0.11975581 0.08244223 -0.09099392
000250 b6 71 b6 bc 62 80 4b be 70 8a 12 be 67 8c 40 be
       -0.022271018 -0.19873193 -0.14310622 -0.18803559
000260 1b 99 88 3d 28 87 85 bd 3a 5a c7 3d 1a 00 16 be
       0.066698276 -0.0651992 0.09734006 -0.14648476
000270 89 39 dd 3c d8 0f 83 bd 89 af 48 3e 4c fa 25 bc
       0.027004974 -0.06399506 0.19598211 -0.010130476
000280 7c 98 98 bd c3 d7 e8 3d ed 18 e7 3d c0 a0 26 3e
       -0.07450959 0.11369278 0.11284051 0.16272259
000290 82 46 b6 3d a0 2c 18 3d 81 ac 23 be ad 3c 18 3d
       0.08900167 0.037151933 -0.15983774 0.03716724
0002a0 1a dc 18 3e 21 d7 b8 bd f5 10 e3 bc 1e db 21 bc
       0.14927712 -0.090254076 -0.027718047 -0.009878902
0002b0 90 b6 24 bd 23 c5 bc bd b8 d2 9e bc d2 6e 6b 3d
       -0.040213168 -0.09217288 -0.019387588 0.057478733
0002c0 b2 b8 85 bd aa ba 57 bd cd 20 11 be c2 36 2d be
       -0.065293685 -0.05266825 -0.14172669 -0.1691542
0002d0 bf 39 da 3b a1 2a c9 3d 13 34 35 bd 00 6a 4d 3d
       0.006659716 0.09822584 -0.044239115 0.050149918
0002e0 5e 28 32 3e da 1d 10 be eb c3 e0 bd 67 10 93 bc
       0.17398211 -0.14073887 -0.109748684 -0.017952157
0002f0 40 18 2e 3d 20 dd 85 bd 65 93 05 3d 7c 0f a6 3b
       0.042503595 -0.06536317 0.03261127 0.005067764
000300 48 60 36 3d 2d 1c e4 bd d1 8d 89 3b 16 cf c5 bc
       0.044525415 -0.111381866 0.004197814 -0.024146598
000310 b4 2d 4a 3d 30 63 96 3d cc 60 93 bd b4 3a 19 bd
       0.049359992 0.07343137 -0.07196197 -0.0374095
000320 c1 1d ca bd d2 a3 92 bd 59 53 be 3d 26 c2 9c 3d
       -0.09868956 -0.071601525 0.09293241 0.076542184
000330 49 ce 0a be 89 b9 8e bd 61 ed 77 3d a4 68 04 3e
       -0.13555254 -0.06968982 0.060529117 0.12930542
000340 cc 33 ae bd cb 53 e8 bd d6 ff 19 3e 2d 29 c0 bc
       -0.08505973 -0.11344107 0.15039 -0.023457134
000350 e1 ae b9 bd a0 a8 c5 bd b4 fa ae bd af 2b eb 3b
       -0.09066559 -0.09651303 -0.085439116 0.0071768383
000360 d3 80 f2 3c 29 2a 10 3e d7 c8 2a 3e 85 b5 b4 bc
       0.029602444 0.14078583 0.16678177 -0.022059212
000370 c8 1c fe bd 87 4e bd bd 51 fb e1 3d 68 8f a8 bd
       -0.12407833 -0.092434935 0.11034263 -0.082304776
000380 62 99 db 3d e7 64 26 3e 13 f4 08 3e 08 ef 58 3c
       0.10722615 0.16249429 0.13374357 0.013240583
000390 f7 da a0 bd 52 3d 6a 3d ef 6e d6 bd c7 06 99 3d
       -0.07854264 0.057187386 -0.10470378 0.07471996
0003a0 5d 7d e2 3d 6b 7a ce 3d a9 c2 4c 3d 38 87 3b 3d
       0.110590674 0.10081943 0.04999033 0.04578325
0003b0 02 bf fb bc 06 b4 27 3e ed f4 15 be 7f 45 69 bb
       -0.030730728 0.16377267 -0.14644213 -0.0035594401
0003c0 fc c3 0e be 9f ac 07 be bc 62 3f 3e 74 d3 8d 3d
       -0.1394195 -0.13249443 0.18690008 0.06925097
0003d0 8f 01 b2 3d f7 cf 50 3b 81 8c 5a 3d ce 8b 24 3b
       0.086917035 0.0031862238 0.05335665 0.0025107744
0003e0 f1 e7 4f 3d 96 e6 ef 3d 89 37 d6 3d 3e 79 05 3d
       0.050758306 0.11713903 0.10459811 0.03258633
0003f0 58 04 fe 3d 42 8e 3e 3e d3 e9 e1 bd f1 18 ce 3c
       0.12403172 0.18608955 -0.110309266 0.025158377

Actor.mean_fc3.bias f4 [17]
000000 14 e9 0d 3e b7 b5 d9 3d be 8a de 3c 6e e3 ad 3d
       0.13858443 0.106303625 0.027165767 0.084906444
000010 21 4d 3b 3d 1b ab e0 bc e9 c6 d7 bc 99 c7 64 3d
       0.045727853 -0.02742534 -0.026339965 0.055854414
000020 c0 70 c7 bd f1 22 16 3e c4 ad 38 3e 74 1a e8 3d
       -0.09738302 0.14661767 0.18035036 0.113331705
000030 fa 82 34 3e 82 b3 5d 3d ad 05 e8 3c da b7 6b 3d
       0.17628089 0.05412627 0.028323019 0.05754838
000040 19 02 fc 3d
       0.123050876

Actor.log_std_fc3.weight f4 [17, 32]
000000 c0 09 b7 bd cc d5 04 3e 29 e7 b6 3d 5b b1 8b 3d
       -0.089374065 0.12972182 0.08930809 0.06820937
000010 cc 29 57 3d cc 7b 92 3a 7d 3f 19 be 9c df 59 3d
       0.052530095 0.001117581 -0.14965625 0.053191766
000020 28 61 d4 3d d2 2c 03 be 53 66 1f 3e 1f ef 22 be
       0.103700936 -0.12810066 0.15566377 -0.1591153
000030 04 a1 53 3d e6 dd 2c 3c 97 a4 01 be 7c 1c 06 3c
       0.05166723 0.010550952 -0.12660442 0.008185502
000040 d5 6d b9 bd 9a f1 93 bd b7 5a c4 bd 8d a7 86 bd
       -0.09054152 -0.07223816 -0.09587615 -0.065749265
000050 e9 2c 23 be fc 06 4c bd f5 8a 34 3e 13 fd 09 3d
       -0.159351 -0.04981135 0.17631133 0.033688616
000060 21 1a 01 be 9a ff 1a bd 55 f0 22 3e eb 8d 1a be
       -0.12607624 -0.037841417 0.15911992 -0.150932
000070 99 a8 b3 3d 9b 52 0d 3e 54 f9 c8 bd a6 68 07 bc
       0.08772392 0.13801043 -0.098131806 -0.008264696
000080 fb c4 85 3d 3f 3d 12 3e 87 bd 28 3e cd af 1d be
       0.06531712 0.14281176 0.16478549 -0.15399094
000090 22 57 1b be 62 43 0c 3d 31 e5 63 3d 86 fa 43 3d
       -0.15169957 0.03424395 0.055638496 0.04784634
0000a0 e9 ad 17 3e 3b a6 8f 3d 4f 54 30 bd d8 7d 04 bd
       0.14812435 0.07014128 -0.043049153 -0.032346576
0000b0 0d bc 8a bd a4 01 b9 3d 92 aa e4 3d 81 25 f7 3d
       -0.06774149 0.09033516 0.11165346 0.120677
0000c0 52 d5 14 be 51 57 22 be 8a c5 19 bd 8c 3a 27 be
       -0.145345 -0.15853621 -0.037541904 -0.16330928
0000d0 ce 7a 92 3d 68 44 43 be 00 81 d5 bc 71 d4 d7 3d
       0.071523294 -0.19069064 -0.026062489 0.10538567
0000e0 10 35 25 3d 08 bc 14 be 8c d2 19 be 78 04 04 3e
       0.040333807 -0.14524853 -0.15021724 0.1289233
0000f0 91 01 98 3d 10 33 05 be 05 50 96 3d 34 52 92 bd
       0.07422174 -0.1300776 0.07339481 -0.07144585
000100 c6 bb ac bc ee cd 1c bd b5 7a 8a 3d 12 94 fc bd
       -0.021085631 -0.038282327 0.06761686 -0.1233293
000110 cd 13 08 bb bb f8 25 be 60 5c df 3d 62 2d 24 3e
       -0.0020763755 -0.16208164 0.10906291 0.16032937
000120 52 20 f6 3d bc 17 12 3d d5 f6 03 3e 69 d0 e2 3c
       0.12017883 0.035667166 0.12887128 0.027687268
000130 8f 14 c7 3d 4c 37 d6 bb 51 1b 1e 3e da 4d f0 3d
       0.09720718 -0.0065373536 0.15440108 0.11733599
000140 ac 4d 31 be e7 84 7a 3d dd 0f 3a be 1c 56 71 3d
       -0.17314786 0.0611619 -0.18170114 0.05892001
000150 f9 d5 00 3e 2d 01 b1 bb 4a d7 d2 bd 33 59 c9 bd
       0.12581624 -0.0054017515 -0.102949694 -0.098314665
000160 93 7a 85 3d c3 9b b8 3d 49 e8 a2 39 ed 54 fa bd
       0.0651752 0.09014084 0.00031072114 -0.122232296
000170 52 04 0e be fa 87 a0 bc ce d1 55 bd 37 76 47 be
       -0.13868836 -0.019596089 -0.05220204 -0.19478689
000180 ed a5 d6 3d b1 d4 de 3d fe b1 b2 3d 9d 5f b7 bc
       0.104808666 0.108804114 0.087253556 -0.02238446
000190 18 5a 60 3d e0 b7 eb 3d f0 c5 28 bd 7c 95 8d bc
       0.05477342 0.11509681 -0.041204393 -0.017283194
0001a0 b0 73 94 bd 66 7a 5c bd 6a d0 a6 3c c6 85 18 bd
       -0.07248628 -0.053827666 0.020363051 -0.03723695
0001b0 b4 5c 01 3e 28 56 7e bd 64 b8 c1 3d 5a 83 01 be
       0.1263302 -0.062093884 0.09458998 -0.12647763
0001c0 12 ae 84 3c 12 19 e2 bd 12 ab 85 bd 72 60 ab 3c
       0.016196284 -0.11039938 -0.0652677 0.020920012
0001d0 b3 19 e6 bd ea 17 34 3e bd dc ba 3d 4f e0 0c 3d
       -0.112353705 0.17587247 0.09124134 0.034393605
0001e0 d9 94 07 be fc af bc 3d 07 d5 7d 3b 7d e6 15 be
       -0.13240375 0.09213254 0.003873171 -0.14638706
0001f0 c4 77 37 be fe dc ad bc dc 46 c2 bd 74 60 95 bd
       -0.1791678 -0.021223541 -0.094861716 -0.072937876
000200 37 9a 6c ba a0 14 19 be 4c ee 3e 3c 29 6e 82 3d
       -0.00090256653 -0.14949274 0.011653494 0.06368668
000210 42 63 e6 3c 0b 03 88 3c 9f 5d da bd 9c b0 87 bd
       0.028123502 0.016603014 -0.10662388 -0.066254824
000220 9d 0f 91 bd 99 ed c3 3d 8d 57 c1 3d 8a b3 21 be
       -0.07083056 0.095668025 0.09440527 -0.15791145
000230 5d 77 c2 bb 69 dd d0 3c 87 bb 5b 3d 4a af 44 3e
       -0.0059346394 0.025496202 0.053645637 0.19207492
000240 52 b4 34 3d b0 fe 92 3d fe 02 00 3e e1 f9 0e be
       0.04411728 0.07177484 0.12501141 -0.13962509
000250 da d6 b6 3d 01 7a c1 3d 71 4a eb bd ef 93 e0 3d
       0.089276984 0.094470985 -0.11488808 0.10965716
000260 1f 06 38 3e 1f 70 f4 3c 09 54 c1 3d 12 7e e3 bc
       0.17971085 0.02983862 0.094398566 -0.027770076
000270 51 31 06 bd 63 62 87 bc ff d2 eb 3d 89 fd d1 bd
       -0.032761876 -0.016526407 0.11514854 -0.10253436
000280 a3 46 b6 bd 58 71 ff 3d 64 d6 02 3d be fd e2 3c
       -0.08900192 0.124727905 0.03194274 0.027708884
000290 3f 05 10 3e cf d7 21 be d6 8e c3 3d c1 ff 04 be
       0.14064501 -0.1580498 0.09548728 -0.12988187
0002a0 af f4 67 3b 35 c9 f2 bd 2d 65 d0 3d d5 4f be 3d
       0.0035393646 -0.118547834 0.10175548 0.092925705
0002b0 ae b0 d3 bd 6b ea af bd c6 16 14 3e e4 15 c0 3d
       -0.10336433 -0.085896336 0.14461812 0.09379175
0002c0 e3 f3 cb 3d de c9 4f 3c b4 f7 fb bc 73 f6 63 bd
       0.09958627 0.012682406 -0.030757762 -0.055654954
0002d0 80 ad 77 bd eb 9f 60 3d 6f 57 6d 3a 61 18 85 3d
       -0.060468197 0.05484001 0.0009053861 0.064987905
0002e0 69 a6 20 3e e2 3a a3 3d e5 f3 e2 bc e8 0d cd bd
       0.1568848 0.079702154 -0.027704189 -0.10012418
0002f0 b0 92 93 3d e1 3a 89 bd bd 1e c8 3c dd 00 49 bc
       0.07205713 -0.067006834 0.02442872 -0.012268272
000300 0e 1e 05 be fb 28 fa 3d 17 22 72 3c 7b 68 fb bd
       -0.12999746 0.12214848 0.014778635 -0.122757874
000310 63 14 a8 3d 5f ce 0d 3e f8 94 4b bd 7c 3e 1c be
       0.082070135 0.13848256 -0.049702615 -0.15258211
000320 55 30 17 3e 71 bd ff bd 19 55 69 bc 4f f5 85 3d
       0.14764531 -0.12487305 -0.01424148 0.065409295
000330 35 9c 4e bc 61 2a 0e be f2 c4 b2 3d 9e b6 18 be
       -0.012610485 -0.13883354 0.087289706 -0.14913413
000340 b7 ac d0 3d 84 71 75 bb 92 0c 62 bd 49 d5 9c 3c
       0.10189193 -0.0037451694 -0.05518777 0.019144671
000350 8b c6 06 3d 33 51 31 3e f1 83 0b 3c 9f ab 06 3e
       0.03290419 0.17316131 0.008515344 0.13151406
000360 f9 61 19 3e de 31 13 3e 04 02 d1 3d f4 b4 04 3e
       0.1497878 0.14374492 0.102054626 0.12959653
000370 b8 45 bb bb d0 e9 24 3e 11 6b e8 bd e9 d1 06 bd
       -0.005715098 0.16104817 -0.11348546 -0.03291503
000380 70 de 23 3d 47 08 54 bd fe 52 fd 3d b9 75 e2 3c
       0.040007055 -0.051765706 0.12369345 0.027644025
000390 ae 76 d6 bb b8 11 5b 3c 60 9a a2 bc 85 f8 25 3e
       -0.0065449094 0.013370924 -0.019849002 0.16208084
0003a0 00 64 bd bc 99 df c3 bd 3a 95 00 be e0 ca b9 3d
       -0.023118973 -0.09564132 -0.12556925 0.090718985
0003b0 23 74 6c 3c aa de 53 bd 73 33 9b 3d bf 49 b1 bd
       0.014431986 -0.05172602 0.075781725 -0.08656644
0003c0 b3 fc ea bd 2e 00 38 be aa f2 00 3e 44 a2 bf bc
       -0.1147398 -0.17968819 0.12592569 -0.023392804
0003d0 e9 a5 44 be af 69 9e bc c5 c6 80 3d 91 c1 a0 3d
       -0.19203915 -0.019337503 0.06287912 0.0784942
0003e0 1b a5 4e 3c 70 1b 03 3e f5 9b ac bd 20 88 48 be
       0.012612606 0.12803435 -0.08428184 -0.19583178
0003f0 58 d0 11 be 52 a4 c5 bc 1c 06 e7 bc 8e 33 38 3c
       -0.14239633 -0.024126206 -0.028201155 0.01124276

Actor.log_std_fc3.bias f4 [17]
000000 6d 7f ef bc 4a 66 e4 bd c4 69 bb 3d 9f 85 a5 bd
       -0.029235566 -0.111523226 0.091510326 -0.08082127
000010 84 b0 13 be 18 54 67 3d 16 2c 11 3e 33 fb a2 bd
       -0.14422804 0.056476682 0.14176974 -0.07958069
000020 33 52 c7 bd 3b eb b2 3d 89 76 d0 3d 13 45 37 3d
       -0.09732475 0.08736273 0.10178859 0.04474361
000030 8f 96 c0 3d c7 21 17 bd 88 f4 4a 3d 1e 4d 82 bd
       0.09403717 -0.036897447 0.04954961 -0.06362365
000040 c9 44 59 3d
       0.053044114

Critic.fc1.weight f4 [32, 378]
000000 b4 bf 4c 3f e0 d2 25 bf fc f2 f6 3f 8f d4 fc 3f
       0.79980016 -0.64774895 1.9292903 1.9752368
000010 13 17 22 bf e9 f8 ba bd de 89 0a bf e3 c2 e4 3f
       -0.6331646 -0.09129507 -0.5411662 1.7871975
000020 2b cd 34 3f 3c e2 31 3e 5b 84 cb bf f9 95 cc bf
       0.7062556 0.17371458 -1.5899767 -1.5983268
000030 03 ad 67 3f 62 ff ea bf 77 44 d4 3f 0d 62 c9 bf
       0.9049837 -1.8359187 1.6583394 -1.5733048
000040 0e 66 df bf f5 d5 30 bf f0 a3 e1 3f 6d 40 78 3f
       -1.745302 -0.6907647 1.7628155 0.96973306
000050 54 f8 f7 3f c8 92 a9 3f d4 49 29 3f 77 84 dc 3f
       1.9372659 1.3247919 0.6612828 1.7227925
000060 12 32 5b 3f cb bd 0f be 4c d4 01 c0 f2 27 35 bf
       0.85623276 -0.14037244 -2.0285826 -0.70764077
000070 e1 bd 29 3e 40 04 83 be eb b7 c1 3d aa 98 a0 bd
       0.1657634 -0.2558918 0.09458908 -0.07841618
000080 8f 5e 1f bc f3 2c c2 be 07 e2 82 3e 27 db cd 3d
       -0.009727134 -0.3792492 0.2556307 0.100515656
000090 a7 6c 06 bf 24 06 a8 be 7c 0f 1f bf b8 18 a1 bf
       -0.5250954 -0.32817185 -0.62133 -1.2585669
0000a0 c2 94 63 bd 67 99 a9 3d 18 38 ce 3e 26 56 da 3c
       -0.05556179 0.08281212 0.4027717 0.026652407
0000b0 86 ce 18 3f 28 85 1a be 13 7b f1 3d 3b 33 8d 3c
       0.5969013 -0.15089858 0.11791053 0.017236343
0000c0 e9 a8 ed bc 92 ed 8f 3c 14 63 93 3a 51 ee a2 bc
       -0.029011207 0.017569337 0.0011244738 -0.019889029
0000d0 59 e6 3f 3d 42 64 15 3d e3 bf 4e bd 57 cf 6a bb
       0.046850536 0.036472566 -0.050475966 -0.003582915
0000e0 ed 94 10 bd d7 bd ec 3f 58 c6 ee 3f 00 9c bf 3f
       -0.035298277 1.8495435 1.865428 1.4969482
0000f0 e7 83 e8 bc e7 4b 3e bf c8 f3 38 be e6 31 4b 3f
       -0.028383208 -0.7433457 -0.18061745 0.79373014
000100 8f 34 4b 3e 0f 03 fa 3f 9b 24 fc 3f ef 7f df 3f
       0.19844268 1.9532183 1.9698671 1.7460917
000110 e4 39 cb 3f 62 89 d8 3f 02 8e 7e 3f 2b 01 9f be
       1.5877042 1.6916926 0.99435437 -0.3105558
000120 16 a1 95 3f e6 4f a3 3e 43 17 a4 bf 10 ab e4 3f
       1.1689785 0.31896895 -1.2819599 1.7864704
000130 85 72 00 40 1e 3a fd 3f 62 2a e5 3f 8f 72 f8 3f
       2.0069897 1.9783361 1.7903559 1.940996
000140 f6 b0 06 bf c4 63 4a bf b9 97 c5 bf 87 71 60 bf
       -0.5261377 -0.7905848 -1.5436927 -0.8767323
000150 0f 03 c9 bf 4e 74 b9 bf 27 42 fe 3f 99 42 02 40
       -1.5704058 -1.4488618 1.9863938 2.0353148
000160 c0 5c f7 3f 62 f6 f2 3f c4 be 85 bf 07 03 46 bf
       1.932518 1.898144 -1.0448842 -0.7734837
000170 00 88 e3 bf c4 34 44 bf 7d 8e de bf 01 2a f4 bf
       -1.7775879 -0.76643014 -1.7387234 -1.9075319
000180 2c 6f fb 3f 34 24 f7 3f e5 17 dd 3f 4a de e3 3f
       1.9643302 1.9307923 1.7272917 1.7802212
000190 6a cf a5 bf c3 9a bf bf ce b3 c6 bf 1d f7 cc bf
       -1.2953923 -1.4969105 -1.5523622 -1.6012913
0001a0 3a 46 c8 bf 6d 3f ef bf a5 1c 00 40 93 a3 bb 3f
       -1.5646431 -1.8691231 2.0017483 1.4659294
0001b0 c3 b8 bd 3f 9b 63 c4 3f b6 4a 90 bf ad ff b2 bf
       1.482201 1.5342897 -1.12728 -1.3984276
0001c0 b8 03 8b bf 52 8d e3 bf 8f 0a bb bf 92 41 d2 bf
       -1.086051 -1.7777503 -1.4612597 -1.642626
0001d0 a7 6b f7 3f af e2 f1 3f 3a e9 ea 3f 55 43 e1 3f
       1.9329728 1.8897303 1.8352425 1.7598673
0001e0 2e 80 c4 be 8c e0 ca bc 48 19 e5 3f 2e 97 a1 be
       -0.38379043 -0.024765275 1.789834 -0.31560653
0001f0 c8 3a dc 3f ca f2 f3 bf 3e 75 01 40 37 a9 f0 3f
       1.7205439 -1.9058468 2.022781 1.880164
000200 c4 ce ec 3f 9f 17 fd 3f 66 38 87 bf 52 ca 59 3f
       1.85006 1.9772834 -1.0564086 0.8507434
000210 84 d4 ef 3f 0b b5 75 3f 5d 84 00 40 0a 7c f0 bf
       1.873673 0.95979375 2.0080788 -1.8787854
000220 7d b3 ff 3f b0 b2 f3 3f d3 63 eb 3f 75 20 f5 3f
       1.997665 1.9038906 1.8389839 1.915053
000230 ff 2c 8a bf 42 0d 53 3f da b8 ec 3f 3c b6 76 3f
       -1.0794982 0.82442105 1.8493912 0.9637182
000240 a9 4a f9 3f f6 04 f1 bf e7 7c fb 3f e6 38 f5 3f
       1.947591 -1.8829639 1.9647492 1.9157989
000250 15 fb f5 3f 19 ce bd 3f bf ad 37 3f eb b5 ae bf
       1.9217249 1.4828521 0.7174949 -1.3649267
000260 9b ed bb 3f a2 0c a6 3f 88 48 b9 bf b1 4d 03 40
       1.4681886 1.2972605 -1.447526 2.051617
000270 df 3e fc 3f e3 0d fe 3f 41 79 fd 3f 30 6e b7 3f
       1.9706687 1.9847988 1.9802629 1.4330502
000280 1b 06 5e 3f 7c d2 aa bf 26 aa a0 3f c5 43 b0 3f
       0.86728066 -1.3345485 1.2551925 1.3770682
000290 74 30 97 bf 2e ed fd 3f 1d b4 01 40 e1 c8 f8 3f
       -1.1811662 1.9838006 2.0266182 1.9436303
0002a0 02 f2 d9 3f 2f 70 f0 3f 51 46 94 bf 45 14 75 bf
       1.702698 1.8784236 -1.1583959 -0.95734054
0002b0 d5 c3 d0 bf 7a 2c 87 3f dc a5 d2 3f aa e1 f1 3f
       -1.6309763 1.0560448 1.6456866 1.8896992
0002c0 60 8d 00 40 0b b6 f1 3f ed a1 e6 3f 90 54 ec 3f
       2.0086288 1.888368 1.8018166 1.8463306
0002d0 37 5e a4 bf c2 c3 a2 bf d8 ad d8 bf 0f 68 9d 3f
       -1.2841252 -1.271599 -1.6928053 1.2297381
0002e0 e3 d3 d5 3f f6 cb ec 3f 1a 1d fa 3f 37 8c 05 3d
       1.6705288 1.8499744 1.9540131 0.032604422
0002f0 32 d4 49 3c 99 3d d7 3c 6e 1a 8e 3c 8b 21 22 bc
       0.012318658 0.02627449 0.017346587 -0.009895693
000300 13 ae b4 3b ed 25 68 bf d0 18 04 3f 02 bd dd be
       0.0055139153 -0.9068287 0.5160036 -0.43308264
000310 95 8c be bd 40 48 9a bf a1 da fb bf a5 27 2b bf
       -0.09304158 -1.2053299 -1.9676095 -0.6685737
000320 03 cf d7 3e 8f 3c 8a be 48 38 41 3d 6a 1b 9d bf
       0.42150125 -0.26999328 0.047172815 -1.2273991
000330 29 60 fb bf aa bd 21 bf a9 c9 74 3e 59 0e b2 be
       -1.9638721 -0.6318003 0.23905052 -0.3477657
000340 18 c4 1a 3e 00 c9 96 bf d2 95 f9 bf 9a cf 46 bf
       0.15113866 -1.178009 -1.9498847 -0.77660525
000350 2b b2 c3 3e 8c 16 b9 bd e2 c8 10 be 36 81 87 bf
       0.3822187 -0.090375036 -0.1413913 -1.0586307
000360 d8 0c e6 bf 72 e7 c4 be 33 d6 22 3f 19 72 ca be
       -1.797267 -0.3845783 0.6360809 -0.39540175
000370 f6 20 f8 3e 4d ca 44 bf 27 42 a4 bf 85 13 c8 be
       0.48462647 -0.76871186 -1.2832688 -0.39077392
000380 7b 68 2d 3f 2e 77 c4 be d6 63 f2 3e 7a 7d 3d bf
       0.6773755 -0.38372177 0.47341794 -0.7401959
000390 55 76 ac bf 8e f6 c7 3f b2 cb 18 bf 60 27 a0 3e
       -1.3473612 1.5622118 -0.59685814 0.3128004
0003a0 8e 97 b6 be 28 ab cd bf e0 c9 e7 bf 35 21 af 3f
       -0.35662502 -1.6067858 -1.8108482 1.3682009
0003b0 6c 06 df be e2 33 b7 3e 5a 37 d5 bd d1 37 90 bf
       -0.43559587 0.3578177 -0.10410948 -1.1267034
0003c0 3a 42 a6 bf 50 74 b0 3f b1 01 e7 be 47 69 bf 3e
       -1.2988961 1.3785496 -0.45118478 0.37385008
0003d0 6b b4 98 bd 0f c7 8c bf dc b6 a7 bf ff e6 f4 be
       -0.07456287 -1.0998248 -1.3102679 -0.47832486
0003e0 c4 d9 8c 3e 5f df d3 be 1e 78 c8 3d 05 10 1d bf
       0.27509892 -0.41381356 0.097885355 -0.6135257
0003f0 0b 56 f1 bf 1d 44 eb be af d4 57 3e d0 01 bc be
       -1.8854383 -0.45950404 0.21077226 -0.36720133

Critic.fc1.bias f4 [32]
000000 d9 97 f7 3f 72 b2 fa 3f 00 61 f7 3f 65 ab fd 3f
       1.9343215 1.9585707 1.9326477 1.981793
000010 fe 83 f9 3f 49 8a f3 3f f0 54 db 3f 13 31 e8 3f
       1.9493406 1.9026576 1.7135296 1.8139976
000020 b1 68 00 40 9d 7e fe 3f 7d b7 fc 3f 4c 2d f6 3f
       2.0063899 1.9882389 1.9743496 1.9232574
000030 40 4d fd 3f ec 42 f7 3f f3 9c fb 3f 6c 7c fd 3f
       1.97892 1.9317298 1.9657272 1.9803596
000040 da 69 ff 3f 98 30 fe 3f 39 7a cc 3f a2 b7 ff 3f
       1.9954178 1.985858 1.5974799 1.9977915
000050 c9 48 fe 3f 58 d4 fc 3f c3 50 00 40 b7 04 fb 3f
       1.9865962 1.9752302 2.0049293 1.9610814
000060 22 aa fc 3f 80 3a ef 3f 36 01 ec 3f 1b a5 f4 3f
       1.973942 1.8689728 1.843787 1.9112886
000070 b2 c7 01 40 4a 90 f8 3f 2f c3 de 3f 87 fb f4 3f
       2.0278134 1.9419034 1.7403315 1.913926

Critic.fc2.weight f4 [32, 32]
000000 c5 8a e5 3f ac 57 cf 3f 34 15 f6 3f 20 a0 dc 3f
       1.7932974 1.619863 1.9225221 1.7236366
000010 32 46 e5 3f 87 64 da 3f 8e fc d1 3f 84 79 e9 3f
       1.7912047 1.7061929 1.6405199 1.8240209
000020 b8 ec f9 3f 26 05 f1 3f f5 94 dc 3f aa 76 ef 3f
       1.9525366 1.8829696 1.7232958 1.8708088
000030 40 ab dd 3f 56 79 eb 3f 76 a2 f3 3f 35 60 d4 3f
       1.7317886 1.8396404 1.9033954 1.659186
000040 44 b2 00 40 bd 9a df 3f 5e 19 a8 3f 2f 02 e0 3f
       2.0108805 1.7469097 1.3132741 1.7500666
000050 ce 7d ed 3f 6e 40 ff 3f cf 6b e3 3f 7e a6 da 3f
       1.8554018 1.9941537 1.7767276 1.7082059
000060 c2 7b f8 3f 52 e1 e1 3f 56 df d1 3f 52 66 e2 3f
       1.9412768 1.7646887 1.6396282 1.7687476
000070 f7 5f eb 3f 71 c3 e2 3f 90 08 ce 3f 6f 0c d5 3f
       1.8388661 1.7715894 1.6096363 1.664442
000080 43 04 df 3f 59 46 f0 3f bb 85 e1 3f 58 10 ce 3f
       1.7423176 1.8771468 1.7618936 1.6098738
000090 7c 5d f2 3f ef 4d ec 3f f4 f4 c3 3f 5b c8 d0 3f
       1.8934779 1.8461283 1.5309129 1.6311144
0000a0 46 3c d9 3f 7a bf 00 40 9b 50 e6 3f e6 81 fd 3f
       1.6971519 2.0116868 1.7993349 1.9805267
0000b0 66 59 e5 3f 82 80 d7 3f b7 32 00 40 fe d7 ee 3f
       1.7917907 1.6836092 2.0030954 1.8659666
0000c0 d3 e7 01 40 f1 4f e9 3f b4 1f c4 3f f9 63 f0 3f
       2.0297744 1.8227521 1.5322175 1.8780509
0000d0 ba 06 df 3f 9c fa f3 3f 08 01 00 40 b0 53 e5 3f
       1.7423928 1.9060855 2.000063 1.7916164
0000e0 71 ac e6 3f 55 af d2 3f d1 fb d5 3f 49 ff d4 3f
       1.8021375 1.6459757 1.6717473 1.6640407
0000f0 06 ef fb 3f 2e 74 dc 3f aa 36 bf 3f ab 96 db 3f
       1.9682319 1.7222955 1.4938557 1.7155355
000100 5c 02 da 3f c5 10 e8 3f eb a4 d6 3f ee ea d3 3f
       1.703197 1.8130118 1.6769079 1.655607
000110 54 12 cb 3f 80 c6 f1 3f 5b 84 c0 3f fb 45 ca 3f
       1.5864968 1.8888702 1.5040392 1.5802606
000120 61 4d e6 3f e7 67 ee 3f 59 88 d9 3f dc 91 e4 3f
       1.7992364 1.8625458 1.6994735 1.7857013
000130 46 20 f0 3f 92 37 e5 3f 13 2f fe 3f d7 7c ca 3f
       1.8759849 1.7907584 1.9858116 1.5819348
000140 7c bf 00 40 1d 49 df 3f d0 f6 b6 3f de b6 e6 3f
       2.0116873 1.7444187 1.4294071 1.8024557
000150 ed b1 da 3f 9d cf e3 3f e3 b8 d5 3f 0f ab d5 3f
       1.7085549 1.7797734 1.6697048 1.6692828
000160 7e 25 fb 3f 7f d4 f1 3f 2b 32 c7 3f e4 99 d9 3f
       1.9620817 1.8892974 1.5562185 1.7000089
000170 84 86 ec 3f 3b 73 db 3f 3b d6 c8 3f c2 ca d4 3f
       1.8478551 1.714454 1.5690378 1.6624377
000180 c0 85 e8 3f a7 84 db 3f 58 97 ed 3f 05 5f d2 3f
       1.8165817 1.7149857 1.8561811 1.6435248
000190 b0 a1 ec 3f bf 37 00 40 ad e8 e4 3f 35 de dc 3f
       1.8486843 2.0034025 1.7883507 1.7255312
0001a0 41 8f f9 3f ce 83 f4 3f 52 08 fd 3f 64 a8 e4 3f
       1.9496843 1.9102724 1.9768164 1.7863889
0001b0 0d 2a f7 3f c8 9c e6 3f 78 da e0 3f 36 fd cb 3f
       1.9309708 1.8016596 1.7566671 1.5936649
0001c0 4a 4c 02 40 eb 67 f1 3f 9c d0 a1 3f 01 90 ed 3f
       2.0359063 1.8859838 1.2641788 1.8559572
0001d0 6e d6 f0 3f c1 67 fc 3f 48 be e2 3f 19 c5 ee 3f
       1.8815439 1.9719163 1.7714319 1.86539
0001e0 23 f8 ef 3f 72 8b de 3f 4d 49 de 3f 71 e8 db 3f
       1.87476 1.7386305 1.736612 1.718031
0001f0 ff c8 f6 3f 17 75 df 3f c1 ca d7 3f 6f 61 f6 3f
       1.9280089 1.7457608 1.685875 1.9248484
000200 90 6a d0 3f 72 49 f6 3f 37 27 d9 3f 58 7f d7 3f
       1.628252 1.9241164 1.6965092 1.6835737
000210 0b 45 f0 3f e3 f8 da 3f b7 ef c1 3f fb 1c ed 3f
       1.877107 1.7107204 1.515128 1.8524469
000220 ea 8d f9 3f 6e 7f e7 3f c3 6a eb 3f 6e 91 d7 3f
       1.9496434 1.8085763 1.8391956 1.6841257
000230 47 e2 dd 3f 56 e3 e3 3f bf 7e e6 3f 0b 8b e9 3f
       1.7334679 1.7803752 1.800743 1.8245558
000240 4b 53 f1 3f 00 56 de 3f b7 64 ab 3f 97 a9 f1 3f
       1.8853544 1.7369995 1.3390111 1.887988
000250 e1 6d f1 3f be f0 ec 3f 05 0a f4 3f 34 7a f1 3f
       1.8861657 1.8510969 1.9065558 1.8865418
000260 07 70 e2 3f c8 1a e9 3f 1c 70 c6 3f c6 b7 f9 3f
       1.7690438 1.8211298 1.5502963 1.9509208
000270 fb 98 d7 3f bb f5 db 3f 28 6f c8 3f 5c 5f d3 3f
       1.6843561 1.7184366 1.5658922 1.6513476
000280 cc 15 d3 3f 90 9a d8 3f 98 a9 d6 3f 59 cd e0 3f
       1.6491027 1.6922169 1.6770506 1.7562667
000290 5d 0a d5 3f f7 a3 f7 3f 30 41 c3 3f ad cc d8 3f
       1.6643788 1.9346913 1.5254269 1.6937462
0002a0 95 f1 d0 3f d4 8e fd 3f c7 29 d8 3f 6f 41 f4 3f
       1.6323725 1.9809213 1.688775 1.9082469
0002b0 d7 3e eb 3f 86 3d d4 3f df 0e e4 3f 1b 2b f2 3f
       1.8378552 1.6581275 1.7817038 1.8919405
0002c0 8d 3b f5 3f 83 ec f8 3f dc 39 a7 3f 00 28 e1 3f
       1.9158798 1.9447178 1.3064532 1.7590332
0002d0 68 63 d3 3f e3 5d f5 3f 79 a4 e0 3f ce fa fd 3f
       1.6514711 1.9169277 1.7550193 1.9842165
0002e0 14 10 dd 3f d3 c4 e4 3f 9a f7 d9 3f 53 77 e0 3f
       1.7270532 1.7872566 1.7028687 1.7536415
0002f0 3c 27 d6 3f bd 2b ed 3f a9 33 d2 3f b5 42 cf 3f
       1.6730723 1.8528973 1.6422015 1.6192232
000300 0a 4d f0 3d 1f 73 e0 bd 7f 62 dd 3d 57 d3 2e be
       0.11733444 -0.109594576 0.10809802 -0.17072807
000310 a4 4a 7d bd 4d bd a9 3d b1 bb 39 3d f0 1f a3 bd
       -0.06183876 0.082880594 0.045345012 -0.07965076
000320 97 15 95 3d 1b f9 1c be 4b 8b cb bd 70 4a e7 3d
       0.072795086 -0.15329401 -0.099386774 0.11293495
000330 65 c2 fb bc 4f 5e 0b 3d c3 68 32 3e 84 65 e1 bd
       -0.030732343 0.034025487 0.17422776 -0.11005691
000340 6b 7c 65 bd 18 4b 16 3d 6f 9c be bd 23 7c 1f be
       -0.056026857 0.03669271 -0.09307181 -0.15574698
000350 45 da 22 be d9 66 04 be 7e 7c 2b be 8e 6a 25 be
       -0.15903576 -0.12929858 -0.16746709 -0.16153929
000360 08 eb a5 bd 7a ca 8f bc ba 1c aa bd 9a da 10 be
       -0.08101469 -0.017552603 -0.083062604 -0.1414589
000370 bf c2 49 bd 13 54 fb 3d 7a 97 f4 bd 77 8b af bb
       -0.04925799 0.12271895 -0.11942954 -0.0053572017
000380 4c 73 e4 3f 99 ea e3 3f 0e f9 f6 3f 10 82 e0 3f
       1.7847686 1.7805969 1.9294755 1.7539692
000390 82 cf e5 3f 06 c4 d8 3f 08 76 e3 3f 49 fb e7 3f
       1.7953951 1.6934822 1.7770395 1.8123561
0003a0 02 cc f1 3f 11 a9 dc 3f 42 d9 de 3f 7b 1b d2 3f
       1.8890383 1.7239095 1.7410052 1.6414636
0003b0 2e de e4 3f 15 ad d5 3f b1 32 fd 3f 62 c6 e8 3f
       1.7880304 1.6693445 1.9781095 1.8185542
0003c0 1c 27 fb 3f 2b 91 ee 3f 74 24 a3 3f 76 1c fe 3f
       1.962131 1.8638052 1.27455 1.9852436
0003d0 9c f4 cf 3f 0e 6d dd 3f d4 ff e7 3f b1 bd de 3f
       1.6246524 1.7298906 1.8124948 1.7401639
0003e0 03 e4 f9 3f a5 91 e1 3f 21 93 d7 3f 57 fe d8 3f
       1.9522709 1.7622572 1.6841775 1.6952618
0003f0 d3 a6 e1 3f 24 87 e5 3f 14 a9 d8 3f 45 32 e4 3f
       1.7629036 1.7931867 1.6926599 1.7827841

Critic.fc2.bias f4 [32]
000000 30 8c bb 3f f1 42 cf 3f 25 1b d4 3f 58 a1 d3 3f
       1.4652157 1.6192304 1.6570784 1.6533613
000010 78 cc c0 3f 8a ca d8 3f 7e 82 94 3d fb ce b9 3f
       1.5062399 1.693681 0.07251452 1.451629
000020 f3 70 d0 3f 4a 3d bf 3f aa e1 e5 3f 5d c2 e1 3f
       1.6284469 1.4940579 1.7959492 1.763744
000030 ff c5 bf 3f c9 52 d2 3f 3f 03 b8 3f d2 55 e0 3f
       1.4982299 1.6431514 1.4375991 1.752619
000040 16 48 bd 3f ac d2 c1 3f f3 ea c4 3f c6 b0 de 3f
       1.4787624 1.5142417 1.5384201 1.7397697
000050 7c c6 df bd 8b 04 e4 3f 4d 41 c2 3f ac 06 c8 3f
       -0.1092653 1.7813886 1.5176178 1.5627036
000060 08 50 c0 3f 30 ab c0 3f 1c 9a cb 3f ea 68 e2 3f
       1.5024424 1.5052242 1.5906405 1.7688267
000070 56 15 cb 3f 8d b3 bb 3f 66 38 d5 3f ad e4 d3 3f
       1.5865886 1.466417 1.6657836 1.6554161

Critic.fc3.weight f4 [1, 32]
000000 e4 31 f3 bf 80 f0 f2 bf d1 73 f0 bf 23 f5 ef bf
       -1.89996 -1.8979645 -1.8785344 -1.8746685
000010 ab bc f2 bf c2 87 ef bf 7e e4 a2 ba 5b 08 f1 bf
       -1.8963827 -1.8713305 -0.0012427715 -1.8830675
000020 0c 40 ec bf 06 fe ef bf 76 d7 f0 bf 06 f3 f2 bf
       -1.8457046 -1.8749397 -1.8815753 -1.8980415
000030 93 72 f0 bf 4e d0 ee bf 9f 3b f3 bf 10 5c f1 bf
       -1.8784965 -1.865732 -1.900257 -1.885622
000040 8e 69 ee bf 3d f6 f1 bf c3 26 f3 bf f6 ed f0 bf
       -1.8625963 -1.8903271 -1.8996204 -1.882262
000050 24 d5 c7 bb df 17 f0 bf 57 d3 f0 bf 79 8b ee bf
       -0.0060984064 -1.8757285 -1.8814496 -1.8636314
000060 cf 22 f2 bf e3 97 f3 bf d4 be f0 bf 76 63 ee bf
       -1.8916873 -1.9030727 -1.8808236 -1.8624103
000070 e3 58 f1 bf 36 2e f1 bf 84 d2 ef bf a9 a4 f1 bf
       -1.8855251 -1.8842227 -1.8736119 -1.8878375
