model_6.pt (torch, 114732 bytes, 13 tensors)

Actor.fc1.weight f4 [32, 378]
00000000: 17f5 0dbc c354 3fbc 5bf0 8c3d be77 c63d
00000010: 1ab3 f6bc 6652 8e3d bfe9 e33c c513 103c
00000020: 8f6a b5bc b030 423c 9cbc b6bc 3938 363d
00000030: 625d 76bd 72d7 4fbd bcc7 0ebc 1ded 083d
00000040: cf5a 9cbd 1210 d1bd 2180 bb3d dfcc 68bd
00000050: b7ae bebd ddba c3bd 87c7 fe3d fb7a 43bd
00000060: 6ad0 13bd f9a6 d3bb 1d34 7dbd dc95 c63c
00000070: 4f60 b23d 89a7 4ebc 19cf e73c 0364 cabd
00000080: 33dc 463c de6d 0c3d 47dc 753c 8d8f d23c
00000090: 5840 e8bc 51c5 fabc 9930 323d 8a33 f5b8
000000a0: 3bbd f73b e7f1 a53d a98c d0bd a128 e7bd
000000b0: f95f fcbd aad0 b63d 96fa d5bc bf24 0000
000000c0: 4e0a 1a80 822a 0080 7108 0000 c336 3100
000000d0: 9bae 0080 919b 0180 e448 0000 0d20 0080
000000e0: a063 0080 a911 8b3d 7475 b33d f3c0 c43d
000000f0: dba1 463b a08b 963c 461b b23b 61a5 57bd
00000100: a73c 71bb 953b 093d d04b b63d 4a3c b83d
00000110: 40d0 3d3d db89 6e3d f6fd 1ebb 43d5 923d
00000120: fc7d 64bb 8fdf 64bd 33c4 dabc 8823 b53d
00000130: ce0a 833c aa78 3b3c 10c9 293d 5e59 9d3d
00000140: 866c 853c 3260 6e3d 24a5 f8ba ab8b 91bd
00000150: 7ec1 f0bc cf69 c03d e78b aa3d 3b85 9d3d
00000160: b67b 9d3d 3371 0f3d 44a4 1e3c 36dd 6a3d
00000170: 80bc 9ebd 2c4e 8bbb 8792 5cbc f833 4fbc
00000180: 4ee9 863c 3b52 b13c f1e8 923c 265b 823d
00000190: 90ed 0a3d f20e df3c 40c0 a7bd ee3b 7a3d
000001a0: 3c26 afbc 3bb3 b4bd acd4 b63d f95f 493d
000001b0: 3b19 b93c b9af a33d 6ec4 46bd 54e4 88bd
000001c0: 05db b9bb f72b 6ebc a02d bcbc 04b6 5fbc
000001d0: 6e0b 243d ae6a c43d 40ef 603d 2d9e 443d
000001e0: 4350 76bd 4e5e 803d 12c1 a73d 3f5e 993d
000001f0: 31b9 613d 4752 8ebc 5594 2e3d 06a0 723d
00000200: 8aae 133c d86b 033d ac0c 1fbd c1f2 c33c
00000210: d42b cd3d 590b 9d3c d524 7e3d aaf3 99bd
00000220: 5827 c53c 2e8e 323d 8ab6 9b3d dbac 7e3d
00000230: bb30 7a3d 8741 97bd 7227 d43c d54d 5bbd
00000240: 5784 783d 90b2 12bd 3637 9f3d 9591 353d
00000250: 1eeb d13d 666a 653d e5ca 073c cc1a ffbc
00000260: b8ac 013d 4275 303d c004 8bbd 97df ad3c
00000270: 4a5b d93c 2fc7 35bb 24db 913d 3af4 973d
00000280: 6c6c 3a3d 1c67 53bd 0aa4 fd3c ebb9 da3c
00000290: ef81 d1bd a47d b13d 4552 713d be94 643d
000002a0: 45f4 653d ab37 aa3d c89f d5bb 48c9 d7bc
000002b0: 9943 c7bc c201 133d a415 093d 72bc 1c3d
000002c0: e2dd cc3d 4d95 203c 9d7f 473d 917e 8b3d
000002d0: cc47 47bb 6626 81bd 77b2 a7bd 1a5c 3a3d
000002e0: b635 873d 30f0 203d f1d6 c43d ef13 0080
000002f0: 93bd 0000 68e3 4e03 3907 9881 8147 0180
00000300: 135b 0000 882f 913c ea32 f03c 7eb7 b9bb
00000310: ecb5 19bd d40a 67bc 7813 74bd 7b49 19bd
00000320: f7f3 afbd 5b4a dbbc 4594 a53c 412f 9fbc
00000330: 9d41 3fbd a15f 3b3d 35ed 8cbc de91 af3c
00000340: de3d 9cba 5225 74bc 1c99 0abc 5cb1 f73b
00000350: 6f43 55bc 88cf acbc cb77 2d3d c619 aabc
00000360: d20c 7fbd b71a 353d 4557 c33d 40d1 683d
00000370: cdb9 1c3d 3e2d 503c da9e f23c d95e 8d3b
00000380: 1608 d93d a5a7 75bc 9d91 953d ca80 e7ba
00000390: 474b 873c 7565 36bc b8cd 22ba 556d 02bd
000003a0: 8935 5e3d bda0 083d 3076 a5bb 945f 22bd
000003b0: 8c3a 833d 21bc d63c 879f 823d 6944 eabc
000003c0: 334c 02bd 57e7 d03c 8d22 be3d 3f25 8d3c
000003d0: 0d56 0a3d 0ecf 673c 0515 923b 2cf3 733d
000003e0: b843 0b3e 541d 663d 6e43 c7bd 60f1 283e
000003f0: 9e8d 6abc b0f7 b33d 9656 043e 7961 3dbe
-0.008664391 -0.011677924 0.06881782 0.09690808 -0.0301147 0.0694931 0.02782142 0.008793776
-0.022145538 0.011852428 -0.022306733 0.04448721 -0.06014765 -0.050742574 -0.008714613 0.033429254
-0.07634508 -0.10208143 0.09155298 -0.056836005 -0.09310668 -0.09557126 0.124404006 -0.047724705
-0.03608743 -0.0064591137 -0.061817277 0.02424138 0.08709776 -0.012613186 0.028296994 -0.09882357
0.0121374605 0.034284465 0.0150061315 0.025703216 -0.028350994 -0.030611666 0.043503378 -0.0001169211
0.0075604 0.0810278 -0.10183079 -0.11287046 -0.12322993 0.08926518 -0.026120465 1.3182e-41
-2.39142e-39 -1.5249e-41 3.028e-42 4.519584e-39 -6.2637e-41 -1.47642e-40 2.6148e-41 -1.1498e-41
-3.5739e-41 0.06790478 0.08762637 0.09607115 0.0030308876 0.018377125 0.00543538 -0.052647952
-0.0036809833 0.033504087 0.08901179 0.08995874 0.04634118 0.058236938 -0.002426026 0.07169583
-0.0034865132 -0.055877265 -0.026704883 0.08844668 0.015996363 0.011442343 0.041451514 0.07683061
0.0162871 0.058197208 -0.0018970114 -0.07106718 -0.02938914 0.093951814 0.083274655 0.07691427
0.076896116 0.035020065 0.009682719 0.05733987 -0.07750797 -0.004251262 -0.013462669 -0.012646668
0.01646867 0.021645656 0.01793334 0.063650414 0.033917964 0.027228806 -0.08190966 0.06109231
-0.021380536 -0.08823248 0.08927283 0.049163792 0.022595039 0.07992501 -0.048527174 -0.06684175
-0.005671861 -0.014536849 -0.022970974 -0.013654236 0.040049963 0.0959066 0.054915667 0.04800241
-0.060135137 0.06267987 0.08191122 0.07488679 0.055108253 -0.017373217 0.04262193 0.05923464
0.009013781 0.03208527 -0.038830444 0.023919465 0.10018125 0.01917045 0.062046845 -0.07517178
0.024066612 0.043592624 0.07603176 0.062176567 0.06108163 -0.07385545 0.025897715 -0.053541023
0.060673084 -0.03581482 0.077742025 0.04432829 0.10249923 0.056009673 0.00828812 -0.031140707
0.031658858 0.043080576 -0.06788015 0.02122478 0.026532788 -0.002773713 0.07121876 0.074196294
0.045513555 -0.051612005 0.030962009 0.02669998 -0.10229861 0.08666542 0.05891635 0.055805914
0.056141157 0.08311399 -0.0065192915 -0.026341096 -0.024324225 0.03589035 0.033467904 0.038265653
0.10003258 0.009801221 0.048705686 0.0681125 -0.0030407785 -0.06306152 -0.08188336 0.04549799
0.066020414 0.03929156 0.09611309 -7.151e-42 6.8006e-41 6.079901e-37 -5.5846346e-38 -1.17486e-40
3.2671e-41 0.01772286 0.029321153 -0.005667626 -0.03752701 -0.014101703 -0.05958888 -0.037423592
-0.085914545 -0.026768854 0.020212302 -0.019431712 -0.046693433 0.045745496 -0.017202953 0.02143186
-0.0011920293 -0.014901476 -0.008459356 0.0075589847 -0.013016566 -0.021095052 0.04235057 -0.020764243
-0.062268086 0.04421493 0.0953813 0.05684018 0.03826313 0.012706099 0.029616762 0.0043142852
0.105972454 -0.014993583 0.07303164 -0.0017662283 0.016515387 -0.011132588 -0.0006210464 -0.03184255
0.054250274 0.033356417 -0.0050494894 -0.03964193 0.06407651 0.026212754 0.06378084 -0.028597074
-0.03181095 0.025500936 0.09283934 0.017229674 0.03377347 0.014148487 0.004458072 0.05955808
0.13600051 0.056180313 -0.09729658 0.16498327 -0.014315991 0.08787477 0.12923655 -0.18494214

Actor.fc1.bias f4 [32]
00000000: 5972 cf3d 6bbf 8a3d d98e 53bd d725 dd3d
00000010: 18de 093e 8134 79bd 0106 163e 50bf e1bc
00000020: 6c9d d13c ef15 bd3c 4d06 ad3c 518d 223c
00000030: 29d8 0a3e 8056 c13d 29ba 733c d962 e13c
00000040: 6cbd 5eb8 656d 663d ab0a 9e3d 2dc6 f93d
00000050: 808a 8c3a 9a0f 78bd f110 52bb 1801 af3c
00000060: d9cf 8dbc bec5 383c d9d5 7e3d 7bb3 073e
00000070: 67d1 5c3c f3bf 8f3d 7f1e 01bd 5c8d 023e
0.10129232 0.06774791 -0.051649902 0.10798233 0.13463628 -0.060841087 0.14650728 -0.027557045
0.02558776 0.023081748 0.021121169 0.009921388 0.13559021 0.09440327 0.014875927 0.027512955
-5.3105337e-05 0.05625667 0.077168785 0.12196002 0.0010722429 -0.060561754 -0.0032053555 0.021362826
-0.017311024 0.011277614 0.06221566 0.1325206 0.01347766 0.07019033 -0.031523224 0.12749237

Actor.fc2.weight f4 [32, 32]
00000000: ea79 04bd 2789 093e 1c87 553c 586b 563e
00000010: 40ad 15bd 62df bcbd 11e2 eb3d 6fa9 0f3e
00000020: bb93 52bd 4e6e ce3d 152a 2bbe 3c7a 393e
00000030: 0ad2 6b3a 7171 95bd 7ee4 273e 5550 dd3c
00000040: 9788 3f3d 480c 1ebd 33a5 15be d4c8 293e
00000050: 890f 9abd 1af8 213e 9ec8 cbbd f736 07be
00000060: e583 4cbd d37e 02bd a2a2 1a3e 5488 c13d
00000070: f920 893c fdb4 ec3d 9821 0ebe d730 573e
00000080: 6d97 e33d 5882 01be 2931 723c d94f 173e
00000090: 138b 6b3e f09d cc3d a799 cf3d 0134 f83d
000000a0: 4070 2b3e d77e 1d3e 87c2 ce3d 0c83 03bd
000000b0: f198 debc ffaf 29be b777 de3d 018c d63c
000000c0: 3e94 04bc 6d99 163e e146 943c 0a11 2d3d
000000d0: b933 d9bd d735 c03d cf37 e2bd 46f2 84bd
000000e0: a347 47bd 174d 063e b247 ee3d 7aa2 333e
000000f0: f5c7 853c ad24 f5bc 360d 053d 4486 f13d
00000100: b165 1c3e 1114 b3bd f0a9 f9bc ebf1 293e
00000110: 7530 533d 772e 30bd a889 643e f674 073d
00000120: ccc6 b53d f21c cdbd 4647 14bc 6cc3 0d3e
00000130: dfd0 8cbd e5aa 7bbd ae05 4ebd da2b d63c
00000140: 3071 dab9 9ba7 11be 284a 7bbd 2f4a 5f3e
00000150: 9711 6d3d 9218 01bd ff25 0d3e 447b 213e
00000160: b5e5 46bd 1547 803d 4053 ca3d e3e0 aa3d
00000170: fbfd 8b3c 68de 8d3d aa99 c93d e90e 923d
00000180: 2b26 0ebe ae6a 4ebc fd0b e93d 387c 753d
00000190: d9b8 7b3b f5d4 573d 6c6a e83b 0875 13be
000001a0: 5a62 fd3d 0656 883d 5b12 d13d f959 893b
000001b0: 1b46 a93d e27c 173d 9de4 13bd 5b54 d73c
000001c0: 6479 863d 024e 80bd 4d29 463d 3bd6 b53d
000001d0: 79e6 d8bd 6443 aebd 0775 b83c 424c f4bd
000001e0: 17f9 50bd 483f 1ebe 33c0 c3bd a45e 343e
000001f0: 3fc7 8b3c 87a4 a73d 232e 09be 1513 6d3e
00000200: e2f0 b33d 8391 fc3c 0d41 0fbe 654e 373e
00000210: 2adb 013e d3dd a4bd bcb4 dd3d 64a7 87bb
00000220: a3ce 203e 244e 2e3e 01a8 e43d 7e72 71bd
00000230: 5de0 603e eedf d93d ebe3 4abd 3cef e33c
00000240: 3d82 3bbc a390 babd e9f4 b33c 49d1 2b3e
00000250: 51ac 4c3d c4b4 58bd efaf 9b3d 8bca 25bc
00000260: fca5 43bd 8da8 4e3d 1899 92bd 4673 83bd
00000270: 79bb 853c 7290 16be 8a20 173e 1dcd 743e
00000280: a535 9ebd 9c1a 5fbc 6615 623d be30 00bc
00000290: b012 bebd 9c8f febd 2093 4f3e 4092 de3d
000002a0: 9fef 0d3e 2f1b f2bd f3e4 b83d 8bfd 033e
000002b0: 79b4 243e d8e2 363e e6a2 e73d 5605 f03c
000002c0: 139e 36bc 333d 863d 9718 e63c e1ac 4b3e
000002d0: 98ef 8ebd 2895 d13d c6d4 9b3d 561b 99bd
000002e0: 5587 dfbc cb89 d6bd 6db6 413e 6708 233e
000002f0: 8ff2 883c d3dd 103e 66fb debd ebd4 4a3e
00000300: d6de 353d 9010 eb3d 21da e8bd 477b db3d
00000310: c067 4b3e a78b 123e 8fa3 7d3d 8ead ab3d
00000320: 6ef6 e93d f264 10bd 2646 58bb 6958 e1bc
00000330: 97f3 c3bd d199 023e b552 123e 84cf d13c
00000340: 9044 59bd 418c 1a3e f0dc 033e 3011 503e
00000350: 8943 f4bc 32bb d2bd 0e4c b0bd 7203 67bd
00000360: 1f02 51bd 22da 1fbe 078d 8abd 8a5b f2bc
00000370: 8571 873c d6f9 993d 0013 0bbd b04d 333e
00000380: 8b78 44bd 3159 bd3d 865a 93bd ca6a 163d
00000390: bf79 923d 1a40 2a3d 9052 b9bd 981d 0cbe
000003a0: 1837 b93d 60c8 e83c 618e e0bd b861 173e
000003b0: 7091 343e 090c 043d 1da5 183e f0ff df3c
000003c0: bc7a 3e3c 5905 1d3e b558 113e a921 f93d
000003d0: 9217 37bc cdf8 8e3d 1736 7bbd d891 c9bd
000003e0: 2f94 4cbd a56a 12be a69e 1cbb c23b f33d
000003f0: 2a50 8b3c 87b6 edbd 4ee9 253e 00a2 ad3d
-0.03234283 0.13431226 0.013032701 0.20939386 -0.036542177 -0.092222944 0.11517728 0.14029478
-0.051410418 0.10079633 -0.16715272 0.18113035 0.0008995837 -0.07297028 0.16395757 0.027015844
0.04676112 -0.03858593 -0.146138 0.16580516 -0.07522494 0.158173 -0.09950374 -0.13204561
-0.049930472 -0.03185923 0.15101102 0.09449831 0.016739355 0.11557958 -0.13880002 0.21014725
0.111128666 -0.12647378 0.0147822285 0.14776553 0.23002271 0.09991062 0.10136729 0.12119294
0.16742039 0.15380417 0.10095697 -0.032107398 -0.027172538 -0.16571043 0.108626775 0.026189806
-0.008091984 0.14706965 0.018100204 0.042252578 -0.106055684 0.09385269 -0.11045801 -0.064915225
-0.048652302 0.13115345 0.116347685 0.17542449 0.016330699 -0.029924715 0.032483302 0.11793187
0.15273167 -0.08744062 -0.03047654 0.1659619 0.051559884 -0.043013062 0.22318137 0.033070527
0.08875808 -0.100152865 -0.009050196 0.13844079 -0.068757765 -0.061442275 -0.050298385 0.026143957
-0.0004166453 -0.14224093 -0.061350018 0.21805643 0.057878103 -0.031517573 0.13784026 0.15769678
-0.04855891 0.06263558 0.0987916 0.08343675 0.01708888 0.06927186 0.09843762 0.0713175
-0.13881747 -0.012598677 0.1137924 0.059932917 0.0038409738 0.052693326 0.0070927646 -0.14400113
0.12372275 0.06657033 0.10208579 0.004191634 0.08265325 0.036984332 -0.036106694 0.026285341
0.06566122 -0.06264879 0.04837923 0.08878752 -0.10590834 -0.085089475 0.02251674 -0.119286075
-0.0510188 -0.15453827 -0.095581435 0.17614228 0.017062781 0.08185678 -0.13396506 0.2315181
0.08786179 0.030831104 -0.13989659 0.17900999 0.1268126 -0.08050122 0.10825488 -0.0041398276
0.15703826 0.17021996 0.11164857 -0.05894708 0.21960588 0.10638414 -0.049533766 0.027824037
-0.011444625 -0.091096185 0.021967368 0.16779055 0.04996902 -0.052906767 0.07601916 -0.010119091
-0.047765717 0.05045371 -0.071581066 -0.06418471 0.016324745 -0.14703539 0.14758506 0.2390637
-0.07725076 -0.013617184 0.05519619 -0.007824121 -0.09280908 -0.12429735 0.20270967 0.10867739
0.1386094 -0.11821591 0.090280436 0.12889688 0.1608447 0.17859972 0.11310367 0.02929942
-0.011146086 0.065546416 0.028087897 0.19890167 -0.06979293 0.102335274 0.07608943 -0.07475917
-0.027286211 -0.10475501 0.18917246 0.15921174 0.016717223 0.14147119 -0.10887794 0.19807784
0.044401966 0.114777684 -0.1136973 0.10716873 0.19863796 0.14311086 0.06192356 0.08382712
0.11423956 -0.03525252 -0.0033000796 -0.027507978 -0.095679455 0.12753989 0.14289363 0.025611646
-0.053043902 0.15092565 0.1287725 0.20319057 -0.02981736 -0.10289611 -0.08608256 -0.05639977
-0.051027413 -0.15610555 -0.0676518 -0.029584665 0.016533623 0.075183555 -0.033953667 0.17510104
-0.04796652 0.092455275 -0.07195 0.036722936 0.071521275 0.04156504 -0.09048951 -0.13683164
0.090437114 0.028415859 -0.109646566 0.1478337 0.17633605 0.03223804 0.14906736 0.02734372
0.011625942 0.15334071 0.14193995 0.12164623 -0.011175053 0.06981049 -0.06133088 -0.098422706
-0.049946006 -0.14298494 -0.0023898273 0.11876632 0.017005999 -0.1160708 0.1620228 0.08478165

Actor.fc2.bias f4 [32]
00000000: 0234 23bd 75c9 fb3d 2650 70bd c6d4 773d
00000010: f974 aa3d d354 5a3e ca1c f13d ff7f c2bd
00000020: 10ed b1bd dc71 153e e789 033e 10bb 493e
00000030: cc97 143e d8dd 0a3e 538f fb3d a48a 703d
00000040: d096 7bbc c280 da3d 77f2 8f3c d70b 36bd
00000050: 2383 3cbb 9db2 0bbd 0868 cebd 84ec e83b
00000060: 7891 533e 87cc 41ba 8466 273e 4203 4f3e
00000070: 5ea1 363e bd07 d2bd abe6 f7bc dc8d 563d
-0.03984452 0.12294284 -0.058670186 0.06050565 0.08323092 0.2132142 0.11773069 -0.094970696
-0.08687794 0.14594215 0.12845574 0.19700265 0.14511031 0.13561189 0.12283196 0.058725968
-0.015355781 0.1066909 0.017571671 -0.044444885 -0.0028764687 -0.034105886 -0.10078436 0.007108273
0.2066096 -0.00073928427 0.163477 0.20216087 0.17834994 -0.10255382 -0.030261358 0.05238138

Actor.mean_fc3.weight f4 [17, 32]
00000000: 8116 0000 1dd9 0880 57fe 0980 cf03 0000
00000010: 1300 0080 a216 0b80 6332 0000 21a3 0580
00000020: 2abb 1100 022e 0600 b518 0000 7d9f 0600
00000030: 284c 0401 5e37 0080 de01 0080 ca0e 0080
00000040: 8f28 5880 df0e 1500 83a8 4500 6d34 0080
00000050: c7fe 0400 10bd 1080 923a 0000 0249 0080
00000060: 200f 0080 b747 2d80 b742 0000 753a 0000
00000070: d54d 0f00 ca2f 1600 da4c 0000 9353 0000
00000080: 978e 3080 c348 0000 cc0c 0000 95ff 0600
00000090: 921b 0000 b76f 0500 5256 0080 8912 5400
000000a0: 2068 0000 d311 0000 ae08 0000 c606 0000
000000b0: bf5a 0080 9273 0780 2e29 0b80 850a 0000
000000c0: 3b47 3780 fb68 0080 d131 0000 fd6e 0000
000000d0: fffc 0a80 385a 0080 f46a 0900 e0d9 0380
000000e0: 63b5 4000 212f 0000 104c 0f80 542b 0080
000000f0: 1556 0000 aa5a 0080 ac43 0080 8c4a 0000
00000100: e746 0000 3324 0400 2e0a 0080 7237 0000
00000110: 4f3a 0000 a609 0000 b12a 0080 04d2 1580
00000120: 2b2b 0080 ca63 1700 f83f 0000 e76b 0080
00000130: e13c 0080 b08c 0880 fc45 0080 cb1e 0000
00000140: 4d08 0080 242f 0000 f35d 0000 c67d 0d80
00000150: 6bcd 0800 2d0a 0000 d30d 0000 4b5a 1900
00000160: ab59 0580 8521 1c00 4c34 0000 2659 0080
00000170: 4758 0000 6f3f 0000 484c 0080 ee13 a600
00000180: d0bb 0900 a69e 1480 7d38 0080 9549 0000
00000190: abfe 0680 2517 0b00 9d48 0080 5405 0000
000001a0: 6110 0700 650a 0080 8d67 0080 0345 0080
000001b0: 3917 2c80 1a27 0600 6161 0000 3746 0000
000001c0: f725 0000 7e1b 0000 219a 0580 af9d 2000
000001d0: 5956 0080 6d10 0000 c222 0080 7b06 0080
000001e0: 25fc 0d00 9c2f 0080 5b08 0000 0738 0000
000001f0: ab62 0080 0e66 0080 1422 0000 b51d 0000
00000200: d708 0000 0329 0080 ca41 0000 c323 0000
00000210: 2f5a 0000 ed2a 0080 91f6 7100 331e 4a80
00000220: f33a 0000 415e 0000 9b18 0080 7451 0000
00000230: b52b 0000 155a 0080 c46e 0c80 1550 0000
00000240: a727 0580 7ad2 0b00 656e 5280 1d1c 0980
00000250: d5b0 2500 e72b 0b00 a943 0080 652f 0080
00000260: e656 2680 f508 0080 9b98 0780 981a 0000
00000270: a03f 0a80 351d 0000 49eb 0d80 0352 0000
00000280: 570a 0000 ae1f 0000 7451 0000 2e3b 0b80
00000290: dd6b 0000 2daf 0c00 5a64 0000 5b1d 0080
000002a0: 379f 2100 5136 0000 d21f 0000 e824 0000
000002b0: ee4d 0000 be44 0000 8d64 1600 f35d 0580
000002c0: 7609 b780 28f0 3780 8022 0000 deec 0a00
000002d0: 941f 0080 75c0 2400 ca0f 0080 f74e 0000
000002e0: c621 0080 155b 0000 1615 0000 2425 0080
000002f0: d113 0080 4932 0080 989e 0480 f655 0000
00000300: fd02 0080 a225 0080 d53c 0000 4d5f 0080
00000310: 7017 0080 bb34 0080 f20f 0080 3b42 0080
00000320: 0c3f 0080 383e 0000 b40c 0080 0f2f 0080
00000330: fdb2 0480 9fe3 0480 2a2f 0000 8e5a 0000
00000340: 7cb0 0d00 a217 0080 034f 0080 8038 0000
00000350: f039 0080 5d54 0080 5534 0000 231f 0080
00000360: e200 0080 d531 0000 43e2 1a00 636a 0000
00000370: ce5b 0c00 2255 0000 3d34 0000 9fde 5200
00000380: 345e 0080 dd2d 0080 d55c 0000 8d65 0000
00000390: b823 0080 6005 0080 b909 0080 d9b6 0b00
000003a0: 6251 0000 182e 0000 3163 0000 67ce 8a80
000003b0: 4326 0080 5721 0000 7d07 0680 a26c 0000
000003c0: d79a 0500 0039 0e00 f10e 0000 cd30 0080
000003d0: 316e 0080 2433 0080 ef54 0080 ff0b 0080
000003e0: e9bb f100 5163 0700 ee06 0000 8c22 0000
000003f0: d4d1 0b80 f336 0000 2743 0000 8c0e 0000
8.073e-42 -8.1257e-40 -9.1776e-40 1.366e-42 -2.7e-44 -1.01831e-39 1.8075e-41 -5.17697e-40
1.628345e-39 5.67517e-40 8.863e-42 6.08227e-40 2.429921e-38 -1.9862e-41 -6.7e-43 -5.305e-42
-8.096073e-39 1.93388e-39 6.3971e-39 -1.8807e-41 4.58739e-40 -1.537191e-39 2.1011e-41 -2.619e-41
-5.426e-42 -4.158324e-39 2.3933e-41 2.097e-41 1.405453e-39 2.037524e-39 2.7569e-41 2.9981e-41
-4.459255e-39 2.6102e-41 4.59e-42 6.42699e-40 9.89e-42 4.99253e-40 -3.0966e-41 7.720831e-39
3.7353e-41 6.394e-42 3.114e-42 2.43e-42 -3.2554e-41 -6.84307e-40 -1.024963e-39 3.774e-42
-5.076505e-39 -3.766e-41 1.7871e-41 3.9815e-41 -1.009113e-39 -3.2364e-41 8.64887e-40 -3.53665e-40
5.942541e-39 1.6907e-41 -1.404819e-39 -1.5543e-41 3.088e-41 -3.2524e-41 -2.4276e-41 2.6742e-41
2.5435e-41 3.80328e-40 -3.652e-42 1.989e-41 2.0917e-41 3.461e-42 -1.5315e-41 -2.003885e-39
-1.5486e-41 2.148014e-39 2.2948e-41 -3.8708e-41 -2.1839e-41 -7.85153e-40 -2.5106e-41 1.1046e-41
-2.978e-42 1.6911e-41 3.3703e-41 -1.23898e-39 8.08374e-40 3.65e-42 4.959e-42 2.328278e-39
-4.91344e-40 2.583418e-39 1.876e-41 -3.198e-41 3.1668e-41 2.2756e-41 -2.7365e-41 1.5251842e-38
8.93894e-40 -1.893622e-39 -2.0264e-41 2.6396e-41 -6.4237e-40 1.018493e-39 -2.6049e-41 1.911e-42
6.48724e-40 -3.729e-42 -3.7147e-41 -2.4757e-41 -4.049093e-39 5.6504e-40 3.4933e-41 2.5188e-41
1.3619e-41 9.862e-42 -5.14469e-40 2.995302e-39 -3.0976e-41 5.892e-42 -1.2469e-41 -2.325e-42
1.284314e-39 -1.7079e-41 2.997e-42 2.0099e-41 -3.5395e-41 -3.661e-41 1.2225e-41 1.0657e-41
3.171e-42 -1.4712e-41 2.36e-41 1.2829e-41 3.2352e-41 -1.5399e-41 1.0465862e-38 -6.80666e-39
2.1147e-41 3.3812e-41 -8.827e-42 2.922e-41 1.5679e-41 -3.2315e-41 -1.141761e-39 2.8728e-41
-4.73402e-40 1.085695e-39 -7.570113e-39 -8.36605e-40 3.461349e-39 1.02594e-39 -2.4272e-41 -1.7002e-41
-3.520922e-39 -3.213e-42 -6.97593e-40 9.54e-42 -9.4118e-40 1.0478e-41 -1.278266e-39 2.942e-41
3.709e-42 1.1365e-41 2.922e-41 -1.03142e-39 3.8694e-41 1.164867e-39 3.6e-41 -1.0531e-41
3.087687e-39 1.9485e-41 1.1415e-41 1.324e-41 2.7956e-41 2.466e-41 2.056452e-39 -4.9288e-40
-1.680929e-38 -5.137104e-39 1.2376e-41 1.003327e-39 -1.1328e-41 3.375118e-39 -5.664e-42 2.8327e-41
-1.2116e-41 3.2674e-41 7.564e-42 -1.3324e-41 -7.109e-42 -1.8039e-41 -4.24235e-40 3.0837e-41
-1.072e-42 -1.35e-41 2.1822e-41 -3.4187e-41 -8.408e-42 -1.8916e-41 -5.72e-42 -2.3759e-41
-2.2617e-41 2.232e-41 -4.557e-42 -1.6881e-41 -4.31551e-40 -4.48997e-40 1.6919e-41 3.2485e-41
1.257172e-39 -8.478e-42 -2.8344e-41 2.0268e-41 -2.0784e-41 -3.0264e-41 1.8773e-41 -1.117e-41
-3.17e-43 1.7876e-41 2.46889e-39 3.8164e-41 1.134959e-39 3.054e-41 1.874e-41 7.610372e-39
-3.3794e-41 -1.6453e-41 3.3302e-41 3.643e-41 -1.2813e-41 -1.928e-42 -3.488e-42 1.075784e-39
2.9195e-41 1.6535e-41 3.5583e-41 -1.2747342e-38 -1.3726e-41 1.196e-41 -5.53699e-40 3.897e-41
5.14724e-40 1.306145e-39 5.36e-42 -1.7506e-41 -3.9529e-41 -1.8346e-41 -3.0468e-41 -4.303e-42
2.2199764e-38 6.78476e-40 2.486e-42 1.2393e-41 -1.085463e-39 1.9712e-41 2.409e-41 5.218e-42

Actor.mean_fc3.bias f4 [17]
00000000: 9468 0080 0f6a 0000 1541 0000 6b0a 0400
00000010: 860a 0080 3034 0000 8312 1000 cd2b 0c00
00000020: c97e 0d80 ecf2 0780 8eca 0380 126a 0080
00000030: 0b30 0080 e704 0080 0b1a 0000 9d1b 0000
00000040: cd12 0080
-3.7516e-41 3.8047e-41 2.3347e-41 3.71079e-40 -3.775e-42 1.8721e-41 1.476009e-39 1.117739e-39
-1.239343e-39 -7.29992e-40 -3.4817e-40 -3.8051e-41 -1.7235e-41 -1.759e-42 9.342e-42 9.906e-42
-6.744e-42

Actor.log_std_fc3.weight f4 [17, 32]
00000000: a279 a9bc 4891 40bc 5ab8 b7bd 04cb 4bbc
00000010: 4c69 96bc c516 57bc ebe5 56bc 3a70 81bd
00000020: 25a1 32bc 3c59 e5bd 2691 4ebc c5e7 d0bd
00000030: 529d 01bd dda0 81bc df41 60bd 496c 3bbc
00000040: 2b6a 93bc f48a 6bbc 4e8c b7bd f92c 1fbc
00000050: 803c 3abc f11e 84bc b108 49bc 0186 26bc
00000060: 8d35 33bc e69e 0abc bebf 0dbc ffa3 05bd
00000070: dc56 10bc 5f16 80bc 56da 83bc 7a4d 8dbc
00000080: 1028 bebc 6775 2bbc de14 aebd b191 b6bc
00000090: 0a7a 31bd 7965 15bc f92f a1bc ce23 81bd
000000a0: 6a17 85bc 6bfe b3bd 523f 28bc 955e a5bd
000000b0: fdf3 5abd d2c7 83bc 3cce 5abd 8a7f 1cbc
000000c0: 3d40 bbbc ba3d 60bc 50d4 9dbd fb5e a9bb
000000d0: adbf 18bc 0f52 a7bc bf26 8fbc 08b6 17bc
000000e0: ac29 f2bb 9707 41bc a3c5 f7bb c4c1 2abd
000000f0: b7eb 4dbc 10e6 99bc 56eb 80bc fb1b c6bc
00000100: cf39 a0bc f3d9 33bc 9bbe b0bd 2e66 dcbc
00000110: cd59 0abd 2b6f 73bc 8157 70bc 83c2 7fbd
00000120: 621e b6bc 3876 bfbd 349d 1abc 2101 aabd
00000130: 62c8 3abd 9e35 6dbc e703 6cbd dbd5 a3bb
00000140: 948e b5bc 5d83 88bc 8c94 9abd b064 edbb
00000150: 6ce0 28bc 7425 b9bc 0e84 88bc 1cfb e8bb
00000160: df29 07bc e830 28bc 5148 babb f38b 22bd
00000170: 6b74 83bc 81f2 a5bc e152 48bc 0a2e dcbc
00000180: f457 dbbc 414e 35bc 4c16 a4bd e759 cabc
00000190: 887f 4ebd dde9 39bc b211 89bc 5125 82bd
000001a0: b10b 97bc 0364 a8bd aad6 0cbc c7e0 a0bd
000001b0: 9033 61bd 22b8 57bc df34 63bd 422c d0bb
000001c0: 7dd4 aabc 96f4 4bbc 201c a0bd 1a00 13bc
000001d0: 32c3 2abc 1a5a a3bc 2151 79bc 1ccd d6bb
000001e0: 625a 19bc c91c 47bc 6c9c d7bb 391d 25bd
000001f0: 2f6d 76bc b878 97bc 64be 74bc a2df d9bc
00000200: 7241 c3bc 85ab 65bc cf14 a9bd 24be d8bc
00000210: ef60 17bd b03e 75bc 087a 8cbc 8707 83bd
00000220: a5c8 b1bc a53e b5bd a928 9bbb 20a6 9fbd
00000230: e03e 37bd 0ecd 7cbc 50c3 65bd 9914 b0bb
00000240: 0b44 bdbc 5def 7ebc 0078 99bd 02d6 49bb
00000250: 8d52 28bc 1936 a5bc 415d 92bc 8166 1cbc
00000260: 2bcd 09bc a7b3 2dbc a69d 04bc 3622 1abd
00000270: efa9 66bc 0bfa c6bc 01a3 90bc 9683 c7bc
00000280: f775 d4bc 3a93 10bc 2aee a5bd 352e b3bc
00000290: a55a 39bd 3f99 5dbc 1f61 96bc 9e40 81bd
000002a0: efd4 6abc b3b7 a4bd 8279 b8bb 6818 a1bd
000002b0: 4bb9 6bbd 0688 83bc 699a 4abd 16d8 18bc
000002c0: b713 b4bc 14d1 74bc e26f a7bd 4a9d 1ebc
000002d0: b8f3 0abc 75b4 9abc d0df 7dbc 65a8 c5bb
000002e0: 6189 b4bb 83ca 44bc e785 07bc 57c3 2dbd
000002f0: 4430 6ebc 575e a6bc b09b 50bc 51e3 bdbc
00000300: 0f8a 09bd fc45 47bc c62d afbd 0b27 bbbc
00000310: 12ca 8bbd 80cc 3fbc 414a 8ebc d36a 1bbd
00000320: bf5d c0bc 365f b3bd 709f c4bb 93af 9ebd
00000330: 196a 4dbd d02d 9abc e2ea 13bd e458 e3bb
00000340: d134 aebc cf3d 6dbc 5dbd 9abd 05b2 abbb
00000350: c34a 3dbc 76c4 a5bc e762 73bc bf00 ddbb
00000360: 20fa d2bb 87e7 41bc 6a98 bebb d3d0 0bbd
00000370: d43e 85bc 1d56 8cbc 91ae 93bc 142a d5bc
00000380: a825 98bc e467 70bc 9a50 adbd e748 d3bc
00000390: 92c8 19bd a4ed 47bc 8fbc 6ebc f92e 84bd
000003a0: c1ce a7bc c397 bdbd fad5 eabb ae67 a0bd
000003b0: 3531 44bd 75c0 95bc 82f6 6abd b361 d4bb
000003c0: f7e1 a7bc 486d 8bbc 2387 9abd 433f 8dbb
000003d0: 136a fdbb 43c9 a4bc 2f77 99bc ddc8 33bc
000003e0: b000 d3bb 9468 13bc 27f2 15bc 7a4d 26bd
000003f0: f761 82bc 00ae b5bc 264c 84bc 86e0 d7bc
-0.020687882 -0.011753388 -0.08970709 -0.012438539 -0.018360756 -0.013127987 -0.01311634 -0.06320234
-0.010902678 -0.11198661 -0.012607848 -0.102004565 -0.031644173 -0.015823776 -0.05475032 -0.011439391
-0.01799496 -0.014376391 -0.08962308 -0.009715312 -0.011366963 -0.016128035 -0.012270139 -0.010163785
-0.0109380605 -0.008460736 -0.008651672 -0.032627102 -0.008809771 -0.015635667 -0.016095322 -0.017248858
-0.023212463 -0.010465003 -0.08500074 -0.022286268 -0.043329276 -0.009118431 -0.019676195 -0.06305657
-0.016246516 -0.08788761 -0.010269003 -0.08074681 -0.05345534 -0.016086493 -0.053419337 -0.009551892
-0.02285778 -0.013686592 -0.07706511 -0.0051687933 -0.009323043 -0.02042487 -0.01747453 -0.009259708
-0.0073902216 -0.011781595 -0.007561402 -0.041688696 -0.012568406 -0.01878646 -0.015737217 -0.024183264
-0.019558815 -0.010977256 -0.08630105 -0.026904192 -0.033777047 -0.0148580475 -0.0146693 -0.06244136
-0.022231285 -0.0934872 -0.009436894 -0.083009966 -0.045601256 -0.014478115 -0.05762091 -0.004999859
-0.022162713 -0.016664201 -0.07547864 -0.007244669 -0.010307413 -0.022600867 -0.016664531 -0.0071100127
-0.008249729 -0.010265566 -0.0056848903 -0.039684247 -0.016046723 -0.020257236 -0.012226791 -0.026877422
-0.026775338 -0.0110660205 -0.08012065 -0.024701072 -0.050414592 -0.011347261 -0.01673207 -0.06354774
-0.018438192 -0.08222201 -0.008596102 -0.07855373 -0.054980814 -0.013166459 -0.055470344 -0.006352932
-0.020853275 -0.012448451 -0.078178644 -0.008972192 -0.010422515 -0.019940425 -0.015217097 -0.0065552127
-0.009359928 -0.012152859 -0.0065799262 -0.040311072 -0.01504068 -0.01849018 -0.014937971 -0.026595894
-0.023834918 -0.014017944 -0.08255922 -0.026457854 -0.036957677 -0.014968559 -0.017148033 -0.0639792
-0.02170212 -0.08849839 -0.0047350717 -0.07795358 -0.044737697 -0.015429748 -0.056094468 -0.005373549
-0.023103734 -0.015559998 -0.07493591 -0.0030797725 -0.010273588 -0.020167397 -0.017866733 -0.009545923
-0.008410732 -0.0106019145 -0.008094227 -0.037630282 -0.014078601 -0.024289152 -0.017655851 -0.024354737
-0.025935156 -0.008824164 -0.08102067 -0.02187262 -0.04525246 -0.013525306 -0.018356858 -0.06311153
-0.014332994 -0.0804285 -0.0056297192 -0.07865983 -0.057549756 -0.016056072 -0.049463663 -0.009328863
-0.021982057 -0.014942426 -0.08175637 -0.009681055 -0.008480959 -0.018884877 -0.015495256 -0.006032037
-0.005509541 -0.012011173 -0.008271671 -0.04242262 -0.014537875 -0.020308657 -0.012732431 -0.023179682
-0.03357893 -0.012162682 -0.085536525 -0.022845766 -0.06825651 -0.011706471 -0.017369391 -0.037943672
-0.023482202 -0.087583944 -0.0060004517 -0.07748332 -0.05015001 -0.018820673 -0.036112674 -0.006938087
-0.02126542 -0.014480068 -0.075556494 -0.0052397274 -0.011553469 -0.020235281 -0.014855123 -0.0067444737
-0.0064385086 -0.011834986 -0.005816509 -0.034134697 -0.01626531 -0.017130906 -0.018027576 -0.026021041
-0.018572643 -0.014673207 -0.08462639 -0.025791598 -0.037544794 -0.012202654 -0.014571323 -0.06454272
-0.02048433 -0.09257462 -0.0071666213 -0.07832275 -0.04789849 -0.018280247 -0.057363994 -0.006481373
-0.02049349 -0.017019883 -0.075453065 -0.00431052 -0.0077335923 -0.0201155 -0.018733589 -0.0109731825
-0.006439291 -0.008997101 -0.009151972 -0.04060123 -0.015915854 -0.022177696 -0.016149592 -0.026352178

Actor.log_std_fc3.bias f4 [17]
00000000: 57db 96bc 444a 67bd 1fb8 8cbd 70ca 80bd
00000010: 2031 95bd 1c30 5dbd 5ebb 90bd 8fb5 89bd
00000020: ab73 d6bc d31e 95bd abdc 92bd 260e 67bd
00000030: 61df 06bd bc21 85bd 170d a4bd a3ac 45bd
00000040: c70a 63bd
-0.018415136 -0.05646731 -0.06871056 -0.06288612 -0.072847605 -0.05400096 -0.070669875 -0.06724083
-0.026178202 -0.0728127 -0.07170995 -0.056409977 -0.032927874 -0.06500575 -0.08010309 -0.048260342
-0.0554302

Critic.fc1.weight f4 [32, 378]
00000000: a921 303e c002 663d b3df b33d 5ccf 393d
00000010: b456 f9bc 9019 36bc 6c56 b6bc bdab 833d
00000020: f99a cfbc e4fd 003d 7a28 093d cd3a ed3c
00000030: 8fff dbbc dad7 edbc 9ba6 5b3d da22 8c3d
00000040: bfe8 2abd dd7c 9abc fd30 213d 17d3 c8bd
00000050: ceb1 99bd 0957 0abd 8e28 763d fa8e cbbd
00000060: b6d7 2e3e eb48 d63c 018f 953c a884 b03b
00000070: a0c0 433a 29ca 3ebd 1575 5dbc ed13 e1bc
00000080: ec3b 823d ba74 0c3d c5ce 81bc c5cc 583d
00000090: 6dae 5cbd 8091 e3bc 9e84 16bd 6f43 4d3d
000000a0: 9eb5 a7bd 92ee dcbb 54aa fa3c c460 9abc
000000b0: fc31 193c 75fe 933d ecfa 183d 537a c93c
000000c0: 639e 2dbc 68bb 0b3d 85c6 033b 6aac 833c
000000d0: 2f84 da3c 343d 9c3c af13 423d 7c37 063d
000000e0: 8dec e3bc 35e7 473d 6d39 5c3d cc58 f23b
000000f0: 459e 5a3d 914e 5fbd 81a6 abbd b09d 463b
00000100: 73b3 9c3c ff5a 5a3d 6634 763d a5b9 c13d
00000110: f382 9a3c 094f df3b 3be6 aa3c 6b9c 8d3d
00000120: da59 31bc 13e3 48ba 42d4 f1bc 5b08 a13c
00000130: 3bb9 3f3d 6101 903d c130 af3d fb46 a13d
00000140: 6cbd edbb 406c 6b3d e7fc 18bb 1c98 e9bc
00000150: cef6 9bbd 6c5e 513d 1625 8e3d df3f 4c3d
00000160: d9f8 543d da6b 4d3d e5c1 323d 7bc6 f03c
00000170: 9b0c bdbd f0f2 da3b 11d6 97bd 7461 71bd
00000180: cdc4 dc3c 4053 b73d 4ac2 ce3d c8ef 823d
00000190: be98 9dbb b419 3abd 60c2 d3bb fa23 f73b
000001a0: 1fb3 a6bc 67ce 4fbd 5724 923c 6e36 0d3d
000001b0: 0cc9 143d 9232 f33d 1a5d 13be ce3d 2abe
000001c0: 4372 a8bd 3ec4 58be fcc4 95bd 271a 9fbd
000001d0: 26a6 b93d 9305 953c 4638 553d 2d5a 803d
000001e0: 4183 cbba b3ae 943d f31b 903d 16d2 c33d
000001f0: 0af2 8d3d e53c 2dbd 20b9 9a3d aa4d 3c3c
00000200: 90be 673d adf8 a83c 80d2 fa3c c423 b7bd
00000210: 0e51 d23d 6f9b 20bd d01c 833d 6325 aebc
00000220: 7cd4 743d f6ba 863d 962b a23d c7b1 433d
00000230: b119 083e 5561 0dbe ae2c 563d 3c6c 29be
00000240: 7b13 c33d 1d3a 32bd c8cd 703d bd25 c23d
00000250: 1312 743d 02c8 af3c b9fa 863d eb90 04bc
00000260: aaf8 d13d c553 963d a0f8 d1bd 6248 a93d
00000270: 1a12 693d 1f6d 7abc 0305 473d d405 3a3d
00000280: c272 c7ba 4bac 313c 26f8 1ebc 1bb8 2c3c
00000290: 251f 9dbd e5c9 7b3d b97a 233d d942 b73d
000002a0: 601a ce3d 832c bb3c 75f7 82bd 3d5f 93bd
000002b0: afa3 f0bc a5d7 c23d 0ed5 c73d 9df8 f93c
000002c0: ce04 a23c 5042 3dbc 7382 8abc 490b 893d
000002d0: 3bd4 82bd dbfc 57bd 9498 edbb 23df 7b3d
000002e0: ab60 d03b 5396 993d e15d 493d e5be 34bc
000002f0: e5d4 0f3a a879 0a3d 8a3a 22bc 656c ecbc
00000300: 36f9 b63c 6592 453b c21a 3abd d525 76bd
00000310: 497e e83d 598c 14bc f582 9bb7 b65a 2ebd
00000320: 6a3b 9fbd 7518 a03c 0fbf d33d b2a4 293b
00000330: 75a8 abbd 1129 06bd c437 bbbd 3649 fb3b
00000340: 8463 123e 6408 0cbc 07f0 82bb 117a b1bb
00000350: cb33 2c3c ad81 313d 83b7 0d3e 3df3 4ebd
00000360: 3f7e 36bd 6c58 463d 94a9 ca3d 9eac 1fbb
00000370: ef0e 613d 07b8 323d b01a c93a 6a0d 6f3c
00000380: df89 ba3d 607c 463d 303f cc3d 1f43 0fbd
00000390: 1c72 973a d3d7 ffbb 2ef3 4fbd 398e f03c
000003a0: 4a02 bb3d 8041 ee3b 51b6 4e3c 253d 0a3d
000003b0: da62 143d e94d 1fbd 5fb9 733d 00c8 4b3c
000003c0: 6905 eebc 72ed 1b3c 4cf0 913c 2e15 2abc
000003d0: 7297 e03d 53e2 1bbd 99b1 ca3c b5b3 7f3c
000003e0: 80e6 e2bb 4906 58bd 5d00 b7bb d171 15bc
000003f0: 18fe 2cbd 7d15 a5bc 9f5e f23b a3d5 92bd
0.1720034 0.056154966 0.087829016 0.04536377 -0.030436851 -0.011114493 -0.022258006 0.06429241
-0.025342451 0.03149213 0.033485867 0.028958702 -0.026855258 -0.02903359 0.053625684 0.06842585
-0.04172587 -0.018858368 0.03935336 -0.09805887 -0.07504617 -0.03377441 0.06009727 -0.0993938
0.17074475 0.026157817 0.018256666 0.0053869076 0.0007467363 -0.046579514 -0.013516684 -0.027475322
0.063590854 0.034291007 -0.015845666 0.05292966 -0.053877283 -0.02777934 -0.036747567 0.050113138
-0.081889376 -0.006742307 0.030598797 -0.01884497 0.009350296 0.07226268 0.037348673 0.024594462
-0.010596844 0.03411427 0.002010734 0.016073424 0.026674358 0.019072153 0.047382053 0.032767758
-0.027822757 0.04880448 0.053765703 0.0073958393 0.053373594 -0.054518286 -0.083813675 0.0030306391
0.019128537 0.053309437 0.060108565 0.09459237 0.01886127 0.0068148416 0.020861736 0.069146
-0.010824645 -0.0007663231 -0.029520158 0.019657305 0.04680751 0.07031513 0.08554221 0.078748666
-0.007255247 0.057476282 -0.00233441 -0.028514914 -0.07615434 0.05111544 0.06940667 0.0498656
0.051995132 0.050151683 0.043641943 0.029391518 -0.0923092 0.0066817924 -0.07413877 -0.05893083
0.02694931 0.089514256 0.100956514 0.06393391 -0.004809468 -0.04543467 -0.0064623803 0.0075421305
-0.020349083 -0.05073395 0.017839594 0.034475736 0.036324546 0.1187488 -0.14390984 -0.16625139
-0.08224919 -0.2116861 -0.073129624 -0.0776866 0.090648934 0.018191135 0.05205562 0.062672
-0.0015526788 0.07259884 0.07036581 0.09561555 0.06930931 -0.0422944 0.07554841 0.011493126
0.05657822 0.02062639 0.030617952 -0.089423686 0.10269366 -0.039210733 0.0640198 -0.021258062
0.059772953 0.06578629 0.079184696 0.047776964 0.1329105 -0.1380666 0.052288704 -0.16545194
0.095252 -0.043512452 0.05879 0.09479854 0.05958755 0.021457676 0.0659079 -0.008091192
0.10252507 0.073401965 -0.102524996 0.08265759 0.05690203 -0.015284806 0.048588764 0.045415714
-0.0015216696 0.0108443005 -0.009702718 0.010541941 -0.07671956 0.06147184 0.03991196 0.08948297
0.100636244 0.022848373 -0.06394855 -0.071959 -0.029374925 0.09513787 0.09757434 0.030514056
0.019777682 -0.011551455 -0.016907906 0.066916056 -0.06388136 -0.052731376 -0.0072508547 0.061492097
0.00635918 0.07499375 0.049161796 -0.011031841 0.0005486741 0.033807427 -0.009901652 -0.02886028
0.02233563 0.0030147072 -0.045435674 -0.060094673 0.11352212 -0.009066665 -1.8538422e-05 -0.042566977
-0.07775004 0.019542912 0.10339176 0.002588552 -0.0838174 -0.032754008 -0.09141496 0.0076686395
0.14295775 -0.008546922 -0.0039958986 -0.005416163 0.010510395 0.04333656 0.13839535 -0.05052494
-0.04455399 0.04842417 0.09895626 -0.0024364362 0.054945882 0.043632533 0.0015343037 0.0145906005
0.09108328 0.048458457 0.099729896 -0.03497612 0.0011554393 -0.0078077107 -0.050769024 0.029364692
0.09131296 0.007270992 0.01261671 0.03374972 0.036227085 -0.03889266 0.059502956 0.01243782
-0.029055314 0.009517061 0.017814778 -0.010381026 0.10966386 -0.038057636 0.024742888 0.01560681
-0.0069244504 -0.05274037 -0.00558476 -0.009121374 -0.04223451 -0.020151848 0.0073965336 -0.07169654

Critic.fc1.bias f4 [32]
00000000: 9e00 873d 4194 5c3b b395 543d 5e07 8a3d
00000010: c2e7 a13d 06c1 cfbb 50c1 433c c016 05bd
00000020: d090 693d be7c c53d 32e7 22bd 6f18 173c
00000030: 3a48 c1bc f04c 843c 3a17 793d c9f6 c23c
00000040: 1492 f7bc 4cd9 843d e527 773d 6676 a23c
00000050: fe32 343d 52b9 fc3c 9d1c b03d 64c6 9ebc
00000060: efbb 47bc 4224 313d 48a0 dbbc 4003 cb3c
00000070: 0e77 d43d c4df 6e3d b67f b63c f2e6 c53d
0.065919146 0.0033657702 0.051900577 0.067396864 0.079055324 -0.006340149 0.011947945 -0.0324924
0.05702287 0.09642933 -0.039771266 0.009222134 -0.02359401 0.016149968 0.060813166 0.023799317
-0.030221023 0.064867586 0.06034078 0.019831847 0.043993942 0.030850086 0.085992076 -0.01938171
-0.012190803 0.04324747 -0.026809826 0.024781823 0.103742704 0.05831887 0.022277694 0.0966319

Critic.fc2.weight f4 [32, 32]
00000000: 7464 143e 2628 0bbe da10 023e 8ecd f93d
00000010: 5ed4 d63d 708f acbd 2421 31bc b895 933c
00000020: d26f 2f3c 97ca b13d 97da 1ebd a69e ba3c
00000030: 7602 4fbe 83e8 943c 6355 093e b494 c03d
00000040: 5e53 0a3a 53bb 373e 5463 bcbc 16be b83d
00000050: ce75 8c3d d8ce 823c 47c8 a7bd 1016 5cbd
00000060: a120 203e 6887 98bc 1e6e 49bd e31e d8bd
00000070: 4070 fc3d e421 c6bd b4de 123e 5624 90bd
00000080: 2b2b 953d dd25 d5bd d13d 3f3d c7f2 533e
00000090: 1a03 423e 2e04 dabd 619f d53d ce04 04be
000000a0: da77 053e 6255 e6bc 601d 28bd f220 84bd
000000b0: 3af3 3ebe fbae e63d dc3c d43d 246d c4bd
000000c0: 0a98 78bd 247f f83d 785e 513e 364e e93d
000000d0: a7ea 7e3d b421 c1bc 5433 9fbc 168f 28bd
000000e0: 82dc d73d c9dd 9bbd b42d b53d 2b3a 24be
000000f0: e378 73bc ecbc 8e3d 21bb fa3d 6274 4b3e
00000100: e5cf ea3d 751f 12be 35fe b03b 8a07 a03d
00000110: 7e43 57bd a199 6e3d acce 8c3d ece0 8abd
00000120: 58b5 ee3d 39c8 06bd 8525 fabc 8562 cabd
00000130: 73b3 37be f476 963d a6ec 223e cb00 c0bb
00000140: 9eff a4bd d380 7e3d 5866 053e e67c a43d
00000150: 1edd e03c 2677 063e b0bd 5c3e 837f 12be
00000160: a111 08be 9870 3f3d 2d1d ef3d 5611 0f3e
00000170: 71b2 0bbb 0425 c8bd 426a 97bd 9da4 333e
00000180: 9984 0dbe 8768 ad3c 7fa2 eabd 77e9 733d
00000190: 40aa 87bd 99de 3e3a b769 283d f1f9 98bd
000001a0: a820 883d 9283 023e aecb e53d 704d 823d
000001b0: 828f b13d 91e0 243e 6465 1a3d a70b 343e
000001c0: 2f29 bb3d bf9f bd3c 29e3 6ebd 3e67 b4bd
000001d0: dde7 36bd 4148 f5bd 7847 fabd 6579 11be
000001e0: ab02 1f3e 8910 b7bd 81e3 e53d 41e7 eb3d
000001f0: bb0d c93d b411 303e 1dfc 50bd cf13 19be
00000200: 6adf cd3d c4d7 3fbe 4d6e 3a3e 867a 00be
00000210: c8c4 e7bd 8a5c 563e 2c44 163e b4b3 ddbd
00000220: 347a 313e ffe0 a63d 8a7c b83c 0304 1c3d
00000230: 8070 033e 3e08 d93d 6e6e 163d 8f3a 05be
00000240: 6186 f1bd a197 adbb b413 0bbe 2849 e9bd
00000250: 43a7 973d 6283 ccbd 2860 16bd 41eb 07be
00000260: e795 d13d 4d2f c23d 6e5c 343e c0f0 53be
00000270: 21fb 943c ebb5 4abc 6fd0 9fbb 3cc2 4a3d
00000280: 8c5d 12be baae d93d 7150 873d 00f3 94bd
00000290: df44 91bc f1f7 a03d 7883 183d 276a 893c
000002a0: 2068 d93d d830 01bd 442f 09be ebab 19be
000002b0: c7a1 f13d 6f83 86bd 629a e03d ca83 373d
000002c0: 5152 0b3e 2d0b 05be 5f03 e8bd cf20 ca3d
000002d0: 3970 283c 639d cb3d 3b70 2e3e 93e0 e0bd
000002e0: d3c0 cb3d cb76 263d e597 793d 7c43 ec3d
000002f0: c8f7 a0bb d481 0bbe 76df a4bd 1228 0a3e
00000300: 6df4 aabc 1982 6bbd 701a cdbd bafb 1f3d
00000310: a0c5 493e 77fe 06be 646c 0dbe 1de9 abbd
00000320: 0dd0 d33d 516a fabd a458 a6bd 4fea 5e3e
00000330: dd3a 3abe 9226 133d 1e7d acbd 4062 443e
00000340: 35f3 a6bd f2f2 473e 0b26 2dbd 9699 163d
00000350: 56a7 f3bd 2184 1f3d 3c31 053e ab21 9bba
00000360: bd45 f13d 06e7 91bd 424d f53d ee10 bc3c
00000370: 7b2b 493e 5670 a4bd 294e 5cbd 243d 8fbc
00000380: c255 cf3c c064 eebd 2e07 ef3b 103b 1b3e
00000390: 85b5 083e 01cd cd3d 4140 88bd e0d9 15be
000003a0: 9c5c 2e3e 18ff 8d3c a85e 893c 7ba7 4a3e
000003b0: ff3f 0bbe f3be b6bd c579 443e c3b7 2e3d
000003c0: 58be 14be 9a53 d0bd 6b72 1cbd 5507 9cbd
000003d0: 76a0 003e 1e20 453e 2715 d83d f782 ffbd
000003e0: f0cf bfbc d06c a93d 0b2d 19be 0f4d c53c
000003f0: f8da f53d 003c 1e3e e673 f0bc ccda 983d
0.14491445 -0.13589534 0.12701741 0.121974096 0.104897246 -0.08425796 -0.010811124 0.018015727
0.010707812 0.08681219 -0.038782682 0.022780728 -0.20215783 0.018177276 0.13411479 0.09403363
0.0005276705 0.17942552 -0.022996582 0.09020631 0.06858407 0.015967771 -0.08192497 -0.053731978
0.15637447 -0.018619254 -0.04917728 -0.10552766 0.123260975 -0.09674433 0.14342767 -0.070381805
0.07283624 -0.104076125 0.046689812 0.20698081 0.18946496 -0.106453285 0.1043079 -0.12892458
0.13034001 -0.028116886 -0.04104364 -0.06451596 -0.18647471 0.112638436 0.103631705 -0.095911294
-0.06069187 0.12133625 0.20446193 0.11391871 0.0622355 -0.023575641 -0.019433655 -0.041152082
0.105401054 -0.076106615 0.08846608 -0.16037814 -0.014860365 0.06969628 0.12242723 0.19868615
0.11465434 -0.14269812 0.0054013976 0.07813938 -0.0525546 0.05825198 0.06875357 -0.06781182
0.11655682 -0.03290579 -0.030535469 -0.09882072 -0.17939548 0.07346907 0.15910587 -0.0058594695
-0.080565676 0.062134575 0.13027322 0.08031635 0.027449187 0.13131389 0.21556735 -0.14306454
-0.13287975 0.046738237 0.11675487 0.13971457 -0.0021316076 -0.09772685 -0.07393314 0.17543264
-0.13820113 0.021168007 -0.11456775 0.05954882 -0.066242695 0.00072810944 0.041116443 -0.074695475
0.06646854 0.12745503 0.112204894 0.06362426 0.0866995 0.1610129 0.03769435 0.1758257
0.091387145 0.023147462 -0.058322106 -0.088087544 -0.044654716 -0.11976672 -0.12220663 -0.14206465
0.15528361 -0.08938701 0.112250336 0.115187176 0.09817072 0.17194253 -0.051021684 -0.14948963
0.100523785 -0.18734652 0.18206139 -0.12546739 -0.1131683 0.20933738 0.14674443 -0.10825291
0.17331773 0.08148383 0.022520322 0.038089763 0.12835884 0.10597275 0.036726408 -0.1301062
-0.11793209 -0.0052976166 -0.13581735 -0.113909066 0.074049495 -0.09985997 -0.036712795 -0.13273336
0.1023367 0.09481678 0.17613384 -0.20697308 0.018186154 -0.012372474 -0.004877142 0.049501643
-0.14293498 0.106290296 0.0660714 -0.07272911 -0.017733036 0.07859791 0.037234753 0.01677425
0.106155634 -0.03154072 -0.13396937 -0.15006988 0.11798435 -0.06568038 0.10966946 0.04480342
0.1360562 -0.12992544 -0.11328768 0.09869539 0.010280662 0.099421285 0.17035 -0.10980334
0.09948888 0.040640634 0.060935874 0.11536309 -0.0049123503 -0.13623744 -0.08050434 0.13491848
-0.020868504 -0.057497118 -0.10014808 0.039058425 0.19704294 -0.13183008 -0.13810879 -0.08394072
0.10342417 -0.122273095 -0.081223756 0.21769069 -0.18186517 0.035925455 -0.08422302 0.19178104
-0.08151857 0.1952627 -0.04227261 0.036767565 -0.11897151 0.038944367 0.13007063 -0.0011835595
0.1178088 -0.07124142 0.119776264 0.022957291 0.19645493 -0.08029239 -0.053785477 -0.017485209
0.025309447 -0.1164031 0.007294557 0.1515925 0.13350494 0.10048867 -0.066528805 -0.14633894
0.17027515 0.017333552 0.016768768 0.19790451 -0.13598631 -0.089231394 0.19187076 0.042655718
-0.14525735 -0.10172196 -0.038195055 -0.07618586 0.12561211 0.19250533 0.105509095 -0.124761514
-0.023414582 0.082727075 -0.14958589 0.024084596 0.120046556 0.15452576 -0.02935214 0.07463607

Critic.fc2.bias f4 [32]
00000000: 0ad6 8c3b 401d 663e 66d9 d53c 27b1 1abe
00000010: 7129 ee3c 8daf eabd 0b31 0b3e c6e2 8e3d
00000020: 94dd c8bd 1fc4 e93d 71e2 123e acc2 173e
00000030: c5f9 f13d 2b80 173d dac3 b93d fbe9 b23d
00000040: e1b7 e53d 7692 4e3e c441 e33d c453 04be
00000050: ebd5 413e 5dbc a83d db28 9fbd ead7 37bd
00000060: 453a 303d 23b1 ecbd dd6a 64bd a89e 5b3e
00000070: 6362 643c bf9c febd ce05 7a3d e696 c1bc
0.0042979764 0.22472095 0.02610464 -0.15106641 0.029072495 -0.11459265 0.13592927 0.06976847
-0.09807888 0.1141436 0.14344193 0.14820355 0.11815218 0.036987465 0.09070559 0.087360345
0.11216713 0.20173058 0.11096528 -0.12922579 0.1892926 0.082390524 -0.077714644 -0.044883646
0.04302432 -0.11557224 -0.055765975 0.21447241 0.013939473 -0.12432241 0.061040692 -0.023631524

Critic.fc3.weight f4 [1, 32]
00000000: 3692 3c3d 12fb 3b3d c4e5 353d f5e7 02bc
00000010: 53a6 683d e8ce 8bbc df21 193d ac8f 513d
00000020: 332d 9a3b ea2e 553d e3db 2c3d a2d0 143d
00000030: f7c8 393c ef56 4e3d e7aa b43c aa61 803c
00000040: 43de 993c 20fc 093c 800f 323c e356 4d3c
00000050: b9ae 2d3d d7e6 c03c 3008 173d 6191 3c3d
00000060: 95c5 f43c ae41 763c 3df0 263d 61cd cd3c
00000070: 8f3e 003d d967 fcb9 a1db 84bb 817e 9e3c
0.046037875 0.045893736 0.044408575 -0.007989873 0.056799244 -0.017066434 0.037385818 0.051162407
0.004705095 0.052046694 0.042201888 0.03633178 0.011339418 0.050375875 0.022054149 0.01567157
0.01878274 0.008421928 0.010867953 0.012532922 0.042402957 0.023547573 0.036873043 0.04603708
0.02987937 0.015030308 0.040756453 0.025122346 0.03130966 -0.00048142558 -0.004054502 0.019347431
