model_5.pt (torch, 114732 bytes, 13 tensors)

Actor.fc1.weight f4 [32, 378]
0	0xbc6a9bf6	-0.014319411
1	0xbc49a526	-0.012307441
2	0x3d749537	0.059712615
3	0x3db4347b	0.08799072
4	0xbcff788a	-0.031185407
5	0x3d80934c	0.06278095
6	0x3ce337a2	0.027736489
7	0x3c0cb97a	0.008589143
8	0xbc829433	-0.015939808
9	0x3c3c0edd	0.011478153
10	0xbca65fc9	-0.020309346
11	0x3d36c583	0.044621956
12	0xbd5cf51e	-0.0539447
13	0xbd3837c9	-0.044975076
14	0xbc3b0e20	-0.011416942
15	0x3d0b0d2a	0.0339481
16	0xbd8fcfa3	-0.070220254
17	0xbdc55fd7	-0.096374206
18	0x3dad75bb	0.08469721
19	0xbd4b553d	-0.049641836
20	0xbdb35546	-0.08756499
21	0xbdb50857	-0.08839481
22	0x3df0bb04	0.117544204
23	0xbd2cd03e	-0.042190783
24	0xbd1ad8ca	-0.037804402
25	0xbbbbfe28	-0.005737085
26	0xbd6d733f	-0.057971235
27	0x3cc8e1f7	0.024521811
28	0x3d983f65	0.074339665
29	0xbc608d16	-0.0137055125
30	0x3ce6fde5	0.028197238
31	0xbdb3e945	-0.08784727
32	0x3c41c58d	0.011826885
33	0x3d0e32f4	0.03471656
34	0x3c75f343	0.015011611
35	0x3d007d44	0.031369463
36	0xbcb16cc5	-0.02165831
37	0xbcff4342	-0.03116
38	0x3d31eb47	0.04343727
39	0x3ba1911e	0.0049306294
40	0x3c65ddb9	0.014029914
41	0x3d8b0160	0.06787372
42	0xbdb9a7ab	-0.09065183
43	0xbdcd3c54	-0.10021272
44	0xbdde6727	-0.108595185
45	0x3da29190	0.0793792
46	0xbc6678c5	-0.01406688
47	0x000024bf	1.3182e-41
48	0x00064593	5.75972e-40
49	0x80002a82	-1.5249e-41
50	0x00000871	3.028e-42
51	0x0e97e5f7	3.7445822e-30
52	0x8000ae9b	-6.2637e-41
53	0x8cb5f721	-2.80362e-31
54	0x000048e4	2.6148e-41
55	0x8000200d	-1.1498e-41
56	0x800063a0	-3.5739e-41
57	0x3d70d9a1	0.058801297
58	0x3da0cbf1	0.07851399
59	0x3db29812	0.08720411
60	0x3b855f4a	0.004070197
61	0x3c4d7dd2	0.012542205
62	0x3bb25bed	0.0054430873
63	0xbd3b4d0e	-0.045727782
64	0xbb6e1901	-0.0036330821
65	0x3cc89837	0.024486644
66	0x3da4064b	0.08009013
67	0x3da56c84	0.08077338
68	0x3d1844f1	0.037175123
69	0x3d4f6c06	0.05064013
70	0xbb4a8b2b	-0.0030905704
71	0x3d8378ce	0.06419526
72	0xbb6020ca	-0.0034199231
73	0xbd44f046	-0.048080705
74	0xbce0c1b4	-0.027436115
75	0x3da28634	0.079357535
76	0x3be7ce5e	0.0070741614
77	0x3b0e4f21	0.0021714645
78	0x3d02bb37	0.031916823
79	0x3d8b012c	0.06787333
80	0x3c87d4f1	0.01658103
81	0x3d467f95	0.048461515
82	0xb989c6b0	-0.0002627871
83	0xbd7d3cce	-0.061825566
84	0xbcfa70c6	-0.030571353
85	0x3dac188e	0.08403121
86	0x3d984694	0.07435337
87	0x3d8bb064	0.06820753
88	0x3d8bb321	0.068212755
89	0x3cdd8b25	0.027043888
90	0x3c002592	0.007821457
91	0x3d5ce803	0.0539322
92	0xbd8d67a2	-0.06904532
93	0xbbd308db	-0.0064402646
94	0xbb9b3586	-0.004736605
95	0xbb7ad66e	-0.0038274783
96	0x3bf744ea	0.007546057
97	0x3c5058d2	0.012716489
98	0x3c139b09	0.009009131
99	0x3d656ed0	0.056013882
100	0x3cfd41c8	0.030915156
101	0x3cca0f21	0.024665417
102	0xbd96098e	-0.07326041
103	0x3d6c9247	0.05775669
104	0xbc4ea82f	-0.01261334
105	0xbda2617c	-0.0792875
106	0x3da490c4	0.08035424
107	0x3d24a21a	0.040193655
108	0x3c5f4b7c	0.013628837
109	0x3d93cebd	0.072171666
110	0xbd363cdd	-0.044491637
111	0xbd7cd6fb	-0.06172846
112	0x3b4ab284	0.0030929158
113	0xbc14a367	-0.009072161
114	0xbc67d491	-0.014149801
115	0xbb997f2e	-0.0046843505
116	0x3cff0413	0.031129872
117	0x3db292ed	0.0871943
118	0x3d3db5c3	0.04631592
119	0x3d22bcf7	0.039730992
120	0xbd70d219	-0.058794115
121	0x3d738dc1	0.05946136
122	0x3d961162	0.07327534
123	0x3d956f43	0.07296612
124	0x3d3ccfd4	0.046096638
125	0xbc0d34c5	-0.008618538
126	0x3d0a092e	0.03370016
127	0x3d4e3a1d	0.05034839
128	0x390726b5	0.00012889023
129	0x3cc9be00	0.024626732
130	0xbd13b142	-0.036057718
131	0x3cafc573	0.021456456
132	0x3dbb7536	0.091532156
133	0x3c823785	0.015895614
134	0x3d5a85d8	0.0533503
135	0xbd87abcb	-0.06624564
136	0x3c782186	0.015144711
137	0x3d0df135	0.03465386
138	0x3d896ade	0.067098364
139	0x3d5f7820	0.05455792
140	0x3d6a069a	0.057135202
141	0xbd8bf1ce	-0.0683323
142	0x3c8df92a	0.017330725
143	0xbd438382	-0.047732837
144	0x3d55f930	0.052239597
145	0xbcdc0935	-0.026859859
146	0x3d8cf43b	0.06882521
147	0x3d12a84f	0.035805043
148	0x3dc0baa9	0.094106026
149	0x3d4463d7	0.047946777
150	0x3bc49b14	0.005999932
151	0xbcef10f7	-0.029182894
152	0x3cbe286a	0.02321263
153	0x3d29e65e	0.04147946
154	0xbd72134d	-0.059100438
155	0x3c4cff1d	0.012511996
156	0x3c90469e	0.017611798
157	0xbc17025c	-0.009216871
158	0x3d8578f5	0.06517211
159	0x3d87d1ea	0.06631835
160	0x3d1d1ad1	0.038355652
161	0xbd3bd4cd	-0.04585724
162	0x3cc6ae1e	0.024252947
163	0x3c98fb94	0.01867465
164	0xbdbf649a	-0.0934536
165	0x3da306fc	0.079603165
166	0x3d4ccc8f	0.04999977
167	0x3d415563	0.04720057
168	0x3d42d7c8	0.047569066
169	0x3d99e7b9	0.07514901
170	0xbb885d67	-0.004161525
171	0xbcc73766	-0.024318408
172	0xbc81f688	-0.015864626
173	0x3d0c49aa	0.03424994
174	0x3ccac1f5	0.024750689
175	0x3cf169fc	0.029469483
176	0x3dba9c00	0.09111786
177	0x3b56e976	0.0032792962
178	0x3d2e7f24	0.04260172
179	0x3d76663f	0.060156103
180	0x3b8d218a	0.0043069767
181	0xbd6ab565	-0.057301898
182	0xbd99d308	-0.07510954
183	0x3d199c5a	0.037502624
184	0x3d69cf57	0.0570825
185	0x3d03aadc	0.032145366
186	0x3db2965e	0.087200865
187	0x800013ef	-7.151e-42
188	0x0000bd93	6.8006e-41
189	0x11386a2f	1.4547761e-28
190	0x8ff7d672	-2.4438682e-29
191	0x88cac4d1	-1.2203704e-33
192	0x00005b13	3.2671e-41
193	0x3c8d8875	0.017276982
194	0x3c88e338	0.016709909
195	0xbbde2add	-0.006780012
196	0xbcbaa175	-0.022782067
197	0xbc693607	-0.0142340725
198	0xbd649a40	-0.055811167
199	0xbd1b7165	-0.03794994
200	0xbda431ff	-0.080173485
201	0xbce68ceb	-0.028143367
202	0x3c886a2f	0.016652195
203	0xbca0730a	-0.019586105
204	0xbd3190d1	-0.043351
205	0x3d3a13ce	0.045429043
206	0xbc3bccdd	-0.011462417
207	0x3ca4e599	0.020129012
208	0xbb9c3a73	-0.00476771
209	0xbc7fdb92	-0.0156163145
210	0xbba7c5fb	-0.0051200367
211	0x3bfdf24b	0.007749831
212	0xbbc07410	-0.0058732107
213	0xbcb258d4	-0.021770872
214	0x3d1e67db	0.038673263
215	0xbcafa5fc	-0.021441452
216	0xbd7289eb	-0.05921356
217	0x3d37d80c	0.044883773
218	0x3db65e2f	0.08904683
219	0x3d672150	0.056428254
220	0x3d0209d9	0.031747673
221	0x3c42a299	0.011879587
222	0x3cfb01f0	0.030640572
223	0x3ba1e28f	0.004940338
224	0x3dcc0f71	0.09963883
225	0xbc7d00bf	-0.015442072
226	0x3d883ba1	0.06651998
227	0xbb2b9ecc	-0.002618718
228	0x3c8fa9bf	0.017536996
229	0xbc2b1c9b	-0.010443832
230	0x3bcd78c0	0.006270498
231	0xbd048ebb	-0.03236268
232	0x3d4f3cb7	0.05059501
233	0x3d06a0a6	0.03286805
234	0xbad407df	-0.0016176662
235	0xbd1fc98a	-0.039010562
236	0x3d6d775e	0.057975166
237	0x3cd55055	0.026039282
238	0x3d6bbe6a	0.05755464
239	0xbcefa413	-0.029253041
240	0xbcfad12a	-0.030617315
241	0x3cd6b638	0.026209936
242	0x3db1a4d4	0.086740166
243	0x3c8badd9	0.01705067
244	0x3ce1a415	0.02754406
245	0x3c5e1f7e	0.013557313
246	0x3bb9700a	0.005659108
247	0x3d35ff85	0.044433136
248	0x3df4f30d	0.11960421
249	0x3d67c464	0.056583777
250	0xbda91bcd	-0.08257256
251	0x3e18744f	0.14888118
252	0xbc391d3e	-0.011298476
253	0x3da3b154	0.07992807
254	0x3deabed5	0.114621796
255	0xbe2c0fa4	-0.16802841

Actor.fc1.bias f4 [32]
0	0x3dbd3397	0.092383556
1	0x3d73e1b0	0.059541404
2	0xbd361bdf	-0.044460174
3	0x3dcb2b0e	0.099203214
4	0x3dff81c5	0.124759234
5	0xbd5477bf	-0.05187201
6	0x3e0a8e20	0.13530779
7	0xbcaa1964	-0.02076406
8	0x3c6d5056	0.014484486
9	0x3cbaf2f2	0.022820923
10	0x3ca1b5f8	0.01974009
11	0x3ae05a5b	0.0017116772
12	0x3e00fa51	0.12595488
13	0x3db0604b	0.086121164
14	0x3c1ec137	0.009689621
15	0xb81e4448	-3.7733727e-05
16	0xb932a6cd	-0.00017037541
17	0x3d4630e0	0.048386455
18	0x3d8cc26c	0.068730205
19	0x3de5c022	0.11218287
20	0x3a84e0fe	0.0010137854
21	0xbd42f611	-0.04759795
22	0xbb58e2de	-0.0033094208
23	0x3cada43d	0.021196479
24	0xbc6c21e9	-0.014412382
25	0x3c47e170	0.012199745
26	0x3d660f07	0.056166675
27	0x3dfcf0da	0.12350626
28	0xb80b314f	-3.3186105e-05
29	0x3d82845f	0.06372904
30	0xbcfef3c8	-0.031122103
31	0x3df18e9d	0.117947794

Actor.fc2.weight f4 [32, 32]
0	0xbd07f105	-0.03318884
1	0x3e08598e	0.13315412
2	0x3c630872	0.013856994
3	0x3e5562f9	0.20838536
4	0xbd277c9c	-0.04089032
5	0xbdbb340c	-0.091407865
6	0x3de08753	0.10963311
7	0x3e101668	0.14071047
8	0xbd5427d1	-0.051795784
9	0x3dcfb6e9	0.10142309
10	0xbe2aed8b	-0.16692178
11	0x3e38df39	0.18053903
12	0xbb1a72ee	-0.0023567039
13	0xbd9562ce	-0.07294236
14	0x3e281304	0.16413504
15	0x3a33d807	0.00068604987
16	0x3d72b985	0.059258956
17	0xbd1eb4d5	-0.038746674
18	0xbe15eab2	-0.1464031
19	0x3e241f3c	0.1602754
20	0xbd987ebf	-0.0744605
21	0x3e22b8b0	0.15890765
22	0xbdca8a3d	-0.09889648
23	0xbe06aed6	-0.13152632
24	0xbd3122cd	-0.04324608
25	0xbcffd852	-0.03123108
26	0x3e1a6827	0.15078793
27	0x3dbf227f	0.093327515
28	0x377c7640	1.5047903e-05
29	0x3decb74d	0.11558399
30	0xbe0df3a8	-0.13862479
31	0x3e535fde	0.20642039
32	0x3de272c1	0.11057044
33	0xbe02aeda	-0.12762013
34	0x3c8021aa	0.015641052
35	0x3e163502	0.14668658
36	0x3e670887	0.22561847
37	0x3dcdf68b	0.1005679
38	0x3dc4a29e	0.09601329
39	0x3df8f8cd	0.1215683
40	0x3e2b2b8e	0.16715834
41	0x3e1e453d	0.154561
42	0x3dcf3435	0.101173796
43	0xbd06114d	-0.032731343
44	0xbcf92155	-0.030411402
45	0xbe29a1c2	-0.16565612
46	0x3dded237	0.10879939
47	0x3b08837f	0.002083033
48	0xbc2c3915	-0.010511656
49	0x3e1675df	0.14693402
50	0x3c9250b6	0.017860752
51	0x3d16b582	0.036794193
52	0xbdd753d4	-0.10514036
53	0x3dc194aa	0.094521835
54	0xbde0bd05	-0.109735526
55	0xbd83ab85	-0.06429199
56	0xbd2c4459	-0.04205737
57	0x3e07046e	0.13185284
58	0x3dedddcf	0.11614572
59	0x3e325204	0.17414099
60	0xb6a418d0	-4.8904694e-06
61	0xbcf4bc5e	-0.029874977
62	0x3d05f35b	0.032702785
63	0x3de998d7	0.11406105
64	0x3e1a8cb0	0.1509273
65	0xbdb64a44	-0.08900884
66	0xbcf11cac	-0.029432617
67	0x3e28ccd9	0.16484393
68	0x3d419e1c	0.047269925
69	0xbd2a547b	-0.041584473
70	0x3e5f01ae	0.21777984
71	0x3d095fbc	0.033538565
72	0x3db36286	0.08759026
73	0xbdcb959a	-0.099406436
74	0xbc118e21	-0.008883984
75	0x3e0d11d3	0.1377633
76	0xbd93598f	-0.07194816
77	0xbd7c72ad	-0.0616328
78	0xbd4debc6	-0.05027368
79	0xba692546	-0.0008893799
80	0xba48366f	-0.0007637506
81	0xbe11e6d7	-0.14248215
82	0xbd7d125b	-0.061785083
83	0x3e59df6e	0.21276638
84	0x3d707224	0.058702603
85	0xbcf9cd7b	-0.030493489
86	0x3e0de5bf	0.13857172
87	0x3e221fba	0.15832415
88	0xbd2cc775	-0.042182405
89	0x3d81ba64	0.06334379
90	0x3dc9a3e1	0.098457105
91	0x3da83a63	0.082142614
92	0x384c4f9e	4.871154e-05
93	0x3d8dc884	0.06923011
94	0x3dca0ba8	0.098655045
95	0x3d8a5255	0.06753985
96	0xbe0f1e36	-0.13976368
97	0xbc6612df	-0.014042585
98	0x3deb83f4	0.114997774
99	0x3d6ff67e	0.058584683
100	0xbab6e6b7	-0.0013954256
101	0x3d5ca17d	0.053864945
102	0x3a6df25c	0.0009076947
103	0xbe12d0f1	-0.14337517
104	0x3dfc9b49	0.12334306
105	0x3d89f98f	0.06737053
106	0x3dd1d2d2	0.10245289
107	0x3b5f2043	0.003404633
108	0x3da17b48	0.07884842
109	0x3d17f7f1	0.03710169
110	0xbd126ff9	-0.035751317
111	0x3a7640ca	0.00093938096
112	0x3da21252	0.079136506
113	0xbd80c2df	-0.06287169
114	0x3d44b78f	0.048026618
115	0x3da89326	0.08231191
116	0xbdd6cb39	-0.104879804
117	0xbdac16fc	-0.084028214
118	0x3cbedc10	0.023298293
119	0xbdf2ee96	-0.11861913
120	0xbd33b3fa	-0.04387281
121	0xbe1d5c8d	-0.15367337
122	0xbdc45c5c	-0.09587929
123	0x3e32bda8	0.1745516
124	0x3758890f	1.2906515e-05
125	0x3da7b644	0.08189061
126	0xbe08f272	-0.13373736
127	0x3e685d11	0.22691752
128	0x3db0de74	0.086361796
129	0x3ce7fba5	0.028318236
130	0xbe0d7d40	-0.1381731
131	0x3e331720	0.1748929
132	0x3df76701	0.12080193
133	0xbda1a585	-0.078928985
134	0x3dd0c6f6	0.10194199
135	0xbb6a6be7	-0.0035769881
136	0x3e2013e9	0.15632595
137	0x3e2b53e4	0.1673122
138	0x3de4fe2f	0.11181294
139	0xbd80cd51	-0.06289161
140	0x3e5c432a	0.21509996
141	0x3dd95260	0.10611415
142	0xbd496943	-0.04917265
143	0x3a5dcd81	0.00084611034
144	0xbc8380c8	-0.016052619
145	0xbdbf8177	-0.09350865
146	0x3ca2ff0c	0.019897006
147	0x3e2506ae	0.1611583
148	0x3d557af1	0.0521192
149	0xbd533abb	-0.05156968
150	0x3d9068c9	0.07051236
151	0xbc9a2303	-0.018815523
152	0xbd29f5e2	-0.041494258
153	0x3d541ecd	0.051787186
154	0xbd978845	-0.07399038
155	0xbd904d29	-0.07045967
156	0xba8312e2	-0.0010000134
157	0xbe17d946	-0.14828977
158	0x3e17d89e	0.14828727
159	0x3e6e9b47	0.23301421
160	0xbd9f6c74	-0.07784358
161	0xbc727f11	-0.014800803
162	0x3d656bca	0.056011
163	0xbc116cba	-0.00887602
164	0xbdc7458d	-0.09730063
165	0xbdfd486b	-0.12367328
166	0x3e49d64a	0.19710651
167	0x3ddf4828	0.109024346
168	0x3e0d9fef	0.13830541
169	0xbdf0abcb	-0.11751517
170	0x3db949dc	0.09047291
171	0x3e035ee1	0.12829162
172	0x3e2150d5	0.15753491
173	0x3e36ea55	0.17862828
174	0x3de7e8b1	0.11323679
175	0x3bd630d6	0.0065365834
176	0xbc6570d5	-0.014003952
177	0x3d85f329	0.0654052
178	0x3ce41925	0.027844021
179	0x3e45e72d	0.19326468
180	0xbd8d2e50	-0.06893599
181	0x3dd2e45e	0.10297464
182	0x3d9d4105	0.07678417
183	0xbd97e71f	-0.0741713
184	0xbca8c115	-0.020599881
185	0xbdd5312d	-0.1040977
186	0x3e417fdc	0.1889643
187	0x3e21c579	0.15797986
188	0x36d9beb5	6.489305e-06
189	0x3e10e6bd	0.1415052
190	0xbdde93a3	-0.10868003
191	0x3e46df54	0.1942113
192	0x3d33226c	0.043734
193	0x3de85c51	0.11345733
194	0xbde69a67	-0.11259919
195	0x3dd8a4fa	0.10578342
196	0x3e4635a2	0.19356397
197	0x3e136c15	0.14396699
198	0x3d65c2d5	0.05609401
199	0x3dacb2a1	0.08432508
200	0x3de96609	0.11396415
201	0xbd0c8cc3	-0.03431393
202	0xbb44c06c	-0.003002192
203	0xbce7fbb3	-0.028318262
204	0xbdcb8282	-0.09937002
205	0x3e02b415	0.12764008
206	0x3e1296db	0.1431536
207	0x37bcb4aa	2.2495475e-05
208	0xbd84a71d	-0.06477187
209	0x3e1a5d60	0.15074682
210	0x3e038ece	0.12847444
211	0x3e49ce82	0.19707683
212	0xbcea8f11	-0.028632673
213	0xbdd0f876	-0.1020364
214	0xbdae6d77	-0.085169725
215	0xbd63c6c2	-0.055609472
216	0xbd34d827	-0.04415145
217	0xbe1eee77	-0.15520655
218	0xbd8b14d1	-0.0679108
219	0xbd000a41	-0.03125978
220	0x36bb072f	5.5738706e-06
221	0x3d9a1d14	0.075250775
222	0xbd09f01b	-0.033676248
223	0x3e2e9f67	0.17052995
224	0xbd49f9c5	-0.049310464
225	0x3dbac160	0.091189146
226	0xbd90ecac	-0.070763916
227	0x3d12038e	0.03564792
228	0x3d89b816	0.06724565
229	0x3d3067ff	0.04306793
230	0xbdc40c9a	-0.09572716
231	0xbe0b61e8	-0.13611567
232	0x3db80c45	0.08986715
233	0x3ceef2f1	0.029168578
234	0xbddfb081	-0.10922337
235	0x3e16c3d2	0.14723137
236	0x3e315cd7	0.17320572
237	0x3d04a058	0.03237948
238	0x3e190c41	0.1494608
239	0x3a7e752c	0.0009706791
240	0x3c733e6b	0.014846425
241	0x3e1ce0d1	0.15320136
242	0x3e11125a	0.14167157
243	0x3dee5c79	0.116387315
244	0xbc27d227	-0.010242975
245	0x3d916149	0.07098634
246	0xbd783462	-0.06059683
247	0xbdc847b6	-0.09779303
248	0xbd311181	-0.043229584
249	0xbe1195cb	-0.14217298
250	0xbb2a0c3b	-0.0025947231
251	0x3df0a61f	0.11750435
252	0x381124bc	3.4604906e-05
253	0xbded8e10	-0.11599362
254	0x3e262305	0.16224296
255	0x3da5e55a	0.08100386

Actor.fc2.bias f4 [32]
0	0xbd3f7669	-0.046743784
1	0x3dede5f4	0.11616126
2	0xbd888181	-0.06665326
3	0x3d541d6d	0.051785875
4	0x3d915836	0.07096903
5	0x3e5381e4	0.20655018
6	0x3de07b8a	0.10961063
7	0xbdd26fca	-0.10275228
8	0xbdc153d6	-0.094398186
9	0x3e0d32de	0.13788936
10	0x3dfc357b	0.12314888
11	0x3e41488b	0.18875329
12	0x3e080d87	0.1328641
13	0x3e03f086	0.12884721
14	0x3de8e51a	0.11371823
15	0x3d5891ea	0.05287353
16	0xbcbb7be0	-0.022886217
17	0x3dcbda25	0.09953717
18	0x3c1a4cae	0.009417696
19	0xbd4bf950	-0.04979831
20	0xbc0e8528	-0.008698739
21	0xbd2aeff9	-0.041732762
22	0xbdddf543	-0.108377956
23	0x3a91430c	0.0011082604
24	0x3e4dcabd	0.2009687
25	0xbbf94aee	-0.0076078093
26	0x3e21971c	0.157803
27	0x3e47833b	0.19483654
28	0x3e2e7374	0.1703623
29	0xbde3a130	-0.111147285
30	0xbd168319	-0.03674612
31	0x3d35f34e	0.044421487

Actor.mean_fc3.weight f4 [17, 32]
0	0x00001681	8.073e-42
1	0xa10d9e9b	-4.798257e-19
2	0x000208df	1.86853e-40
3	0x000003cf	1.366e-42
4	0x80000013	-2.7e-44
5	0x8006c2bb	-6.20869e-40
6	0x00003263	1.8075e-41
7	0x00036d49	3.1471e-40
8	0x000ad001	9.92973e-40
9	0x0003e507	3.57666e-40
10	0x000018b5	8.863e-42
11	0x00041a19	3.76704e-40
12	0x00a6b30d	1.5308924e-38
13	0x8000375e	-1.9862e-41
14	0x800001de	-6.7e-43
15	0x80000eca	-5.305e-42
16	0x936a54d7	-2.9576782e-27
17	0x000d1ce1	1.204221e-39
18	0x002bcb44	4.021844e-39
19	0x8000346d	-1.8807e-41
20	0x00031980	2.84654e-40
21	0x800a474f	-9.43936e-40
22	0x00003a92	2.1011e-41
23	0x80004902	-2.619e-41
24	0x80000f20	-5.426e-42
25	0x801c07bc	-2.574168e-39
26	0x000042b7	2.3933e-41
27	0x00003a75	2.097e-41
28	0x0009599c	8.58665e-40
29	0x80046104	-4.02145e-40
30	0x00004cda	2.7569e-41
31	0x00005393	2.9981e-41
32	0x90086e09	-2.690604e-29
33	0x000048c3	2.6102e-41
34	0x00000ccc	4.59e-42
35	0x00044f42	3.95774e-40
36	0x00001b92	9.89e-42
37	0x8004d51f	-4.43795e-40
38	0x80005652	-3.0966e-41
39	0x80260632	-3.491971e-39
40	0x00006820	3.7353e-41
41	0x000011d3	6.394e-42
42	0x000008ae	3.114e-42
43	0x000006c6	2.43e-42
44	0x80005abf	-3.2554e-41
45	0x00046bc2	4.05998e-40
46	0x0003d0a4	3.50353e-40
47	0x00000a85	3.774e-42
48	0x002d4bbe	4.159769e-39
49	0x800068fb	-3.766e-41
50	0x000031d1	1.7871e-41
51	0x00006efd	3.9815e-41
52	0x00142740	1.85079e-39
53	0x80005a38	-3.2364e-41
54	0x0005bba8	5.26496e-40
55	0x800270b5	-2.24103e-40
56	0x00286b92	3.712009e-39
57	0x00002f21	1.6907e-41
58	0x80094ccd	-8.5407e-40
59	0x80002b54	-1.5543e-41
60	0x00005615	3.088e-41
61	0x80005aaa	-3.2524e-41
62	0x800043ac	-2.4276e-41
63	0x00004a8c	2.6742e-41
64	0x000046e7	2.5435e-41
65	0x80041375	-3.74322e-40
66	0x80000a2e	-3.652e-42
67	0x00003772	1.989e-41
68	0x00003a4f	2.0917e-41
69	0x000009a6	3.461e-42
70	0x80002ab1	-1.5315e-41
71	0x8047ede8	-6.605665e-39
72	0x80002b2b	-1.5486e-41
73	0x000e54f2	1.31617e-39
74	0x00003ff8	2.2948e-41
75	0x80006be7	-3.8708e-41
76	0x80003ce1	-2.1839e-41
77	0x80054f97	-4.87729e-40
78	0x800045fc	-2.5106e-41
79	0x00001ecb	1.1046e-41
80	0x8000084d	-2.978e-42
81	0x00002f24	1.6911e-41
82	0x00005df3	3.3703e-41
83	0x0015c96d	2.000803e-39
84	0x8004bc91	-4.34987e-40
85	0x00000a2d	3.65e-42
86	0x00000dd3	4.959e-42
87	0x80135a2a	-1.777219e-39
88	0x80034422	-2.99948e-40
89	0x00119b14	1.616835e-39
90	0x0000344c	1.876e-41
91	0x80005926	-3.198e-41
92	0x00005847	3.1668e-41
93	0x00003f6f	2.2756e-41
94	0x80004c48	-2.7365e-41
95	0x00690e9c	9.647968e-39
96	0x0005edab	5.44437e-40
97	0x000cd244	1.177455e-39
98	0x8000387d	-2.0264e-41
99	0x00004995	2.6396e-41
100	0x803d7528	-5.643993e-39
101	0x800a9913	-9.73268e-40
102	0x8000489d	-2.6049e-41
103	0x00000554	1.911e-42
104	0x8003b79d	-3.41375e-40
105	0x80000a65	-3.729e-42
106	0x8000678d	-3.7147e-41
107	0x80004503	-2.4757e-41
108	0x8074fc8e	-1.0743517e-38
109	0x80021b7e	-1.93533e-40
110	0x00006161	3.4933e-41
111	0x00004637	2.5188e-41
112	0x000025f7	1.3619e-41
113	0x00001b7e	9.862e-42
114	0x8003717f	-3.16221e-40
115	0x0072c874	1.0541156e-38
116	0x80005659	-3.0976e-41
117	0x0000106d	5.892e-42
118	0x800022c2	-1.2469e-41
119	0x8000067b	-2.325e-42
120	0x00088309	7.8169e-40
121	0x80002f9c	-1.7079e-41
122	0x0000085b	2.997e-42
123	0x00003807	2.0099e-41
124	0x800062ab	-3.5395e-41
125	0x8000660e	-3.661e-41
126	0x00002214	1.2225e-41
127	0x00001db5	1.0657e-41
128	0x000008d7	3.171e-42
129	0x80002903	-1.4712e-41
130	0x000041ca	2.36e-41
131	0x000023c3	1.2829e-41
132	0x00005a2f	3.2352e-41
133	0x80002aed	-1.5399e-41
134	0x00106cb0	1.508358e-39
135	0x00087509	7.76668e-40
136	0x00003af3	2.1147e-41
137	0x00005e41	3.3812e-41
138	0x8000189b	-8.827e-42
139	0x00005174	2.922e-41
140	0x00002bb5	1.5679e-41
141	0x80005a15	-3.2315e-41
142	0x8007963c	-6.96742e-40
143	0x00005015	2.8728e-41
144	0x80031ee8	-2.86594e-40
145	0x8002223c	-1.95952e-40
146	0x800d23d6	-1.206717e-39
147	0x8005891d	-5.08364e-40
148	0x80072c7a	-6.58804e-40
149	0x0006c603	6.22046e-40
150	0x800043a9	-2.4272e-41
151	0x80002f65	-1.7002e-41
152	0x001b7378	2.520981e-39
153	0x800008f5	-3.213e-42
154	0x000931f4	8.44439e-40
155	0x00001a98	9.54e-42
156	0x80062fb4	-5.68126e-40
157	0x00001d35	1.0478e-41
158	0x00032df2	2.91989e-40
159	0x00005203	2.942e-41
160	0x00000a57	3.709e-42
161	0x00001fae	1.1365e-41
162	0x00005174	2.922e-41
163	0x8006dba0	-6.298e-40
164	0x00006bdd	3.8694e-41
165	0x80270e95	-3.586815e-39
166	0x0000645a	3.6e-41
167	0x80001d5b	-1.0531e-41
168	0x0014d45b	1.912889e-39
169	0x00003651	1.9485e-41
170	0x00001fd2	1.1415e-41
171	0x000024e8	1.324e-41
172	0x00004dee	2.7956e-41
173	0x000044be	2.466e-41
174	0x000d9cad	1.250066e-39
175	0x0014a90d	1.897354e-39
176	0x93139000	-1.8625006e-27
177	0x21707de2	8.148177e-19
178	0x00002280	1.2376e-41
179	0x80034037	-2.98542e-40
180	0x80001f94	-1.1328e-41
181	0x0016769c	2.06293e-39
182	0x80000fca	-5.664e-42
183	0x00004ef7	2.8327e-41
184	0x800021c6	-1.2116e-41
185	0x00005b15	3.2674e-41
186	0x00001516	7.564e-42
187	0x80002524	-1.3324e-41
188	0x800013d1	-7.109e-42
189	0x80003249	-1.8039e-41
190	0x80169628	-2.074247e-39
191	0x000055f6	3.0837e-41
192	0x800002fd	-1.072e-42
193	0x800025a2	-1.35e-41
194	0x00003cd5	2.1822e-41
195	0x80005f4d	-3.4187e-41
196	0x80001770	-8.408e-42
197	0x800034bb	-1.8916e-41
198	0x80000ff2	-5.72e-42
199	0x8000423b	-2.3759e-41
200	0x80003f0c	-2.2617e-41
201	0x00003e38	2.232e-41
202	0x80000cb4	-4.557e-42
203	0x80002f0f	-1.6881e-41
204	0x800e7439	-1.32739e-39
205	0x00041137	3.73518e-40
206	0x00002f2a	1.6919e-41
207	0x00005a8e	3.2485e-41
208	0x00084ef0	7.63001e-40
209	0x800017a2	-8.478e-42
210	0x80004f03	-2.8344e-41
211	0x00003880	2.0268e-41
212	0x800039f0	-2.0784e-41
213	0x8000545d	-3.0264e-41
214	0x00003455	1.8773e-41
215	0x80001f23	-1.117e-41
216	0x800000e2	-3.17e-43
217	0x000031d5	1.7876e-41
218	0x00b8f22b	1.6984605e-38
219	0x00006a63	3.8164e-41
220	0x00078a00	6.92354e-40
221	0x00005522	3.054e-41
222	0x0000343d	1.874e-41
223	0x007b282b	1.1310176e-38
224	0x80005e34	-3.3794e-41
225	0x80002ddd	-1.6453e-41
226	0x00005cd5	3.3302e-41
227	0x0000658d	3.643e-41
228	0x800023b8	-1.2813e-41
229	0x80000560	-1.928e-42
230	0x800009b9	-3.488e-42
231	0x8002c135	-2.5298e-40
232	0x00005162	2.9195e-41
233	0x00002e18	1.6535e-41
234	0x00006331	3.5583e-41
235	0x00575917	8.021648e-39
236	0x80002643	-1.3726e-41
237	0x00002157	1.196e-41
238	0x00039428	3.28655e-40
239	0x00006ca2	3.897e-41
240	0x00035ecf	3.09517e-40
241	0x000894f6	7.88121e-40
242	0x00000ef1	5.36e-42
243	0x800030cd	-1.7506e-41
244	0x80006e31	-3.9529e-41
245	0x80003324	-1.8346e-41
246	0x800054ef	-3.0468e-41
247	0x80000bff	-4.303e-42
248	0x031d73f0	4.6271243e-37
249	0x00048b7a	4.17377e-40
250	0x000006ee	2.486e-42
251	0x0000228c	1.2393e-41
252	0x0015b065	1.991824e-39
253	0x000036f3	1.9712e-41
254	0x00004327	2.409e-41
255	0x00000e8c	5.218e-42

Actor.mean_fc3.bias f4 [17]
0	0x80006894	-3.7516e-41
1	0x00006a0f	3.8047e-41
2	0x00004115	2.3347e-41
3	0x00028590	2.31584e-40
4	0x80000a86	-3.775e-42
5	0x00003430	1.8721e-41
6	0x8007d4fe	-7.19256e-40
7	0x800ef371	-1.373027e-39
8	0x800844e1	-7.59393e-40
9	0x8004dd5a	-4.46748e-40
10	0x8002653c	-2.19987e-40
11	0x80006a12	-3.8051e-41
12	0x8000300b	-1.7235e-41
13	0x800004e7	-1.759e-42
14	0x00001a0b	9.342e-42
15	0x00001b9d	9.906e-42
16	0x800012cd	-6.744e-42

Actor.log_std_fc3.weight f4 [17, 32]
0	0xbc9429df	-0.018086372
1	0xbc3f2049	-0.011665412
2	0xbdad1b70	-0.08452499
3	0xbc3948ca	-0.011308858
4	0xbc88dc06	-0.016706478
5	0xbc54a339	-0.012978368
6	0xbc523164	-0.012829158
7	0xbd66d2e6	-0.056353472
8	0xbc294c45	-0.0103331255
9	0xbdd49938	-0.10380787
10	0xbc4efc6c	-0.012633424
11	0xbdc46dc9	-0.09591252
12	0xbcf18d25	-0.029486248
13	0xbc765097	-0.015033863
14	0xbd34fc1d	-0.044185746
15	0xbc3b7f04	-0.011443857
16	0xbc8d4b2c	-0.017247759
17	0xbc67c8f7	-0.014147035
18	0xbdaf524b	-0.08560618
19	0xbc1f26ae	-0.009713812
20	0xbc3a4bb2	-0.011370586
21	0xbc811cd7	-0.015760822
22	0xbc45c617	-0.012071154
23	0xbc26af17	-0.010173581
24	0xbc33ff90	-0.010986224
25	0xbc096660	-0.0083862245
26	0xbc0ebe3f	-0.00871235
27	0xbcede644	-0.029040463
28	0xbc0d4a29	-0.008623638
29	0xbc786e33	-0.015162992
30	0xbc80f5ca	-0.015742201
31	0xbc84a428	-0.016191557
32	0xbcb1b418	-0.02169232
33	0xbc2715b1	-0.010198043
34	0xbda827e8	-0.082107365
35	0xbc987afd	-0.018613333
36	0xbd1c07cc	-0.038093373
37	0xbc0b5b6a	-0.0085056815
38	0xbc9419e0	-0.018078744
39	0xbd75f428	-0.0600473
40	0xbc709bea	-0.01468561
41	0xbdac7931	-0.08421553
42	0xbc308b7c	-0.010775443
43	0xbd9eb2e6	-0.07748966
44	0xbd44d1a1	-0.04805148
45	0xbc6982f3	-0.014252412
46	0xbd44db77	-0.04806086
47	0xbc2a11c3	-0.010380211
48	0xbcabda9c	-0.020978265
49	0xbc4e5f24	-0.0125959255
50	0xbd98ff7c	-0.07470605
51	0xbbc3baec	-0.0059732106
52	0xbc1eeabf	-0.0096995225
53	0xbc927d8b	-0.01788213
54	0xbc849c36	-0.016187768
55	0xbc18c600	-0.009324551
56	0xbbf5dbbd	-0.0075030015
57	0xbc40ccc9	-0.011767575
58	0xbbf6538f	-0.007517285
59	0xbd2555ac	-0.040364906
60	0xbc3df784	-0.011594657
61	0xbc87778b	-0.016536495
62	0xbc6ecd3b	-0.014575298
63	0xbca9ae1d	-0.020712906
64	0xbc9193e1	-0.01777071
65	0xbc2d197a	-0.010565156
66	0xbda8b152	-0.08236946
67	0xbcc07b81	-0.023496391
68	0xbced654f	-0.028978972
69	0xbc67db43	-0.014151397
70	0xbc5910ba	-0.013248617
71	0xbd727eac	-0.059202835
72	0xbca72b3f	-0.020406364
73	0xbdb788c4	-0.08961633
74	0xbc22ea85	-0.009943609
75	0xbda39f13	-0.079893254
76	0xbd2a17bb	-0.041526537
77	0xbc4a6e65	-0.012355422
78	0xbd5405a8	-0.051763207
79	0xbbb91d0b	-0.005649214
80	0xbca248b4	-0.019810058
81	0xbc7be27a	-0.01537382
82	0xbd9565ee	-0.07294832
83	0xbc00c84d	-0.007860255
84	0xbc31018e	-0.010803593
85	0xbca65e2b	-0.020308575
86	0xbc7cbb38	-0.015425496
87	0xbbec1c17	-0.007205497
88	0xbc0b829c	-0.008515026
89	0xbc2685db	-0.01016375
90	0xbbc55fe2	-0.006023393
91	0xbd1cf032	-0.038315006
92	0xbc7746f5	-0.015092601
93	0xbc984085	-0.018585453
94	0xbc2d7633	-0.010587263
95	0xbcbda5aa	-0.023150284
96	0xbccf6283	-0.025315529
97	0xbc306fdc	-0.010768857
98	0xbd9e4649	-0.077282496
99	0xbcacbbe7	-0.021085693
100	0xbd3848cf	-0.04499131
101	0xbc2fcedf	-0.010730474
102	0xbc75c946	-0.015001601
103	0xbd780592	-0.060552187
104	0xbc8ad682	-0.016947988
105	0xbda0c611	-0.07850278
106	0xbc14b3f9	-0.009076112
107	0xbd9a5843	-0.07536366
108	0xbd4be2b4	-0.049776748
109	0xbc3a43d3	-0.01136871
110	0xbd4cf58f	-0.05003887
111	0xbbe98fea	-0.0071277516
112	0xbc9bc36f	-0.019014088
113	0xbc389604	-0.011266235
114	0xbd9b7c1b	-0.075920306
115	0xbc1f361a	-0.009717489
116	0xbc30d679	-0.010793322
117	0xbc8e4438	-0.017366514
118	0xbc6369b0	-0.013880178
119	0xbbd944c4	-0.006630512
120	0xbc1bb9f2	-0.009504782
121	0xbc461b87	-0.012091524
122	0xbbd7ef48	-0.006589804
123	0xbd1fa3c0	-0.038974524
124	0xbc651d32	-0.0139840115
125	0xbc84b768	-0.016200736
126	0xbc6244b3	-0.0138103245
127	0xbcbd6bd1	-0.0231227
128	0xbcb4e172	-0.022080157
129	0xbc5e2789	-0.013559231
130	0xbda17c5f	-0.0788505
131	0xbcbca1f4	-0.023026444
132	0xbd0496ee	-0.0323705
133	0xbc68900e	-0.014194502
134	0xbc7f7a36	-0.015593102
135	0xbd7997c9	-0.06093577
136	0xbca28476	-0.019838553
137	0xbdade1f1	-0.084903605
138	0xbbae8a56	-0.0053265495
139	0xbd997f60	-0.07494998
140	0xbd24b191	-0.040208403
141	0xbc5a99fa	-0.013342375
142	0xbd4fbe2b	-0.050718468
143	0xbbca5653	-0.0061748414
144	0xbcaa9328	-0.020822123
145	0xbc679827	-0.014135397
146	0xbd945872	-0.07243432
147	0xbb7c6483	-0.0038512058
148	0xbc3104bd	-0.010804352
149	0xbc909d3b	-0.017653098
150	0xbc86934b	-0.016427657
151	0xbc1dc071	-0.009628401
152	0xbc0dd4d1	-0.008656696
153	0xbc2bdade	-0.010489194
154	0xbc079624	-0.008275542
155	0xbd14a444	-0.03628947
156	0xbc54a6ef	-0.012979253
157	0xbcb7fbde	-0.022458967
158	0xbc83a302	-0.01606894
159	0xbcaa34e7	-0.020777179
160	0xbcc9ee49	-0.024649756
161	0xbc0b068d	-0.008485449
162	0xbda1333f	-0.078711025
163	0xbc97bd3e	-0.018522855
164	0xbd2050f9	-0.03913972
165	0xbc538207	-0.012909419
166	0xbc865603	-0.016398435
167	0xbd777956	-0.06041845
168	0xbc55c326	-0.013047015
169	0xbd9d8361	-0.07691074
170	0xbbc0f461	-0.0058885072
171	0xbd9b019a	-0.07568665
172	0xbd510c3e	-0.051037066
173	0xbc6d56dc	-0.014486041
174	0xbd365caa	-0.044521965
175	0xbc21e638	-0.009881549
176	0xbca757cd	-0.020427609
177	0xbc633cf0	-0.013869509
178	0xbda36875	-0.07978908
179	0xbc273630	-0.01020579
180	0xbc0e3902	-0.008680584
181	0xbc870f14	-0.016486682
182	0xbc691eb1	-0.014228509
183	0xbbc452a1	-0.0059912954
184	0xbbb56b24	-0.005536454
185	0xbc41b916	-0.011823913
186	0xbc053bd8	-0.008131944
187	0xbd285ba9	-0.04110304
188	0xbc5c2a66	-0.013437843
189	0xbc90f2ac	-0.01769384
190	0xbc40d5de	-0.01176974
191	0xbca498bf	-0.020092366
192	0xbd01dfaa	-0.031707443
193	0xbc44c609	-0.012010106
194	0xbda82772	-0.082106486
195	0xbc9d5b66	-0.019208621
196	0xbd842717	-0.06452768
197	0xbc356fc7	-0.011074013
198	0xbc85ea9c	-0.016347222
199	0xbd0f91e4	-0.03505124
200	0xbcaf8d60	-0.021429718
201	0xbdacf279	-0.084446855
202	0xbbde6254	-0.006786624
203	0xbd981bce	-0.07427178
204	0xbd395c46	-0.045254014
205	0xbc895f3d	-0.016769046
206	0xbd009aae	-0.031397514
207	0xbc02b3a2	-0.007977398
208	0xbc9c1785	-0.019054184
209	0xbc5f86e9	-0.013643005
210	0xbd950398	-0.07276076
211	0xbbcdce5c	-0.0062807035
212	0xbc44ee3c	-0.01201969
213	0xbc92cf57	-0.017921133
214	0xbc6101d2	-0.013733344
215	0xbbdff63b	-0.006834773
216	0xbbd3e2f1	-0.0064662625
217	0xbc451910	-0.012029901
218	0xbbb903f4	-0.005646223
219	0xbd06f1e0	-0.032945514
220	0xbc7f486e	-0.015581233
221	0xbc7ccca6	-0.015429651
222	0xbc87992e	-0.016552534
223	0xbcb9a15d	-0.022659952
224	0xbc8946fc	-0.01675748
225	0xbc6ab646	-0.014325684
226	0xbda5ac49	-0.080895014
227	0xbcb6b042	-0.022300843
228	0xbd07f312	-0.033190794
229	0xbc3c2c31	-0.011485145
230	0xbc58bbf0	-0.013228402
231	0xbd7be1ff	-0.061494824
232	0xbc97e17f	-0.018540142
233	0xbdb66503	-0.08905985
234	0xbc004cf3	-0.007830846
235	0xbd9a08b2	-0.0752119
236	0xbd3135b2	-0.0432641
237	0xbc848eb0	-0.01618132
238	0xbd5513ff	-0.052021023
239	0xbbf0e441	-0.0073514287
240	0xbc94fb7f	-0.018186329
241	0xbc817a61	-0.015805425
242	0xbd9528c8	-0.07283169
243	0xbba92901	-0.0051623587
244	0xbc074d3e	-0.008258162
245	0xbc90eb00	-0.017690182
246	0xbc8ece4c	-0.017432354
247	0xbc353f31	-0.011062429
248	0xbbd8b602	-0.006613494
249	0xbc139582	-0.009007813
250	0xbc182432	-0.009285973
251	0xbd2119ae	-0.03933113
252	0xbc758ef6	-0.014987698
253	0xbca7c2c3	-0.020478612
254	0xbc6e4b04	-0.014544252
255	0xbcba771f	-0.02276188

Actor.log_std_fc3.bias f4 [17]
0	0xbc86d7c0	-0.0164603
1	0xbd4b8f4f	-0.049697217
2	0xbd78ba13	-0.06072433
3	0xbd65d888	-0.056114703
4	0xbd854801	-0.06507874
5	0xbd461ddd	-0.048368324
6	0xbd82189c	-0.0635235
7	0xbd739208	-0.059465438
8	0xbccaa453	-0.024736559
9	0xbd850e44	-0.064968616
10	0xbd828aa0	-0.06374097
11	0xbd52550a	-0.05135063
12	0xbcea6e0b	-0.028616926
13	0xbd6c87e5	-0.057746787
14	0xbd949936	-0.07255785
15	0xbd3b0a89	-0.045664344
16	0xbd4c8ec6	-0.049940847

Critic.fc1.weight f4 [32, 378]
0	0x3e0b3c9b	0.13597338
1	0x3d6eab01	0.05826855
2	0x3db53056	0.0884711
3	0x3d3cb60c	0.04607205
4	0xbd15b973	-0.03655381
5	0xbc62f8b7	-0.013853244
6	0xbce4f69d	-0.027949626
7	0x3d79119e	0.060807817
8	0xbce0c6fe	-0.027438637
9	0x3d13ef1f	0.036116716
10	0x3d15a5d9	0.036535118
11	0x3ce43b2e	0.02786025
12	0xbcf6bd93	-0.030119693
13	0xbcee1c99	-0.02906637
14	0x3d509dc8	0.050931722
15	0x3d8b6cdd	0.068078734
16	0xbd37f275	-0.04490896
17	0xbc9b6811	-0.018970521
18	0x3d20ee38	0.039289683
19	0xbdc66791	-0.096877225
20	0xbd9b1561	-0.07572437
21	0xbd09029d	-0.033449758
22	0x3d72b0c5	0.05925061
23	0xbdccf58e	-0.10007773
24	0x3dfa93b0	0.122352004
25	0x3ce60f4b	0.028083464
26	0x3c69fad5	0.014280994
27	0x3b8414ed	0.004030815
28	0xbbf78737	-0.0075539607
29	0xbd590d4d	-0.0529912
30	0xbc5f2758	-0.01362022
31	0xbcee0f07	-0.0290599
32	0x3d8ce42f	0.0687946
33	0x3cf280bf	0.029602407
34	0xbc9ccbf3	-0.01914022
35	0x3d4d7a6b	0.050165575
36	0xbd5b886a	-0.05359689
37	0xbcca45e3	-0.024691528
38	0xbd1b4636	-0.037908755
39	0x3d432daa	0.04765097
40	0xbda73b55	-0.081656136
41	0xbbbbf7d4	-0.0057363305
42	0x3d03128a	0.032000102
43	0xbcab9bad	-0.020948255
44	0x3c13183d	0.008977947
45	0x3d9278b5	0.07151929
46	0x3d0f47de	0.034980647
47	0x3cc97a53	0.024594462
48	0xbc2d9e63	-0.010596844
49	0x3d0bbb68	0.03411427
50	0x3b03c685	0.002010734
51	0x3c83ac6a	0.016073424
52	0x3cda842f	0.026674358
53	0x3c9c3d34	0.019072153
54	0x3d4213af	0.047382053
55	0x3d06377c	0.032767758
56	0xbce3ec8d	-0.027822757
57	0x3d495aa4	0.049158707
58	0x3d5e2f17	0.054244127
59	0x3c44d732	0.012014197
60	0x3d4e44ae	0.050358467
61	0xbcd95c50	-0.026533276
62	0xbdb7b0c7	-0.089692645
63	0xbca63e42	-0.020293359
64	0x3ccbf5f5	0.024897555
65	0x3d5c4a3c	0.053781733
66	0x3d78e27a	0.06076286
67	0x3dc10d8e	0.094264135
68	0x3ca5025b	0.020142725
69	0x3c6b6903	0.014368298
70	0x3c9c46fe	0.01907682
71	0x3d99de2b	0.07513078
72	0xbc3ac319	-0.011399054
73	0xbbf08c63	-0.007340954
74	0xbcead48a	-0.0286658
75	0x3ca1a50c	0.01973202
76	0x3d42674f	0.047461804
77	0x3d905417	0.07047289
78	0x3db4ab2c	0.08821711
79	0x3da66d41	0.08126307
80	0xbc3fe787	-0.011712915
81	0x3d72dd29	0.059292946
82	0x3af375c6	0.0018574528
83	0xbd04e31c	-0.03244315
84	0xbda1ee1e	-0.079067454
85	0x3d4b2525	0.04959597
86	0x3d8f7c24	0.070061
87	0x3d4a21db	0.049348693
88	0x3d55412d	0.05206411
89	0x3d5a1ca0	0.053249955
90	0x3d46950b	0.048481982
91	0x3d059cb6	0.032620154
92	0xbdbd5c37	-0.09246104
93	0x3c35fa35	0.011107017
94	0xbd99d0ca	-0.075105265
95	0xbd707eea	-0.058714785
96	0x3ce22105	0.027603636
97	0x3db80c54	0.089867264
98	0x3dd029b6	0.10164206
99	0x3d9075ce	0.070537195
100	0x3c473a16	0.012159845
101	0xbcced5a3	-0.025248354
102	0xbbeabb7c	-0.007163463
103	0x3cc856eb	0.024455508
104	0xbcae5502	-0.02128077
105	0xbd5181b3	-0.05114908
106	0x3c978090	0.01849392
107	0x3d115643	0.035482656
108	0x3d18513f	0.037186857
109	0x3de99ccc	0.1140686
110	0xbde675a9	-0.11252911
111	0xbe09d860	-0.13461447
112	0xbdaa73b9	-0.083228536
113	0xbe37c9da	-0.17948094
114	0xbd974ab1	-0.07387293
115	0xbda0d532	-0.07853164
116	0x3dbafd35	0.09130327
117	0x3c8fd81b	0.017559102
118	0x3d56274e	0.052283578
119	0x3d856fa3	0.06515434
120	0xbbca41da	-0.006172401
121	0x3d9c5356	0.076330826
122	0x3d8f22d1	0.069890626
123	0x3dce3e39	0.10070462
124	0x3d8ea3e6	0.06964855
125	0xbd2cc283	-0.04217769
126	0x3d9c102f	0.07620274
127	0x3c422b9d	0.0118512185
128	0x3d6ab293	0.057299208
129	0x3cd8bb1d	0.02645641
130	0x3c5e5cd5	0.013571938
131	0xbd8c55e1	-0.068523176
132	0x3dd28868	0.10279924
133	0xbcb2aba6	-0.021810364
134	0x3d83c5dc	0.06434223
135	0xbcb1c30e	-0.021699455
136	0x3d778291	0.060427252
137	0x3d88c6bd	0.06678531
138	0x3da3f043	0.08004811
139	0x3d2ed615	0.042684633
140	0x3dce7088	0.100800574
141	0xbddaeae3	-0.10689332
142	0x3d58a9ac	0.052896187
143	0xbe08eec2	-0.13372329
144	0x3dc403f5	0.09571067
145	0xbd35b1dc	-0.044359073
146	0x3d737bdd	0.059444297
147	0x3dc331bc	0.095309705
148	0x3d7774c1	0.06041408
149	0x3cbc1777	0.022960408
150	0x3d483a61	0.0488838
151	0x3c4d1ba5	0.012518798
152	0x3dd2ee1f	0.10299324
153	0x3d608c0d	0.054821063
154	0xbdd317e5	-0.10307292
155	0x3daa6b27	0.08321219
156	0x3d6bc02d	0.05755632
157	0xbc5aad73	-0.013347018
158	0x3d4caba7	0.049968388
159	0x3d39abff	0.045330044
160	0xbb4a0568	-0.0030825976
161	0x3c2055e9	0.009786108
162	0xbc05bc91	-0.0081626335
163	0x3c11a298	0.008888863
164	0xbd9e64e6	-0.077340886
165	0x3d811bb2	0.063041106
166	0x3d2628ce	0.040566258
167	0x3db8359b	0.089945994
168	0x3dcf272b	0.101148926
169	0x3ccc3cce	0.024931338
170	0xbd446a5a	-0.047952987
171	0xbd56bf4a	-0.05242852
172	0xbcf68d4d	-0.030096674
173	0x3d9f410b	0.07776078
174	0x3dc9c3d5	0.09851805
175	0x3cfd3c4a	0.030912537
176	0x3ca76101	0.020431997
177	0xbc1dc35c	-0.009629097
178	0xbc80b474	-0.015711047
179	0x3d8941b8	0.06701988
180	0xbd80623d	-0.062687375
181	0xbd5bf544	-0.0537007
182	0xbc0e7b27	-0.008696354
183	0x3d75e82c	0.06003587
184	0x3bea1759	0.0071438965
185	0x3d9c1f0e	0.07623111
186	0x3d4c0bf6	0.049816094
187	0xbc34bee5	-0.011031841
188	0x3a0fd4e5	0.0005486741
189	0x3d0a79a8	0.033807427
190	0xbc223a8a	-0.009901652
191	0xbcec6c65	-0.02886028
192	0x3cb6f936	0.02233563
193	0xbb3a9fc2	-0.002847657
194	0xbd5c9cc4	-0.05386044
195	0xbd87a3ed	-0.06623063
196	0x3dbf5c35	0.09343759
197	0xbc4257ce	-0.011861755
198	0xbb827269	-0.003980924
199	0xbd4a9de3	-0.04946698
200	0xbda68444	-0.081306964
201	0x3c7a0a5b	0.015261258
202	0x3dbdcbc6	0.09267382
203	0xb9e9f615	-0.0004462457
204	0xbdb1aea8	-0.08675891
205	0xbcf720c2	-0.030166987
206	0xbdc284ac	-0.094979614
207	0x3b78feb6	0.0037993616
208	0x3e07681d	0.1322331
209	0xbc20fa87	-0.009825355
210	0xbbe38d49	-0.0069443327
211	0xbbe806a5	-0.00708087
212	0x3be49bf5	0.0069765993
213	0x3d1fc3c9	0.039005075
214	0x3e02fdab	0.12792079
215	0xbd5426db	-0.051794868
216	0xbd42710a	-0.047471084
217	0x3d5304fa	0.051518418
218	0x3dc46a94	0.09590641
219	0xbbce9486	-0.0063043265
220	0x3d54863a	0.05188582
221	0x3d238a7a	0.039926983
222	0x3b9bc2c4	0.0047534425
223	0x3c90dfba	0.017684806
224	0x3db44adf	0.08803343
225	0x3d36a496	0.044590555
226	0x3dc5fad4	0.09666982
227	0xbd1e70ac	-0.03868167
228	0x3b8f589e	0.0043745777
229	0xbc1874c2	-0.009305181
230	0xbd5e185f	-0.05422246
231	0x3ce01bb8	0.027356967
232	0x3da56522	0.0807593
233	0x3bccd935	0.006251479
234	0x3c20e528	0.00982026
235	0x3d161a6f	0.036646303
236	0x3d08765b	0.033315998
237	0xbd23072e	-0.03980177
238	0x3d67aacf	0.05655938
239	0x3c1bd1e4	0.009510491
240	0xbcd0dca4	-0.025495835
241	0x3c4b6274	0.01241361
242	0x3c742ead	0.0149037065
243	0xbc38fa48	-0.01129014
244	0x3dda9033	0.10672035
245	0xbd27dfc3	-0.04098488
246	0x3ce7da5e	0.028302368
247	0x3c898f22	0.016791884
248	0xbc1733b0	-0.009228632
249	0xbd6948a8	-0.056954056
250	0xbc203a8a	-0.009779582
251	0xbc04f666	-0.008115387
252	0xbd415d60	-0.04720819
253	0xbcb1bfc2	-0.021697883
254	0x3bef5ec2	0.007304997
255	0xbd953f08	-0.07287413

Critic.fc1.bias f4 [32]
0	0x3d8857ad	0.06657348
1	0x3aed8d8f	0.0018123853
2	0x3d55eac7	0.052225854
3	0x3d8aef47	0.0678392
4	0x3da30a50	0.07960951
5	0xbbb3ca93	-0.005486795
6	0x3c5584b9	0.013032132
7	0xbcf3a8e9	-0.029743629
8	0x3d6cbd66	0.057797812
9	0x3dc717f8	0.097213686
10	0xbd2127ac	-0.039344475
11	0x3c2661c2	0.010155143
12	0xbc6949c5	-0.014238779
13	0x3c8dc704	0.017306812
14	0x3d7d155e	0.061787955
15	0x3ccbecc3	0.02489317
16	0xbcf38ef8	-0.029731259
17	0x3d87bd38	0.066278875
18	0x3d78c268	0.060732275
19	0x3caaf038	0.020866498
20	0x3d3626c0	0.04447055
21	0x3d017a1c	0.031610593
22	0x3db1554e	0.08658849
23	0xbcaf1ebe	-0.021376964
24	0xbc512db7	-0.012767247
25	0x3d3a0da7	0.045423176
26	0xbcdba048	-0.026809826
27	0x3cb53ddb	0.022124222
28	0x3dd5d34d	0.10440693
29	0x3d72d00a	0.059280433
30	0x3cb80e1b	0.022467664
31	0x3dc70987	0.09718614

Critic.fc2.weight f4 [32, 32]
0	0x3e1451ed	0.14484377
1	0xbe0c1f2a	-0.13683763
2	0x3e025fca	0.12731853
3	0x3df74158	0.1207301
4	0x3dd6a782	0.10481168
5	0xbdada04f	-0.08477842
6	0xbc36c2a4	-0.011154804
7	0x3c84865c	0.016177349
8	0x3c1d315f	0.0095942905
9	0x3db0218c	0.086001486
10	0xbd1eda97	-0.038782682
11	0x3cb9400a	0.022613544
12	0xbe4951c5	-0.19660099
13	0x3c8be2b3	0.017075872
14	0x3e08d8e5	0.13363989
15	0x3dbe2c4e	0.09285794
16	0x3a0a535e	0.0005276705
17	0x3e3745fd	0.17897792
18	0xbcc33dbe	-0.023833152
19	0x3db82eae	0.089932784
20	0x3d8c648b	0.068551145
21	0x3c7a9e49	0.015296527
22	0xbda8e0e5	-0.0824602
23	0xbd4318c0	-0.047631025
24	0x3e1f30d9	0.15545978
25	0xbc9a8b74	-0.018865325
26	0xbd496e1e	-0.04917728
27	0xbdda5279	-0.10660262
28	0x3dfb4fa9	0.12271053
29	0xbdca6813	-0.09883132
30	0x3e11e8bd	0.14248939
31	0xbd90c1eb	-0.07068237
32	0x3d952f5f	0.07284426
33	0xbdd4a8fb	-0.10383793
34	0x3d411212	0.047136374
35	0x3e539611	0.20662715
36	0x3e421af7	0.18955599
37	0xbddaa97c	-0.10676858
38	0x3dd5bcf0	0.104364276
39	0xbe059ac6	-0.13047323
40	0x3e04f0d9	0.12982501
41	0xbce7d329	-0.028298931
42	0xbd26fbd4	-0.040767506
43	0xbd841aaf	-0.06450402
44	0xbe34fa3f	-0.17673586
45	0x3de5f0b8	0.11227554
46	0x3dd379bb	0.103259526
47	0xbdc523de	-0.09625982
48	0xbd77e6bb	-0.060522776
49	0x3df7a0ae	0.12091194
50	0x3e50fa72	0.20408037
51	0x3de95ba5	0.11394433
52	0x3d7fec72	0.06248135
53	0xbcc5298c	-0.024067663
54	0xbca24f5b	-0.01981323
55	0xbd0e3f4f	-0.034728345
56	0x3dd7eb7a	0.105429605
57	0xbd9c6039	-0.076355405
58	0x3db52db4	0.08846608
59	0xbe2414c0	-0.1602354
60	0xbc77585e	-0.015096752
61	0x3d8a8563	0.06763723
62	0x3dfa1ef1	0.12212933
63	0x3e4b9961	0.19882728
64	0x3deabfa1	0.114623316
65	0xbe125ad0	-0.14292455
66	0x3bbef74d	0.0058278204
67	0x3d9e6b1e	0.07735275
68	0xbd573f03	-0.052550327
69	0x3d6c5742	0.057700403
70	0x3d8cb3ee	0.06870256
71	0xbd8e8980	-0.0695982
72	0x3ded0211	0.1157266
73	0xbd08dda5	-0.0334145
74	0xbcf7e1a4	-0.030258961
75	0xbdca7c0e	-0.09886943
76	0xbe305baa	-0.17222467
77	0x3d953a4b	0.07286509
78	0x3e22742c	0.15864629
79	0xbbd63d05	-0.006538036
80	0xbda4a6b1	-0.08039606
81	0x3d7cbbd9	0.061702583
82	0x3e04a248	0.1295253
83	0x3da46c15	0.080284275
84	0x3ce293e9	0.02765842
85	0x3e05ca06	0.13065347
86	0x3e5c4622	0.21511129
87	0xbe0c2fca	-0.13690105
88	0xbe08a985	-0.13345917
89	0x3d3e6cca	0.046490468
90	0x3def1d2d	0.11675487
91	0x3e0ea418	0.13929784
92	0xbb25492d	-0.0025220618
93	0xbdcc5f46	-0.099791095
94	0xbd98c5cd	-0.074596025
95	0x3e33c077	0.17553888
96	0xbe0d97d3	-0.13827448
97	0x3cae55c9	0.02128114
98	0xbdec4dd3	-0.11538281
99	0x3d74e402	0.059787758
100	0xbd87e2b7	-0.06635039
101	0x39aeed0f	0.0003336449
102	0x3d27ed35	0.040997703
103	0xbd972ae9	-0.07381231
104	0x3d886ec3	0.06661751
105	0x3e02cba3	0.12772994
106	0x3de53102	0.11190988
107	0x3d815ee8	0.0631693
108	0x3da39f6e	0.07989393
109	0x3e24de02	0.16100314
110	0x3d1b8582	0.03796912
111	0x3e347272	0.17621782
112	0x3dbadd3a	0.09124227
113	0x3cbdd483	0.023172623
114	0xbd6d21e9	-0.057893667
115	0xbdb4d755	-0.08830134
116	0xbd3882b4	-0.045046523
117	0xbdf4dd3c	-0.119562596
118	0xbdf9a663	-0.12189939
119	0xbe13d024	-0.14434868
120	0x3e1f161c	0.15535778
121	0xbdb78505	-0.08960918
122	0x3de5e381	0.112250336
123	0x3dec0ae7	0.11525517
124	0x3dc9244f	0.098213784
125	0x3e31f2b6	0.17377743
126	0xbd4fc5ab	-0.05072562
127	0xbe190984	-0.14945036
128	0x3dcc9058	0.09988469
129	0xbe3e9e1f	-0.18615006
130	0x3e39efa4	0.18157822
131	0xbe009fc5	-0.12560947
132	0xbde6f5cb	-0.1127735
133	0x3e55a63d	0.20864196
134	0x3e15a574	0.14613897
135	0xbde15480	-0.11002445
136	0x3e308dcb	0.1724159
137	0x3da72637	0.08161586
138	0x3cb87c8a	0.022520322
139	0x3d198f36	0.037490092
140	0x3e036b11	0.12833811
141	0x3dd638d3	0.10460057
142	0x3d117938	0.035515994
143	0xbe0586b3	-0.13039665
144	0xbdf18661	-0.11793209
145	0xbbd44371	-0.006477766
146	0xbe0a2524	-0.1349073
147	0xbdea4dd4	-0.11440626
148	0x3d96b566	0.07358818
149	0xbdceae81	-0.10091878
150	0xbd187fe6	-0.03723135
151	0xbdf4566b	-0.119305454
152	0x3ddb02ed	0.106939174
153	0x3dbdf552	0.09275307
154	0x3e345c6e	0.17613384
155	0xbe4e4cdd	-0.20146509
156	0x3c8f12a7	0.017464949
157	0xbc727eef	-0.014800771
158	0xbb974483	-0.0046163215
159	0x3d43760c	0.04772
160	0xbe135dc9	-0.14391245
161	0x3dd876b7	0.10569518
162	0x3d852cea	0.06502707
163	0xbd951a37	-0.07280391
164	0xbc9bd6ae	-0.019023266
165	0x3d9fdd71	0.078059085
166	0x3d1618de	0.03664481
167	0x3c8e048f	0.017336158
168	0x3dd927d3	0.10603299
169	0xbd0380b1	-0.03210515
170	0xbe0975f2	-0.13423899
171	0xbe1a3212	-0.15058163
172	0x3de27e12	0.11059202
173	0xbd86b985	-0.06578354
174	0x3ddfc679	0.109265275
175	0x3d3682f9	0.0445585
176	0x3e0b3710	0.13595223
177	0xbe050ad1	-0.12992407
178	0xbde87152	-0.11349739
179	0x3dc91ade	0.09819578
180	0x3c1d0f3d	0.009586153
181	0x3dcb481f	0.099258654
182	0x3e2e611f	0.17029236
183	0xbdf4bcaa	-0.11950047
184	0x3dcb398e	0.09923087
185	0x3d21696c	0.03940718
186	0x3d7997e5	0.060935874
187	0x3debb814	0.115097195
188	0xbbb943b0	-0.005653821
189	0xbe09e4b3	-0.13466148
190	0xbda62597	-0.081126384
191	0x3e09b8d5	0.13449414
192	0xbcaaa17c	-0.020828955
193	0xbd69ea5b	-0.057108264
194	0xbdcc41c1	-0.09973479
195	0x3d1e6ff9	0.038681004
196	0x3e49e387	0.19715701
197	0xbe07a359	-0.13245906
198	0xbe0d4daf	-0.13799165
199	0xbdaf3d99	-0.08556671
200	0x3dd293c7	0.102820925
201	0xbdfaf39e	-0.122534975
202	0xbda658a4	-0.081223756
203	0x3e5ef450	0.21772885
204	0xbe2afe0f	-0.16698478
205	0x3d12241a	0.03567896
206	0xbdad4d6e	-0.08462034
207	0x3e4415be	0.19148919
208	0xbda6f335	-0.08151857
209	0x3e477f3d	0.19482131
210	0xbd305d9c	-0.043058023
211	0x3d17042f	0.036869224
212	0xbdf2f731	-0.11863554
213	0x3d1cfd3a	0.038327433
214	0x3e04bae7	0.12961923
215	0x3bbc60a5	0.0057488256
216	0x3df10917	0.11769312
217	0xbd926cd7	-0.07149666
218	0x3df54d42	0.119776264
219	0x3cbda489	0.023149746
220	0x3e48f469	0.19624485
221	0xbda8bf2f	-0.082395904
222	0xbd5e1446	-0.054218553
223	0xbc8d07c2	-0.017215613
224	0x3cce2163	0.025162404
225	0xbdf0923b	-0.11746641
226	0x3bff2e28	0.0077874847
227	0x3e1a5b1b	0.15073816
228	0x3e08d6c0	0.1336317
229	0x3dcd5057	0.10025089
230	0xbd88a1b2	-0.06671466
231	0xbe1746f4	-0.1477316
232	0x3e2d79c8	0.16940987
233	0x3c8c3a7a	0.017117728
234	0x3c895ea8	0.016768768
235	0x3e4a96fd	0.1978416
236	0xbe05b41b	-0.13056986
237	0xbdb8eb70	-0.09029281
238	0x3e43df5b	0.19128172
239	0x3d2b8b77	0.04188105
240	0xbe14be58	-0.14525735
241	0xbdd1446d	-0.10218129
242	0xbd1cd456	-0.038288437
243	0xbd9c992c	-0.07646403
244	0x3e00bba0	0.12571573
245	0x3e447c35	0.19188006
246	0x3dd78c03	0.10524752
247	0xbdf14086	-0.11779885
248	0xbcc2fc03	-0.02380181
249	0x3da8ec68	0.08248216
250	0xbe192d0b	-0.14958589
251	0x3cc02142	0.023453359
252	0x3df4d1d6	0.119540855
253	0x3e1c1a62	0.15244439
254	0xbcf50497	-0.029909415
255	0x3d97b379	0.074072786

Critic.fc2.bias f4 [32]
0	0x3b9a4afa	0.004708645
1	0x3e66ad54	0.22527057
2	0x3cd9a828	0.026569441
3	0xbe1af437	-0.15132223
4	0x3cf80dbc	0.030279987
5	0xbdeced12	-0.11568655
6	0x3e0bc3c0	0.13648891
7	0x3d902ca7	0.07039767
8	0xbdc79587	-0.09745317
9	0x3dee39e6	0.11632137
10	0x3e1365ee	0.14394352
11	0x3e184652	0.14870575
12	0x3df3260b	0.118724905
13	0x3d1ba3b6	0.037997924
14	0x3dbacd8f	0.091212384
15	0x3db402af	0.08789574
16	0x3de6d714	0.11271492
17	0x3e4f3012	0.20233181
18	0x3de31ccb	0.11089476
19	0xbe0453c4	-0.12922579
20	0x3e427851	0.1899121
21	0x3da9c272	0.082890406
22	0xbd9e03fb	-0.07715603
23	0xbd35d2f7	-0.044390645
24	0x3d322825	0.043495316
25	0xbdeb885b	-0.11500617
26	0xbd62656a	-0.055272497
27	0x3e5c2d7c	0.21501726
28	0x3c6cdebc	0.014457401
29	0xbdfe9cbf	-0.12432241
30	0x3d78b072	0.060715146
31	0xbcbd65b6	-0.023119789

Critic.fc3.weight f4 [1, 32]
0	0x3d39c227	0.045351174
1	0x3d399a2d	0.04531305
2	0x3d331bdb	0.043727737
3	0xbc044c68	-0.008074857
4	0x3d559654	0.052145317
5	0xbc86c147	-0.016449584
6	0x3d163ee1	0.03668106
7	0x3d4eaa33	0.050455283
8	0x3b92957f	0.0044733877
9	0x3d51819e	0.051149003
10	0x3d2a8062	0.04162634
11	0x3d153a34	0.03643246
12	0x3c46652a	0.01210908
13	0x3d46f3fc	0.048572525
14	0x3cb15918	0.021648929
15	0x3c7d5c46	0.015463894
16	0x3c956c93	0.018240249
17	0x3c0681ba	0.00820964
18	0x3c31d8ed	0.010854942
19	0x3c4d56e3	0.012532922
20	0x3d2d0001	0.04223633
21	0x3cc25e72	0.023726676
22	0x3d137da1	0.03600848
23	0x3d388f06	0.045058273
24	0x3cf89df7	0.030348761
25	0x3c76f076	0.015071979
26	0x3d264631	0.040594283
27	0x3cc8b626	0.024500918
28	0x3cfa5594	0.030558385
29	0xb9fc67d9	-0.00048142558
30	0xbb754ea0	-0.0037430897
31	0x3c9f1762	0.01942033
