model.pt (torch, 114312 bytes, 13 tensors)

Actor.fc1.weight f4 [32, 378]
00000000: 36e1 a03c 8381 4d3d 9198 d63c 364d b53a
00000010: 7620 cbbc 19d7 ae3b 4744 7fbc 6ca5 cfbc
00000020: 1aad e03c 4bb3 4f3c c1bb 153d 9384 0f3c
00000030: eecf 163d 31be 0d3c dd4b 2fbd db6b 7d3d
00000040: 23fd 123d b727 c43c 85ad d1ba aab1 d5bc
00000050: 5826 afbc 78e2 3abd 107d 03bc 39b1 81bc
00000060: 3588 f63c 4f3e bf3c de1a 1cbd 0e37 d53c
00000070: b950 0a3d d52e 2bbd dca3 f93c 1bb6 fa3b
00000080: 7f95 213d 16ca 0a3d 1658 5c3d aa3c 97bc
00000090: 1b46 9abc bf4d 43bc ebc6 1c3d 9be0 0fbc
000000a0: 7b4d 50bc ec4e 8fbb e67a 70bc 5132 213d
000000b0: 0f84 1fbd b985 5c3d 84e0 ebbc add2 313c
000000c0: 2be2 df3c 6afb f43c 7015 37bc f2a3 5abc
000000d0: 19a2 d63c fd96 d53c 8407 303d 511f 023d
000000e0: 2316 0f3d 2751 bbbb 6f72 af3c bbf8 173c
000000f0: 86b7 eabc edcd f8bc d842 383d ae18 853c
00000100: e0c9 443d 8384 9b3c 9343 ab3c 80a9 783b
00000110: 70e6 70bd d3a4 c7bc 253c 73bd 55bd 77bd
00000120: 3474 843c 5371 133d 6bdd 96bb 676e 27bd
00000130: 38d7 3dbd 8fdc 10bd a5b3 423c b307 cfbc
00000140: 4611 eabc fd8c 18bd 0cc0 b33c f502 22bc
00000150: 7fb5 30bd c5b2 b6bb 3c93 af3c e7dd 2dbb
00000160: 9eb3 1ebb 94a3 3bbd 0bb7 51bd 700c 49bd
00000170: f3e6 c9bc e5b4 293d 1b3c a6bc 189e b9bc
00000180: 7887 2b3b c379 0bbd e279 b13b f180 a3bc
00000190: 5a80 1638 349d 5c3d 100c d83c e8d3 07bb
000001a0: 6ff9 87bc 6e97 103d 948b 7eba 7842 ab3a
000001b0: 969a 20bc e780 953c a0ff 3ebd fcce 96bb
000001c0: be96 52bc db6e 993c ffa0 363d 7ff1 22bd
000001d0: e50f 193d 70a0 7bbd 0056 5a3b c080 093d
000001e0: db08 613c dabd dabb a64a 10bd 176d 6bbc
000001f0: 3258 6ebd 307a 233c 126e 2fbd c155 83bb
00000200: eb26 22bd 036a 85bc 9da5 07bd 1d2f 0ebd
00000210: 4301 273c 6d86 7ebd 9037 0b3d 1c2a 803d
00000220: 02a2 dcba c911 d3bb 6d55 ad3a c92d eabb
00000230: be4e 293d eaf9 edbc e6f1 e23c de5b 66bc
00000240: 2197 02bd 11c3 58bc 8c5c ba3c d6bd 48bb
00000250: 9e42 403c 30fe 14bd fded 50bd 1db6 0a3d
00000260: 3263 e33c e535 793c 6738 79bc a01f 0b3d
00000270: 4f60 35bd 3273 a2bd 044a 04bd 4453 85bd
00000280: 2777 82bd 1c30 4b3d 462c d93c ad92 76bd
00000290: b125 623d 9ae1 47bd b6bd e2bc 6b66 fcbc
000002a0: 1773 a3bc db74 5abd 1815 0fbd b6a4 f53c
000002b0: 5967 5a3b fcf8 4d3d 2fab 54bd 105f d3bc
000002c0: 7f5d c7bc 6ad3 813a fc04 4cbd fcdc 0d3d
000002d0: 9ba4 dcbc 16f7 df3c 99a1 223d 827c 393d
000002e0: 2adc 87bd 5661 04bd 3b8c 3fbc 01b4 b5bc
000002f0: 99ca e5bc 704f 4ebd 0b2f ba3c ac8c 793b
00000300: a9d6 0b3d fc5f 19bc 07a2 ce3b afef 5dbc
00000310: 7319 bd3b add5 20bd 03cd 763d 9495 0e3d
00000320: 781a 833c 64cb afbb 5490 98bc 4bab 4f3d
00000330: f30d aa3c 1cdc 93bd 1e83 1e3d 1087 53bd
00000340: ebac 71bc 306d 573c 2c00 a3bc e197 99bc
00000350: 1f9f d63c 1a55 96bc e5c6 cf3c a097 4fbc
00000360: 271e 433d 7f15 a6ba 432c f03c 1ed6 233d
00000370: 72c3 333d 9580 e73b 4abe 883d 9ecd 51bd
00000380: 10f9 14bd 6bfe 103d 9537 cdbc fd2c 113c
00000390: be24 8dbc 716a f0bb 3480 2ebc f5d4 fabc
000003a0: e4f2 863c d79f 07bd f78e 433d 3226 3fbc
000003b0: 3c66 09bd 694c 97bc 7968 5abb bf20 45bd
000003c0: b6c5 e83c da9c 203d 3263 e23b bcdd 82bd
000003d0: 2d10 0cbd 409c 92bc b21a f13b a042 373d
000003e0: c122 513d faad f73b 5d2e c43c b79d 913c
000003f0: 4fbc 603d 4530 473d 8113 f1bc 2575 353c
0.019638639 0.05017234 0.026195796 0.0013832215 -0.024795752 0.0053357 -0.015580243 -0.025347434
0.027426291 0.012677024 0.03655601 0.0087596355 0.03681939 0.008651302 -0.04279696 0.061870437
0.03588594 0.023944719 -0.0015997147 -0.026085693 -0.021380588 -0.045626134 -0.008025423 -0.015831577
0.030094245 0.02334514 -0.03811156 0.026027229 0.03376839 -0.04179271 0.030473642 0.007651103
0.03944921 0.03388413 0.053794943 -0.018461544 -0.018832257 -0.011920392 0.03827564 -0.008781577
-0.012713785 -0.004373422 -0.014677739 0.039354626 -0.0389443 0.053838465 -0.02879358 0.010853452
0.027329525 0.02990504 -0.011174545 -0.013344752 0.026200341 0.026072973 0.042975917 0.031768147
0.03493322 -0.005716461 0.02141687 0.009275611 -0.028651964 -0.03037163 0.044985622 0.01624712
0.048044086 0.018984085 0.020906245 0.0037942827 -0.058813512 -0.024370586 -0.05938353 -0.060483295
0.016168691 0.035996746 -0.004604032 -0.040876772 -0.046347827 -0.03536659 0.011883651 -0.025272226
-0.02857269 -0.037243832 0.021942161 -0.0098884 -0.04314184 -0.00557551 0.021432512 -0.002652997
-0.0024215947 -0.045810297 -0.051199954 -0.049084127 -0.024646258 0.04143228 -0.020292332 -0.022658393
0.0026173275 -0.034051668 0.005416141 -0.019958945 3.5882324e-05 0.053860858 0.02637294 -0.0020725671
-0.016598431 0.035300665 -0.000971013 0.0013066074 -0.009802481 0.018249942 -0.0466305 -0.004602311
-0.012853323 0.018729618 0.04458713 -0.03978109 0.037368674 -0.061432302 0.003331542 0.03357005
0.013735021 -0.006675464 -0.03522744 -0.014369271 -0.05818958 0.009977862 -0.04282958 -0.0040080254
-0.039587896 -0.016285902 -0.033116926 -0.0347129 0.010193172 -0.062139917 0.033988535 0.06258032
-0.001683295 -0.006441329 0.0013224311 -0.0071465713 0.04133486 -0.029049832 0.027703237 -0.014059989
-0.03188241 -0.013230101 0.022749208 -0.003063073 0.011734633 -0.036375225 -0.051008213 0.033865083
0.027757261 0.015210603 -0.015211201 0.033965707 -0.0442813 -0.07932128 -0.03229715 -0.06510022
-0.06370383 0.049606428 0.026510369 -0.060198475 0.055211727 -0.048799135 -0.027678352 -0.030810555
-0.01995234 -0.0533341 -0.034932226 0.029985767 0.003332576 0.050286278 -0.051921066 -0.025802165
-0.024336575 0.0009904925 -0.04980944 0.034634575 -0.026933959 0.0273395 0.039704893 0.045284756
-0.0663379 -0.03231939 -0.011691148 -0.02218056 -0.028050708 -0.050368726 0.02272751 0.0038078232
0.034140263 -0.009361263 0.0063059363 -0.013545915 0.005770856 -0.039266277 0.06025411 0.034810618
0.016003832 -0.005364822 -0.018623509 0.050700467 0.020758605 -0.07219717 0.03869926 -0.051642478
-0.0147506995 0.013148591 -0.019897543 -0.01874918 0.026198922 -0.018351126 0.025363395 -0.012670428
0.047636177 -0.0012671201 0.02931798 0.03999912 0.043887563 0.0070648887 0.0667692 -0.051221482
-0.036370337 0.035398882 -0.025050918 0.008860824 -0.017229434 -0.0073369076 -0.010650683 -0.030619124
0.016473241 -0.03311142 0.047743764 -0.011666821 -0.033544764 -0.018469052 -0.003332643 -0.048126932
0.028414588 0.039212085 0.0069087977 -0.06389949 -0.034195114 -0.017896771 0.0073579187 0.044741273
0.051058535 0.0075585814 0.023947889 0.0177754 0.054867085 0.048630018 -0.029428245 0.011075293

Actor.fc1.bias f4 [32]
00000000: 30c0 f93c 8db9 6e3c f0aa 18bb faf2 6f3d
00000010: 71b4 9cbd 068d 423c 2f82 1bbb 245c c53c
00000020: 1ee8 033d 6980 dc3c 770c 4e3d 9853 36bd
00000030: 7789 b9bc a669 903d 2e56 ef3c 6d12 19bd
00000040: 0fa6 a83a 7326 81bd 3471 8d3b 4b2f 0a3d
00000050: 0f06 36bc bfe7 3abd ae51 91bd ef65 433d
00000060: 5637 663a 66fa 07bd 4654 b13d af64 52bd
00000070: c6ed 34bd 1714 3d3b 16c7 b6bb 9d99 a43c
0.03048715 0.014570606 -0.0023295246 0.05858133 -0.07651604 0.011874443 -0.0023728719 0.024091788
0.032203786 0.0269167 0.050304856 -0.044513315 -0.022648556 0.07051401 0.029215898 -0.037371088
0.0012866872 -0.06306162 0.0043164734 0.03373651 -0.011109843 -0.045631167 -0.07095657 0.047704633
0.00087820494 -0.033197783 0.08658652 -0.05136555 -0.04417207 0.0028851086 -0.005577932 0.02009278

Actor.fc2.weight f4 [32, 32]
00000000: 4f05 4e3d 77f9 223e eed9 05be f9b0 babd
00000010: d4d5 f03d 76d5 333d 8266 b53d 70e5 dd3d
00000020: 6152 fc3d 1ce1 093b 1dd2 42be f7f5 933d
00000030: f535 ef3d 7e16 a4bd 62b2 193e 9c7b 273c
00000040: 7a06 c2bc 42be d13d 8903 3ebd 1619 c4bc
00000050: 0ef3 e5ba b16e 22be fa9d 4cbe 06a4 e4bd
00000060: 2c97 b5bd caec 23be d78b 2c3d afb5 15bc
00000070: a434 f8bd da3d 93bc 597a bbbd af56 27be
00000080: 5074 ac3d 4ad2 543b ae47 88bd 4486 e1bc
00000090: 0096 0d3e a0a5 0a3d 3fb1 72bc 7eb5 95bd
000000a0: d1fc d33c ab86 09bd ad6e 2cbe 4f1d 18be
000000b0: 0d3c d1bd fcfe 4abd 3feb 33be 88bd cdbd
000000c0: e3a0 b0bd 7ccf 53bc ecfc aabd 5f78 9bbd
000000d0: d880 bb3d cd07 51bd 3a0b 213e 0c7a 34bd
000000e0: 0056 c03d fc2e b1bd ae8a db3d 5c45 db3d
000000f0: ef10 30bd dc04 0d3e 3866 eebd 8e50 59bd
00000100: 8456 323e 6480 6f3d 29c4 853d 2ccb f83d
00000110: c5c9 06be bf5c 12be 8604 e13d a33d f83d
00000120: 1171 79bd 137d 233e 7d1e 593d 5add 0b3d
00000130: 4acd 923d 0316 453e eae1 e53c ce23 d7bd
00000140: 894c dd3d 82fb 703d 2a41 fbbd 6622 99bd
00000150: 67a9 06be fc79 d33d 7b8a 9b3d 275d 34be
00000160: 94b9 f4bd 11d2 0bbb c7bc 0d3d 27bd 153d
00000170: 0a52 98bd 7d1c 23be d17f 00be 138a e3bd
00000180: 4d63 9ebd 7893 c6bc 659a a73d 9165 273b
00000190: 14e5 713d 7a74 1d3e 2c82 933d 0239 02be
000001a0: 3ff4 5e3d 6031 243e 7094 ec3c 4d95 3dbd
000001b0: d738 3cbe af4d a8bc 8a07 393d b2a2 ec3d
000001c0: 337a 37bd c3cd 353d 4278 5d3c 56ee 18bc
000001d0: c629 39be 3ae5 ba3d 2929 c7bd 68b9 a9bd
000001e0: af3b 19be 8298 f0bd c35e fa3d 1a45 a6bd
000001f0: 9727 35be 12d9 2dbe 1a82 1cbe 0533 1cbe
00000200: e348 2bbe 3c2c fe3d 65b9 22be 745f 6bbd
00000210: 6e02 f3bd 2c78 19be 22f6 0dbe 66b7 25bd
00000220: a7fb 9e3d cff8 a33c f5d9 13be c2b4 dabd
00000230: f9ec 313e 8e97 1ebd 1c35 e63c c03e c33d
00000240: fe6e 183e 0944 133e af64 23be 4012 86bc
00000250: 6e1f be3c 7850 8abd 0a18 113e 0943 693d
00000260: 7e7c dfbd a2a0 36be 5260 8cbd db83 1cbe
00000270: 283d 7abc 167e d9bd ea80 0a3e 4f61 47bd
00000280: fe0a e5bc 732a 15be a9c1 30bd b8fe e7bd
00000290: 8630 1d3e d7e1 df3d 1aeb 87bd a97c 513b
000002a0: 6a98 aabd f506 0f3d fdc4 d9bd f43a c83d
000002b0: 1c04 70bb 0e63 62be 8a4f 56bc 449e 2abe
000002c0: 8657 c13c 410b c93d 78d7 4cbe 56e9 9ebd
000002d0: a3c6 ffbc 0a34 0c3e 3ba6 79bd ab53 eabd
000002e0: 566b e7bd 369f 263e 44c3 3fbd 16fd 2d3e
000002f0: 0f85 bc3d 68bc e73d 037b 31be 59b4 2bbd
00000300: 590f 59bc 18c2 90bd ce49 51bd 59f2 b5bd
00000310: a129 66bc 1796 92bd 2e59 98bd 2211 18be
00000320: 11fe 85bc 5ec2 0e3e 4418 833c e872 06be
00000330: edbf b83c 6b15 a23d 8ba6 dabd 27cc 713d
00000340: 6820 123e 367c 903d 5ae7 99bd 34b3 263e
00000350: 7c92 013e 219d 09be 8d45 b13d 8896 26be
00000360: e8df 003e 8bd7 b03d b403 90bd 0583 b5bc
00000370: 4af5 f83d a129 093e 657c cc3c 4693 6e3d
00000380: 2afa 243e 9368 163d 3b90 e93d 9f35 0ebe
00000390: 6856 773d f952 db3d 5828 e83c 5276 783d
000003a0: d5eb 11be 72f3 da3d 8c71 0fbe 0621 42be
000003b0: d07b 39be af25 1a3e cebd 32be 0f73 8fbd
000003c0: ec76 e5bd 108e 62bd 195d 083e 1016 20be
000003d0: a764 debc 8f84 16bd 1792 e83d 4f1e 84bc
000003e0: 178c 48bc ea8c e2bd 017b e3bd 5650 76bb
000003f0: 878b 1abe 1da8 c53c 423f fe3c f090 73bd
0.05029803 0.15915476 -0.13071415 -0.09115786 0.117595345 0.043904744 0.088574424 0.10834777
0.123204 0.0021038717 -0.19025464 0.072246484 0.11680213 -0.080121025 0.15009454 0.010222342
-0.023684729 0.10241367 -0.04639009 -0.023937743 -0.001754375 -0.15862538 -0.19982138 -0.111640975
-0.08866724 -0.16008297 0.04212555 -0.009137555 -0.121194154 -0.017973829 -0.09154195 -0.16341661
0.08420622 0.0032473975 -0.06654297 -0.027529843 0.13826752 0.03384936 -0.014812767 -0.073100075
0.025877388 -0.033575695 -0.16839094 -0.1485493 -0.10216532 -0.04955958 -0.17570208 -0.10045916
-0.08624437 -0.012927886 -0.08349022 -0.07591318 0.09155434 -0.05103283 0.15726939 -0.044061705
0.09391403 -0.0865154 0.107198104 0.107065886 -0.0429849 0.13771385 -0.116405904 -0.05305534
0.17415816 0.058472052 0.06531555 0.12148127 -0.13162906 -0.14293192 0.10987191 0.12121131
-0.060898844 0.15965681 0.05300759 0.034146644 0.07168062 0.19246678 0.028061826 -0.10504876
0.108056135 0.058833607 -0.122682884 -0.07477264 -0.1315056 0.10326001 0.075947724 -0.1761366
-0.11949459 -0.0021334926 0.03460386 0.036557343 -0.07437523 -0.15928836 -0.12548758 -0.1111032
-0.07733784 -0.02424024 0.08183745 0.0025542716 0.059056357 0.15376464 0.07202563 -0.12717059
0.05443215 0.1603446 0.028879374 -0.046284962 -0.18381058 -0.020544855 0.045173205 0.11554469
-0.044794273 0.044385683 0.013517441 -0.009334167 -0.18082342 0.09125753 -0.097246476 -0.082873166
-0.14964174 -0.117478386 0.122251056 -0.08118649 -0.17690884 -0.16977337 -0.15284005 -0.15253837
-0.16727023 0.12410781 -0.15891035 -0.057464078 -0.11865698 -0.14987248 -0.13863423 -0.040458106
0.077628426 0.020016102 -0.14438613 -0.10679008 0.17375554 -0.038718753 0.028101496 0.09533453
0.1488609 0.14381422 -0.15956376 -0.016366124 0.023208346 -0.067536294 0.14169326 0.056948695
-0.10912417 -0.17834714 -0.06854309 -0.15284674 -0.01527337 -0.10619752 0.1352574 -0.048676785
-0.027959343 -0.14566974 -0.04315344 -0.113278806 0.15350541 0.109317474 -0.06636639 0.0031965172
-0.08329852 0.034918744 -0.10633276 0.097768694 -0.0036623543 -0.22108099 -0.013080487 -0.16661936
0.023601305 0.098166 -0.2000407 -0.07759349 -0.031222647 0.13691726 -0.060949545 -0.1144174
-0.112997696 0.16271672 -0.04681708 0.16991076 0.092050664 0.113152325 -0.17332081 -0.04192004
-0.013248288 -0.070682704 -0.051095776 -0.08884115 -0.014048011 -0.071575336 -0.07438885 -0.14850286
-0.0163565 0.13941333 0.016002782 -0.13129771 0.022552455 0.079142414 -0.10676297 0.059032585
0.14270175 0.07054941 -0.0751483 0.16279298 0.12653536 -0.13438846 0.08655844 -0.1626836
0.12585413 0.086348616 -0.07031956 -0.022157202 0.1215616 0.13394786 0.02496166 0.05824592
0.16111055 0.036720823 0.11404463 -0.13887642 0.060385138 0.10709185 0.02833955 0.060659714
-0.14250119 0.10690965 -0.14008158 -0.1895791 -0.18113637 0.15053438 -0.17455217 -0.070043676
-0.11204323 -0.055311263 0.13316764 -0.15633416 -0.027147604 -0.03674751 0.113559894 -0.016127734
-0.012240431 -0.110620335 -0.111074455 -0.0037584505 -0.15092288 0.024128014 0.031036023 -0.059464395

Actor.fc2.bias f4 [32]
00000000: 2673 9bbd ca8e 963c 7579 02be b852 c7bd
00000010: 5598 b03c d757 383c f319 1fbe e582 17be
00000020: f1a0 e5bd 0d8d 053e 8245 da3d baaa 473d
00000030: 10ec d1bd 72e0 babd 4601 91bd be03 c4bd
00000040: 4f10 c03b 28d6 f83d 0197 0a3e ce62 f9bd
00000050: acaa 73bd 97f7 433e 580a c93d 5765 963c
00000060: 6928 ae3b 8604 af3d 8c1c 01be da11 cdbd
00000070: 42e8 0dbe 85f1 dc3d 23cc 07be b260 06be
-0.07590322 0.018378634 -0.12741645 -0.09732574 0.021557013 0.011251411 -0.15537243 -0.14796026
-0.11212338 0.13042088 0.10657789 0.048746802 -0.102501035 -0.09124841 -0.07080321 -0.09571026
0.005861319 0.12150222 0.13534166 -0.121770486 -0.059488937 0.19137417 0.09816426 0.01835887
0.005314876 0.08545785 -0.12608546 -0.100131705 -0.1385813 0.10788254 -0.13261466 -0.13122824

Actor.mean_fc3.weight f4 [17, 32]
00000000: 4edc c6bd d3c9 ba3d d5a0 ecbd 69c3 42bd
00000010: 2c9f e63c 1aa6 20be 457d c4bd c93b 0d3e
00000020: f801 11be 6cec 0e3e 76da 193e 8f8c f43c
00000030: b04b 20be 69c0 ac3d 28e1 49bd 5166 7bbd
00000040: 91dc 883d 23e8 993c 55a5 24be 38b0 0dbe
00000050: eacd 52bd 0e92 34be 6b6d 95bd 4a91 16be
00000060: 55ee 4e3d 4be4 8abd 5b71 973d 131c 713c
00000070: 0f29 a4bd 4368 613c 9405 22bc 9054 f53d
00000080: 753f 1e3e ef83 8cbd 5a4e 253c e390 8cbc
00000090: bef6 d43d f588 783d 9443 db3d 7108 10be
000000a0: 6a1d f73d 381d 99bc ce93 74bd b5b2 dd3d
000000b0: 5c98 02bd 8393 0f3e 190b 0d3e 6998 28be
000000c0: eb9f 3ebd 4508 74bd 0b4e 00be 38c7 b4bd
000000d0: 3417 1dbe 1347 e23d 90a4 d83d e1f2 16be
000000e0: a167 df3c 1f7d f439 a898 95bd 5a73 003e
000000f0: 152d aebd abc3 3c3d d167 e4bd faa4 773d
00000100: e6e9 41bd c4b3 3dbd b541 c23c 0437 a53d
00000110: 7e0e bd3d afe2 8cbd f2bf 25bd 4805 0a3e
00000120: d5c1 2c3e a696 033e 7912 7dbd c857 83bd
00000130: 6d0e 1a3e 827e d13d af96 07be 647b 043a
00000140: 3ad9 a7bc bd13 813d 858f a6bd 7e3a 333e
00000150: 2da3 b6bd a296 1d3c 92e3 b1bd eda3 273e
00000160: 0e5c 653c 8264 3ebe 74e3 d43d 989e f93d
00000170: b1a9 143e 56bb 0e3e e195 cc3d 3e76 963d
00000180: 24f4 8abc c132 eebc bdb6 c0bb c7b8 c7ba
00000190: e793 1fbe 5c85 ce3d 0781 383e 7e04 223e
000001a0: 0c94 89bb 6166 c73d 1d64 a53c 78d3 c3bd
000001b0: 4c17 2ebd 28a8 11be 950b e63c 4a9a 26be
000001c0: 4b92 ac3c 43bd 1cbe a20a 7f3c ad78 2dbe
000001d0: 20d8 123d 4059 5e3d 8e90 033e 9fda 00be
000001e0: 164f e83d 75ba 11be 552e e1bc c478 97b9
000001f0: 2905 693d b87c 95bd e232 c1bd bee8 eb3d
00000200: 9e98 be3b 794a d5bd 5306 0b3e 1ea9 cfbc
00000210: ab5b 03bc d983 95bd 4e49 2fbe f39f ec3d
00000220: 8b97 913d 82e2 333d 4e2e 363d 258e 25bd
00000230: 3451 fa3d a59b eabc c6c3 9a3d 85b9 cabd
00000240: 81ad 79bd 0fb3 fb3d 46e5 fd3d bfef eebc
00000250: 250a e5bc 4c88 30bd d884 a7bc 230e a9bd
00000260: 51cf 963d 877b a4bd a60c 4bbd 24d6 463d
00000270: 5527 5abb 60f7 d0bc 18bc 693d 27e2 01bd
00000280: e8ef c9bd 8777 9a3d 6916 243e cec6 1bbe
00000290: 9880 183d 98ef b1bd b787 313e 8a30 f2bd
000002a0: e24b 9c3d 86a5 793d ff57 073e f459 a3bd
000002b0: 7fda df3d 2119 b7bd 8718 0e3e 61b2 a63d
000002c0: 9b21 c93d 08e5 dc3d 6991 a5bd cec9 c03c
000002d0: c664 bc3d 8002 063e a878 0e3e a2e4 34be
000002e0: 40ad 403d 9fc8 23bd 104c 0a3e f26c 9bbd
000002f0: 6710 39be d2bb 113e f6f6 503d 8aaa 083e
00000300: 593f 0c3e eabb f3bd e6a1 2e3e 6261 363d
00000310: 48f8 37bd 8cbb 2ebe 4439 f5bd ea05 ff3c
00000320: 5422 15be 6754 37bd 4df6 953d 367d 21be
00000330: 1b22 02bc 4cbd eb3d 50df 70bc a31f 25be
00000340: cf9e e73d 2522 c0bd 991e 00be 2ae3 13bd
00000350: 1e75 18bd 56e3 0dbe d36d de3d 7614 01bd
00000360: c213 c53d 290a 913d 17b3 00be f427 d3bd
00000370: 109a d8bc b6e4 833d dbd0 033e 417b 03bc
00000380: a12d af3d fe19 88bd 0e5e 183e 9b69 e03d
00000390: 268a fbbd 6a34 693c 3d24 773d f4ea 53bd
000003a0: 0478 063e 11e9 603d 81a9 10be 7052 c3bd
000003b0: ef4d 0c3e f48f 83bd b5c0 283e e151 273d
000003c0: 8c0b 2c3e cbef b0bd 0533 e9bd fb02 27be
000003d0: 0953 083e 84d3 89bd 665e 203e c031 04be
000003e0: 3945 293e e186 27be 224f 8dbd 6415 c83d
000003f0: 48d2 d4bd a998 14bc b2ec ff3d 6521 193e
-0.097099885 0.09120526 -0.11554114 -0.04754964 0.028152071 -0.15688363 -0.09594206 0.13792337
-0.14160907 0.13957375 0.15024742 0.02985218 -0.15653872 0.08435137 -0.04928699 -0.061376873
0.06682695 0.01878745 -0.16078694 -0.13836753 -0.051465906 -0.1763384 -0.072962604 -0.14703861
0.05052026 -0.06781825 0.07394668 0.014716166 -0.08015644 0.013757768 -0.009889025 0.1197902
0.15453894 -0.06861102 0.010089481 -0.017158931 0.10398625 0.060677487 0.10706249 -0.1406572
0.12066157 -0.01869069 -0.05971127 0.10825101 -0.031883582 0.14021115 0.13773765 -0.1646439
-0.04653923 -0.0595782 -0.12529771 -0.088270605 -0.15340883 0.110487126 0.10578263 -0.14741088
0.027271094 0.0004663253 -0.073045075 0.12544003 -0.085046925 0.04608504 -0.11152614 0.06046007
-0.047342204 -0.046314016 0.023712972 0.08067134 0.0923128 -0.06879174 -0.040466256 0.13478577
0.16870816 0.12850437 -0.061785195 -0.06413227 0.15044565 0.102292076 -0.13241075 0.0005053787
-0.020489324 0.06302593 -0.08132843 0.17502782 -0.08917842 0.009618433 -0.08685984 0.16371126
0.013998998 -0.18593028 0.10394946 0.121884525 0.14517857 0.1393865 0.09989525 0.07346772
-0.016962118 -0.029076936 -0.005881159 -0.0015237563 -0.15583764 0.1008403 0.1801797 0.15822026
-0.0041985568 0.09736324 0.02018934 -0.09561819 -0.042502686 -0.14224303 0.028081695 -0.16269794
0.021065852 -0.15306573 0.0155665 -0.16940565 0.035850644 0.054284334 0.12848112 -0.12583397
0.113432094 -0.14231284 -0.027487913 -0.00028890942 0.056889687 -0.07299179 -0.09433533 0.115190014
0.005816533 -0.10414595 0.13576631 -0.025349196 -0.008017461 -0.073005386 -0.17117807 0.115539454
0.07108983 0.043917187 0.044477753 -0.040418763 0.122225195 -0.02863867 0.07556872 -0.09898666
-0.06095648 0.12290012 0.12397246 -0.029167054 -0.027958939 -0.043098733 -0.020449087 -0.082546495
0.07363761 -0.080313735 -0.04957261 0.048544064 -0.0033287604 -0.025508583 0.057064146 -0.031709816
-0.098602116 0.07542329 0.16024174 -0.15212557 0.03723201 -0.08688277 0.17336927 -0.11825664
0.07631661 0.06094887 0.13217162 -0.079761416 0.10930347 -0.0894034 0.13876544 0.08139492
0.09820863 0.10785872 -0.080843754 0.023533728 0.091989085 0.13086891 0.13913214 -0.17665341
0.047040224 -0.03998625 0.13505578 -0.07589139 -0.18072663 0.14231804 0.05101677 0.13346305
0.1369604 -0.11901076 0.17053947 0.044526465 -0.044914514 -0.17063731 -0.11973813 0.03113075
-0.14563876 -0.044758227 0.07322369 -0.1577042 -0.007942702 0.11510715 -0.014701679 -0.1612535
0.11309587 -0.093815126 -0.12511672 -0.036105312 -0.037221067 -0.13856253 0.10860791 -0.031513654
0.09622909 0.07082016 -0.12568317 -0.10310355 -0.02644065 0.064401075 0.12872641 -0.0080249915
0.08553625 -0.066455826 0.14879629 0.10957643 -0.12282209 0.014233688 0.060337294 -0.05173774
0.1313172 0.05490977 -0.1412716 -0.09537208 0.13701604 -0.06423941 0.16479762 0.04084957
0.1680128 -0.08639487 -0.11386684 -0.1630973 0.13312925 -0.067297965 0.1566101 -0.12909603
0.16530313 -0.16360046 -0.06899859 0.09769705 -0.103916705 -0.0090696 0.12496318 0.14954145

Actor.mean_fc3.bias f4 [17]
00000000: d765 4fbc ed83 77bc ab51 ebbd f5ec b2bd
00000010: 4700 ddbd beea 813d 45f6 d0bd 6dde 22be
00000020: 0fea 113e 2176 2d3d cfd2 353d fc50 21be
00000030: 22ac 01be 3e43 9fbd 6651 93bd 2f58 c6bd
00000040: dbce 1b3e
-0.012658558 -0.015107137 -0.11490186 -0.08736602 -0.107910685 0.06343602 -0.10203222 -0.15905161
0.14249443 0.042348985 0.044390496 -0.1575355 -0.1266332 -0.07776497 -0.0719326 -0.096847884
0.15215628

Actor.log_std_fc3.weight f4 [17, 32]
00000000: 8847 30bc a12c debd 3a1c 553d 0bdf 3bbe
00000010: 26cc 0d3c 01f1 893d 65ce 25be 81d6 a6bd
00000020: 9369 ec3d 64a1 cebd 3e72 e9bd e311 003e
00000030: 12f4 1dbe b99e 52bc 7ded f2bd c739 f43d
00000040: cced 423d 25bb 90bd f734 2b3e 0687 903d
00000050: 3ef1 c8bd a38d ca3d d62b 9b3c 35e1 cabc
00000060: 360e 9bbd 1628 4bbd 92f0 123e c3d5 f3bb
00000070: 5ad6 76bd 352b b4bd 9f4c 82bd d903 1e3e
00000080: 4e4d babb 77aa 6e3b fd93 1c3e 7065 073e
00000090: f02f fa3c c59c fa3d f501 cb3d d8df c03d
000000a0: 1f12 813d 52cb 0abe 30e7 fe3d 0298 32bc
000000b0: 1579 01be 8ca0 bcbd ca84 63bd 7fe4 2ebe
000000c0: 7c60 dabc 4ca4 5cbd fe9c 1dbc 1be6 893d
000000d0: 18c4 f73d c41c 18be 088e 0f3e b10d 1ebd
000000e0: a3eb e5bd 451b 05be 38a9 eabd 6c0c b8bd
000000f0: 002d afbd a161 f8bd 477e 09be bfc7 5c3d
00000100: 71f4 e7bd 0970 423e faed bc3d acd1 843d
00000110: c344 103e de18 b83d a829 90bd a834 373d
00000120: 2d5d 03bd b085 913d 7089 c93d 2488 383c
00000130: e3b5 9bbd f074 ce3c ff69 fa3d 5546 08be
00000140: edab 183e 1124 f2bd 364f 0cbe 0b9a 5ebd
00000150: 9d4d 163d 450b a5bc 27f1 1f3e a5fe 633d
00000160: 2a72 863d 52a0 a9bd bede 2abe 3874 82bd
00000170: fe64 1cbe c4ec 32be b9c4 583d c067 cf3d
00000180: d3b9 00be c6eb fdbd 6e6e 093c 4687 e53d
00000190: 3404 163d c512 21bd 9191 f73d 4677 4bbb
000001a0: 1e5a 20be 8a5d 393c a69b 7cbd f87a d43d
000001b0: 625b 143e 8da1 7abd 804b 79bd b402 d9bd
000001c0: 1258 abbd 89bb 303c 7bf7 a73c 94f0 28bd
000001d0: 1e7a cc3d 517e dd3d dfd2 003e 9cb2 c23d
000001e0: b418 04be f3ff 7bbc bd48 b5bb 1b32 e1bd
000001f0: c212 273e a726 de3d 7413 fabc 8e71 f23d
00000200: 73f3 d1bd dc4a 1b3e 2d85 16be 4bbe 963c
00000210: fe50 efbd 4a4e 243d 1c6c 3abd a322 4f3c
00000220: 835c ac3c 6c9e 953d beb2 283e 4ad1 17be
00000230: 0262 933d b6f8 15be b70f 1b3d 8248 41bd
00000240: 4b5b 55bd 72ce aebc 107d c93d 1b42 00be
00000250: 5c9b 48be f39e 013e 7c18 1c3d f010 96bd
00000260: 14b1 08be 4b4f 253c 3c50 e33b f19d 413d
00000270: 9219 9d3d dc0a 92bc 38ef a53d 1582 85bd
00000280: 1c42 39be c828 a3bd c897 f13c 851d 10bc
00000290: 2e54 c5bd 16ab 29be beb6 cdbd e927 aa3c
000002a0: eb61 a13d aa53 cebd 621b b73d d347 0e3e
000002b0: 3663 c1bd 96ec c83c ee1b 243e 608f 42bd
000002c0: 0902 ecbd 08a4 263e b953 30bd 906c 7dbd
000002d0: 92a0 14be 745d 9fbc f105 25be ccd0 653b
000002e0: 97a9 0f3d 7041 85bd c238 173e a41e 2c3d
000002f0: ba12 f0bc 16c6 a9bd 87c5 63bd 378c 163e
00000300: 835d 9b3d a7b3 c2bd 409f 08be 29f0 193e
00000310: d7bc 91bd 1331 1b3e 46c6 15be 6cfe 8e3c
00000320: 0697 1f3e 7ef8 203e 41af 883b bb3b a3bc
00000330: 6ce6 453c a212 a63d a5a4 e33c 64ec 38be
00000340: 32e1 fa3d 37d9 6bbc 418d 91bd d44d c23d
00000350: 2fbf 2a3c 5601 083c a457 a33d 3209 cf3b
00000360: ed25 9f3d 5b6d 373d 4b38 fbbd f028 c4bd
00000370: 60e0 f4bd 1ce0 f33d 4af2 953d 7cc4 e6bd
00000380: 2714 773d 5d77 283e 0135 debd 6057 90bd
00000390: 8888 d3bc 6bc8 f93d f8c1 183e b43c 12be
000003a0: 09e8 df3c 047b 303e 1311 8a3c a81d 9fbb
000003b0: e0e1 0c3e af98 3fbd 58ba e3bd 66e2 68bb
000003c0: 4ee2 07bd 360e ac3c bd5e be3d cf61 23ba
000003d0: 01da 3e3e dff9 b03d ac47 06be ad81 f93b
000003e0: b795 7ebd 1985 043e a52e ad3d c1a0 2c3e
000003f0: a5f8 52bd 661c 393e e185 9f3c 103d df3d
-0.010759242 -0.10848356 0.052028872 -0.18346803 0.00865463 0.06735421 -0.16192015 -0.08146382
0.11543574 -0.100893766 -0.11398743 0.12506823 -0.15425137 -0.012855225 -0.118617035 0.11925083
0.047590062 -0.07066945 0.16719423 0.07057004 -0.09811638 0.09890296 0.018941801 -0.02476559
-0.0757107 -0.049598776 0.14349583 -0.007441254 -0.060263015 -0.087973036 -0.063622706 0.15431155
-0.005685485 0.0036417523 0.15290828 0.13222289 0.030540437 0.12236933 0.09912483 0.09417695
0.063022844 -0.13554123 0.12446439 -0.010900499 -0.12643845 -0.092103094 -0.05554656 -0.17079352
-0.026657335 -0.053867623 -0.009619949 0.06733342 0.12097949 -0.14854723 0.14019024 -0.038587276
-0.11226585 -0.12998684 -0.11458057 -0.08986744 -0.08553505 -0.12127996 -0.13427077 0.05390143
-0.113259204 0.1898805 0.09225078 0.06485304 0.1408873 0.08989118 -0.07039195 0.04472795
-0.03207128 0.07105577 0.09840667 0.011262927 -0.076030515 0.025202245 0.122272484 -0.1330808
0.14909334 -0.11823285 -0.13702092 -0.054346126 0.03669511 -0.020146975 0.15619336 0.05566277
0.06564744 -0.08282532 -0.16686532 -0.06369823 -0.152729 -0.17473131 0.052921984 0.101272106
-0.12570886 -0.12398486 0.008388145 0.11207442 0.036625102 -0.03932454 0.120883115 -0.0031046434
-0.15659377 0.011313805 -0.061671875 0.10375017 0.14487985 -0.061189223 -0.060863018 -0.10596219
-0.083664075 0.010786899 0.02050375 -0.04124506 0.099842295 0.108151086 0.12580441 0.09506723
-0.12900048 -0.015380847 -0.0055323527 -0.10995885 0.1631575 0.10847216 -0.030526854 0.11838065
-0.102515124 0.15165275 -0.1469924 0.018401286 -0.1168537 0.040113725 -0.045513257 0.012642535
0.021040207 0.07305607 0.16474435 -0.14825931 0.07196428 -0.14645657 0.037856784 -0.04718829
-0.052089017 -0.021338675 0.09838307 -0.12525217 -0.19590515 0.1265829 0.038109288 -0.07327449
-0.133488 0.010089706 0.006937055 0.047269765 0.07670893 -0.017827444 0.08102268 -0.06518952
-0.18091625 -0.07966763 0.02949132 -0.0087961005 -0.096351966 -0.1656917 -0.10044621 0.020770984
0.078800045 -0.100745514 0.0894077 0.13894586 -0.09442751 0.024526875 0.1602628 -0.047500014
-0.11523826 0.1627351 -0.043048594 -0.06187111 -0.14514378 -0.019453742 -0.16115548 0.003506708
0.035073843 -0.06506622 0.14767745 0.04202141 -0.029305805 -0.08289735 -0.0556083 0.14701925
0.07586195 -0.09506922 -0.13341999 0.1503302 -0.071160965 0.15155439 -0.14626417 0.017455302
0.15584955 0.15719792 0.0041712825 -0.019925943 0.012078863 0.08109023 0.02778847 -0.18058926
0.12249984 -0.01439505 -0.0710702 0.09487501 0.010421558 0.0083011 0.079757005 0.006318235
0.07770906 0.044782024 -0.122665964 -0.09578121 -0.11956859 0.1190798 0.073216036 -0.11267945
0.060321953 0.16451783 -0.108499534 -0.070479155 -0.02582194 0.1219643 0.14917743 -0.14280969
0.027332323 0.17234427 0.016853845 -0.00485583 0.1375804 -0.04677647 -0.111195266 -0.0035535335
-0.033174805 0.02100287 0.09295414 -0.0006232531 0.1863785 0.08641409 -0.13113278 0.0076143355
-0.062154498 0.12941398 0.08456162 0.16858198 -0.051506657 0.1807724 0.019473018 0.109003186

Actor.log_std_fc3.bias f4 [17]
00000000: 969b 853c abba 173d 137b 0abe a6a3 123e
00000010: c75f d8bc 1700 a23c 2974 1ebe 2d10 21bc
00000020: 31c0 0abc 5d78 d4bd 4cda 983d d401 ec3d
00000030: 664e 053e d1f4 87bd 44c7 ea3d 8fe1 153e
00000040: fc1e 79bc
0.01630954 0.037043255 -0.13523512 0.1432024 -0.026412858 0.019775433 -0.15473999 -0.009830517
-0.008468674 -0.1037452 0.07463512 0.11523786 0.13018188 -0.06638492 0.11463788 0.14636825
-0.015205141

Critic.fc1.weight f4 [32, 378]
00000000: d148 2abf db4e ccbe b87a 773f a940 7f3f
00000010: 20e9 193f dd26 9f3e 86a7 5d3f 374f 2bbf
00000020: d1a1 34bf 200a 0dbf bec7 5bbf e9e9 34be
00000030: b907 6c3f 0d8e 7abf 0968 b6be b924 49bf
00000040: c972 933d 93ee 5bbf 1ae5 2bbf 5b95 3cbf
00000050: 1cb5 3d3e 03d8 0ebf 4cae 14bf dca4 6a3f
00000060: 608e c63c fa0e 6cbe 8567 7cbf b5d9 8d3e
00000070: 4894 f73e a87e 9fbd 496e b13d 4abd e0be
00000080: b8e5 923e d067 b13d 692d 8bbe fde5 16be
00000090: 6696 4c3e f718 babd bfee bfbe 7791 2fbd
000000a0: 06c1 7a3d 4bdb aebe 8cf2 9fbe 957b 72bd
000000b0: 7d31 86be 4261 933e fb70 37be 6bee 82bc
000000c0: e922 363d d33c 2c3c ca87 fbbc 6703 cd3b
000000d0: dea7 3f3d 3214 243d 998c c9bc e10a c2bb
000000e0: 95c2 b2bc aae2 813f bac8 7d3f c0e8 3b3f
000000f0: 896f e5bd 7b81 1b3f b6d7 e23e ac1f 31bf
00000100: ade4 e8be 098e 7b3f 376f 6d3f e0da 5c3f
00000110: 0a58 5b3f 2207 503f 8f0b 1e3d 8dc0 283f
00000120: 1780 ccbd 1150 3dbf 3d45 ea3d 8934 5f3f
00000130: 6c29 813f 5fff 753f 332f 6d3f a19d 5e3f
00000140: 36e4 253d 7d31 e8bc 1fef 5dbe 0a49 c3be
00000150: a4c8 023f 22aa a8be 7107 7b3f 6e95 7f3f
00000160: 6a72 853f e35d 4b3f 528a f53d 0511 f73e
00000170: 028a 23bf 364d ec3e 2a34 30bf 9d7e 83bf
00000180: e58c 6e3f 7c8b 793f c72c 793f 45ca 543f
00000190: b2a8 adbe d7ad 06bf 742f 21bf 80d3 14bf
000001a0: 06ef 15bf 2e60 7dbf 6f4f 7d3f 896f 4d3f
000001b0: 9b07 4e3f 3f3b 4f3f 7df7 4fbe f800 44bf
000001c0: f44d 8bbd 91b0 64bf 48ec 12bd 8148 65bf
000001d0: 279f 813f d29f 6b3f f02a 653f 836b 6e3f
000001e0: 59dc 4ebf b8e1 5b3f c09f 6d3f 9bc1 533f
000001f0: 1702 5f3f b074 73bf 82a8 813f b12c 683f
00000200: 334e 703f acc9 613f 3b75 41bf a618 3c3f
00000210: 187d 4e3f a7dc 573f 2181 573f 9d7e 72bf
00000220: 6c80 773f 9220 533f f628 443f dd49 1e3f
00000230: e73a a7be 7e01 333e d0ce ae3e a06c 1f3e
00000240: b5aa d53e d6cc 6abf 165b 813f f77f 773f
00000250: a672 713f 0ea3 683f 3c0c 173f 647b 1ebf
00000260: 9728 793f 1a62 1d3f bdc7 69bf 1fb8 7c3f
00000270: f60e 813f 000b 803f 79c3 693f b6f2 523f
00000280: 23bd 313f 2737 f9be 6d83 fa3e 8c9b 473f
00000290: a5ee 5fbf af23 1b3f 9192 6b3f 5b1f 6b3f
000002a0: 7c4e 653f d995 793f 510a ac3e c37a 173f
000002b0: 0613 37bf c9c8 25bf fc1f 403f 832c 6a3f
000002c0: 23c7 813f 0b7e 683f d2ca 593f 23a3 6b3f
000002d0: 1d31 5b3e d4f5 543c 2bb7 01bf 677e 8ebd
000002e0: 7fb1 1b3f 8226 793f 4b43 723f 59b6 6c3c
000002f0: 76fb f9bb 3dd1 01ba 1abe e139 1978 f9bb
00000300: a22b 8ebc c80a 04be d2f1 b83e dbd0 b7bb
00000310: 2a2d 0abf f297 c0be bcdf 65bf 7376 1f3d
00000320: f07c 24be 761a 5cbe bbbc f7be ce6a ebbe
00000330: 0836 7bbf 3394 033f 9785 92be bec1 0ebd
00000340: fef8 06bf ac6c babe ab8b 68bf 8378 0a3f
00000350: 99cd f3be a298 77be 2ebf b6be c73a 98be
00000360: b667 7ebf 3117 053f 7b0e a7be 1e00 8dbe
00000370: 9e2c 75be b6f6 bcbd 27f8 54bf 7179 003f
00000380: 6ec9 cbbe 32a7 56be 93d9 81be 2247 f5bd
00000390: bdcc 4cbf e3ee 7d3e a852 cdbe 27b5 9a3e
000003a0: 979c 03be 1497 c7be 144e 50bf 4ad3 a63e
000003b0: 9d30 89be 8d18 c13e f053 abbc 03f1 9ebe
000003c0: 7df5 18bf 420d b83e b346 62be 014d eb3e
000003d0: 7bbf 183d 76fa 84be b317 14bf c5ef b9be
000003e0: 2ffd f33d 8628 b9be 5610 b93c 964a febe
000003f0: d60d 65bf 1f9c b7be bf78 293e 26ec eebe
-0.6651736 -0.39903912 0.9667163 0.9970804 0.60121346 0.31084338 0.86583745 -0.6691775
-0.7055941 -0.55093575 -0.8585166 -0.17667355 0.92199284 -0.97873 -0.35626248 -0.7857166
0.07199628 -0.8591091 -0.67146456 -0.736654 0.18526119 -0.5579836 -0.58078456 0.91657805
0.024237812 -0.23052588 -0.9859546 0.2770516 0.48355317 -0.0778783 0.08663613 -0.43894416
0.28690886 0.08662379 -0.27183083 -0.14736171 0.19979247 -0.09086793 -0.37486836 -0.042863335
0.061219238 -0.34151682 -0.31239736 -0.05919989 -0.26209632 0.2878514 -0.17914192 -0.015982827
0.044466887 0.0105125485 -0.030704398 0.006256509 0.04679095 0.040058322 -0.024603175 -0.005921707
-0.0218213 1.0147297 0.9913441 0.73402023 -0.11202914 0.60744447 0.443052 -0.6918895
-0.45486966 0.98263603 0.92747825 0.86271477 0.8568121 0.81260884 0.038585242 0.6591881
-0.09985369 -0.73950297 0.114389874 0.8718954 1.0090766 0.9609279 0.92650145 0.8695927
0.040500842 -0.02834391 -0.21673249 -0.38141662 0.51087403 -0.329423 0.9805823 0.99837387
1.0425541 0.79440135 0.11989273 0.48255172 -0.6388246 0.46152657 -0.68829596 -1.0273014
0.9318374 0.9747846 0.9733395 0.8312114 -0.33917767 -0.5260901 -0.6296303 -0.58135223
-0.58567846 -0.98974884 0.9894933 0.80248314 0.80480355 0.8094978 -0.20309253 -0.7656398
-0.06801978 -0.8933192 -0.035869867 -0.8956376 1.0126694 0.9204074 0.8951864 0.931328
-0.80804974 0.85891294 0.92821884 0.82717294 0.87112564 -0.95099926 1.012955 0.90693194
0.9386932 0.8819835 -0.75569504 0.7347511 0.8065963 0.84321064 0.8418141 -0.94724447
0.9668033 0.82471573 0.76625 0.61831456 -0.32662126 0.17481038 0.3414216 0.15568781
0.41731802 -0.91718805 1.0105922 0.96679634 0.94315565 0.908738 0.59003043 -0.6190703
0.9732756 0.61477816 -0.913204 0.98718446 1.0082691 1.0003357 0.9131389 0.824016
0.69429225 -0.4867489 0.48928395 0.7797172 -0.8747352 0.60601324 0.9202052 0.9184472
0.8957288 0.97494274 0.3360162 0.59171695 -0.715134 -0.647595 0.75048804 0.9147417
1.0138897 0.90817326 0.85075104 0.920458 0.21405454 0.012998063 -0.5067012 -0.06957703
0.6081771 0.97324383 0.9463393 0.014447772 -0.0076288534 -0.00049521384 0.0004305698 -0.0076131937
-0.01735479 -0.12894738 0.36121994 -0.0056096143 -0.53975165 -0.37615925 -0.89794517 0.03893132
-0.16063285 -0.21494469 -0.48386177 -0.45979923 -0.9812932 0.5139801 -0.28617546 -0.034852736
-0.5272368 -0.36411035 -0.90838116 0.54090136 -0.47617796 -0.24179319 -0.35692734 -0.29732344
-0.99377 0.5198851 -0.32628235 -0.27539152 -0.23942801 -0.09226744 -0.8319115 0.50185305
-0.39802116 -0.20962217 -0.25361308 -0.11976458 -0.79999906 0.2479816 -0.40102124 0.30216333
-0.12852703 -0.3898245 -0.8136914 0.32583076 -0.26794901 0.37714043 -0.020914048 -0.31043252
-0.59749585 0.35947615 -0.22097282 0.45957187 0.037291985 -0.25972337 -0.5784866 -0.36315742
0.11913525 -0.3616373 0.022590797 -0.4966628 -0.89474237 -0.35861298 0.16549967 -0.46664542

Critic.fc1.bias f4 [32]
00000000: 14c7 813f 6a5b 753f 25c0 823f 3d28 7a3f
00000010: 3ecd 823f 5440 813f 3cca 803f 7400 803f
00000020: f674 853f 9169 6c3f befe 733f a08f 533f
00000030: e9a0 803f af04 763f 516a 823f a302 843f
00000040: 9026 533f cfd3 813f 9948 803f 1a5c 6d3f
00000050: 1329 7b3f ff5f 813f 2a90 713f 26c9 823f
00000060: b93f 753f da41 813f a155 733f b082 1f3f
00000070: db4a 733f 7ce8 803f 31a6 753f aee2 6b3f
1.0138879 0.9584261 1.0214888 0.9771765 1.0218885 1.0097756 1.0061717 1.0000138
1.0426319 0.9234858 0.9531058 0.8264103 1.0049106 0.96100897 1.0188695 1.0313305
0.82480717 1.0142764 1.0022155 0.9271866 0.9810955 1.0107421 0.943606 1.0217636
0.9580036 1.0098221 0.95052534 0.6230879 0.95036095 1.0070949 0.9595671 0.9214276

Critic.fc2.weight f4 [32, 32]
00000000: 9ab6 683f 2339 693f ee6c 873f 2d45 813f
00000010: 460d 343f 14d1 553f 93b7 6f3f 6c8a 753f
00000020: 3400 6f3f f0de 3d3f 0ff0 613f afa3 7b3f
00000030: 1780 603f 78ec 803f 4d79 823f 2c3c 483f
00000040: 26d3 843f 9170 473f da1d 803f 2cb3 7f3f
00000050: 08ad 5c3f 01e7 363f 2a89 663f a663 403f
00000060: 94b9 603f 4cf9 2d3f 3413 423f bde5 223f
00000070: fc4e 673f 091d 5b3f 8808 673f da9f 5e3f
00000080: af0a 6f3f 1f94 713f 043b 823f a630 533f
00000090: 817a 803f a7e3 813f 0a86 3d3f fc5c 653f
000000a0: 7cb6 5e3f b986 863f 5078 623f ccc5 5d3f
000000b0: ac55 413f 9c66 853f 25df 6e3f 7b3d 533f
000000c0: 9534 5e3f 554e 523f f7ad 8b3f 7b57 813f
000000d0: 1b1a 843f f198 4a3f ddca 6e3f 0aec 723f
000000e0: dd5f 7f3f af7e 553f c1f1 773f 4393 2a3f
000000f0: cd0c 4b3f 8ef4 3d3f 5336 643f b48d 653f
00000100: 433a 293f 02a6 273f b678 333f 063a 393f
00000110: 8529 263f dbf8 3a3f fba2 283f 341b 733f
00000120: d1ee 4a3f a3fe 4d3f ccce 553f 6acb 503f
00000130: e79d 443f 1d03 413f dc6d 5c3f 4845 673f
00000140: 27d2 723f c495 243f 33da 403f 3463 813f
00000150: be3f 443f 399d 4d3f 7f4c 343f 00de 483f
00000160: 9bfc 813f c9e7 643f ad2d 663f dff0 353f
00000170: f369 573f decd 4e3f 705c 333f 57dc 633f
00000180: 8397 543f b850 6a3f cdb1 863f d92e 623f
00000190: 3365 813f cf3a 843f ee26 873f 55b8 853f
000001a0: b662 693f 7d50 623f 57da 6a3f 5ea2 3e3f
000001b0: 99b5 3f3f 6340 863f 246f 833f a48a 5b3f
000001c0: ed8e 413f 378d 783f 19c8 633f 26f5 5b3f
000001d0: ed80 743f 11d2 743f 8636 863f 5b64 343f
000001e0: 8e34 663f ccc9 803f edf1 6f3f 9582 243f
000001f0: 68d9 433f 7818 783f 4715 353f 4736 6b3f
00000200: 1d61 813f 93f8 753f cb2a 8a3f 5c6d 6d3f
00000210: c659 693f 9d68 7b3f 1f7b 5b3f 7324 793f
00000220: 4133 813f e9df 713f 53fa 4d3f 5d2b 813f
00000230: 6c85 853f c90f 853f fce2 403f ce2e 7b3f
00000240: 5b39 543f 7247 703f 76b9 4f3f 3350 863f
00000250: 2897 8d3f d1b2 563f 70f2 703f cabe 7e3f
00000260: b82b 4c3f cd90 323f 4509 863f 9400 153f
00000270: e42e 493f 6c5e 5b3f 8f13 7b3f cac8 4a3f
00000280: 2f59 853f 968d 403f d9a6 5c3f a815 533f
00000290: 8477 343f 8fa9 3a3f b2b6 813f c1ad 883f
000002a0: 5b7f 653f 685f 723f 7da6 713f 9d3f 313f
000002b0: 5ece 5b3f bd9a 4b3f 003a 6a3f f1fa 573f
000002c0: 7691 7d3f 61f7 383f 37fd 513f 3a9d 463f
000002d0: 4fbd 813f 0128 803f 7ad8 663f aeda 6d3f
000002e0: ac76 413f d261 3f3f 4aad 6c3f b55b 373f
000002f0: aa7c 4b3f 9ec2 693f 9e70 7d3f f86d 693f
00000300: 397e 803f 2ff3 4a3f 0a67 5f3f 3d03 843f
00000310: 5680 6b3f 1fbe 803f 0c05 713f 078d 593f
00000320: cfd3 7b3f 194a 453f 2e7b 783f 0893 303f
00000330: e2ed 6f3f bcb2 5b3f 73a1 633f ce35 763f
00000340: 7fe5 573f ea40 6a3f efb4 833f 8649 663f
00000350: a974 773f 162c 553f 12e7 653f ec19 353f
00000360: fc72 803f 68e3 523f 8972 823f 65b1 0c3f
00000370: beb2 453f ede7 6f3f ded1 803f 7af5 783f
00000380: e538 4a3f ab2f 843f 1f3f 7b3f e368 653f
00000390: b30a 6b3f 8778 723f 7f3f 863f 201e 383f
000003a0: 2e3f 7e3f fd45 693f b2b0 723f afd4 2e3f
000003b0: 9981 4c3f 26f6 633f 99df 7a3f 1061 623f
000003c0: 6dd5 423f ab77 403f 4522 803f 4a1f 643f
000003d0: 4b08 6c3f 1b11 593f d9cf 5d3f 191c 393f
000003e0: 5867 4d3f 2afc 523f 50c7 713f 45d5 3e3f
000003f0: f8b7 403f 2451 7e3f c7d5 3c3f 26f0 2d3f
0.9090363 0.9110281 1.0580118 1.0099236 0.70332754 0.8352215 0.9363949 0.9591434
0.93359685 0.741683 0.88256925 0.98296636 0.8769545 1.0072165 1.0193268 0.78216815
1.0376937 0.7790614 1.000911 0.9988277 0.86201525 0.71446234 0.90053046 0.7515205
0.8778317 0.6795852 0.7581055 0.636318 0.90354896 0.8559118 0.9024739 0.86962664
0.93375677 0.9436664 1.017426 0.82496107 1.0037385 1.0147599 0.7403265 0.8959501
0.869972 1.0509864 0.8846483 0.8662994 0.7552135 1.0421939 0.9330924 0.82515687
0.86798984 0.82150775 1.0912465 1.0104822 1.0320467 0.7913962 0.93278295 0.9489142
0.9975565 0.8339643 0.9685326 0.66630954 0.7931641 0.74201286 0.8914539 0.89669347
0.66104525 0.6548768 0.70106065 0.7235416 0.64907104 0.73035973 0.6587369 0.94963384
0.79270655 0.8046667 0.8351867 0.81560385 0.7680344 0.75395375 0.8610513 0.9034009
0.9485192 0.64291024 0.75332946 1.0108399 0.7665976 0.8031803 0.70429224 0.78463745
1.0155214 0.89416176 0.89913446 0.71070665 0.8414604 0.8078288 0.70062923 0.89008087
0.8304369 0.9152942 1.052301 0.88352734 1.0109009 1.0330447 1.0558755 1.0446879
0.91166246 0.88404065 0.9173941 0.744665 0.7488647 1.0488399 1.0268292 0.85758424
0.7560871 0.97090477 0.889772 0.8592094 0.95509225 0.95633036 1.0485389 0.7046563
0.8992394 1.0061584 0.93728524 0.6426175 0.7650361 0.96912336 0.7073559 0.91879696
1.0107762 0.9608242 1.0794309 0.92744994 0.9115261 0.982065 0.8573474 0.9732124
1.0093766 0.94482285 0.8046009 1.0091358 1.0431342 1.0395442 0.7534635 0.98118293
0.8290002 0.93859017 0.81142366 1.0493225 1.1061754 0.838666 0.9411993 0.9950987
0.7975421 0.697522 1.0471579 0.5820401 0.78587174 0.8569095 0.9807672 0.7921263
1.0417842 0.75216043 0.8619209 0.8245492 0.70494866 0.72914976 1.0133879 1.0678025
0.89647454 0.9467683 0.94394666 0.6923769 0.85861766 0.79532987 0.9149475 0.8436728
0.9905008 0.7225247 0.82027 0.7758366 1.0135897 1.0012208 0.9017407 0.92911804
0.75571704 0.74758637 0.9245192 0.7162431 0.794871 0.9131259 0.98999965 0.91183424
1.003852 0.7927732 0.872666 1.0313488 0.919927 1.005802 0.94148326 0.84980816
0.9837007 0.7706619 0.9706296 0.6897435 0.93722355 0.858196 0.88918227 0.9617585
0.8433456 0.915053 1.0289592 0.8995594 0.96662384 0.83270395 0.8980571 0.7074268
1.003509 0.82378244 1.0191203 0.5495818 0.77225864 0.93713266 1.0064046 0.9724957
0.78993064 1.0327047 0.9814319 0.8961317 0.918132 0.9471516 1.0488127 0.7192097
0.99315155 0.9112242 0.94800866 0.6829328 0.7988525 0.8904747 0.9799743 0.88429356
0.7610691 0.751826 1.0010458 0.89110243 0.92200154 0.84791726 0.86645275 0.723085
0.80235815 0.8241602 0.9444475 0.74544173 0.75280714 0.9934256 0.737637 0.6794456

Critic.fc2.bias f4 [32]
00000000: 72c7 4b3f 27c4 233f caaf 693f 2d37 6e3f
00000010: 9b71 753f c5b1 3c3f 791a 2e3f aac7 413f
00000020: d5d8 453f 4981 5a3f 2b12 363f 1b31 583f
00000030: 5cec 5c3f 260d 753f 4892 263f b78b 513f
00000040: ec16 693f aba2 593f 6cbe 4e3f 4be9 5e3f
00000050: b143 4f3f eb29 3f3f 8cd9 263f 6ab1 423f
00000060: 77a6 273f a9f6 593f 7dfd 343f b714 423f
00000070: cae9 703f 13bf 2a3f b791 2f3f 0610 2c3f
0.79601204 0.6397118 0.9128386 0.9305294 0.95876473 0.73708755 0.68009144 0.7569529
0.77283984 0.85353523 0.7112147 0.8444993 0.86298156 0.9572319 0.6506696 0.8185381
0.910506 0.85013837 0.8075931 0.87074727 0.80962664 0.74673337 0.651757 0.7605196
0.6548838 0.85142 0.7069929 0.7581286 0.94106734 0.66697806 0.6858172 0.6721195

Critic.fc3.weight f4 [1, 32]
00000000: c6fa 6bbf b0dc 70bf 4c04 5abf c1d1 6dbf
00000010: e1d3 6ebf 6cd9 6abf 5e86 6dbf 0eb3 6ebf
00000020: a6fd 69bf 1745 6cbf dd57 6fbf 1a0f 6fbf
00000030: 0666 6ebf 524f 61bf 1bac 6abf d8e5 6ebf
00000040: 25bd 6ebf 8904 6dbf ac1c 63bf dac5 61bf
00000050: f0b0 6dbf e18d 6bbf 922f 6cbf d7f5 6abf
00000060: 3692 6cbf 9771 6abf d05f 6fbf 94fb 69bf
00000070: f8d5 6bbf 7783 6cbf a6ca 6cbf 6a57 6dbf
-0.92179525 -0.9408674 -0.85162807 -0.92898184 -0.9329205 -0.9173801 -0.92783153 -0.93241966
-0.9140266 -0.9229292 -0.93493444 -0.9338242 -0.93124425 -0.8801166 -0.9166886 -0.93319464
-0.9325736 -0.92585045 -0.88715625 -0.8819252 -0.9284811 -0.92013365 -0.92260087 -0.9178137
-0.924106 -0.91579574 -0.93505573 -0.913995 -0.92123365 -0.923881 -0.92496717 -0.9271151
