model_0.pt (torch, 114732 bytes, 13 tensors)

Actor.fc1.weight f4 [32, 378]
0.016451715 0.043860115 0.02097456 0.0011446588 0.042678874 -0.070002615 0.007993344 -0.026227918
-0.031744838 0.007399302 0.017902734 0.015638404 -0.006447172 0.01940717 -0.030524526 -0.070258595
0.0023264214 -0.056058556 -0.04895779 0.015678318 0.052290883 -0.014911786 -0.0647108 0.0022898037
0.029830901 0.015412902 0.054632552 0.014707761 -0.035195712 0.0065189926 0.016489215 -0.012673523
-0.069726445 -0.009124082 0.04914075 0.06626851 -0.012598604 -0.0110251475 0.040519085 -0.009401701
-0.05560482 -0.0035938788 -0.02993716 0.058335595 -0.064017616 -0.045261778 0.022908328 0.020925805
-0.004752964 0.007302249 -0.017535258 -0.004029445 -0.0050310013 0.037196863 0.0031528848 -0.046696853
0.027328953 -0.06556825 0.017788 -0.00464285 0.047045253 0.0091082305 0.021216081 0.0545196
-0.01923169 0.0088777095 -0.070540406 -0.00170606 0.005197555 0.020667648 0.058422156 0.0046753325
-0.017929621 0.06289567 0.0045586294 0.019624315 0.01620758 -0.034187764 0.0030748397 -0.04787394
0.052852288 -0.053124133 0.06771262 0.042463712 -0.0038479455 0.024904704 0.017507384 0.018005965
-0.020153364 0.015161084 -0.014338085 -0.05882097 -0.00013910793 0.024305766 0.012680519 0.0004145261
-0.025375778 0.026816403 -0.007229021 0.022957172 0.009230474 -0.006483393 0.050347805 -0.0049271053
-0.0250995 -0.024575122 -0.020866876 -0.0058919033 0.02371737 0.028484832 -0.024686206 0.055707075
-0.012043236 0.055526935 0.023544822 -0.0045129415 -0.013925344 -0.039827187 0.029746437 0.026375271
-0.0499556 0.022469377 -0.0073974365 0.055348314 0.027484134 -0.01776501 -0.034521323 -0.030437082
0.012463434 -0.033600803 -0.0021550395 0.069293015 -0.06682564 -0.015007028 -0.059342794 0.033167366
-0.05899942 -0.03738317 -0.055584814 -0.04235033 -0.024749167 -0.0012515895 -0.045711547 0.0006619543
-0.05543151 0.05000056 -0.018481787 -0.057049755 -0.026666494 0.01924215 -0.0023270342 -0.021831978
0.021170774 -0.06543626 0.050537072 -0.008131083 -0.067435555 -0.035512112 -0.047187425 -0.055042386
-0.0063975053 0.034696516 -0.046748273 -0.05362746 0.015450405 -0.019709572 -0.042759888 -0.0040313005
-0.013734115 -0.016857693 0.07078798 0.023523249 0.039847642 -0.013027534 -0.0111819 -0.0054964405
-0.03184709 0.0024415497 -0.05081115 0.008212153 -0.016286837 0.020010749 0.017799351 -0.002557112
-0.0714131 0.017308604 -0.007060389 -0.03437637 0.04638785 0.007776334 0.0004749003 -0.024497658
0.04210973 0.03190836 -0.029539853 0.05911149 -0.0062205764 0.037535723 0.0038818568 -0.019134855
-0.050236426 0.05926953 0.0691899 -0.06887016 0.015827684 -0.067331344 -0.025361536 0.044143796
0.03783606 0.0014118422 0.036086626 -0.010298962 0.056233846 0.0016769953 -0.011442998 -0.052083746
0.008299188 0.02451814 -0.037563413 -0.024291499 -0.032454412 -0.02034087 -0.05507355 -0.06849454
-0.004645127 0.025183506 -0.061985105 0.03869553 0.011076188 0.0013152957 -0.0053962395 -0.05568049
-0.022852812 -0.012588771 0.05634311 0.02708171 0.030840311 -0.06915516 -0.023833154 0.022293378
-0.017473059 0.0131848445 0.04085306 0.017479975 0.0054689916 0.008776205 0.05020862 0.014152668
-0.008449832 -0.026534209 -0.014099179 -0.03697294 0.04090908 -0.038954336 -0.023277141 -0.008318885
00000000: bfc5 863c aaa6 333d d7d2 ab3c 6008 963a
00000010: 0bd0 2e3d 885d 8fbd 84f6 023c eedb d6bc
00000020: e006 02bd d875 f23b c1a8 923c 1c1c 803c
00000030: cc42 d3bb c9fb 9e3c 920e fabc bde3 8fbd
00000040: e076 183b a89d 65bd f787 48bd d16f 803c
00000050: f72e 563d 9050 74bc 1987 84bd 8810 163b
00000060: ef5f f43c 6686 7c3c 62c6 5f3d d2f8 703c
00000070: 6129 10bd 469d d53b 6414 873c 9ca4 4fbc
00000080: bdcc 8ebd 2c7d 15bc d047 493d c9b7 873d
00000090: 606a 4ebc d2a2 34bc 57f7 253d 9809 1abc
000000a0: e1c1 63bd 4887 6bbb c63e f5bc 4ef1 6e3d
000000b0: ab1b 83bd 6a64 39bd 3faa bb3c 986c ab3c
000000c0: c0be 9bbb b447 ef3b 1aa6 8fbc 6f09 84bb
000000d0: 19db a4bb bd5b 183d a1a0 4e3b 3345 3fbd
000000e0: f8e0 df3c a648 86bd 24b8 913c 0c23 98bb
000000f0: 86b2 403d b03a 153c 59cd ad3c f24f 5f3d
00000100: c78b 9dbc d073 113c 7d77 90bd e09d dfba
00000110: 4050 aa3b 334f a93c 124c 6f3d 8833 993b
00000120: 24e1 92bc 72cf 803d 8e60 953b 2cc3 a03c
00000130: c2c5 843c 7808 0cbd 4083 493b 7717 44bd
00000140: a47b 583d b198 59bd eaac 8a3d 6eee 2d3d
00000150: d02d 7cbb f304 cc3c a56b 8f3c 3f81 933c
00000160: ab18 a5bc 3266 783c 4aea 6abc 42ee 70bd
00000170: 80dd 11b9 e31c c73c f4c1 4f3c c054 d939
00000180: dde0 cfbc 13ae db3c 6ce1 ecbb ae10 bc3c
00000190: 6a3b 173c a472 d4bb 8039 4e3d 8e73 a1bb
000001a0: 779d cdbc c451 c9bc 03f1 aabc de10 c1bb
000001b0: ee4a c23c 0659 e93c ba3a cabc 1a2d 643d
000001c0: fe50 45bc 3670 633d 12e1 c03c 4ce1 93bb
000001d0: 2027 64bc d521 23bd cdae f33c f410 d83c
000001e0: 3e9e 4cbd b311 b83c 3266 f2bb eab4 623d
000001f0: 6826 e13c ed87 91bc 3b66 0dbd 3057 f9bc
00000200: 6e33 4c3c ffa0 09bd 903b 0dbb 7fe9 8d3d
00000210: e2db 88bd 0ae0 75bc 6e11 73bd 81da 073d
00000220: 60a9 71bd 181f 19bd e7ac 63bd 8a77 2dbd
00000230: c4be cabc 600c a4ba 083c 3bbd 0087 2d3a
00000240: 270c 63bd 63cd 4c3d 1e67 97bc 01ad 69bd
00000250: b173 dabc b7a1 9d3c 2881 18bb fad8 b2bc
00000260: 556e ad3c 7203 86bd f6ff 4e3d 3c38 05bc
00000270: a71b 8abd 2675 11bd 9a47 41bd 2074 61bd
00000280: 2aa2 d1bb ef1d 0e3d 1e7b 3fbd 78a8 5bbd
00000290: b223 7d3c f875 a1bc fe24 2fbd 0019 84bb
000002a0: 0e05 61bc 2519 8abc 4af9 903d d4b3 c03c
000002b0: 4837 233d 7071 55bc 4a34 37bc 7c1b b4bb
000002c0: 1872 02bd 6802 203b 5a1f 50bd 448c 063c
000002d0: f96b 85bc 95ed a33c f2cf 913c 3895 27bb
000002e0: 0841 92bd c6ca 8d3c d65a e7bb 3dce 0cbd
000002f0: 3001 3e3d 9ed0 fe3b 0afc f839 50af c8bc
00000300: 417b 2c3d 57b2 023d 90fd f1bc e41e 723d
00000310: fad5 cbbb 0fbf 193d c066 7e3b b3c0 9cbc
00000320: b6c4 4dbd 9bc4 723d 6fb3 8d3d cc0b 8dbd
00000330: 0fa9 813c 04e5 89bd ffc2 cfbc 20d0 343d
00000340: fcf9 1a3d 900d b93a 92cf 133d fabc 28bc
00000350: 7655 663d a0ce db3a 6a7b 3bbc c455 55bd
00000360: 51f9 073c 44da c83c 18dc 19bd f7fe c6bc
00000370: ebee 04bd e5a1 a6bc ce94 61bd de46 8cbd
00000380: 2636 98bb a44d ce3c 18e4 7dbd 347f 1e3d
00000390: e678 353c 0066 ac3a f0d2 b0bb 3a11 64bd
000003a0: d235 bbbc 2241 4ebc 08c8 663d 76da dd3c
000003b0: d2a4 fc3c 38a1 8dbd bf3d c3bc 9aa0 b63c
000003c0: a923 8fbc 3f05 583c 8a55 273d 2a32 8f3c
000003d0: 3a35 b33b 12ca 0f3c 8ea7 4d3d 98e0 673c
000003e0: 2a71 0abc 455e d9bc 3e00 67bc f070 17bd
000003f0: 4890 273d 958e 1fbd b4af bebc ef4b 08bc

Actor.fc1.bias f4 [32]
-0.037632346 -0.0016604699 -0.04869655 -0.03382013 0.015782483 0.06278834 0.06614233 0.019015888
-0.0038326103 0.041807592 -0.046392694 0.0023426507 0.03561928 0.053696997 -0.043465953 0.045976885
0.017604811 -0.062283214 0.028793141 -0.028343078 0.06822394 0.06315965 -0.029599033 -0.026100641
-0.06756186 0.024957526 -0.06559132 -0.034829516 0.0059134252 -0.06914786 0.041209262 -0.03926152
00000000: 6024 1abd 20a4 d9ba 0976 47bd fa86 0abd
00000010: 444a 813c 2c97 803d a175 873d 35c7 9b3c
00000020: 882c 7bbb 703e 2b3d 4406 3ebd 2887 193b
00000030: 86e5 113d 62f1 5b3d 5b09 32bd 4252 3c3d
00000040: f737 903c af1c 7fbd 98df eb3c be2f e8bc
00000050: feb8 8b3d d959 813d ac79 f2bc 03d1 d5bc
00000060: df5d 8abd ba73 cc3c be54 86bd 65a9 0ebd
00000070: 68c5 c13b 659d 8dbd 0bcb 283d b0d0 20bd

Actor.fc2.weight f4 [32, 32]
-0.09761039 -0.05565383 0.115691066 -0.017903695 0.10386154 -0.11300504 0.17983642 0.19455235
0.17463247 0.047612168 0.061748028 -0.0051388443 -0.13219191 -0.012923392 0.1091931 0.022538792
-0.15534303 -0.01435118 -0.098156035 0.10533529 -0.15582563 0.06713994 0.042488694 0.023948371
0.13538395 -0.05125768 0.12120246 -0.105757914 -0.1816175 0.010915455 0.17747116 0.114264876
-0.17000169 0.058812127 0.1284499 0.15711233 -0.084046155 0.14516577 -0.1636458 0.15339999
-0.008771805 0.16484825 -0.08853331 -0.13790596 -0.09628601 0.086030304 0.14063981 -0.08565414
0.14254473 -0.05379916 0.007301884 0.023583194 -0.046813197 -0.07117078 -0.01670928 0.031233225
0.19201277 -0.026382755 -0.15577431 -0.07598071 -0.035501715 -0.105928406 0.03273205 -0.19152345
-0.113602675 -0.13848615 0.16224879 -0.069333605 0.12210265 0.106916025 0.18110855 0.04419823
-0.08343951 -0.1311464 0.03784746 -0.036252387 0.14983527 -0.051398262 -0.09730925 -0.12645352
-0.046910543 0.16656414 0.029089704 0.14269951 0.0022458062 0.15588984 0.04385874 0.17728034
0.058498863 0.09516023 0.16162807 0.014582865 -0.11977618 -0.027370423 0.1588136 -0.13340694
0.15099397 0.04620741 0.051963255 0.102909654 0.028966358 -0.0949744 -0.13854831 -0.15912797
-0.03597205 -0.07535234 0.021300206 0.10821086 -0.14673282 0.09518004 -0.16866724 -0.014956792
0.1502473 -0.0038699582 -0.113531575 -0.10685424 0.057912752 -0.113408044 0.0063943584 -0.112523414
-0.14781304 0.011351924 0.10761115 0.12654677 0.11129199 -0.14206196 -0.040854342 -0.10129739
-0.036922537 0.17834969 0.10057567 -0.1579661 0.04579333 -0.13775197 -0.14244561 0.05978968
-0.17749895 -0.063175805 -0.044228412 1.745671e-05 -0.14456569 0.13856113 -0.14518386 -0.1241978
-0.0063652135 0.18606059 -0.12223792 -0.09373218 -0.012243364 -0.023493096 0.13057111 -0.1441749
-0.10231858 -0.020446658 0.024019035 0.13261493 -0.09948598 -0.08534424 0.06120082 0.09331499
-0.16613542 0.013070297 0.09708446 0.01638987 -0.13874647 -0.004448436 -0.029933458 0.1078742
0.10309616 0.06873982 -0.13631843 0.16977999 -0.14556451 -0.15256229 -0.08912131 0.07671322
0.09468657 -0.10733442 -0.13929509 0.1068783 -0.16372213 -0.10795982 0.13375317 0.15634167
0.030978914 -0.12681632 0.10557556 0.07696443 0.0646562 0.08046391 -0.13494565 0.02309943
0.12113217 0.06252511 -0.05584151 -0.07638979 0.13831685 0.041621223 -0.032499827 -0.07974738
0.102201775 -0.08230998 -0.02764118 -0.08742593 0.013604231 -0.17185552 0.039319262 0.121115595
0.09790701 0.06819535 -0.15521221 -0.11367723 -0.19340958 0.10213845 -0.07956412 -0.18084931
-0.075304106 0.11589861 -0.16219686 0.04833597 -0.009264059 0.018599369 0.084432915 -0.17109327
-0.07078673 -0.025621103 0.06401104 -0.0897221 0.029749323 0.032535307 0.049160514 0.005522536
-0.053016767 -0.059216693 0.011235139 0.01796852 -0.055764288 0.115867965 0.114487246 0.037054427
0.117856205 -0.060284905 -0.16862328 0.10959346 0.08262347 -0.0595451 -0.16536385 -0.08466412
-0.07108836 -0.10185961 0.1050528 0.09017649 -0.02504021 -0.02223924 -0.06393886 0.16264467
00000000: f5e7 c7bd 45f5 63bd 70ef ec3d c5aa 92bc
00000010: 5cb5 d43d 306f e7bd 0a27 383e bb38 473e
00000020: dbd2 323e fa04 433d 80eb 7c3d c063 a8bb
00000030: 515d 07be a2bc 53bc a2a0 df3d 46a3 b83c
00000040: 3e12 1fbe 3621 6bbc 0806 c9bd 07ba d73d
00000050: c190 1fbe aa80 893d a008 2e3d 602f c43c
00000060: 17a2 0a3e 93f3 51bd ff38 f83d 9b97 d8bd
00000070: f0f9 39be bdd6 323c 00bb 353e b403 ea3d
00000080: ec14 2ebe fce4 703d 5f88 033e 0ee2 203e
00000090: 6420 acbd 56a6 143e c492 27be e314 1d3e
000000a0: 9eb7 0fbc fbcd 283e f450 b5bd 3837 0dbe
000000b0: 9a31 c5bd a830 b03d e203 103e 706b afbd
000000c0: 3ff7 113e 825c 5cbd a444 ef3b 8b31 c13c
000000d0: 32bf 3fbd fcc1 91bd e6e1 88bc d2dc ff3c
000000e0: ff9e 443e a620 d8bc 4d83 1fbe c69b 9bbd
000000f0: 3f6a 11bd fef0 d8bd 0b12 063d b91e 44be
00000100: 85a8 e8bd 50cf 0dbe 8c24 263e c7fe 8dbd
00000110: f410 fa3d caf6 da3d 8574 393e 3409 353d
00000120: 55e2 aabd 3e4b 06be f005 1b3d 627d 14bd
00000130: 6b6e 193e fc86 52bd 124a c7bd 087d 01be
00000140: 4525 40bd ca8f 2a3e 884d ee3c d21f 123e
00000150: 602e 133b 96a1 1f3e 39a5 333d fa88 353e
00000160: 819c 6f3d 5ee3 c23d d481 253e f8ec 6e3c
00000170: 374d f5bd f037 e0bc 08a0 223e d49b 08be
00000180: 2a9e 1a3e fb43 3d3d 6cd7 543d 4cc2 d23d
00000190: db4a ed3c f081 c2bd 9cdf 0dbe 71f2 22be
000001a0: 6e57 13bd 5452 9abd c57d ae3c a89d dd3d
000001b0: 2141 16be c1ed c23d 1bb7 2cbe 550d 75bc
000001c0: 6eda 193e 209f 7dbb 3e83 e8bd 65d6 dabd
000001d0: ec35 6d3d 7a42 e8bd c487 d13b ad72 e6bd
000001e0: 4d5c 17be 6cfd 393c 3c63 dc3d 7a95 013e
000001f0: 0eed e33d b178 11be e256 27bd 0275 cfbd
00000200: 163c 17bd 4da1 363e 9efa cd3d dec1 21be
00000210: c991 3b3d da0e 0dbe 43dd 11be 06e6 743d
00000220: 49c2 35be 5162 81bd da28 35bd 0070 9237
00000230: 0709 14be f8e2 0d3e 14ab 14be 6b5b febd
00000240: 4893 d0bb ab86 3e3e e057 fabd a8f6 bfbd
00000250: 6498 48bc 9874 c0bc 6fb4 053e 96a2 13be
00000260: 678c d1bd c07f a7bc 91c3 c43c 35cc 073e
00000270: 4ebf cbbd f6c8 aebd b6ad 7a3d ee1b bf3d
00000280: 671f 2abe cd24 563c 38d4 c63d 0c44 863c
00000290: 8e13 0ebe 30c4 91bb 0337 f5bc 26ed dc3d
000002a0: 1424 d33d 76c7 8c3d 0f97 0bbe ceda 2d3e
000002b0: dd0e 15be 4a39 1cbe 3c85 b6bd d21b 9d3d
000002c0: 08eb c13d 26d2 dbbd 5fa3 0ebe 03e3 da3d
000002d0: c6a6 27be 0a1a ddbd 97f6 083e 0818 203e
000002e0: 7ec7 fd3c 23dc 01be 0038 d83d 879f 9d3d
000002f0: 786a 843d 43ca a43d 312f 0abe 043b bd3c
00000300: 2514 f83d 2a0d 803d 11ba 64bd 4072 9cbd
00000310: efa2 0d3e 047b 2a3d 8a1e 05bd 9852 a3bd
00000320: 2a4f d13d 2392 a8bd c26f e2bc 5e0c b3bd
00000330: 48e4 5e3c e5fa 2fbe 3c0d 213d 740b f83d
00000340: 7883 c83d 01aa 8b3d f3ef 1ebe 9ccf e8bd
00000350: 290d 46be f72d d13d 83f2 a2bd 9030 39be
00000360: 0a39 9abd 405c ed3d ef16 26be f0fb 453d
00000370: 48c8 17bc b45d 983c 2aeb ac3d 1333 2fbe
00000380: a2f8 90bd 59e3 d1bc 3818 833d 38c0 b7bd
00000390: dab4 f33c be43 053d 895c 493d 64f6 b43b
000003a0: 1c28 59bd 348d 72bd 9713 383c b832 933c
000003b0: 1869 64bd 2f4c ed3d 4a78 ea3d 62c6 173d
000003c0: 985e f13d 4eed 76bd 95ab 2cbe 8972 e03d
000003d0: 7e36 a93d 90e5 73bd 2455 29be 6264 adbd
000003e0: c696 91bd c59b d0bd ec25 d73d 74ae b83d
000003f0: 2021 cdbc 112f b6bc 61f2 82bd 538c 263e

Actor.fc2.bias f4 [32]
-0.13501662 -0.0821454 0.12255122 -0.02986135 -0.0725796 0.10659407 0.078397945 -0.16578047
-0.1614944 -0.17739098 -0.0854134 0.030363332 0.046750262 0.107154 -0.18592504 0.05948114
-0.18140993 0.036827967 -0.038584523 0.102037735 -0.05050519 0.11373724 -0.14864476 -0.16583346
0.06743697 -0.18084432 0.17650068 -0.17496844 -0.09308786 0.044679254 -0.0859568 0.15368293
00000000: cc41 0abe d93b a8bd 22fc fa3d ca9f f4bc
00000010: 9da4 94bd fe4d da3d 1a8f a03d 5bc2 29be
00000020: ca5e 25be fba5 35be 38ed aebd 86bc f83c
00000030: 347d 3f3d 8e73 db3d 2263 3ebe 7fa2 733d
00000040: 86c3 39be ecd8 163d ce0a 1ebd 29f9 d03d
00000050: 88de 4ebd 12ef e83d 5536 18be 3fd0 29be
00000060: 651c 8a3d 412f 39be 98bc 343e ed2a 33be
00000070: d9a4 bebd 9801 373d 1e0a b0bd 0f5f 1d3e

Actor.mean_fc3.weight f4 [17, 32]
-0.2608993 -0.04792016 -0.019976774 -0.092492945 -0.17233202 0.16160241 -0.32419604 0.09096111
-0.30819085 0.14854175 0.39610818 -0.051734917 -0.017713705 0.27229345 -0.1850279 -0.049480204
-0.46851057 -0.09938831 -0.53393966 0.07342798 0.38161725 -0.0017331464 0.321807 0.27932924
-0.11732341 0.2835038 0.39406708 0.31616142 -0.219137 0.23347251 -0.13575184 -0.12712036
0.33062258 0.32792592 -0.42660525 0.08673998 0.078994565 -0.08009235 0.03339877 0.35768697
0.3279016 0.054232426 -0.611169 -0.29081792 -0.07959282 -0.055804696 0.11100793 -0.6233849
0.107830584 0.23938973 0.17905395 0.098580755 0.0046964837 0.46116078 -0.5775324 -0.08154323
-0.20962922 0.031188669 -0.3430929 0.4420237 0.2580167 0.02456413 0.06457811 -0.12528743
0.2666839 -0.007208968 -0.08397032 0.032136913 -0.13573222 0.15677159 -0.27690592 0.19313322
-0.16484644 0.20168966 0.05934754 0.22766635 0.102092825 0.39080554 0.06643175 -0.29297993
-0.06629148 -0.35257292 0.12528247 -0.13311706 0.23294285 -0.6344796 0.18955266 0.06758854
0.3816034 -0.21642531 0.10416487 0.02918408 0.20158435 0.09928003 0.4708965 0.25819215
0.0008608427 -0.1880101 -0.1585601 0.19513479 -0.24783133 -0.2534108 -0.29399064 0.13124663
0.043256517 0.120443515 0.1368022 0.20336665 -0.14410779 -0.112407014 -0.008321425 -0.20882928
-0.019219914 -0.15459678 -0.13899258 -0.1905688 -0.039531697 0.21634318 -0.0064700725 -0.02620624
0.28475517 0.06357138 -0.21473117 -0.23595177 -0.031782296 0.107441545 0.20270872 -0.3862298
-0.24204075 -0.1044526 0.16372219 -0.23392682 0.4126962 -0.041175585 -0.28327054 0.1012345
-0.08727734 -0.14006728 -0.16702421 -0.15143447 0.16758583 0.30593273 0.19251487 0.28658736
-0.29380772 -0.13658345 0.30660558 0.02154303 0.075623184 0.8172811 -0.43922493 0.02718893
-0.31821278 0.092703044 0.33990866 0.06438858 0.044657003 -0.12658015 0.38974294 0.030089142
-0.4045222 -0.14609927 -0.45998237 0.011590896 -0.348745 -0.106029004 0.0007409316 0.019250568
-0.12646858 0.27961233 -0.405875 -0.17779669 -0.41503426 -0.08587244 -0.3000841 0.09921317
-0.50289774 -0.26921067 0.33677307 -0.21023022 -0.24406624 -0.35138208 0.53030074 0.087826006
-0.07233884 -0.33465 -0.10077177 -0.297931 -0.31668493 -0.15128617 -0.07988147 0.10827595
0.17998639 0.09111236 0.006170982 0.0062115197 0.086615086 0.13885936 -0.18000278 0.29722333
0.3465266 -0.0556632 0.34472787 -0.11888687 0.22165105 -0.13155653 -0.048240807 -0.031523235
0.15123431 0.059484795 -0.16447683 0.11478123 0.30869249 0.03944693 -0.36289513 0.5216289
-0.28810537 -0.24172905 -0.28122967 -0.047075365 0.4728053 -0.36070192 -0.099366516 0.033760972
0.0455248 -0.29503846 0.036857206 -0.02597772 0.19030969 -0.06335657 -0.049844567 -0.13468547
-0.1880671 0.5302677 0.33491135 -0.15563378 0.7265754 0.30152425 0.25409877 -0.074714445
0.42904806 -0.25911808 -0.0054311906 -0.44188195 0.020728637 -0.41153792 0.08760856 0.29302013
-0.3733884 0.14424013 -0.03710563 0.06711393 -0.18816058 -0.35865432 -0.36736813 -0.25264782
00000000: 9894 85be ee47 44bd 55a6 a3bc f16c bdbd
00000010: ce77 30be 1a7b 253e 06fd a5be d249 ba3d
00000020: 31cb 9dbe 541b 183e b1ce ca3e fee7 53bd
00000030: 551c 91bc 0c6a 8b3e f477 3dbe c1ab 4abd
00000040: 9ee0 efbe 198c cbbd 45b0 08bf 6961 963d
00000050: 5663 c33e be2a e3ba e3c3 a43e 3e04 8f3e
00000060: 4247 f0bd 6927 913e 29c3 c93e e9df a13e
00000070: 7365 60be 6b13 6f3e 8802 0bbe d72b 02be
00000080: 5d47 a93e e8e5 a73e 016c dabe bba4 b13d
00000090: e7c7 a13d 7507 a4bd 26cd 083d bf22 b73e
000000a0: b8e2 a73e d222 5e3d 9275 1cbf 16e6 94be
000000b0: 8f01 a3bd 7793 64bd 2058 e33d 2796 1fbf
000000c0: 48d6 dc3d 9522 753e eb59 373e b5e4 c93d
000000d0: f6e4 993b 441d ec3e 2ad9 13bf 2300 a7bd
000000e0: 0ba9 56be 617f ff3c dfa9 afbe ee50 e23e
000000f0: c41a 843e b73a c93c 8741 843d 594b 00be
00000100: cb8a 883e 3539 ecbb a2f8 abbd ffa1 033d
00000110: 63fd 0abe bb88 203e 9dc6 8dbe b7c4 453e
00000120: 81cd 28be bc87 4e3e 6816 733d 5e21 693e
00000130: 0b16 d13d aa17 c83e 5f0d 883d 7701 96be
00000140: d4c3 87bd 7084 b4be 0c4a 003e d74f 08be
00000150: 9288 6e3e 416d 22bf 181a 423e dc6b 8a3d
00000160: 8561 c33e 999e 5dbe 6454 d53d 7413 ef3c
00000170: 216c 4e3e 5453 cb3d 5919 f13e c331 843e
00000180: 2daa 613a b885 40be 945d 22be 6ad1 473e
00000190: 7fc7 7dbe 0fbf 81be f185 96be 8465 063e
000001a0: bf2d 313d 17ab f63d e015 0c3e 593f 503e
000001b0: fe90 13be a635 e6bd 9656 08bc 58d7 55be
000001c0: 1573 9dbc 9e4e 1ebe 1254 0ebe 7824 43be
000001d0: fdeb 21bd 1189 5d3e e702 d4bb 78ae d6bc
000001e0: 6ecb 913e b631 823d 7de2 5bbe 579d 71be
000001f0: 272e 02bd 500a dc3d e092 4f3e eabf c5be
00000200: 88d9 77be 3feb d5bd caa6 273e 838a 6fbe
00000210: eb4c d33e bba7 28bd d608 91be 0954 cf3d
00000220: 76be b2bd cc6d 0fbe 6508 2bbe a311 1bbe
00000230: 9f9b 2b3e 37a3 9c3e 9e22 453e 94bb 923e
00000240: f76d 96be 88dc 0bbe 68fb 9c3e 027b b03c
00000250: 54e0 9a3d 5639 513f 17e2 e0be 52bb de3c
00000260: c9ec a2be 18db bd3d 8208 ae3e 29de 833d
00000270: 43ea 363d 3a9e 01be 638c c73e 817d f63c
00000280: 891d cfbe 0c9b 15be cf82 ebbe bee7 3d3c
00000290: b48e b2be bc25 d9bd 143b 423a 5eb3 9d3c
000002a0: fb80 01be 5929 8f3e d9ce cfbe 5610 36be
000002b0: 5f7f d4be e4dd afbd a0a4 99be 4630 cb3d
000002c0: e8bd 00bf fbd5 89be 856d ac3e 9746 57be
000002d0: 80ec 79be 5ae8 b3be cac1 073f 1fde b33d
000002e0: 6326 94bd 3f57 abbe 6e61 cebd 698a 98be
000002f0: 8724 a2be c3ea 1abe e598 a3bd c8bf dd3d
00000300: 5a4e 383e 1e99 ba3d f335 ca3b 018a cb3b
00000310: 4063 b13d 2631 0e3e a652 38be a82d 983e
00000320: ef6b b13e 18ff 63bd 2c80 b03e f67a f3bd
00000330: 7ef8 623e c1b6 06be 2798 45bd 821e 01bd
00000340: 2bdd 1a3e 54a6 733d 9d6c 28be 6c12 eb3d
00000350: f10c 9e3e 1b93 213d 64cd b9be 7989 053f
00000360: 8c82 93be d287 77be 56fd 8fbe 19d2 40bd
00000370: 8913 f23e ecad b8be ac80 cbbd f248 0a3d
00000380: 3678 3a3d 480f 97be 95f7 163d 3acf d4bc
00000390: 8be0 423e 17c1 81bd d129 4cbd fdea 09be
000003a0: a994 40be a0bf 073f 8079 ab3e 765e 1fbe
000003b0: d800 3a3f 6361 9a3e 3c19 823e e303 99bd
000003c0: 30ac db3e 20ab 84be 21f8 b1bb 5a3e e2be
000003d0: 1acf a93c 19b5 d2be 1e6c b33d bc06 963e
000003e0: c42c bfbe afb3 133e 13fc 17bd 0773 893d
000003f0: 2bad 40be 8aa1 b7be ad17 bcbe 0e5b 81be

Actor.mean_fc3.bias f4 [17]
-0.075292245 0.16775554 0.17451607 0.024806896 -0.04314383 -0.14240856 0.15618025 0.11470861
0.055527143 0.08591715 0.0009983324 -0.056662496 0.08536307 0.10658297 0.09032048 0.016708422
-0.06244557
00000000: d232 9abd 1cc8 2b3e 57b4 323e d537 cb3c
00000010: 96b7 30bd 8dd3 11be b7ed 1f3e 59ec ea3d
00000020: 6e70 633d 55f5 af3d 7ada 823a ef16 68bd
00000030: d5d2 ae3d 2c48 da3d f2f9 b83d 1ae0 883c
00000040: edc6 7fbd

Actor.log_std_fc3.weight f4 [17, 32]
-0.26038203 -0.072382286 0.14133017 0.00078818947 0.10003047 0.1039255 0.36745858 0.15361689
0.12746742 -0.2750251 0.26908368 -0.08449225 -0.34773022 0.34429598 0.16022462 0.07027335
0.06866906 -0.5235139 0.03327283 0.15303315 -0.29048368 -0.0972398 0.19153199 0.1504781
0.14948614 -0.03821948 0.040164717 0.12709764 0.3361876 -0.23534648 -0.01871929 -0.104824126
0.4060018 -0.10561672 -0.29168797 0.16825631 -0.07905592 0.29363635 0.16795105 0.34801796
-0.024005223 -0.0880304 0.24110444 -0.0013127141 0.1618019 0.30025175 -0.0024817456 -0.08268761
-0.058088742 0.16404982 -0.39424872 0.5939657 0.12154615 0.010077033 0.15666842 -0.049953066
0.33868724 0.17032379 0.3095245 0.5269147 0.022439662 0.014301496 0.12128679 -0.053550147
0.0992185 -0.42193896 0.088727385 0.36462548 -0.16982009 -0.428624 0.12145271 -0.5802088
-0.54866505 0.16071776 0.38078377 -0.0017662551 0.19710746 0.374801 0.13795908 -0.34730503
-0.37970138 0.17753573 -0.23086272 0.47665647 -0.12571979 0.17281626 -0.01990976 -0.1092304
-0.24965471 -0.34515044 0.12493929 0.18833975 0.24299614 -0.1523604 0.116450265 0.2726246
-0.03540921 0.10662064 0.28926936 0.41440424 -0.18309121 0.028673852 -0.21359818 -0.4587421
-0.39879602 0.037067026 0.27800897 -0.24571334 0.17679371 0.12396085 0.23117454 -0.2569926
0.1903081 0.076715216 0.18202023 0.0797847 0.27290183 -0.058570117 -0.11307935 0.1114656
-0.05598115 -0.12957662 -0.019489683 -0.0496995 0.059002817 -0.28541833 -0.056278117 0.052453093
0.2849418 0.6225734 -0.03982912 -0.04515561 0.1780953 0.2516508 -0.29077217 -0.046236537
0.2393818 -0.3792513 0.30526245 -0.0067435345 0.18358767 -0.14057112 0.40514 -0.25476515
0.22048798 -0.2796249 0.19417702 0.50265795 0.112630874 -0.11069041 -0.37570748 -0.63213193
-0.032064553 -0.0887558 0.12726693 0.11379385 0.13502364 -0.109045535 -0.24818559 0.22524706
0.076029435 0.08599486 -0.32015547 0.23114511 0.31390026 0.045920398 -0.31501687 -0.3237201
-0.25019568 -0.22495782 -0.2272216 0.0011894554 -0.1632767 0.16713582 -0.088946044 0.37534338
0.022848569 0.24411605 -0.122709215 0.24133147 0.5312647 0.6850772 0.10872775 -0.0309284
-0.0911305 0.14451867 0.27923942 -0.33173254 0.24167512 -0.00037026964 0.07768427 -0.4495283
0.0008787997 0.21703508 -0.23161972 -0.112604775 0.22390303 0.7120256 0.28984448 -0.12099706
-0.17427829 0.3640647 -0.0055242768 -0.11300485 0.084711805 -0.41371092 0.18429068 -0.25247917
-0.040936265 -0.1278688 -0.01429053 -0.33026704 -0.13349149 -0.13102022 0.3764797 -0.26041222
0.30535892 -0.15230021 -0.1819641 0.005013477 -0.2916303 0.23476426 -0.23234102 -0.32995537
0.27183262 -0.15216312 -0.51166224 -0.0396218 0.05300266 0.081246406 -0.01820551 -0.18826272
0.25260824 0.07896751 0.059489727 0.2340165 0.2573467 0.021848636 -0.26928732 -0.06906507
-0.64954925 -0.31938922 0.15574893 0.061891194 0.4226733 -0.1793682 -0.015766434 0.1371998
0.1526691 -0.0062374994 0.14014533 0.044357438 0.2525297 0.36261517 -0.22341752 -0.3440993
00000000: cb50 85be 2a3d 94bd dbb8 103e 809e 4e3a
00000010: c6dc cc3d e4d6 d43d 8823 bc3e bf4d 1d3e
00000020: d286 023e 17d0 8cbe 56c5 893e 460a adbd
00000030: b209 b2be 9047 b03e ec11 243e 79eb 8f3d
00000040: 5da2 8c3d 0205 06bf 1749 083d b9b4 1c3e
00000050: 47ba 94be a925 c7bd f620 443e ee16 1a3e
00000060: e512 193e 088c 1cbd c283 243d e225 023e
00000070: c820 ac3e abfe 70be 3259 99bc 08ae d6bd
00000080: 78df cf3e 944d d8bd 2058 95be 624b 2c3e
00000090: 12e8 a1bd 8157 963e 5cfb 2b3e 692f b23e
000000a0: 9aa6 c4bc 4849 b4bd 15e4 763e 600f acba
000000b0: 66af 253e 99ba 993e c8a4 22bb 1f58 a9bd
000000c0: 76ee 6dbd adfc 273e f8da c9be 230e 183f
000000d0: 30ed f83d 241a 253c b06d 203e 969b 4cbd
000000e0: 6a68 ad3e 5c69 2e3e ff79 9e3e e2e3 063f
000000f0: 62d3 b73c d250 6a3c 3565 f83d 6657 5bbd
00000100: 1233 cb3d 6208 d8be b4b6 b53d 31b0 ba3e
00000110: 51e5 2dbe 9b74 dbbe 33bc f83d 9088 14bf
00000120: 5075 0cbf 3293 243e 17f6 c23e b081 e7ba
00000130: 8ad6 493e ebe5 bf3e 2545 0d3e f7d1 b1be
00000140: 3868 c2be edcb 353e 4767 6cbe 510c f43e
00000150: b0bc 00be bff6 303e cb19 a3bc 30b4 dfbd
00000160: 7ca5 7fbe 8fb7 b0be 2ce0 ff3d 23dc 403e
00000170: fbd3 783e 5d04 1cbe 7a7d ee3d 7495 8b3e
00000180: 3f09 11bd ec5b da3d 1d1b 943e cb2c d43e
00000190: 437c 3bbe 6de5 ea3c 7bb9 5abe 3fe0 eabe
000001a0: fe2e ccbe 98d3 173d 3157 8e3e 479c 7bbe
000001b0: 6909 353e 30df fd3d 05b9 6c3e 8994 83be
000001c0: 20e0 423e de1c 9d3d 8363 3a3e 2966 a33d
000001d0: cab9 8b3e 38e7 6fbd 2596 e7bd 1448 e43d
000001e0: 7e4c 65bd bcaf 04be d4a8 9fbc b491 4bbd
000001f0: f0ac 713d 5a22 92be e283 66bd 0ed9 563d
00000200: e4e3 913e f860 1f3f dc23 23bd 17f5 38bd
00000210: 9d5e 363e 60d8 803e 17e0 94be 8662 3dbd
00000220: 8120 753e 3a2d c2be 5c4b 9c3e def8 dcbb
00000230: 68fe 3b3e e0f1 0fbe 836e cf3e 9470 82be
00000240: 9ac7 613e ff2a 8fbe 57d6 463e 31ae 003f
00000250: 04ab e63d a7b1 e2bd bb5c c0be 66d3 21bf
00000260: 1f56 03bd 9ac5 b5bd 4352 023e c00c e93d
00000270: a343 0a3e 4453 dfbd 5d24 7ebe 2aa7 663e
00000280: 52b5 9b3d 131e b03d 6beb a3be 4eb1 6c3e
00000290: 89b7 a03e 0717 3c3d e449 a1be a4be a5be
000002a0: a619 80be 585b 66be c7ac 68be 80e7 9b3a
000002b0: 0232 27be a725 2b3e 5829 b6bd 022d c03e
000002c0: ec2c bb3c 8ff9 793e f84e fbbd 991f 773e
000002d0: f700 083f 3861 2f3f a8ac de3d 8e5d fdbc
000002e0: a1a2 babd b4fc 133e 78f8 8e3e d9d8 a9be
000002f0: af79 773e c020 c2b9 ee18 9f3d 9328 e6be
00000300: 405f 663a 723e 5e3e b82d 6dbe 559d e6bd
00000310: d646 653e 4f47 363f 7f66 943e 4ecd f7bd
00000320: 0276 32be b066 ba3e fe04 b5bb 166f e7bd
00000330: 627d ad3d ebd1 d3be b2b6 3c3e f344 81be
00000340: c9ac 27bd 0af0 02be d422 6abc c318 a9be
00000350: feb1 08be 2a2a 06be f2c1 c03e c054 85be
00000360: 0158 9c3e 96f4 1bbe cc54 3abe 1848 a43b
00000370: 9150 95be 0b66 703e ceea 6dbe e9ef a8be
00000380: a52d 8b3e a6d0 1bbe 4cfc 02bf 784a 22bd
00000390: 5119 593d 8464 a63d b923 95bc f1c7 40be
000003a0: de55 813e b8b9 a13d 80ab 733d 05a2 6f3e
000003b0: f2c2 833e e9fb b23c 07e0 89be fd71 8dbd
000003c0: dc48 26bf fc86 a3be a67c 1f3e 9f81 7d3d
000003d0: a368 d83e 4cac 37be 9c28 81bc 1b7e 0c3e
000003e0: 4a55 1c3e f063 ccbb 4282 0f3e 25b0 353d
000003f0: 934b 813e b2a8 b93e 90c7 64be c92d b0be

Actor.log_std_fc3.bias f4 [17]
-0.030228674 0.04521165 -0.093917474 -0.0739872 -0.07875656 -0.0068880673 0.0072086137 -0.18725264
-0.14011556 0.051598713 -0.017417192 0.07804999 0.0026825909 -0.068713345 0.009800672 0.088857844
0.01900409
00000000: 20a2 f7bc da2f 393d ce57 c0bd 9a86 97bd
00000010: 1f4b a1bd 4cb5 e1bb 3c36 ec3b 28bf 3fbe
00000020: 747a 0fbe 2c59 533d 80ae 8ebc acd8 9f3d
00000030: 68ce 2f3b 95b9 8cbd ff92 203c 1afb b53d
00000040: 77ae 9b3c

Critic.fc1.weight f4 [32, 378]
-0.013680562 0.02790416 0.040195376 -0.0274273 0.049769875 -0.018957293 0.041871756 -0.005290634
-0.030357 0.026937623 0.055656523 -0.011550055 0.031407923 0.02215464 0.043138657 -0.013515572
0.020537626 0.027359748 -0.010540186 -0.03160095 -0.024147183 -0.047074363 0.02128505 -0.00056985114
0.031424996 -0.034675807 0.035019424 -0.0026982948 0.033428025 0.05630604 -0.05683434 -0.011036056
-0.0053648264 -0.043771043 -0.027582362 -0.03510931 -0.05768198 -0.03314758 -0.027721684 -0.05952847
0.050457858 0.034264125 0.005050009 -0.018593887 0.037772536 0.020368125 0.029943261 0.043412503
0.023078403 -0.04327763 0.043295313 0.05061612 0.026652163 -0.019515457 0.030797228 -0.013544049
1.6910579e-05 0.019266663 -0.025135923 0.012790424 -0.013294343 -0.05685155 -0.034404602 0.03740952
-0.03514634 -3.1465665e-05 0.010699012 -0.0011042794 -0.021779235 -0.0071847304 0.04353738 -0.052285362
0.033599228 0.048989028 -0.026400011 -0.052099116 0.038453005 0.0036913184 -0.03141471 0.025752936
-0.033181544 0.016433092 0.03238493 -0.016296742 0.037292738 0.015974456 0.011508681 -0.015764002
-0.018501168 -0.060641885 0.0073037613 0.031057369 0.008142996 -0.008094996 0.0207038 0.0147458315
0.03373323 -0.056139175 -0.023236107 -0.020457268 0.040744748 -0.042478744 0.04913313 -0.05627726
-0.005450052 0.058538888 0.010805259 0.0077894023 -0.04517492 -0.006018753 -0.0205912 0.031928066
0.018658113 -0.013911779 0.037068382 0.008241077 0.04118848 0.03322041 0.04002321 0.015205609
-0.022247352 -0.047431406 -0.034038775 -0.015861709 -0.017983483 0.03348525 -0.050195307 -0.030244973
-0.04501219 -0.0017452184 0.013562176 0.040664878 0.0152712 0.050929535 0.00050683506 -0.04132253
-0.045497965 -0.010427173 0.029245412 -0.057062566 -0.0492974 0.048622407 -0.020160833 -0.016357467
-0.030662771 0.046278156 -0.008155373 -0.021950964 -0.040877774 0.0027204407 -0.039334916 0.01813903
-0.016345704 -0.0065422077 0.05006343 -0.006422541 -0.0040418045 -0.03767127 -0.0497206 -0.012278682
0.019754613 0.04919105 -0.00999494 -0.022246959 0.006786202 -0.009480209 0.005751119 -0.04911096
-0.024232144 0.0015375186 0.03357584 0.036553085 0.027130933 0.007513633 0.029683046 -0.052803595
-0.0023799324 0.014688231 -0.050240804 0.032560058 0.0010347497 -0.013919614 -0.024916153 0.01948556
0.030064676 -0.05193507 -0.03309906 0.030964084 -0.034170296 0.013612832 -0.041472573 -0.025933377
0.020920722 0.041732557 0.03980769 0.013254857 0.012260988 0.018393409 -0.033970356 0.015377535
0.055147115 -0.021319205 -0.060740437 0.055706672 0.047330264 0.05110198 0.04338836 -0.038706914
0.009723704 0.02993527 0.050585743 0.0012061857 -0.035723906 -0.02710461 -0.0022621844 2.4922192e-05
0.03751546 0.04963877 0.034437034 0.043174677 0.0040501403 0.011552037 0.00046981592 0.049799785
0.0502826 -0.013768089 -0.018425103 0.016180588 0.057123654 -0.034949504 -0.03365135 0.04552827
0.007798695 0.010856656 0.044044323 0.013378722 0.027023293 0.028307147 0.006592082 -0.003269489
-0.008367219 -0.030681524 -0.051575206 0.05966883 0.017880106 0.030391328 0.009185011 -0.052917965
-0.0287634 -0.028467096 0.0148969395 -0.016801443 0.039853036 0.03624478 0.044553287 0.051711753
00000000: 7024 60bc 4497 e43c e8a3 243d 38af e0bc
00000010: 7fdb 4b3d 534c 9bbc b881 2b3d 0e5d adbb
00000020: 3eaf f8bc 4aac dc3c 18f8 633d 713c 3dbc
00000030: 98a5 003d a67d b53c 29b2 303d 6b70 5dbc
00000040: 863e a83c 8d21 e03c bfb0 2cbc ff6f 01bd
00000050: 50d0 c5bc 0cd1 40bd fc5d ae3c 1062 15ba
00000060: 7fb7 003d 3808 0ebd 8770 0f3d e0d5 30bb
00000070: d3eb 083d 2aa1 663d 20cb 68bd 93d0 34bc
00000080: 6dcb afbb 4449 33bd 68f4 e1bc c8ce 0fbd
00000090: f143 6cbd c2c5 07bd 9618 e3bc 20d4 73bd
000000a0: e6ac 4e3d 8a58 0c3d 8c7a a53b 3552 98bc
000000b0: 60b7 1a3d 0edb a63c 924b f53c 4fd1 313d
000000c0: eb0e bd3c e243 31bd 6d56 313d d952 4f3d
000000d0: a355 da3c e1de 9fbc 784a fc3c dce7 5dbc
000000e0: 31db 8d37 1fd5 9d3c dae9 cdbc ed8e 513c
000000f0: 84d0 59bc 2cdd 68bd d7eb 0cbd ba3a 193d
00000100: 9cf5 0fbd 00fa 03b8 e94a 2f3c 78bd 90ba
00000110: 5e6a b2bc e36d ebbb 4054 323d 2d29 56bd
00000120: 589f 093d b8a8 483d d644 d8bc e265 55bd
00000130: e680 1d3d 0cea 713b b6ac 00bd d2f7 d23c
00000140: 5fe9 07bd b19e 863c 0fa6 043d bf80 85bc
00000150: 45c0 183d dddc 823c e88e 3c3c 8223 81bc
00000160: c38f 97bc a063 78bd 6454 ef3b 066c fe3c
00000170: 336a 053c e0a0 04bc 049b a93c 8098 713c
00000180: db2b 0a3d 31f2 65bd a659 bebc 0096 a7bc
00000190: f7e3 263d 31fe 2dbd d23f 493d fc82 66bd
000001a0: 5a96 b2bb 79c6 6f3d 8b08 313c 3e3e ff3b
000001b0: 5609 39bd f638 c5bb e0ae a8bc 01c7 023d
000001c0: e6d8 983c 3bee 63bc 04d5 173d 9505 073c
000001d0: 40b5 283d 2012 083d 61ef 233d f220 793c
000001e0: 1440 b6bc 6f47 42bd 3e6c 0bbd 6af0 81bc
000001f0: 1952 93bc d427 093d 9899 4dbd 4ec4 f7bc
00000200: b45e 38bd d0bf e4ba e433 5e3c 3790 263d
00000210: 0e34 7a3c 7d9b 503d 20dd 043a d041 29bd
00000220: 135c 3abd bcd6 2abc 1394 ef3c 70ba 69bd
00000230: 12ec 49bd 4a28 473d 5528 a5bc 1800 86bc
00000240: 7e30 fbbc 2a8e 3d3d 1d9e 05bc 82d2 b3bc
00000250: 746f 27bd 6c49 323b a61d 21bd 4e98 943c
00000260: 6de7 85bc 0460 d6bb 500f 4d3d 2e74 d2bb
00000270: 1d71 84bb 314d 1abd d4a7 4bbd 862c 49bc
00000280: 6dd4 a13c 8e7c 493d d1c1 23bc 413f b6bc
00000290: ca5e de3b e152 1bbc e273 bc3b 9328 49bd
000002a0: 7d82 c6bc 9086 c93a d286 093d b0b8 153d
000002b0: b141 de3c ec34 f63b dc29 f33c 9548 58bd
000002c0: a4f8 1bbb e8a6 703c 4dc9 4dbd b25d 053d
000002d0: 70a0 873a 180f 64bc f61c ccbc 2ea0 9f3c
000002e0: 324a f63c deb9 54bd e192 07bd 64a8 fd3c
000002f0: 27f6 0bbd 5b08 5f3c 25df 29bd 3c72 d4bc
00000300: ef61 ab3c c2ef 2a3d 630d 233d e62a 593c
00000310: 50e2 483c c6ad 963c 8024 0bbd 0ef2 7b3c
00000320: f1e1 613d 9da5 aebc f7ca 78bd ae2c 643d
00000330: 61dd 413d 4f50 513d feb7 313d 248b 1ebd
00000340: 2c50 1f3c d03a f53c ff32 4f3d e018 9e3a
00000350: 3b53 12bd 7d0a debc 2841 14bb 0010 d137
00000360: d0a9 193d 0652 4b3d d90d 0d3d eed7 303d
00000370: 0ab7 843b c144 3d3c a051 f639 dcfa 4b3d
00000380: 21f5 4d3d 8d93 61bc 3ef0 96bc 278d 843c
00000390: 7efa 693d 3627 0fbd ffd5 09bd da7b 3a3d
000003a0: 328c ff3b 1ee0 313c d267 343d 6d32 5b3c
000003b0: f45f dd3c 64e4 e73c 6402 d83b ec44 56bb
000003c0: a916 09bc d257 fbbc 8640 53bd 4e67 743d
000003d0: 4d79 923c 3cf7 f83c ba7c 163c 82c0 58bd
000003e0: 39a1 ebbc d433 e9bc 4b12 743c 2ea3 89bc
000003f0: f03c 233d 6875 143d 827d 363d b4cf 533d

Critic.fc1.bias f4 [32]
-0.029507173 -0.015719693 0.03352893 0.039320245 0.002406462 -0.032693654 0.020243283 0.039225675
-0.0015996573 -0.041216448 -0.010802919 -0.012405444 0.015439069 0.061416477 -0.053348735 -0.045217853
-0.022061914 -0.021763787 0.020456608 0.047748 -0.04105369 0.0397842 -0.01530575 -0.024070702
0.017484184 0.05805551 -0.035898842 0.011991708 0.022679426 0.008839599 -0.0117768105 0.010738918
00000000: 07b9 f1bc 96c6 80bc a255 093d 440e 213d
00000010: bcb5 1d3b c8e9 05bd 3ed5 a53c 1aab 203d
00000020: 98ab d1ba 94d2 28bd bafe 30bc 3440 4bbc
00000030: 26f4 7c3c d88f 7b3d 3484 5abd 5b36 39bd
00000040: 30bb b4bc f849 b2bc 9e94 a73c 6893 433d
00000050: ea27 28bd c2f4 223d f8c4 7abc ec2f c5bc
00000060: fe3a 8f3c 9dcb 6d3d aa0a 13bd de78 443c
00000070: 34ca b93c f7d3 103c 86f3 40bc 49f2 2f3c

Critic.fc2.weight f4 [32, 32]
0.1582584 -0.10767271 0.18159373 0.123698436 -0.02943974 0.18544005 -0.060120575 -0.10607447
-0.1406668 -0.13702205 0.104825936 -0.1468431 0.14018574 0.06935897 -0.08191149 0.06251287
0.11868795 -0.08778463 0.15567896 -0.09587488 0.02501633 0.081975065 -0.060039718 0.1612681
-0.06984483 0.0737172 0.15911062 0.02837889 -0.019044258 -0.047106195 -0.08995694 -0.006976608
-0.007554857 0.14719403 0.008829771 0.18545286 -0.06292924 -0.05304821 0.0059944256 -0.15911275
-0.05078547 -0.095898405 -0.01489393 0.120023124 0.0862966 0.12093767 0.14215873 -0.053469867
0.09892862 0.021710753 0.14771019 0.16450436 -0.15310708 -0.041871455 0.18212219 0.00033237692
-0.065996796 -0.050736032 0.16448863 0.11699854 -0.015896246 -0.111848 -0.042601775 0.02352214
-0.039873194 -0.057617586 -0.08881412 -0.060988847 -0.16771404 0.04311557 -0.14769953 -0.079488724
0.122640036 -0.06968792 -0.081535056 0.10862975 -0.12891293 0.07316899 0.0032772124 0.0033883327
0.113629654 0.116469085 0.07994842 0.09017993 -0.10565435 0.09950279 -0.100634955 0.11027013
-0.13541472 0.031642314 0.0385956 -0.066722654 0.01776302 -0.105270855 0.036421895 0.015261036
0.029576726 0.08839298 -0.022080429 -0.15436342 0.007018461 0.030434981 -0.01110615 -0.15065163
0.17296177 -0.043921962 -0.03547622 0.12659426 -0.13111976 -0.05790401 0.04880755 0.15619107
0.061182037 0.03485134 -0.050634228 0.042682983 0.018415313 -0.08086125 0.17892632 0.13299839
0.18180719 0.07914462 0.1081375 0.16830753 0.08766823 0.13263924 0.18260492 0.02473129
-0.14730166 -0.06854862 -0.05824834 0.06623733 -0.15734124 0.08241537 -0.18483156 0.0061285663
0.06668596 -0.1553829 -0.10805087 -0.016864814 0.11719089 0.13455848 -0.026841452 0.06354895
0.019771859 -0.1747192 0.065809324 -0.13095845 0.15357901 -0.09648375 -0.14661177 -0.05784274
-0.12471248 0.06657414 -0.038354523 -0.10919222 -0.10009997 -0.021168623 0.0036967555 0.058586206
0.06663844 -0.1759097 0.062609285 0.1046007 0.102996625 -0.10618378 0.12861988 -0.100545675
0.14627425 -0.16645499 -0.00390343 -0.08803613 -0.03735568 -0.004114338 0.0107418345 -0.113848165
-0.09960714 -0.14831743 0.0874083 0.15594964 -0.005309919 0.04734456 -0.038123917 -0.12090125
0.14515586 -0.0040194793 -0.024514468 0.17194849 -0.04192031 -0.13260655 -0.16408983 0.04268708
0.13779023 -0.09798983 -0.17395718 -0.12154643 0.03322556 0.11039644 0.09392448 0.15304849
0.10572488 -0.07835974 0.14094317 0.020665478 -0.098984785 -0.022960598 0.045437038 -0.03491692
0.0038677463 0.11423835 -0.087437265 -0.0014844816 -0.019918144 -0.12921345 0.08758888 -0.13586406
-0.08779846 -0.17458442 0.0048041437 -0.04886875 0.04210726 -0.036440276 -0.037671555 -0.11316955
-0.09200164 -0.14979091 -0.08755628 -0.1489135 -0.122343935 -0.119525135 0.071497664 -0.0638565
-0.10270779 0.1355826 -0.17109104 -0.0924995 -0.08458436 -0.15035859 0.1383982 0.17765655
-0.15132138 -0.031980854 0.12814476 -0.17047957 0.06041158 -0.02736597 0.12839583 0.035650887
-0.10100259 -0.17217664 -0.134778 0.14732069 0.033784363 0.02692956 -0.05749011 0.11394641
00000000: 7d0e 223e 8383 dcbd b5f3 393e 9b55 fd3d
00000010: 9c2b f1bc ffe3 3d3e fe40 76bd 923d d9bd
00000020: f50a 10be 824f 0cbe fbae d63d 0a5e 16be
00000030: da8c 0f3e 130c 8e3d 36c1 a7bd bf06 803d
00000040: ab12 f33d 6ec8 b3bd 4e6a 1f3e 0d5a c4bd
00000050: 0cef cc3c 8be2 a73d 35ec 75bd 7723 253e
00000060: ce0a 8fbd 0bf9 963d e5ed 223e d97a e83c
00000070: b402 9cbc 6df2 40bd 583b b8bd 089c e4bb
00000080: bc8e f7bb 08ba 163e beaa 103c 5be7 3d3e
00000090: 0ce1 80bd 1449 59bd e36c c43b 74ee 22be
000000a0: 6d04 50bd 6266 c4bd ac05 74bc afce f53d
000000b0: 46bc b03d 2bae f73d 0f92 113e 3803 5bbd
000000c0: 179b ca3d c0da b13c 5741 173e d573 283e
000000d0: 1ac8 1cbe 6781 2bbd 3d7e 3a3e e042 ae39
000000e0: 5429 87bd 96d0 4fbd b56f 283e ee9c ef3d
000000f0: d838 82bc 9010 e5bd 337f 2ebd 81b1 c03c
00000100: 1352 23bd 6b00 6cbd 2de4 b5bd 71cf 79bd
00000110: 3bbd 2bbe f499 303d 8c3e 17be fcca a2bd
00000120: b32a fb3d 8ab8 8ebd dafb a6bd 4679 de3d
00000130: c001 04be a0d9 953d 80c6 563b ca0e 5e3b
00000140: aab6 e83d 5887 ee3d ffbb a33d 41b0 b83d
00000150: 4f61 d8bd 1ec8 cb3d b319 cebd 4ed5 e13d
00000160: 28aa 0abe 5f9b 013d 6b16 1e3d e3a5 88bd
00000170: c183 913c 3f98 d7bd 202f 153d 6d09 7a3c
00000180: e44a f23c 6107 b53d 04e2 b4bc 7211 1ebe
00000190: 1efb e53b c852 f93c 92f6 35bc 6c44 1abe
000001a0: e41c 313e 84e7 33bd 834f 11bd eda1 013e
000001b0: 4244 06be c12c 6dbd 6dea 473d 8df0 1f3e
000001c0: 049a 7a3d 47c0 0e3d d665 4fbd 5ad4 2e3d
000001d0: b6db 963c 959a a5bd 7638 373e bb30 083e
000001e0: aa2b 3a3e 9316 a23d 3277 dd3d cf58 2c3e
000001f0: 678b b33d 95d2 073e c9fc 3a3e 4699 ca3c
00000200: 3fd6 16be 3863 8cbd d095 6ebd 70a7 873d
00000210: 101e 21be 64c9 a83d 7c44 3dbe 24d2 c83b
00000220: a692 883d b21c 1fbe c649 ddbd 1428 8abc
00000230: c701 f03d b3c9 093e 9be2 dbbc f425 823d
00000240: 98f8 a13c 97e9 32be 0ac7 863d f919 06be
00000250: d143 1d3e 4699 c5bd 6521 16be 82ec 6cbd
00000260: 4269 ffbd 0658 883d a219 1dbd 2ca0 dfbd
00000270: 3701 cdbd d269 adbc 4445 723b 17f8 6f3d
00000280: bc79 883d ac21 34be 4c39 803d e438 d63d
00000290: e5ef d23d e276 d9bd eeb4 033e e4ea cdbd
000002a0: ebc8 153e 2d73 2abe b0d0 7fbb 494c b4bd
000002b0: 4502 19bd 92d1 86bb 85fe 2f3c 3a29 e9bd
000002c0: d4fe cbbd 86e0 17be 1f03 b33d 43b1 1f3e
000002d0: d4fe adbb 5fec 413d d327 1cbd 139b f7bd
000002e0: bda3 143e d6b5 83bb 91d2 c8bc 4413 303e
000002f0: a2b4 2bbd 03ca 07be 2a07 28be a6d8 2e3d
00000300: e218 0d3e e4ae c8bd d521 32be 56ed f8bd
00000310: 8617 083d 8717 e23d 7a5b c03d beb8 1c3e
00000320: 4986 d83d 127b a0bd 6853 103e a64a a93c
00000330: 89b8 cabd dd17 bcbc 301c 3a3d 0b05 0fbd
00000340: 047a 7d3b ccf5 e93d 4f12 b3bd f092 c2ba
00000350: 602b a3bc 8850 04be cc61 b33d f31f 0bbe
00000360: aecf b3bd 42c6 32be 146c 9d3b 992a 48bd
00000370: aa78 2c3d 6642 15bd 7d4d 1abd 70c5 e7bd
00000380: 5b6b bcbd ca62 19be b550 b3bd c87c 18be
00000390: 758f fabd 98c9 f4bd 5e6d 923d 32c7 82bd
000003a0: 7658 d2bd 2ad6 0a3e 7d32 2fbe 6170 bdbd
000003b0: 913a adbd 9af7 19be 42b8 0d3e 99eb 353e
000003c0: fef3 1abe 5bfe 02bd 6138 033e 3292 2ebe
000003d0: 2272 773d 992e e0bc 327a 033e aa06 123d
000003e0: 72da cebd 134f 30be 3e03 0abe 3cdb 163e
000003f0: 7961 0a3d 619b dc3c c07a 6bbd bc5c e93d

Critic.fc2.bias f4 [32]
0.15667677 0.11239092 0.078747064 0.051122088 -0.07537427 -0.16988349 0.12438124 0.08906655
-0.10522915 -0.021808928 0.070991844 -0.1641741 -0.1536105 -0.17404737 -0.039715335 0.1575056
-0.08814958 -0.045911703 -0.02350211 0.16063099 -0.11453066 0.107290685 0.13154836 0.07023538
0.11577507 0.12500672 0.041685607 -0.1272617 -0.10197119 0.05768604 0.14763874 0.12714173
00000000: e06f 203e 362d e63d 2446 a13d 6565 513d
00000010: d35d 9abd f0f5 2dbe 97bb fe3d 8668 b63d
00000020: 6182 d7bd a3a8 b2bc 2c64 913d 411d 28be
00000030: 124c 1dbe 7939 32be 8cac 22bd 2649 213e
00000040: c487 b4bd e90d 3cbd 7f87 c0bc 737c 243e
00000050: 0d8f eabd 38bb db3d 9db4 063e 91d7 8f3d
00000060: 7b1b ed3d c301 003e 87be 2a3d e450 02be
00000070: 45d6 d0bd 3248 6c3d 9c2e 173e 7131 023e

Critic.fc3.weight f4 [1, 32]
0.02679225 0.16820674 -0.1505974 0.015923064 -0.16459607 -0.1576569 -0.10909909 -0.027008116
0.15443449 -0.02692602 0.095882334 -0.10933836 -0.06338181 -0.14276317 -0.055583395 -0.113120094
0.12104074 -0.1646077 0.18412219 -0.018899694 0.0405483 0.13195193 0.068728 -0.05601512
-0.09459963 0.070639074 -0.029719863 -0.058561668 -0.016920393 0.18250893 0.009957874 0.11722156
00000000: 6c7b db3c 633e 2c3e 3436 1abe 1671 823c
00000010: df8b 28be cf70 21be 586f dfbd 2040 ddbc
00000020: 1324 1e3e f593 dcbc f55d c43d caec dfbd
00000030: 53ce 81bd 8230 12be 6aab 63bd 82ab e7bd
00000040: 35e4 f73d ec8e 28be 878a 3c3e 88d3 9abc
00000050: f915 263d 681e 073e 44c1 8c3d 1c70 65bd
00000060: 73bd c1bd 38ab 903d 1277 f3bc 5cde 6fbd
00000070: a39c 8abc 9fe3 3a3e 5a26 233c db11 f03d
