model_0.pt (torch, 114732 bytes, 13 tensors)

Actor.fc1.weight f4 [32, 378]
0	0x3d2a506e	0.04158061
1	0x3d10ac00	0.035320282
2	0xbd23c674	-0.03998418
3	0xbd07ec6e	-0.03318446
4	0x3b37d6e0	0.002805166
5	0xbce1533d	-0.027505511
6	0x3d024402	0.03180314
7	0x3d07bc8a	0.03313879
8	0xbca9e010	-0.020736724
9	0xbd11e974	-0.03562303
10	0xbcf31022	-0.029670779
11	0x3d545e41	0.0518477
12	0x3cb85bb3	0.022504663
13	0xbd1523ed	-0.036411215
14	0x3d415872	0.04720349
15	0x3d0f0010	0.03491217
16	0xbd65e76e	-0.05612891
17	0xbcb89a3a	-0.022534478
18	0xbcad1d9e	-0.021132287
19	0x3cf24cd1	0.029577645
20	0x3ad85d78	0.0016507348
21	0x3d07a43b	0.033115607
22	0xbce68c86	-0.028143179
23	0xbc90f6f6	-0.017695885
24	0xbd0316f2	-0.032004304
25	0x3d5f295a	0.054482795
26	0x3c15a517	0.009133599
27	0xbd2dcfe4	-0.042434588
28	0x3ce3ff43	0.02783168
29	0x3bd6d5a8	0.0065562315
30	0x3ce11176	0.027474146
31	0xbc8a245a	-0.016863037
32	0x3d52a16a	0.051423468
33	0xbc39162a	-0.011296788
34	0x3c8aaff8	0.016929612
35	0x3d224a60	0.03962171
36	0x3d487516	0.048939787
37	0xbb55b910	-0.0032611527
38	0x3c80fe4f	0.015746264
39	0x3c732b05	0.0148418
40	0x3c4d0877	0.012514225
41	0x3d39d678	0.04537055
42	0xbc174a78	-0.009234063
43	0x3d483c98	0.04888591
44	0x3cc8004c	0.024414204
45	0x3d2f7212	0.042833395
46	0x3c35f410	0.011105552
47	0xbc1f55e2	-0.009725066
48	0xbcda2bab	-0.02663215
49	0x3c348724	0.011018548
50	0x3c0dec1d	0.008662251
51	0x3bdf78ca	0.006819819
52	0x3d063fbf	0.032775637
53	0x3c32874a	0.010896513
54	0x3d37b5ff	0.0448513
55	0x3cacf7e8	0.021114305
56	0xbd15c8f3	-0.036568593
57	0x3bc96cf6	0.0061470224
58	0xbcf530a0	-0.029930413
59	0xbcc8e7d3	-0.024524605
60	0x3d3f3b42	0.046687372
61	0xbd6cd5a6	-0.05782094
62	0x3cd207d3	0.025638497
63	0x3d25709e	0.040390603
64	0xbccc84ff	-0.024965761
65	0xbd17f73c	-0.037101015
66	0x3bbf13ee	0.005831233
67	0xbbfb420f	-0.007667787
68	0xbc1f553c	-0.009724911
69	0x3b57c134	0.0032921555
70	0xbd039aa2	-0.03212989
71	0xbb5af86a	-0.0033412226
72	0x3c3c8a92	0.011507647
73	0xbc8055f0	-0.015665978
74	0xbc979c26	-0.018507075
75	0xbd69c874	-0.057075933
76	0xbd5aef12	-0.05345065
77	0xbd63bcdf	-0.055600043
78	0xbcc17f4b	-0.023620268
79	0xbd2b228b	-0.04178099
80	0xbd16b460	-0.036793113
81	0xbc40bf9e	-0.011764435
82	0x3cbe8a1f	0.02325922
83	0xbb28951c	-0.0025723642
84	0x3c9c1300	0.019052029
85	0xbd3d2dd8	-0.046186298
86	0x3bb3915a	0.0054799737
87	0xbd75a33a	-0.059970118
88	0x3cd9c445	0.026582846
89	0xbcaebb78	-0.021329626
90	0xbd7a71ec	-0.0611438
91	0x3c87ba40	0.016568303
92	0xbcd3f9cd	-0.02587595
93	0xbd5a444a	-0.05328778
94	0x3d71d3b7	0.059039798
95	0x3caf4aba	0.021397937
96	0xbcdf3234	-0.027245618
97	0xbcf838d8	-0.030300543
98	0xbd4a517a	-0.04939411
99	0x3c259136	0.010105422
100	0x3cceeccc	0.025259398
101	0xbc250714	-0.010072488
102	0xbcd372c8	-0.025811568
103	0x38359c00	4.329905e-05
104	0xbc7ab7eb	-0.0153026385
105	0xbd2542f0	-0.04034704
106	0xbd210327	-0.039309647
107	0x3ca9b38c	0.020715497
108	0xbd027e8f	-0.031858977
109	0x3ceeb3cc	0.029138468
110	0xbcd8c7c2	-0.02646244
111	0x3d50803a	0.050903536
112	0xbd2036e2	-0.03911484
113	0x3c31a76b	0.010843138
114	0x3c922e64	0.017844386
115	0xbce5ac20	-0.028036177
116	0xbcbb16fc	-0.022838108
117	0xbb144c5c	-0.0022628522
118	0xbce76ef4	-0.028251149
119	0xb77e0c00	-1.5142374e-05
120	0x3c69d060	0.014270872
121	0xbbdd2c42	-0.0067496607
122	0xbc29b507	-0.010358102
123	0xbd1db53b	-0.038502913
124	0xbc8c88fa	-0.01715516
125	0xbd0c07f8	-0.034187287
126	0x3b1f8bb8	0.0024344753
127	0x3cac53df	0.021036087
128	0x3d24d286	0.040239833
129	0xbbfe9cdc	-0.007770164
130	0x3b103670	0.0022005104
131	0x3ca17177	0.019707425
132	0xbd721296	-0.059099756
133	0xbccb5f54	-0.02482573
134	0x3bab1df8	0.0052220784
135	0x3d594f42	0.0530541
136	0xbd611678	-0.05495307
137	0x3cc4a32c	0.024003588
138	0xbc43f927	-0.011961258
139	0x3cbc24b9	0.02296673
140	0xbd0fe457	-0.03512987
141	0xbcc8b340	-0.024499536
142	0xbd3516fa	-0.044211365
143	0x3cb173e4	0.021661706
144	0xbc78fd02	-0.0151970405
145	0xbc5b374b	-0.013379882
146	0xbc10bd16	-0.008834144
147	0xbd4e0562	-0.050298102
148	0xbca87c2b	-0.02056702
149	0x3cc04d04	0.023474224
150	0x3cce0914	0.025150813
151	0x3bd66850	0.0065431967
152	0x3cac2688	0.021014467
153	0x3d272fe5	0.04081716
154	0x3c722f70	0.014781818
155	0x3ce7d03a	0.028297532
156	0x3ce29919	0.027660893
157	0xbc143d0c	-0.009047758
158	0xbd06f61b	-0.03294955
159	0xbd15459c	-0.036443338
160	0xbd45d4ac	-0.048298523
161	0x3cdcd63d	0.026957626
162	0xbc1f5e4a	-0.00972707
163	0xbd01071b	-0.031500917
164	0xbd09ccd9	-0.033642624
165	0xbd43f82b	-0.047844093
166	0x3cd51799	0.026012229
167	0xbbedff3d	-0.007263093
168	0xbd0452b7	-0.032305446
169	0xbd27e836	-0.040992938
170	0xbcbff0e1	-0.02343029
171	0xbc3a0e37	-0.011355928
172	0xba1b2350	-0.0005918043
173	0x3cc728bf	0.024311421
174	0x3d0c8c70	0.03431362
175	0x3c4183f3	0.011811244
176	0x3bb8863c	0.0056312364
177	0xbd436bc8	-0.04771021
178	0x3c883701	0.01662779
179	0xb8ef9780	-0.00011424627
180	0x3d76f9af	0.06029671
181	0xbcbf8f1a	-0.023383666
182	0xbc4c223a	-0.012459332
183	0xbd43b3ea	-0.047779
184	0x3c2e65bb	0.010644372
185	0x3c5f2940	0.013620675
186	0xbd538bb6	-0.05164691
187	0x3a7a5b70	0.00095503684
188	0xbcccd0a3	-0.02500183
189	0xba2a641e	-0.0006499904
190	0xbd231671	-0.039816324
191	0x3d1bd691	0.038046423
192	0x3d0c4939	0.034249518
193	0x3c59c59a	0.013291741
194	0xbc285573	-0.010274279
195	0xbcfc8e71	-0.03082964
196	0x3d4a0d30	0.049328983
197	0xbd6eea31	-0.05832881
198	0x3ca4a893	0.020099914
199	0xbd06a43e	-0.032871477
200	0xbd16124a	-0.036638536
201	0xbaa40780	-0.0012514442
202	0x3cebbe60	0.028777301
203	0xbc5f8008	-0.013641365
204	0x3cb03d3a	0.02151357
205	0xbd2ccf73	-0.042190026
206	0x3c4a1cca	0.012335965
207	0xbc2696f5	-0.010167827
208	0x3cc803a6	0.024415802
209	0x3d1b74a4	0.037953034
210	0xbd0cfbca	-0.034419812
211	0x3d68b6e8	0.056815058
212	0xbcb20aa8	-0.021733597
213	0xbc0ecae8	-0.008715369
214	0x3cb1b718	0.021693751
215	0xbd35c21f	-0.04437458
216	0x3b53508e	0.003224406
217	0x3d4c8d1d	0.049939264
218	0x3d19dab1	0.037562076
219	0x3c2be05e	0.010490505
220	0xbd4caac0	-0.049967527
221	0x3d10164c	0.035177514
222	0x3c422685	0.011850004
223	0x3cfa0d12	0.03052381
224	0x3d1a61c4	0.037690893
225	0x3d0049e1	0.031320456
226	0x3a35f390	0.00069408957
227	0x3c270fcf	0.01019664
228	0xbcb907fa	-0.022586811
229	0xbd07c7bc	-0.033149466
230	0x3d6c2786	0.05765488
231	0x3c58b378	0.013226382
232	0x3d6daa30	0.05802363
233	0xbcfe10dd	-0.0310139
234	0xbd682726	-0.05667796
235	0x3b971a3e	0.0046112826
236	0xbd390943	-0.04517485
237	0x3b881a7e	0.0041535487
238	0xbcad297c	-0.021137945
239	0x3c22599c	0.00990906
240	0xbb1260b4	-0.0022335472
241	0x3d191a86	0.03737881
242	0xbd1fcff3	-0.039016675
243	0x3b291ae2	0.0025803377
244	0xbbc39f9a	-0.0059699537
245	0xbd606930	-0.054787815
246	0x3cb1a890	0.021686822
247	0xbcd32b3f	-0.025777457
248	0x3ba83f25	0.0051344805
249	0x3d123f68	0.035705
250	0x3d11951a	0.035542585
251	0xbb3fddfc	-0.00292766
252	0x3d75ac4b	0.059978765
253	0x3cfd594c	0.03092637
254	0xbd37e6c2	-0.044897802
255	0xbd28baa0	-0.041193604

Actor.fc1.bias f4 [32]
0	0xbc05694a	-0.008142779
1	0x3c9d2ab6	0.019185405
2	0x3d0b5218	0.034013838
3	0xbd06ff33	-0.03295822
4	0x3cf39f28	0.029738978
5	0x3b971274	0.004610354
6	0x3ccf555c	0.025309257
7	0xbd727752	-0.059195824
8	0xbbffd8e0	-0.007807836
9	0x3c60a126	0.013710296
10	0xbd54dcf0	-0.051968515
11	0x3d28eb8a	0.041240253
12	0xbd5519e4	-0.052026644
13	0xbd555110	-0.05207926
14	0x3a79c1b0	0.0009527458
15	0x39883d40	0.00025985576
16	0xbc74066d	-0.01489411
17	0xbbf9e4f6	-0.007626171
18	0xbc18d812	-0.009328859
19	0xbd21ad8c	-0.039472148
20	0x3c5d750c	0.013516676
21	0x3cc6b3ed	0.024255717
22	0x3d3386c4	0.043829694
23	0xbd2c5903	-0.042077076
24	0x3cbff068	0.023430064
25	0xbd6cac92	-0.057781763
26	0xbc3eb0ba	-0.011638815
27	0xbcab32ee	-0.020898309
28	0xbbaf958e	-0.0053584045
29	0x3d168a4a	0.036752976
30	0xbc68fc06	-0.014220243
31	0x3d6e4d5e	0.05817925

Actor.fc2.weight f4 [32, 32]
0	0xbb9a4dfd	-0.004709004
1	0xbd80a048	-0.06280571
2	0xbd5f699a	-0.05454407
3	0xbd8c0a3f	-0.06837892
4	0xbe12f37c	-0.14350694
5	0xbe2c9e72	-0.16857317
6	0x3da0fa40	0.078602314
7	0xbdfd8e72	-0.12380685
8	0xbe28129e	-0.16413352
9	0xbe3072ac	-0.17231244
10	0x3e0f838d	0.14015026
11	0x3d014f56	0.0315698
12	0xbd8bf191	-0.068331845
13	0x3d9eb666	0.077496335
14	0xbd8000ff	-0.0625019
15	0xbd8d068d	-0.06886015
16	0x3dae19e9	0.08501036
17	0xbd4b4a9e	-0.049631707
18	0x3cb4ecb0	0.022085518
19	0x3de7cebb	0.113187276
20	0xbe01636e	-0.12635586
21	0xbc973772	-0.018459056
22	0x3c86acef	0.016439883
23	0xbe1c2a04	-0.15250403
24	0x3d7bfcdd	0.061520446
25	0x3d276cf8	0.040875405
26	0xbe342707	-0.17593013
27	0x3d92f601	0.07175828
28	0xbdd73595	-0.10508267
29	0xbe246d49	-0.16057314
30	0xbe005ba6	-0.12534961
31	0xbe24ddc3	-0.1610022
32	0x3dd7b75e	0.105330214
33	0xbddaacc3	-0.10677483
34	0x3d11ee31	0.035627548
35	0x3dc0beb1	0.094113715
36	0xbe0a7358	-0.13520563
37	0xbd54a8f4	-0.05191894
38	0x3c24c328	0.0100562945
39	0xbda3bb6a	-0.07994731
40	0x3e1de537	0.1541947
41	0xbe2ec6b2	-0.17067984
42	0xbc417448	-0.011807509
43	0xbe17e7f5	-0.14834578
44	0x3dfcffa1	0.12353445
45	0xbda1d385	-0.07901672
46	0x3dca89bc	0.09889552
47	0xbdcb5b09	-0.09929473
48	0xbd16b2bc	-0.036791548
49	0x3d73e51a	0.05954466
50	0xbc22ccdb	-0.009936537
51	0x3e2156b2	0.15755728
52	0xbe0bdc6c	-0.13658303
53	0xbd2220b9	-0.039581988
54	0x3d763198	0.06010589
55	0x3e1b3f22	0.15160802
56	0xbdfb7490	-0.12278092
57	0xbd3cc2b0	-0.046084106
58	0x3e0bbc2e	0.13646004
59	0xbe0f14ef	-0.1397283
60	0x3dbbc83b	0.0916905
61	0x3d3cfe0d	0.04614072
62	0xbd6d1126	-0.057877682
63	0x3cc502e8	0.024049237
64	0xbe15c7b1	-0.14626957
65	0x3cc5977d	0.024120087
66	0x3d1c01e6	0.038087748
67	0x3bd21fcc	0.006412482
68	0xbddd457c	-0.10804269
69	0xbdc3a590	-0.09553063
70	0xbcdc08ea	-0.02685972
71	0xbdb052d2	-0.08609547
72	0x3cc94b77	0.024572117
73	0x3e106558	0.1410116
74	0xbe282cc0	-0.16423321
75	0x3d923dd8	0.07140702
76	0x3e2f4ff3	0.17120342
77	0x3e005f77	0.12536417
78	0xbe2ba3a6	-0.16761646
79	0xbe295017	-0.16534458
80	0xbe1b8b42	-0.15189841
81	0xbd35a123	-0.044343125
82	0x3dd2e696	0.10297887
83	0x3b3e3e98	0.0029029008
84	0x3d8c0b7a	0.068381265
85	0x3e0351d9	0.12824191
86	0x3e2de580	0.16982079
87	0xbe21a3e8	-0.15785182
88	0x3e08b46f	0.1335008
89	0xbcec25af	-0.028826563
90	0xbdd7a9a9	-0.10530407
91	0x3d2b48aa	0.041817345
92	0x3d742a5e	0.059610717
93	0xbdcd8c53	-0.1003653
94	0x3d934f28	0.07192832
95	0xbd513c7b	-0.05108307
96	0x3cb1be34	0.021697141
97	0xbe1def28	-0.15423262
98	0xbe3472a2	-0.17621854
99	0xbcde147d	-0.027109379
100	0x3e1a5abc	0.15073675
101	0xbd962d8c	-0.07332906
102	0x3d93f1a9	0.072238274
103	0x3e2be135	0.16785128
104	0x3e1e5699	0.15462722
105	0x3d06bbf0	0.032894075
106	0xbda5d36b	-0.080969654
107	0xbe03a6be	-0.12856576
108	0xbe0bd914	-0.13657027
109	0xbd949206	-0.07254414
110	0xbe2bc62a	-0.16774812
111	0x3d784cf1	0.060620252
112	0x3d9bc6bc	0.07606265
113	0x3d5c218f	0.05374294
114	0xbcb1db0c	-0.021710895
115	0x3cbb5872	0.022869322
116	0xbdb00e27	-0.08596449
117	0xbe299bb6	-0.16563305
118	0x3e3ce914	0.18448287
119	0x3e3ad124	0.18243843
120	0xbe0efdf3	-0.13964061
121	0xbdaee513	-0.08539786
122	0xbdca8d39	-0.09890217
123	0xbe2b2f4c	-0.16717261
124	0xbe08a763	-0.13345103
125	0xbdd781b8	-0.10522789
126	0x3d058ce2	0.03260506
127	0xbbc39559	-0.0059687314
128	0x3ba6f03c	0.005094556
129	0xbd14e6c5	-0.03635289
130	0xbc93465f	-0.017977891
131	0x3cb19b28	0.02168043
132	0x3e3acf35	0.18243106
133	0x3dd29284	0.10281852
134	0xbe0c5120	-0.13702822
135	0xbd9ff4ec	-0.07810387
136	0x3d98d56b	0.07462581
137	0x3e204024	0.15649468
138	0x3dc8cc8a	0.09804638
139	0xbd83105e	-0.06399606
140	0x3da506e0	0.08057952
141	0x3e068345	0.13136013
142	0x3db0dcb1	0.086358435
143	0x3c7668d8	0.015039645
144	0x3e14f5a0	0.14546824
145	0x3e17f0ac	0.14837903
146	0x3e3310f6	0.17486939
147	0x3d3ffe1e	0.046873204
148	0x3e1dd395	0.15412743
149	0xbd9aa051	-0.07550109
150	0xbe0feec7	-0.1405593
151	0xbe1bbc7c	-0.1520862
152	0xbc9801cc	-0.018555544
153	0x3dbdc41b	0.0926592
154	0x3daa96b8	0.083295286
155	0xbd9f0a55	-0.077656426
156	0x3ca86860	0.020557582
157	0x3e280e26	0.16411647
158	0x3d92cef1	0.07168377
159	0x3e32d4c8	0.17463982
160	0xbcc07f70	-0.023498267
161	0x3e26719b	0.16254275
162	0xbd8fbe4d	-0.07018719
163	0xbc33151e	-0.010930328
164	0x3d64cf63	0.055861842
165	0x3e2743cf	0.1633446
166	0xbcac11f8	-0.021004662
167	0xbe0380cf	-0.12842105
168	0xbdc4c1df	-0.096072905
169	0xbe235e67	-0.1595398
170	0xbcbc6211	-0.02299598
171	0x3d964a7c	0.073384255
172	0x3dc9a69d	0.09846232
173	0xbdb3a513	-0.0877172
174	0xbe2ea4a4	-0.17054993
175	0x3e07091f	0.13187073
176	0xbe31f883	-0.17379956
177	0x3d69477e	0.056952946
178	0xbd8b7cdc	-0.068109244
179	0xbd9e68be	-0.07734822
180	0xbd0a89b8	-0.033822745
181	0xbcf82ecc	-0.030295752
182	0xbe0f2f9b	-0.13983004
183	0x3d5969be	0.05307936
184	0xbe1241f8	-0.14282978
185	0x3dbf48d2	0.09340061
186	0x3dde15e9	0.10844023
187	0xbd8837e1	-0.06651283
188	0x3d9bcbbf	0.07607221
189	0xbd8fee0e	-0.07027827
190	0xbe06f5b8	-0.13179672
191	0x3d0c2e54	0.03422387
192	0x3e0f278a	0.13979927
193	0xbd86a0e4	-0.06573656
194	0x3d2e45a8	0.042546898
195	0x3e0d91c1	0.13825132
196	0x3c42a348	0.01187975
197	0x3d68ad58	0.05680594
198	0x3c3570c3	0.011074248
199	0xbe16db1f	-0.14732026
200	0x3e0f2d0b	0.13982026
201	0xbb995ffe	-0.0046806326
202	0xba80f430	-0.0009838399
203	0x3aa20c08	0.0012363205
204	0xbdd5f188	-0.10446459
205	0x3dba45f9	0.090953775
206	0xbd85c80a	-0.06532295
207	0x3d489a41	0.048975233
208	0x3c9727f6	0.018451672
209	0xbaf661b8	-0.0018797433
210	0x3dcbd82f	0.09953343
211	0x3de2fa83	0.110829376
212	0xbdd68089	-0.10473735
213	0xbe09c5eb	-0.13454406
214	0xbdb3eac8	-0.08785015
215	0x3e18e855	0.14932378
216	0x3e074bf6	0.1321257
217	0xbe090929	-0.133824
218	0x3dc3ff4b	0.09570178
219	0x3dc40140	0.09570551
220	0x3e0d22d5	0.13782819
221	0x3e34f196	0.17670283
222	0x3d8f9962	0.07011677
223	0x3d81b6d2	0.06333698
224	0xbdde8e7a	-0.10867019
225	0x3c810782	0.01575065
226	0x3cb05e1f	0.021529255
227	0xbd866c0f	-0.06563579
228	0xbccb0b2a	-0.024785597
229	0xbd4908ce	-0.049080662
230	0x3e22cbf2	0.15898111
231	0xbdff31da	-0.1246068
232	0x3d975e1c	0.07390997
233	0xbcce5116	-0.02518515
234	0x3cddcada	0.027074266
235	0x3dd88ec1	0.10574103
236	0xbe10cd67	-0.14140855
237	0xbe1caf86	-0.15301332
238	0xbe29a38b	-0.16566293
239	0x3d05d0c6	0.032669805
240	0xbe20b3f3	-0.15693645
241	0xbd307a0e	-0.04308515
242	0x3df11e1f	0.11773323
243	0x3e18dda5	0.149283
244	0x3e0b5ec7	0.13610373
245	0x3d41462e	0.04718607
246	0x3dbfd51d	0.0936682
247	0xbe1144e9	-0.14186443
248	0xbdd60645	-0.104504146
249	0x3d5c9a1e	0.053857915
250	0xbd5f99ef	-0.054590162
251	0xbddb4d5c	-0.107081145
252	0x3a93cfe8	0.0011277171
253	0x3e2a394c	0.1662342
254	0xbd853870	-0.06504905
255	0xbd07ad01	-0.033123974

Actor.fc2.bias f4 [32]
0	0x3e23e298	0.16004407
1	0x3df2015b	0.11816665
2	0xbe0db5ba	-0.13838854
3	0xbc882970	-0.016621321
4	0x3d5a29ce	0.053262524
5	0xbdb89029	-0.09011871
6	0x3d97aadb	0.07405635
7	0x3cee4a0c	0.029088043
8	0xbe24321f	-0.16034745
9	0x3c24e0b3	0.010063338
10	0xbd57bfec	-0.052673265
11	0xbd826390	-0.06366646
12	0x3d98576a	0.07438548
13	0xbd3813c7	-0.044940736
14	0x3c04d818	0.008108161
15	0xbe149e49	-0.14513506
16	0x3e11bcf8	0.14232242
17	0xbd2ba9b0	-0.041909873
18	0xbdc937c8	-0.098250926
19	0xbe35c4fe	-0.17750928
20	0xbe1937af	-0.14962648
21	0x3e08cfee	0.13360569
22	0x3d6d2ab4	0.057902053
23	0x3c597fea	0.013275126
24	0xbce9c8bc	-0.0285381
25	0x3db3709d	0.08761714
26	0x3d7ca2cd	0.061678696
27	0x3d8d70d3	0.06906285
28	0x3dcac4dd	0.0990083
29	0xbd9cc244	-0.07654241
30	0x3e1b29b8	0.15152633
31	0xbdd2beaa	-0.102902725

Actor.mean_fc3.weight f4 [17, 32]
0	0x3d5e41d4	0.054261997
1	0xbd4424d4	-0.047886685
2	0xbe13ade0	-0.14421797
3	0x3d1785a9	0.036992703
4	0xbf215104	-0.63014245
5	0x3e2d9c90	0.16954255
6	0xbe3a685c	-0.18203872
7	0x3d3a1203	0.045427334
8	0x3e25ca17	0.16190372
9	0x3e57ff27	0.21093427
10	0x3eb4840a	0.35256988
11	0x3e573909	0.21017851
12	0xbe1c6eef	-0.15276693
13	0x3b5bcc5e	0.003353856
14	0x3eec254c	0.46122205
15	0xbe699a55	-0.22812779
16	0xbd5104d7	-0.051030006
17	0xbe47291e	-0.19449279
18	0xbe21fc25	-0.15818842
19	0xbd34b63a	-0.044119097
20	0xbe7c4402	-0.24635318
21	0x3e995b20	0.29952335
22	0x3e000143	0.12500481
23	0x3e991e80	0.29906082
24	0xbe08b75a	-0.13351193
25	0xbd0d617e	-0.034516804
26	0x3e4f5804	0.20248419
27	0xbe51c8a7	-0.20486699
28	0x3e395902	0.1810036
29	0x3c1a6cce	0.009425355
30	0x3d44265d	0.04788815
31	0xbe9c22ec	-0.30495393
32	0xbda01ba7	-0.07817774
33	0xbf2c7690	-0.6736841
34	0xbe3df7cf	-0.18551563
35	0xbeb09e4a	-0.34495765
36	0x3e4af0ac	0.19818372
37	0xbeb7d30d	-0.35903206
38	0x3e4c67ce	0.19961473
39	0xbed654aa	-0.4186147
40	0x3e7a7ad6	0.2446092
41	0xbe2abb19	-0.16672935
42	0xbe295546	-0.16536435
43	0x3d97d74c	0.074141115
44	0x3e6e457e	0.23268697
45	0xbd582924	-0.05277361
46	0x3db29f20	0.08721757
47	0x3d50a4e1	0.05093849
48	0xbde9c510	-0.1141454
49	0xbe8dbe5e	-0.276843
50	0x3e8ea95a	0.2786358
51	0x3d548b3e	0.051890604
52	0xb78a8a71	-1.6515349e-05
53	0x3d6b31bb	0.057420474
54	0x3dad5208	0.08462912
55	0x3c0591cb	0.0081524355
56	0x3e48cc4b	0.19609182
57	0x3ccdb673	0.025111413
58	0x3db90453	0.09034028
59	0x3c5a8caa	0.013339201
60	0x3eb5b556	0.3548991
61	0x3ea0e5d2	0.3142534
62	0xbf0dca6f	-0.55387014
63	0x3d4eb983	0.050469887
64	0xbf06c059	-0.5263725
65	0xbed30294	-0.41212904
66	0x3e18cdd0	0.14922261
67	0xbe8e91e3	-0.27845678
68	0xbe71eb44	-0.23624903
69	0xbef81ff6	-0.48461884
70	0xbd88a137	-0.06671374
71	0xbd504267	-0.050844576
72	0xbd328799	-0.043586347
73	0x3b96bc1e	0.004600062
74	0xbf0b9865	-0.5452941
75	0xbcdacce3	-0.026709026
76	0x3d412347	0.047152784
77	0xbd771452	-0.060322113
78	0x3e59e017	0.2127689
79	0xbea63114	-0.3245932
80	0x3e3364ef	0.17518972
81	0x3e6bd42b	0.23030154
82	0x3e7b6316	0.24549517
83	0xbcb7058a	-0.022341508
84	0xbdf7e0f9	-0.12103457
85	0x3d031603	0.032003414
86	0x3dbc2fcd	0.09188805
87	0xbd035391	-0.032062117
88	0xbe2ed286	-0.17072496
89	0xbd7d6a64	-0.06186904
90	0x3b5d0187	0.0033722834
91	0xbeb7f269	-0.35927132
92	0xbe8cc2c5	-0.27492347
93	0xbee0f2c1	-0.43935207
94	0xbe992fd9	-0.29919317
95	0x3ec417d2	0.38299423
96	0xbed148d1	-0.40875867
97	0xbce38c34	-0.027776815
98	0x3efbd21a	0.49183732
99	0x3f23af1a	0.6393906
100	0xbdd840ea	-0.105592564
101	0x3db24bd8	0.08705872
102	0xbe8b6df5	-0.27232328
103	0x3d8b4319	0.06799907
104	0xbd72c726	-0.059271954
105	0x3ca07a69	0.01958962
106	0x3cd24b2d	0.025670612
107	0x3ea086c4	0.31352818
108	0xbdc5b11a	-0.0965292
109	0x3d967b7d	0.07347772
110	0x3e02f4b3	0.12788658
111	0x3ed110ac	0.40833032
112	0x3d19c33f	0.037539717
113	0x3b84f208	0.0040571727
114	0x3ad0e14e	0.0015936287
115	0xbd7e49de	-0.062082164
116	0x3d22b2e9	0.039721403
117	0xbe29455b	-0.16530363
118	0xbeb93d41	-0.36179546
119	0x3e7df180	0.24799156
120	0x3e0a3893	0.13498144
121	0xbe15a0e2	-0.14612153
122	0x3e81f7fc	0.2538451
123	0x3df5c14f	0.11999761
124	0xbe90b756	-0.28264874
125	0xbeaa0f8c	-0.33214986
126	0xbecd2008	-0.400635
127	0x3e63d6a2	0.22249845
128	0xbeb62267	-0.35573122
129	0xbee17a66	-0.44038695
130	0x3d4c5565	0.049886126
131	0xbe7ca40d	-0.24671955
132	0xbe809fc1	-0.25121883
133	0x3edd6654	0.43242133
134	0xbdbbfde8	-0.09179288
135	0x3cbf83f5	0.023378352
136	0xbe96642b	-0.29373297
137	0xbd9e5540	-0.07731104
138	0xbedddf3f	-0.43334386
139	0x3e541941	0.20712759
140	0x3e983e71	0.2973514
141	0x3e9ab1ff	0.30213925
142	0xbe07d2b7	-0.13263975
143	0x3ea67428	0.32510495
144	0xbe081224	-0.1328817
145	0xbe9efd16	-0.31052464
146	0xbc31a947	-0.0108435815
147	0xbe721a62	-0.23642877
148	0xbe298833	-0.16555862
149	0x3e7244a1	0.23658992
150	0x3ec5bf1f	0.38622376
151	0xbe5c4e4c	-0.21514243
152	0xbd3d35e7	-0.046193983
153	0xbd0d376c	-0.034476683
154	0x3e20ae96	0.15691599
155	0xbe623a5d	-0.22092576
156	0x3d38dc66	0.045132063
157	0xbe0ae91b	-0.13565485
158	0xbef24654	-0.4731928
159	0x3e494585	0.19655426
160	0xbda39e09	-0.07989127
161	0xbcef7399	-0.029229926
162	0x3ddec6df	0.108777754
163	0xbeeb28a0	-0.45929432
164	0xbe31c209	-0.17359175
165	0xbd2603b2	-0.040530868
166	0x3eed83f4	0.46389735
167	0x3f3399ee	0.70156753
168	0xbd38a18f	-0.04507595
169	0xbe27c235	-0.16382678
170	0x3e4273f0	0.18989539
171	0x3baa1df8	0.005191561
172	0x3e379602	0.17928317
173	0x3dca08a8	0.09864932
174	0xbeb7a52f	-0.35868213
175	0x3d9fe0c5	0.07806543
176	0x3d3db692	0.04631669
177	0xbd9f99fe	-0.077930436
178	0x3e463954	0.19357806
179	0x3dfe07da	0.12403841
180	0xbe446917	-0.19180714
181	0x3e13e88e	0.14444181
182	0xbdde0fce	-0.10842858
183	0xbe204493	-0.15651159
184	0x3f18d555	0.5970052
185	0xbd3f33be	-0.046680205
186	0x3c9c3c92	0.01907185
187	0x3c3dd6db	0.01158687
188	0xbe6e6ef4	-0.23284513
189	0x3e93dfd5	0.28881708
190	0xbdbd4d66	-0.09243278
191	0x3df2602b	0.11834749
192	0x3e69dafd	0.22837444
193	0xbe52ce16	-0.20586428
194	0x3ecf208d	0.40454522
195	0xbe134b9c	-0.14384311
196	0x3e2312b1	0.15925099
197	0x3ea9df32	0.33178097
198	0xbddf731e	-0.10910629
199	0xbe140dd3	-0.14458399
200	0x3dedb705	0.11607174
201	0xbdb49d18	-0.08819026
202	0x3e485065	0.19561918
203	0x3dabb47a	0.083840325
204	0xbe827105	-0.25476852
205	0xbd27263d	-0.04080795
206	0x3df4c9aa	0.11952527
207	0x3c9593d4	0.018258967
208	0x3e7c7b95	0.24656518
209	0xbddad044	-0.10684255
210	0x3e7caa26	0.24674281
211	0x3f23dccf	0.640088
212	0x3e77b77d	0.24191089
213	0xbd81cd94	-0.06338039
214	0xbd97963b	-0.07401701
215	0x3e34d99f	0.17661141
216	0x3e6537b5	0.22384532
217	0xbec98130	-0.39356375
218	0xbdf61802	-0.12016298
219	0xbed6291f	-0.41828248
220	0xbcac59be	-0.021038886
221	0x3e8ba3ba	0.2727335
222	0xbec27e0c	-0.3798679
223	0xbe468294	-0.19385749
224	0x3d3107b9	0.043220256
225	0x3e226729	0.15859665
226	0xbdd55c0a	-0.10417946
227	0x3cbba6cd	0.022906685
228	0xbe0750e0	-0.13214445
229	0xbd34eff5	-0.044174153
230	0xbe8bc0a1	-0.27295402
231	0x3ddcf3ae	0.10788666
232	0x3e1d197c	0.15341753
233	0xbe15419a	-0.14575806
234	0x3bc8a17d	0.0061227665
235	0x3ed2e538	0.41190505
236	0xbb1100ed	-0.0022125796
237	0x3d9f3192	0.07773127
238	0x3ca9d13d	0.020729655
239	0xbe21d674	-0.15804464
240	0xbda51cc1	-0.08062125
241	0xbc817b9e	-0.015806016
242	0x3e0d5d2f	0.13805078
243	0x3e751cff	0.23936842
244	0xbeedf8f4	-0.46479
245	0xbdf32b67	-0.11873513
246	0x3e914ceb	0.28378996
247	0x3e9c807b	0.30566773
248	0xbe809987	-0.25117132
249	0x3ecf8ae1	0.40535644
250	0xbdc59777	-0.0964803
251	0xbe5593ed	-0.2085721
252	0x3df2be49	0.118527
253	0xbefd9021	-0.49524024
254	0xbd10b27b	-0.035326462
255	0x3e57bd1a	0.2106823

Actor.mean_fc3.bias f4 [17]
0	0xbd1a5827	-0.037681725
1	0xbdc690c7	-0.09695583
2	0x3e045d4b	0.12926213
3	0x3da6aea5	0.081387796
4	0x3c58854e	0.013215376
5	0x3d8e6e91	0.069546826
6	0xbd8c84b0	-0.06861246
7	0x3cbfdb04	0.023419864
8	0xbe22d78c	-0.15902537
9	0x3e2b0fbf	0.16705225
10	0xbe0a9a78	-0.13535488
11	0xba437cc6	-0.00074572524
12	0x3d4092b0	0.047014892
13	0xbe0815b3	-0.13289528
14	0x3cd6df07	0.026229395
15	0x3cf90e0d	0.030402208
16	0xbdd1d46d	-0.10245595

Actor.log_std_fc3.weight f4 [17, 32]
0	0xbe3f2cbd	-0.1866941
1	0x3e9a81c8	0.3017714
2	0xbe11ea71	-0.14249589
3	0xbe4946f0	-0.19655967
4	0xbe552560	-0.20815039
5	0x3e20a7cb	0.15689008
6	0xbc08bd94	-0.00834598
7	0xbec7b3e9	-0.39004448
8	0x3d6a5e86	0.05721905
9	0x3edbd91a	0.42939073
10	0xbd10749f	-0.03526747
11	0xbf01d5b1	-0.5071669
12	0x3dcb9443	0.09940388
13	0x3e4a4f0f	0.19756721
14	0xbcd4bad8	-0.025968
15	0xbe70ff07	-0.23534785
16	0x3e0c83c0	0.13722134
17	0x3e404922	0.18777898
18	0x3e3ea58d	0.1861784
19	0x3ec9c7f8	0.39410377
20	0x3e80526b	0.2506288
21	0xbd45b580	-0.048268795
22	0x3dd7e3f3	0.10541525
23	0xbeb9ca75	-0.36287275
24	0xbd31860a	-0.04334072
25	0xbe750925	-0.2392927
26	0x3e6dd656	0.23226294
27	0x3ebd9564	0.37028039
28	0xbeafe3cc	-0.34353483
29	0x3e2c590f	0.16830848
30	0x3e69364d	0.2277462
31	0x3e92bd16	0.28659886
32	0xbe89fc5a	-0.2695034
33	0xbd550617	-0.05200776
34	0x3e5f8c47	0.21830855
35	0xbe035071	-0.12823655
36	0x3e9e71d9	0.30946234
37	0x3d2c926a	0.04213182
38	0xbe11c4b6	-0.14235196
39	0xbe16e651	-0.14736296
40	0x3d4e1fd6	0.05032333
41	0xbec90398	-0.39260554
42	0xbcc01d65	-0.023451516
43	0x3c30b280	0.010784745
44	0xbe05fd3a	-0.1308488
45	0xbe35b95d	-0.17746492
46	0xbe0a69ad	-0.13516875
47	0x3b8a5e58	0.0042226724
48	0x3e889710	0.26677752
49	0x3e48e502	0.1961861
50	0x3d8fbe4c	0.07018718
51	0x3ebd7310	0.37001848
52	0x3e6000de	0.21875331
53	0x3cfaab77	0.030599339
54	0xbebff1cb	-0.3748916
55	0xbd9273a4	-0.07150963
56	0x3e3d1a0e	0.1846697
57	0x3d163f1e	0.036681287
58	0xbdee8bb7	-0.11647742
59	0xbd57e5b6	-0.052709304
60	0x3df27ed5	0.118405975
61	0x3e0175f0	0.12642646
62	0x3e16dd94	0.14732963
63	0xbd60368a	-0.054739513
64	0xbdec02fe	-0.11524008
65	0x3d364a71	0.044504587
66	0xbd5385a2	-0.051641114
67	0x3dfec7e9	0.124404736
68	0xbd9b3ec7	-0.07580333
69	0xbecc9dbd	-0.39964095
70	0xbe8c3d08	-0.27390313
71	0x3de380e8	0.11108571
72	0xbe0fc06b	-0.14038245
73	0x3ef03146	0.46912593
74	0xbe99fed8	-0.30077243
75	0xbc97497b	-0.018467655
76	0xbeb4391d	-0.35199824
77	0xbdc6c544	-0.09705594
78	0x3e6d3eeb	0.23168533
79	0x3dbb6867	0.091507725
80	0x3ef2aecd	0.47398987
81	0xbe4941e3	-0.1965404
82	0x3e885d01	0.26633456
83	0xbe093cd7	-0.13402115
84	0x3d88d13e	0.06680535
85	0xbe301bfb	-0.17198174
86	0xbea30bed	-0.31845036
87	0xbe02e4a7	-0.12782536
88	0xbe353693	-0.176966
89	0xbd04f2d0	-0.032458127
90	0x3df10825	0.117691316
91	0xbd99cb00	-0.07509422
92	0x3e9c2691	0.30498174
93	0x3d10d53a	0.0353596
94	0x3e805ee5	0.250724
95	0xbaa87c68	-0.0012854459
96	0xbddc0d32	-0.10744704
97	0xbddc0094	-0.10742298
98	0xbec17e73	-0.37791786
99	0xbea61373	-0.32436714
100	0xbcdd15cb	-0.02698793
101	0xbee26179	-0.4421499
102	0xbe7a1175	-0.24420722
103	0x3e57c296	0.21070322
104	0xbd80b40d	-0.06284342
105	0xbf364aa7	-0.7120766
106	0x3beaee2e	0.0071695065
107	0x3da07e1c	0.078365535
108	0xbdd6dbc8	-0.10491139
109	0xbde84e7c	-0.11343095
110	0xbd76e050	-0.060272515
111	0x3e6b2133	0.22961883
112	0x3ea84519	0.32865217
113	0x3dfc7bd1	0.123283036
114	0xbd40bd78	-0.04705569
115	0xbe4a47dc	-0.19753975
116	0x3ec1fa86	0.37886447
117	0xbe83442a	-0.25637943
118	0xbe8d966e	-0.2765383
119	0xbee39885	-0.444523
120	0x3e55f0d5	0.20892651
121	0x3e17eac5	0.14835651
122	0x3e021e56	0.12706885
123	0xbe2d0363	-0.16895823
124	0xbe95ce8c	-0.29259145
125	0x3aae2380	0.0013285726
126	0x3ca6494a	0.020298619
127	0x3da04106	0.07824902
128	0x3e708592	0.23488453
129	0xbdc2cc25	-0.09511594
130	0x3eee3b94	0.4652983
131	0x3e6e3531	0.23262478
132	0xbed2e60f	-0.41191146
133	0xbe37d5d5	-0.17952664
134	0xbe86f551	-0.26359037
135	0xbe04522f	-0.12921976
136	0xbe301da5	-0.17198808
137	0x3b8ffd64	0.00439422
138	0x3e905c24	0.28195298
139	0xbc9526fe	-0.01820707
140	0xbd81c09e	-0.06335567
141	0x3e197dc4	0.14989382
142	0xbdb114fc	-0.086465806
143	0xbe1d74d4	-0.15376598
144	0x3e6ca2a8	0.23108923
145	0x3ecabf4b	0.3959907
146	0x3ed0a93d	0.4075412
147	0x3e9b1be0	0.30294704
148	0x3db7413e	0.08947991
149	0x3eb7a7c4	0.35870183
150	0xbe9379b0	-0.28803778
151	0x3da2992b	0.07939371
152	0xbe3f2fe8	-0.18670619
153	0xbd7e1ee6	-0.062041186
154	0xbe166c31	-0.14689709
155	0xbea6729e	-0.3250932
156	0x3eb2d91f	0.34931275
157	0x3e07f402	0.13276675
158	0xbdf85fc7	-0.12127643
159	0x3e79022c	0.24317235
160	0xbedeb8d7	-0.43500397
161	0x3ddd1081	0.107941635
162	0x3e3ed6c6	0.18636617
163	0x3d516ce4	0.051129237
164	0xbebfe1a0	-0.37476826
165	0x3d91929c	0.07108042
166	0xbed884e0	-0.42288876
167	0x3d8d0bca	0.06887014
168	0x3be71a2c	0.0070526805
169	0xbe2957dc	-0.16537422
170	0x3d7ddbe0	0.061977267
171	0xbdddd74a	-0.10832079
172	0xbd2a93d4	-0.041644886
173	0xbeaa7cad	-0.33298245
174	0x3e093f6d	0.13403101
175	0xbd80567e	-0.06266497
176	0xbce07c6e	-0.027403083
177	0xbf0cfb02	-0.5507051
178	0xbe635a2d	-0.22202368
179	0xbcf52ec6	-0.02992953
180	0x3e68e101	0.22742082
181	0xbe09d9ea	-0.13462034
182	0x3c3fc89a	0.011705542
183	0xbe77a93a	-0.24185649
184	0xbeb4818b	-0.35255083
185	0xbea5a142	-0.32349592
186	0xbe2cbad0	-0.16868138
187	0x3f3aed9b	0.7301881
188	0xbe35ae3c	-0.17742246
189	0x3e616264	0.2201019
190	0x3dc4a0d4	0.09600988
191	0x3e56600d	0.20935078
192	0x3ebb861a	0.3662575
193	0x3e88f4b8	0.26749206
194	0xbd0dca94	-0.03461702
195	0x3dec3199	0.115328975
196	0xbe5cb5d8	-0.21553743
197	0xbe07cb3e	-0.13261124
198	0x3b3b297c	0.0028558662
199	0x3f0d7f19	0.5527206
200	0xbdd924a2	-0.1060269
201	0x3e048653	0.12941866
202	0x3cd095d2	0.025462065
203	0x3ef1888b	0.47174487
204	0x3d49207e	0.049103253
205	0xbe4d8c9e	-0.20073172
206	0xbd737a94	-0.05944307
207	0xbe9fac0e	-0.31185955
208	0x3e1dab42	0.15397361
209	0x3debb0f9	0.11508364
210	0x3e621566	0.22078475
211	0x3ed126b6	0.40849847
212	0xbd9d2bd5	-0.07674376
213	0x3f061315	0.52372867
214	0xbe9f0f2c	-0.31066263
215	0x3e9a8b91	0.30184606
216	0x3c92bc98	0.017912194
217	0x3dc08219	0.09399814
218	0x3d27679a	0.040870287
219	0x3d2944fa	0.041325547
220	0xbe503f09	-0.20336546
221	0x3eac407d	0.3364295
222	0xbe6f75d4	-0.23384792
223	0xbe8e6d99	-0.2781799
224	0xbdbe29f3	-0.09285345
225	0xbe56beb0	-0.20971179
226	0x3d5ef53a	0.054433085
227	0xbe896a11	-0.26838735
228	0x3e241141	0.16022207
229	0x3cc0dff5	0.023544291
230	0xbc98a3ce	-0.018632796
231	0x3e845525	0.2584621
232	0x3eb9be76	0.36278123
233	0xbdbfefb8	-0.093718946
234	0x3c3ebd0e	0.011641754
235	0xbe849948	-0.25898194
236	0x3d6a456e	0.05719512
237	0x3e24f8a5	0.16110475
238	0xbe845283	-0.258442
239	0x3e51f097	0.20501934
240	0x3f02efe5	0.511473
241	0xbc86c3dd	-0.016450817
242	0x3dd2dd16	0.10296075
243	0x3eb3b9f4	0.35102808
244	0xbdaca6ad	-0.084302284
245	0x3ec8415b	0.39112362
246	0xbf202041	-0.62549216
247	0xbdb1e62c	-0.0868648
248	0xbe355c1d	-0.1771092
249	0x3e2f10cb	0.1709625
250	0x3e840baa	0.2579015
251	0xbe80e300	-0.25173187
252	0x3e1f9ec0	0.15587902
253	0xbd77703d	-0.060409773
254	0x3e229b32	0.15879515
255	0xbe118908	-0.1421243

Actor.log_std_fc3.bias f4 [17]
0	0x3c6c7668	0.014432527
1	0xbe1dc8ac	-0.15408581
2	0xbbd996ec	-0.0066403057
3	0xbdc6ac88	-0.097008765
4	0x3e2ba774	0.16763097
5	0x3debb003	0.11508181
6	0xbe28755b	-0.16451018
7	0x3c16e1f1	0.009209142
8	0xbe3c4eef	-0.18389486
9	0x3dadfa3f	0.08494996
10	0xbe33e493	-0.17567663
11	0x3d438d7e	0.04774236
12	0xbe05175d	-0.12997194
13	0xbd87e0ac	-0.0663465
14	0xbe1c2194	-0.15247184
15	0xbde560a5	-0.11200074
16	0x3dcb2c27	0.09920531

Critic.fc1.weight f4 [32, 378]
0	0x3ceb1f46	0.028701436
1	0xbb8d8ade	-0.004319533
2	0x3ba1c901	0.0049372916
3	0xbd26647b	-0.04062317
4	0xbcd0a4ce	-0.02546921
5	0xba894f08	-0.0010475824
6	0x3c453966	0.012037611
7	0x3bd901a0	0.006622508
8	0xbd29c1ad	-0.04144447
9	0x3d0da998	0.034585565
10	0x3c8551d2	0.016274367
11	0x3c9256fc	0.017863743
12	0xbc1368d4	-0.008997161
13	0xbd00c387	-0.03143647
14	0xbc917129	-0.017754154
15	0xbbf89402	-0.0075860033
16	0xbd008587	-0.03137734
17	0xbc4dbd7c	-0.012557384
18	0xbcd46d31	-0.025930973
19	0xbd07f16e	-0.03318923
20	0x3cadf122	0.021233145
21	0x3d638fba	0.05555699
22	0xbcd43772	-0.025905345
23	0xbbc216cc	-0.0059231278
24	0xbbcba7bd	-0.0062150643
25	0x3cf7b10d	0.030235792
26	0xbacfbeb8	-0.0015849685
27	0xbcd73fd3	-0.026275551
28	0xbcd572df	-0.026055751
29	0xbd11fef6	-0.03564354
30	0x3cdba232	0.02681074
31	0x3c0fdbe6	0.008780455
32	0xbd3aa896	-0.045570932
33	0x3d5bd72d	0.053672004
34	0xbcfcae64	-0.030844875
35	0xbc9f7942	-0.019467
36	0xbd1b1dc5	-0.037870187
37	0x3d2b2b3b	0.041789275
38	0xbc87140d	-0.016489053
39	0x3d18ea9a	0.03733311
40	0x3c2f81a8	0.010712065
41	0x3cd8544e	0.026407387
42	0x3ccb4278	0.024811968
43	0xbd24c0e3	-0.040223014
44	0x3d68b4b2	0.05681295
45	0x3c87c20e	0.016572025
46	0xbd3592b8	-0.044329375
47	0xbd3cd7aa	-0.04610411
48	0x3a7c2cd1	0.0009619715
49	0xbd4b83ac	-0.04968612
50	0xbd199589	-0.037496123
51	0x3d5054d3	0.050862145
52	0x3cd99ecd	0.02656498
53	0x3c9f1535	0.019419292
54	0xbc6a8e1f	-0.014316111
55	0xbc88d231	-0.01670179
56	0xbd489058	-0.048965782
57	0xbc970ddd	-0.018439228
58	0x3cd5ec82	0.026113752
59	0xbce41670	-0.02784273
60	0xbd1c52f8	-0.038165063
61	0x3c8d53fe	0.017251965
62	0xbc8c3d92	-0.017119203
63	0x3c151d59	0.009101235
64	0xbc79caac	-0.015246075
65	0xbc5d24b3	-0.013497519
66	0x3d4e3272	0.050341077
67	0xbb6da4a4	-0.0036261464
68	0xbcdac1d5	-0.026703754
69	0x3d403e3a	0.046934344
70	0x3b63173a	0.0034651295
71	0xbd021fba	-0.031768538
72	0xbd4a6f6c	-0.049422666
73	0x3c5eb2c0	0.013592422
74	0x3d287cf6	0.041134797
75	0xbcf3d97b	-0.029766789
76	0x3d6d5b02	0.05794812
77	0xbc31fa04	-0.010862831
78	0x3cbea6fe	0.023272987
79	0x3b8c9595	0.0042902925
80	0x3c0035f5	0.007825364
81	0x3b6b6a78	0.0035921615
82	0xbcfe5d9e	-0.0310505
83	0x3d18ebc6	0.037334226
84	0x3d6275e1	0.0552882
85	0x3cff4782	0.031162027
86	0x3d246c86	0.04014256
87	0xbd02b28f	-0.031908568
88	0x3d2afd90	0.041745722
89	0xbc02f4d5	-0.007992943
90	0xbcab9b08	-0.020947948
91	0xbc989240	-0.018624425
92	0xbd5e15ac	-0.054219887
93	0x3d7a927d	0.06117486
94	0xbd014de6	-0.03156843
95	0xbcce6add	-0.02519744
96	0x3c847654	0.016169704
97	0x3d7ad74f	0.06124049
98	0xbb128328	-0.0022356007
99	0x3cc15381	0.023599388
100	0x3893c500	7.0462e-05
101	0x3d14bfe2	0.036315806
102	0x3c1abf70	0.009445056
103	0x3b24f0c4	0.0025167922
104	0xbbf1064a	-0.007355486
105	0x3d000f69	0.031264696
106	0xbd104252	-0.035219498
107	0x3c965184	0.018349417
108	0xbcc0aa0a	-0.023518581
109	0xbb8e07b8	-0.0043344162
110	0xbd2e29d8	-0.042520374
111	0xbd48af82	-0.048995502
112	0xbd062201	-0.032747272
113	0xbc7276f6	-0.01479887
114	0x3a81d468	0.0009905221
115	0xbcde1560	-0.027109802
116	0xbbeff6d6	-0.0073231263
117	0xbc9c0448	-0.01904501
118	0x3cd3be42	0.025847558
119	0xb9c18ae0	-0.000369153
120	0xbcb4e110	-0.022079974
121	0x3d38ccbe	0.045117132
122	0xbd1344b4	-0.035954192
123	0x3d09f323	0.03367914
124	0xba842558	-0.001008193
125	0xbd413d6c	-0.047177717
126	0xbc833834	-0.01601801
127	0xbd078022	-0.03308118
128	0x3c0d8efd	0.008640048
129	0x3d047a50	0.03234321
130	0xbca7e6ee	-0.020495858
131	0x3cf5a84e	0.02998748
132	0x3cfa113e	0.0305258
133	0xbcfa954f	-0.030588774
134	0x3b8c32fe	0.0042785397
135	0x3c8b5c29	0.017011719
136	0x3b99b660	0.0046909302
137	0xbc9b7812	-0.018978152
138	0x3c190cef	0.0093414625
139	0xbbc09bb8	-0.005877938
140	0x3ca72376	0.020402651
141	0xbd24ff4b	-0.04028253
142	0x3d281907	0.041039493
143	0xbcc870ee	-0.024467912
144	0x3cbe72d0	0.023248106
145	0xbc8927fe	-0.016742703
146	0xbc89f6d4	-0.01684133
147	0x3ce865af	0.028368799
148	0xbd24f72f	-0.040274795
149	0xbd1c7a58	-0.038202614
150	0xbd18bc42	-0.03728891
151	0x3d1159b7	0.03548595
152	0xbd0b2cb9	-0.033978198
153	0x3d044a10	0.032297194
154	0xbd2946af	-0.041327175
155	0xbc023ac5	-0.007948582
156	0x3c31b6b7	0.010846785
157	0xbca61391	-0.020273002
158	0x3d03c267	0.03216782
159	0xbc2ae04a	-0.010429451
160	0xbcccfde7	-0.025023414
161	0x3cb5d106	0.022194397
162	0xbce5ee00	-0.028067589
163	0x3d2dff0a	0.042479552
164	0xbd78993a	-0.060693003
165	0x3c621736	0.013799479
166	0x3c3987c6	0.011323875
167	0xbba1c732	-0.004937076
168	0x3c9854ee	0.018595185
169	0xbc3ddd28	-0.011588372
170	0xbd76172c	-0.060080692
171	0x3c3be770	0.011468753
172	0x3cb231c2	0.021752242
173	0x3d192de1	0.03739727
174	0x3c9c88ec	0.019108258
175	0xbc147e1b	-0.009063269
176	0x3c20952f	0.009801193
177	0xbcf6fb83	-0.030149227
178	0xbccbb00f	-0.024864225
179	0x3c9e86c1	0.019351365
180	0xbbf9301e	-0.007604613
181	0x3cc1ef9a	0.023673821
182	0xbb8dc56a	-0.004326512
183	0x3cecb418	0.02889447
184	0x3d3417f2	0.04396815
185	0x3c3e9171	0.011631356
186	0x3d6f402c	0.05841081
187	0xbcdbc30d	-0.026826406
188	0xbc7abce2	-0.015303822
189	0xbca0606e	-0.019577231
190	0x3c2783d5	0.010224302
191	0xbca7d78b	-0.020488521
192	0x3d49924e	0.049211793
193	0x3b5dc63c	0.003384008
194	0x3a70f360	0.0009191539
195	0xbd0870a8	-0.033310562
196	0xbd3ae532	-0.045628734
197	0xbcdda8a2	-0.02705795
198	0xbd03285e	-0.03202092
199	0x395c7240	0.00021023396
200	0xbd685f8a	-0.05673174
201	0x3ccee0dd	0.025253708
202	0x3bf87a18	0.007582914
203	0x3d055df2	0.032560296
204	0xbccb1b22	-0.024793211
205	0x3d2d7976	0.042352162
206	0x3c0ee7de	0.008722274
207	0xbc234e05	-0.009967332
208	0x3cf51882	0.029918913
209	0x3cb878c0	0.022518516
210	0xbcffd4ec	-0.031229459
211	0x3b04e91c	0.0020280546
212	0x3ba53d26	0.00504269
213	0x3d57402a	0.052551426
214	0xbd1607e3	-0.036628615
215	0xbcc1e800	-0.023670197
216	0xbd04ae5f	-0.032392856
217	0x3d5ee509	0.054417644
218	0xbd05cb62	-0.032664664
219	0x3d1b63a0	0.037936807
220	0x3c6e3b38	0.014540486
221	0x3ad09318	0.0015912978
222	0x3c203ef9	0.009780639
223	0xbcbf72f2	-0.02337024
224	0xbcbf5642	-0.02335656
225	0xbd5f5bd8	-0.05453095
226	0x3ccfd405	0.025369653
227	0xbbaaf04a	-0.005216633
228	0x3ce0ee04	0.027457245
229	0xbcdea9e8	-0.027180627
230	0x3bedb8c4	0.007254692
231	0xbd2dcdd6	-0.04243263
232	0x3afb7d30	0.0019187089
233	0xbd5ea541	-0.054356817
234	0xbc9bd943	-0.019024497
235	0xbd59c515	-0.053166468
236	0xbd407005	-0.04698183
237	0xbcb82ea0	-0.02248317
238	0xbcc04d53	-0.023474371
239	0xbcafdf1e	-0.021468695
240	0x3cf75f2b	0.030196747
241	0x3aa54ba0	0.0012611039
242	0xbd68e248	-0.056856424
243	0xbd16d96f	-0.036828455
244	0x3ceff1c3	0.029290086
245	0xbd236b78	-0.039897412
246	0xbd3bb3fe	-0.04582595
247	0x3d169aac	0.0367686
248	0x3d0dd830	0.03463
249	0x3c8abe0e	0.016936328
250	0xbc2b05f9	-0.010438436
251	0x3cfc4165	0.030792901
252	0x3cdddaed	0.027081931
253	0xbb1e47f2	-0.002415177
254	0xbd242544	-0.0400746
255	0xbc67469b	-0.014115955

Critic.fc1.bias f4 [32]
0	0x3d10220d	0.035188723
1	0xbd6ae4f5	-0.057347257
2	0x3cc65e8e	0.024215009
3	0xbca7fd8a	-0.020506639
4	0xbd1f9952	-0.038964577
5	0x3b8b7a2c	0.0042565074
6	0x3d23fb6a	0.04003469
7	0x3ca63e28	0.02029331
8	0x3c86ee7c	0.01647114
9	0x3b21d3b8	0.0024692845
10	0x3d3c8e3d	0.046034086
11	0xbd208792	-0.03919179
12	0xbcb5cf88	-0.022193685
13	0xbcf3bdd4	-0.029753603
14	0xbb2407be	-0.0025029029
15	0x3c5fc2f0	0.013657317
16	0xbcda5368	-0.0266511
17	0x3d0bbab0	0.034113586
18	0xbcc3ea30	-0.02391538
19	0xbccd5fca	-0.02507009
20	0xbd553582	-0.052052982
21	0xbd5faf74	-0.054610685
22	0xbd324cca	-0.043530263
23	0xbcf268e8	-0.029591039
24	0x3b8f76d8	0.004378181
25	0x3b533540	0.0032227784
26	0x3cbd83ae	0.023134079
27	0x3ad1f3a8	0.001601805
28	0x3d475598	0.048665613
29	0x3c62560b	0.01381446
30	0xbc5c78ef	-0.013456567
31	0xbc149ecc	-0.009071063

Critic.fc2.weight f4 [32, 32]
0	0x3c989b44	0.018628724
1	0x3da86f43	0.082243465
2	0xbdb6c4dc	-0.08924267
3	0x3db41a07	0.08794027
4	0x3dc15eb1	0.09441889
5	0xbaadcba8	-0.0013259547
6	0x3de3f7ae	0.111312255
7	0x3d1271ca	0.03575305
8	0xbdf65dd9	-0.12029619
9	0x3e0a3096	0.13495097
10	0xbd4074da	-0.04698644
11	0x3e12e4f9	0.14345159
12	0xbdeeb14b	-0.1165491
13	0xbdda2608	-0.10651785
14	0xbdc2061e	-0.09473823
15	0x3d80f882	0.06297399
16	0xbd83706a	-0.06417926
17	0xbcaeaf19	-0.021323727
18	0x3e2d1f5e	0.16906497
19	0xbd140348	-0.03613594
20	0x3ddc2727	0.10749655
21	0xbc741304	-0.014897112
22	0xbe18e70a	-0.14931884
23	0x3e3933a8	0.18086112
24	0xbd0cf676	-0.03441473
25	0xbdb72c97	-0.08944052
26	0x3db8f6d0	0.09031451
27	0xbe2af6aa	-0.16695657
28	0xbcc60819	-0.024173783
29	0x3d4b681f	0.049659844
30	0x3d6daa86	0.058023952
31	0xbd93ebf5	-0.072227396
32	0xbd7c512c	-0.06160085
33	0x3e0296b1	0.12752797
34	0xbd8bc3e6	-0.06824474
35	0xbc80f4ee	-0.015741792
36	0x3d8f16f8	0.06986803
37	0x3c15fcef	0.009154542
38	0x3deb5d2f	0.11492383
39	0xbe387941	-0.18015005
40	0x3d2fe833	0.04294605
41	0xbdb9f46e	-0.090798244
42	0xbe0176e7	-0.12643014
43	0xbe01cf38	-0.12676704
44	0x3d97cd07	0.07412153
45	0x3d3a7bee	0.045528345
46	0x3d8b33f2	0.06797017
47	0x3e25dc47	0.1619731
48	0x3db237b0	0.08702028
49	0x3da8de76	0.08245556
50	0xbc5570fe	-0.013027428
51	0xbd66a0e8	-0.056305796
52	0xbd5f240c	-0.054477736
53	0xbc3e01a2	-0.011597069
54	0x3e206bde	0.15666148
55	0xbd3109dc	-0.043222293
56	0xbd53d3f0	-0.05171579
57	0xbd91204d	-0.07086239
58	0x3b72bc70	0.0037038587
59	0x3e0c2c39	0.13688745
60	0x3dac81e3	0.084232114
61	0x3cc908fb	0.024540415
62	0xbcd31856	-0.02576844
63	0x3d2ffe7c	0.042967305
64	0xbd880462	-0.06641461
65	0x3e0ce4d8	0.13759172
66	0x3db5ec44	0.08882955
67	0x3dd88030	0.10571325
68	0x3e072af4	0.13199979
69	0x3dff859b	0.12476655
70	0xba23fd50	-0.0006255703
71	0xbdae69b2	-0.085162535
72	0x3cffa2d9	0.031205582
73	0x3d854dff	0.06509017
74	0xbda99a6f	-0.08281409
75	0xbd6ef474	-0.058338597
76	0x3e23a5c2	0.159812
77	0x3cf18def	0.029486625
78	0x3e27048e	0.16310331
79	0xbe0b41b4	-0.13599283
80	0xbe35200d	-0.17688008
81	0xbc1d3765	-0.009595727
82	0xbca110d2	-0.01966134
83	0xbe035e04	-0.12828833
84	0xbdd78827	-0.10524016
85	0x3d73a4cc	0.059483334
86	0x3e29cdd4	0.16582423
87	0x3d443656	0.04790338
88	0x3e007c49	0.12547411
89	0x3dafc8b4	0.08583203
90	0xbe2cc292	-0.16871098
91	0xbe26ec0d	-0.16300984
92	0xbe06d89e	-0.1316857
93	0xbd9351b3	-0.07193317
94	0x3e0754f2	0.13215998
95	0x3dab4678	0.0836305
96	0x3e2b89aa	0.16751733
97	0xbdce311f	-0.10067963
98	0x3d144396	0.036197267
99	0x3d98918b	0.07449635
100	0xbd03038d	-0.03198581
101	0x3a51c0c0	0.0008001439
102	0xbda86b0a	-0.08223541
103	0x3ca50178	0.020142302
104	0x3e134168	0.14380419
105	0xbe0b515b	-0.13605253
106	0x3dac1dd9	0.084041305
107	0x3dfda76e	0.1238545
108	0xbd01b6b8	-0.031668395
109	0xbd76de8c	-0.06027083
110	0xbde58da7	-0.11208659
111	0xbdd367d3	-0.10322537
112	0xbe290ea8	-0.16509497
113	0x3dba96cf	0.09110796
114	0xbc8e0abb	-0.017339101
115	0x3e3db006	0.18524179
116	0xbd7cf15e	-0.061753623
117	0x3cfe52b2	0.031045292
118	0x3d513cf5	0.051083524
119	0xbe22cd1b	-0.15898554
120	0x3e173615	0.14766724
121	0x3e291e58	0.16515481
122	0x3dd1e1d2	0.1024815
123	0xbe005ce6	-0.12535438
124	0xbdc876de	-0.09788297
125	0xbc2a7d41	-0.010405839
126	0xbd33f466	-0.04393425
127	0xbe240409	-0.16017164
128	0x3cfca8fd	0.030842299
129	0xbe092309	-0.13392271
130	0xbca30ec2	-0.019904498
131	0x3dee8889	0.11647136
132	0x3c7db7d9	0.015485727
133	0xbd787b60	-0.060664535
134	0x3e0d6b91	0.13810565
135	0xbd84b7ee	-0.06480394
136	0xbe35f9af	-0.17771028
137	0x3d8522b3	0.06500759
138	0xbe05f770	-0.13082671
139	0x3da82a75	0.08211223
140	0x3de95ee0	0.11395049
141	0x3db24242	0.08704044
142	0xbded5c1e	-0.115898356
143	0xbd76f620	-0.060293317
144	0xbe1cac70	-0.15300155
145	0x3da82a9d	0.08211253
146	0xbd2358aa	-0.03987948
147	0xbc335615	-0.0109458165
148	0x3e264fb7	0.16241346
149	0xbdc43615	-0.09580628
150	0xbe317619	-0.17330207
151	0x3e12bb85	0.14329346
152	0x3d05f986	0.032708667
153	0xbc78b884	-0.015180711
154	0x3e1f4e60	0.15557241
155	0xbdceaffb	-0.10092159
156	0xbe0f796c	-0.14011163
157	0xbd9eaa40	-0.07747316
158	0x3e29f667	0.16597901
159	0xbd679b3a	-0.05654452
160	0x3d943807	0.07237249
161	0x3d45d14a	0.048295297
162	0x3d550292	0.052004404
163	0x3d81288f	0.06306564
164	0x3e3020f0	0.17200065
165	0xbcc02366	-0.02345438
166	0xbe113cae	-0.14183304
167	0xbda748ae	-0.081681594
168	0x3daadb95	0.08342663
169	0xbe15e24e	-0.1463711
170	0x3dce73d0	0.10080683
171	0xbbe4455e	-0.006966277
172	0xbe1291fa	-0.14313498
173	0x3c22e3b4	0.009941984
174	0x3e0a2e35	0.13494189
175	0xbd74aa20	-0.059732556
176	0xbe2023d6	-0.1563867
177	0x3e0d4470	0.13795638
178	0x3bae1730	0.0053128228
179	0x3be98633	0.0071265935
180	0x3c894964	0.016758628
181	0xbe22905e	-0.15875384
182	0xbe005a5f	-0.12534474
183	0x3e33cd23	0.17558722
184	0x3e307f2d	0.17236014
185	0xbe3e8e7d	-0.18609042
186	0x3e066028	0.13122618
187	0xbca79006	-0.020454418
188	0x3da8f21f	0.08249306
189	0xbe015cc5	-0.12633045
190	0x3ca17be8	0.019712403
191	0xbe3bceff	-0.18340681
192	0xbdabff67	-0.083983235
193	0x3cfe2614	0.031024016
194	0xbd0d6b9e	-0.03452646
195	0xbdfdfcdf	-0.12401747
196	0xbdeee47c	-0.11664674
197	0x3e2b04a5	0.1670099
198	0x3e39cd2e	0.18144676
199	0x3c84a32e	0.016191091
200	0xbd4e1580	-0.050313473
201	0xbe287590	-0.16451097
202	0xbdef2d05	-0.11678509
203	0x3df44057	0.11926334
204	0xbdf7c3de	-0.120979056
205	0xbca50442	-0.020143632
206	0x3bc2a2ec	0.005939832
207	0xbcad71ae	-0.02117237
208	0x3dcb01df	0.09912466
209	0xbe077457	-0.13227974
210	0xbd20a640	-0.03922105
211	0x3df94057	0.12170475
212	0x3e1a0103	0.15039448
213	0xbe2cebf5	-0.16886885
214	0xbe23ea1f	-0.16007279
215	0xbdac3635	-0.08408777
216	0xbcb1f9ec	-0.021725617
217	0xbccb6eb6	-0.024833065
218	0xbd68c0b0	-0.056824386
219	0xbd50c248	-0.05096653
220	0x3d13d977	0.036096063
221	0xbd6e1d0c	-0.05813317
222	0xbc9b7bc2	-0.01897991
223	0x3e0721a0	0.1319642
224	0x3e2352fc	0.15949625
225	0xbcacb3b4	-0.021081783
226	0x3dd09e5c	0.10186455
227	0xbe15f9f9	-0.14646138
228	0x3e2b5858	0.16732919
229	0x3e21c01f	0.15795945
230	0xbcaf971d	-0.021434361
231	0x3e2d7161	0.16937782
232	0x3d2266b4	0.039648727
233	0xbddc1eba	-0.10748048
234	0x3d96bbc2	0.07360031
235	0x3c433b92	0.011916058
236	0x3dfb512f	0.12271344
237	0x3e31ea60	0.17374563
238	0x3d8d5bda	0.06902285
239	0x3e2bfcec	0.16795701
240	0xbe2888e5	-0.16458471
241	0x3dda81c0	0.10669279
242	0x3db4c451	0.08826507
243	0xbe00b1bf	-0.12567805
244	0xbdaa0e87	-0.08303552
245	0x3d20a1ef	0.039216932
246	0x3da66a01	0.081256874
247	0x3d36c05c	0.044617042
248	0x3d7c0e66	0.06153717
249	0x3d4e6ae4	0.050394908
250	0xbdd32899	-0.10310478
251	0x3e104277	0.14087854
252	0x3d91ee17	0.0712549
253	0x3ccbdcf4	0.024885632
254	0x3db6c9fc	0.08925244
255	0x3b4b6a6c	0.0031038774

Critic.fc2.bias f4 [32]
0	0x3e1110c2	0.14166549
1	0x3cbe16cf	0.023204235
2	0x3d5c0644	0.053716913
3	0x3e1e256a	0.1544396
4	0xbcaa729a	-0.0208066
5	0xbd6c2bec	-0.057659075
6	0x3dd9186e	0.10600363
7	0x3ddc4915	0.10756127
8	0xbdf22aa9	-0.11824543
9	0xbe1dea9d	-0.15421529
10	0x3d21fc23	0.039547097
11	0xbd96ba35	-0.07359735
12	0xbc8d2b27	-0.01723249
13	0xbdf7c08b	-0.120972715
14	0x3e08909c	0.13336414
15	0xbd6d8e96	-0.05799731
16	0xbc8ed765	-0.017436692
17	0x3cc05780	0.023479223
18	0x3dd4ee47	0.1039701
19	0x3e2216c7	0.15829001
20	0x3d62185a	0.055199005
21	0xbda3d5e6	-0.07999782
22	0x3d910610	0.070812345
23	0xbd712f68	-0.0588831
24	0x3c174388	0.009232409
25	0xbd778432	-0.060428806
26	0xbd9d0a06	-0.076679274
27	0xbd4a3e90	-0.04937607
28	0xbe28943f	-0.16462801
29	0x3d16fd42	0.03686262
30	0xbe3a52d4	-0.18195659
31	0xbd71461a	-0.058904745

Critic.fc3.weight f4 [1, 32]
0	0x3d8ffc6b	0.07030567
1	0xbde9e0f6	-0.11419861
2	0xbce220bd	-0.027603501
3	0x3dc2e1de	0.09515737
4	0xbdbe38e2	-0.09288193
5	0x3c54eabc	0.012995418
6	0xbd94922a	-0.07254441
7	0x3de68ea3	0.112576745
8	0xbc33fc06	-0.01098538
9	0xbe20f48d	-0.15718289
10	0xbe27cb60	-0.16386175
11	0x3dd1a97f	0.10237407
12	0x3d9ab70d	0.075544454
13	0x3d38f26c	0.045153067
14	0xbd6bcdb8	-0.057569236
15	0x3e016b75	0.12638648
16	0x3d5006f0	0.050787866
17	0xbde1ab1e	-0.11018966
18	0x3cf19a43	0.029492503
19	0xbd27a22a	-0.040926136
20	0xbe1a2454	-0.1505292
21	0xbdabc714	-0.083875805
22	0xbd7e90d6	-0.062149845
23	0x3cf4bf8c	0.029876493
24	0xbaa10f30	-0.0012287851
25	0xbe219f50	-0.15783429
26	0x3e00dd77	0.12584482
27	0xbd564dd2	-0.05232031
28	0x3e19b858	0.15011728
29	0xbe2109c6	-0.15726385
30	0xbdcbe48b	-0.099557005
31	0x3dcc48e4	0.0997484
