model_1.pt (torch, 114732 bytes, 13 tensors)

Actor.fc1.weight f4 [32, 378]
0.41165847 -0.044143375 0.10883266 -0.00082618964 -0.027511574 -0.17505878 -0.39157274 0.47897065
0.28363428 0.32601202 0.22493753 -0.030041123 0.3718281 0.18874586 0.38998544 0.059634317
0.40719798 0.2325004 0.32613814 -0.02687717 -0.110882565 -0.23902726 0.5945774 0.3617101
0.1606228 0.30836275 0.101645775 0.016690386 -0.30783746 -0.22692214 0.46196467 0.12483212
0.085193574 0.07365109 -0.0949728 0.2633639 0.19330904 -0.17638475 0.13511744 0.057689264
0.008684186 -0.12875731 0.25994286 0.1045119 0.19238959 0.33299404 0.21736412 0.00663181
0.029273855 0.0142445685 0.0055627525 -0.0459055 -0.028063314 0.032784406 -0.034580488 0.004781193
-0.031927787 0.08241283 0.09303396 0.23552461 0.33428982 0.20277439 -0.18328899 -0.12031066
0.12593779 0.037984118 0.08548744 0.23168284 0.26478684 0.2303402 0.42443225 -0.49553475
0.17168485 0.431425 -0.02838966 0.18668209 0.0108201 0.07155143 0.20126829 0.18456645
0.5077433 -0.70080125 0.50444055 0.50832635 -0.1608252 0.5728922 0.06668473 -0.07631129
-0.002219629 0.060914114 0.2866286 0.2139349 0.05564459 0.40950492 -0.039880663 0.026790373
0.004889882 0.23477381 0.16876931 -0.05246366 -0.23990981 -0.49419785 -0.081867896 -0.2170581
0.086513706 -0.15914361 0.026433542 0.35738745 0.36431247 0.07289729 -0.022834238 -0.26893768
-0.12773685 -0.05983227 0.009149441 -0.27817535 0.10318869 -0.057940274 -0.08168145 -0.09793965
0.03568707 -0.2011953 -0.05817109 0.0012135517 -0.0010047177 0.07295015 0.08083855 -0.03224332
0.074442 -0.09188254 0.6807893 -0.5928277 -0.09193166 -0.6875773 -0.10291768 0.013163898
0.022705832 0.009898401 0.06509084 -0.15440343 0.10508803 -0.30395412 -0.086725764 -0.31347406
-0.12789547 -0.06341806 0.06264638 -0.05018249 -0.0039007936 -0.09712016 -0.21589169 0.32096916
-0.08532267 -0.29741755 0.025396107 0.052718963 0.019606736 -0.024048226 0.11474111 -0.12412466
-0.03900946 -0.09850477 -0.048071213 0.028820692 0.06543715 0.04337809 0.041928012 0.06787801
-0.013583737 0.07626204 0.2574232 0.19278002 -0.07083203 -0.17938581 0.018048806 0.04071689
0.06540431 -0.020409662 -0.07179272 -0.05762429 0.13161327 0.10897783 0.08382629 -0.19728823
-0.020791462 0.012673215 0.0654324 -0.020178778 -0.008752488 0.016618518 -0.0056360113 -0.04765192
-0.02568661 0.057920784 -0.24066393 -0.16112389 0.2434429 0.22651595 0.058061186 -0.23571372
-0.06279033 0.37987033 0.41628549 -0.118550465 0.14756073 -0.17587902 0.038361643 0.3863507
0.3306036 -0.061458122 0.27261484 -0.11118906 0.30896685 0.026033685 0.4400545 -0.14925884
0.18845317 0.21634382 0.030492341 0.04532466 -0.041476816 -0.25116134 0.1642199 0.24968958
0.0034135315 -0.0038697484 -0.023689928 -0.24335162 0.18235181 -0.2588383 0.07830571 0.27711943
0.28156996 0.110634826 0.22912405 0.054405924 0.017234534 0.12497629 0.09234555 -0.084218614
0.07271866 0.050183743 0.035917457 0.05361826 0.040265057 -0.086666636 0.0058602537 0.041603792
-0.17062072 0.07055072 0.24240741 0.103087574 -0.035914216 -0.115696535 -0.25035122 0.103084
00000000: e6c4 d23e afcf 34bd a8e3 de3d a694 58ba
00000010: f45f e1bc 9c42 33be 397c c8be a43b f53e
00000020: 8338 913e 0ceb a63e 0656 663e cd18 f6bc
00000030: 4160 be3e 9846 413e 2cac c73e 1d43 743d
00000040: 417c d03e 9614 6e3e 94fb a63e 832d dcbc
00000050: 6616 e3bd 90c3 74be 3936 183f 1132 b93e
00000060: 4e7a 243e b9e1 9d3e a92b d03d 47ba 883c
00000070: df9c 9dbe 475e 68be a286 ec3e fca7 ff3d
00000080: f879 ae3d 62d6 963d 1981 c2bd a2d7 863e
00000090: cef2 453e 349e 34be 3a5c 0a3e 944b 6c3d
000000a0: 1e48 0e3c f5d8 03be 3b17 853e 560a d63d
000000b0: c701 453e 327e aa3e b394 5e3e a84f d93b
000000c0: b9cf ef3c 0d62 693c c047 b63b 6807 3cbd
000000d0: 09e5 e5bc f148 063d 45a4 0dbd 8eab 9c3b
000000e0: b6c6 02bd 0fc8 a83d 9788 be3d 5d2d 713e
000000f0: 0928 ab3e 17a4 4f3e 1cb0 3bbe 6f65 f6bd
00000100: d6f5 003e 3c95 1b3d 0a14 af3d 443e 6d3e
00000110: 2492 873e 4dde 6b3e 2f4f d93e bbb6 fdbe
00000120: 27ce 2f3e bde3 dc3e 6f91 e8bc 9729 3f3e
00000130: ca46 313c 8e89 923d 4619 4e3e fdfe 3c3e
00000140: 77fb 013f b667 33bf 0423 013f ad21 023f
00000150: 5caf 24be 10a9 123f 0192 883d 1849 9cbd
00000160: 3277 11bb 1481 793d fcc0 923e c011 5b3e
00000170: 95eb 633d a1aa d13e e859 23bd 7c77 db3c
00000180: 4e3b a03b 8c68 703e ddd1 2c3e 22e4 56bd
00000190: ebaa 75be 8007 fdbe 5baa a7bd 7b44 5ebe
000001a0: 192e b13d 8bf6 22be 288b d83c 7dfb b63e
000001b0: 2a87 ba3e 2d4b 953d de0e bbbc 33b2 89be
000001c0: 73cd 02be af12 75bd 89e7 153c 006d 8ebe
000001d0: 9854 d33d c852 6dbd 9b48 a7bd 9594 c8bd
000001e0: 9b2c 123d 2406 4ebe cf44 6ebd 0a10 9f3a
000001f0: bbb0 83ba e366 953d af8e a53d 9211 04bd
00000200: 0c75 983d ea2c bcbd 3548 2e3f 8ec3 17bf
00000210: ab46 bcbd 1105 30bf 81c6 d2bd 64ad 573c
00000220: 9501 ba3c e72c 223c 594e 853d ef1b 1ebe
00000230: 6538 d73d e09f 9bbe 479d b1bd ac7f a0be
00000240: 08f7 02be 54e1 81bd bf4c 803d 288c 4dbd
00000250: 75a4 7fbb efe6 c6bd b612 5dbe 1256 a43e
00000260: a7bd aebd 1d47 98be 7f0b d03c d7ef 573d
00000270: 4e9e a03c c900 c5bc 63fd ea3d 1235 febd
00000280: 62c8 1fbd debc c9bd 52e6 44bd 5f19 ec3c
00000290: ea03 863d 39ad 313d b5bc 2b3d a003 8b3d
000002a0: 538e 5ebc 462f 9c3d f9cc 833e 2068 453e
000002b0: 6210 91bd eab0 37be 17db 933c c1c6 263d
000002c0: b2f2 853d 2a32 a7bc 1008 93bd 7307 6cbd
000002d0: a1c5 063e c52f df3d 1ead ab3d ed05 4abe
000002e0: db52 aabc 51a3 4f3c 6c01 863d f74d a5bc
000002f0: 9866 0fbc 8f23 883c 4aae b8bb a92e 43bd
00000300: ba6c d2bc 583e 6d3d 9b70 76be a9fd 24be
00000310: 1849 793e ccf3 673e 91d1 6d3d f05e 71be
00000320: 3798 80bd 5d7e c23e 5f23 d53e 96ca f2bd
00000330: 291a 173e a119 34be 1921 1d3d c2cf c53e
00000340: e044 a93e 83bb 7bbd 2c94 8b3e 17b7 e3bd
00000350: e730 9e3e 9844 d53c d34e e13e 4fd7 18be
00000360: def9 403e 3c89 5d3e 13cb f93c 5aa6 393d
00000370: 98e3 29bd 3898 80be 4329 283e a0ae 7f3e
00000380: 8eb5 5f3b 9b9b 7dbb 6111 c2bc 2b31 79be
00000390: 6fba 3a3e 7486 84be be5e a03d 99e2 8d3e
000003a0: f029 903e 8394 e23d 7f9f 6a3e bfd8 5e3d
000003b0: 702f 8d3c 92f3 ff3d aa1f bd3d cf7a acbd
000003c0: 85ed 943d 788d 4d3d 2f1e 133d d29e 5b3d
000003d0: f9ec 243d 477e b1bd 5f07 c03b bd68 2a3d
000003e0: 33b7 2ebe e57c 903d a639 783e 941f d33d
000003f0: c91a 13bd 4ef2 ecbd 092e 80be b41d d33d

Actor.fc1.bias f4 [32]
0.06308882 0.5387732 -0.53926164 -0.32077336 -0.21922588 -0.16647781 -0.15721077 -0.5123026
-0.037129756 -0.37911847 -0.019105304 -0.07175451 0.2537816 -0.16814151 0.12123068 -0.14350934
0.14212039 -0.26709628 -0.43527213 -0.21287474 -0.16674902 -0.5038426 -0.42847174 0.34082332
0.4961248 -0.19251543 0.09706967 0.6031695 -0.2593093 0.18076836 -0.34794274 -0.28095037
00000000: b634 813d 0aed 093f 0d0d 0abf 683c a4be
00000010: c07c 60be 2979 2abe dcfb 20be 4326 03bf
00000020: 5f15 18bd d11b c2be ba82 9cbc 07f4 92bd
00000030: a9ef 813e 4a2d 2cbe ca47 f83d 1df4 12be
00000040: 0288 113e d8c0 88be fddb debe d6fb 59be
00000050: 41c0 2abe d4fb 00bf a660 dbbe 6580 ae3e
00000060: 1204 fe3e c422 45be 77cc c63d 5169 1a3f
00000070: 30c4 84be 571b 393e 8d25 b2be bad8 8fbe

Actor.fc2.weight f4 [32, 32]
0.10094812 -0.4266493 -0.27967197 -0.17042214 0.016389148 0.022389304 -0.16545036 -0.08917241
-0.09850134 -0.29942623 -0.18339673 -0.084142156 -0.24715516 -0.21140079 0.017995117 0.011740654
-0.10315181 -0.16437149 0.054890145 0.05097196 -0.107653774 -0.052071646 -0.01574849 -0.2997282
-0.24834068 -0.030671868 -0.24054772 -0.16286881 -0.22498125 -0.03867051 0.20667379 -0.109207004
-0.26912937 -0.7349839 -0.09367092 -0.003819569 0.10023544 -0.21385771 0.06664743 -0.19825087
-0.089986876 -0.3354131 -0.44745412 -0.059658043 0.035694305 -0.6505519 -0.5051235 -0.16987287
-0.15953763 -0.071616575 -0.05972233 0.18887016 -0.2879798 -0.049908794 -0.3618888 -0.11162861
-0.63949895 -0.04331437 -0.6001936 -0.35059172 -0.4143159 -0.032510694 -0.055931475 -0.22383524
0.08350429 -0.2180269 -0.098329075 -0.07169794 0.069136426 0.013339925 -0.20791014 0.04557729
0.042599715 0.027399328 -0.07299062 -0.20559335 -0.22465128 -0.17929126 -0.062173065 0.025422107
-0.09978695 -0.22793867 -0.24017577 -0.04361994 0.049501557 0.12562788 -0.16123202 0.029764276
-0.14004116 0.1270222 -0.19355103 -0.049815167 -0.04362694 -0.06437528 0.009292338 0.16572422
-0.2844401 0.11126639 -0.05760712 0.07035617 -0.5027297 -0.26201412 -0.4616698 -0.08606254
-0.22570121 -0.13896522 -0.287083 -0.3191415 -0.2719089 -0.112870626 0.17149441 -0.8096795
-0.4873701 0.051592857 -0.13059527 -0.06959607 -0.75311875 -0.07611227 0.050878722 -0.08225015
-0.22604898 -0.6525162 -0.14185697 -0.6872802 -0.2345465 -0.16059743 -0.26971203 -0.12487104
-0.08532844 -0.08882008 -0.09816938 -0.05711443 -0.22311625 -0.21921685 -0.26016235 -0.17882784
-0.032340426 -0.03922155 -0.075407535 -0.09638702 -0.1469038 -0.2383471 -0.05051332 0.022320824
-0.08671938 -0.15470132 -0.11464139 -0.21317561 0.16029698 -0.06618829 -0.013784119 0.025607705
-0.16038594 0.03756951 -0.06392822 -0.27741778 0.1004063 -0.14386706 -0.009396371 0.05711058
0.06005295 -0.22824252 0.02381359 -0.058594573 -0.30048826 -0.06893179 -0.04297857 -0.45532992
-0.33296397 -0.36481524 -0.6174895 -0.08745178 -0.31224796 -0.12782529 -0.4267125 -0.24658653
-0.37916157 -0.09279095 -0.049658705 -0.28902534 -0.044610806 -0.038943518 -0.17457712 0.16690174
-0.17153254 -0.26813203 0.08492743 -0.24855632 -0.21699454 -0.26261824 -0.1982789 -0.36913145
0.0075959284 -0.1603603 -0.092446476 0.009051023 -0.022755072 -0.082586855 0.14347856 -0.15501155
-0.20070335 -0.22730865 -0.24802558 -0.085467815 -0.15055044 -0.30063644 -0.17575334 -0.14717229
-0.0253298 -0.045275472 -0.15887238 -0.056766585 -0.05798782 0.062630676 -0.102676496 -0.05268147
-0.2602187 -0.19806285 0.002226932 -0.09920572 -0.093465604 -0.15409547 -0.10895991 -0.22098677
-0.1442986 -0.70880985 -0.06443369 -0.2060108 -0.008832642 -0.18607372 0.15144505 -0.13034125
-0.018906832 -0.15041018 -0.2721183 -0.17242315 -0.16225374 -0.58274204 -0.6061067 -0.56741524
-0.37375253 -0.4476345 -0.14931735 -0.3276134 -0.25861427 0.047354467 -0.26446784 -0.17740792
-0.5560435 -0.15693106 -0.24173261 -0.6968909 0.1681344 -0.7991656 0.028412933 -0.11416765
00000000: e3bd ce3d c771 dabe 2a31 8fbe 2483 2ebe
00000010: 8942 863c c669 b73c d26b 29be 06a0 b6bd
00000020: 12bb c9bd 654e 99be 5acc 3bbe b952 acbd
00000030: 3e16 7dbe 7379 58be 7f6a 933c df5b 403c
00000040: 4241 d3bd 0051 28be 7dd4 603d f9c7 503d
00000050: 9579 dcbd 1449 55bd fa02 81bc fa75 99be
00000060: 054d 7ebe 9243 fbbc 2452 76be 15c7 26be
00000070: 7c61 66be f864 1ebd 4ba2 533e eca7 dfbd
00000080: 53cb 89be e827 3cbf 8ad6 bfbd bc51 7abb
00000090: 3d48 cd3d 84fd 5abe 737e 883d 4702 4bbe
000000a0: 0a4b b8bd 44bb abbe b518 e5be fe5b 74bd
000000b0: 3134 123d 928a 26bf c64f 01bf 27f3 2dbe
000000c0: d55d 23be b6ab 92bd 679f 74bd 2e67 413e
000000d0: 1772 93be 2a6d 4cbd 7d49 b9be 8a9d e4bd
000000e0: 34b6 23bf 696a 31bd 4aa6 19bf c280 b3be
000000f0: 3721 d4be ef29 05bd 6718 65bd 1135 65be
00000100: 4c04 ab3d 7242 5fbe c160 c9bd 5fd6 92bd
00000110: 6697 8d3d b38f 5a3c 65e6 54be 41af 3a3d
00000120: 0a7d 2e3d 8e74 e03c 1b7c 95bd 1087 52be
00000130: fc0a 66be 2198 37be 2fa9 7ebd 0642 d03c
00000140: 1a5d ccbd c168 69be a3f0 75be d2aa 32bd
00000150: 25c2 4a3d 98a4 003e 021a 25be 36d4 f33c
00000160: f366 0fbe 1c12 023e 3e32 46be fd0a 4cbd
00000170: 2ab2 32bd 30d7 83bd e43e 183c 9cb3 293e
00000180: 22a2 91be a2df e33d 72f5 6bbd e516 903d
00000190: e5b2 00bf b726 86be fc5f ecbe 8f41 b0bd
000001a0: 381e 67be e64c 0ebe 8bfc 92be 8466 a3be
000001b0: a537 8bbe b728 e7bd 3b9c 2f3e 2847 4fbf
000001c0: 9388 f9be 0853 533d c4ba 05be 6288 8ebd
000001d0: 64cc 40bf c0e0 9bbd 3566 503d c472 a8bd
000001e0: 6279 67be 4d0b 27bf f442 11be 98f1 2fbf
000001f0: f52c 70be a773 24be b217 8abe 63bc ffbd
00000200: adc0 aebd 4de7 b5bd 070d c9bd d2f0 69bd
00000210: 9678 64be 627a 60be 0034 85be a51e 37be
00000220: 6577 04bd c7a6 20bd 446f 9abd 8f66 c5bd
00000230: f36d 16be 4311 74be 0ee7 4ebd 29da b63c
00000240: ee99 b1bd 066a 1ebe 1bc9 eabd b54a 5abe
00000250: e424 243e ba8d 87bd c9d6 61bc 40c7 d13c
00000260: 363c 24be 7de2 193d ccec 82bd b409 8ebe
00000270: d1a1 cd3d e351 13be 3df3 19bc c9ec 693d
00000280: 15fa 753d 68b8 69be b814 c33c dd00 70bd
00000290: 99d9 99be 1c2c 8dbd 4c0a 30bd 0121 e9be
000002a0: 417a aabe 10c9 babe cb13 1ebf eb19 b3bd
000002b0: f7de 9fbe a2e4 02be 107a dabe 2e81 7cbe
000002c0: 7721 c2be 2e09 bebd ed66 4bbd 21fb 93be
000002d0: d2b9 36bd 3d83 1fbd 58c4 32be 4ae8 2a3e
000002e0: 3aa6 2fbe 9a48 89be 6fee ad3d 8c85 7ebe
000002f0: d133 5ebe e675 86be a009 4bbe ccfe bcbe
00000300: 44e7 f83b 7e35 24be 9454 bdbd be4a 143c
00000310: d868 babc 4c23 a9bd 0bec 123e 59bb 1ebe
00000320: 2e85 4dbe 99c3 68be 6bfa 7dbe c009 afbd
00000330: e529 1abe 05ed 99be aff8 33be 55b4 16be
00000340: 7180 cfbc c672 39bd 71af 22be 1484 68bd
00000350: a384 6dbd 8344 803d 0e48 d2bd 86c8 57bd
00000360: 633b 85be fdd0 4abe b8f1 113b 5e2c cbbd
00000370: e56a bfbd 34cb 1dbe 6026 dfbd 5b4a 62be
00000380: 03c3 13be 9074 35bf cff5 83bd 7ff4 52be
00000390: c9b6 10bc 1c8a 3ebe 6914 1b3e 2d78 05be
000003a0: 80e2 9abc 2005 1abe 1753 8bbe b28f 30be
000003b0: d825 26be 952e 15bf cf29 1bbf 2042 11bf
000003c0: 7e5c bfbe 5930 e5be a6e6 18be f2bc a7be
000003d0: 1769 84be c2f6 413d 5468 87be 6caa 35be
000003e0: de58 0ebf 89b2 20be c188 77be 7167 32bf
000003f0: 6d2b 2c3e 1e96 4cbf 3dc2 e83c bbd0 e9bd

Actor.fc2.bias f4 [32]
-0.23218033 -0.6227084 -0.20549324 -0.000446083 -0.29241744 -0.33969554 -0.34941888 -0.9054445
-0.15332708 -0.041080326 0.067214504 0.04003935 -0.28251794 -0.22298312 -0.13653854 0.025342207
0.010369387 -0.11337826 -0.60451996 -0.110603005 -0.08000774 -0.26487976 0.086039424 -0.13305749
-0.07456076 -0.98630106 -0.1902639 -0.5508988 -0.6233043 -0.29018548 0.0104204435 -0.10850445
00000000: aec0 6dbe d169 1fbf d26c 52be 3fe0 e9b9
00000010: bdb7 95be 93ec adbe 08e7 b2be 36cb 67bf
00000020: c601 1dbe d843 28bd c2a7 893d 4d00 243d
00000030: 31a6 90be b055 64be c2d0 0bbe 769a cf3c
00000040: 5de4 293c dc32 e8bd d2c1 1abf d483 e2bd
00000050: 19db a3bd 529e 87be 7035 b03d 3940 08be
00000060: 50b3 98bd 3a7e 7cbf 8ad4 42be b407 0dbf
00000070: df90 1fbf 3193 94be 82ba 2a3c 9537 debd

Actor.mean_fc3.weight f4 [17, 32]
0.074354544 -0.40189627 0.25169712 0.17285427 -0.01059296 -0.30411506 0.28201103 -0.13184887
0.1078036 0.14405805 0.052772183 -0.013306541 -0.0032289773 -0.1618718 -0.23721921 0.0830112
0.25039867 -0.20624672 0.12793007 -0.24422391 0.12331803 0.74075186 0.2368167 0.16102521
-0.26823232 -0.08507191 0.4266073 -0.07556098 0.14760236 0.20912053 -0.08781314 0.041335918
-0.008671612 -0.13813208 0.112193085 0.036974445 0.10287466 -0.55827624 0.124998845 -0.08615367
0.009543794 0.0589101 0.1551516 0.02388493 -0.078705244 -0.13470149 0.27835298 0.27171206
-0.030590605 0.23123841 0.19690973 0.015925597 -0.06292963 -0.109961346 0.090107664 -0.090624884
0.13107656 -0.12239901 -0.0744518 0.11169833 0.089210644 -0.40779334 -0.6048395 0.020619648
-0.04783381 0.018778358 0.1581763 0.24370232 -0.13094309 0.14014797 -0.3196861 0.17637311
0.51853764 0.20595378 0.30263355 -0.10813916 -0.25594747 -0.25390473 0.0774809 -0.0021624889
-0.29152992 0.106745206 0.12755081 -0.37895766 -0.20115422 -0.1996229 -0.39683294 0.40308216
0.17108747 0.23468216 -0.37926805 0.29356116 0.021840513 0.17701846 -0.058798 -0.043339744
-0.3711343 -0.061775163 0.10000942 -0.00041965357 -0.1111057 -0.079211615 -0.24773854 -0.32081148
-0.45388055 -0.06544925 0.14462331 -0.2084513 0.3904995 0.056405324 0.30849865 0.15845191
-0.48087513 0.22854467 0.15367286 -0.041947156 -0.02996264 0.14682826 0.18169293 -0.106467664
0.13552998 -0.09264827 0.61725247 -0.124821626 0.13127266 0.27521086 -0.13403133 0.042061247
0.18645044 0.19656806 -0.13357563 0.33978805 0.107272476 -0.21829925 -0.13621488 -0.30178317
0.0183448 -0.22263385 0.0393184 -0.019939367 0.22311741 0.09443756 -0.21890198 0.5652579
0.011329588 -0.08415634 -0.0734718 -0.511035 -0.0866136 0.22831714 0.20706764 0.098961696
-0.20298846 0.2531077 0.3292333 0.27164212 0.032317054 -0.20194729 0.27998325 -0.15922298
-0.14208533 0.39366964 0.45350742 0.2089549 -0.16276482 0.32186657 -0.12614846 -0.35064548
-0.109134644 0.14920962 0.2173346 0.22543824 0.24259712 0.24341607 -0.2610564 -0.29916847
-0.061020777 0.12056954 0.21031508 0.0060566734 -0.23836617 0.054416005 0.054053262 0.24128975
0.0279073 -0.024242373 0.0071379337 0.25737202 -0.22724444 -0.12466577 -0.30633518 0.5102587
0.036306772 -0.051615044 -0.06921768 0.33820972 0.41044593 -0.14464222 -0.18803105 -0.1218064
0.11122743 0.23939052 0.058551926 0.2712172 -0.11100203 -0.14728059 -0.0072600893 0.2863916
-0.021429436 -0.16343452 -0.06693565 -0.3513644 0.61553174 0.09166786 -0.10661211 0.1319594
-0.08830743 -0.013629971 0.046058916 -0.14306037 -0.13206322 0.0016393758 -0.29193777 0.22069724
0.4343657 -0.3376089 -0.23005693 0.048475023 0.09824653 0.01049502 0.50715786 -0.31769636
0.019447032 0.13430782 0.032172456 -0.12609039 -0.123136826 -0.3962704 -0.24944201 0.2763187
-0.55927795 0.013299456 -0.108583175 0.06331138 -0.039148983 0.08005872 0.079462565 -0.062561065
0.15400271 0.14898928 0.0555593 -0.2513435 -0.19880407 0.1176331 -0.17477907 -0.20346761
00000000: 3247 983d 59c5 cdbe 72de 803e b600 313e
00000010: 188e 2dbc f8b4 9bbe c063 903e 6403 07be
00000020: 22c8 dc3d f483 133e a527 583d ae03 5abc
00000030: 409d 53bb b9c1 25be 98e9 72be c701 aa3d
00000040: 4134 803e 5732 53be 1a00 033e d515 7abe
00000050: 2a8e fc3d eaa1 3d3f 1480 723e cbe3 243e
00000060: bf55 89be 2e3a aebd 466c da3e b7bf 9abd
00000070: 1325 173e b123 563e 60d7 b3bd da4f 293d
00000080: 6013 0ebc 7f72 0dbe 7dc5 e53d 8472 173d
00000090: f3af d23d 31eb 0ebf 65ff ff3d 5671 b0bd
000000a0: 935d 1c3c b84b 713d 10e0 1e3e 54aa c33c
000000b0: 3730 a1bd 30ef 09be 4884 8e3e d81d 8b3e
000000c0: 2699 fabc c3c9 6c3e b4a2 493e 6676 823c
000000d0: 40e1 80bd 6a33 e1bd 5e8a b83d 8a99 b9bd
000000e0: ef38 063e 55ac fabd 2f7a 98bd 18c2 e43d
000000f0: 12b4 b63d 4aca d0be c3d6 1abf 89ea a83c
00000100: 63ed 43bd 12d5 993c f8f8 213e 1a8d 793e
00000110: f215 06be f382 0f3e e6ad a3be 279b 343e
00000120: e2be 043f 8ce5 523e c9f2 9a3e 1078 ddbd
00000130: 8c0b 83be cdff 81be 4eae 9e3d 8bb8 0dbb
00000140: 6943 95be 3b9d da3d ae9c 023e bd06 c2be
00000150: 5ffb 4dbe f269 4cbe b02d cbbe c960 ce3e
00000160: 8e31 2f3e 8550 703e 6c2f c2be a64d 963e
00000170: e0ea b23c 5444 353e 2cd6 70bd 0485 31bd
00000180: 5105 bebe f407 7dbd bdd1 cc3d f304 dcb9
00000190: 638b e3bd b339 a2bd 2caf 7dbe 6741 a4be
000001a0: 0863 e8be 420a 86bd 2218 143e 4274 55be
000001b0: 8def c73e 4509 673d 89f3 9d3e 3841 223e
000001c0: 4435 f6be 9d07 6a3e 6b5c 1d3e c8d0 2bbd
000001d0: 3674 f5bc 265a 163e b60d 3a3e b80b dabd
000001e0: 5fc8 0a3e 60be bdbd 4204 1e3f 7ba2 ffbd
000001f0: 576c 063e 70e8 8c3e 823f 09be 6a48 2c3d
00000200: ddec 3e3e 2349 493e 0dc8 08be b3f8 ad3e
00000210: acb1 db3d d789 5fbe ea7b 0bbe 5383 9abe
00000220: d647 963c 21fa 63be 550c 213d e257 a3bc
00000230: e478 643e 7b68 c13d d727 60be beb4 103f
00000240: bc9f 393c 295a acbd 6278 96bd 31d3 02bf
00000250: 7962 b1bd f8cb 693e 8a09 543e 6eac ca3d
00000260: 35dc 4fbe 5597 813e 4491 a83e ad14 8b3e
00000270: e35e 043d 45cb 4ebe f759 8f3e 590b 23be
00000280: d17e 11be 118f c93e 2032 e83e 46f8 553e
00000290: d2ab 26be b2cb a43e 102d 01be ce87 b3be
000002a0: fc81 dfbd 68ca 183e f68c 5e3e 48d9 663e
000002b0: 616b 783e 1042 793e 2fa9 85be 9c2c 99be
000002c0: ecf0 79bd 2aed f63d d65c 573e 0f77 c63b
000002d0: 4316 74be 51e3 5e3d f466 5d3d a914 773e
000002e0: da9d e43c f197 c6bc 54e5 e93b 44c6 833e
000002f0: c4b2 68be c450 ffbd f7d7 9cbe 50a0 023f
00000300: 69b6 143d 4c6a 53bd 00c2 8dbd d329 ad3e
00000310: f825 d23e 171d 14be 368b 40be a275 f9bd
00000320: 35cb e33d ca22 753e 25d4 6f3d fbdc 8a3e
00000330: 0855 e3bd b9d0 16be 0be6 edbb eba1 923e
00000340: c98c afbc 615b 27be 8f15 89bd 09e6 b3be
00000350: 7d93 1d3f 5cbc bb3d 7357 dabd 5d20 073e
00000360: 87da b4bd 3e50 5fbc 46a8 3c3d 6b7e 12be
00000370: 953b 07be 53e0 d63a de78 95be 75fe 613e
00000380: 2e65 de3e 13db acbe 0b94 6bbe bf8d 463d
00000390: 7a35 c93d 4ef3 2b3c 19d5 013f 19a9 a2be
000003a0: 624f 9f3c fd87 093e 44c7 033d d71d 01be
000003b0: 292f fcbd f4e3 cabe ba6d 7fbe a579 8d3e
000003c0: d72c 0fbf f6e5 593c db60 debd 66a9 813d
000003d0: af5a 20bd d4f5 a33d 45bd a23d 0420 80bd
000003e0: e3b2 1d3e a590 183e 2692 633d 18b0 80be
000003f0: 4b93 4bbe 9fe9 f03d 49f9 32be d059 50be

Actor.mean_fc3.bias f4 [17]
0.043885723 -0.019342622 0.08549454 -0.15257654 0.11032049 0.16893817 0.05920216 -0.012725208
-0.054321196 0.12588212 -0.029963227 -0.076749764 -0.048798673 -0.15448396 0.091060266 0.0071561765
0.055730652
00000000: 84c1 333d 6b74 9ebc c317 af3d 063d 1cbe
00000010: b6ef e13d 21fe 2c3e f77d 723d 647d 50bc
00000020: e77f 5ebd 3ee7 003e 7175 f5bc fb2e 9dbd
00000030: 1ee1 47bd 0b31 1ebe ce7d ba3d 5c7e ea3b
00000040: d345 643d

Actor.log_std_fc3.weight f4 [17, 32]
0.099718295 -0.1647276 -0.35087666 -0.04538959 0.13195004 -0.2145505 0.06479005 0.11520722
-0.13574821 0.11518962 -0.25622073 0.06847955 0.1012777 -0.2649052 0.34787127 0.443986
-0.040500563 -0.79736876 -0.34561032 0.21619771 -0.25460044 -0.07633785 -0.3465312 -0.09569092
0.11451114 -0.72685283 0.08115386 0.078381054 -0.11755413 0.25017023 0.25179926 0.02229887
0.14918646 0.2625735 0.26303592 0.12870385 0.25270793 0.0733027 -0.057712555 -0.3326402
-0.0080903005 0.15664703 -0.28860065 -0.3903122 0.09114506 -0.02580264 0.19403468 -0.008565133
0.11737381 -0.21733041 -0.66710943 0.08165277 -0.002779001 0.029076062 -0.2858438 -0.079259366
-0.2273786 -0.16617265 -0.23867472 -0.15688922 -0.065835975 -0.59217507 -0.031653125 -0.033411656
-0.16188878 0.22699814 0.018889738 -0.46970794 -0.23791939 -0.9991537 0.24574015 -0.5308077
-0.05883325 0.46294063 -0.29069117 -0.53328514 0.32891914 -0.41274565 0.11450355 -0.085113645
0.03417607 -0.67462426 -0.76470256 0.009275841 0.27078408 -0.48337594 -0.00038592986 -0.11819817
-1.0352099 -0.5392698 0.014043206 -0.5445167 -0.1526783 -0.4716877 0.37282565 -0.1468256
0.30568877 -0.11096336 -0.36283517 -1.0827464 -0.07740634 -0.47860932 -0.27463585 -0.53239083
0.14817715 0.0075788205 -0.046512052 0.3854967 0.11214784 0.0392101 0.33922812 -0.10535245
-0.124361664 -0.18161525 -0.42161173 0.562199 0.019151889 -0.018538177 0.095005654 -0.23437583
0.11198685 -0.67578095 0.28548262 -0.047849588 0.19213592 -0.26011187 0.25775936 0.18778363
0.22471009 -0.7279907 -0.40169284 -0.86070013 -0.05445224 -0.9132017 -0.40438467 0.14496459
-0.5289733 0.18433926 -0.7424292 -0.2843927 -0.025205508 -0.7679187 0.17563982 0.006789231
0.45231637 -0.8813929 0.12950508 -0.6512981 0.18049616 -0.26708996 -0.5074722 -0.12755637
-0.15965956 -0.7085253 -0.061699834 -0.24818209 0.05083548 -1.2418593 0.34675285 0.39948264
-0.053995002 -0.69486976 0.088726036 -0.19808936 -0.17716588 -0.66181827 -0.042578585 0.3315938
-0.13204722 -0.24602826 -0.089475445 -0.15993178 -0.014859694 -0.8341821 0.09348526 -0.14614764
0.10562949 -0.5465887 -0.07775619 -0.24813673 -0.5040414 0.040007155 0.21464235 -0.15195581
0.323215 -0.5335816 0.0191919 -0.06711535 0.15754218 0.22026858 0.38011253 -0.22200726
-0.2642384 0.09041542 0.14272036 -0.061767366 -0.1279863 0.06301912 -0.32553566 0.31987107
-0.07623228 0.18868028 0.5088411 -0.1823436 0.020146754 0.15636212 -0.0108944755 -0.244276
0.13365677 0.31060025 -0.19370788 0.035645645 -0.17609112 0.37870714 -0.03206643 0.17531428
-0.17497782 -0.0066610733 0.28887996 -0.64820355 0.07874724 0.21155003 0.11737948 -0.07054343
-0.3667661 -0.017578134 0.25207233 -0.13633686 -0.3445149 0.4119394 0.23036571 -0.57528394
0.16174676 -0.13208432 0.15314947 0.11888864 0.045649324 0.06567017 0.39141387 0.3084375
0.218503 0.30380374 0.09342937 -0.19671346 -0.16054668 0.23926938 0.6702471 -0.19823477
-0.5044332 -0.5264947 -0.17613845 -0.001615252 -0.12828769 0.575625 0.21483564 -0.5667058
00000000: 1b39 cc3d 5aae 28be 1ba6 b3be 6fea 39bd
00000010: e91d 073e 20b3 5bbe a5b0 843d c3f1 eb3d
00000020: 9401 0bbe 89e8 eb3d 5d2f 83be 023f 8c3d
00000030: af6a cf3d a8a1 87be 2f1c b23e 2252 e33e
00000040: ebe3 25bd 5c20 4cbf d6f3 b0be ef62 5d3e
00000050: fd5a 82be 0557 9cbd 8a6c b1be 9af9 c3bd
00000060: d184 ea3d 0713 3abf ff33 a63d 3f86 a03d
00000070: 38c0 f0bd 5016 803e d5eb 803e 1fac b63c
00000080: 56c4 183e 0970 863e a5ac 863e f1ca 033e
00000090: ef62 813e ba1f 963d 0064 6cbd d14f aabe
000000a0: 2e8d 04bc 1468 203e 77c3 93be 00d7 c7be
000000b0: 43aa ba3d 0f60 d3bc 07b1 463e c654 0cbc
000000c0: ae61 f03d dd8b 5ebe afc7 2abf 9139 a73d
000000d0: e61f 36bb ec30 ee3c 1e5a 92be bc52 a2bd
000000e0: f0d5 68be 2a29 2abe 2567 74be 91a7 20be
000000f0: 03d5 86bd c998 17bf b5a6 01bd a9da 08bd
00000100: 2cc6 25be 3372 683e a7be 9a3c 8f7d f0be
00000110: 24a1 73be 89c8 7fbf 4ea3 7b3e 03e3 07bf
00000120: 22fb 70bd 8e06 ed3e 79d5 94be 6085 08bf
00000130: 1768 a83e 6653 d3be d680 ea3d 1050 aebd
00000140: 35fc 0b3d 2db4 2cbf 8cc3 43bf b2f9 173c
00000150: 36a4 8a3e 0d7d f7be a156 cab9 e211 f2bd
00000160: c281 84bf 960d 0abf 7a15 663c 7265 0bbf
00000170: b357 1cbe 0d81 f1be 01e3 be3e 7359 16be
00000180: 3d83 9c3e c240 e3bd 88c5 b9be 6f97 8abf
00000190: 3787 9ebd 480c f5be 129d 8cbe c44a 08bf
000001a0: c0bb 173e c157 f83b 6c83 3ebd d35f c53e
000001b0: c4ad e53d c59a 203d 4faf ad3e 06c3 d7bd
000001c0: 54b1 febd 59f9 39be 7edd d7be 46ec 0f3f
000001d0: 6ce4 9c3c 60dd 97bc 5392 c23d 3800 70be
000001e0: 5d59 e53d fbff 2cbf c72a 923e eefd 43bd
000001f0: 47bf 443e 622d 85be 09f9 833e 5a4a 403e
00000200: 671a 663e 995d 3abf afaa cdbe d856 5cbf
00000210: 5009 5fbd 96c7 69bf 820b cfbe 9971 143e
00000220: cb6a 07bf 6ec3 3c3e d70f 3ebf ec9b 91be
00000230: c87b cebc 5296 44bf edda 333e 3378 de3b
00000240: 0396 e73e f7a2 61bf fb9c 043e 79bb 26bf
00000250: fcd3 383e 04c0 88be b3e9 01bf 239e 02be
00000260: cc7d 23be ea61 35bf f7b8 7cbd 7223 7ebe
00000270: dd38 503d 3ff5 9ebf 9789 b13e fd88 cc3e
00000280: dd29 5dbd fce2 31bf ffb5 b53d f0d7 4abe
00000290: f96a 35be ec6c 29bf e266 2ebd aac6 a93e
000002a0: 6337 07be d5ee 7bbe e73e b7bd 28c5 23be
000002b0: 1376 73bc f58c 55bf 3375 bf3d baa7 15be
000002c0: 4654 d83d 3ded 0bbf a33e 9fbd 8e17 7ebe
000002d0: db08 01bf 8bde 233d 34cb 5b3e 4e9a 1bbe
000002e0: 707c a53e ce98 08bf 5538 9d3c c673 89bd
000002f0: bd52 213e 168e 613e 1c9e c23e df55 63be
00000300: 414a 87be b82b b93d 4925 123e c7ff 7cbd
00000310: d70e 03be 2b10 813d 9cac a6be 24c6 a33e
00000320: ab1f 9cbd 6735 413e 6943 023f 48b8 3abe
00000330: ce0a a53c 641d 203e be7e 32bc 7d23 7abe
00000340: 52dd 083e ff06 9f3e 5c5b 46be 2b01 123d
00000350: 3b51 34be e7e5 c13e 1758 03bd 9685 333e
00000360: 632d 33be 2245 dabb 13e8 933e abf0 25bf
00000370: 3c46 a13d 92a0 583e a764 f03d 1379 90bd
00000380: c4c8 bbbe 0500 90bc a00f 813e e49b 0bbe
00000390: 4264 b0be b9e9 d23e fde4 6b3e cf45 13bf
000003a0: f1a0 253e 1d41 07be 37d3 1c3e e37b f33d
000003b0: c9fa 3a3d 157e 863d 6667 c83e 85eb 9d3e
000003c0: 40bf 5f3e 2a8c 9b3e e657 bf3d 416f 49be
000003d0: 5966 24be 0803 753e 5095 2b3f 0efe 4abe
000003e0: 8922 01bf 5bc8 06bf a35d 34be ddb6 d3ba
000003f0: d95d 03be 295c 133f e0fd 5b3e a213 11bf

Actor.log_std_fc3.bias f4 [17]
-1.1604491 -1.2843593 -1.0877777 -2.4197276 -1.0951573 -1.388223 -6.3578944 -0.2983299
0.10993064 -1.2338132 -1.3905181 -7.599586 0.14183019 -0.027327152 -1.669973 -0.94001305
-0.9088377
00000000: 9989 94bf e365 a4bf 4d3c 8bbf d1dc 1ac0
00000010: 1d2e 8cbf 4bb1 b1bf df73 cbc0 b2be 98be
00000020: 5123 e13d 97ed 9dbf 7ffc b1bf cf2f f3c0
00000030: ef3b 113e 31dd dfbc adc1 d5bf b2a4 70bf
00000040: 96a9 68bf

Critic.fc1.weight f4 [32, 378]
-0.15692149 -0.09489022 -0.0052486095 -0.1049032 0.10836766 -0.04433961 -0.09107416 -0.11052691
-0.04545112 -0.048963957 0.011663409 0.002946375 0.1511169 0.1317738 0.20177886 0.120745175
0.13204935 0.22355735 0.049233887 0.06464047 0.09587655 0.08320029 0.13480327 0.052447293
-0.19202924 -0.034727 0.06792067 -0.05662869 0.08058625 0.08078241 -0.14412393 -0.07445701
-0.008243419 0.085159905 0.009538046 0.10658348 -0.05781604 0.043882754 0.065193854 0.112645335
-0.044988256 -0.09451588 0.071732715 0.07281576 0.005157914 -0.12333439 -0.1303065 0.017953841
-0.026163694 -0.0352035 0.04785022 -0.043352574 0.021402195 0.032390427 -0.039761245 -0.024853364
0.04491265 -0.017177751 -0.011517664 -0.22901209 -0.10027531 -0.0070887953 0.11335219 0.06460767
-0.10387533 -0.08646059 -0.031687077 -0.04264355 -0.036498215 -0.20196788 -0.10284064 0.017129151
-0.06152181 0.06544553 0.04265881 -0.03494079 -0.094459444 -0.06346282 -0.1968856 -0.12907344
0.0010310216 0.0022579022 -0.098407105 0.098197095 0.038848456 0.053959638 -0.07311624 -0.047760896
-0.1285851 -0.12915331 -0.01675144 -0.08809646 0.09870296 0.047271445 0.123519205 0.10538105
-0.06098213 -0.09501011 -0.070109114 -0.19403984 0.070396334 0.0014161489 0.092261545 -0.010316963
0.07783907 0.06352303 -0.090861924 -0.016786663 -0.023147048 -0.15554748 0.12713733 0.117642544
0.084108174 0.052973103 0.004086807 0.045377284 -0.12017986 -0.14832835 -0.14363657 -0.16480972
0.08395843 -0.0017666918 -0.12347904 0.058216933 -0.16980757 0.05417517 -0.035723396 0.020031424
-0.050650477 -0.16564594 0.15667745 -0.139628 -0.06438523 -0.12995343 -0.15531312 0.015085526
-0.07973673 0.028713409 -0.025733527 -0.12126136 0.10986495 -0.11430892 -0.03651736 -0.114004865
-0.07840066 -0.015679533 -0.040641136 -0.001015597 -0.052636173 -0.033035975 0.050657727 -0.056559276
0.004975129 0.019954387 0.06907184 -0.03157686 -0.09928849 -0.042179964 -0.03912895 -0.06917632
-0.09743431 -0.024244353 -0.07857565 -0.07830942 0.07608893 -0.042643312 -0.051503044 -0.040677205
-0.058491006 9.942464e-05 -0.06664029 -0.033328556 0.015217338 0.032259285 -0.06053302 -0.08270404
-0.03856069 0.030372582 -0.038883865 0.017425606 0.032222714 -0.022848241 0.05126575 -0.013776508
-0.013193406 -0.043877605 -0.052365 -0.043929268 -0.00090677 -0.03931501 0.037392434 -0.019886669
-0.028273126 0.017044874 0.11299328 0.07947314 -0.10321708 -0.066213325 0.06938716 -0.0063079186
-0.045726553 -0.12525721 0.1042376 0.008766194 0.068730004 -0.049723707 -0.13966404 -0.15442419
0.017286679 0.0014062321 0.03577534 0.13465907 -0.020424644 -0.042691994 0.031020323 -0.034766328
0.03734506 -0.08880808 0.038231276 0.043874282 -0.0525177 0.1693364 -0.062744215 -0.1327363
0.059812225 0.04248174 0.010051359 0.10480498 -0.11179567 -0.052176975 -0.026128773 -0.0839883
0.055776134 -0.057824988 -0.014142959 -0.049845833 0.06660528 -0.030239265 0.019331964 0.014609584
0.11320443 -0.06927946 0.092750326 -0.06509476 0.06625181 -0.02492045 0.047749758 -0.06407895
-0.053886253 0.04290916 0.029116916 -0.116181016 0.066116504 -0.05741275 -0.0737568 0.1399289
00000000: 07b0 20be ce55 c2bd 87fc abbb 7dd7 d6bd
00000010: ddef dd3d 739d 35bd 1785 babd ef5b e2bd
00000020: f42a 3abd 6e8e 48bd e217 3f3c f817 413b
00000030: 63be 1a3e b6ef 063e 1e9f 4e3e 3f49 f73d
00000040: f237 073e 38ec 643e 79a9 493d 3962 843d
00000050: ed5a c43d ea64 aa3d de09 0a3e f9d2 563d
00000060: 50a3 44be e63d 0ebd fe19 8b3d 7cf3 67bd
00000070: 670a a53d 4071 a53d 3995 13be eb7c 98bd
00000080: 680f 07bc 5168 ae3d 7745 1c3c 7148 da3d
00000090: 83d0 6cbd 67be 333d 5b84 853d 99b2 e63d
000000a0: 9b45 38bd 8b91 c1bd 9ae8 923d 6e20 953d
000000b0: b803 a93b be96 fcbd 116f 05be ef13 933c
000000c0: 3e55 d6bc 8c31 10bd 98fe 433d 7892 31bd
000000d0: a853 af3c d3ab 043d b0dc 22bd 4899 cbbc
000000e0: 54f6 373d 5bb8 8cbc 96b4 3cbc 2582 6abe
000000f0: 245d cdbd 2049 e8bb 3125 e83d 0751 843d
00000100: 97bc d4bd 4012 b1bd 4fca 01bd 01ab 2ebd
00000110: 277f 15bd abd0 4ebe 1d9e d2bd 6f52 8c3c
00000120: 4bfe 7bbd 4e08 863d 01bb 2e3d 131e 0fbd
00000130: f473 c1bd ccf8 81bd 619c 49be d42b 04be
00000140: 5823 873a 50f9 133b aa89 c9bd 8f1b c93d
00000150: 8f1f 1f3d c804 5d3d f8bd 95bd eea0 43bd
00000160: d0ab 03be c440 04be 513a 89bc eb6b b4bd
00000170: c724 ca3d b49f 413d a3f7 fc3d 05d2 d73d
00000180: 66c8 79bd a994 c2bd 5e95 8fbd 61b2 46be
00000190: f42b 903d 129e b93a 9ff3 bc3d 7b08 29bc
000001a0: 176a 9f3d 5d18 823d d115 babd 2f84 89bc
000001b0: e19e bdbc d747 1fbe 4a30 023e 93ee f03d
000001c0: e840 ac3d 53fa 583d 9fea 853b 88dd 393d
000001d0: dc20 f6bd 63e3 17be 7715 13be e1c3 28be
000001e0: 66f2 ab3d 5790 e7ba 94e2 fcbd e174 6e3d
000001f0: 09e2 2dbe c8e6 5d3d b252 12bd f118 a43c
00000200: e076 4fbd 179f 29be 0e70 203e a4fa 0ebe
00000210: 67dc 83bd 8312 05be 670a 1fbe 4829 773c
00000220: 034d a3bd 6238 eb3c 1ecf d2bc e057 f8bd
00000230: e000 e13d cc1a eabd 3a93 15bd 627b e9bd
00000240: 8690 a0bd 5d72 80bc 5277 26bd c81d 85ba
00000250: 0799 57bd bb50 07bd 7a7e 4f3d b3aa 67bd
00000260: 6806 a33b 6277 a33c 8975 8d3d bd56 01bd
00000270: c457 cbbd e6c4 2cbd ae45 20bd 51ac 8dbd
00000280: a48b c7bd 189c c6bc 45ec a0bd b060 a0bd
00000290: 83d4 9b3d c1aa 2ebd dbf4 52bd 249d 26bd
000002a0: 4494 6fbd 3282 d038 b47a 88bd 8683 08bd
000002b0: 2452 793c 5022 043d 79f1 77bd bc60 a9bd
000002c0: d0f1 1dbd eccf f83c b044 1fbd 25c0 8e3c
000002d0: f7fb 033d 3c2c bbbc 09fc 513d ddb6 61bc
000002e0: 2829 58bc 01b9 33bd af7c 56bd 2def 33bd
000002f0: 4eb4 6dba c708 21bd cf28 193d 5ee9 a2bc
00000300: 0b9d e7bc b1a1 8b3c 0569 e73d d0c2 a23d
00000310: 7a63 d3bd da9a 87bd db1a 8e3d a8b2 cebb
00000320: c44b 3bbd 6d43 00be 867a d53d 15a0 0f3c
00000330: 51c2 8c3d 16ab 4bbd 1704 0fbe 6021 1ebe
00000340: cb9c 8d3c 5251 b83a 2a89 123d 11e4 093e
00000350: 9551 a7bc cddd 2ebd 551e fe3c 2367 0ebd
00000360: 22f7 183d 03e1 b5bd 6698 1c3d 85b5 333d
00000370: cd1c 57bd 8566 2d3e 0a80 80bd 06ec 07be
00000380: aafd 743d 5501 2e3d 75ae 243c fea3 d63d
00000390: 21f5 e4bd 86b7 55bd 020c d6bc 0f02 acbd
000003a0: 8475 643d e5d9 6cbd dfb7 67bc 252b 4cbd
000003b0: 5968 883d 56b8 f7bc 115e 9e3c 095d 6f3c
000003c0: b9d7 e73d 64e2 8dbd e2f3 bd3d 6750 85bd
000003d0: 07af 873d f925 ccbc 4095 433d d33b 83bd
000003e0: d5b7 5cbd 84c1 2f3d 9986 ee3c 50f0 edbd
000003f0: 1768 873d a229 6bbd ce0d 97bd 8649 0f3e

Critic.fc1.bias f4 [32]
-0.020254841 -0.027611671 -0.25899455 -0.0876795 -0.075541385 -0.1774556 0.106513746 -0.17316528
0.0056408173 0.51799387 0.053846188 0.06904209 1.2753258 -0.09836839 0.2616003 0.018687196
-0.2519031 -0.19314718 -0.11638031 -0.41775355 -0.32935357 0.34443444 0.19786304 0.18401836
-0.11492325 -0.20571391 -0.15769723 -0.067849614 -0.026789889 -0.14255443 -0.110414736 -0.034667168
00000000: 7bed a5bc df31 e2bc ef9a 84be 4f91 b3bd
00000010: 71b5 9abd ecb6 35be e123 da3d 3d52 31be
00000020: 9bd6 b83b 3f9b 043f d28d 5c3d f065 8d3d
00000030: e03d a33f 5e75 c9bd 79f0 853e e415 993c
00000040: 71f9 80be 60c8 45be cd58 eebd cbe3 d5be
00000050: 08a1 a8be b659 b03e 9c9c 4a3e 4f6f 3c3e
00000060: e25c ebbd aba6 52be 627b 21be bdf4 8abd
00000070: 7876 dbbc caf9 11be 1f21 e2bd 29ff 0dbd

Critic.fc2.weight f4 [32, 32]
-0.19552404 -0.047268264 -0.09714047 -0.07762318 0.032313596 -0.13117155 -0.110136345 -0.027285082
-0.15102664 -0.08001492 -0.16289052 -0.22619002 0.04610794 0.07620601 -0.021624962 -0.04776219
0.09226753 -0.18676697 0.09037309 0.034321744 0.004160427 -0.43291342 -0.27212158 0.09325031
0.09440261 0.04102366 -0.18443687 -0.0012718732 -0.13811997 0.08748065 -0.1618516 -0.06225781
-0.1071549 -0.11318426 0.03463676 0.11648509 -0.30423337 -0.20216542 -0.13043647 -0.08402699
0.08025474 -0.0030930568 0.032326836 -0.13462491 -0.25916618 -0.21051897 0.065470725 -0.08282595
-0.25622827 0.003354707 0.04805093 -0.096074164 -0.028313747 -0.07671226 -0.085803755 -0.052651882
-0.21104974 -0.22074142 0.106621355 -0.18520401 0.049757957 0.060475297 -0.09823688 -0.059176415
-0.16306819 0.005512438 0.18089427 -0.0041083456 0.15696089 -0.076734506 -0.29038626 0.035516106
-0.13760865 -0.010622654 -0.08874263 -0.1175945 -0.22279318 -0.12699033 -0.07246195 -0.010657773
0.074361846 -0.041681085 -0.015333752 -0.130547 -0.16270067 -0.113531195 -0.15844896 0.029351143
-0.014630952 -0.0010865247 0.06463453 -0.17928268 0.023307787 -0.107831895 -0.09131977 -0.24132873
0.06349561 -0.077259205 -0.13164696 -0.05237563 -0.052916095 -0.04695835 -0.20317768 -0.08206748
0.0400286 -0.117378086 -0.18055293 -0.08287794 -0.1437465 0.09802499 -0.13573356 -0.042454436
-0.017357323 0.018063083 -0.2705417 -0.09852301 -0.032650817 -0.17426223 -0.13399592 -0.05079077
-0.17210965 -0.1650221 -0.060233917 0.052745886 -0.025396487 -0.15880612 -0.20281611 -0.14012147
0.088446006 -0.031024044 0.13938545 0.13378726 0.14324857 0.08842078 -0.22867668 0.016709425
-0.035678994 -0.16003732 -0.015228179 -0.13149375 -0.14603873 -0.046693876 -0.17502853 -0.007764336
0.08120733 -0.09234389 -0.07529686 -0.001351298 0.0060860193 0.05962575 0.027680365 -0.06040251
0.12373715 -0.07186076 -0.13061845 0.04084013 -0.060373172 -0.02863686 0.010519228 0.21411467
0.11216533 -0.050438277 0.053375248 -0.14404532 0.11761675 0.12053076 -0.055747565 0.023921689
-0.021566099 0.039469697 -0.010132903 -0.047568146 0.027897356 0.13013794 -0.106455095 -0.048849106
0.19505395 -0.05071568 -0.17443967 -0.23102984 0.08648542 -0.18872234 -0.1134317 -0.082270466
0.110276215 0.09531478 0.1035429 0.1076518 -0.096944585 0.0046921596 -0.11449435 -0.021656968
-0.2522748 -0.13273148 0.060812633 0.17210808 -0.063595824 0.1115672 -0.08526143 -0.1977299
0.06887356 -0.0059523624 0.088870086 -0.114553414 -0.022100525 -0.17073299 -0.07998709 -0.09940078
-0.18656619 0.08763667 -0.09349042 -0.13115935 -0.12848939 -0.29417163 0.03479599 -0.1300826
-0.1314886 -0.103176914 0.031046927 0.120646454 -0.101991355 0.15254815 -0.054391596 0.008855899
-0.002862743 -0.0020213255 0.16788068 -0.026173566 -0.08534266 0.044564717 -0.16084185 -0.060103852
-0.07385055 0.0630285 -0.022662105 0.20291582 0.14105329 -0.013698029 -0.044409797 0.012560701
-0.006670531 0.095001504 -0.13694385 0.035490867 -0.009543375 -0.031299286 -0.023945728 0.07634427
0.014285054 0.0042362614 -0.025871292 -0.05683072 -0.0026731803 0.14213349 0.042076986 0.026551994
00000000: 7437 48be 5e9c 41bd 95f1 c6bd e7f8 9ebd
00000010: 435b 043d d651 06be 2a8f e1bd f784 dfbc
00000020: baa6 1abe ddde a3bd c6cc 26be 5b9e 67be
00000030: aedb 3c3d e611 9c3d d526 b1bc 49a2 43bd
00000040: c2f6 bc3d d73f 3fbe 8715 b93d f594 0c3d
00000050: 3154 883b d4a6 ddbe 8553 8bbe 05fa be3d
00000060: 2856 c13d 6d08 283d 05dd 3cbe fcb4 a6ba
00000070: 526f 0dbe 0e29 b33d 6dbc 25be 0c02 7fbd
00000080: 0774 dbbd 26cd e7bd 46df 0d3d bc8f ee3d
00000090: 7ac4 9bbe 7404 4fbe 2391 05be 5816 acbd
000000a0: 995c a43d e2b4 4abb 2569 043d 1ddb 09be
000000b0: 6eb1 84be 4992 57be 8415 863d a7a0 a9bd
000000c0: 5a30 83be a5da 5b3b 0dd1 443d 88c2 c4bd
000000d0: 3bf2 e7bc 511b 9dbd e1b9 afbd 80a9 57bd
000000e0: 6c1d 58be 0a0a 62be 4c5c da3d 1fa6 3dbe
000000f0: 00cf 4b3d f2b4 773d 6b30 c9bd f862 72bd
00000100: 59fb 26be aea1 b43b 593c 393e 4d9f 86bb
00000110: 5bba 203e fb26 9dbd 82ad 94be 5679 113d
00000120: 48e9 0cbe a40a 2ebc b2be b5bd 63d5 f0bd
00000130: e523 64be c109 02be ee66 94bd f19d 2ebc
00000140: 064b 983d c9b9 2abd 6b3a 7bbc 1dae 05be
00000150: 019b 26be 0b83 e8bd 7240 22be cf71 f03c
00000160: a9b6 6fbc b869 8eba 1c5f 843d e195 37be
00000170: f9ef be3c f8d6 dcbd dc05 bbbd e11e 77be
00000180: fd09 823d 133a 9ebd 76ce 06be d487 56bd
00000190: 8cbe 58bd 6657 40bd cf0d 50be ff12 a8bd
000001a0: 07f5 233d ec63 f0bd dee2 38be e9bb a9bd
000001b0: 4832 13be 53c1 c83d bdfd 0abe b4e4 2dbd
000001c0: f230 8ebc 08f9 933c 7184 8abe 6fc6 c9bd
000001d0: ddbc 05bd cc71 32be 3a36 09be fc09 50bd
000001e0: 833d 30be 8efb 28be d7b7 76bd 120c 583d
000001f0: 4b0c d0bc 129e 22be 07af 4fbe 017c 0fbe
00000200: 2e23 b53d 2326 febc 0fbb 0e3e 87ff 083e
00000210: c1af 123e f415 b53d 382a 6abe 34e2 883c
00000220: 2324 12bd d3e0 23be 9d7f 79bc 4ca6 06be
00000230: 2d8b 15be 1442 3fbd ae3a 33be f96b febb
00000240: 0750 a63d cb1e bdbd 3d35 9abd 091e b1ba
00000250: 3b6d c73b 213a 743d efc1 e23c 9f68 77bd
00000260: e769 fd3d bc2b 93bd d8c0 05be fb47 273d
00000270: dc49 77bd d997 eabc d758 2c3c e040 5b3e
00000280: f0b6 e53d 5e98 4ebd 01a0 5a3d 9e80 13be
00000290: 0de1 f03d d5d8 f63d 8f57 64bd 6bf7 c33c
000002a0: 63ab b0bc faaa 213d 7a04 26bc d1d6 42bd
000002b0: ff88 e43c e142 053e 2105 dabd 0016 48bd
000002c0: 39bc 473e 3fbb 4fbd 50a0 32be 1693 6cbe
000002d0: 451f b13d 6e40 41be e14e e8bd 6b7d a8bd
000002e0: 7fd8 e13d 6534 c33d 4d0e d43d 8c78 dc3d
000002f0: e28a c6bd b0c0 993b 047c eabd f469 b1bc
00000300: 2a2a 81be c3ea 07be ab16 793d 1a3d 303e
00000310: 873e 82bd 587d e43d 8b9d aebd b579 4abe
00000320: 950d 8d3d 090c c3bb 8501 b63d fb9a eabd
00000330: 290c b5bc a1d4 2ebe 45d0 a3bd a392 cbbd
00000340: 350b 3fbe db7a b33d e877 bfbd a34e 06be
00000350: b992 03be aa9d 96be 3d86 0e3d 6034 05be
00000360: f3a4 06be 6b4e d3bd 2056 fe3c 7d15 f73d
00000370: d8e0 d0bd 9535 1c3e b9c9 5ebd 5518 113c
00000380: dc9c 3bbb 3778 04bb eae8 2b3e f269 d6bc
00000390: 22c8 aebd 7e89 363d bab3 24be 752f 76bd
000003a0: f53e 97bd 1615 813d e1a5 b9bc 2ac9 4f3e
000003b0: 4670 103e b36d 60bc 0ce7 35bd 66cb 4d3c
000003c0: 7894 dabb 2690 c23d 023b 0cbe df5e 113d
000003d0: d15b 1cbc ae33 00bd d529 c4bc 625a 9c3d
000003e0: dc0b 6a3c 56d0 8a3b 08f0 d3bc 54c7 68bd
000003f0: 8630 2fbb 718b 113e eb58 2c3d 9183 d93c

Critic.fc2.bias f4 [32]
-0.021834709 -0.22702728 -0.033865884 -0.23276626 0.2635323 -0.018837694 -0.08747029 1.0877428
-0.013098409 -0.08123999 -0.25282067 -0.034920987 -0.22212851 -0.30522123 0.17929645 0.6204561
-0.049327347 0.86220694 0.20807685 -0.21710607 -0.050711486 -0.1494748 0.1490414 -0.039289743
-0.049693782 0.09866541 -0.26393926 -0.30342895 0.21348341 -0.24315354 -0.027132863 0.08491673
00000000: b4de b2bc d779 68be f4b6 0abd 475a 6ebe
00000010: b5ed 863e 8251 9abc a023 b3bd 283b 8b3f
00000020: b69a 56bc 2761 a6bd b671 81be 4f09 0fbd
00000030: a875 63be f545 9cbe 7d99 373e 36d6 1e3f
00000040: 790b 4abd 98b9 5c3f 1912 553e 0e51 5ebe
00000050: d9b6 4fbd ec0f 19be 4f9e 183e 48ee 20bd
00000060: b58b 4bbd 1711 ca3d 0c23 87be 0a5b 9bbe
00000070: 659b 5a3e 3efd 78be bd45 debc d3e8 ad3d

Critic.fc3.weight f4 [1, 32]
-0.06184208 0.016248802 0.00033526286 -0.0010257951 0.0027435084 0.0038957756 0.015017747 0.033102613
-0.050460704 -0.10956672 0.039993655 -0.049881272 -0.035388708 0.020430299 0.0098984195 0.006411633
-0.04225984 0.072928175 0.0041268817 -0.052259907 -0.0016695053 0.0009919954 0.00052586955 -0.01845368
-0.012082464 -0.019357815 -0.0018664725 0.013969592 0.004782519 -0.024240838 0.036747232 -0.035837602
00000000: 1f4e 7dbd 351c 853c 38c6 af39 f973 86ba
00000010: 6fcc 333b 4550 7f3b ff0c 763c 9b96 073d
00000020: e2af 4ebd 8464 e0bd 63d0 233d 4e50 4cbd
00000030: c0f3 10bd 715d a73c fb2c 223c ad18 d23b
00000040: a718 2dbd 5e5b 953d cb3a 873b 7c0e 56bd
00000050: 4dd3 daba d805 823a 82da 093a 2c2c 97bc
00000060: 87f5 45bc 4894 9ebc 6da4 f4ba b7e0 643c
00000070: adb6 9c3b b994 c6bc 4484 163d 73ca 12bd
