model_8.pt (torch, 114732 bytes, 13 tensors)

Actor.fc1.weight f4 [32, 378]
000000 96 25 8c bb 2e 08 3e bc c6 a1 9c 3d c9 e6 d5 3d
       -0.0042769415 -0.01159863 0.07648043 0.104444094
000010 b5 32 f0 bc d6 6b 9b 3d 33 55 e5 3c 05 ed 17 3c
       -0.029321054 0.075889274 0.027994728 0.009272818
000020 fe a2 ea bc 5b e4 53 3c bf b7 cb bc ab 34 35 3d
       -0.028642174 0.012932862 -0.02486789 0.04423968
000030 d4 c2 88 bd c5 e9 69 bd 7c df ab bb ec cf 04 3d
       -0.066777855 -0.057107706 -0.0052451473 0.032424852
000040 24 e8 a9 bd de 0b de bd 48 18 c9 3d 13 c6 82 bd
       -0.082962304 -0.10842107 0.098190844 -0.06385436
000050 b6 13 cb bd 75 b2 d1 bd 6e 58 06 3e 56 49 5c bd
       -0.09915869 -0.10239116 0.13119671 -0.053780876
000060 fb e5 26 bd d8 27 e5 bb bf 19 8b bd f4 91 c6 3c
       -0.04074667 -0.006993275 -0.0679202 0.024239518
000070 e9 5e b2 3d 48 94 36 bc 8a 02 e8 3c ad ee d5 bd
       0.08709509 -0.011143751 0.028321523 -0.104459144
000080 d0 8d 49 3c cd e5 0a 3d 1a 88 78 3c 8a 14 b0 3c
       0.012301877 0.03391056 0.015169168 0.021494169
000090 4f b0 0c bd 3a 48 f6 bc 8e 2a 32 3d c0 00 89 bb
       -0.03434783 -0.030063737 0.043497615 -0.0041809976
0000a0 9b 6e d4 3a d4 bd a3 3d 51 2f d3 bd 54 76 f6 bd
       0.0016207279 0.07995191 -0.10311759 -0.12034288
0000b0 d2 01 fa bd c6 97 b8 3d 95 2c 08 bd bf 24 00 00
       -0.122073784 0.090133235 -0.03324564 1.3182e-41
0000c0 2b 57 1a 00 82 2a 00 80 71 08 00 00 63 c2 01 00
       2.418993e-39 -1.5249e-41 3.028e-42 1.61568e-40
0000d0 9b ae 00 80 91 9b 01 80 e4 48 00 00 0d 20 00 80
       -6.2637e-41 -1.47642e-40 2.6148e-41 -1.1498e-41
0000e0 a0 63 00 80 07 8c 9a 3d e8 f9 c2 3d 65 f9 d4 3d
       -3.5739e-41 0.07546239 0.09520322 0.10399131
0000f0 8c 14 08 3b 4e 83 d1 3c 73 1a ab 3b 8a 29 78 bd
       0.00207642 0.025575306 0.005221659 -0.06058649
000100 27 61 69 bb a5 2b 28 3d 31 c2 c5 3d b1 84 c7 3d
       -0.0035610886 0.041057248 0.0965618 0.09742106
000110 1b 16 5d 3d e4 cb 85 3d 24 19 fb ba 54 0e a1 3d
       0.05397616 0.0653303 -0.0019157273 0.07864061
000120 6f 6f 59 bb 55 ba 81 bd 4a 16 d6 bc f1 91 c4 3d
       -0.0033177992 -0.06334368 -0.026133675 0.095981486
000130 b0 e4 c0 3c d9 aa 9c 3c 3c 13 4a 3d 08 d0 ac 3d
       0.023546547 0.019124435 0.04933475 0.08438116
000140 e6 ce 81 3c 5a 1a 86 3d b0 14 62 bb 79 aa a1 bd
       0.015845727 0.06547995 -0.0034497194 -0.07893843
000150 62 eb e6 bc 3c 23 d0 3d f9 01 ba 3d c3 49 ac 3d
       -0.028188411 0.101629704 0.090824075 0.084125064
000160 99 8f ac 3d 4b f5 2d 3d b2 b7 61 3c 3a 2c 7f 3d
       0.084258266 0.042470258 0.0137767065 0.062298037
000170 fc 39 ad bd ee e8 17 39 b1 3a ab bc 01 0d a4 bc
       -0.08458325 0.00014487255 -0.02090201 -0.020025732
000180 e9 c4 c4 3c 9b 22 ed 3c 3a f5 ce 3c 6d 59 91 3d
       0.024019675 0.028947165 0.025263418 0.07097135
000190 e3 63 1f 3d 90 3f 03 3d db 95 b6 bd 61 21 88 3d
       0.03891362 0.03204304 -0.089153014 0.066469915
0001a0 d2 98 ec bc 8c e6 c3 bd ee 48 c6 3d 36 56 67 3d
       -0.028881464 -0.09565458 0.09681879 0.0564787
0001b0 ce ef f4 3c 3c d1 b0 3d a8 94 4f bd 2d 12 90 bd
       0.029899504 0.08633658 -0.05067888 -0.07034717
0001c0 1d a9 55 bc a5 05 98 bc 62 e9 f9 bc a5 c5 ac bc
       -0.013040808 -0.018557379 -0.030506793 -0.021090338
0001d0 90 f5 42 3d 05 28 d3 3d 59 ea 7e 3d 35 a3 63 3d
       0.047597468 0.103103675 0.06223521 0.05557557
0001e0 e5 45 82 bd d6 44 8a 3d 8d 56 b6 3d 23 e9 a1 3d
       -0.063609876 0.06751411 0.08903227 0.079057954
0001f0 63 5c 80 3d 52 71 ca bc 29 81 4d 3d f2 2f 88 3d
       0.06267621 -0.024712238 0.050172005 0.0664977
000200 31 b3 85 3c f2 85 20 3d 94 25 32 bd fb 49 eb 3c
       0.016320797 0.03919024 -0.04349287 0.0287218
000210 d0 aa db 3d 79 44 c9 3c 59 02 8e 3d 67 21 a9 bd
       0.10725939 0.024568783 0.069340415 -0.08258324
000220 64 80 01 3d 01 6b 50 3d 4f 9f aa 3d ef e1 8b 3d
       0.031616583 0.050883297 0.08331167 0.06830203
000230 50 80 80 3d 86 ce 9e bd 99 e6 06 3d cd 25 6c bd
       0.06274474 -0.07754235 0.03293476 -0.057653237
000240 53 c6 8a 3d 35 1d 31 bd 5b aa ae 3d 9e c7 52 3d
       0.067761086 -0.043240745 0.085285865 0.0514599
000250 99 62 e0 3d 04 a6 80 3d 4a e2 02 3c 41 d1 f9 bc
       0.10956306 0.06281665 0.007988522 -0.030495288
000260 a8 90 1e 3d 4f 5d 2b 3d 2f 12 9a bd ff f2 e9 3c
       0.038712174 0.041837033 -0.075229995 0.028558252
000270 d1 98 0b 3d 8f 4e 1c 3b 06 1f 9b 3d 80 8a a4 3d
       0.034081284 0.0023850536 0.075742766 0.08034229
000280 d6 35 4f 3d 3d be 63 bd b1 df 13 3d a0 82 05 3d
       0.05058845 -0.055601347 0.036102 0.032595277
000290 cf a5 e0 bd c1 9d bc 3d dc 1b 88 3d 70 fd 80 3d
       -0.109691255 0.09209777 0.06645939 0.06298339
0002a0 7d a6 81 3d 56 14 b8 3d ca f7 cb bb a6 b3 d1 bc
       0.06330583 0.08988254 -0.006224607 -0.025598358
0002b0 dd ab 00 bd 12 87 0d 3d ea 37 27 3d 99 eb 3a 3d
       -0.0314139 0.03455264 0.04082481 0.04563484
0002c0 98 4f dc 3d e0 f2 75 3c c7 2b 5a 3d d8 3c 98 3d
       0.10757369 0.015011519 0.053264406 0.0743348
0002d0 61 d4 08 bc 3d 45 89 bd 32 39 b2 bd ab 60 52 3d
       -0.008351416 -0.06702659 -0.087023154 0.05136172
0002e0 7a 8c 96 3d 2c 6f 37 3d f0 46 d4 3d ef 13 00 80
       0.073510125 0.044783756 0.10365093 -7.151e-42
0002f0 93 bd 00 00 50 29 02 00 a6 f2 01 80 81 47 01 80
       6.8006e-41 1.98491e-40 -1.78881e-40 -1.17486e-40
000300 13 5b 00 00 81 91 98 3c 45 2a f0 3c d3 0e 89 bb
       3.2671e-41 0.01862407 0.02931703 -0.0041826754
000310 75 69 26 bd ae f2 5e bc 40 3b 86 bd a3 3a 15 bd
       -0.040627915 -0.013607664 -0.0655427 -0.036432873
000320 67 1c bb bd b5 b4 cc bc 13 da cb 3c 42 e9 9a bc
       -0.09136277 -0.024988512 0.02488426 -0.018910054
000330 0b 16 57 bd 34 81 3c 3d c7 9f b9 bc 2f 19 be 3c
       -0.052511256 0.046021655 -0.022659196 0.023205368
000340 a0 34 65 3b 8d 76 63 bc 5e e2 69 bc a1 b8 ef 3b
       0.0034973994 -0.013883245 -0.014275162 0.0073157107
000350 39 f7 9b bc 25 bc a3 bc b5 11 41 3d 0d 1c a2 bc
       -0.019038783 -0.019987175 0.047136027 -0.019788766
000360 77 d2 8a bd 92 11 31 3d ef 97 cf 3d be c4 6b 3d
       -0.06778424 0.043229647 0.10136401 0.057560675
000370 63 9c 34 3d c9 de 61 3c 5e d7 da 3c 69 1a 5e 3b
       0.044094454 0.013786026 0.026714023 0.0033890253
000380 3d 48 e5 3d e8 e1 68 bc 95 80 a1 3d 11 f0 2a ba
       0.11195419 -0.0142140165 0.07885853 -0.0006520758
000390 6e 15 5f 3c 9a b9 40 bc 2f b4 d8 bb 86 0f fe bc
       0.013615949 -0.011763001 -0.0066132764 -0.031013262
0003a0 e6 aa 71 3d d0 9d 0b 3d 4f 09 35 bc c9 ed 25 bd
       0.059000872 0.03408605 -0.011049583 -0.040509973
0003b0 64 4d 8f 3d 81 ae d8 3c aa 55 8e 3d 85 42 e2 bc
       0.06997183 0.026450397 0.06949933 -0.02761961
0003c0 88 0d 10 bd 79 ed c8 3c 14 34 ca 3d 33 2a 8f 3c
       -0.035169154 0.024527298 0.09873214 0.017476177
0003d0 12 c6 21 3d 3b 59 76 3c e9 c2 8e 3a f3 0a 69 3d
       0.039495535 0.015035923 0.0010891828 0.056895208
0003e0 88 76 0c 3e 8c c2 6b 3d 7e 14 cb bd 3a 79 26 3e
       0.13717091 0.05755858 -0.09916018 0.16257182
0003f0 ce dd aa bc 28 b2 9f 3d f0 6c 08 3e 8d 3f 43 be
       -0.020857718 0.077976525 0.13322806 -0.19067211

Actor.fc1.bias f4 [32]
000000 20 e0 de 3d e8 69 99 3d 10 2d 69 bd 24 aa ec 3d
       0.10882592 0.07490903 -0.05692774 0.11555889
000010 4f 5a 12 3e 13 31 89 bd 97 50 1f 3e ef 16 08 bd
       0.14292262 -0.06698813 0.15558086 -0.033224996
000020 07 90 0c 3d aa 00 c6 3c ec 03 cd 3c ad ad 8c 3c
       0.034317043 0.024170239 0.025026284 0.017172659
000030 eb 1c 13 3e e9 fe cf 3d 90 c9 a0 3c cd 13 44 3d
       0.143665 0.10156042 0.019627362 0.047870446
000040 e9 85 02 b7 d7 43 81 3d 33 37 ad 3d 35 4f 05 3e
       -7.779782e-06 0.063117675 0.08457794 0.13018496
000050 ab c5 6e 3b 9f 40 88 bd b5 78 55 bb 2d 76 af 3c
       0.0036433737 -0.066529505 -0.0032573168 0.021418655
000060 d0 96 98 bc 88 71 4b 3c 91 fe 8a 3d 95 9a 0f 3e
       -0.0186266 0.012417205 0.06786836 0.14023812
000070 48 d2 1a 3d a8 e1 9b 3d 39 a8 02 bd 5e ce 0a 3e
       0.037798196 0.076114 -0.03189871 0.13555285

Actor.fc2.weight f4 [32, 32]
000000 b1 b6 00 bd 2b b5 0a 3e 3e 10 45 3c 9f 68 57 3e
       -0.031424228 0.13545673 0.012027798 0.21036004
000010 9b 2a 05 bd f0 6e be bd ab 61 f5 3d 06 30 0f 3e
       -0.032511335 -0.092985034 0.11981519 0.13983163
000020 2c ba 50 bd 28 e0 cc 3d 67 53 2b be 32 fc 39 3e
       -0.050958797 0.10003692 -0.16731034 0.18162611
000030 07 31 75 3b ac 8f 95 bd 7f ce 27 3e 0d 11 44 3d
       0.0037413256 -0.07302794 0.16387366 0.047867823
000040 99 2f 0e 3d 1b 74 1d bd 37 66 15 be 14 c3 2e 3e
       0.03471336 -0.038440805 -0.14589773 0.17066604
000050 72 a6 9b bd 27 35 21 3e 8c 10 cd bd bf c4 07 be
       -0.07600106 0.15742932 -0.10012922 -0.13258646
000060 df 8a 60 bd 6d f9 04 bd 72 ca 1a 3e 88 8b c3 3d
       -0.054819938 -0.032464433 0.1511629 0.09548098
000070 d6 83 24 3d 96 a9 ec 3d 7b 4c 0e be 95 cf 5a 3e
       0.04016479 0.115557835 -0.13896362 0.21368249
000080 10 cf e4 3d ac 6a 00 be db e4 61 3c a6 4d 18 3e
       0.111723065 -0.12540692 0.013787474 0.1487337
000090 d7 7c 6f 3e 1d 64 cb 3d 29 69 d8 3d 3c 60 f7 3d
       0.23387466 0.099312045 0.10566933 0.12078902
0000a0 e9 bf 2b 3e eb 9f 1c 3e 05 73 ce 3d 49 8a 01 bd
       0.16772427 0.15295379 0.10080532 -0.03162602
0000b0 4f d0 c8 bc 5f c5 29 be 07 42 de 3d f3 34 3f 3d
       -0.024513392 -0.16579197 0.108524375 0.046681356
0000c0 a6 33 ad bb 6c b6 16 3e 80 ea 95 3c 44 c8 3f 3d
       -0.005285698 0.14718026 0.018300295 0.046821848
0000d0 1e fa da bd df e0 be 3d 9b 9e e3 bd 05 2e 86 bd
       -0.10692237 0.093202345 -0.11114236 -0.06551746
0000e0 1f ba 5a bd 3e a5 05 3e 4c 82 ee 3d f8 a7 34 3e
       -0.053400155 0.13051316 0.11645946 0.176422
0000f0 9b e3 20 3d f7 ae f5 bc 3b 3f 04 3d d7 98 f8 3d
       0.03927956 -0.029990656 0.032286864 0.12138527
000100 39 c1 1d 3e 0f aa b0 bd e1 c3 02 bd 99 eb 2a 3e
       0.1540574 -0.08626186 -0.031925086 0.16691436
000110 d1 c6 62 3d 86 cb 36 bd f2 eb 68 3e 79 9f 03 3d
       0.055365387 -0.04462769 0.22746256 0.032134507
000120 48 e5 b6 3d 0c fa ce bd 73 2b 1b bc 30 35 0e 3e
       0.08930451 -0.101062864 -0.009470808 0.13887477
000130 ff 76 87 bd d6 e2 7c bd 88 60 4f bd bd c6 3f 3d
       -0.066144936 -0.061739765 -0.05062917 0.04682039
000140 a7 d8 20 b9 08 93 11 be 69 94 7a bd 2e e4 63 3e
       -0.00015339498 -0.14216244 -0.06117669 0.22255012
000150 a8 41 69 3d cb 86 06 bd 18 6c 0c 3e 56 d9 20 3e
       0.05694738 -0.032843392 0.1371311 0.15707907
000160 f9 26 5b bd ef 54 7d 3d 22 78 ca 3d da d4 ac 3d
       -0.053503964 0.061848577 0.09886195 0.08439036
000170 81 b2 25 3d b1 98 8d 3d 3b 32 c9 3d 04 0d 99 3d
       0.040453438 0.06913889 0.09824034 0.07473186
000180 ac 24 0d be 1a 08 38 bc 9b 07 e6 3d 1c f7 7a 3d
       -0.1378352 -0.0112324 0.112319194 0.061270818
000190 71 30 0b 3c bb 29 53 3d c7 48 44 3c a6 31 14 be
       0.008495436 0.05155347 0.011980242 -0.14472064
0001a0 fd 2d fe 3d c6 8d 86 3d 93 7e d0 3d 68 58 a0 3b
       0.12411115 0.0657001 0.10180392 0.0048933513
0001b0 25 be af 3d 2e b6 16 3d 52 10 15 bd 6a f2 40 3d
       0.08581189 0.036794834 -0.036392517 0.047106184
0001c0 3b 16 57 3d f7 90 7f bd f9 99 47 3d 06 04 c1 3d
       0.052511435 -0.06239411 0.048730824 0.094245955
0001d0 90 dd da bd 6c 82 b0 bd 8b 00 b3 3c 51 7c f5 bd
       -0.10686791 -0.08618626 0.021850845 -0.11986602
0001e0 49 34 66 bd 98 0d 1f be cf 43 c3 bd 46 cb 35 3e
       -0.056202207 -0.1553253 -0.09534418 0.17753324
0001f0 a8 50 27 3d 0c 98 a7 3d 7c 5f 09 be 30 65 71 3e
       0.040848404 0.081832975 -0.1341533 0.23573756
000200 96 13 b7 3d 8d b1 07 3d 71 70 11 be 7a 0d 3b 3e
       0.089392826 0.03312831 -0.14203049 0.1826686
000210 c1 46 07 3e 0f 9a a7 bd 72 53 e8 3d 94 8e 9b bb
       0.13210584 -0.08183681 0.11344041 -0.0047472212
000220 bd 8f 21 3e 09 5a 28 3e 31 c2 e4 3d dd f5 63 bd
       0.15777488 0.16440596 0.111698516 -0.055654395
000230 23 ba 64 3e a2 5a da 3d a1 72 4b bd 4d d7 48 3d
       0.2233663 0.10661818 -0.049669866 0.04903345
000240 fe 77 db bb ae b3 b5 bd d5 81 c4 3c ff b4 31 3e
       -0.006697654 -0.08872162 0.02398769 0.17354201
000250 a7 aa 44 3d e3 07 5e bd e0 3f a4 3d 44 43 47 bb
       0.04801431 -0.05420674 0.08019996 -0.0030405084
000260 70 3b 58 bd f0 1c 4a 3d f2 5c 8e bd f4 d9 72 bd
       -0.05279106 0.049344003 -0.06951322 -0.059289888
000270 4a 78 37 3d 7f 4e 15 be fe 25 16 3e e9 31 7a 3e
       0.04479245 -0.14580725 0.1466293 0.24433102
000280 40 df 9c bd 1e 56 4c bc 3a 20 5e 3d 3a d7 df bb
       -0.07659769 -0.012471704 0.054229952 -0.006831077
000290 eb c5 b5 bd 23 c3 ff bd 64 46 54 3e 1e c7 dd 3d
       -0.088756405 -0.12488391 0.20729977 0.10828994
0002a0 44 4c 0e 3e 18 be f3 bd ef 9e b8 3d 13 80 04 3e
       0.1389628 -0.11901492 0.09014689 0.12939481
0002b0 0d 95 27 3e 22 d4 36 3e 39 7f e7 3d b7 8f 4d 3d
       0.16365452 0.1785436 0.11303563 0.050185885
0002c0 78 7b fc bb c0 80 86 3d 78 e3 e7 3c 14 9e 50 3e
       -0.0077051483 0.06567526 0.028306708 0.20372802
0002d0 9d a4 90 bd ab 45 d0 3d ab 6f 9a 3d 51 4c 9a bd
       -0.070626475 0.10169538 0.0754083 -0.075340874
0002e0 c7 7b 03 bd b7 cb d7 bd f1 d9 41 3e ee 10 24 3e
       -0.032100465 -0.105369024 0.18930794 0.16022083
0002f0 35 6e 23 3d 5d d2 10 3e bc 56 df bd 94 7c 4e 3e
       0.039900023 0.14142747 -0.10905215 0.2016471
000300 40 d1 38 3d b3 91 ed 3d 2c 88 eb bd a5 0d de 3d
       0.04512143 0.116000555 -0.11500582 0.10842446
000310 23 e9 4f 3e 32 b7 11 3e 98 41 88 3d dc 89 aa 3d
       0.20303778 0.1423004 0.06653136 0.08327076
000320 d8 9d ea 3d 9c ad 14 bd 1c 32 67 bb 86 37 dc bc
       0.114558876 -0.03629838 -0.003527767 -0.026881944
000330 ea cf bd bd dc 72 02 3e 3f 22 12 3e 04 09 3d 3d
       -0.09268172 0.12739128 0.14270876 0.046151176
000340 b6 6e 28 bd a2 b2 1a 3e 38 1e 04 3e d3 47 55 3e
       -0.041121207 0.15107206 0.12902153 0.2082818
000350 23 75 fd bc 6b 82 d4 bd 14 0a b2 bd 0f 1e 6a bd
       -0.030939644 -0.10376438 -0.086933285 -0.057157572
000360 a8 7b 65 bd a9 b5 20 be be 41 8a bd 68 a4 e7 bc
       -0.05602613 -0.15694298 -0.067508206 -0.028276637
000370 ed a1 22 3d 0b c8 99 3d d1 1c 0c bd 48 71 37 3e
       0.039705206 0.07508858 -0.03420717 0.17914307
000380 34 92 3f bd 1c a5 bf 3d 50 31 96 bd ab 56 1a 3d
       -0.04677029 0.09357664 -0.07333624 0.03768031
000390 77 3e 9a 3d a4 cc 24 3d c6 9e b0 bd 95 ec 0c be
       0.075314455 0.040234223 -0.08624034 -0.13762124
0003a0 58 35 ba 3d 16 92 e1 3c ff 3f e1 bd 6d d5 17 3e
       0.09092206 0.02753548 -0.109985344 0.14827509
0003b0 4c 37 37 3e 5c 0f 03 3d b6 5b 18 3e 35 48 44 3d
       0.17892188 0.03199707 0.14878735 0.047920424
0003c0 93 7b 00 3c 1a 1d 1d 3e 75 8b 11 3e dd 25 01 3e
       0.007841962 0.15343133 0.14213355 0.126121
0003d0 28 1f 46 bc bc 98 8c 3d ab 24 7e bd 36 d9 ca bd
       -0.012092389 0.06865069 -0.062046688 -0.09904711
0003e0 4f 9e 60 bd de 32 13 be 21 50 17 bb 8d 38 f5 3d
       -0.054838475 -0.14374873 -0.0023088532 0.11973677
0003f0 e4 f7 22 3d 8e f5 ed bd 3e b4 25 3e bc 9e b4 3d
       0.03978719 -0.116191015 0.16182038 0.08819339

Actor.fc2.bias f4 [32]
000000 d9 d9 08 bd 55 0e 04 3e e0 a5 54 bd ef b4 8b 3d
       -0.03341088 0.12896092 -0.051916003 0.0682162
000010 22 f6 bd 3d e6 8d 60 3e b8 94 ff 3d 24 af b4 bd
       0.09275462 0.2192913 0.12479538 -0.08822468
000020 09 1a a4 bd fe 94 1c 3e 0f 65 08 3e 7a c5 50 3e
       -0.08012778 0.15291211 0.13319801 0.20387831
000030 19 38 1e 3e 58 75 11 3e 11 c7 05 3e 94 ab 82 3d
       0.15451087 0.1420492 0.13064219 0.06380382
000040 86 50 0c bc 8b e7 e7 3d 53 d3 c8 3c a6 4b 22 bd
       -0.00856412 0.1132346 0.02451483 -0.039622925
000050 24 48 1c 3b 06 d9 dd bc c5 7b c0 bd 25 63 4e 3c
       0.002384671 -0.027081024 -0.09398607 0.01259688
000060 cf db 58 3e fe f9 ab 3b 6e b1 2c 3e d0 93 55 3e
       0.211776 0.0052483073 0.16864559 0.20857167
000070 96 aa 3d 3e 51 76 c2 bd e7 25 c5 bc b2 3c 74 3d
       0.18522105 -0.09495223 -0.024065925 0.059628196

Actor.mean_fc3.weight f4 [17, 32]
000000 81 16 00 00 4e 85 35 81 83 ea 04 00 cf 03 00 00
       8.073e-42 -3.334009e-38 4.51469e-40 1.366e-42
000010 13 00 00 80 5a bb 30 00 63 32 00 00 bb 3d 0f 00
       -2.7e-44 4.475313e-39 1.8075e-41 1.399677e-39
000020 99 44 2e 00 fe 0c 0f 00 b5 18 00 00 0b 30 10 00
       4.249041e-39 1.382193e-39 8.863e-42 1.486603e-39
000030 b1 42 03 01 5e 37 00 80 de 01 00 80 ca 0e 00 80
       2.410875e-38 -1.9862e-41 -6.7e-43 -5.305e-42
000040 74 3f 7f 00 7e f4 32 00 5d ab a3 00 6d 34 00 80
       1.1685871e-38 4.679482e-39 1.503066e-38 -1.8807e-41
000050 0d d7 40 80 35 c1 7f 00 92 3a 00 00 02 49 00 80
       -5.954617e-39 1.1732418e-38 2.1011e-41 -2.619e-41
000060 20 0f 00 80 5c 4b 71 80 b7 42 00 00 75 3a 00 00
       -5.426e-42 -1.0404445e-38 2.3933e-41 2.097e-41
000070 34 78 28 00 52 0c 3b 00 da 4c 00 00 93 53 00 00
       3.71654e-39 5.422714e-39 2.7569e-41 2.9981e-41
000080 e8 99 dc 00 c3 48 00 00 cc 0c 00 00 4a 9c 2a 80
       2.025902e-38 2.6102e-41 4.59e-42 -3.913157e-39
000090 92 1b 00 00 8c cf 15 80 52 56 00 80 78 7b 8d 80
       9.89e-42 -2.002999e-39 -3.0966e-41 -1.2993097e-38
0000a0 20 68 00 00 d3 11 00 00 ae 08 00 00 c6 06 00 00
       3.7353e-41 6.394e-42 3.114e-42 2.43e-42
0000b0 bf 5a 00 80 8f d7 13 80 88 2b 1e 80 85 0a 00 00
       -3.2554e-41 -1.822202e-39 -2.770681e-39 3.774e-42
0000c0 6f 9a 8c 80 fb 68 00 80 d1 31 00 00 fd 6e 00 00
       -1.291237e-38 -3.766e-41 1.7871e-41 3.9815e-41
0000d0 7c 3c 1c 80 38 5a 00 80 60 ee 18 00 a0 17 08 80
       -2.593092e-39 -3.2364e-41 2.289565e-39 -7.43159e-40
0000e0 d0 d8 99 00 21 2f 00 00 a9 20 0d 00 54 2b 00 80
       1.4128609e-38 1.6907e-41 1.205578e-39 -1.5543e-41
0000f0 15 56 00 00 aa 5a 00 80 ac 43 00 80 8c 4a 00 00
       3.088e-41 -3.2524e-41 -2.4276e-41 2.6742e-41
000100 e7 46 00 00 7d 19 0a 00 2e 0a 00 80 72 37 00 00
       2.5435e-41 9.27498e-40 -3.652e-42 1.989e-41
000110 4f 3a 00 00 a6 09 00 00 b1 2a 00 80 41 bf b1 00
       2.0917e-41 3.461e-42 -1.5315e-41 1.6323492e-38
000120 2b 2b 00 80 a1 c7 44 80 f8 3f 00 00 e7 6b 00 80
       -1.5486e-41 -6.316427e-39 2.2948e-41 -3.8708e-41
000130 e1 3c 00 80 c6 35 40 00 fc 45 00 80 cb 1e 00 00
       -2.1839e-41 5.896762e-39 -2.5106e-41 1.1046e-41
000140 4d 08 00 80 24 2f 00 00 f3 5d 00 00 5e be 22 80
       -2.978e-42 1.6911e-41 3.3703e-41 -3.190698e-39
000150 5b b3 14 80 2d 0a 00 00 d3 0d 00 00 92 4e 50 80
       -1.90105e-39 3.65e-42 4.959e-42 -7.375025e-39
000160 a9 b8 17 00 67 31 47 01 4c 34 00 00 26 59 00 80
       2.17846e-39 3.6585972e-38 1.876e-41 -3.198e-41
000170 47 58 00 00 6f 3f 00 00 48 4c 00 80 94 29 3e 81
       3.1668e-41 2.2756e-41 -2.7365e-41 -3.492732e-38
000180 c2 d6 19 00 75 c7 35 80 7d 38 00 80 95 49 00 00
       2.372928e-39 -4.938833e-39 -2.0264e-41 2.6396e-41
000190 8e e9 10 80 83 3d 1d 00 9d 48 00 80 54 05 00 00
       -1.553152e-39 2.685296e-39 -2.6049e-41 1.911e-42
0001a0 13 60 10 80 65 0a 00 80 8d 67 00 80 03 45 00 80
       -1.503833e-39 -3.729e-42 -3.7147e-41 -2.4757e-41
0001b0 f5 d3 5a 81 3f fb 05 80 61 61 00 00 37 46 00 00
       -4.0192348e-38 -5.49308e-40 3.4933e-41 2.5188e-41
0001c0 f7 25 00 00 7e 1b 00 00 43 5b 0e 80 a2 6b 08 81
       1.3619e-41 9.862e-42 -1.318435e-39 -2.5056478e-38
0001d0 59 56 00 80 6d 10 00 00 c2 22 00 80 7b 06 00 80
       -3.0976e-41 5.892e-42 -1.2469e-41 -2.325e-42
0001e0 75 16 25 80 9c 2f 00 80 5b 08 00 00 07 38 00 00
       -3.40597e-39 -1.7079e-41 2.997e-42 2.0099e-41
0001f0 ab 62 00 80 0e 66 00 80 14 22 00 00 b5 1d 00 00
       -3.5395e-41 -3.661e-41 1.2225e-41 1.0657e-41
000200 d7 08 00 00 03 29 00 80 ca 41 00 00 c3 23 00 00
       3.171e-42 -1.4712e-41 2.36e-41 1.2829e-41
000210 2f 5a 00 00 ed 2a 00 80 17 6f 41 00 60 22 22 00
       3.2352e-41 -1.5399e-41 6.009159e-39 3.134738e-39
000220 f3 3a 00 00 41 5e 00 00 9b 18 00 80 74 51 00 00
       2.1147e-41 3.3812e-41 -8.827e-42 2.922e-41
000230 b5 2b 00 00 15 5a 00 80 8e b9 20 00 15 50 00 00
       1.5679e-41 -3.2315e-41 3.0053e-39 2.8728e-41
000240 fa 62 0d 80 58 88 05 80 e2 97 66 00 a2 52 18 80
       -1.229368e-39 -5.08088e-40 9.421706e-39 -2.233695e-39
000250 5b 3a 1e 80 50 6e 1d 00 a9 43 00 80 65 2f 00 80
       -2.775999e-39 2.702802e-39 -2.4272e-41 -1.7002e-41
000260 47 a3 6d 00 f5 08 00 80 69 2e 28 00 98 1a 00 00
       1.0068642e-38 -3.213e-42 3.690069e-39 9.54e-42
000270 b8 b9 1b 00 35 1d 00 00 f1 36 0d 00 03 52 00 00
       2.546182e-39 1.0478e-41 1.213571e-39 2.942e-41
000280 57 0a 00 00 ae 1f 00 00 74 51 00 00 a2 42 1c 00
       3.709e-42 1.1365e-41 2.922e-41 2.595297e-39
000290 dd 6b 00 00 a7 57 9e 80 5a 64 00 00 5b 1d 00 80
       3.8694e-41 -1.4541452e-38 3.6e-41 -1.0531e-41
0002a0 32 3a 51 00 51 36 00 00 d2 1f 00 00 e8 24 00 00
       7.459552e-39 1.9485e-41 1.1415e-41 1.324e-41
0002b0 ee 4d 00 00 be 44 00 00 b2 ac 3b 00 ed 73 58 00
       2.7956e-41 2.466e-41 5.480246e-39 8.12311e-39
0002c0 7b c8 ee 00 f4 7d 83 80 80 22 00 00 8b b7 1d 00
       2.1928767e-38 -1.2075633e-38 1.2376e-41 2.729072e-39
0002d0 94 1f 00 80 51 94 5f 00 ca 0f 00 80 f7 4e 00 00
       -1.1328e-41 8.777578e-39 -5.664e-42 2.8327e-41
0002e0 c6 21 00 80 15 5b 00 00 16 15 00 00 24 25 00 80
       -1.2116e-41 3.2674e-41 7.564e-42 -1.3324e-41
0002f0 d1 13 00 80 49 32 00 80 6e 27 0c 80 f6 55 00 00
       -7.109e-42 -1.8039e-41 -1.11617e-39 3.0837e-41
000300 fd 02 00 80 a2 25 00 80 d5 3c 00 00 4d 5f 00 80
       -1.072e-42 -1.35e-41 2.1822e-41 -3.4187e-41
000310 70 17 00 80 bb 34 00 80 f2 0f 00 80 3b 42 00 80
       -8.408e-42 -1.8916e-41 -5.72e-42 -2.3759e-41
000320 0c 3f 00 80 38 3e 00 00 b4 0c 00 80 0f 2f 00 80
       -2.2617e-41 2.232e-41 -4.557e-42 -1.6881e-41
000330 75 cb 0b 80 81 b1 0c 80 2a 2f 00 00 8e 5a 00 00
       -1.083177e-39 -1.165702e-39 1.6919e-41 3.2485e-41
000340 3a 5c 24 00 a2 17 00 80 03 4f 00 80 80 38 00 00
       3.339163e-39 -8.478e-42 -2.8344e-41 2.0268e-41
000350 f0 39 00 80 5d 54 00 80 55 34 00 00 23 1f 00 80
       -2.0784e-41 -3.0264e-41 1.8773e-41 -1.117e-41
000360 e2 00 00 80 d5 31 00 00 ea 7e 3f 00 63 6a 00 00
       -3.17e-43 1.7876e-41 5.831164e-39 3.8164e-41
000370 0a ad 20 00 22 55 00 00 3d 34 00 00 24 90 c7 00
       3.00081e-39 3.054e-41 1.874e-41 1.8326972e-38
000380 34 5e 00 80 dd 2d 00 80 d5 5c 00 00 8d 65 00 00
       -3.3794e-41 -1.6453e-41 3.3302e-41 3.643e-41
000390 b8 23 00 80 60 05 00 80 b9 09 00 80 33 bb 0a 80
       -1.2813e-41 -1.928e-42 -3.488e-42 -9.8551e-40
0003a0 62 51 00 00 18 2e 00 00 31 63 00 00 dc 30 00 00
       2.9195e-41 1.6535e-41 3.5583e-41 1.7527e-41
0003b0 43 26 00 80 57 21 00 00 f5 22 10 80 a2 6c 00 00
       -1.3726e-41 1.196e-41 -1.481908e-39 3.897e-41
0003c0 60 ca 07 80 98 f2 36 80 f1 0e 00 00 cd 30 00 80
       -7.15447e-40 -5.046143e-39 5.36e-42 -1.7506e-41
0003d0 31 6e 00 80 24 33 00 80 ef 54 00 80 ff 0b 00 80
       -3.9529e-41 -1.8346e-41 -3.0468e-41 -4.303e-42
0003e0 99 87 5f 80 21 54 13 00 ee 06 00 00 8c 22 00 00
       -8.773015e-39 1.775054e-39 2.486e-42 1.2393e-41
0003f0 c7 66 1e 80 f3 36 00 00 27 43 00 00 8c 0e 00 00
       -2.791934e-39 1.9712e-41 2.409e-41 5.218e-42

Actor.mean_fc3.bias f4 [17]
000000 94 68 00 80 0f 6a 00 00 15 41 00 00 e1 82 09 00
       -3.7516e-41 3.8047e-41 2.3347e-41 8.7347e-40
000010 86 0a 00 80 30 34 00 00 f1 f6 21 80 ca 9f 7f 00
       -3.775e-42 1.8721e-41 -3.119157e-39 1.172043e-38
000020 95 5e 9a 80 71 4e 1f 00 a0 7c 07 80 12 6a 00 80
       -1.4176596e-38 2.87504e-39 -6.87555e-40 -3.8051e-41
000030 0b 30 00 80 e7 04 00 80 0b 1a 00 00 9d 1b 00 00
       -1.7235e-41 -1.759e-42 9.342e-42 9.906e-42
000040 cd 12 00 80
       -6.744e-42

Actor.log_std_fc3.weight f4 [17, 32]
000000 13 b4 bd bc d0 c4 42 bc 8c 86 c0 bd 5f d8 62 bc
       -0.023157155 -0.011887744 -0.09400663 -0.013845532
000010 07 6a a7 bc 53 71 5a bc b0 c1 5c bc 88 ea 8e bd
       -0.0204363 -0.013332683 -0.013473913 -0.06978327
000020 c6 15 3f bc b0 b5 f4 bd 12 ab 4e bc f8 4e dc bd
       -0.011662906 -0.11948717 -0.0126140285 -0.107572496
000030 e8 d1 09 bd 61 6b 8a bc 70 9b 84 bd 18 a5 3b bc
       -0.033647448 -0.016896905 -0.0647496 -0.011452936
000040 a0 73 9b bc 28 be 70 bc 40 ad be bd 8c 9b 1f bc
       -0.018976033 -0.014693774 -0.093103886 -0.009741675
000050 a7 06 3b bc 47 fa 87 bc 42 58 4d bc 3e f5 26 bc
       -0.01141516 -0.016598834 -0.012533249 -0.010190306
000060 3a 00 33 bc df 88 0c bc 73 16 0e bc c4 1c 16 bd
       -0.010925347 -0.0085775545 -0.0086723445 -0.036648527
000070 e7 52 14 bc d9 c3 84 bc b8 4c 88 bc 81 28 98 bc
       -0.009052969 -0.016206669 -0.016638145 -0.018574001
000080 52 fc c7 bc 34 2c 2f bc e6 3d b3 bd 4a 43 cf bc
       -0.024412308 -0.010691691 -0.087520406 -0.02530064
000090 48 9a 41 bd 37 64 1c bc 88 be ab bc 69 4b 86 bd
       -0.047266275 -0.009545377 -0.020964876 -0.06557352
0000a0 f5 2b 90 bc 90 1c ba bd 0f 3b 21 bc 3a c4 aa bd
       -0.017599085 -0.09087479 -0.009840741 -0.083382085
0000b0 1e 61 6b bd 01 40 91 bc b2 db 6d bd cd f1 10 bc
       -0.057465665 -0.017730715 -0.058070846 -0.008846712
0000c0 70 eb c8 bc 16 07 73 bc c4 a4 a1 bd 09 05 94 bb
       -0.024526328 -0.014833232 -0.07892755 -0.004517202
0000d0 21 41 16 bc c6 52 b9 bc 33 bc 98 bc 71 1f 17 bc
       -0.009170801 -0.022622477 -0.018644428 -0.009223805
0000e0 6e 83 ef bb 46 c5 41 bc f4 f4 f9 bb 6a 84 2f bd
       -0.007309369 -0.011826819 -0.0076280776 -0.04285089
0000f0 20 ed 5b bc ca 5d a7 bc 99 20 89 bc bc 48 de bc
       -0.013423234 -0.020430464 -0.016739177 -0.027134292
000100 ef c4 a9 bc cc d1 37 bc 06 c5 b6 bd 51 7e f0 bc
       -0.020723788 -0.011219453 -0.08924298 -0.029357107
000110 33 0e 19 bd 9a 26 79 bc f8 41 81 bc 1c d6 84 bd
       -0.037367057 -0.015206957 -0.015778527 -0.064861506
000120 66 18 c1 bc 3b 58 c5 bd 72 4c 12 bc f3 94 ae bd
       -0.023571204 -0.09635969 -0.008929359 -0.085245036
000130 a5 09 47 bd 19 4a 84 bc b9 08 7f bd 29 10 8e bb
       -0.048593182 -0.016148614 -0.062264178 -0.0043354225
000140 0a 99 c4 bc 99 96 92 bc 68 0c 9e bd 72 d1 d9 bb
       -0.023998756 -0.017894076 -0.0771721 -0.0066472823
000150 fc 1e 24 bc a7 4c c8 bc dd f4 90 bc 60 12 e4 bb
       -0.010017153 -0.024450613 -0.017694885 -0.0069601983
000160 81 83 02 bc 30 95 28 bc 31 26 b1 bb 94 c4 26 bd
       -0.007965923 -0.010289475 -0.005406164 -0.040714815
000170 1e 81 89 bc 4e 1d af bc 0c 0a 5c bc 53 74 f3 bc
       -0.0167852 -0.021376278 -0.01343013 -0.029718554
000180 ab 78 e4 bc 4a aa 38 bc 30 13 a9 bd 6e 10 e2 bc
       -0.02788957 -0.011271069 -0.08255613 -0.027595725
000190 d9 03 5f bd 87 2b 40 bc 36 f0 93 bc 1a 2d 87 bd
       -0.05444703 -0.011729128 -0.018058877 -0.06600399
0001a0 ae 5b a1 bc 4d 79 ae bd 71 87 05 bc cd 0e a6 bd
       -0.019697037 -0.0851923 -0.0081499675 -0.08108292
0001b0 24 9f 70 bd f1 73 71 bc a3 34 76 bd 78 8d b8 bb
       -0.05874552 -0.014737115 -0.060108792 -0.0056320988
0001c0 8d ea b7 bc 76 13 5f bc f9 b0 a3 bd 1a 26 08 bc
       -0.02245071 -0.01361548 -0.07992739 -0.008309865
0001d0 53 b9 27 bc 4b 0d b5 bc db 1a 86 bc 71 4d d4 bb
       -0.010237056 -0.022101065 -0.016370228 -0.0064789583
0001e0 da 3c 17 bc f7 8e 47 bc 23 a2 d7 bb 38 ae 29 bd
       -0.009230817 -0.012180082 -0.0065806075 -0.041425914
0001f0 41 34 82 bc 0e 9e a4 bc 70 11 82 bc ba 86 f1 bc
       -0.015894057 -0.020094898 -0.015877455 -0.029483188
000200 69 5d cd bc 27 dd 6a bc 7e 22 af bd 93 1e ee bc
       -0.025068955 -0.014334953 -0.08551501 -0.029067313
000210 15 33 26 bd ab a4 7c bc 4a df 96 bc b3 ff 87 bd
       -0.04057606 -0.015420119 -0.01841702 -0.06640568
000220 f6 8d bd bc 18 17 bb bd 64 65 89 bb fc 56 a4 bd
       -0.023138981 -0.09135264 -0.004192995 -0.080244035
000230 01 33 45 bd 48 a6 8c bc 04 82 78 bd 78 80 97 bb
       -0.048144344 -0.017169133 -0.060670868 -0.004623469
000240 85 9e cc bc 7f 0c 8b bc 71 1f 9d bd 49 8b 1d bb
       -0.024977932 -0.016973732 -0.076720126 -0.002403932
000250 06 d7 23 bc ff 6c b6 bc 60 8e 9c bc 7a 90 1a bc
       -0.009999996 -0.02226877 -0.019110858 -0.00943386
000260 8b c6 05 bc 12 e4 2e bc 5e c3 01 bc 9c 98 1e bd
       -0.008165012 -0.010674493 -0.007920114 -0.03871976
000270 c6 75 75 bc 3b 69 d1 bc 4e fe 9a bc 7f 40 df bc
       -0.014981693 -0.025562873 -0.01892009 -0.027252434
000280 a5 1f de bc d0 75 15 bc 22 97 aa bd 47 31 cd bc
       -0.027114699 -0.009122327 -0.083296075 -0.025047911
000290 84 e9 4d bd 86 fc 65 bc aa 41 a4 bc 60 80 86 bd
       -0.050271526 -0.014037257 -0.020050842 -0.06567454
0002a0 f8 a5 7f bc 4e 5f ab bd 3b f3 af bb 47 c3 a6 bd
       -0.015603535 -0.08367787 -0.0053695715 -0.08142715
0002b0 97 90 80 bd 85 90 90 bc 02 78 5e bd 47 9a 0f bc
       -0.06277578 -0.017647037 -0.054313667 -0.00876481
0002c0 cd b9 c0 bc a0 0e 84 bc c6 29 ab bd 7f 4b 16 bc
       -0.023526097 -0.016120255 -0.08357577 -0.009173273
0002d0 a3 19 0a bc c5 ca ad bc e5 37 89 bc 8b c2 c7 bb
       -0.008428964 -0.021214852 -0.016750285 -0.0060961894
0002e0 57 d0 b4 bb 68 9c 47 bc b5 69 0a bc ac 14 33 bd
       -0.005518 -0.012183286 -0.008448054 -0.043720886
0002f0 83 22 7f bc 9b 35 b8 bc 65 37 60 bc 8b 38 d6 bc
       -0.015572193 -0.022486499 -0.013685082 -0.026150009
000300 58 cb 0f bd 3c 61 4c bc f9 5a b5 bd 29 0b d5 bc
       -0.035106033 -0.012474354 -0.08855242 -0.026006298
000310 8c 5e 92 bd 62 42 49 bc 74 9d 97 bc f3 12 26 bd
       -0.0714694 -0.012283893 -0.018507697 -0.040545415
000320 2a e4 ce bc ed 1b b9 bd c6 10 b5 bb b5 3d a4 bd
       -0.025255281 -0.090385295 -0.005525681 -0.08019582
000330 3d e4 5c bd ad 1b aa bc 6c 0a 26 bd ab b1 cd bb
       -0.053928602 -0.02076515 -0.040537283 -0.006277283
000340 5a d5 be bc f9 55 80 bc 50 44 9f bd a6 c4 97 bb
       -0.023295093 -0.015665995 -0.077767015 -0.0046315966
000350 6f a1 3b bc bc fb b7 bc 51 d3 83 bc b1 d3 dd bb
       -0.011452063 -0.022458903 -0.016091974 -0.0067696203
000360 af 33 d2 bb a3 97 43 bc 75 3d c4 bb a0 f1 10 bd
       -0.0064148526 -0.0119380085 -0.0059887716 -0.03538668
000370 e3 5f 8c bc 98 96 98 bc d3 ab 9e bc 24 38 ee bc
       -0.017135566 -0.018626496 -0.019369042 -0.029079504
000380 da 73 a2 bc ad 90 74 bc 6c 4a b3 bd 55 c2 e8 bc
       -0.019830633 -0.0149270715 -0.08754429 -0.028412977
000390 a5 69 27 bd 01 b3 4e bc 96 53 80 bc db 0c 89 bd
       -0.040872235 -0.01261592 -0.015664857 -0.06691905
0003a0 fd ff b3 bc 2a 29 c3 bd bd b0 d8 bb 5a 29 a5 bd
       -0.02197265 -0.09529336 -0.0066128657 -0.08064528
0003b0 5d 0c 52 bd 44 d9 a3 bc 4b ff 7c bd 58 07 bc bb
       -0.05128132 -0.020001061 -0.061766904 -0.00573818
0003c0 c9 33 b7 bc e0 6e 95 bc 62 47 9e bd e1 aa 6d bb
       -0.02236356 -0.018241346 -0.07728459 -0.0036265182
0003d0 87 4b f5 bb 8c 15 b5 bc 1f af a2 bc 99 1b 32 bc
       -0.00748581 -0.022105 -0.019858895 -0.010870838
0003e0 85 a5 cc bb 25 a8 13 bc 24 2b 14 bc 23 8c 2a bd
       -0.0062453174 -0.009012257 -0.009043489 -0.04163755
0003f0 b2 bf 88 bc 04 7b bf bc 29 66 8e bc 5f 25 ef bc
       -0.01669297 -0.023374088 -0.017382698 -0.029192625

Actor.log_std_fc3.bias f4 [17]
000000 3a 3d a9 bc de a2 7d bd f8 5c 98 bd d3 d2 8b bd
       -0.020659078 -0.0619229 -0.074396074 -0.06827321
000010 60 fe a0 bd 3e 14 72 bd 5c 80 9c bd 5f 5e 95 bd
       -0.07861018 -0.059101336 -0.0764167 -0.072933905
000020 4c a4 e3 bc 5e de a0 bd 6a 95 9e bd f9 aa 7a bd
       -0.027788304 -0.07854913 -0.07743342 -0.06119821
000030 7d 58 17 bd de a7 90 bd 98 ce af bd 85 4e 55 bd
       -0.036949623 -0.07063268 -0.085843265 -0.052076835
000040 60 9a 77 bd
       -0.060449958

Critic.fc1.weight f4 [32, 378]
000000 ec 5f 72 3e c5 e6 4c 3d eb fd af 3d a8 27 32 3d
       0.23669404 0.050024766 0.08593353 0.04349485
000010 ad c2 a9 bc 81 09 f8 bb aa 1d 95 bc f9 7a 8a 3d
       -0.020722711 -0.0075694923 -0.018202621 0.067617364
000020 94 9e ae bc 12 6e d4 3c 63 93 11 3d e1 30 04 3d
       -0.02131585 0.025931392 0.03554095 0.032273177
000030 a5 d3 ab bc 8b cf ea bc 60 e7 5c 3d 1a b3 8d 3d
       -0.020974943 -0.028663417 0.053931594 0.069189265
000040 97 1a 11 bd 28 bd 96 bc 3c 33 21 3d 94 68 cc bd
       -0.03542575 -0.018400744 0.0393555 -0.09980884
000050 9b 1f 96 bd ff 4a 0b bd 31 46 7c 3d 19 be c7 bd
       -0.07330247 -0.03400707 0.061590377 -0.09753055
000060 d8 a4 83 3e 80 62 ae 3c ff b5 c8 3c 56 3d 35 3c
       0.25711703 0.021287203 0.024500845 0.011061987
000070 b3 38 7d 3c d6 69 36 bd aa c6 7a bc 93 79 c5 bc
       0.015455413 -0.044534527 -0.015306154 -0.024105823
000080 5c 9d 7c 3d 8c 3f 20 3d b0 cb 08 bc e2 4b 6d 3d
       0.061673507 0.039123103 -0.008349344 0.057933696
000090 7e a4 5c bd 8f 77 f0 bc af fe 0b bd 0f e7 62 3d
       -0.05386781 -0.029353885 -0.034178432 0.055396136
0000a0 ed 76 a7 bd ce 0b 07 bc 78 22 e2 3c f5 7d 76 bc
       -0.0817698 -0.008242561 0.027604327 -0.015044679
0000b0 a3 7d 25 3c 56 de 98 3d 65 9f 28 3d 53 7a c9 3c
       0.010100755 0.07464282 0.041167635 0.024594462
0000c0 63 9e 2d bc 68 bb 0b 3d 85 c6 03 3b 6a ac 83 3c
       -0.010596844 0.03411427 0.002010734 0.016073424
0000d0 2f 84 da 3c 34 3d 9c 3c af 13 42 3d 7c 37 06 3d
       0.026674358 0.019072153 0.047382053 0.032767758
0000e0 8d ec e3 bc 1d e4 42 3d 4a 55 56 3d 50 bf c4 ba
       -0.027822757 0.047580827 0.05232743 -0.0015010629
0000f0 f2 d2 68 3d e2 f8 e6 bd a3 b7 98 bd 51 31 47 3d
       0.056841798 -0.112779394 -0.07456901 0.048631016
000100 20 83 25 3c 5a 6f 54 3d b7 e8 6e 3d e6 95 c1 3d
       0.010102063 0.051864006 0.058327403 0.09452419
000110 dd 34 83 3c a9 db db bb 9e 26 a5 3c 72 2b 70 3d
       0.016016418 -0.006709535 0.020160016 0.058635183
000120 df 9a 06 bc 1e f6 30 3c b4 90 04 bd 8a cd 9a 3c
       -0.008215635 0.010800866 -0.032364562 0.018896837
000130 8a 6d 38 3d af 0b 8e 3d 9b 2d a4 3d 53 e4 96 3d
       0.04502634 0.06935822 0.08016511 0.07367768
000140 9c ed be bb b0 1e 5b 3d 7b ff ae bb cb c0 ac bc
       -0.005826665 0.053496063 -0.0053405142 -0.021088025
000150 48 61 99 bd 16 17 59 3d 3b 7f 8a 3d a1 65 4d 3d
       -0.07489258 0.053000532 0.067625485 0.05014575
000160 dc 75 51 3d 94 c1 34 3d 0e c6 10 3d eb 62 c4 3c
       0.05113779 0.044129923 0.03534513 0.023972949
000170 b2 5a bb bd ed 0b 70 ba 2f 67 93 bd 69 2f 70 bd
       -0.09148158 -0.00091570505 -0.07197415 -0.058638964
000180 7d 2d ce 3c 98 9a b4 3d 6a df ca 3d 06 30 52 3d
       0.025168175 0.08818549 0.09905894 0.05131533
000190 40 3f 09 bd 9e 29 a0 bd a9 9f 8a bb 3f f3 a6 bc
       -0.033507586 -0.07820438 -0.0042304588 -0.02037966
0001a0 97 4f 91 bc 62 20 4a bd 01 8d 83 3c 3f 1a 03 3d
       -0.017738147 -0.04934729 0.016058447 0.032007452
0001b0 04 cd 0b 3d 87 6e 00 3e 3c 98 4e be 9e d1 64 be
       0.034131065 0.12542163 -0.2017526 -0.22345588
0001c0 f6 2f a2 bd a7 5b 8a be ab 45 90 bd 16 bd 9a bd
       -0.07919304 -0.2702305 -0.07044538 -0.075555965
0001d0 4a 00 b6 3d c8 53 98 3c 68 19 51 3d 66 d3 6a 3d
       0.08886774 0.018594638 0.05104962 0.05733051
0001e0 1c a0 c6 3b 1a 54 88 3d 98 f7 8f 3d 25 dc b2 3d
       0.006061567 0.06656666 0.07029647 0.087333955
0001f0 e3 d7 8a 3d c3 99 2b bd 45 13 97 3d 9a 67 27 3c
       0.067794584 -0.041894685 0.07376722 0.010217572
000200 cb df 5f 3d 83 ed 1c 3c 2c 38 70 3d 5d 53 fd bd
       0.054656785 0.009578112 0.05864732 -0.12369416
000210 10 80 d0 3d b3 b6 8b bd 80 8b 80 3d 1e a2 a2 bc
       0.10180676 -0.068219565 0.062766075 -0.019852694
000220 ca 88 6d 3d 27 ca 81 3d 50 b1 9d 3d a3 e5 66 3d
       0.05799178 0.063373856 0.07699835 0.056371342
000230 49 62 43 3e b2 74 48 be e8 e5 4f 3d 5c cf 65 be
       0.19080462 -0.19575766 0.050756365 -0.22442383
000240 10 a1 c0 3d 06 81 29 bd 14 82 69 3d f3 df be 3d
       0.0940572 -0.041382812 0.057008818 0.09320059
000250 69 6d 6b 3d 0d 7f 91 3c 39 32 b8 3d 10 2d 20 bd
       0.05747739 0.017760778 0.08993954 -0.039105475
000260 67 b1 ce 3d aa 43 d0 3d e4 6d ce bd 36 00 a6 3d
       0.100924306 0.10169156 -0.10079554 0.08105509
000270 6a c6 61 3d da b1 a2 bc 15 73 37 3d d2 9e 35 3d
       0.055120863 -0.019860197 0.044787485 0.044340916
000280 56 21 81 b9 d8 98 6a 3c 22 f9 5c bc 83 88 49 3c
       -0.00024629635 0.014318667 -0.013487132 0.012300613
000290 5c 67 99 bd b0 0d 6d 3d 07 2f 1c 3d 33 11 b4 3d
       -0.07490417 0.05787438 0.038130786 0.08792343
0002a0 81 85 ca 3d e6 58 95 3c 89 cc b3 bd a4 d6 d0 bd
       0.09888745 0.018230867 -0.08779246 -0.101971895
0002b0 7b 58 e0 bc a5 07 fb 3d 60 21 c3 3d 7c 76 ee 3c
       -0.02738594 0.122573175 0.0952785 0.029109232
0002c0 81 6d 93 3c 8d 5b 84 bc ff d0 a7 bc a3 43 86 3d
       0.017996551 -0.016156936 -0.0204854 0.065558694
0002d0 ed fa 84 bd 14 66 4a bd 3d 74 74 bb eb 5f 81 3d
       -0.06493173 -0.049413756 -0.0037300729 0.06317123
0002e0 9b f7 8b 3b a4 2f 93 3d 2f 12 42 3d e5 be 34 bc
       0.00427146 0.07186821 0.047380622 -0.011031841
0002f0 e5 d4 0f 3a a8 79 0a 3d 8a 3a 22 bc 65 6c ec bc
       0.0005486741 0.033807427 -0.009901652 -0.02886028
000300 36 f9 b6 3c 05 0a 20 3c 3f 15 fa bc cb 57 71 bd
       0.02233563 0.009768014 -0.030527709 -0.058921617
000310 ee 2b 1a 3e 02 7c 18 bc de df c8 3b 84 aa 17 bd
       0.1505582 -0.0093069095 0.0061302027 -0.03702785
000320 7d 78 91 bd 72 30 92 3c 7c eb fb 3d f1 e9 07 3b
       -0.071030594 0.017845366 0.123007745 0.0020738805
000330 13 2c a3 bd 4b 9f 05 bd f1 70 ad bd 69 d1 a8 3b
       -0.07967391 -0.032622617 -0.084688075 0.0051519168
000340 65 7b 26 3e f8 53 2e bc 01 18 25 39 78 c2 09 ba
       0.16258009 -0.010640137 0.00015744568 -0.00052551134
000350 41 9e 8c 3c 16 e0 38 3d d4 5d 21 3e 4d 24 57 bd
       0.017165305 0.04513558 0.15758449 -0.052524853
000360 8e 1a 26 bd 2d 18 49 3d c6 62 d4 3d e8 9a 68 3b
       -0.04055267 0.04909532 0.10370402 0.0035492722
000370 65 4c 75 3d f7 32 33 3d bd a0 3c bc 11 0c 7a 3c
       0.05988731 0.043749776 -0.011512932 0.015261666
000380 11 43 c4 3d db 00 5f 3d f8 5d d6 3d 2f c8 0e bd
       0.095831044 0.054444175 0.10467142 -0.03485888
000390 cc d5 42 bc e7 65 8c bb f6 95 34 bd 05 22 d1 3c
       -0.011891793 -0.0042846086 -0.044088326 0.025528917
0003a0 ce 79 e2 3d 3c de a1 3b 7e 2b 87 3c b8 3d 0d 3d
       0.11058389 0.0049398225 0.01650023 0.034482688
0003b0 91 9a 27 3d 44 27 28 bd c0 e9 83 3d 34 02 41 3c
       0.04091889 -0.04105307 0.06441069 0.01178031
0003c0 08 b6 30 bd 89 ef 27 3c a4 5f b8 3c 90 7a 4d bc
       -0.04314235 0.010249981 0.022506543 -0.012541428
0003d0 82 a4 ea 3d d0 93 1e bd 1e 96 2e 3c 69 53 58 3c
       0.114571586 -0.038715184 0.010655908 0.01320348
0003e0 02 1c 2a bb bf bd 66 bd 99 d1 f7 3a 56 07 3d bc
       -0.0025956635 -0.0563333 0.001890707 -0.011537394
0003f0 7e d7 0c bd ce 8d 80 bc f0 51 f6 3b eb 2b 97 bd
       -0.034385197 -0.015692618 0.007517092 -0.073814236

Critic.fc1.bias f4 [32]
000000 c2 5a 83 3d 1f 54 e2 3b 9f 3d 4e 3d 03 18 88 3d
       0.06413795 0.0069070007 0.050351735 0.06645205
000010 59 1c 9f 3d 75 71 16 bc 9c 7f 1f 3c 0b 7e 21 bd
       0.07769079 -0.009182324 0.009735014 -0.039426845
000020 61 8b 61 3d 55 3a c1 3d e8 6e 2b bd 39 bc e7 3b
       0.055064563 0.09434954 -0.041853815 0.0070719984
000030 28 40 0e bd 44 1d 65 3c 3f 67 70 3d b3 00 b2 3c
       -0.034729153 0.013984028 0.058692213 0.021728849
000040 37 c7 01 bd aa 4f 7c 3d 89 b2 73 3d 15 8e 91 3c
       -0.031684127 0.06159941 0.059496436 0.017767945
000050 13 87 2e 3d 5d 9f ed 3c 8a 02 ad 3d 3d d8 84 bc
       0.042609286 0.029006654 0.0844775 -0.016216392
000060 cf fc 25 bc 54 62 1d 3d 48 a0 db bc 33 06 ea 3c
       -0.010131075 0.03842385 -0.026809826 0.02856741
000070 42 b2 d0 3d b8 2b 64 3d a9 2f af 3c 66 e4 c2 3d
       0.1019025 0.055705756 0.02138503 0.0951622

Critic.fc2.weight f4 [32, 32]
000000 b5 d2 14 3e 5b e1 09 be f4 25 02 3e 2f 02 fe 3d
       0.14533503 -0.13464873 0.1270979 0.1240276
000010 3c ae d7 3d ac 8a aa bd fc 25 24 bc f0 2d 9b 3c
       0.105312794 -0.08327231 -0.010018822 0.018942803
000020 e7 c3 4c 3c 0e 2f b5 3d 97 da 1e bd 7f 30 bf 3c
       0.012497879 0.088468656 -0.038782682 0.023338554
000030 42 d0 58 be 9a a5 a4 3c ab 4a 0a 3e 92 a6 c4 3d
       -0.21173194 0.020098496 0.13505046 0.09602083
000040 5e 53 0a 3a b8 d3 39 3e 7b a1 b1 bc fe 09 ba 3d
       0.0005276705 0.1814717 -0.021683445 0.09083937
000050 6a d0 8d 3d 81 1c 8b 3c 55 53 a5 bd d3 db 7f bd
       0.069245175 0.016981365 -0.08072535 -0.0624655
000060 92 91 20 3e a2 91 86 bc 1e 6e 49 bd 84 21 d6 bd
       0.1568053 -0.016426865 -0.04917728 -0.10455611
000070 cc f9 fe 3d 0f 69 bc bd 50 93 14 3e d5 5b 8e bd
       0.12449989 -0.09199726 0.1450932 -0.06951109
000080 25 d5 95 3d 50 ed d4 bd 31 f2 3d 3d 8a 49 55 3e
       0.07316045 -0.10396826 0.04637355 0.20828834
000090 e2 2c 42 3e 39 95 d7 bd 69 06 d6 3d 04 58 03 be
       0.18962434 -0.10526509 0.104504414 -0.12826544
0000a0 dc e8 06 3e 41 44 dd bc 97 8a 2a bd b4 5c 83 bd
       0.13174766 -0.027010085 -0.041636076 -0.06414166
0000b0 e5 44 4a be 09 9e e8 3d 3b 46 d6 3d 8e 0e c2 bd
       -0.19752844 0.11358268 0.10462614 -0.09475432
0000c0 5a ba 78 bd 3e a0 fc 3d 6f 9d 52 3e 63 cb e9 3d
       -0.060724594 0.12335251 0.20567869 0.11415746
0000d0 69 26 7f 3d 91 e1 b7 bc cf 87 96 bc 55 b6 4d bd
       0.06229249 -0.022446426 -0.018375305 -0.050222714
0000e0 c8 84 d7 3d a0 58 97 bd b4 2d b5 3d 41 34 24 be
       0.10523373 -0.07389951 0.08846608 -0.16035558
0000f0 b2 d3 63 bc 74 fd 97 3d 2b 34 fd 3d a4 86 4b 3e
       -0.013905453 0.07421389 0.12363466 0.1987558
000100 30 a0 eb 3d e9 93 12 be 9b 5e 9e 3b 1f a4 a1 3d
       0.11505163 -0.14314236 0.004833055 0.07892632
000110 0f 84 57 bd 8a 17 72 3d e1 b6 8c 3d df 2a 8b bd
       -0.052616175 0.05910448 0.06870819 -0.067952864
000120 c7 f4 f0 3d ff c8 04 bd 02 fe fe bc 0e b9 c9 bd
       0.117654376 -0.032418247 -0.03112698 -0.098497495
000130 cb 72 42 be c9 e6 97 3d 66 0e 24 3e d8 03 ab bb
       -0.18989103 0.07417066 0.16021118 -0.005218964
000140 40 0f a5 bd 3f 63 83 3d c7 eb 05 3e a8 da a4 3d
       -0.08059549 0.06415414 0.13078223 0.08049518
000150 5e f9 df 3c 5c 91 07 3e db 93 5d 3e 1e f6 1c be
       0.027340587 0.13239044 0.21638434 -0.15328261
000160 ce 21 09 be 00 7d 48 3d 2d 1d ef 3d 16 28 0e 3e
       -0.13391802 0.048947334 0.11675487 0.13882479
000170 12 94 a0 ba c7 df be bd bf da 95 bd bc b6 33 3e
       -0.001225116 -0.09320026 -0.07317113 0.17550176
000180 90 5e 0d be 01 22 aa 3c 05 02 e8 bd 62 7f 71 3d
       -0.13805604 0.020768167 -0.1132851 0.058959372
000190 ed 79 87 bd 2b e8 08 3b fa 55 28 3d 87 6f 98 bd
       -0.06615052 0.0020890336 0.04109762 -0.07443147
0001a0 02 0d 88 3d b5 d5 01 3e d9 fa e6 3d 47 1a 84 3d
       0.06643106 0.12679179 0.11278314 0.064503245
0001b0 b0 73 c7 3d a3 d1 24 3e 78 1c 19 3d ce 11 33 3e
       0.097388625 0.16095595 0.037380666 0.1748726
0001c0 88 25 bb 3d 9d 2b b5 3c d1 9b 70 bd ca f3 b3 bd
       0.09138018 0.022115523 -0.058742348 -0.087867334
0001d0 b1 12 36 bd 4a 42 f5 bd 4a 91 fb bd 08 33 0e be
       -0.04445142 -0.11975534 -0.12283571 -0.13886654
0001e0 88 85 1f 3e 45 2f b8 bd 81 e3 e5 3d d2 69 eb 3d
       0.15578282 -0.08993391 0.112250336 0.11494793
0001f0 b8 e6 c8 3d 48 4a 2c 3e bb fa 52 bd 9a 9e 19 be
       0.09809631 0.16825211 -0.051508646 -0.15001908
000200 76 d0 ce 3d aa db 42 be 67 22 3b 3e be ce 00 be
       0.100983545 -0.19029108 0.18274842 -0.12578866
000210 77 26 ec bd 57 54 57 3e 2f 04 17 3e 7f ca d7 bd
       -0.11530774 0.21028267 0.1474769 -0.1053667
000220 1b 51 32 3e bc b5 a5 3d 8a 7c b8 3c f6 19 20 3d
       0.17413752 0.08091304 0.022520322 0.03908726
000230 7e 0d 06 3e 81 66 de 3d ad b7 1c 3d fb 82 05 be
       0.13091084 0.10859395 0.038261104 -0.13038246
000240 61 86 f1 bd 22 0e 52 bb cf 58 0e be 3f c5 e8 bd
       -0.11793209 -0.003205188 -0.13901065 -0.11365747
000250 09 5d 99 3d 48 a8 ca bd 79 90 15 bd e2 73 21 be
       0.07488448 -0.09895378 -0.036514733 -0.15766862
000260 36 dd b8 3d 4e ef cb 3d 6e 5c 34 3e 87 d0 61 be
       0.09026568 0.09957753 0.17613384 -0.22052203
000270 a5 2f 98 3c 81 e2 f5 bb 1c 94 d7 bb 1a 26 57 3d
       0.018577406 -0.007503808 -0.0065789353 0.05252657
000280 92 33 11 be ff 01 db 3d 10 f6 89 3d 43 e3 95 bd
       -0.14179829 0.1069374 0.06736386 -0.07318737
000290 fc 37 83 bc 5e b3 a1 3d de 7b 1a 3d ef 59 8e 3c
       -0.016017906 0.0789554 0.037715785 0.017376868
0002a0 ad d3 d8 3d 10 24 01 bd e5 ae 08 be 03 5a 19 be
       0.10587249 -0.031528533 -0.13347967 -0.14975743
0002b0 3d b6 04 3e 2b 15 87 bd 5f 36 e1 3d d3 1b 36 3d
       0.12960143 -0.06595834 0.109966986 0.04446013
0002c0 e7 3c 0b 3e 50 cc 06 be 16 4e e8 bd 0e bd ca 3d
       0.13597451 -0.13163877 -0.11343019 0.098993406
0002d0 c5 a6 30 3c 35 b1 cb 3d 58 0b 2e 3e 7f 83 c6 bd
       0.010781948 0.09945909 0.16996515 -0.0969305
0002e0 44 9f cd 3d 26 9f 27 3d e5 97 79 3d 85 2d ed 3d
       0.10040143 0.04092326 0.060935874 0.11580948
0002f0 ac c4 91 bb 33 80 0f be 13 d1 a3 bd cd 97 0a 3e
       -0.004448494 -0.14013748 -0.07998862 0.1353447
000300 03 25 a9 bc 67 c8 6c bd 2f 9d cd bd 37 cb 23 3d
       -0.020647531 -0.057808306 -0.10039746 0.039988723
000310 60 db 49 3e 85 df 05 be 44 56 0d be 01 55 ab bd
       0.19712591 -0.13073547 -0.13802439 -0.083658226
000320 4f 1c d6 3d b3 ab f8 bd a4 58 a6 bd be 3a 5f 3e
       0.10454618 -0.12142124 -0.081223756 0.21799752
000330 c8 4e 4c be 74 1a 16 3d 3d d1 aa bd c3 37 45 3e
       -0.19951928 0.03664632 -0.0834069 0.19259553
000340 35 f3 a6 bd fe 0e 4a 3e a2 d2 27 bd db 33 17 3d
       -0.08151857 0.19732282 -0.04097236 0.036914688
000350 aa ca f3 bd d9 6f 23 3d ef 40 06 3e 92 78 35 bc
       -0.119038895 0.039901588 0.13110708 -0.0110761095
000360 3c 2f f0 3d 8d 40 8d bd 42 4d f5 3d cf 62 b8 3c
       0.11727759 -0.06897078 0.119776264 0.022508053
000370 53 e8 49 3e 96 a3 9a bd 44 61 58 bd ef 4f 8f bc
       0.19717531 -0.07550733 -0.052827135 -0.01749417
000380 0d 7f d3 3c e8 14 f0 bd 45 96 d4 3b a2 32 1b 3e
       0.025817418 -0.117227376 0.00648764 0.15156034
000390 f2 1d 08 3e 40 f6 cd 3d 70 26 88 bd 6b 4e 17 be
       0.13292673 0.10056734 -0.06647956 -0.14776008
0003a0 dc ea 2e 3e d3 fa 89 3c a8 5e 89 3c 2c f1 4a 3e
       0.17081779 0.016843235 0.016768768 0.19818562
0003b0 fa ce 13 be 13 ce b4 bd 79 ae 45 3e 77 5b 2f 3d
       -0.14434424 -0.08828368 0.19304837 0.042811837
0003c0 58 be 14 be 78 25 cc bd 68 2b 21 bd ac 12 9b bd
       -0.14525735 -0.09968084 -0.039348036 -0.07571921
0003d0 f6 4d 00 3e 03 e7 45 3e bf e4 d8 3d 67 8b 0d be
       0.1252974 0.19326405 0.10590505 -0.13822709
0003e0 54 66 d8 bc bd df ad 3d 0b 2d 19 be 9a b0 b0 3c
       -0.026415981 0.0848994 -0.14958589 0.021568585
0003f0 c8 70 f7 3d a9 16 23 3e d6 e5 f1 bc c9 eb 9a 3d
       0.12082058 0.15926613 -0.02952854 0.07564504

Critic.fc2.bias f4 [32]
000000 66 db 4b 3b 94 d0 64 3e e0 ba c9 3c af d0 19 be
       0.0031106113 0.22345191 0.024625242 -0.15021013
000010 45 2e cc 3c c9 77 e6 bd 46 ba 09 3e 24 de 8a 3d
       0.024924407 -0.11253316 0.13449964 0.06780651
000020 e6 27 cc bd 6f c7 e2 3d b6 87 11 3e eb 6e 16 3e
       -0.099685475 0.11073195 0.14211926 0.1469075
000030 57 3d ef 3d 28 f5 0d 3d 93 06 b7 3d bf 14 b0 3d
       0.116816215 0.034657627 0.08936801 0.08597707
000040 e2 d1 e2 3d fa 09 4d 3e 77 21 e3 3d c4 53 04 be
       0.11075188 0.20023337 0.11090367 -0.12922579
000050 c1 49 3f 3e 7a 13 a6 3d e0 e6 a1 bd f7 43 3d bd
       0.18680479 0.081091836 -0.07905364 -0.046207394
000060 6c fe 2a 3d 04 92 ef bd fe b1 69 bd 70 33 5a 3e
       0.04174654 -0.11697772 -0.057054512 0.21308684
000070 76 4f 4e 3c bf 9c fe bd 85 7b 7e 3d 18 a3 cc bc
       0.012592187 -0.12432241 0.062129516 -0.024980113

Critic.fc3.weight f4 [1, 32]
000000 f2 71 43 3d 30 57 42 3d 54 83 3c 3d 4b 61 01 bc
       0.04771609 0.04744643 0.04602368 -0.007896732
000010 6e 7e 8c 3d d3 b1 98 bc 31 8f 21 3d c2 cd 58 3d
       0.06860052 -0.01863948 0.0394432 0.0529306
000020 e9 e3 9c 3b 33 06 63 3d 09 01 34 3d 37 c5 15 3d
       0.004787911 0.055425834 0.0439463 0.03656503
000030 33 a9 32 3c 2c db 5f 3d ab 85 bc 3c 3e c1 87 3c
       0.010904598 0.054652378 0.023012957 0.016571637
000040 c4 24 a8 3c b5 cf 11 3c e5 36 30 3c e3 56 4d 3c
       0.020525344 0.008899619 0.010755275 0.012532922
000050 07 2e 33 3d 16 66 c2 3c 50 0b 1f 3d d8 50 47 3d
       0.043745067 0.023730319 0.038829148 0.048661083
000060 fe e2 f0 3c 07 99 7f 3c d7 aa 29 3d 88 50 d7 3c
       0.029405113 0.015600449 0.04142269 0.026283517
000070 6f c2 07 3d d9 67 fc b9 f6 30 9e bb 11 eb a4 3c
       0.03314441 -0.00048142558 -0.004827614 0.02013162
