model_7.pt (torch, 114732 bytes, 13 tensors)

Actor.fc1.weight f4 [32, 378]
0.3579747 0.22181308 -0.009058853 -0.026907403 -0.033907995 0.1961422 0.0010164421 0.19870973
-0.10652294 0.1674376 -0.10966819 0.05608744 -0.076627046 0.00030846224 -0.4197731 0.011275926
-0.060621407 -0.026435947 0.1020338 -0.040299274 0.3598235 0.019936224 -0.04387973 -0.07317245
0.16260748 -0.058944415 0.09498863 0.2527584 0.108605616 -0.037112463 -0.009308649 1.6782426e-05
-0.49755207 -0.33242026 -0.14811395 0.036412377 -0.017659375 -0.3569763 -0.33827913 -0.18178914
-0.14837754 -0.055833958 -0.076877624 0.19629706 -0.2078653 0.040764358 -0.04977147 0.020925805
-0.004752964 0.007302249 -0.017535258 -0.004029445 -0.0050310013 0.037196863 0.0031528848 -0.046696853
0.027328953 -0.08424556 -0.0068502245 0.053554993 -0.44206807 -0.3567458 -0.18977441 0.40187126
0.20256731 -0.0145733515 -0.095135644 0.016163245 0.030339988 0.03208221 -0.008516745 0.06974533
0.087566465 -0.028785964 -0.060583994 0.017981332 -0.0083880145 -0.008663775 0.0803779 0.023523362
-0.07597579 -0.0013994741 0.2846292 -0.04268535 -0.15278064 0.091012545 -0.007088244 -0.025592636
-0.11378139 0.031155009 -0.23575106 -0.43067005 0.06107752 -0.16431575 0.007828476 0.08356983
-0.049971323 -0.0067285723 -0.07225615 0.049210507 0.045356363 -0.055073924 0.048483968 -0.015942147
-0.05264386 0.02362519 -0.045462307 -0.04161061 -0.02170373 0.04696717 0.029839525 0.06831856
-0.032153323 0.08052142 -0.0028247423 0.022608241 -0.038521048 -0.1031384 -0.0401905 0.0358461
-0.17945439 0.18518907 -0.045324754 0.16259821 0.0025653783 0.04321432 -0.059116613 -0.005309826
0.021150585 -0.096762136 -0.10510297 0.14261994 -0.043949757 0.07671538 -0.077670544 0.025261464
-0.08359472 0.01899623 -0.008826178 -0.15336168 -0.22123496 -0.004547777 0.024218064 0.121058814
-0.074944004 0.008274811 -0.04307725 -0.10171172 -0.057700668 -0.032483213 -0.0437849 0.058942236
-0.052952994 -0.1457057 0.11303576 -0.040089548 -0.092030875 -0.1132747 -0.122918785 -0.15691088
-0.15177543 0.15429 -0.12326736 -0.17192942 0.072819054 -0.06875549 -0.06735514 -0.044887926
-0.047357474 -0.018977059 -0.009630291 -0.034584235 0.08684989 0.08507689 -0.03644238 -0.04767639
-0.05644251 -0.05042126 -0.105866484 0.047882136 -0.032915436 0.054774035 0.07069977 -0.0034810773
-0.06985487 -0.061303284 -0.03165606 -0.03437637 0.04638785 0.007776334 0.0004749003 -0.024497658
0.04210973 0.31617847 0.13018213 0.049711086 -0.16703546 0.4449198 0.033690885 0.19894727
0.096359044 0.12143412 -0.16777147 0.27819705 0.025688415 -0.16044638 0.087186225 0.18476513
-0.22010516 0.28967074 0.024908258 0.111497 0.065062866 -0.19707528 -0.02278497 0.17646667
0.009228597 -0.0752157 0.013724826 -0.26963532 0.04152101 0.16629171 -0.17719863 -0.16822821
0.046643082 -0.22016053 0.011990341 0.22532812 -0.11104864 0.029464329 -0.37093425 0.4046286
-0.15647483 0.23242861 0.015051505 0.04857985 -0.35142016 0.37479627 0.066565454 0.008762717
0.019299287 0.03468294 -0.3414074 0.46143144 0.0958676 -0.0047543678 0.086981475 0.07500455
0.036548212 -0.12439785 -0.063706934 0.015556113 0.080117956 0.002938142 -0.066198185 0.024544438
00000000: 7648 b73e f822 633e 956b 14bc ea6c dcbc
00000010: 1ce3 0abd 80d9 483e 233a 853a 907a 4b3e
00000020: b328 dabd c374 2b3e b799 e0bd f2bb 653d
00000030: a4ee 9cbd 1ab9 a139 80ec d6be a9be 383c
00000040: 274e 78bd 3390 d8bc 19f7 d03d da10 25bd
00000050: c93a b83e 4b51 a33c 3bbb 33bd 70db 95bd
00000060: 9382 263e b36f 71bd 6689 c23d 8d69 813e
00000070: 9f6c de3d 3d03 18bd 4e83 18bc fcc7 8c37
00000080: 25bf febe fd32 aabe 2fab 17be 2525 153d
00000090: 65aa 90bc 99c5 b6be ec32 adbe ef26 3abe
000000a0: 48f0 17be 26b2 64bd 0472 9dbd 1902 493e
000000b0: a4da 54be 87f8 263d 2bdd 4bbd 986c ab3c
000000c0: c0be 9bbb b447 ef3b 1aa6 8fbc 6f09 84bb
000000d0: 19db a4bb bd5b 183d a1a0 4e3b 3345 3fbd
000000e0: f8e0 df3c f088 acbd d977 e0bb 7b5c 5b3d
000000f0: bf56 e2be 63a7 b6be 3954 42be 12c2 cd3e
00000100: ce6d 4f3e 11c5 6ebc 7ad6 c2bd c868 843c
00000110: 918b f83c a368 033d d189 0bbc a4d6 8e3d
00000120: 0c56 b33d 8bd0 ebbc ec26 78bd 964d 933c
00000130: e26d 09bc 82f2 0dbc 2b9d a43d 11b4 c03c
00000140: 3299 9bbd 8f6e b7ba ebba 913e d5d6 2ebd
00000150: 8772 1cbe c964 ba3d 8044 e8bb a6a7 d1bc
00000160: 3806 e9bd ca38 ff3c ba68 71be c980 dcbe
00000170: 6c2c 7a3d 6342 28be 0243 003c a926 ab3d
00000180: bbae 4cbd 5b7b dcbb 08fb 93bd f590 493d
00000190: 98c7 393d 3295 61bd 2097 463d 1b99 82bc
000001a0: 17a1 57bd 9d89 c13c af36 3abd e36f 2abd
000001b0: 05cc b1bc a660 403d 0572 f43c 9aea 8b3d
000001c0: 34b3 03bd 6ae8 a43d 501f 39bb eb34 b93c
000001d0: 3fc8 1dbd 3a3a d3bd cb9e 24bd 5cd3 123d
000001e0: e4c2 37be 34a2 3d3e 73a6 39bd 2580 263e
000001f0: e81f 283b 8001 313d 4324 72bd 0dfe adbb
00000200: fe43 ad3c 3a2b c6bd 3a40 d7bd f60a 123e
00000210: a904 34bd f41c 9d3d bc11 9fbd 21f1 ce3c
00000220: b533 abbd fb9d 9b3c ac9b 10bc d80a 1dbe
00000230: 6b8b 62be 8505 95bb f664 c63c afed f73d
00000240: 3e7c 99bd 1393 073c c571 30bd 3c4e d0bd
00000250: 8957 6cbd 1e0d 05bd cc57 33bd 6a6d 713d
00000260: 3de5 58bd e033 15be 4b7f e73d f034 24bd
00000270: af7a bcbd 91fc e7bd d8bc fbbd 3fad 20be
00000280: 056b 1bbe 33fe 1d3e 9973 fcbd 440e 30be
00000290: 2822 953d aecf 8cbd 7ef1 89bd 67dc 37bd
000002a0: e9f9 41bd c775 9bbc 5ec8 1dbc 33a8 0dbd
000002b0: 5bde b13d cb3c ae3d 9b44 15bd 5148 43bd
000002c0: 4330 67bd 8686 4ebd 87d0 d8bd 0f20 443d
000002d0: 56d2 06bd bd5a 603d 0acb 903d c922 64bb
000002e0: 1210 8fbd 2719 7bbd c9a9 01bd 3dce 0cbd
000002f0: 3001 3e3d 9ed0 fe3b 0afc f839 50af c8bc
00000300: 417b 2c3d 25e2 a13e 774e 053e da9d 4b3d
00000310: 580b 2bbe 87cc e33e 74ff 093d d5b8 4b3e
00000320: e457 c53d 74b2 f83d 49cc 2bbe d86f 8e3e
00000330: 8370 d23c 0e4c 24be b18e b23d 1233 3d3e
00000340: 3f63 61be b94f 943e 670c cc3c 8a58 e43d
00000350: ae3f 853d 1ace 49be 8ca7 babc aeb3 343e
00000360: 8b33 173c b00a 9abd 18de 603c a40d 8abe
00000370: ef11 2a3d 6048 2a3e 8f73 35be 0444 2cbe
00000380: d10c 3f3d c371 61be 2373 443c 6abc 663e
00000390: 786d e3bd 2d5f f13c 18eb bdbe 7b2b cf3e
000003a0: f03a 20be c401 6e3e 969a 763c aafb 463d
000003b0: 58ed b3be 4ce5 bf3e 7853 883d 8091 0f3c
000003c0: 8a19 9e3c b30f 0e3d f3cc aebe be40 ec3e
000003d0: 3b56 c43d 87ca 9bbb 5823 b23d fc9b 993d
000003e0: 94b3 153d 4dc4 febd c878 82bd 11df 7e3c
000003f0: e214 a43d d88d 403b ea92 87bd 6b11 c93c

Actor.fc1.bias f4 [32]
-0.062227692 -0.26058564 -0.34711525 -1.1024629 -0.17846887 0.27538788 0.078549564 -0.5148171
0.15723617 -0.04150797 -0.25734362 -1.165667 0.37891686 0.46988964 0.44208297 0.19304967
-0.2408159 0.2949579 0.2694686 0.0040695705 0.38098305 0.024986906 -0.11096286 -0.3331309
-0.3745182 0.15418826 -0.37093583 -0.30546767 -0.05857243 -0.21453705 0.4726546 0.53992707
00000000: 77e2 7ebd 7b6b 85be 17b9 b1be 811d 8dbf
00000010: 8bc0 36be a4ff 8c3e 98de a03d 0ecb 03bf
00000020: 8502 213e 4304 2abd 8bc2 83be 9434 95bf
00000030: 6401 c23e 6095 f03e b358 e23e d0ae 453e
00000040: 7198 76be b904 973e caf7 893e 085a 853b
00000050: 3610 c33e 57b1 cc3c 7f40 e3bd 2290 aabe
00000060: d9c0 bfbe 87e3 1d3e 4deb bdbe 4266 9cbe
00000070: a5e9 6fbd 9aaf 5bbe c9ff f13e a938 0a3f

Actor.fc2.weight f4 [32, 32]
-0.15603732 -0.16654058 0.024017813 0.16847305 -0.27053723 -0.20639807 0.07655179 0.2327267
-0.15172434 -0.2771024 -0.119466156 -0.0842855 -0.4827028 -0.34230086 -0.23967898 -0.3211006
-0.25706005 -0.114519246 -0.19978957 -0.23645549 -0.27767465 -0.00467832 -0.078697905 -0.2137932
-0.0946335 -0.16371866 -0.2645339 -0.26600397 -0.3112106 -0.2406461 -0.174904 -0.015472384
-0.3333801 -0.06810502 0.02857879 0.2564663 -0.32881972 -0.081387 -0.5033421 -0.5674928
-0.18791752 -0.18357137 -0.18355207 -0.5619585 -0.24171504 -0.60328615 -0.50733334 -0.683169
-0.07760483 -0.8274025 -0.7822752 -0.6291824 -0.96242523 -0.25290045 -0.60480714 -0.0678169
-0.24224493 -0.73685277 0.15488045 -0.23805773 -0.29411325 -0.20603451 -0.51611537 -0.90448356
-0.44542626 -0.07917682 0.2252094 -0.24087645 -0.06414973 -0.028242776 0.23161829 -0.013023184
-0.22533342 -0.33665583 -0.25925934 0.1543968 0.15061595 -0.1632176 -0.21419546 -0.33034915
-0.0008622097 0.11764268 -0.08039967 0.17078269 -0.18830855 -0.13599549 -0.044130757 0.098457254
-0.07465706 -0.11817654 0.06574063 0.055719584 -0.14050923 -0.0036261808 -0.06728983 -0.17449515
0.15099397 -0.053902753 -0.048146896 0.0027995124 -0.07114373 -0.19508444 -0.23865834 -0.25923797
-0.13608211 -0.1754624 -0.07880987 0.0081007015 -0.24684286 -0.004930109 -0.26877725 -0.1150669
0.050137147 -0.10398005 -0.21364166 -0.20696427 -0.042197347 -0.113408044 -0.093715735 -0.21263343
-0.24792308 -0.08875817 0.007501003 0.02643662 0.011181844 -0.24217199 -0.1409644 -0.20140743
-0.14316335 0.26782742 0.1541527 -0.2958652 -0.22210345 -0.1464587 -0.04231716 0.23459497
-0.29242086 -0.15477781 -0.49362952 -0.061921045 -0.0540339 0.04428584 -0.18217468 -0.17220558
0.075767584 0.14060763 -0.22700077 -0.074389115 -0.22342432 -0.049492624 -0.052040406 -0.34707132
-0.47314194 -0.15275122 -0.1874069 0.17607461 0.00062416674 0.014822107 -0.12802838 -0.027909692
-0.28068042 -0.09744 -0.000805792 -0.098845616 -0.2872325 -0.069655426 -0.065230586 -0.17609024
0.029954413 0.059474196 -0.23154819 0.13457914 -0.37579596 -0.20247136 -0.35526064 0.029162748
-0.010957274 -0.13462582 -0.19573249 0.053470347 -0.21652646 -0.15167817 0.016154943 0.051429104
-0.055333525 -0.19633327 -0.17232096 -0.04125484 -0.20992564 0.0058936235 -0.18156224 -0.2125748
0.12113217 -0.037585106 -0.15595157 -0.20925859 -0.0056331027 -0.058508523 -0.13261221 0.02036276
0.0020952462 -0.17045924 -0.12775125 -0.18753599 -0.08650769 -0.2719658 -0.060790893 0.00510128
-0.0022031397 -0.0319148 -0.2553385 -0.21378724 -0.33813295 -0.013898207 -0.17967418 -0.28095934
-0.17541416 0.06437338 -0.26230687 -0.05177419 -0.10937479 -0.08151072 -0.017538644 -0.27120334
-0.55961174 -0.4848833 -0.27883896 0.1881029 0.06244403 -0.15126148 -0.5305761 0.13480264
-0.40947056 -0.5250413 -0.66312045 -0.09295502 -0.3619664 -0.655071 -0.18075047 -0.46017683
-0.22955664 -0.70672727 -0.6682306 -0.5935342 -0.25118083 -0.5635398 -0.8119969 -0.22025569
-0.11240708 -0.27425992 -0.33867565 -0.71522284 -0.26652563 -0.65712565 -0.53624076 -0.32791528
00000000: 3fc8 1fbe 9d89 2abe 01c1 c43c 3384 2c3e
00000010: db83 8abe 045a 53be 2fc7 9c3d e84f 6e3e
00000020: a05d 1bbe 5ee0 8dbe acaa f4bd e09d acbd
00000030: d224 f7be 0f42 afbe 686e 75be 4c67 a4be
00000040: 609d 83be 1189 eabd a395 4cbe 6321 72be
00000050: 5f2b 8ebe 984c 99bb 5e2c a1bd 9bec 5abe
00000060: 35cf c1bd dda5 27be fd70 87be ac31 88be
00000070: ff56 9fbe ee6b 76be 091a 33be e27f 7dbc
00000080: ccb0 aabe a57a 8bbd 111e ea3c 8d4f 833e
00000090: 0f5b a8be 3aae a6bd 07db 00bf 3547 11bf
000000a0: 736d 40be 22fa 3bbe 13f5 3bbe 83dc 0fbf
000000b0: 2684 77be f670 1abf 99e0 01bf 2ae4 2ebf
000000c0: 48ef 9ebd a6d0 53bf 3043 48bf 1912 21bf
000000d0: 8061 76bf 2b7c 81be a4d4 1abf 96e3 8abd
000000e0: 0e0f 78be 62a2 3cbf fb98 1e3e 68c5 73be
000000f0: 0396 96be b6fa 52be 2320 04bf 3c8c 67bf
00000100: e90e e4be 7527 a2bd 4b9d 663e 51a8 76be
00000110: ef60 83bd 655d e7bc 582d 6d3e 315f 55bc
00000120: cebd 66be 275e acbe a4bd 84be 321a 1e3e
00000130: 113b 1a3e 8422 27be 0e56 5bbe 8623 a9be
00000140: ea05 62ba a5ee f03d 95a8 a4bd a8e1 2e3e
00000150: f5d3 40be 6742 0bbe 74c2 34bd f5a3 c93d
00000160: cde5 98bd 8b06 f2bd 06a3 863d 383a 643d
00000170: a7e1 0fbe 38a5 6dbb 40cf 89bd dbae 32be
00000180: 2a9e 1a3e 22c9 5cbd ae35 45bd 0678 373b
00000190: ceb3 91bd 37c4 47be da62 74be d7ba 84be
000001a0: 1c59 0bbe 6aac 33be 1267 a1bd ceb8 043c
000001b0: 60c4 7cbe c08c a1bb 2c9d 89be 32a8 ebbd
000001c0: 9c5c 4d3d 7ef3 d4bd e1c4 5abe 71ee 53be
000001d0: 20d7 2cbd 7a42 e8bd 09ee bfbd 94bc 59be
000001e0: 8cdf 7dbe d8c6 b5bd f9ca f53b 9c91 d83c
000001f0: 0e34 373c effb 77be f958 10be c03d 4ebe
00000200: 6a99 12be ad20 893e 35da 1d3e a57b 97be
00000210: 166f 63be 45f9 15be c254 2dbd aa39 703e
00000220: 30b8 95be 137e 1ebe 02bd fcbe eca0 7dbd
00000230: a752 5dbd 1265 353d 008c 3abe a956 30be
00000240: 092c 9b3d 72fb 0f3e e472 68be 5259 98bd
00000250: 58c9 64be c7b8 4abd 5228 55bd 55b3 b1be
00000260: a93f f2be d16a 1cbe 98e7 3fbe e74c 343e
00000270: 1f9f 233a 6cd8 723c df19 03be dea2 e4bc
00000280: 58b5 8fbe 9f8e c7bd c93b 53ba 926f cabd
00000290: 2310 93be 81a7 8ebd 9d97 85bd 0051 34be
000002a0: f562 f53c 379b 733d f81a 6dbe 1dcf 093e
000002b0: 5468 c0be a754 4fbe b9e4 b5be b7e6 ee3c
000002c0: 2386 33bc 5adb 09be 196e 48be b903 5b3d
000002d0: 1db9 5dbe 8651 1bbe 5f57 843c 53a7 523d
000002e0: 68a5 62bd 970b 49be e874 30be d6fa 28bd
000002f0: bff6 56be 4c1f c13b 74eb 39be 35ad 59be
00000300: 2514 f83d d7f2 19bd c5b1 1fbe e247 56be
00000310: e495 b8bb a2a6 6fbd 7fcb 07be cecf a63c
00000320: 6650 093b de8c 2ebe 39d1 02be 6f09 40be
00000330: f22a b1bd 1a3f 8bbe dfff 78bd a328 a73b
00000340: 8d62 10bb 18b9 02bd babb 82be 0beb 5abe
00000350: c31f adbe 4eb5 63bc 82fc 37be e7d9 8fbe
00000360: c59f 33be 31d6 833d 164d 86be 2c11 54bd
00000370: e4ff dfbd 18ef a6bd 34ad 8fbc 2adb 8abe
00000380: b742 0fbf a042 f8be fbc3 8ebe 0c9e 403e
00000390: 50c5 7f3d 4ae4 1abe d6d3 07bf b409 0a3e
000003a0: 20a6 d1be 1b69 06bf 43c2 29bf 345f bebd
000003b0: a953 b9be bcb2 27bf a716 39be 4c9c ebbe
000003c0: e510 6bbe 14ec 34bf 2911 2bbf dbf1 17bf
000003d0: c69a 80be 2544 10bf 07df 4fbf b58a 61be
000003e0: af35 e6bd cc6b 8cbe e566 adbe d818 37bf
000003f0: 0c76 88be 6339 28bf 1347 09bf 83e4 a7be

Actor.fc2.bias f4 [32]
-0.3635373 -0.55950165 0.063702494 -0.12997144 -0.13932222 -0.010745507 -0.021726474 -0.68126875
-0.56894004 -0.3159066 -0.3216224 -0.3083795 0.01196642 0.072507404 -0.3414082 -0.054736134
-0.29795325 -0.10009278 -0.56320214 -0.03763951 -0.25336927 -0.012064697 -0.31936786 -0.30389166
-0.12623245 -0.5651563 -0.0849725 -0.30510435 -0.24239556 -0.21297501 -0.21044068 0.18768649
00000000: 9021 babe 803b 0fbf 7476 823d 3c17 05be
00000010: 7caa 0ebe ec0d 30bc b8fb b1bc a167 2ebf
00000020: 0ea6 11bf 83be a1be b1ab a4be ebe3 9dbe
00000030: ce0e 443c c37e 943d 0ecd aebe ff32 60bd
00000040: 548d 98be 72fd ccbd 042e 10bf e32b 1abd
00000050: 9eb9 81be 02ab 45bc 2f84 a3be b097 9bbe
00000060: 1443 01be 15ae 10bf 1006 aebd a336 9cbe
00000070: 8b36 78be 1f16 5abe c37d 57be e330 403e

Actor.mean_fc3.weight f4 [17, 32]
-0.2608993 -0.04792016 -0.019976774 -0.092492945 -0.17233202 0.16160241 -0.32419604 0.09096111
-0.30819085 0.14854175 0.39610818 -0.051734917 -0.017713705 0.27229345 -0.1850279 -0.049480204
-0.46851057 -0.09938831 -0.53393966 0.07342798 0.38161725 -0.0017331464 0.321807 0.27932924
-0.11732341 0.2835038 0.39406708 0.31616142 -0.219137 0.23347251 -0.13575184 -0.12712036
0.33062258 0.32792592 -0.42660525 0.08673998 0.078994565 -0.08009235 0.03339877 0.35768697
0.3279016 0.054232426 -0.611169 -0.29081792 -0.07959282 -0.055804696 0.11100793 -0.6233849
0.107830584 0.23938973 0.17905395 0.098580755 0.0046964837 0.46116078 -0.5775324 -0.08154323
-0.20962922 0.031188669 -0.3430929 0.4420237 0.2580167 0.02456413 0.06457811 -0.12528743
0.2666839 -0.007208968 -0.08397032 0.032136913 -0.13573222 0.15677159 -0.27690592 0.19313322
-0.16484644 0.20168966 0.05934754 0.22766635 0.102092825 0.39080554 0.06643175 -0.29297993
-0.06629148 -0.35257292 0.12528247 -0.13311706 0.23294285 -0.6344796 0.18955266 0.06758854
0.3816034 -0.21642531 0.10416487 0.02918408 0.20158435 0.09928003 0.4708965 0.25819215
0.0008608427 -0.1880101 -0.1585601 0.19513479 -0.24783133 -0.2534108 -0.29399064 0.13124663
0.043256517 0.120443515 0.1368022 0.20336665 -0.14410779 -0.112407014 -0.008321425 -0.20882928
-0.019219914 -0.15459678 -0.13899258 -0.1905688 -0.039531697 0.21634318 -0.0064700725 -0.02620624
0.28475517 0.06357138 -0.21473117 -0.23595177 -0.031782296 0.107441545 0.20270872 -0.3862298
-0.24204075 -0.1044526 0.16372219 -0.23392682 0.4126962 -0.041175585 -0.28327054 0.1012345
-0.08727734 -0.14006728 -0.16702421 -0.15143447 0.16758583 0.30593273 0.19251487 0.28658736
-0.29380772 -0.13658345 0.30660558 0.02154303 0.075623184 0.8172811 -0.43922493 0.02718893
-0.31821278 0.092703044 0.33990866 0.06438858 0.044657003 -0.12658015 0.38974294 0.030089142
-0.4045222 -0.14609927 -0.45998237 0.011590896 -0.348745 -0.106029004 0.0007409316 0.019250568
-0.12646858 0.27961233 -0.405875 -0.17779669 -0.41503426 -0.08587244 -0.3000841 0.09921317
-0.50289774 -0.26921067 0.33677307 -0.21023022 -0.24406624 -0.35138208 0.53030074 0.087826006
-0.07233884 -0.33465 -0.10077177 -0.297931 -0.31668493 -0.15128617 -0.07988147 0.10827595
0.17998639 0.09111236 0.006170982 0.0062115197 0.086615086 0.13885936 -0.18000278 0.29722333
0.3465266 -0.0556632 0.34472787 -0.11888687 0.22165105 -0.13155653 -0.048240807 -0.031523235
0.15123431 0.059484795 -0.16447683 0.11478123 0.30869249 0.03944693 -0.36289513 0.5216289
-0.28810537 -0.24172905 -0.28122967 -0.047075365 0.4728053 -0.36070192 -0.099366516 0.033760972
0.0455248 -0.29503846 0.036857206 -0.02597772 0.19030969 -0.06335657 -0.049844567 -0.13468547
-0.1880671 0.5302677 0.33491135 -0.15563378 0.7265754 0.30152425 0.25409877 -0.074714445
0.42904806 -0.25911808 -0.0054311906 -0.44188195 0.020728637 -0.41153792 0.08760856 0.29302013
-0.3733884 0.14424013 -0.03710563 0.06711393 -0.18816058 -0.35865432 -0.36736813 -0.25264782
00000000: 9894 85be ee47 44bd 55a6 a3bc f16c bdbd
00000010: ce77 30be 1a7b 253e 06fd a5be d249 ba3d
00000020: 31cb 9dbe 541b 183e b1ce ca3e fee7 53bd
00000030: 551c 91bc 0c6a 8b3e f477 3dbe c1ab 4abd
00000040: 9ee0 efbe 198c cbbd 45b0 08bf 6961 963d
00000050: 5663 c33e be2a e3ba e3c3 a43e 3e04 8f3e
00000060: 4247 f0bd 6927 913e 29c3 c93e e9df a13e
00000070: 7365 60be 6b13 6f3e 8802 0bbe d72b 02be
00000080: 5d47 a93e e8e5 a73e 016c dabe bba4 b13d
00000090: e7c7 a13d 7507 a4bd 26cd 083d bf22 b73e
000000a0: b8e2 a73e d222 5e3d 9275 1cbf 16e6 94be
000000b0: 8f01 a3bd 7793 64bd 2058 e33d 2796 1fbf
000000c0: 48d6 dc3d 9522 753e eb59 373e b5e4 c93d
000000d0: f6e4 993b 441d ec3e 2ad9 13bf 2300 a7bd
000000e0: 0ba9 56be 617f ff3c dfa9 afbe ee50 e23e
000000f0: c41a 843e b73a c93c 8741 843d 594b 00be
00000100: cb8a 883e 3539 ecbb a2f8 abbd ffa1 033d
00000110: 63fd 0abe bb88 203e 9dc6 8dbe b7c4 453e
00000120: 81cd 28be bc87 4e3e 6816 733d 5e21 693e
00000130: 0b16 d13d aa17 c83e 5f0d 883d 7701 96be
00000140: d4c3 87bd 7084 b4be 0c4a 003e d74f 08be
00000150: 9288 6e3e 416d 22bf 181a 423e dc6b 8a3d
00000160: 8561 c33e 999e 5dbe 6454 d53d 7413 ef3c
00000170: 216c 4e3e 5453 cb3d 5919 f13e c331 843e
00000180: 2daa 613a b885 40be 945d 22be 6ad1 473e
00000190: 7fc7 7dbe 0fbf 81be f185 96be 8465 063e
000001a0: bf2d 313d 17ab f63d e015 0c3e 593f 503e
000001b0: fe90 13be a635 e6bd 9656 08bc 58d7 55be
000001c0: 1573 9dbc 9e4e 1ebe 1254 0ebe 7824 43be
000001d0: fdeb 21bd 1189 5d3e e702 d4bb 78ae d6bc
000001e0: 6ecb 913e b631 823d 7de2 5bbe 579d 71be
000001f0: 272e 02bd 500a dc3d e092 4f3e eabf c5be
00000200: 88d9 77be 3feb d5bd caa6 273e 838a 6fbe
00000210: eb4c d33e bba7 28bd d608 91be 0954 cf3d
00000220: 76be b2bd cc6d 0fbe 6508 2bbe a311 1bbe
00000230: 9f9b 2b3e 37a3 9c3e 9e22 453e 94bb 923e
00000240: f76d 96be 88dc 0bbe 68fb 9c3e 027b b03c
00000250: 54e0 9a3d 5639 513f 17e2 e0be 52bb de3c
00000260: c9ec a2be 18db bd3d 8208 ae3e 29de 833d
00000270: 43ea 363d 3a9e 01be 638c c73e 817d f63c
00000280: 891d cfbe 0c9b 15be cf82 ebbe bee7 3d3c
00000290: b48e b2be bc25 d9bd 143b 423a 5eb3 9d3c
000002a0: fb80 01be 5929 8f3e d9ce cfbe 5610 36be
000002b0: 5f7f d4be e4dd afbd a0a4 99be 4630 cb3d
000002c0: e8bd 00bf fbd5 89be 856d ac3e 9746 57be
000002d0: 80ec 79be 5ae8 b3be cac1 073f 1fde b33d
000002e0: 6326 94bd 3f57 abbe 6e61 cebd 698a 98be
000002f0: 8724 a2be c3ea 1abe e598 a3bd c8bf dd3d
00000300: 5a4e 383e 1e99 ba3d f335 ca3b 018a cb3b
00000310: 4063 b13d 2631 0e3e a652 38be a82d 983e
00000320: ef6b b13e 18ff 63bd 2c80 b03e f67a f3bd
00000330: 7ef8 623e c1b6 06be 2798 45bd 821e 01bd
00000340: 2bdd 1a3e 54a6 733d 9d6c 28be 6c12 eb3d
00000350: f10c 9e3e 1b93 213d 64cd b9be 7989 053f
00000360: 8c82 93be d287 77be 56fd 8fbe 19d2 40bd
00000370: 8913 f23e ecad b8be ac80 cbbd f248 0a3d
00000380: 3678 3a3d 480f 97be 95f7 163d 3acf d4bc
00000390: 8be0 423e 17c1 81bd d129 4cbd fdea 09be
000003a0: a994 40be a0bf 073f 8079 ab3e 765e 1fbe
000003b0: d800 3a3f 6361 9a3e 3c19 823e e303 99bd
000003c0: 30ac db3e 20ab 84be 21f8 b1bb 5a3e e2be
000003d0: 1acf a93c 19b5 d2be 1e6c b33d bc06 963e
000003e0: c42c bfbe afb3 133e 13fc 17bd 0773 893d
000003f0: 2bad 40be 8aa1 b7be ad17 bcbe 0e5b 81be

Actor.mean_fc3.bias f4 [17]
-0.075292245 0.16775554 0.17451607 0.024806896 -0.04314383 -0.14240856 0.15618025 0.11470861
0.055527143 0.08591715 0.0009983324 -0.056662496 0.08536307 0.10658297 0.09032048 0.016708422
-0.06244557
00000000: d232 9abd 1cc8 2b3e 57b4 323e d537 cb3c
00000010: 96b7 30bd 8dd3 11be b7ed 1f3e 59ec ea3d
00000020: 6e70 633d 55f5 af3d 7ada 823a ef16 68bd
00000030: d5d2 ae3d 2c48 da3d f2f9 b83d 1ae0 883c
00000040: edc6 7fbd

Actor.log_std_fc3.weight f4 [17, 32]
-0.07555256 0.024500357 0.10525644 0.100898296 0.2162653 0.07296633 0.467452 0.25123703
0.22167023 -0.17551523 0.24223188 0.0102363005 -0.3671212 0.31352755 0.12802264 0.17028017
0.16875906 -0.25003642 -0.38960165 -0.008953882 -0.18353252 -0.26034805 0.29079756 0.024006367
-0.21603775 -0.15604928 -0.3599839 -0.60553586 0.21993569 -0.2666106 -0.3764968 -0.13712019
0.105447955 -0.62638175 -0.340242 0.06814641 -0.6199001 0.19945829 0.00038826696 0.026813611
-0.9286982 -0.8671792 -0.4264393 -0.49391282 0.0033496334 0.27209082 0.08461166 -0.24294475
-0.058088742 -0.59638304 -0.19759907 0.4411446 0.119631976 -0.09003302 -0.4302318 -0.15006219
0.2995024 -0.33691493 -0.08042004 0.50643003 -0.08873819 0.065514065 -0.000542304 -0.111721866
-0.36388004 -0.038139038 -0.50056195 0.26451546 -0.42558163 -0.40110987 -0.025541957 -0.09320623
-0.42393267 -0.22566956 0.4056174 0.05509357 0.19036582 0.1605875 0.36443818 -0.495408
-0.50037086 0.44015595 -0.3106824 0.3153033 -0.08635882 0.009750278 -0.0089215 -0.23570214
-0.49507192 -0.060194813 -0.6996391 0.29171655 0.12674427 0.03393113 -0.44568425 -0.22066301
-0.43071917 0.10176367 0.064547 0.31429422 -0.23747621 0.09059508 -0.35191184 -0.37892604
-0.34599632 0.15295964 0.4216748 -0.21398927 0.05372311 0.06262427 0.056238927 -0.38409755
0.07612432 0.15049985 0.25821212 -0.08220219 0.271137 -0.19129933 -0.1252754 4.3163753e-05
-0.13480267 -0.21713176 -0.66368663 -0.056645002 -0.052175026 -0.29684567 0.057196505 -0.5286929
-0.27557394 -0.34537432 -0.2810043 -0.14526565 -0.11369023 0.23253295 -0.4186259 -0.122147955
0.12627684 -0.5564084 0.27027655 0.08363557 0.07586196 -0.25937912 0.3535853 -0.3804196
0.12037794 -0.12974417 0.01568031 0.35716507 0.48526138 -0.24860598 -0.42571917 -0.74355423
-0.26000455 -0.18358867 -0.007751627 -0.07928102 0.023845786 -0.22675286 -0.10748309 0.03947838
-0.12320309 0.19560717 -0.13828105 0.33125514 0.40756887 -0.18964583 -0.21514547 -0.0014362001
-0.014484715 -0.12501802 0.053863596 0.17031741 0.015425069 0.26317614 0.0071576335 0.47511637
0.12295867 0.36883765 -0.63097644 0.09583848 0.76039416 0.54102355 0.2294699 -0.15740044
0.08564245 0.11021121 -0.32839683 -0.18559153 0.12542331 0.19502735 0.083802246 -0.13745673
-0.11489387 -0.4551875 -0.11400769 -0.2127148 0.07828379 0.69438374 0.11655751 -0.033377167
-0.0421784 0.0344378 0.10931519 -0.0882467 0.22604546 -0.2985081 -0.38300824 -0.45606592
0.04482232 -0.09867326 -0.04704965 -0.4922538 -0.124706455 -0.26596218 0.15508847 -0.38688406
0.4210902 -0.1641744 -0.096186064 0.054953508 -0.4138752 0.3470133 -0.10100447 -0.21239024
-0.25704047 -0.4918901 -0.3702905 -0.13973184 -0.37804908 0.06432411 -0.14167978 -0.8154897
-0.42426044 -0.078448795 -0.060779314 -0.4441469 0.3665871 0.16181035 -0.91846627 -0.18854472
-0.7496592 -0.28878206 0.1866416 -0.083601736 0.40941298 -0.31209746 -0.22662984 0.0107280295
0.29105595 -0.010927537 -0.1675462 0.12943023 0.13028477 0.5045651 -0.1012367 -0.1173258
00000000: 4dbb 9abd f9b4 c83c b090 d73d c4a3 ce3d
00000010: a774 5d3e 5f6f 953d de55 ef3e 24a2 803e
00000020: 85fd 623e 44ba 33be a20b 783e 28b6 273c
00000030: 4ff7 bbbe af86 a03e 5e18 033e ed5d 2e3e
00000040: 2dcf 2c3e c604 80be de79 c7be 4eb3 12bc
00000050: f3ef 3bbe 574c 85be 6be3 943e 00a9 c43c
00000060: 0039 5dbe 62cb 1fbe cf4f b8be 6604 1bbf
00000070: d236 613e 2f81 88be 30c4 c0be 3c69 0cbe
00000080: 19f5 d73d 8e5a 20bf 3334 aebe 5890 8b3d
00000090: c6b1 1ebf cb3e 4c3e 4f90 cb39 38a8 db3c
000000a0: 2abf 6dbf 75ff 5dbf 4056 dabe 24e2 fcbe
000000b0: 8685 5b3b 7d4f 8b3e e148 ad3d 82c6 78be
000000c0: 76ee 6dbd 8fac 18bf 6957 4abe b4dd e13e
000000d0: 9c01 f53d 3b63 b8bd 5847 dcbe e7a9 19be
000000e0: 6158 993e 1d80 acbe 43b3 a4bd 66a5 013f
000000f0: 5ebc b5bd 3d2c 863d 6829 0eba 6fce e4bd
00000100: 7c4e babe ae37 1cbd d424 00bf 926e 873e
00000110: d6e5 d9be 465e cdbe 5e3d d1bc e8e2 bebd
00000120: b40d d9be ec15 67be 15ad cf3e cca9 613d
00000130: 42ef 423e 0d71 243e a497 ba3e 1ea6 fdbe
00000140: 4e18 00bf 1f5c e13e c311 9fbe 6f6f a13e
00000150: e5dc b0bd a1bf 1f3c 7c2b 12bc e75b 71be
00000160: 117a fdbe d68e 76bd 8c1b 33bf df5b 953e
00000170: 40c9 013e 5efb 0a3d ba30 e4be 7cf5 61be
00000180: 3987 dcbe 7969 d03d 3831 843d 2ceb a03e
00000190: f72c 73be ea89 b93d ca2d b4be 9802 c2be
000001a0: 6e26 b1be 74a1 1c3e c2e5 d73e 0120 5bbe
000001b0: c40c 5c3d 2741 803d ca5a 663d 6fa8 c4be
000001c0: 11e7 9b3d a21c 1a3e 6134 843e 9f59 a8bd
000001d0: 78d2 8a3e f9e3 43be 3248 00be ba0a 3538
000001e0: b609 0abe ca57 5ebe 5ee7 29bf 9704 68bd
000001f0: 7bb5 55bd 28fc 97be e246 6a3d 6b58 07bf
00000200: 0718 8dbe e7d4 b0be ccdf 8fbe 85c0 14be
00000210: 6cd6 e8bd 1e1d 6e3e 2256 d6be b528 fabd
00000220: b74e 013e c870 0ebf b061 8a3e 2049 ab3d
00000230: 845d 9b3d 57cd 84be 2209 b53e 5cc6 c2be
00000240: b688 f63d a8db 04be fe73 803c 57de b63e
00000250: 2e74 f83e 9192 7ebe ddf7 d9be 9259 3ebf
00000260: 511f 85be abfe 3bbe 5c01 febb 165e a2bd
00000270: 3d58 c33c e731 68be 1820 dcbd 15b4 213d
00000280: e751 fcbd 3f4d 483e 8c99 0dbe 469a a93e
00000290: deac d03e 8432 42be 184f 5cbe e13e bcba
000002a0: 4c51 6dbc b904 00be 13a0 5c3d b067 2e3e
000002b0: 6eb9 7c3c 06bf 863e 958a ea3b 7442 f33e
000002c0: c1d1 fb3d 4ad8 bc3e ac87 21bf f746 c43d
000002d0: 31a9 423f 8580 0a3f 28fa 6a3e 952d 21be
000002e0: 4f65 af3d 6ab6 e13d a123 a8be b50b 3ebe
000002f0: f86e 003e 40b5 473e 83a0 ab3d 75c1 0cbe
00000300: 7a4d ebbd 560e e9be dd7c e9bd e9d1 59be
00000310: 4053 a03d 22c3 313f b4b5 ee3d 7fb6 08bd
00000320: 42c3 2cbd a70e 0d3d a4e0 df3d b0ba b4bd
00000330: 7678 673e 0ed6 98be a819 c4be 7981 e9be
00000340: 9c97 373d 3515 cabd 22b7 40bd b108 fcbe
00000350: 1966 ffbd 322c 88be 83cf 1e3e ab15 c6be
00000360: 2299 d73e 551d 28be 33fd c4bd ee16 613d
00000370: 73e7 d3be baab b13e 6edb cebd d47c 59be
00000380: cf9a 83be 05d9 fbbe b796 bdbe dd15 0fbe
00000390: a68f c1be 5cbc 833d 8114 11be efc3 50bf
000003a0: aa38 d9be c3a9 a0bd bbf3 78bd 3967 e3be
000003b0: 4eb1 bb3e 9db1 253e 9b20 6bbf de11 41be
000003c0: aae9 3fbf 3edb 93be fa1e 3f3e 6337 abbd
000003d0: 949e d13e 3dcb 9fbe a711 68be 9ec4 2f3c
000003e0: 4905 953e 6a09 33bc 3b91 2bbe 5c89 043e
000003f0: 5f69 053e 2e2b 013f 3055 cfbd 8248 f0bd

Actor.log_std_fc3.bias f4 [17]
-13.8032255 -13.803158 -13.803158 -13.801341 -13.803223 -13.803158 -13.803158 -13.803224
-13.803223 -13.803224 -13.801565 -13.803223 -13.803224 -13.8032255 -13.8032255 -13.801341
-13.803223
00000000: 03da 5cc1 bcd9 5cc1 bcd9 5cc1 4bd2 5cc1
00000010: 00da 5cc1 bcd9 5cc1 bcd9 5cc1 01da 5cc1
00000020: 00da 5cc1 01da 5cc1 36d3 5cc1 00da 5cc1
00000030: 01da 5cc1 03da 5cc1 03da 5cc1 4bd2 5cc1
00000040: 00da 5cc1

Critic.fc1.weight f4 [32, 378]
-0.19065064 -0.3642681 -0.1673533 -0.21669641 0.22069989 -0.049294412 0.5016215 0.019383395
-0.07572669 -0.25045043 0.24006952 -0.394564 0.2079288 0.08041283 0.14809518 -0.43162006
0.16867198 0.09888044 -0.30327383 0.07712129 0.17640881 -0.14305341 -0.06342317 -0.07987918
-0.4777289 -0.25646442 0.13618484 0.05180943 0.028713726 -0.13038372 -0.08705968 -0.050963666
-0.016386626 0.22202459 -0.011376993 0.01744431 -0.17101556 0.5180963 -0.2041888 0.015248165
0.097864546 0.07243173 0.16971098 -0.069485724 0.0165347 0.11836374 0.09428956 0.043412503
0.023078403 -0.04327763 0.043295313 0.05061612 0.026652163 -0.019515457 0.030797228 -0.013544049
1.6910579e-05 -0.21949176 -0.25416914 -0.29692066 0.1398225 -0.026646353 0.31749862 -0.011999288
-0.4078226 -0.22160067 -0.19775967 -0.31776884 -0.32576925 -0.34130132 0.04700237 -0.27183723
0.004633344 0.24288286 -0.06586114 -0.3115843 -0.17000544 -0.23693065 -0.38381782 -0.30840796
0.08526789 -0.31730855 -0.19597453 0.37545523 0.044623967 -0.21908869 -0.19695011 -0.14679495
-0.15814967 -0.2075872 0.12750229 0.03530858 0.12371413 0.19388224 0.17772894 0.16805995
-0.17472552 -0.23604229 -0.18888383 -0.17644635 -0.055262275 -0.1353586 0.25288236 -0.16778322
0.20878008 0.24625741 -0.19765332 -0.18379271 -0.22045259 -0.22411449 -0.1990526 -0.060772005
0.29436067 -0.17595305 0.31660122 0.19583648 -0.16727032 -0.115095675 -0.1053677 -0.13655041
-0.011879789 -0.00700916 -0.06733371 0.0732615 -0.08095908 0.19326375 -0.25865352 -0.34086144
-0.33493286 -0.09887434 0.0034605863 0.2083569 -0.126813 0.1221771 -0.08039619 0.23653907
-0.25395605 -0.42131752 -0.3281607 -0.15517029 -0.17662022 0.31142753 -0.28904712 0.09603543
-0.18556589 0.42902228 -0.21661419 -0.2362814 -0.2642352 -0.19800037 -0.24564736 -0.034879074
-0.15262833 0.11658717 0.17915343 -0.22046441 -0.21250044 -0.21666124 -0.20343725 -0.17925262
-0.11154044 0.14790818 -0.1624977 -0.116831645 0.19408576 -0.1793273 -0.20270772 -0.2167315
-0.2144069 -0.20993572 0.38703817 0.43200946 0.17804426 -0.5210724 -0.14530307 -0.23266332
-0.21083863 -0.083132654 -0.18013816 -0.11358854 0.107858114 0.11091866 0.05336652 -0.19315016
-0.080823205 -0.18277028 -0.24155788 0.030964084 -0.034170296 0.013612832 -0.041472573 -0.025933377
0.020920722 0.14341143 0.029986745 -0.1182841 0.023293281 0.061573453 0.051528286 0.17513308
-0.17118485 -0.023708839 0.06692699 0.11212017 0.1303668 0.25720012 -0.32252696 -0.069326125
0.13653105 0.1041571 0.1398389 0.14326635 -0.023679262 -0.13772929 0.05335975 0.050531846
0.09471787 0.41796303 0.18091679 -0.08309777 0.06734849 -0.035379767 0.17390835 0.41812405
0.19676226 -0.14004071 0.044872995 -0.030751292 0.23056212 -0.003861088 0.0016598435 0.2505787
0.3047552 0.108357266 0.10564116 -0.016267162 0.058979463 0.24330918 0.028935228 0.11288923
-0.022988895 -0.060327303 -0.019619219 0.27467158 0.040223207 0.14654998 -0.005436635 0.22411904
-0.3146528 0.34604028 0.2504267 0.29330257 0.111622915 0.30509222 -0.04450866 0.1712725
00000000: ec39 43be 5981 babe aa5e 2bbe aae5 5dbe
00000010: 27ff 613e f0e8 49bd 446a 003f edc9 9e3c
00000020: 9816 9bbd 0a3b 80be c9d4 753e 4b04 cabe
00000030: 4aeb 543e 7baf a43d 43a6 173e 4efd dcbe
00000040: 59b8 2c3e d481 ca3d b546 9bbe c4f1 9d3d
00000050: 83a4 343e 987c 12be 02e4 81bd b297 a3bd
00000060: e298 f4be 4e4f 83be 0a74 0b3e 2036 543d
00000070: 0c39 eb3c 4f83 05be 584c b2bd 47bf 50bd
00000080: 3f3d 86bc 6a5a 633e 9166 3abc 5fe7 8e3c
00000090: b41e 2fbe f6a1 043f de16 51be 70d3 793c
000000a0: 356d c83d 1657 943d b7c8 2d3e 884e 8ebd
000000b0: c773 873c b068 f23d e31a c13d 4fd1 313d
000000c0: eb0e bd3c e243 31bd 6d56 313d d952 4f3d
000000d0: a355 da3c e1de 9fbc 784a fc3c dce7 5dbc
000000e0: 31db 8d37 73c2 60be 7522 82be fc05 98be
000000f0: a12d 0f3e 7449 dabc 2e8f a23e a998 44bc
00000100: 20ce d0be 49eb 62be 8381 4abe 99b2 a2be
00000110: 3acb a6be 0cbf aebe 8f85 403d 402e 8bbe
00000120: 4ed3 973b 49b6 783e 35e2 86bd fa87 9fbe
00000130: e815 2ebe f39d 72be c583 c4be a6e7 9dbe
00000140: eea0 ae3d 4476 a2be 8cad 48be ab3b c03e
00000150: 9fc7 363d c958 60be 4aad 49be 6a51 16be
00000160: fdf1 21be bd91 54be f68f 023e bb9f 103d
00000170: d55d fd3d 1189 463e 93fe 353e e817 2c3e
00000180: 3feb 32be 12b5 71be c36a 41be 5aae 34be
00000190: b25a 62bd 729b 0abe cc79 813e 5dcf 2bbe
000001a0: 72ca 553e e72a 7c3e a265 4abe 2834 3cbe
000001b0: 53be 61be 457e 65be 72d4 4bbe 11ec 78bd
000001c0: 71b6 963e 092d 34be 8e19 a23e 5c89 483e
000001d0: e948 2bbe 48b7 ebbd 05cb d7bd dfd3 0bbe
000001e0: 72a3 42bc 18ad e5bb 42e6 89bd 200a 963d
000001f0: e0cd a5bd efe6 453e 3c6e 84be 6485 aebe
00000200: 527c abbe a17e cabd 01cb 623b 835b 553e
00000210: 44db 01be fd37 fa3d c2a6 a4bd 4c37 723e
00000220: 8706 82be eeb6 d7be ae04 a8be f6e4 1ebe
00000230: eedb 34be 6e73 9f3e fcfd 93be 39ae c43d
00000240: fc04 3ebe cfa8 db3e 1cd0 5dbe c0f3 71be
00000250: d649 87be 9cc0 4abe fb8a 7bbe 5cdd 0ebd
00000260: 9a4a 1cbe 41c5 ee3d ff73 373e 6cc1 61be
00000270: b799 59be 72dc 5dbe db51 50be 008e 37be
00000280: 506f e4bd 3e75 173e cc65 26be 6e45 efbd
00000290: 6bbe 463e 93a1 37be 9d92 4fbe ddee 5dbe
000002a0: 7b8d 5bbe 64f9 56be de29 c63e 5830 dd3e
000002b0: 3c51 363e 0065 05bf 54ca 14be 4b3f 6ebe
000002c0: 15e6 57be 7441 aabd 2376 38be 1ca1 e8bd
000002d0: b7e4 dc3d 5329 e33d da96 5a3d 28c9 45be
000002e0: a386 a5bd 2228 3bbe f35a 77be 64a8 fd3c
000002f0: 27f6 0bbd 5b08 5f3c 25df 29bd 3c72 d4bc
00000300: ef61 ab3c 72da 123e c3a6 f53c ef3e f2bd
00000310: 8dd1 be3c 7234 7c3d 530f 533d 1656 333e
00000320: 154b 2fbe 0a39 c2bc 0511 893d 429f e53d
00000330: e07e 053e bcaf 833e 4122 a5be dbfa 8dbd
00000340: ccce 0b3e 5150 d53d ee31 0f3e 6ab4 123e
00000350: 03fb c1bc e808 0dbe c18f 5a3d 7bfa 4e3d
00000360: 71fb c13d 40ff d53e 4042 393e 2a2f aabd
00000370: 01ee 893d 60ea 10bd 0815 323e 5b14 d63e
00000380: 0c7c 493e d566 0fbe bfcc 373d 22ea fbbc
00000390: 7a18 6c3e 4f0a 7dbb 1b8f d93a da4b 803e
000003a0: e008 9c3e 6aea dd3d 645a d83d b642 85bc
000003b0: 7394 713d 0b26 793e 9209 ed3c 7832 e73d
000003c0: 3553 bcbc c319 77bd 7cb8 a0bc c1a1 8c3e
000003d0: 17c1 243d 3311 163e cd25 b2bb 767f 653e
000003e0: 2c1a a1be 312c b13e ee37 803e c12b 963e
000003f0: 8e9a e43d 0c35 9c3e b64e 36bd 0f62 2f3e

Critic.fc1.bias f4 [32]
-0.23796567 -0.1573506 -0.01258704 -0.09711155 -0.063473366 -0.20886035 -0.0954203 -0.15967077
-0.11801578 -0.21027581 -0.24187487 -0.09061625 -0.039550103 -0.09635909 0.028474025 -0.15878242
-0.0030062178 1.5113481 -0.20836657 -0.031012885 0.051752355 -0.07448899 -0.04348567 -0.26445562
-0.08236296 -0.1723849 -0.017961897 -0.10332498 -0.114562504 -0.10469155 -0.29838327 0.11381826
00000000: 46ad 73be 8420 21be df39 4ebc 6ce2 c6bd
00000010: 53fe 81bd 7ddf 55be b86b c3bd bc80 23be
00000020: 42b2 f1bd 8b52 57be 0cae 77be 0395 b9bd
00000030: 4aff 21bd ea57 c5bd 5c42 e93c dc97 22be
00000040: f703 45bb db73 c13f 0c5e 55be bc0e febc
00000050: 47fa 533d af8d 98bd 081e 32bd ba66 87be
00000060: e9ad a8bd ab85 30be d424 93bc 0c9c d3bd
00000070: bf9f eabd 8668 d6bd b1c5 98be 8c19 e93d

Critic.fc2.weight f4 [32, 32]
0.17245463 -0.109718226 0.057232093 0.11573631 -0.037714697 0.037391078 -0.1755196 -0.13516866
-0.235793 -0.093265116 0.080340676 -0.19661269 0.04155269 0.048223034 -0.32795775 -0.026287038
-0.030805686 -0.31577966 0.12261825 -0.113182135 -0.11888188 -0.007358291 -0.1304865 0.14734234
-0.40613675 -0.045114648 0.16203523 -0.04295394 -0.057186596 -0.1470327 -0.121099435 -0.025487112
-0.057179127 0.049968842 0.0009340053 0.07463038 -0.21704094 -0.018435571 -0.094132155 -0.1642699
0.042117935 -0.17023508 -0.04225742 0.038534272 0.02147069 0.02117306 0.008036887 -0.054277685
0.011483834 0.14675507 0.15019952 0.18236837 0.025617925 -0.048721388 0.0750785 -0.09316059
-0.12460466 -0.11014555 0.04956114 -0.069814555 -0.053575918 -0.17425545 -0.044196874 -0.12266198
-0.07247135 -0.012383113 0.0034289933 -0.069757916 -0.17498176 0.035959534 -0.076516666 -0.0694143
0.027427724 -0.07809721 -0.12744945 0.21758765 -0.049626198 0.07714787 -0.23421027 0.017474836
0.16543423 -0.01009175 0.05809955 0.102453396 -0.099083975 0.015792994 -0.072543494 0.112279505
-0.15927641 0.07460294 -0.025451252 -0.060649533 1.2476839e-05 -0.0817188 0.054583136 -0.14564604
-0.10415973 0.08082038 -0.11469961 -0.1793725 0.008065253 -0.06515761 0.06930924 -0.17152761
0.030259077 -0.053196494 -0.07199726 0.044232883 -0.22975223 -0.10653646 -0.25668317 0.065970466
-0.04207356 -0.18914272 -0.09606934 -0.028891588 -0.011258738 -0.13277628 0.12933351 0.10125553
0.14338171 -0.029324735 0.08411107 0.017150661 0.049126707 -0.030282145 0.18318069 0.07214843
-0.19861642 -0.08823285 -0.10400595 0.114909224 -0.20739618 -0.026949884 -0.2835713 -0.042442586
0.040110007 -0.20257264 -0.05654802 -0.066919826 0.044032328 0.12614757 -0.09677143 -0.029890586
-0.042953912 -0.22477421 -0.004108988 -0.18101299 0.07512493 -0.110333435 -0.27226704 -0.10549099
-0.12471248 -0.024459798 -0.1555376 -0.18180414 -0.15471555 -0.04617813 -0.085488066 0.033729784
0.1367067 -0.06881756 0.11255169 0.18777898 0.037502747 -0.056807056 0.027947398 0.0213346
0.06698503 -0.032402944 0.058292624 0.023574691 0.027612729 0.12516052 -0.42332208 -0.061917465
-0.024659906 -0.2728818 0.13324934 0.18939169 -0.10344414 0.05287452 -0.01877052 -0.0632978
0.075349815 0.07630584 0.04777675 0.15149412 -0.058242645 0.001937087 -0.06479485 -0.17783171
-0.1349541 -0.14804484 -0.22401218 -0.17160143 -0.016829422 0.050004225 0.04386943 0.045301933
-0.11189399 -0.12841472 0.09088814 -0.04373318 -0.1490398 -0.07500616 -0.44235674 -0.08849898
-0.0468145 -0.18400234 -0.13749228 -0.05153954 -0.06997318 -0.17926838 0.037533835 -0.18591906
-0.13785349 -0.53257746 -0.3317084 -0.20756966 -0.007947812 -0.3590872 -0.08772658 -0.06311455
-0.14616199 -0.15690017 -0.11792463 -0.3030905 -0.122343935 -0.3695389 0.3397832 -0.013801431
-0.2738833 0.1856376 -0.22114597 -0.19075723 -0.38585383 -0.4158023 -0.20845023 0.012922129
-0.05668656 -0.3536145 0.14228308 -0.28921542 0.010356513 0.05049671 0.019361172 0.007997606
-0.15105759 -0.2282674 -0.3069277 -0.27879938 -0.070082106 -0.26794142 -0.028525412 0.0018075996
00000000: f297 303e f3b3 e0bd 336c 6a3d 2907 ed3d
00000010: ba7a 1abd 6327 193d 69bb 33be a769 0abe
00000020: b873 71be c801 bfbd a789 a43d d654 49be
00000030: 2733 2a3d 8485 453d 14ea a7be ea57 d7bc
00000040: 355c fcbc dfad a1be 471f fb3d 09cc e7bd
00000050: 5878 f3bd d21d f1bb 419e 05be e9e0 163e
00000060: 28f1 cfbe 23ca 38bd 90ec 253e 78f0 2fbd
00000070: 7e3c 6abd bd8f 16be fb02 f8bd 59ca d0bc
00000080: a934 6abd 21ac 4c3d 09d8 743a d0d7 983d
00000090: fb3f 5ebe 3206 97bc 5cc8 c0bd 5e36 28be
000000a0: db83 2c3d 1b52 2ebe 1e16 2dbd 1dd6 1d3d
000000b0: 4de3 af3c 2073 ad3c 26ad 033c 4752 5ebd
000000c0: b126 3c3c f646 163e e7cd 193e c6be 3a3e
000000d0: afdc d13c 1490 47bd c2c2 993d fbca bebd
000000e0: ba30 ffbd fd93 e1bd 9f00 4b3d effa 8ebd
000000f0: 6c72 5bbd 0570 32be c807 35bd 3436 fbbd
00000100: dc6b 94bd 8ae2 4abc f6b8 603b 3ddd 8ebd
00000110: 6b2e 33be 4e4a 133d c5b4 9cbd 1629 8ebd
00000120: 1bb0 e03c 6ef1 9fbd 1c82 02be 4ccf 5e3e
00000130: d744 4bbd b4ff 9d3d d1d4 6fbe 6327 8f3c
00000140: 9767 293e de57 25bc cbf9 6d3d 16d3 d13d
00000150: 8aec cabd 4f60 813c af91 94bd ccf2 e53d
00000160: 5b19 23be 6dc9 983d 257f d0bc a56b 78bd
00000170: 9e53 5137 305c a7bd 9192 5f3d 3c24 15be
00000180: b251 d5bd 2885 a53d a1e7 eabd 6dad 37be
00000190: 1f24 043c 5a71 85bd 01f2 8d3d efa4 2fbe
000001a0: e2e1 f73c 91e4 59bd 4d73 93bd 8a2d 353d
000001b0: 2b44 6bbe ca2f dabd fa6b 83be 861b 873d
000001c0: 5355 2cbd a1ae 41be 01c0 c4bd 0dae ecbc
000001d0: 9276 38bc 81f6 07be 0170 043e 0f5f cf3d
000001e0: a8d2 123e 6d3a f0bc 6d42 ac3d 8b7f 8c3c
000001f0: 1639 493d 4312 f8bc b893 3b3e 8ec2 933d
00000200: 1a62 4bbe 6db3 b4bd 1201 d5bd 8755 eb3d
00000210: aa5f 54be 01c6 dcbc 4230 91be 47d8 2dbd
00000220: 644a 243d 346f 4fbe e69e 67bd 430d 89bd
00000230: 3e5b 343d d42c 013e 1930 c6bd 1add f4bc
00000240: 71f0 2fbd 362b 66be b1a4 86bb 785b 39be
00000250: 19db 993d 7ff6 e1bd 9666 8bbe a90b d8bd
00000260: 4269 ffbd ea5f c8bc 4045 1fbe dd2a 3abe
00000270: c16d 1ebe 4725 3dbd 5e14 afbd 3e28 0a3d
00000280: d7fc 0b3e 39f0 8cbd 8081 e63d 2249 403e
00000290: 7b9c 193d 84ae 68bd f1f1 e43c e6c5 ae3c
000002a0: 732f 893d f3b8 04bd 3fc4 6e3d b61f c13c
000002b0: 1734 e23c 142a 003e acbd d8be 2b9d 7dbd
000002c0: 9203 cabc 2ab7 8bbe 8472 083e e5ef 413e
000002d0: 85da d3bd f492 583d a2c4 99bc 47a2 81bd
000002e0: 0151 9a3d 3c46 9c3d 8eb1 433d 4621 1b3e
000002f0: d78f 6ebd dbe5 fd3a 2ab3 84bd 8419 36be
00000300: 6831 0abe 1199 17be 7363 65be 49b8 2fbe
00000310: dbdd 89bc 3bd1 4c3d 6eb0 333d 858e 393d
00000320: ad28 e5bd 267f 03be 9023 ba3d 9021 33bd
00000330: e49d 18be d49c 99bd 957c e2be f43e b5bd
00000340: 90c0 3fbd 1c6b 3cbe c7ca 0cbe 201b 53bd
00000350: 194e 8fbd 2192 37be 14bd 193d 9161 3ebe
00000360: 7729 0dbe ff56 08bf afd5 a9be 248d 54be
00000370: 8a37 02bc 47da b7be fea9 b3bd 3442 81bd
00000380: 7dab 15be 70aa 20be 7882 f1bd ae2e 9bbe
00000390: 758f fabd 3434 bdbe 10f8 ad3e 661f 62bc
000003a0: 6f3a 8cbe c817 3e3e 1774 62be dd55 43be
000003b0: a28e c5be 0ae4 d4be fa73 55be 56b7 533c
000003c0: 2b30 68bd f60c b5be a8b2 113e 0b14 94be
000003d0: 5dae 293c a3d5 4e3d 529b 9e3c 6408 033c
000003e0: d7ae 1abe eebe 69be a125 9dbe cbbe 8ebe
000003f0: 3587 8fbd 9e2f 89be 20ae e9bc faec ec3a

Critic.fc2.bias f4 [32]
-0.3033359 1.2316917 -0.07640685 -0.041181784 -0.16719681 -1.5423183 0.030805044 -0.43100628
0.50097686 -0.21249592 0.39065143 -0.25781947 -0.5122969 -0.5801412 -0.17677182 0.023996381
0.30570233 -0.22005996 0.21704116 -0.046848103 0.75630546 0.48383066 0.72440255 0.012013025
-0.26830092 -0.1521753 -0.36147672 -0.34429866 -0.2837567 0.10921822 -0.15076037 0.5133976
00000000: d84e 9bbe 13a8 9d3f 327b 9cbd 3bae 28bd
00000010: a435 2bbe b06a c5bf dc5a fc3c dbac dcbe
00000020: 0540 003f 8898 59be 7703 c83e ea00 84be
00000030: e425 03bf 2284 14bf ac03 35be 0f94 c43c
00000040: 0485 9c3e 6657 61be 0a40 5e3e cce3 3fbd
00000050: 3c9d 413f a7b8 f73e 7272 393f 47d2 443c
00000060: bd5e 89be d8d3 1bbe 7a13 b9be ea47 b0be
00000070: 8f48 91be cdad df3d ed60 1abe 066e 033f

Critic.fc3.weight f4 [1, 32]
-0.059747495 0.095076844 -0.017827338 0.0038468791 -0.041633125 -0.110885836 0.027044728 0.26063186
-0.0030008904 -0.16341317 -0.13419965 -0.023436632 -0.08712149 0.020794138 -0.040314898 -0.16815935
5.2204054e-05 -0.039909612 -0.01753799 0.03705476 0.00086267065 -0.013176183 0.054265745 -0.21236739
-0.094209 -0.044997446 -0.037445843 0.04010132 0.1091883 -0.033523064 -0.0038615668 0.0152333835
00000000: cab9 74bd a6b7 c23d a30a 92bc ec1b 7c3b
00000010: 7f87 2abd 1d18 e3bd e88c dd3c 8a71 853e
00000020: 96aa 44bb c855 27be a26b 09be 2efe bfbc
00000030: c06c b2bd 7858 aa3c 3c21 25bd f731 2cbe
00000040: adf5 5a38 4378 23bd d5ab 8fbc bbc6 173d
00000050: d924 623a ebe0 57bc c245 5e3d d676 59be
00000060: a6f0 c0bd 3e4f 38bd d060 19bd 4841 243d
00000070: 1e9e df3d 7b4f 09bd 5712 7dbb 7195 793c
